results/raytrainingsmaller/PlayerAgent/PlayerAgent-7596.onnx (onnx, 546771 bytes, 11 tensors)

discrete_act_size_vector f4 [1, 2]
3.0 2.0
00000000: 0000 4040 0000 0040

network_body._body_endoder.seq_layers.0.weight f4 [256, 6]
-0.21847321 -0.401178 -0.09296797 -0.58203274 -0.36568365 0.88314474 -0.069432214 0.07100222
-0.23541433 0.014735024 -0.19382602 0.7583875 0.025664173 -0.55282533 -0.61507505 0.140349
0.111215875 -0.12947491 0.12560019 -0.12197183 0.3329502 -0.14875612 -0.21109153 -0.14344253
0.031272657 0.31486854 -0.19374101 0.3769147 -0.6030974 0.12434252 0.9503136 0.21461396
-0.025440697 0.4972611 -0.2953569 -0.30686095 0.13409583 -0.7382812 -0.5015036 -0.3994946
0.06720341 -0.027394028 0.15509652 0.030168861 0.20872684 -0.04644259 -0.26367062 -0.31721854
0.3532112 -0.29493684 -0.08430281 0.7284851 0.39898822 -0.111435115 0.14696677 0.05495483
0.3318223 -0.12323454 0.03416428 -0.23665799 -0.15174434 0.27351135 0.25214997 -0.2718809
-0.5103604 0.27973545 -0.18807386 -0.58269733 0.15949139 -0.044148427 1.0321677 0.11561272
-0.5070003 -0.3375028 0.29326266 -0.682312 -0.12499845 0.45537838 -0.27502468 0.4281996
0.28547975 -0.6889941 -0.6656569 0.74184567 -0.12668696 -0.72529835 -0.52275276 0.2973066
0.17084786 0.056291435 -0.16727263 0.26385334 0.24010412 -0.31669688 0.82096 0.010976472
-0.2043618 0.23775733 -0.24908759 -0.06407705 -0.2627152 -0.45856765 0.56122553 0.82589096
-0.098865554 0.26685405 -0.5319878 -0.25110608 0.36999935 0.3245179 0.58270615 -0.12757733
0.19581898 0.2327351 -0.15064444 0.4279109 -0.48000073 0.118246555 0.25699863 1.2759099
-0.63202626 -0.1276845 -0.17606434 -0.28648287 -0.40665236 0.12861033 -0.83828664 0.26071456
-0.25877416 -0.36652374 0.39145538 0.271651 0.31498313 -0.1336082 0.33663365 0.48142242
0.29430923 -0.24279293 0.40480483 0.5866091 0.02744347 -0.4141529 0.33905512 -0.39057302
-0.970825 0.15557915 -0.19714995 -0.34800503 -0.3179638 0.048999213 0.13805518 0.6609988
0.37236214 1.3735844 -0.4649853 0.50776684 0.84185743 -0.42847595 0.5186176 -0.3896548
0.22229591 0.40296102 0.5679712 -0.42007455 0.15316872 -0.056762014 -0.21704653 0.16005181
0.2997589 0.10099923 -0.15332244 -0.6517172 0.07086036 -0.44113275 -0.14549905 -0.74008197
0.37341166 -0.111178 -0.36357522 -0.2763569 0.3580373 -0.06895682 0.20282273 -0.44412717
-0.5399435 -0.36792594 0.33944368 -0.23831722 -0.5923882 -0.40808752 0.22539066 0.038564518
0.5249406 0.17961204 -0.3710366 0.51015365 -0.053398646 0.22916442 -0.45118296 0.44661415
-0.25608543 -0.18192057 -0.16193908 0.4094515 0.45748746 0.45282462 0.5733897 -0.05031525
0.72940755 -0.55726737 0.9045132 0.4524349 0.3530234 -0.16077062 -0.26902294 -0.19659972
-0.3968922 -0.1864541 -0.29049698 -0.38030648 -0.6878305 0.072325066 -0.050995678 -0.57353514
0.13118728 -0.46789467 0.13638467 -0.16785498 -0.18366872 -0.83847225 -0.78805304 -0.8210272
-0.4992367 -0.620134 0.46264938 0.071500845 -0.48975426 0.84361035 0.29218593 -0.18936273
-0.3519409 -0.332231 -0.74756336 -0.71501774 -0.6349362 0.06617291 -0.13366398 -0.5086076
0.08402284 -0.27017167 0.48398575 0.19608963 -0.17615373 -0.740842 0.22919042 -1.1052791
00000000: 71b7 5fbe 3467 cdbe fe65 bebd 1900 15bf
00000010: e33a bbbe c615 623f 7a32 8ebd 9d69 913d
00000020: 7410 71be 2c6b 713c 547a 46be af25 423f
00000030: ac3d d23c f685 0dbf 8f75 1dbf a6b7 0f3e
00000040: 26c5 e33d 1295 04be 569d 003e 5ecc f9bd
00000050: 7378 aa3e 8653 18be 6128 58be 99e2 12be
00000060: c217 003d 7336 a13e 0b64 46be f7fa c03e
00000070: 9764 1abf 4ba7 fe3d c147 733f c3c3 5b3e
00000080: 0269 d0bc 0299 fe3e 0539 97be e11c 9dbe
00000090: 6b50 093e ffff 3cbf 8a62 00bf 8e8a ccbe
000000a0: f1a1 893d 7169 e0bc 9fd1 1e3e b024 f73c
000000b0: 7dbc 553e 963a 3ebd d6ff 86be 786a a2be
000000c0: 19d8 b43e f601 97be f4a6 acbd 007e 3a3f
000000d0: 2f48 cc3e 1838 e4bd 757e 163e 5118 613d
000000e0: 9de4 a93e 6462 fcbd d8ef 0b3d 7956 72be
000000f0: de62 1bbe ae09 8c3e cd19 813e f933 8bbe
00000100: fba6 02bf 7c39 8f3e 6f96 40be a72b 15bf
00000110: b651 233e fbd4 34bd 121e 843f 5dc6 ec3d
00000120: c6ca 01bf 2bcd acbe 8626 963e 00ac 2ebf
00000130: 30ff ffbd 5b27 e93e 09d0 8cbe fa3c db3e
00000140: 672a 923e eb61 30bf 7e68 2abf 99e9 3d3f
00000150: 3aba 01be 27ad 39bf 20d3 05bf 9238 983e
00000160: bef2 2e3e d991 663d 8449 2bbe c917 873e
00000170: dbdd 753e 1826 a2be 6f2a 523f a9d6 333c
00000180: 3844 51be a876 733e d110 7fbe d43a 83bd
00000190: 9b82 86be 61c9 eabe 7aac 0f3f 976d 533f
000001a0: 067a cabd 18a1 883e 5a30 08bf fa90 80be
000001b0: 8e70 bd3e 3627 a63e 3b2c 153f a2a3 02be
000001c0: c584 483e 1c52 6e3e 8942 1abe 2317 db3e
000001d0: a8c2 f5be 402b f23d 5395 833e 0451 a33f
000001e0: 79cc 21bf babf 02be 364a 34be e2ad 92be
000001f0: bd34 d0be 6db2 033e f499 56bf 617c 853e
00000200: 0c7e 84be 00a9 bbbe d76c c83e d715 8b3e
00000210: 7845 a13e 97d0 08be 3f5b ac3e 007d f63e
00000220: b3af 963e b69e 78be 9442 cf3e 042c 163f
00000230: 21d1 e03c d90b d4be a298 ad3e 30f9 c7be
00000240: fd87 78bf 2450 1f3e ade1 49be b72d b2be
00000250: 27cc a2be 66b3 483d 565e 0d3e 3837 293f
00000260: 40a6 be3e 9dd1 af3f 8e12 eebe 02fd 013f
00000270: f883 573f 3361 dbbe 1fc4 043f d580 c7be
00000280: 8aa1 633e e850 ce3e 9066 113f 0314 d7be
00000290: 43d8 1c3e 497f 68bd 7241 5ebe 9fe4 233e
000002a0: 007a 993e afd8 ce3d 8f00 1dbe f0d6 26bf
000002b0: 3d1f 913d 27dc e1be b4fd 14be 0376 3dbf
000002c0: d02f bf3e 4bb1 e3bd 8826 babe a77e 8dbe
000002d0: aa50 b73e 3c39 8dbd c3b0 4f3e a364 e3be
000002e0: bd39 0abf ca60 bcbe 90cb ad3e 6e09 74be
000002f0: c1a6 17bf d9f0 d0be cfcc 663e d4f5 1d3d
00000300: 8262 063f 38ec 373e 82f8 bdbe 6e99 023f
00000310: 8ab8 5abd 14aa 6a3e 7401 e7be 9caa e43e
00000320: a11d 83be 6349 3abe 5cd3 25be a1a3 d13e
00000330: cc3b ea3e a1d8 e73e abc9 123f 5d17 4ebd
00000340: 74ba 3a3f 13a9 0ebf 2d8e 673f 8ca5 e73e
00000350: 7cbf b43e 0ea1 24be 60bd 89be 7051 49be
00000360: 7435 cbbe d3ed 3ebe 05bc 94be 88b7 c2be
00000370: a915 30bf 2a1f 943d d8e0 50bd 33d3 12bf
00000380: f555 063e e48f efbe 6ca8 0b3e 2de2 2bbe
00000390: a713 3cbe 1ea6 56bf d8bd 49bf d72e 52bf
000003a0: f49b ffbe 1ac1 1ebf 61e0 ec3e 096f 923d
000003b0: 12c1 fabe d9f6 573f 6599 953e 4ee8 41be
000003c0: 9931 b4be 2e1a aabe 5060 3fbf 670b 37bf
000003d0: 2e8b 22bf aa85 873d 36df 08be 1c34 02bf
000003e0: 2b14 ac3d f153 8abe fbcc f73e b8cb 483e
000003f0: a561 34be d2a7 3dbf e5b0 6a3e c979 8dbf

network_body._body_endoder.seq_layers.0.bias f4 [256]
-0.05476648 0.0016193328 0.00093598146 -0.010607297 -0.0037325146 0.019869015 -0.004690528 0.034011085
-0.0075604916 0.029014444 -0.04795364 -0.007502694 -0.022382597 -0.003121768 -0.005170508 0.01721794
0.006335129 0.07353374 0.0011470648 -0.0026058857 -0.05459899 -0.009595761 0.017686406 0.03817346
0.0075008925 -0.00015503631 -0.019157149 -0.012412525 0.028554197 0.0038106649 0.020343918 -0.03393235
-0.0028871375 0.005634555 0.032898325 0.054131556 -0.01609836 -0.008485856 0.020785037 0.05946926
-0.03495509 -0.044094536 -0.009507682 -0.0045477417 0.0342765 0.02790183 0.009674967 0.027331082
-0.0223414 -0.0338095 -0.030516349 -0.019228788 0.017566282 -0.0047214953 -0.027062269 -0.011786762
0.02520427 -0.005764187 0.006366524 -0.011061806 0.015544849 0.0056247753 -0.002449777 -0.010305253
0.022093846 -0.041641995 0.004572484 -0.0586934 0.0024130356 0.026166111 -0.024572035 -0.009439568
0.010000463 -0.021267744 0.02245011 0.025953863 0.0032466333 -0.0003830646 -0.011550116 -0.060602404
0.009175081 0.022236558 -0.028192045 -0.021739533 -0.06894763 -0.00396247 0.0005676034 0.002487789
-0.023388896 0.0212173 0.07608138 0.022643251 -0.015291096 -0.0018963877 0.028430842 -0.00041475787
0.0069025406 0.02032018 0.0026251134 -0.0011014953 -0.014429076 -0.029615808 -0.0065533384 -0.021499489
0.014645308 0.018018756 0.04127301 -0.01368883 0.013785904 -0.0061999685 0.028966855 -0.013181968
0.018752351 -0.00014803422 0.00618116 0.0060735177 0.010756072 -0.009714268 -0.076660514 0.03692451
0.029654944 -0.027838074 0.033277657 -0.04250286 -0.009527749 -0.013034993 0.0003129514 -0.01551409
0.015489979 -0.018306987 -0.0039909286 -0.016010616 -0.00010039723 -0.010592176 0.004462418 -0.015835544
0.02428072 0.03106093 0.05829699 -0.01992645 -0.0065599093 -0.03531437 0.026404189 0.057302568
0.021643184 -0.06862525 0.0011530549 -0.010138137 0.011806361 -0.084807955 0.00092743424 0.053025756
-0.002144743 0.02331847 0.0042554364 0.018580213 0.01624949 -0.01649048 -0.021809824 0.0073100477
0.019841924 0.07762115 0.0015692225 -0.017383017 0.009226276 0.009346354 -0.011228668 0.021957675
-0.0054557733 0.011444977 0.013866643 0.030859048 0.019571574 0.02234488 -0.024907712 0.007895235
-0.057012215 0.0014391182 0.016374912 -0.010745704 0.002713518 -0.027856236 0.03755827 -0.004203567
0.018187916 0.023810375 0.019591147 -0.017390823 0.009002996 0.052819934 0.005961964 -0.10615981
0.009854564 0.04125894 -0.05443361 -0.0039840373 0.02566255 0.0006876665 0.02904128 -0.0077578328
0.0074638454 -0.0055573722 -0.051681153 0.010139443 0.03734959 0.019641299 0.052028336 0.010925973
-0.008229798 0.017741797 0.01928263 0.007114459 0.008612939 -0.036790844 0.019473586 0.031298965
0.0010762244 0.0023585844 0.00069317006 0.01151693 0.019184783 0.035345174 0.036113434 0.016516652
0.019929284 -0.013116813 0.01946448 0.024779506 -0.004061145 0.0017866112 -0.012064096 0.030307531
-0.052647185 0.0032846322 0.03465567 -0.019065704 0.009634128 0.016260594 0.014331672 -0.028574886
0.052403677 -0.01667162 0.0015058169 -0.0010722921 0.018645657 -0.031846877 -0.04210669 -0.0025704477
-0.036433965 0.00012090521 0.017240448 0.0776061 0.009615851 0.033680033 -0.013826007 -0.06496755
00000000: d152 60bd cb3f d43a a75c 753a 3aca 2dbc
00000010: 349d 74bb 58c4 a23c 00b3 99bb 354f 0b3d
00000020: 00be f7bb b3af ed3c 096b 44bd 29d9 f5bb
00000030: b55b b7bc 9396 4cbb 5d6d a9bb a30c 8d3c
00000040: ea96 cf3b dc98 963d 1c59 963a 82c7 2abb
00000050: 31a3 5fbd 8a37 1dbc 15e3 903c c65b 1c3d
00000060: 0cca f53b 3e91 22b9 74ef 9cbc e75d 4bbc
00000070: 7eea e93c 59bc 793b 4aa8 a63c a6fc 0abd
00000080: 2136 3dbb 13a2 b83b 65c0 063d 0db9 5d3d
00000090: b5e0 83bc 4208 0bbc 6245 aa3c 0a96 733d
000000a0: 122d 0fbd 799c 34bd 1cc6 1bbc 3905 95bb
000000b0: 8465 0c3d 6192 e43c c183 1e3c 6fe5 df3c
000000c0: 5005 b7bc d57b 0abd 6cfd f9bc b185 9dbc
000000d0: 2ae7 8f3c c6b6 9abb b1b1 ddbc 431d 41bc
000000e0: 2f79 ce3c 81e1 bcbb 469e d03b 943c 35bc
000000f0: d3af 7e3c 0950 b83b 708c 20bb 5dd7 28bc
00000100: 27fe b43c cc90 2abd c7d4 953b 7e68 70bd
00000110: 0524 1e3b 505a d63c 4b4b c9bc 6ba8 1abc
00000120: fbd8 233c b139 aebc 4be9 b73c 329d d43c
00000130: 78c5 543b 0fd6 c8b9 b33c 3dbc 3a3a 78bd
00000140: 1453 163c 7129 b63c 01f3 e6bc 1b17 b2bc
00000150: 6a34 8dbd 9cd7 81bb 38cb 143a 2c0a 233b
00000160: 129a bfbc e7cf ad3c 8ed0 9b3d 577e b93c
00000170: 8187 7abc 3690 f8ba cce7 e83c dc73 d9b9
00000180: b52e e23b 8276 a63c 180a 2c3b 0d60 90ba
00000190: ee67 6cbc da9c f2bc 63bd d6bb b21f b0bc
000001a0: e0f2 6f3c 129c 933c e30d 293d 1d47 60bc
000001b0: 46de 613c 1b29 cbbb e64b ed3c 2ef9 57bc
000001c0: 889e 993c a239 1bb9 548b ca3b 5c04 c73b
000001d0: 3c3a 303c 9828 1fbc 3000 9dbd 283e 173d
000001e0: edee f23c ac0c e4bc 274e 083d 7b17 2ebd
000001f0: 471a 1cbc b990 55bc a013 a439 cf2e 7ebc
00000200: aec9 7d3c 89f8 95bc 56c6 82bb b228 83bc
00000210: 5a8c d2b8 ce8a 2dbc 7a39 923b 8bb9 81bc
00000220: 5ce8 c63c 7e73 fe3c d3c8 6e3d cb3c a3bc
00000230: 82f4 d6bb cda5 10bd 994d d83c 19b6 6a3d
00000240: 0c4d b13c 658b 8cbd 1a22 973a 6e1a 26bc
00000250: 786f 413c cbaf adbd 0f1f 733a 8931 593d
00000260: d18e 0cbb 6006 bf3c 3071 8b3b 8835 983c
00000270: a71d 853c 0b17 87bc 84aa b2bc 2089 ef3b
00000280: 888b a23c d6f7 9e3d 5fae cd3a d466 8ebc
00000290: ce29 173c 7321 193c 72f8 37bc 95e0 b33c
000002a0: 58c6 b2bb b683 3b3c eb30 633c 1dcc fc3c
000002b0: 9154 a03c 9c0c b73c 420b ccbc 045b 013c
000002c0: a485 69bd cba0 bc3a ae24 863c c00e 30bc
000002d0: 47d5 313b c332 e4bc b3d6 193d 13be 89bb
000002e0: d3fe 943c fa0d c33c 9d7d a03c 3377 8ebc
000002f0: 4d81 133c b759 583d 945c c33b 516a d9bd
00000300: 0a75 213c 22ff 283d c7f5 5ebd 878c 82bb
00000310: 453a d23c 8544 343a fae7 ed3c 6b35 febb
00000320: 4693 f43b 9e1a b6bb 9eaf 53bd e81f 263c
00000330: e2fb 183d cae6 a03c aa1b 553d da02 333c
00000340: 46d6 06bc 3f57 913c 9bf6 9d3c 6820 e93b
00000350: 491d 0d3c ffb1 16bd 1287 9f3c 5833 003d
00000360: 1910 8d3a 7b92 1a3b dbb5 353a 81b1 3c3c
00000370: 6829 9d3c 1ac6 103d aeeb 133d ee4d 873c
00000380: bd42 a33c e7e7 56bc f973 9f3c 64fe ca3c
00000390: 5a13 85bb b92c ea3a 7ca8 45bc 8047 f83c
000003a0: 93a4 57bd fc42 573b 1bf3 0d3d ae2f 9cbc
000003b0: 76d8 1d3c f034 853c 64cf 6a3c e115 eabc
000003c0: 3da5 563d ec92 88bc d55e c53a 278c 8cba
000003d0: c7be 983c df71 02bd 1178 2cbd f574 28bb
000003e0: c83b 15bd 7e8e fd38 d73b 8d3c f2ef 9e3d
000003f0: cd8b 1d3c 13f4 093d 7a86 62bc b50d 85bd

network_body._body_endoder.seq_layers.2.weight f4 [256, 256]
-0.0806441 0.0039103697 0.17380786 -0.059992548 -0.0871537 -0.13352011 0.02912026 0.075341195
-0.055061217 0.005682029 -0.098892935 -0.08089004 0.039055232 -0.002250354 -0.021402773 -0.041252136
-0.07760312 -0.0531943 -0.019846328 -0.028228395 -0.011387505 0.043106742 0.08958198 -0.07289313
-0.0039253025 0.056071576 0.022835486 0.049123112 -0.030785838 0.23881747 -0.074284665 0.05896844
-0.04523162 -0.021146677 -0.024268257 0.04305939 -0.038179852 0.25756994 -0.05560216 0.058332052
-0.12735407 0.11269559 -0.010959687 0.045836583 -0.028994532 -0.06719429 0.12701213 -0.11257742
-0.03532562 0.03131354 -0.034969635 -0.021063132 0.07174283 0.019677026 0.1279193 -0.051864643
-0.11399486 0.12844549 0.12795669 -0.012630238 -0.117389955 0.024840632 0.12450368 0.007715562
-0.005498507 0.09830108 -0.05350918 -0.0650282 0.013964751 0.04163901 -0.0033446886 -0.00016356466
0.0347442 0.065446734 -0.019340897 -0.18323578 0.046156608 -0.005437095 0.1353449 0.042677
-0.07457812 0.049459185 0.048757527 -0.07972681 -0.011648829 -0.06783268 -0.065770276 -0.03044442
-0.030352697 -0.12403154 -0.06586064 -0.12618783 -0.020663943 -0.05007427 0.058684755 -0.062032912
0.017722154 0.009353156 -0.080333635 0.02148729 0.019999452 -0.03293721 0.12717223 -0.06118655
-0.03228827 -0.120925285 0.05803467 0.039822273 0.008914656 -0.0038687477 -0.09339409 0.16117942
-0.017987188 0.09520719 0.00079550367 -0.021807266 -0.045752577 0.09390711 -0.0032431015 -0.35515776
-0.05182396 -0.008567285 -0.041014656 0.0132678 0.016986595 0.06296554 -0.052944053 0.0028411278
0.13863681 0.02011807 0.082219936 -0.009146666 -0.040473066 -0.015494984 0.07536308 0.16996385
0.05525934 0.04370658 -0.13454093 0.040465 0.05739394 0.06372552 0.039818823 -0.005456821
0.10431115 0.101244226 0.030110836 0.01370617 0.009068697 0.06701984 -0.026532635 -0.014984937
-0.08835931 -0.00019111218 0.01980208 -0.02362406 -0.033192623 -0.08209044 -0.051214997 0.05595887
-0.026884757 0.030612104 0.025134755 0.08844313 -0.060994346 -0.08004508 -0.027508505 0.0838089
0.0066149123 -0.04228943 0.0037323663 -0.029775217 0.07307125 -0.066224694 -0.0813189 0.034834318
0.05011603 0.12995167 0.041715834 0.00636929 0.032955874 0.08666693 -0.0056373607 -0.0267855
0.18531153 0.08003425 0.018420298 -0.042260617 0.052998953 -0.067293756 -0.05823327 -0.100623414
-0.11233374 0.062888734 0.0892006 0.124510005 -0.073979214 0.059645142 0.052262384 -0.06291434
0.03534543 0.21693507 -0.10123053 -0.11187726 -0.1325443 0.1313071 -0.08724094 -0.005491352
-0.010855687 -0.09499964 0.020321596 -0.01661341 -0.027457975 -0.029742647 0.10402841 0.021425456
-0.15745528 -0.055042833 -0.006700367 -0.052227233 -0.04528518 -0.108437754 -0.063405104 -0.034504388
-0.111765996 0.08630795 0.005234749 -0.05910298 -0.041971806 -0.0076229405 -0.014521571 -0.029283153
0.0033181312 -0.05337305 0.13801047 -0.04250091 -0.02906022 -0.00968785 -0.06166162 -0.11867549
-0.07245865 -0.01724321 -0.030816156 -0.00937684 0.030009171 -0.08639714 0.055464342 0.056365762
-0.07668039 0.1059072 -0.08647171 0.06553117 0.11150222 -0.027659263 -0.005650987 0.12922299
00000000: bc28 a5bd 8f22 803b b0fa 313e bfba 75bd
00000010: a47d b2bd 7fb9 08be 9d8d ee3c 7c4c 9a3d
00000020: df87 61bd 5030 ba3b 6188 cabd ada9 a5bd
00000030: 61f8 1f3d ad7a 13bb de54 afbc 00f8 28bd
00000040: 62ee 9ebd 44e2 59bd c494 a2bc 3c3f e7bc
00000050: a892 3abc b290 303d c276 b73d fe48 95bd
00000060: d39f 80bb 4fab 653d 7c11 bb3c 5135 493d
00000070: 9532 fcbc 918c 743e 8f22 98bd e488 713d
00000080: cb44 39bd cc3b adbc 39ce c6bc 0b5f 303d
00000090: 7a62 1cbd 35e0 833e 17bf 63bd 97ed 6e3d
000000a0: 1b69 02be f2cc e63d 4290 33bc 24bf 3b3d
000000b0: f185 edbc 299d 89bd 780f 023e fe8e e6bd
000000c0: 99b1 10bd a042 003d 523c 0fbd 978c acbc
000000d0: e8ed 923d b731 a13c 47fd 023e 0570 54bd
000000e0: 2376 e9bd 3787 033e 1407 033e 0fef 4ebc
000000f0: 256a f0bd 957e cb3c c9fb fe3d d3d2 fc3b
00000100: d22c b4bb 1452 c93d 712c 5bbd 812d 85bd
00000110: 69cc 643c ab8d 2a3d 9032 5bbb 8e82 2bb9
00000120: ef4f 0e3d f008 863d cd70 9ebc 29a2 3bbe
00000130: b60e 3d3d a929 b2bb da97 0a3e 14ce 2e3d
00000140: 6abc 98bd b795 4a3d f9b5 473d cf47 a3bd
00000150: bbda 3ebc dceb 8abd 91b2 86bd 9466 f9bc
00000160: 38a6 f8bc 3f04 febd f1e1 86bd 6237 01be
00000170: 6e47 a9bc ae1a 4dbd 6d5f 703d 3916 7ebd
00000180: 0d2e 913c fb3d 193c f685 a4bd 1d06 b03c
00000190: e4d5 a33c 2be9 06bd 7039 023e bf9e 7abd
000001a0: b440 04bd ada7 f7bd c3b5 6d3d ae1c 233d
000001b0: c70e 123c d18a 7dbb 6745 bfbd 380c 253e
000001c0: de59 93bc fdfb c23d 5989 503a 27a5 b2bc
000001d0: 0e67 3bbd 5f52 c03d 378a 54bb 3dd7 b5be
000001e0: 5c45 54bd cc5d 0cbc fcfe 27bd 3061 593c
000001f0: 7927 8b3c 14f4 803d dddb 58bd 3732 3a3b
00000200: cff6 0d3e a7ce a43c ed62 a83d e6db 15bc
00000210: 16c7 25bd acde 7dbc f557 9a3d 010b 2e3e
00000220: 9e57 623d ac05 333d 19c5 09be a1be 253d
00000230: e815 6b3d 8782 823d 1019 233d 22cf b2bb
00000240: 16a1 d53d 2259 cf3d 00ab f63c d88f 603c
00000250: df94 143c b341 893d f85a d9bc 6283 75bc
00000260: baf5 b4bd 4965 48b9 f937 a23c 3f87 c1bc
00000270: fdf4 07bd 081f a8bd d1c6 51bd 2135 653d
00000280: 6c3d dcbc 3cc6 fa3c 67e7 cd3c ac21 b53d
00000290: 35d5 79bd adee a3bd 8459 e1bc 00a4 ab3d
000002a0: e8c1 d83b ae37 2dbd b79a 743b 28eb f3bc
000002b0: 61a6 953d d0a0 87bd 868a a6bd 6eae 0e3d
000002c0: 7746 4d3d 0d12 053e 39de 2a3d 7ab5 d03b
000002d0: bdfc 063d 6e7e b13d 9cb9 b8bb 446d dbbc
000002e0: 4ec2 3d3e ffe8 a33d 2ae6 963c 7819 2dbd
000002f0: 6e15 593d 4fd1 89bd 0286 6ebd a613 cebd
00000300: 3b0f e6bd cfcb 803d ceae b63d 1aff fe3d
00000310: 6a82 97bd 774e 743d 1511 563d 3cd9 80bd
00000320: 5fc6 103d 3a24 5e3e f451 cfbd e81f e5bd
00000330: b1b9 07be 5e75 063e 61ab b2bd cdf0 b3bb
00000340: 0ddc 31bc 2c8f c2bd 7a79 a63c d918 88bc
00000350: 8cef e0bc daa6 f3bc d90c d53d 7084 af3c
00000360: f53b 21be 9874 61bd c18e dbbb 39ec 55bd
00000370: f47c 39bd 9d14 debd 89da 81bd 7954 0dbd
00000380: 92e5 e4bd 39c2 b03d 4288 ab3b f715 72bd
00000390: a1ea 2bbd dcc9 f9bb e2eb 6dbc 39e3 efbc
000003a0: 0175 593b b39d 5abd 9e52 0d3e 6f15 2ebd
000003b0: b30f eebc cab9 1ebc e590 7cbd 230c f3bd
000003c0: 3365 94bd a241 8dbc 2a72 fcbc 51a1 19bc
000003d0: cbd5 f53c fcf0 b0bd 942e 633d c9df 663d
000003e0: 9c0a 9dbd e0e5 d83d 1418 b1bd 3535 863d
000003f0: 475b e43d ae95 e2bc ea2b b9bb 0853 043e

network_body._body_endoder.seq_layers.2.bias f4 [256]
-0.0064217756 -0.0063511203 -0.015107971 -0.0024903484 0.0015925277 0.0048458814 0.014229445 0.008185303
-0.0054266513 0.00743524 0.0066431765 -0.009537528 -0.0024182228 0.022803996 0.0006377203 -0.0029485258
-0.011952455 -0.0019767294 0.014496909 0.024371058 -0.0077211824 -0.004791372 -0.00066770404 -0.0016245871
0.017561404 0.0052484362 0.016111508 -0.006115009 -0.010167196 0.00827381 0.013071459 -0.007573966
-0.018257271 -0.0035059173 0.021642879 -0.0059065362 0.0005956588 0.014719265 0.01185588 -0.0074216253
-0.005161184 -0.00768269 0.0042863744 0.002102028 0.009192776 -0.004024159 0.011947954 0.023822406
0.004880421 -0.006168175 0.01531861 -0.014102605 -0.0021272318 0.0043588956 0.0108266035 -0.003936781
0.0038440793 0.008405418 0.0003358065 0.030481873 -0.00744994 0.0091144955 0.00946365 -0.0062149116
-0.009565845 -0.0025914072 0.00605357 -0.012464994 0.018638385 -0.009776785 -0.0030840319 0.012485909
0.00014075114 -0.0034150337 0.009288551 0.010162097 0.00623668 -0.011813578 0.004333454 -0.011892467
-0.006429825 0.0063545126 -0.0012789448 -0.0026691945 -0.0016140352 -0.018332608 -0.0052313795 -0.0062854355
0.005841674 0.0015431447 -0.009174702 -0.0048637358 0.00973571 0.0013386628 0.007535363 -0.003579745
0.009348708 0.003478092 -0.0038387212 0.00071912276 -0.0076018563 0.01904521 0.0045529897 0.0103825675
0.014309234 -0.0072821467 -0.00556328 0.003203692 -0.017365595 0.0014716801 0.010223016 -0.004561644
-0.005411047 0.016496267 0.015411518 0.0024653352 -0.00958834 -0.0060983207 0.0026586899 -0.00061231706
0.0056118835 0.027862597 0.006617137 0.015471711 -0.0043556113 -0.0038527576 -0.0040966384 0.0008399001
0.0008951305 -0.005879732 0.00063551264 -0.0052571073 -0.011491242 -0.0048501226 0.0064058555 -0.010763217
0.010940729 0.025322994 -0.003800618 -0.016635867 0.01445533 -0.008508245 -0.0069805468 0.01616704
-0.0026196607 0.000613027 -0.007480126 -0.0064891153 0.013030199 0.014021238 -0.010596583 0.0044420725
-0.005537206 -0.007853295 0.015330193 -0.0006819385 -0.009124967 0.011250669 -0.0025901562 0.013085688
0.006611646 -0.0034219825 -0.0015168032 -0.006099154 -0.0098279 -0.0013234962 0.0032531891 0.013157142
-0.0042228135 0.013786785 0.004580839 -0.010800571 0.010418312 0.008824149 -0.0028865307 -0.003295915
-0.0017974307 0.0042941696 -0.001021777 0.00027616814 -0.013702048 -0.013266203 0.020321837 0.015699409
-0.007993613 0.008980207 -0.004780728 0.020693062 -0.0039547104 0.015019752 -0.011639751 0.0077104312
0.0072897067 0.00815346 -0.007888557 0.006045515 0.013090841 0.005525019 0.002892257 -0.0023856815
-0.008391546 0.006653027 -0.02359803 0.011323745 0.0011452859 -0.0026524705 -0.0074572153 0.009759992
0.0116753485 -0.008211479 0.013214793 0.007138737 -0.0077043623 -0.0150670055 -0.005697631 -0.020083264
-0.0082378695 -0.00094860233 0.0114733 0.011956566 -0.0036679069 0.009705401 0.00960605 -0.0011577578
-0.0038744765 0.016701575 -0.0066113365 -0.0069879144 0.0072980267 0.004572565 0.0017935045 0.009880985
-0.012480337 0.0025335182 9.697496e-06 0.006698356 -0.006142786 0.008848482 -0.0011356856 -0.0061229817
-0.0010153336 0.008169877 0.0056126234 -0.0035686346 -0.0065939715 -0.018432667 -0.009087169 -0.0075039016
-0.0047083693 0.008697058 0.00046021523 -0.0075119245 0.010575756 0.012740664 0.020738732 -0.0056856466
00000000: c26d d2bb 0f1d d0bb 6c87 77bc 1d35 23bb
00000010: 5dbc d03a 33ca 9e3b 9e22 693c a61b 063c
00000020: 0dd2 b1bb 50a3 f33b 01af d93b 4b43 1cbc
00000030: 0c7b 1ebb 72cf ba3c af2c 273a 0e3c 41bb
00000040: 3bd4 43bc 048c 01bb 7284 6d3c d0a5 c73c
00000050: f901 fdbb f100 9dbb dc08 2fba 19f0 d4ba
00000060: efdc 8f3c 13fb ab3b 48fc 833c 6a60 c8bb
00000070: 5094 26bc e08e 073c ac29 563c 082f f8bb
00000080: 4690 95bc 88c3 65bb 684c b13c 9e8b c1bb
00000090: fc25 1c3a 1229 713c 2a3f 423c 1b31 f3bb
000000a0: 261f a9bb 13bf fbbb b774 8c3b 2ec2 093b
000000b0: 4c9d 163c 18dd 83bb 5ac1 433c 3527 c33c
000000c0: f0eb 9f3b 671e cabb e8fa 7a3c 9d0e 67bc
000000d0: 0769 0bbb 11d5 8e3b 1162 313c 1d00 81bb
000000e0: f3ec 7b3b e1b6 093c 2f0f b039 1fb5 f93c
000000f0: a01e f4bb f754 153c 6d0d 1b3c 75a6 cbbb
00000100: 10ba 1cbc 99d4 29bb 075d c63b f939 4cbc
00000110: 87af 983c cf2e 20bc 781d 4abb b391 4c3c
00000120: 9996 1339 c2ce 5fbb 022f 183c ed7e 263c
00000130: 105d cc3b bd8d 41bc a6ff 8d3b 9fd8 42bc
00000140: 48b1 d2bb 8439 d03b 44a2 a7ba a7ed 2ebb
00000150: 098e d3ba 442e 96bc fe6b abbb 0ef6 cdbb
00000160: 836b bf3b 5843 ca3a 7d51 16bc f95f 9fbb
00000170: 8782 1f3c 1276 af3a 35eb f63b 289a 6abb
00000180: 532b 193c b3f0 633b 0e93 7bbb 8383 3c3a
00000190: fe18 f9bb b304 9c3c 3f31 953b a51b 2a3c
000001a0: 4771 6a3c 139f eebb 2d4c b6bb 08f5 513b
000001b0: 4b42 8ebc 64e5 c03a 707e 273c d879 95bb
000001c0: 274f b1bb 2e23 873c 9780 7c3c 7691 213b
000001d0: 6a18 1dbc 6cd4 c7bb 6a3d 2e3b e783 20ba
000001e0: e4e3 b73b 1a40 e43c 92d4 d83b 0f7d 7d3c
000001f0: 84b9 8ebb 8c7e 7cbb 183d 86bb be2c 5c3a
00000200: 31a7 6a3a c4aa c0bb 8898 263a d043 acbb
00000210: c345 3cbc c7ed 9ebb 36e8 d13b 3458 30bc
00000220: be40 333c 2b72 cf3c ca13 79bb f147 88bc
00000230: 0cd6 6c3c 2b66 0bbc 12bd e4bb be70 843c
00000240: 9dae 2bbb 8cb3 203a d81b f5bb a5a2 d4bb
00000250: 9e7c 553c 56b9 653c 4a9d 2dbc ce8e 913b
00000260: 7371 b5bb 1bab 00bc 7d2b 7b3c 1ec4 32ba
00000270: e380 15bc ba54 383c 9cbf 29bb 5b65 563c
00000280: 82a6 d83b 5743 60bb 78cf c6ba 69db c7bb
00000290: 3305 21bc 2a79 adba 7533 553b 0e91 573c
000002a0: 875f 8abb f8e1 613c dd1a 963b e1f4 30bc
000002b0: 91b1 2a3c 2a93 103c f32b 3dbb 4700 58bb
000002c0: c497 ebba 1bb6 8c3b 26ed 85ba a9ca 9039
000002d0: 8e7e 60bc 7d5a 59bc fb79 a63c 0c9c 803c
000002e0: a5f7 02bc b821 133c a7a7 9cbb 7f84 a93c
000002f0: 8496 81bb 6815 763c a7b4 3ebc c9a7 fc3b
00000300: 7ede ee3b 1796 053c 023f 01bc 7519 c63b
00000310: f77a 563c 380b b53b 058c 3d3b 1859 1cbb
00000320: b27c 09bc a301 da3b a850 c1bc 3b87 393c
00000330: 6b1d 963a 12d5 2dbb a85b f4bb 60e8 1f3c
00000340: f649 3f3c 7089 06bc dc82 583c 11ec e93b
00000350: e074 fcbb 9adb 76bc 31b3 babb a885 a4bc
00000360: 21f8 06bc a0ab 78ba 82fa 3b3c 79e5 433c
00000370: 4461 70bb 6703 1f3c b262 1d3c e8bf 97ba
00000380: eeea 7dbb bed1 883c e9a3 d8bb e0fa e4bb
00000390: 4924 ef3b 75d5 953b 0614 eb3a dbe3 213c
000003a0: 547a 4cbc 6209 263b 6eb2 2237 e27d db3b
000003b0: 6c49 c9bb 39f9 103c 49db 94ba 4ba3 c8bb
000003c0: f114 85ba f3da 053c 19ea b73b c1df 69bb
000003d0: 3e12 d8bb 1b00 97bc 59e2 14bc 4ae3 f5bb
000003e0: aa48 9abb 1b7e 0e3c 0b49 f139 9726 f6bb
000003f0: f045 2d3c 38be 503c 46e4 a93c a94e babb

network_body._body_endoder.seq_layers.4.weight f4 [256, 256]
0.05735815 0.020602906 0.054086518 0.099622935 -0.034573544 0.04976515 -0.0047066505 0.037023343
0.08002537 0.061142635 0.013677401 0.06997591 0.029825745 -0.060406014 -0.097707696 -0.052929107
0.01120146 -0.0020045715 -0.0101366 0.02248993 0.03580479 0.121050276 -0.018540943 0.11015438
0.11323488 -0.004430311 0.016823279 0.011562662 -0.12891422 -0.091874845 -0.03521815 -0.056556065
-0.046079487 -0.15776715 -0.050208293 -0.015862767 -0.08321388 -0.02286689 0.045259938 0.026165245
-0.07122839 0.017360533 0.07241945 0.0032788261 0.020296274 0.06873805 0.099545635 -0.058291312
0.0033140506 0.007873482 0.022556871 0.065262385 -0.03237712 -0.017340995 -0.057058923 -0.052017994
0.0049481024 -0.06788099 0.039774973 0.009000317 -0.0923973 0.055803474 -0.0079407515 -0.066256605
0.019181082 -0.0046585808 -0.048372835 0.010930409 0.06473488 -0.066217795 -0.049582038 0.09023871
0.055724673 0.023872327 0.019142522 -0.059011325 -0.12231188 0.04290873 -0.087740086 0.09096582
0.029336652 -0.04446222 -0.023549158 -0.0795262 -0.09442475 -0.0047052302 0.0261925 -0.116199836
-0.03681777 0.015566809 0.0670386 0.0652548 -0.016725598 -0.019385386 -0.05249479 -0.029374188
0.005351048 -0.061484713 0.060110036 0.0015836457 0.04575706 -0.08775834 -0.00041714267 -0.0062589566
-0.07947384 -0.016151883 -0.02024705 0.016467815 0.0353968 0.0086311465 -0.016397959 0.07526728
-0.095091075 0.033394948 -0.09534724 0.049453143 0.05161172 0.056372363 -0.002010692 -0.0131995315
0.042741336 -0.062131554 -0.07487826 0.024096288 0.04950159 -0.03964603 0.003736608 -0.042179056
-0.0056824745 0.029138928 -0.13157757 0.03466875 -0.113722004 0.04728664 -0.08083596 0.084856994
-0.08250669 -0.08605909 -0.08087012 -0.080581754 -0.087588586 0.030566398 -0.04078331 -0.044599023
0.034280706 -0.06412537 0.11417023 -0.002259054 -0.07841129 -0.14110984 -0.0051555303 -0.027899902
0.041165013 -0.047232777 -0.019668257 -0.018628266 -0.024723845 0.0034847942 0.023830887 -0.05475322
0.022368321 -0.09443649 0.020803226 0.0019116127 0.00019574274 0.054256044 0.036263682 0.057294905
-0.05482672 -0.13443193 0.016274534 -0.006602048 -0.10639134 -0.05834898 0.020502908 0.032490045
0.00045899005 -0.0038409994 -0.01879395 -0.05085109 0.034512047 -0.073083244 -0.093122944 -0.023713494
-0.07286842 0.062291745 0.070987225 -0.018244844 0.030434513 -0.07551355 0.022839408 0.021815194
-0.02620977 -0.048200868 -0.022929726 0.02573604 0.0121935345 0.03635603 -0.046679102 0.0004921309
0.031171277 0.0039513265 -0.0034160777 0.05754977 -0.05758154 0.0834136 -0.046818506 0.07770024
0.020938959 -0.0012573352 0.07473105 -0.0067990837 0.087225564 0.009759206 -0.03236455 0.04843354
-0.03668353 -0.011672566 -0.055149913 -0.074351646 -0.0275041 -0.079708174 0.016815482 0.03738156
0.0896912 -0.06869782 -0.022227563 0.0021109995 -0.0049119564 0.019113367 -0.06372126 0.0020982206
0.029658714 -0.04730945 -0.094263665 -0.038443584 0.08552936 0.042272758 -0.021410467 -0.028608302
0.08387071 -0.15027608 -0.075372994 -0.046787374 0.036716245 0.012893949 0.0059481324 0.032628406
-0.09393735 -0.118921995 -0.015834527 0.019858822 -0.026088627 -0.008996851 0.06834249 0.04933372
00000000: 61f0 6a3d 6dc7 a83c d389 5d3d 1c07 cc3d
00000010: fd9c 0dbd 8bd6 4b3d 3f3a 9abb caa5 173d
00000020: 57e4 a33d b370 7a3d 2d17 603c 884f 8f3d
00000030: 1f55 f43c 4c6c 77bd f91a c8bd 31cc 58bd
00000040: 5486 373c 215f 03bb fb13 26bc cd3c b83c
00000050: 0ba8 123d 35e9 f73d 2de3 97bc 9f98 e13d
00000060: b0e7 e73d 242c 91bb f9d0 893c 5271 3d3c
00000070: 1702 04be e128 bcbd e840 10bd 55a7 67bd
00000080: d8bd 3cbd b68d 21be 36a7 4dbd a2f2 81bc
00000090: 0a6c aabd 5853 bbbc 7c62 393d 7f58 d63c
000000a0: 31e0 91bd ad37 8e3c a650 943d 93e1 563b
000000b0: 5f44 a63c 89c6 8c3d 95de cb3d dfc2 6ebd
000000c0: 8b30 593b c7ff 003c 30c9 b83c 49a8 853d
000000d0: df9d 04bd b40e 8ebc 9eb6 69bd d210 55bd
000000e0: b123 a23b 3005 8bbd 15eb 223d 1176 133c
000000f0: cc3a bdbd 2f92 643d ed19 02bc 8bb1 87bd
00000100: a521 9d3c 02a7 98bb 9822 46bd 7515 333c
00000110: b993 843d 329d 87bd 8916 4bbd 13cf b83d
00000120: 8e3f 643d e68f c33c c7d0 9c3c dcb5 71bd
00000130: a77e fabd 11c1 2f3d 13b1 b3bd 4a4c ba3d
00000140: 6b53 f03c 041e 36bd 2aea c0bc a2de a2bd
00000150: c361 c1bd 552e 9abb a791 d63c 2efa edbd
00000160: 3bce 16bd ee0b 7f3c 894b 893d 4fa4 853d
00000170: 1f04 89bc 1ace 9ebc c704 57bd 23a2 f0bc
00000180: d857 af3b 65d7 7bbd f135 763d 5592 cf3a
00000190: c16b 3b3d a5ba b3bd f1b3 dab9 ef17 cdbb
000001a0: 2ec3 a2bd f450 84bc 24dd a5bc 83e7 863c
000001b0: 3cfc 103d a769 0d3c 0355 86bc bb25 9a3d
000001c0: 1cbf c2bd 24c9 083d 6a45 c3bd 618f 4a3d
000001d0: d066 533d b5e6 663d d0c5 03bb d942 58bc
000001e0: 8a11 2f3d a87d 7ebd c659 99bd 9465 c53c
000001f0: 2ec2 4a3d e063 22bd e1e1 743b f2c3 2cbd
00000200: 0d34 babb c3b4 ee3c 45bc 06be d200 0e3d
00000210: 15e7 e8bd a3af 413d 538d a5bd 81c9 ad3d
00000220: 44f9 a8bd c03f b0bd 3c9f a5bd 0c08 a5bd
00000230: a561 b3bd 6266 fa3c 660c 27bd 77ad 36bd
00000240: ed69 0c3d 2954 83bd 15d2 e93d a30c 14bb
00000250: 1996 a0bd 197f 10be b9ef a8bb 568e e4bc
00000260: a59c 283d 2877 41bd 531f a1bc 4e9a 98bc
00000270: a989 cabc 2561 643b fe38 c33c ea44 60bd
00000280: c53d b73c eb67 c1bd 876b aa3c 148f fa3a
00000290: 4b40 4d39 963b 5e3d 3a89 143d 10ae 6a3d
000002a0: fc91 60bd 86a8 09be 2c52 853c fe55 d8bb
000002b0: b4e3 d9bd 57ff 6ebd b7f5 a73c 4814 053d
000002c0: 9aa4 f039 47b9 7bbb c5f5 99bc 3c49 50bd
000002d0: 815c 0d3d abac 95bd 3eb7 bebd cd42 c2bc
000002e0: 0a3c 95bd a125 7f3d c061 913d 3676 95bc
000002f0: cd51 f93c d9a6 9abd b619 bb3c c7b5 b23c
00000300: dfb5 d6bc 466e 45bd 1fd7 bbbc 63d4 d23c
00000310: 64c7 473c 0fea 143d 9632 3fbd 5802 013a
00000320: e85a ff3c 217a 813b 46e0 5fbb 4fb9 6b3d
00000330: 9fda 6bbd c0d4 aa3d c3c4 3fbd 4e21 9f3d
00000340: 2e88 ab3c 2bcd a4ba 980c 993d d9ca debb
00000350: 51a3 b23d 14e5 1f3c b190 04bd 3f62 463d
00000360: 7841 16bd 4a3e 3fbc e0e4 61bd ad45 98bd
00000370: 4750 e1bc 0a3e a3bd 9fc0 893c 681d 193d
00000380: 05b0 b73d 71b1 8cbd 9416 b6bc b258 0a3b
00000390: 7af4 a0bb a393 9c3c 4b80 82bd 4d82 093b
000003a0: d5f6 f23c 8ec7 41bd 4f0d c1bd 0577 1dbd
000003b0: 042a af3d 3326 2d3d 0165 afbc f55b eabc
000003c0: 68c4 ab3d f9e1 19be 285d 9abd 1ea4 3fbd
000003d0: c663 163d 2441 533c 8de8 c23b 5da5 053d
000003e0: 3a62 c0bd 608d f3bd 69b7 81bc f8ae a23c
000003f0: d1b7 d5bc 8767 13bc 26f7 8b3d 2812 4a3d

network_body._body_endoder.seq_layers.4.bias f4 [256]
0.0012925275 0.0071217795 -0.0052560163 0.011512772 0.011017957 -0.006791498 0.0053660017 0.0044810977
0.0072269505 -0.0059893015 0.0050275745 0.0047493647 0.014971746 0.020665327 0.006163949 -0.0034746288
0.006672096 0.015618685 0.009145891 0.0025957334 0.007831847 0.0061313063 0.0069079776 0.0025518076
0.00079958985 0.007127876 0.011465136 -0.005243937 -0.007688212 -0.013566981 0.0022901918 0.007139003
-0.009404819 0.0024155267 0.017101765 0.0013712617 0.00937588 0.007402117 0.0031701245 -0.000115240924
-0.00026005792 0.0027683426 0.00013945297 -0.010583525 -0.001899621 0.020930212 -0.0069493544 0.008812579
0.011796595 0.0046341754 0.004769603 -0.010493422 0.0088871475 0.0052197613 0.011437894 0.011363033
0.005190755 -0.0039758715 0.0010085816 -0.00086655706 0.0035225318 -0.0074754874 0.01071649 0.0059733014
-0.010094476 0.0053192973 0.00042038644 -0.006062528 0.012075113 -0.007704617 0.0020436868 0.0010238294
0.0038909914 0.010748028 -0.011662061 -0.0063509108 0.0032142864 0.002858001 0.0009603549 0.00811208
-0.018737316 -0.006003138 0.015197436 0.00395243 0.003941193 0.0039794385 -0.0055896486 -0.0013229535
0.008974022 0.010833588 -0.0057734456 0.0076807723 -0.01025245 -0.00029168202 -0.00487595 0.004711779
0.00444492 0.0014909803 -0.0016567882 0.013790008 -0.0038123399 0.017311603 0.0060907723 0.020415194
-0.0049345647 -0.00092889444 -0.0001569781 0.007762236 0.0021002044 0.0061552688 0.008890374 0.009422417
-0.00015954748 -0.002231505 0.00080110127 0.0057003717 0.0037740106 0.002492992 0.009149387 0.0053776987
0.0042215725 -0.0066183247 0.00036721834 0.006108581 0.016432976 -0.019969458 -0.0149152065 0.007960013
0.00067849434 -0.0032919045 -0.005431002 0.008744754 0.01094641 0.0106257545 0.008873996 0.00030213333
-0.0059329486 -0.011378857 0.010488872 0.0014784001 -0.0029133535 0.0038128444 -0.013443943 0.015449837
-0.0010421943 0.0054672505 0.009261337 -0.008836982 0.0007623087 0.0033215524 0.014601151 0.009234212
0.0045715724 0.0025445174 -0.017908629 -0.00091499934 0.0067766877 0.011030969 -0.020246059 0.0013958123
-0.0025765311 0.0057308166 -0.003671658 0.0032843004 0.007362671 0.006658942 0.0037696226 -0.0020877845
-0.004867905 0.0012461259 0.010038486 -0.00420281 -0.0069909785 0.010385469 -0.0064956164 -0.0043059327
0.0021390887 0.0031005538 0.011331754 0.0040087164 0.0030498756 0.0064232294 0.0116487825 0.0024530317
0.0055988086 0.017688895 0.0011900876 -0.002630564 0.0015724028 -0.0111559145 -0.0037467992 0.012549286
-6.971559e-05 -0.021644263 -0.0026522365 0.0104514 0.01750798 0.0035509837 0.003081686 0.007349026
-0.009676158 0.012562407 -0.005765957 -0.0044624167 -0.0078048827 0.0062649027 -0.0137191815 0.006514667
0.0008202595 0.0022355104 -0.003493367 0.0045581586 0.0073531247 0.0049655735 -0.005991334 0.0069714026
0.002040074 0.0008168379 -0.0021656347 0.0042781727 -0.001579022 0.02672889 -0.01514872 -0.00078930444
0.00318749 -0.0038896196 0.0007065862 0.0030918135 0.0028735858 -0.003121062 0.00937696 0.020695
-0.006709233 -0.0052937297 -0.0040499223 0.00557533 0.005602355 -0.005030911 0.014305179 -0.00028651181
0.002667941 0.0072335517 0.0073732943 -0.009069285 -0.0021537805 0.009733056 0.0135952495 -0.0037588042
-0.008594202 -0.018773772 -0.0027493308 0.007656149 0.0062194187 -0.0080969725 0.0032679336 0.00018969542
00000000: 076a a93a d15d e93b a93a acbb 11a0 3c3c
00000010: a984 343c 378b debb 49d5 af3b 2cd6 923b
00000020: 0ed0 ec3b e741 c4bb 5abe a43b 8fa0 9b3b
00000030: 0e4c 753c 554a a93c f4fa c93b 99b6 63bb
00000040: 99a1 da3b 83e5 7f3c a6d8 153c 2e1d 2a3b
00000050: 2651 003c 20e9 c83b 515c e23b 3a3c 273b
00000060: 919b 513a f590 e93b 44d8 3b3c 55d5 abbb
00000070: 66ed fbbb 0b48 5ebc 0b17 163b 4cee e93b
00000080: ac16 1abc d04d 1e3b 0019 8c3c e8bb b33a
00000090: 4a9d 193c 758d f23b ddc1 4f3b 80ad f1b8
000000a0: 6258 88b9 156d 353b 1f3a 1239 8566 2dbc
000000b0: b4fc f8ba d675 ab3c 69b7 e3bb a362 103c
000000c0: 8146 413c 48da 973b 544a 9c3b 9aec 2bbc
000000d0: 669b 113c 880a ab3b 0166 3b3c 042c 3a3c
000000e0: 3517 aa3b 0748 82bb 6232 843a a929 63ba
000000f0: 47da 663b eff4 f4bb 3894 2f3c afbb c33b
00000100: 4d63 25bc 804d ae3b 5067 dc39 2ca8 c6bb
00000110: b2d6 453c 0377 fcbb 60ef 053b 0432 863a
00000120: 0100 7f3b 7f18 303c 3b12 3fbc 4d1b d0bb
00000130: c7a6 523b 4d4d 3b3b 54c0 7b3a 88e8 043c
00000140: 007f 99bc f9b5 c4bb abfe 783c 6383 813b
00000150: 2025 813b f365 823b 5f29 b7bb f466 adba
00000160: c707 133c 5d7f 313c 2c2f bdbb fdae fb3b
00000170: e4f9 27bc e6ec 98b9 6fc6 9fbb 4465 9a3b
00000180: b1a6 913b ff6c c33a 9628 d9ba 7cef 613c
00000190: 73d8 79bb 10d1 8d3c 1a95 c73b c43d a73c
000001a0: 21b2 a1bb 0d81 73ba 7d9a 24b9 5b5a fe3b
000001b0: 95a3 093b 23b2 c93b eea8 113c 7b60 1a3c
000001c0: 334c 27b9 713e 12bb ff00 523a 2fca ba3b
000001d0: 6455 773b 7761 233b 4fe7 153c 6837 b03b
000001e0: 1e55 8a3b 88de d8bb 3687 c039 7e2a c83b
000001f0: 739e 863c fd96 a3bc e95e 74bc b76a 023c
00000200: fcdc 313a febc 57bb 8cf6 b1bb 2846 0f3c
00000210: 9258 333c a517 2e3c 3d64 113c a667 9e39
00000220: 2e69 c2bb 636e 3abc 85d9 2b3c e0c6 c13a
00000230: f6ed 3ebb eae0 793b fc43 5cbc 5021 7d3c
00000240: 3d9a 88ba 9f26 b33b ddbc 173c fdc8 10bc
00000250: acd5 473a 67ae 593b ab39 6f3c 184b 173c
00000260: 21cd 953b ebc1 263b 1eb5 92bc 91dc 6fba
00000270: fa0e de3b 3dbb 343c 10db a5bc b0f3 b63a
00000280: 05db 28bb 93c9 bb3b 33a0 70bb 6b3d 573b
00000290: 9042 f13b 4133 da3b c60b 773b 36d3 08bb
000002a0: f282 9fbb 0c55 a33a 7678 243c bab7 89bb
000002b0: 9414 e5bb d027 2a3c 2ed9 d4bb c818 8dbb
000002c0: f42f 0c3b a932 4b3b d2a8 393c 8d5b 833b
000002d0: 6ce0 473b f479 d23b 89da 3e3c 0bc3 203b
000002e0: 3676 b73b 4de8 903c b7fc 9b3a 8a65 2cbb
000002f0: 1519 ce3a 4cc7 36bc dc8c 75bb 859b 4d3c
00000300: 4634 92b8 4f4f b1bc 25d1 2dbb 593c 2b3c
00000310: e56c 8f3c 9fb7 683b 1df6 493b 19d0 f03b
00000320: c088 1ebc 8ed2 4d3c 5af0 bcbb 7739 92bb
00000330: 1ac0 ffbb d049 cd3b 6bc6 60bc fd78 d53b
00000340: af06 573a a481 123b f9f0 64bb 9b5c 953b
00000350: 7bf2 f03b 40b6 a23b f452 c4bb 5d70 e43b
00000360: c3b2 053b 1021 563a 52ed 0dbb ea2f 8c3b
00000370: 30f7 ceba 8cf6 da3c 5632 78bc 53e9 4eba
00000380: 35e5 503b fde8 7ebb 323a 393a 06a0 4a3b
00000390: c552 3c3b bb8a 4cbb d2a1 193c 9088 a93c
000003a0: 20d9 dbbb 0677 adbb 36b5 84bb 42b1 b63b
000003b0: f693 b73b 57da a4bb 4560 6a3c f736 96b9
000003c0: 9fd8 2e3b 6e07 ed3b ad9b f13b 5797 14bc
000003d0: 7126 0dbb 6577 1f3c 9cbe 5e3c 4556 76bb
000003e0: b2ce 0cbc 74cb 99bc 1e2e 34bb 6fe0 fa3b
000003f0: 44cc cb3b 2aa9 04bc d42a 563b fae8 4639

action_model._discrete_distribution.branches.0.weight f4 [3, 256]
-0.002870454 0.01427491 -0.006740675 0.0014882918 -0.026291482 -0.020654734 0.015036851 0.022529632
-0.007293546 -0.018284157 -0.022852676 0.009626933 -0.0046082395 -0.008559873 0.019719265 0.007084147
0.003987294 0.023940893 -0.0025320798 -0.004033508 -0.0060423985 0.017683329 0.0076720365 0.0036358952
0.007863286 0.03162276 -0.0021169786 -0.0161938 0.00015660858 -0.00890534 -0.015155811 0.0028816394
0.00071968633 0.0025736832 0.023951462 -0.0053207544 0.013291097 0.049185693 0.0018433344 0.009771184
-0.0041757314 0.030345084 -0.0027226463 0.0006457475 -0.022416154 0.04019853 0.0017608026 -0.005900532
0.015230859 0.014942013 0.001190718 0.003648595 0.0062603275 -0.008290646 0.030597419 0.0016348915
-0.0073569585 -0.016685246 0.0049768626 -0.005374308 -0.0068023964 -0.007992153 -0.012394851 -0.012082958
-0.0092273485 0.015633961 -0.0032272483 -0.0033853024 -0.0018793024 -0.03374538 -0.011881571 -0.008466352
0.0026655432 -0.0010925268 0.0061754603 -0.012279485 0.024215773 -0.002688815 0.004659946 -0.0007050304
-0.0362155 0.00046434248 0.03845614 0.0003291718 -0.009673248 0.004196958 -0.022016663 -0.01073579
0.00057199463 0.019848412 -0.0014953595 0.005705478 -0.044215508 0.020087354 -0.008316392 -0.0008191747
0.02083883 -0.008773845 -0.004431235 -0.009548904 -0.012231155 0.021134805 0.00016350929 0.029141309
-0.016318364 -0.004983925 -0.006556188 0.018830238 0.0038022916 0.0036256977 -0.0016065469 -0.01815908
-0.012172906 -0.002802034 -0.05521214 0.014502864 0.010397783 0.01691778 0.03015238 -0.01094307
-0.004504684 -0.014721175 0.00016114664 -0.015901927 0.03324101 -0.024313016 -0.0073845396 1.9062893e-05
0.002204458 0.007943792 0.008514179 -0.0049230116 -0.0076284963 0.00017789677 -0.0021799947 0.012910204
-0.0027295947 -0.011085071 -0.0045903972 -0.01108313 0.0007295714 0.025926488 0.0008273385 0.030781213
0.0036043632 0.008180439 0.03542369 -0.0017305553 -0.042981032 0.00091246556 0.035318155 -0.016803443
-0.007662478 -0.016516298 0.0075326627 -0.01569083 -0.0054492843 0.001595028 0.001956724 0.009078327
0.0022793112 -0.015094743 -0.011796824 0.0045291646 -0.0017617207 -0.0029624887 -0.0060608154 0.008847989
0.0054570856 -9.9847486e-05 -0.007440508 -0.011170775 -0.007603696 0.015303317 0.007024802 -0.00582452
-0.0010085583 0.0049863956 0.009556877 -0.0061345585 -0.0035878115 0.029169774 0.020491483 0.0013091681
-0.012826972 0.009309385 -0.010726123 -0.0067983447 0.0191193 -0.0023546575 -0.014561544 0.001619895
-0.008622203 -0.040926363 -0.019991523 -0.0011468983 0.014611017 0.0020960423 -0.0047649415 0.021943312
-0.003475884 -0.0008230496 0.0024245991 -0.008540608 -0.002183091 -0.00537944 -0.00908446 -0.004844702
0.0064761727 -0.006067174 -0.0061750496 0.0032138524 -0.005847816 -0.0043186177 -0.02473454 -0.0094420025
-0.013360633 0.0057210587 -0.0014859627 -0.010749344 0.011089448 0.04683734 -0.008100491 -0.003194408
0.0064482125 -0.0017434403 -0.016106196 0.004483927 0.0075076777 0.0007690976 -0.010031834 0.04557278
-0.016450893 -0.007455064 0.0065869773 -0.001248862 -0.0103401765 -0.0060291924 -0.00369422 -0.010590177
-0.013407751 -0.0072411736 0.029613793 -0.0040915483 -0.007147545 0.012838474 -0.0007820271 0.0144506525
-0.0108138155 -0.009468348 -0.0055307946 -0.0050562955 -0.0022999253 0.009984853 -0.0029965367 -0.013148065
00000000: 3a1e 3cbb 50e1 693c e1e0 dcbb c912 c33a
00000010: 3c61 d7bc 1e34 a9bc 205d 763c 1090 b83c
00000020: b3fe eebb a8c8 95bc 8935 bbbc 49ba 1d3c
00000030: b700 97bb b63e 0cbc 4c8a a13c 2222 e83b
00000040: d9a7 823b b11f c43c 40f1 25bb 842b 84bb
00000050: 50ff c5bb a1dc 903c b565 fb3b 3348 6e3b
00000060: 03d5 003c de86 013d 02bd 0abb dca8 84bc
00000070: 4c37 2439 b4e7 11bc 1450 78bc e3d9 3c3b
00000080: 55a9 3c3a 3dab 283b db35 c43c b959 aebb
00000090: e7c2 593c f076 493d 0a9c f13a 5117 203c
000000a0: 93d4 88bb 4196 f83c 6d6e 32bb 6247 293a
000000b0: 15a2 b7bc 37a7 243d bbca e63a 4059 c1bb
000000c0: da8a 793c 58cf 743c de11 9c3a 441d 6f3b
000000d0: 6f23 cd3b 7dd5 07bc 70a7 fa3c db49 d63a
000000e0: a412 f1bb 7faf 88bc f314 a33b f71a b0bb
000000f0: a3e6 debb 85f1 02bc c613 4bbc 99f7 45bc
00000100: 4e2e 17bc cb12 803c 3e80 53bb f3db 5dbb
00000110: ed52 f6ba 9838 0abd ecaa 42bc 74b6 0abc
00000120: 65b0 2e3b 1e33 8fba 845b ca3b e52f 49bc
00000130: 2860 c63c d436 30bb 76b2 983b cad1 38ba
00000140: b456 14bd fe72 f339 2f84 1d3d b194 ac39
00000150: 8b7c 1ebc a386 893b 4a5c b4bc 2be5 2fbc
00000160: e9f1 153a 2399 a23c f0ff c3ba 05f5 ba3b
00000170: 521b 35bd 3c8e a43c 7a41 08bc e2bd 56ba
00000180: 32b6 aa3c 2cc0 0fbc e533 91bb 0273 1cbc
00000190: 2f65 48bc e622 ad3c b173 2b39 c1b9 ee3c
000001a0: 17ae 85bc 3150 a3bb 4bd5 d6bb df41 9a3c
000001b0: de2f 793b 1d9d 6d3b c592 d2ba 5ac2 94bc
000001c0: de70 47bc 54a2 37bb 2026 62bd 6c9d 6d3c
000001d0: 765b 2a3c 2897 8a3c 2002 f73c 904a 33bc
000001e0: 079c 93bb 1531 71bc 79f9 2839 c244 82bc
000001f0: ba27 083d 172c c7bc 02fa f1bb 40e9 9f37
00000200: ab78 103b ae26 023c 0e7f 0b3c 3751 a1bb
00000210: 77f8 f9bb cd89 3a39 3ede 0ebb 5285 533c
00000220: 00e3 32bb 289e 35bc 0b6b 96bb 0496 35bc
00000230: b540 3f3a c963 d43c bfe1 583a e228 fc3c
00000240: 2e37 6c3b 3f07 063c 6e18 113d cdd3 e2ba
00000250: e10c 30bd 8732 6f3a c5a9 103d 60a7 89bc
00000260: 8615 fbbb 304d 87bc 8ed4 f63b 0e8a 80bc
00000270: e98f b2bb 4210 d13a 623c 003b 43bd 143c
00000280: 7f60 153b f14f 77bc 7747 41bc 6369 943b
00000290: 8ae9 e6ba 5026 42bb ce99 c6bb 28f7 103c
000002a0: 5ad1 b23b 3665 d1b8 81cf f3bb a005 37bc
000002b0: 6d28 f9bb c4ba 7a3c 4f30 e63b 9ddb bebb
000002c0: 9a31 84ba eb64 a33b 7394 1c3c 6804 c9bb
000002d0: 7d21 6bbb 73f5 ee3c c1dd a73c 6498 ab3a
000002e0: 3828 52bc 6486 183c 9fbc 2fbc a6c4 debb
000002f0: 14a0 9c3c 9950 1abb 8b93 6ebc a852 d43a
00000300: 2444 0dbc 67a2 27bd 43c5 a3bc 8553 96ba
00000310: 0c63 6f3c c15d 093b 3a23 9cbb 76c2 b33c
00000320: a8cb 63bb ecc1 57ba 06e6 1e3b e8ed 0bbc
00000330: 3012 0fbb 0346 b0bb fdd6 14bc 4ec0 9ebb
00000340: 1336 d43b 25cf c6bb 1258 cabb 7f9f 523b
00000350: 099f bfbb 3183 8dbb 17a0 cabc a1b2 1abc
00000360: 8ee6 5abc b877 bb3b a2c4 c2ba 041e 30bc
00000370: 84b0 353c 83d8 3f3d ecb7 04bc 4659 51bb
00000380: 874b d33b 2684 e4ba 24f1 83bc e8ed 923b
00000390: f702 f63b 449d 493a 905c 24bc 86aa 3a3d
000003a0: 06c4 86bc 9c49 f4bb 92d7 d73b dbb0 a3ba
000003b0: d869 29bc 8890 c5bb ba1a 72bb 6c82 2dbc
000003c0: 2fac 5bbc 5e47 edbb a098 f23c 6512 86bb
000003d0: f435 eabb 7658 523c f300 4dba 6ec2 6c3c
000003e0: 6e2c 31bc 2121 1bbc ab3b b5bb 48af a5bb
000003f0: 58ba 16bb 8297 233c 8b61 44bb fb6a 57bc

action_model._discrete_distribution.branches.0.bias f4 [3]
0.0114124715 -0.0027681352 -0.00076326943
00000000: 60fb 3a3c 9a69 35bb 2516 48ba
