results/raytraining1/PlayerAgent.onnx (onnx, 546771 bytes, 11 tensors)

discrete_act_size_vector f4 [1, 2]
0	0x40400000	3.0
1	0x40000000	2.0

network_body._body_endoder.seq_layers.0.weight f4 [256, 6]
0	0xbe70cfcc	-0.23516768
1	0x3e702cb0	0.23454547
2	0x3d4dd898	0.050255388
3	0x3d9f53a1	0.07779623
4	0xbf3ac906	-0.7296299
5	0x3f13658a	0.5757681
6	0xbe01bc56	-0.126695
7	0x3ea8f836	0.3300187
8	0xbe8270be	-0.2547664
9	0xbf1b7f2f	-0.6074094
10	0x3e8eded5	0.27904382
11	0xbd8a5dfe	-0.06756209
12	0xbe52fefc	-0.20605081
13	0xbebd9724	-0.37029374
14	0x3ea71c56	0.32638806
15	0xbd8fa5fc	-0.07014081
16	0xbf325925	-0.69667274
17	0xbe920b3c	-0.28524196
18	0xbdcdcf4a	-0.10049303
19	0xbf2b3d9f	-0.668909
20	0x3f2a432f	0.66508764
21	0xbddbf6c6	-0.10740428
22	0x3e5d1ad0	0.2159226
23	0xbdcc172b	-0.099653564
24	0xbe25f2e7	-0.16205941
25	0xbe02a413	-0.12757902
26	0xbec61c1f	-0.3869333
27	0x3ed59443	0.41714677
28	0x3f286d69	0.65791947
29	0xbef1750e	-0.47159618
30	0xbf20b115	-0.62770206
31	0x3e13b02e	0.14422676
32	0x3f152e51	0.582738
33	0x3eb7ceeb	0.35900053
34	0x3f0b3cd3	0.54389685
35	0x3e83ab17	0.2571647
36	0x3eeda6f6	0.46416444
37	0xbb50e7ab	-0.0031876366
38	0x3f3e63ab	0.7437083
39	0x3dc79a3d	0.097462155
40	0x3f271178	0.6526103
41	0xbeaa1d6b	-0.3322557
42	0x3ef56ece	0.479361
43	0xbf1bb540	-0.6082344
44	0x3e811f54	0.25219214
45	0xbe8cb00c	-0.27478063
46	0xbdce9ec9	-0.100888796
47	0xbe13b753	-0.14425401
48	0xbd855ad3	-0.06511464
49	0xbf111357	-0.56670135
50	0x3e02aa03	0.12760167
51	0x3f382732	0.7193481
52	0x3e55c263	0.20874934
53	0x3cc39054	0.023872532
54	0xbf04053e	-0.515705
55	0xbee081ae	-0.43848938
56	0x3e658b37	0.22416387
57	0x3f57672d	0.8414181
58	0xbf43b48d	-0.76447374
59	0x3e902b5c	0.2815808
60	0xbf8de15f	-1.1084403
61	0x3e933dbb	0.28758034
62	0xbb2d1cb4	-0.0026414813
63	0x3f5e606f	0.86865896
64	0x3f39c9d7	0.7257361
65	0x3e691790	0.22762895
66	0x3ea7b84b	0.32757792
67	0x3efb4362	0.49074847
68	0xbd96988b	-0.07353314
69	0xbe73329b	-0.23749773
70	0x3ea71c93	0.32638988
71	0xbdeb4783	-0.11488249
72	0x3ef4d00e	0.47814983
73	0x3e7e09e7	0.24808465
74	0x3f264221	0.64944655
75	0xbeaf0d01	-0.3418961
76	0x3ec90067	0.3925812
77	0xbe70e432	-0.2352455
78	0xbe1dbb28	-0.15403426
79	0xbe267e76	-0.16259179
80	0xbc1dacc0	-0.009623706
81	0xbf027597	-0.5096068
82	0x3ee179e9	0.44038323
83	0x3f7cd4b6	0.9876207
84	0x3e1054b1	0.14094807
85	0x3e55e0c8	0.20886528
86	0x3d8f6039	0.07000775
87	0xbe9f0de3	-0.31065282
88	0x3e11e91d	0.14249082
89	0xbe1c3bc6	-0.15257177
90	0x3eecfc84	0.46286404
91	0xbf2805bd	-0.65633756
92	0xbe72e4f5	-0.23720153
93	0xbee1c2ec	-0.44094026
94	0x3e6e8bc2	0.23295501
95	0xbe0bf744	-0.13668543
96	0x3f375d19	0.7162643
97	0x3f89bfd5	1.0761667
98	0xbf359097	-0.7092375
99	0xbe5824b3	-0.2110775
100	0xbec38824	-0.38189805
101	0x3ee6c67c	0.45073307
102	0xbecfbae1	-0.40572265
103	0x3d796cd5	0.060894806
104	0x3eb64fdd	0.35607806
105	0x3aa70519	0.0012742608
106	0x3e872542	0.26395613
107	0x3ed1d4b6	0.40982598
108	0x3e156966	0.14590988
109	0x3ecfab5a	0.40560418
110	0x3e7f241b	0.24916117
111	0xbe2329ef	-0.15933965
112	0x3ef2cf58	0.47423816
113	0x3dddf5f2	0.10837926
114	0x3f33773b	0.70103806
115	0xbefb5248	-0.49086213
116	0xbe874df8	-0.26426673
117	0x3e48d002	0.19610599
118	0xbd224e84	-0.03962566
119	0x3deec092	0.116578236
120	0x3db58abf	0.08864354
121	0x3e8a658e	0.27030605
122	0x3d85c5b0	0.065318465
123	0xbf06661a	-0.52499545
124	0x3f342d07	0.70381206
125	0x3f3f980e	0.7484139
126	0x3efa37c3	0.48870668
127	0x3f3029a8	0.6881356
128	0xbf29387a	-0.661018
129	0x3f03f528	0.51545954
130	0xbec98aec	-0.393638
131	0xbd77c55d	-0.060490955
132	0x3e228142	0.1586962
133	0xbe4c5a2f	-0.19956277
134	0x3e052ea0	0.13006067
135	0xbf294773	-0.6612465
136	0x3f075cfb	0.5287625
137	0xbecf459d	-0.40482798
138	0x3f1150c2	0.5676385
139	0x3f620697	0.88291305
140	0xbeeef795	-0.46673265
141	0xbe915d4a	-0.28391486
142	0xbe407c0b	-0.18797319
143	0xbc9ff25f	-0.019524751
144	0xbf2b9b14	-0.67033505
145	0x3f1bec13	0.60907096
146	0x3ebec304	0.3725816
147	0x3e72aa0c	0.2369768
148	0x3e98d433	0.29849395
149	0x3dfbd6a0	0.12296796
150	0xbf48af79	-0.7839275
151	0xbd4f5857	-0.050621357
152	0xbf00cd20	-0.50312996
153	0xbf67bf6f	-0.9052648
154	0xbf8150d1	-1.0102788
155	0xbd9dc3aa	-0.077033356
156	0xbd46374c	-0.04839258
157	0x3e68c4cb	0.2273132
158	0x3e17bbeb	0.14817779
159	0xbd9563e7	-0.072944455
160	0x3e95669c	0.29179847
161	0x3e5b5ce2	0.2142215
162	0x3c436b19	0.01192739
163	0xbe9a1d2a	-0.30100375
164	0x3d4daf65	0.050216097
165	0x3df609f2	0.12013616
166	0xbd8c2a8d	-0.068440534
167	0xbe778ac4	-0.24174029
168	0x3c44f282	0.012020709
169	0x3f169edd	0.58836156
170	0x3e9f50ae	0.3111624
171	0xbdf287c1	-0.11842299
172	0x3f5f04a2	0.87116444
173	0xbf400d28	-0.75020075
174	0xbd18f778	-0.03734538
175	0xbf4f25a0	-0.80916786
176	0xbec03cb1	-0.37546304
177	0x3e572e4c	0.21013755
178	0xbf220e50	-0.6330309
179	0x3f2937c8	0.6610074
180	0x3e2206fd	0.15822978
181	0x3f553a61	0.83292204
182	0xbee4cdbb	-0.4468821
183	0xbe14b302	-0.14521411
184	0x3c8a8b9b	0.016912272
185	0x3d5cab2e	0.053874187
186	0x3db6ef05	0.08932308
187	0x3e6b82ff	0.2299919
188	0xbe0e674f	-0.13906597
189	0x3ee3c1a4	0.44483674
190	0x3dda9556	0.10673015
191	0xbf04d8cd	-0.5189331
192	0xbf333741	-0.70006186
193	0xbee479df	-0.4462423
194	0x3dd34c29	0.10317261
195	0x3da8dd66	0.082453534
196	0x3f67295e	0.90297496
197	0xbde4c0a1	-0.111695535
198	0xbe728ec1	-0.23687269
199	0x3e499bff	0.19688414
200	0xbe01ded8	-0.12682664
201	0x3e46d7c9	0.19418253
202	0xbe98af5f	-0.29821298
203	0xbf1d4517	-0.6143355
204	0xbeef0f5f	-0.46691415
205	0xbda6b8f2	-0.08140744
206	0x3f6dd79f	0.92907137
207	0x3e8e3a54	0.27778876
208	0xbd2adb10	-0.04171282
209	0x3e24c366	0.16090164
210	0xbf01a218	-0.5063796
211	0x3f1d87fd	0.61535627
212	0xbdb4dad6	-0.08830802
213	0xbdfadc18	-0.12249011
214	0x3e2421a8	0.16028464
215	0xbe090340	-0.13380146
216	0x3cd57da0	0.02606088
217	0xbe380643	-0.17971139
218	0x3e175125	0.14777048
219	0x3f1afb87	0.6054005
220	0x3f1cc8a4	0.61243653
221	0x3f1f1df9	0.6215511
222	0x3f3ac69d	0.7295931
223	0xbed93f85	-0.42431274
224	0xbeb952a4	-0.36195862
225	0xbec84f8c	-0.3912319
226	0x3e8ef1f2	0.27918965
227	0x3d090c5f	0.033459064
228	0xbea79157	-0.32728073
229	0xbf5ad431	-0.8548003
230	0xbe9e8aac	-0.30965173
231	0xbc1fda6e	-0.009756668
232	0xbeed8036	-0.4638688
233	0x3f3c0a0c	0.7345283
234	0xbeb688f2	-0.35651356
235	0xbd1fba5c	-0.038996086
236	0x3ea9383a	0.3305071
237	0xbe514e71	-0.2044008
238	0x3ecbc999	0.39802244
239	0xbebb28d8	-0.365546
240	0xbdb56d16	-0.08858697
241	0x3f02fd9e	0.5116824
242	0xbf04db80	-0.5189743
243	0xbf1245c6	-0.57137716
244	0x3dfbb44b	0.122902475
245	0x3ee5e9b3	0.4490486
246	0x3e8695a4	0.26286042
247	0xbe184efa	-0.14873877
248	0x3e718ada	0.23588124
249	0xbf11132d	-0.56669885
250	0xbf2096ce	-0.6273011
251	0x3f3aed77	0.7301859
252	0x3d4d593e	0.050133936
253	0xbeb2d5ab	-0.3492864
254	0x3e844711	0.2583547
255	0x3d866558	0.065622985

network_body._body_endoder.seq_layers.0.bias f4 [256]
0	0xbcc8ad1b	-0.024496606
1	0x3c497381	0.012295605
2	0x3c3bf49f	0.011471896
3	0x3ba686ba	0.0050819786
4	0x3caae302	0.020860199
5	0xbc2c8ead	-0.010532063
6	0x3b3e0200	0.0028992891
7	0x3b2a1da8	0.0025957618
8	0x3b0c1983	0.002137751
9	0xbb2681f3	-0.0025407046
10	0x3c1412ce	0.0090376865
11	0x3bba32fa	0.0056823464
12	0x3c8ea945	0.017414698
13	0xbca8c1a4	-0.020600148
14	0x3bf1015f	0.0073549
15	0x3bb0dfd6	0.005397777
16	0xbc938fdb	-0.018012932
17	0xbcffa8b6	-0.031208377
18	0x3b5ee6fa	0.0034012184
19	0xbb87dfa7	-0.0041465345
20	0xbc45d439	-0.012074524
21	0x3b8df603	0.0043323054
22	0x3bbbff9e	0.005737259
23	0x3b95d308	0.004572276
24	0x3ca6abd6	0.02034561
25	0x3b404a16	0.0029341034
26	0xbb10e2f4	-0.002210793
27	0x3b9625e4	0.0045821536
28	0x3cfece0c	0.03110411
29	0xbbb3d63b	-0.0054881847
30	0x3cb0bb9a	0.02157383
31	0x3d6f0c8d	0.05836158
32	0x3c1e5310	0.009663358
33	0x3c069710	0.008214727
34	0xbc699e57	-0.014258943
35	0x3c78a8ea	0.015176991
36	0xbcc7bc91	-0.024381908
37	0xbbece0d1	-0.0072289486
38	0xbc24998f	-0.010046377
39	0x3c757592	0.014981644
40	0xbb8df628	-0.0043323226
41	0xbc376347	-0.011193103
42	0x3cb57af3	0.022153353
43	0x37d659d7	2.5552623e-05
44	0xbcc7a138	-0.024368867
45	0x3c83ae07	0.016074194
46	0xbc7abb19	-0.015303397
47	0xbc4de0ad	-0.012565774
48	0xbbd82062	-0.006595657
49	0x3d03436d	0.032046724
50	0x3cc2a2fd	0.02375936
51	0xbba499d3	-0.00502322
52	0x3cb86961	0.022511186
53	0xbb8c7b40	-0.0042871535
54	0x3c4484d2	0.011994557
55	0x3c84693d	0.016163463
56	0x3cb5ebef	0.022207228
57	0xbbbd1e75	-0.005771453
58	0xbd163236	-0.03666898
59	0x3c97cacd	0.01852932
60	0xbc9d7688	-0.01922156
61	0x3c002f2d	0.007823748
62	0xbbaddabd	-0.0053056167
63	0x3b9e0b5a	0.0048231306
64	0xbcf1335a	-0.029443432
65	0xbbe48888	-0.0069742836
66	0xbba7faae	-0.005126319
67	0x3bb44fb6	0.0055026663
68	0x3c934e0b	0.01798155
69	0x3c2b154d	0.01044209
70	0xbc2a1143	-0.010380092
71	0x3c8f04cb	0.01745834
72	0xbc8c35c5	-0.017115483
73	0xba630a73	-0.000866092
74	0xbb70d314	-0.0036746906
75	0x3c54a46f	0.012978657
76	0x3c38d4ab	0.011281173
77	0x3ac17c92	0.0014761856
78	0x3caf665e	0.021411117
79	0xbb23080d	-0.0024876625
80	0x3c808d56	0.015692394
81	0x3bbcea3d	0.005765228
82	0xba0d8587	-0.000539862
83	0xbc0580e6	-0.008148408
84	0xbc354a58	-0.011065088
85	0x3c969582	0.018381838
86	0xbc86ce6a	-0.016455848
87	0x3c6380d3	0.013885695
88	0xbc9c1ec7	-0.019057645
89	0x3cc681aa	0.02423175
90	0x3c5f04bc	0.013611969
91	0x3c64e310	0.013970152
92	0xbaaa09f8	-0.0012972942
93	0x3c4ff318	0.012692235
94	0x3c9bdbac	0.019025646
95	0xbc21e5d5	-0.009881456
96	0x3beefb8f	0.0072931717
97	0x3b064094	0.002048527
98	0x3c9201a7	0.017823054
99	0x3b7bc1b5	0.003841502
100	0xbac3c8a8	-0.001493712
101	0xbc82e01f	-0.01597601
102	0x3bd0aeb2	0.0063684816
103	0x3c846c06	0.01616479
104	0x3aa27c2b	0.0012396624
105	0xbc52ad41	-0.01285869
106	0x3a1be94f	0.00059475465
107	0xbc89a270	-0.016801089
108	0xbc908c12	-0.017644916
109	0xbc01c812	-0.007921236
110	0x3d093632	0.03349895
111	0xbc850eb8	-0.01624237
112	0xbbd8a43c	-0.006611375
113	0xbca0e3b0	-0.01963982
114	0x3d3678bf	0.044548746
115	0x3cea0b00	0.028569698
116	0x3c4b1fd9	0.01239773
117	0x3c2187b2	0.009859012
118	0x3bfd296a	0.007725884
119	0xbc327953	-0.010893184
120	0x3b42d061	0.0029726254
121	0x3cf95808	0.030437484
122	0x3c2cd84f	0.010549619
123	0xbb91ff48	-0.0044554807
124	0xbbecac55	-0.007222692
125	0xbd049042	-0.032364137
126	0x3bb0aee2	0.0053919414
127	0xbc890c37	-0.016729457
128	0xbc4f083c	-0.012636241
129	0xbc873a56	-0.016507309
130	0x3cb4c58b	0.022066852
131	0x3c911478	0.017709956
132	0x3b953bd2	0.0045542503
133	0xbb9ae521	-0.0047270213
134	0xbc6b9233	-0.014378118
135	0x3bf3e92b	0.0074435673
136	0x3ca9be32	0.020720575
137	0x3c3ad656	0.011403641
138	0xbd122446	-0.035679124
139	0xb9adac28	-0.00033125398
140	0x3cb86902	0.02251101
141	0xbc1fcff0	-0.009754166
142	0x3c6a2f0d	0.014293444
143	0xbcb45e34	-0.022017576
144	0xbc5778c1	-0.013151349
145	0x3b88cccb	0.004174804
146	0x3c2001e7	0.009766079
147	0x3a9d8b37	0.0012019639
148	0xbc0d7a1b	-0.008635069
149	0xbc1a6770	-0.0094240755
150	0x3c401439	0.011723571
151	0x3bc030c9	0.0058651906
152	0xbc193f70	-0.009353504
153	0xbb43458c	-0.0029796092
154	0x3c2dba56	0.010603508
155	0xbbe891fc	-0.007097481
156	0x3c0cf1c1	0.0086025605
157	0xbb5ce91b	-0.0033708278
158	0x3c928703	0.017886644
159	0x3a24c561	0.0006285515
160	0xbcdbd9e0	-0.02683729
161	0x3aad7a88	0.001323537
162	0xbae78787	-0.0017664292
163	0xbc895da6	-0.016768288
164	0x3c31c6e4	0.010850642
165	0xbc2a27e6	-0.010385489
166	0x3c75d625	0.015004669
167	0x3d064beb	0.032787245
168	0xbaa32103	-0.0012445751
169	0x3cc49fd5	0.024001995
170	0xbc2573c8	-0.010098405
171	0x3c603449	0.013684341
172	0x3bcf5264	0.0063269604
173	0x3c964022	0.018341128
174	0x3c6b19aa	0.0143493805
175	0xbc942bf9	-0.018087374
176	0xbcc957e4	-0.024578042
177	0xbc3eead7	-0.01165267
178	0x3c2ddfe7	0.0106124645
179	0x3c72cb9c	0.014819052
180	0xbbaeddcc	-0.005336499
181	0x398a8e37	0.0002642737
182	0xbc09a564	-0.008401249
183	0xbb987db7	-0.0046536583
184	0x3c99ec8d	0.018789554
185	0x3ca3d326	0.019998144
186	0x3c53c0e9	0.012924411
187	0xba9faacc	-0.0012181639
188	0xbbb8c0fb	-0.0056382394
189	0xbcab6215	-0.020920793
190	0xbc443a56	-0.011976799
191	0xbb2d500e	-0.0026445421
192	0x3c4827e3	0.012216541
193	0x3cc6aa46	0.024251115
194	0xba27c7f0	-0.00064003374
195	0x3d136560	0.03598535
196	0xbc9a9891	-0.018871577
197	0xbc44165a	-0.01196822
198	0xbb78b093	-0.0037947043
199	0xbb266e68	-0.0025395397
200	0xbc1f2258	-0.009712778
201	0x3b07ec44	0.002074019
202	0xbc19ad92	-0.009379761
203	0xbc88cdf1	-0.016699763
204	0x3cffe045	0.03123487
205	0xbcc81865	-0.024425695
206	0x3c77d84d	0.015127254
207	0xbc08c9a7	-0.008348859
208	0xbbd01818	-0.0063505284
209	0xbc02614c	-0.007957768
210	0x3c35bf18	0.011092924
211	0xbba222c6	-0.004947993
212	0xbb8f2d22	-0.004369394
213	0xbca0998e	-0.01960447
214	0xbce2459b	-0.027621081
215	0x3cc70427	0.024293972
216	0xbc76ef55	-0.01507171
217	0x3c6a6671	0.0143066505
218	0xbc58b837	-0.013227514
219	0x3c93419b	0.017975619
220	0x3c948a36	0.01813231
221	0xbc86fe77	-0.01647876
222	0x3b9349c3	0.004494877
223	0xbc112edd	-0.008861271
224	0x3c094a29	0.008379498
225	0xbcefab9d	-0.029256636
226	0xbc5000a4	-0.012695465
227	0xbc7f3545	-0.015576665
228	0xbb848742	-0.0040444443
229	0xbc8c4917	-0.017124696
230	0xbc9ffb48	-0.019529
231	0x3a91de70	0.0011128914
232	0xbc371c14	-0.011176128
233	0x3cd56267	0.026047898
234	0xbc46a914	-0.012125272
235	0xbc175f2f	-0.009239002
236	0x3bb962c8	0.0056575276
237	0x3b810372	0.0039371783
238	0x3934231d	0.00017179218
239	0x3c88a621	0.016680779
240	0x3c8c8db6	0.017157417
241	0x3c2b47d7	0.01045414
242	0x3cdff197	0.027336879
243	0xbca17194	-0.019707479
244	0x3c76937a	0.01504981
245	0x3cba87f2	0.022769902
246	0x3a8e54a7	0.0010858969
247	0x3c43faf7	0.01196169
248	0x3d0740b5	0.033020694
249	0x3bbb8d80	0.005723655
250	0x3bf6c5f1	0.0075309207
251	0xbc40f7b5	-0.011777808
252	0x3bf518a3	0.0074797436
253	0xbca1bf9c	-0.019744687
254	0x3ca7face	0.020505335
255	0x3bf55d01	0.0074878936

network_body._body_endoder.seq_layers.2.weight f4 [256, 256]
0	0xbd1720d5	-0.036896545
1	0x3d903ee8	0.070432484
2	0x3c84fee2	0.016234819
3	0xbe346ae0	-0.17618895
4	0xbdc2daf9	-0.09514422
5	0x3d1d95e7	0.038473036
6	0x3bdab8c7	0.006674859
7	0x3c7ba0cc	0.015358161
8	0xbd221774	-0.039573148
9	0xbd0727fd	-0.03299712
10	0x3da87ff1	0.08227528
11	0x3e296739	0.16543283
12	0x3cc8779c	0.024471097
13	0x3d9d3ff1	0.076782115
14	0x3d71986a	0.058983244
15	0xbcdc9c43	-0.02692998
16	0xbd8992da	-0.06717463
17	0x3d4e6a10	0.050394118
18	0x3ccf8114	0.025330104
19	0xbcd7e1e1	-0.026352825
20	0xbcbe0371	-0.023195
21	0x3db40521	0.08790041
22	0xbbe6e1bd	-0.007045953
23	0xbd01428a	-0.031557597
24	0x3d9a6b33	0.07539978
25	0x3d7bd8d6	0.061486088
26	0x3cec175a	0.028819729
27	0xbc680cd0	-0.014163211
28	0x3cbc8afb	0.02301549
29	0x3cc134c2	0.023584727
30	0x3deaa067	0.114563756
31	0x3d844b89	0.0645972
32	0x3db9e999	0.09077758
33	0xbd0d9ba9	-0.034572277
34	0x3bd721af	0.0065652947
35	0x3ca90bfd	0.0206356
36	0xbd436429	-0.047702942
37	0xbdce8146	-0.10083251
38	0x39be04cb	0.00036243195
39	0xbd1c2420	-0.03812039
40	0xbb057e2e	-0.0020369398
41	0xbcf1daa0	-0.029523194
42	0x3ce2b3cc	0.027673624
43	0xbe3d2f2c	-0.18475026
44	0x3c9eb3f1	0.019372912
45	0xbd826548	-0.06366974
46	0x3d398412	0.045291968
47	0xbcfd5d2d	-0.030928219
48	0xbd4874fc	-0.04893969
49	0xbc917da8	-0.017760113
50	0x3dd9d082	0.10635473
51	0x3d6eae80	0.058271885
52	0x3d641c1d	0.055690873
53	0xbc9cd85d	-0.019146139
54	0xbc135a20	-0.008993655
55	0x3b0de79f	0.002165295
56	0xbde37b3c	-0.111074895
57	0x3d71b76f	0.059012827
58	0x3cd15de0	0.025557458
59	0x3d77f44c	0.060535714
60	0xbcfb0c00	-0.03064537
61	0x3d73cdac	0.059522316
62	0xbcc1509f	-0.023598013
63	0x3c741fa6	0.014900124
64	0x3d5498d1	0.05190355
65	0x3db3718e	0.08761893
66	0xbc8291c3	-0.015938645
67	0x3d8223ca	0.063544825
68	0xbd58a3b2	-0.052890487
69	0x3e28b9e4	0.16477162
70	0x3c6ea593	0.014565843
71	0x3cb92a1e	0.02260309
72	0xbd2b6003	-0.04183961
73	0x3ce9567f	0.028483627
74	0xbc0708d8	-0.008241855
75	0x3dd45627	0.10367995
76	0x3d6f850e	0.0584765
77	0xbcce0de7	-0.025153114
78	0xbd6add24	-0.057339802
79	0xbbd10343	-0.0063785627
80	0xbc6703bc	-0.014100011
81	0xbdb57836	-0.08860819
82	0xbdb303c9	-0.08740956
83	0xbd3bcd8f	-0.045850333
84	0x3d3ca47e	0.04605531
85	0xbd586cba	-0.052838065
86	0xbe0fe57d	-0.14052387
87	0x3df8bc9a	0.12145348
88	0xbd63dbfb	-0.05562971
89	0xbcbaa4c2	-0.02278364
90	0x3c965d92	0.018355165
91	0xbbc0818e	-0.005874819
92	0xbc0f7e3a	-0.008758122
93	0x3de852c0	0.11343908
94	0x3cd7030d	0.026246572
95	0x3d33523a	0.04377959
96	0x3c3f6e44	0.011684004
97	0x3dc58530	0.09644544
98	0xbd92d970	-0.07170379
99	0x3d9c2481	0.0762415
100	0x3c8dfeac	0.017333351
101	0xbaa1555e	-0.0012308767
102	0x3d0c6778	0.034278363
103	0x3da4bab9	0.08043427
104	0x3d0d8fff	0.034561154
105	0x3da56c62	0.08077313
106	0xbc6853b3	-0.014180112
107	0x3d8b4cc4	0.06801751
108	0x3c146770	0.009057865
109	0xbe0d1eaa	-0.13781229
110	0xbca8fd37	-0.020628555
111	0x3c1bfa76	0.009520164
112	0x3e1fff4f	0.15624736
113	0x3d386dfe	0.04502677
114	0xbd75ba93	-0.059992384
115	0xbd1aaf25	-0.037764687
116	0x3c67fc6c	0.014159303
117	0xbdc76d28	-0.09737617
118	0xbd41faf7	-0.04735848
119	0xbcaac23c	-0.020844571
120	0x3ca5c3fa	0.02023505
121	0xbd8da75e	-0.069166884
122	0x3d1d5644	0.038412347
123	0x3d31a7dc	0.043372974
124	0xbdca6031	-0.09881628
125	0xbc540e57	-0.012942872
126	0x3c3bf812	0.011472719
127	0x3cea2b15	0.028584996
128	0xbc8c8206	-0.017151844
129	0xbcc00098	-0.023437783
130	0x3e3dd94d	0.18539925
131	0xbc753b44	-0.014967743
132	0x3d3f9d39	0.0467808
133	0x3d78b068	0.06071511
134	0x3c07b544	0.008282963
135	0x3cb4b09c	0.02205687
136	0x3d5e92c4	0.054339185
137	0xb9a2e69f	-0.00031070874
138	0x3ca5d81e	0.020244654
139	0xbbed4c65	-0.007241773
140	0x3d2c6f7c	0.042098507
141	0x3df9f42f	0.122047774
142	0x3c23aa6e	0.009989364
143	0x3e2213e0	0.15827894
144	0xbe2c9fa9	-0.1685778
145	0xbd9d1de9	-0.076717205
146	0xbbb5d493	-0.0055490225
147	0xbdfe2ba5	-0.12410668
148	0x3d281e54	0.04104455
149	0x3d0c7f0e	0.034300856
150	0xbd07e523	-0.033177506
151	0x3dbb4716	0.09144418
152	0xbc959fa9	-0.018264608
153	0x3caa758a	0.020808
154	0x3db51bc5	0.08843187
155	0x3d64cddb	0.05586038
156	0xbce8547c	-0.028360598
157	0x3d84770b	0.06468018
158	0xbbda4bf5	-0.006661887
159	0xbb56e650	-0.0032791086
160	0x3c9e48ec	0.019321881
161	0xbd73c135	-0.05951043
162	0x3b8c765b	0.00428657
163	0x3d866f51	0.06564201
164	0xbd5b7f53	-0.053588223
165	0x3bf6e89e	0.0075350543
166	0x3cdb7094	0.02678708
167	0x3b1d4261	0.0023995864
168	0xbc3daec7	-0.011577315
169	0x3d21d961	0.03951395
170	0xbdaf0f9c	-0.08547899
171	0x3cfebd55	0.03109614
172	0x3bceab7a	0.0063070627
173	0xbca8cb1a	-0.020604659
174	0x39a947b0	0.00032287603
175	0x3d71617d	0.058930863
176	0x3dc4b579	0.09604926
177	0xbc84279d	-0.01613217
178	0xbdce3d5f	-0.10070299
179	0x3dda9937	0.10673755
180	0x3c8dc1a8	0.017304257
181	0x3cf1b6d3	0.029506123
182	0xbc42165c	-0.011846151
183	0xbddd790a	-0.10814102
184	0x3c1cbf3e	0.00956708
185	0x3d220afb	0.039561253
186	0x3d7e7048	0.0621188
187	0xbdbca381	-0.092108734
188	0xbdb0328a	-0.086033896
189	0xbd012b4b	-0.031535428
190	0xbcf69b93	-0.03010348
191	0x3d62f33f	0.05540776
192	0xbd1c6152	-0.03817875
193	0x3d7867e1	0.06064594
194	0xbd8b756d	-0.068095066
195	0x3e05699d	0.1302857
196	0xbcc9f721	-0.024653973
197	0x3e0263fa	0.1273345
198	0x3d0e2088	0.034698993
199	0x3d85aee7	0.065275006
200	0xbd518319	-0.051150415
201	0xbd8b0fb4	-0.067901045
202	0xbe25ffa5	-0.16210802
203	0xbd4f8d20	-0.050671697
204	0x3c7a2e06	0.015269762
205	0xbcb271c2	-0.02178276
206	0x3c9eb2fe	0.01937246
207	0x3ceb9f45	0.028762469
208	0x3cfa41d4	0.030548967
209	0xbd12ee9f	-0.035872098
210	0xbda0f06e	-0.07858358
211	0xbd939081	-0.07205296
212	0xbd9b7f25	-0.0759261
213	0x3e0a2825	0.13491876
214	0x3c192f28	0.009349622
215	0xbd65006f	-0.055908617
216	0x3ac658b3	0.0015132636
217	0xbcbc5026	-0.022987437
218	0x3c867913	0.016415155
219	0x3d77bf40	0.060485125
220	0x3d0ccb74	0.034373716
221	0xbe2a13d5	-0.16609128
222	0xbd26fcb4	-0.04076834
223	0xbcbc3672	-0.02297518
224	0x3dad5557	0.08463543
225	0x3d1ddf04	0.038542762
226	0x3c8d2290	0.017228395
227	0x3d2f144f	0.042743977
228	0xbd5e29a5	-0.054238934
229	0x3da5f55f	0.081034414
230	0xbc8b2817	-0.01698689
231	0x3a9d3d88	0.0011996487
232	0x3dbd0715	0.092298664
233	0xbcb5a37e	-0.022172686
234	0x3c3cf432	0.01153283
235	0xbe30f637	-0.17281424
236	0xbca40edd	-0.020026619
237	0x3e196dc4	0.14983279
238	0xbd90e673	-0.07075205
239	0xbc62240f	-0.013802542
240	0x3a7305a6	0.0009270556
241	0x3c8e9b72	0.017408106
242	0x3d76c0a0	0.060242295
243	0x3cc601b8	0.024170741
244	0xbd27d3c0	-0.040973425
245	0xbdeadda5	-0.114680566
246	0x3d052ede	0.0325154
247	0xbdd1f171	-0.102511294
248	0x3c0ceac8	0.008600898
249	0xbce0c42b	-0.02743729
250	0xbdc6e0f8	-0.09710878
251	0x3d988eaa	0.07449086
252	0xbd01d194	-0.03169401
253	0x3cd54e77	0.026038392
254	0x3df10a4f	0.11769544
255	0x3e01074a	0.12600437

network_body._body_endoder.seq_layers.2.bias f4 [256]
0	0xbc1d52dc	-0.009602275
1	0xbb87f522	-0.004149095
2	0xbbef283b	-0.007298497
3	0xbc2e318e	-0.010631932
4	0x3ae7c711	0.0017683228
5	0xbb8aa6ab	-0.004231294
6	0xbac53d2c	-0.0015048138
7	0xbba75529	-0.0051065874
8	0xbb9cff78	-0.0047911964
9	0xbbb8ed91	-0.0056435545
10	0xb988d13c	-0.00026095833
11	0xba161599	-0.0005725264
12	0xbbcfea70	-0.006345086
13	0xba63bad4	-0.00086872024
14	0xbc3b837b	-0.011444922
15	0x3b00a13e	0.0019627358
16	0xbc053d59	-0.008132302
17	0xbb7039ed	-0.003665562
18	0x3b7e8900	0.0038838983
19	0x3b041616	0.0020154766
20	0xbb2e0709	-0.0026554486
21	0xbb91629b	-0.0044368035
22	0xba43c25d	-0.0007467622
23	0xbb8ae0ce	-0.0042382246
24	0xbc5c14da	-0.013432706
25	0x3b3d7049	0.0028906038
26	0xbc046c5a	-0.008082474
27	0xbad1e745	-0.0016014358
28	0x3a4227a0	0.0007406417
29	0xbc13d82f	-0.00902371
30	0xbad2ea63	-0.0016091581
31	0x38c40482	9.346848e-05
32	0x3a829081	0.0009961278
33	0xbbcc033f	-0.006225973
34	0x3bcfe077	0.006343897
35	0xbb90590d	-0.004405147
36	0x3b89fa5a	0.0042107524
37	0x3b7d9aaf	0.0038696935
38	0xbba73ebc	-0.005103914
39	0x3b79eb1a	0.0038134516
40	0xbaa4a18b	-0.0012560351
41	0xbb9ddc00	-0.004817486
42	0xbb983b0c	-0.004645711
43	0x3b1676a8	0.0022958908
44	0x3bb0688e	0.0053835576
45	0xbbcaf2bb	-0.0061934865
46	0xbba2afa8	-0.0049647875
47	0x3960f6f8	0.00021454308
48	0xbbcfe540	-0.0063444674
49	0x3c2bcfb1	0.010486529
50	0x3bdf6184	0.0068170447
51	0x3d024bf5	0.03181072
52	0x3b1605ae	0.002289157
53	0x39dc4874	0.00042015652
54	0xbafb3a54	-0.0019167163
55	0xbb49e4c3	-0.0030806519
56	0xbb8eb377	-0.00435489
57	0xbc31c23a	-0.01084953
58	0xbb67eda1	-0.003538944
59	0xba840b5a	-0.0010074184
60	0x3b3c645c	0.0028746342
61	0xbb56dbce	-0.0032784822
62	0x3bcae413	0.0061917393
63	0x3c6c3dc5	0.014419024
64	0xbaa90ef4	-0.0012898133
65	0x3648ece8	2.994022e-06
66	0xbb10f641	-0.0022119435
67	0x3afa40a5	0.0019092752
68	0xbaacc7a2	-0.0013182054
69	0xb9d1e66d	-0.00040035267
70	0xbc2b189d	-0.01044288
71	0xbc2aed74	-0.01043259
72	0xbb7b0208	-0.0038300771
73	0xbb64ae5a	-0.003489396
74	0x3b111b0b	0.0022141363
75	0x3a8105a6	0.0009843602
76	0xbbd242e0	-0.0064166635
77	0xbc367f6a	-0.011138776
78	0xbc54122e	-0.0129437875
79	0xbbe5c53b	-0.007012037
80	0xbb8cc19f	-0.0042955424
81	0x3bc47a8a	0.005996053
82	0x3a71dd46	0.0009226393
83	0xbb04f958	-0.0020290222
84	0x3baa52cc	0.0051978584
85	0xbbd42533	-0.006474161
86	0xbb7d515d	-0.0038653233
87	0xbb6678ad	-0.0035167143
88	0x3b5bac43	0.0033519424
89	0xbbdecd1a	-0.0067993524
90	0xbbbef925	-0.00582804
91	0x3aecfcb3	0.0018080681
92	0xbb237b14	-0.0024945186
93	0xbadbfcd8	-0.0016783727
94	0xba8b1188	-0.0010610083
95	0xbb15313c	-0.0022764942
96	0xbbcd8271	-0.0062716533
97	0xbb4ba4cb	-0.0031073566
98	0xba479627	-0.0007613622
99	0xbc54f4e0	-0.012997836
100	0xba47eee8	-0.00076268474
101	0x3b18b956	0.0023303828
102	0xbbc14251	-0.005897798
103	0xb9ee5381	-0.00045457113
104	0x3bd29aeb	0.006427159
105	0xbbace64b	-0.0052764765
106	0x3b78dd6b	0.0037973772
107	0xba8c01a6	-0.0010681644
108	0x3b47747a	0.0030434416
109	0xbb8ed60e	-0.0043590134
110	0xbb2adf93	-0.0026073202
111	0xba7ed9ec	-0.0009721804
112	0xbbdc4dae	-0.0067231273
113	0xbaab4684	-0.001306728
114	0x3b5b59dd	0.003347031
115	0xbbfde6f8	-0.007748481
116	0xb97a3096	-0.00023859958
117	0xbc1833e4	-0.009289715
118	0xbb962095	-0.004581521
119	0xbbcdd58d	-0.0062815608
120	0x3bb7daef	0.0056108157
121	0xbc1ae1cc	-0.009453248
122	0x3a556200	0.00081399083
123	0xba4c50d1	-0.0007794025
124	0xba31273f	-0.0006757862
125	0xbc16704b	-0.009182046
126	0x3b72793a	0.0036998526
127	0xba4f018e	-0.0007896655
128	0x3c205703	0.00978637
129	0x36f94877	7.4292143e-06
130	0x3bc280d4	0.0059357677
131	0x3c0c258b	0.008553873
132	0x39633349	0.00021667512
133	0xb985cf01	-0.00025521967
134	0xbbfa3391	-0.0076355417
135	0xbb683469	-0.003543163
136	0x3bade059	0.0053062853
137	0x392fe8fb	0.00016776093
138	0x3bef5295	0.0073035457
139	0x370d384e	8.417364e-06
140	0x3b86a38d	0.0041088522
141	0xbb595698	-0.0033163186
142	0xbadcc9e7	-0.001684484
143	0xbc1588b8	-0.009126835
144	0x3b0f0466	0.002182269
145	0xbbe3450b	-0.006935721
146	0xbaf8c8c5	-0.0018980732
147	0xbc0dae5c	-0.008647528
148	0xbc420a19	-0.011843228
149	0x3bf52b46	0.0074819652
150	0x3b967bed	0.00459241
151	0xbb08a45e	-0.0020849924
152	0xbc046c97	-0.00808253
153	0x3c0f9bca	0.00876517
154	0xbb2edc21	-0.00266815
155	0x3bc1c6ed	0.0059136064
156	0x3bb024a9	0.005375464
157	0x3a84a397	0.0010119554
158	0xba5cf41f	-0.0008428711
159	0xba2ed352	-0.00066690624
160	0x3a923d56	0.0011157196
161	0x3bd3d141	0.006464154
162	0xbbafbd10	-0.005363114
163	0xbb453455	-0.0030091007
164	0xbb1e8bca	-0.0024192207
165	0xbb93e2fc	-0.0045131426
166	0x3a8f82aa	0.0010948975
167	0x3bacddcb	0.005275463
168	0xbbf2b767	-0.007407117
169	0x3a0dedd8	0.00054141646
170	0x39e19e85	0.0004303345
171	0xbc00eb05	-0.007868533
172	0x39b3ca25	0.0003429215
173	0xbc032fa9	-0.008006969
174	0xbb2c8f34	-0.0026330473
175	0x3b74a529	0.0037329888
176	0xbc051f4c	-0.008125138
177	0x3b669d29	0.003518889
178	0xb98f32d4	-0.00027312955
179	0x3be100f0	0.006866567
180	0x3be6a20c	0.0070383605
181	0xbb812f35	-0.003942395
182	0xbafb8943	-0.0019190687
183	0xbb1e016a	-0.002410973
184	0x3c08b18e	0.008343114
185	0xbb6baa62	-0.003595971
186	0x3b62da16	0.0034614853
187	0xbc18ee8e	-0.00933422
188	0xbbf668df	-0.007519826
189	0xbbd9dce8	-0.0066486485
190	0xbc0045b6	-0.00782912
191	0x3b2ad6e0	0.0026068017
192	0xbbfe8276	-0.007767017
193	0x3c32f25c	0.010922041
194	0xbc3e913f	-0.011631309
195	0x3c13774a	0.009000609
196	0xbc0fcf60	-0.008777469
197	0xbbef74bc	-0.007307617
198	0xbafbfe6a	-0.0019225602
199	0xba0aa8a4	-0.00052894116
200	0x3bfcd129	0.0077153635
201	0xba8a7a05	-0.0010564929
202	0xbad6250e	-0.0016337947
203	0x3abf6ab2	0.0014603941
204	0x39d9b85e	0.0004152683
205	0xbadaaf41	-0.001668431
206	0x3b0977b1	0.0020975883
207	0x3c22b2ed	0.009930355
208	0xbb42eede	-0.0029744427
209	0xbbd44186	-0.0064775376
210	0x3a84cb56	0.00101314
211	0x3a2f46f5	0.00066862936
212	0xba956d66	-0.0011400401
213	0x3c1708b0	0.00921838
214	0x3a7e07c0	0.0009690486
215	0xbb922501	-0.0044599776
216	0x3c11e15e	0.008903829
217	0xbb8765c3	-0.004132004
218	0xbb76c247	-0.003765242
219	0xbc095b2c	-0.0083835535
220	0x3b02fbd6	0.0019986532
221	0xba879e81	-0.001034692
222	0x3b04d90c	0.0020270972
223	0x3a2fa8a7	0.00067008514
224	0xbc411f6a	-0.011787275
225	0x3bf77c70	0.007552676
226	0xbb0fc2c3	-0.0021936155
227	0xba1896a0	-0.0005820785
228	0xbaf05009	-0.0018334399
229	0x38b5b9b9	8.665346e-05
230	0x38f27460	0.00011561136
231	0xbb0ba2e9	-0.0021306819
232	0x3bbfe34d	0.005855954
233	0xbb942fae	-0.0045222854
234	0x3b120c41	0.0022285136
235	0x3a946641	0.0011321978
236	0x3b09f241	0.0021048936
237	0xbc099c4a	-0.008399079
238	0xba0c8dd0	-0.0005361708
239	0xbbe111bf	-0.0068685706
240	0xbba77e1b	-0.0051114685
241	0xbb8ace60	-0.0042360276
242	0xbb76df4f	-0.0037669723
243	0xbbc31955	-0.0059539475
244	0xbc0c0365	-0.008545731
245	0x3bee95ed	0.007281056
246	0xbb08f734	-0.0020899298
247	0xbbae5140	-0.0053197443
248	0x3c31c539	0.010850244
249	0xbc3e39ef	-0.011610492
250	0xbc6b858e	-0.014375104
251	0xbb036a15	-0.0020052243
252	0x3a239b32	0.00062410824
253	0xbc26624b	-0.010155271
254	0xbc065d10	-0.008200899
255	0xbb1deb38	-0.00240965

network_body._body_endoder.seq_layers.4.weight f4 [256, 256]
0	0xbc0bc383	-0.0085305
1	0xbd60ac8a	-0.054852046
2	0xbabf81af	-0.0014610792
3	0x3deb5d14	0.114923626
4	0xbdd8e763	-0.105910085
5	0x3d9d0630	0.07667196
6	0xbd770738	-0.06030962
7	0xbd81e51f	-0.063425295
8	0xbe35bfcd	-0.17748947
9	0xbd256116	-0.04037579
10	0xbcce28d9	-0.025165962
11	0xbbc2f3f0	-0.00594949
12	0xbd5ce862	-0.053932555
13	0x3d5afb17	0.053462114
14	0x3d5e69cf	0.054300126
15	0xbd34b189	-0.044114623
16	0xbd6e5b4b	-0.058192533
17	0xbd964b97	-0.07338636
18	0x3d8e0ae1	0.06935669
19	0x3cb8229d	0.022477442
20	0xbd485ae3	-0.0489148
21	0xbdbbcb49	-0.09169633
22	0xbdb23610	-0.08701718
23	0xbdb0617a	-0.08612342
24	0x3daa8cf0	0.08327663
25	0x3cad373d	0.021144504
26	0x3d271618	0.040792555
27	0x3d1fde6a	0.03903047
28	0xbcce40a8	-0.025177315
29	0x3c726e2f	0.014796778
30	0xbd79d7db	-0.06099687
31	0x3d363d6a	0.044492163
32	0x3d464fbb	0.04841588
33	0xbd25d467	-0.040485766
34	0xbb71e6b6	-0.0036911196
35	0xbe18fd66	-0.14940414
36	0xbd517c6d	-0.051144052
37	0x3d4c1948	0.049828798
38	0x3d4719d6	0.048608623
39	0xbd0e9a9e	-0.034815423
40	0x3d0cffff	0.034423824
41	0x3d62d04f	0.05537444
42	0x3d2eee47	0.042707708
43	0x3e0ac0e2	0.13550141
44	0x3ddcd923	0.10783603
45	0xbd74b3db	-0.059741836
46	0x3d82c78c	0.06385717
47	0xbdb8dc31	-0.09026373
48	0x3b9dfe28	0.0048215576
49	0xbbd97703	-0.0066365018
50	0xbc9c0e70	-0.019049853
51	0xbcff260d	-0.031146074
52	0xbda6dcf4	-0.08147612
53	0xbcfa8ac4	-0.030583747
54	0x3ceff84b	0.0292932
55	0x3ce8abe9	0.028402286
56	0x3c98248b	0.018572113
57	0xbdcba5c5	-0.099437274
58	0x3d80eca0	0.06295133
59	0xbd1b9426	-0.037983082
60	0x3d9dfb6d	0.07713971
61	0x3c7a55f8	0.015279286
62	0x3d8f128a	0.06985958
63	0xbd0eb449	-0.034839902
64	0xbd8200e2	-0.06347825
65	0xbb22b3bd	-0.002482637
66	0xbde335f0	-0.11094272
67	0xbda33064	-0.07968214
68	0xbbf86ec7	-0.007581565
69	0xbdc7c52c	-0.097544044
70	0xbd912ba6	-0.070884034
71	0xbb9b9386	-0.004747811
72	0x3dac9405	0.0842667
73	0x3c986626	0.018603396
74	0xbcdd6adc	-0.027028494
75	0xbda7e47c	-0.08197877
76	0x3d125a45	0.03573062
77	0x3dbfdc9a	0.09368248
78	0xbd9a43e1	-0.07532478
79	0xbdd2cdf7	-0.10293191
80	0x3e065229	0.13117279
81	0xbd99e9fd	-0.07515333
82	0x3d1a22b1	0.03763074
83	0x3dc14188	0.09436327
84	0x3d5fda04	0.054651275
85	0xbd754a41	-0.059885267
86	0x3c709747	0.014684505
87	0xbb879983	-0.004138173
88	0xbdd28441	-0.10279132
89	0xbde54a8d	-0.1119586
90	0xbd7055a1	-0.058675412
91	0x3d10d6f5	0.03536125
92	0xbc860ea9	-0.016364412
93	0xbc945e97	-0.01811151
94	0xbdd97dcc	-0.10619697
95	0x3de4949c	0.111611575
96	0xbb7a8e05	-0.0038231623
97	0x3b14b96b	0.0022693526
98	0x3917ca90	0.00014475943
99	0xbd43916c	-0.047746107
100	0x3cb3236c	0.021867476
101	0x3dc4da0f	0.09611904
102	0x3e31ab1c	0.1735043
103	0x3cc8a7a8	0.024494007
104	0xbd9a1370	-0.07523239
105	0xbd89bd82	-0.06725599
106	0x3d885fac	0.06658873
107	0x3d5d8ea4	0.05409111
108	0x3d5f5951	0.05452854
109	0xbce62ca2	-0.028097454
110	0xbc6539a3	-0.013990792
111	0xbcac49d0	-0.02103129
112	0xbd169909	-0.03676704
113	0xbc8f2fbb	-0.017478814
114	0xbc155b12	-0.009115951
115	0x3d8ab05e	0.067719206
116	0x3d33dda6	0.043912552
117	0x3d56f553	0.052480053
118	0x3e008c9a	0.12553635
119	0x3cafa6ce	0.021441843
120	0xbddab663	-0.10679319
121	0xbe1731fa	-0.14765158
122	0xbd1f6738	-0.038916796
123	0x3d7529ce	0.05985432
124	0xbd92e860	-0.07173228
125	0x3d967ccd	0.073480226
126	0x3d80f16e	0.06296049
127	0x3cb55a9f	0.022137938
128	0xbcccc7f0	-0.024997681
129	0xbda80090	-0.08203232
130	0xbd87b816	-0.066269085
131	0x3d7c59c2	0.061609037
132	0x3d8536b1	0.06504572
133	0x3cfdd44f	0.030985026
134	0x3c3f41d3	0.011673409
135	0x3da5a993	0.08088984
136	0x3cc69b02	0.024243835
137	0x3dabf5dc	0.08396503
138	0xbde945cd	-0.113902666
139	0xbd9b7de3	-0.0759237
140	0xbce18d8f	-0.02753332
141	0x3c9f960f	0.019480733
142	0x3d0d4680	0.034491062
143	0x3da6efc9	0.08151204
144	0xbc81aa46	-0.015828263
145	0x3d4d2fc0	0.050094366
146	0x3a9abfb8	0.0011806404
147	0x3c4bb5e6	0.012433505
148	0xbcfb766c	-0.030696116
149	0x3d30bd38	0.043149203
150	0x3c02d6e3	0.007985803
151	0x3cd08d1e	0.025457915
152	0xbd4b2334	-0.04959412
153	0x35cd17bc	1.5280598e-06
154	0xbdaab00e	-0.08334361
155	0x3dce89cc	0.100848764
156	0x3e1e982e	0.1548774
157	0x3cb8de74	0.022567011
158	0x3dededdf	0.11617636
159	0xba031e79	-0.0005001794
160	0x3d4211be	0.0473802
161	0xbd054b43	-0.03254248
162	0x3cb8c402	0.022554401
163	0x3c95d597	0.018290324
164	0xbbe9b646	-0.0071323244
165	0xbdc81ccc	-0.097711176
166	0xbc10e75c	-0.008844223
167	0xbd7c1bf0	-0.06155008
168	0xbdc55de0	-0.09637046
169	0xbd34c716	-0.044135176
170	0x3d4768d6	0.048683964
171	0x3da4429e	0.08020519
172	0x3db3b1b5	0.08774129
173	0x3dbfdc85	0.09368233
174	0xbd205c62	-0.039150603
175	0xbd15ea9a	-0.036600687
176	0x3d72e710	0.05930239
177	0x3d0f5c0c	0.034999892
178	0x3d947a63	0.07249906
179	0xbe0d24f3	-0.13783626
180	0x3de20a2e	0.11037098
181	0xbd6ef0e6	-0.058335207
182	0x3d40a752	0.04703457
183	0x3d177c2e	0.03698366
184	0xbd9a32a3	-0.075291894
185	0xbd397ad5	-0.045283157
186	0x3c570c1e	0.013125448
187	0x3ca700ed	0.020386184
188	0x39c9566e	0.00038402103
189	0x3cde5d76	0.027144175
190	0xbd5d37f8	-0.054008454
191	0xbd080152	-0.033204384
192	0x3dfd9c0d	0.1238328
193	0x3de2e74c	0.11079273
194	0xbd7e3ead	-0.06207149
195	0x3d2637aa	0.04058043
196	0xbd59b33b	-0.053149443
197	0xbc5c33a4	-0.013440046
198	0xbc4de1e5	-0.0125660645
199	0xbd64c68d	-0.055853415
200	0xbcfa8817	-0.03058247
201	0xbd2af86d	-0.041740824
202	0xbd34253f	-0.043980833
203	0xbd00d7f7	-0.03145596
204	0x3c9ac8e1	0.018894615
205	0xbc8a449b	-0.016878417
206	0xbdbc6d84	-0.09200576
207	0x3d902a4a	0.07039316
208	0xbdeaae7e	-0.11459063
209	0x3b0b8aab	0.002129237
210	0xbcd783d2	-0.026307974
211	0x3c759091	0.014988081
212	0xbe112bde	-0.1417689
213	0x38578446	5.1383184e-05
214	0xbd3ff032	-0.046859927
215	0x3d819489	0.06327159
216	0xbdad2e1a	-0.08456059
217	0x3c6697c7	0.0140742725
218	0x3c711844	0.014715258
219	0x3b5cda4f	0.0033699458
220	0xbd85b8f7	-0.0652942
221	0xbc7cf0d0	-0.015438274
222	0xbc88d0c2	-0.016701106
223	0x3cf29501	0.029612066
224	0x3d28eed2	0.04124338
225	0xbd3eda59	-0.04659495
226	0xbb8dd9b9	-0.004328933
227	0xbda385bc	-0.07984492
228	0x3db48a67	0.08815461
229	0x3cb8f18b	0.022576114
230	0x3d878c5b	0.066185676
231	0x3c091dbe	0.0083689075
232	0xbd95f40a	-0.073219374
233	0x3db30b21	0.08742357
234	0xbc244e75	-0.010028471
235	0x3d68e51f	0.056859132
236	0x3caf8cdd	0.021429474
237	0xbd9fd598	-0.07804412
238	0xbe09b3a4	-0.13447434
239	0x3c5b3e05	0.013381486
240	0xbcf63cda	-0.030058313
241	0xbda0999e	-0.078418
242	0xbd680524	-0.056645527
243	0x3ca151ef	0.01969239
244	0xbe3a2025	-0.18176325
245	0x3c29b0b0	0.010357067
246	0xbc9940cd	-0.018707657
247	0xbca66522	-0.020311896
248	0x3d02ca36	0.031931125
249	0xbc7572ba	-0.014980966
250	0x3d30cd3a	0.04316447
251	0xbccb7d4f	-0.024840025
252	0x3dd463c5	0.10370592
253	0xbd04dc49	-0.032436643
254	0x3d77ad92	0.060468264
255	0xbb3606b4	-0.0027774991

network_body._body_endoder.seq_layers.4.bias f4 [256]
0	0x3b08d809	0.002088072
1	0x3b92dd2c	0.004481932
2	0xbc31eb65	-0.010859345
3	0x3bb84827	0.0056238356
4	0x3bc8d905	0.0061293864
5	0x3b05805c	0.0020370698
6	0xbc3bbf64	-0.011459205
7	0xbc4b4c01	-0.012408257
8	0x3bdb5540	0.006693512
9	0xba21df23	-0.00061749126
10	0xbc217d5b	-0.009856547
11	0xbaa2425f	-0.0012379399
12	0xbaa958c2	-0.0012920129
13	0xbc452b38	-0.01203423
14	0x3b6bf82a	0.0036006072
15	0xbc2f2b56	-0.010691484
16	0x3c5e0e8f	0.013553276
17	0xbb05e822	-0.0020432551
18	0x3b5eeec9	0.0034016839
19	0xbc5d7549	-0.0135167325
20	0xbc45256d	-0.012032849
21	0xbbc1cb56	-0.005914132
22	0xbb9f5bad	-0.0048632235
23	0xbba1b9c3	-0.0049354746
24	0xbc0e95ee	-0.008702738
25	0xbc0b1336	-0.008488467
26	0xbb4cbf79	-0.0031242056
27	0x3bf1afcf	0.0073756943
28	0xbc35a7e6	-0.011087393
29	0x3b5f6a95	0.0034090627
30	0xbc0ba96c	-0.00852428
31	0xbc181ebe	-0.009284673
32	0xbb431123	-0.0029764853
33	0xbc039890	-0.008031979
34	0xbbc30e7f	-0.005952656
35	0x3b1ad316	0.0023624352
36	0xbbd3af8c	-0.006460136
37	0x39a4b94e	0.0003141858
38	0xbb9d4fd5	-0.0048007765
39	0xbc0cd0b8	-0.008594684
40	0xbbe8c906	-0.007104042
41	0xbc0c8188	-0.0085758045
42	0xbc1f89af	-0.009737416
43	0x3b922aee	0.004460684
44	0x3bbf8df9	0.005845782
45	0xbabd8a8b	-0.0014460845
46	0xbbee3fd9	-0.007270795
47	0x3b7c5edd	0.0038508691
48	0x3c003bc6	0.007826751
49	0xbbe196f4	-0.00688445
50	0x3a9dda77	0.0012043257
51	0x3bc67bd8	0.006057244
52	0xbc0e508b	-0.008686195
53	0xbc4944b0	-0.012284443
54	0xbbf0c294	-0.0073474143
55	0x3c35d8f8	0.011099093
56	0xbbcba017	-0.0062141526
57	0x3a840ca3	0.0010074567
58	0x3c23d36b	0.009999136
59	0xbaa7c6c0	-0.0012800321
60	0xbab06783	-0.0013458583
61	0xbc5a22dc	-0.013313975
62	0x3aa9d118	0.0012955992
63	0xbb6e6fa7	-0.0036382468
64	0x3bb108b6	0.0054026498
65	0x3a1486d1	0.0005665841
66	0xbc24d4bb	-0.0100604845
67	0x3bb88448	0.0056310035
68	0x3abc0acf	0.0014346483
69	0xbc0794e7	-0.008275247
70	0xbbfb1871	-0.0076628258
71	0xbb34cf53	-0.0027589395
72	0xba6505f5	-0.00087365444
73	0xbbb4f27f	-0.005522072
74	0xbc656329	-0.014000692
75	0xbbfeb893	-0.007773468
76	0xbb3d8e77	-0.0028924027
77	0xbc107357	-0.008816562
78	0xbbec8727	-0.00721826
79	0xbbbdddaa	-0.0057942467
80	0xbc06946a	-0.008214096
81	0xbc011c46	-0.007880276
82	0x3aff7dc8	0.0019492442
83	0xbb9f18ba	-0.0048552426
84	0x3c2336ce	0.009961797
85	0xbbec9f7b	-0.00722116
86	0xbc07cd38	-0.008288674
87	0xbbc1b0f6	-0.005910988
88	0x3be34c79	0.0069366065
89	0xbbc9d022	-0.0061588446
90	0x3a90b546	0.0011040352
91	0x3a9655ca	0.0011469659
92	0xbade1cea	-0.0016945873
93	0x3b33b2b3	0.0027419745
94	0xbbfc09d3	-0.007691601
95	0xbc0aeaeb	-0.00847886
96	0xbc4cf486	-0.012509471
97	0xba138dd3	-0.00056287384
98	0x3b95cd71	0.0045716097
99	0xbc2c198a	-0.010504136
100	0x3b6619a6	0.0035110503
101	0x3b68ed8f	0.0035541987
102	0xbb92d126	-0.004480499
103	0x39d4d362	0.00040593283
104	0xbb544997	-0.0032392496
105	0x3b8c926f	0.004289917
106	0xbc1dcc42	-0.009631218
107	0x3bb9d1bc	0.0056707542
108	0xbb9b8269	-0.0047457707
109	0xbbe9c87e	-0.0071344962
110	0x3bfd6cf9	0.007733938
111	0xbb69deed	-0.0035685853
112	0xbc0664bf	-0.008202731
113	0xbbd81dd8	-0.0065953545
114	0xbb56658b	-0.0032714333
115	0x3b5d046f	0.0033724566
116	0xbb56512a	-0.0032702186
117	0xbbf5c060	-0.0074997395
118	0x3ab3fd3a	0.0013732084
119	0x3a0e60de	0.00054313045
120	0xbaaed582	-0.0013338777
121	0xbc161ef6	-0.009162655
122	0xbaab2c72	-0.001305951
123	0xbc3b593f	-0.011434852
124	0x3c193d50	0.009352997
125	0xbadc9a3f	-0.0016830637
126	0xbc2b98d9	-0.010473453
127	0xbc15bafd	-0.00913882
128	0x3afab84c	0.0019128411
129	0xbb29f231	-0.002593171
130	0xbbedb37c	-0.007254062
131	0x3b97d75a	0.004633826
132	0x3bbfc125	0.005851882
133	0xbbef36eb	-0.007300248
134	0x3a5cee97	0.00084278866
135	0x3b2291ed	0.0024806217
136	0xbab59496	-0.0013853486
137	0x3badc975	0.0053035566
138	0x3c5de06c	0.013542276
139	0xbc2bd51e	-0.010487823
140	0xbc279910	-0.010229364
141	0x3bfee1fb	0.007778404
142	0xbc53d762	-0.012929769
143	0x3bc85334	0.006113434
144	0xbc3ea821	-0.011636765
145	0xbb7d7a9a	-0.0038677813
146	0x3bd1804e	0.006393469
147	0xbb3ce5e5	-0.0028823551
148	0x3c6719f4	0.014105309
149	0x3ae0f8a5	0.0017163946
150	0x3b15758f	0.0022805666
151	0x3c4af647	0.012387819
152	0xbbc576de	-0.006026133
153	0xbb38891c	-0.0028157895
154	0xbba7b036	-0.0051174415
155	0xbbe6f61d	-0.007048382
156	0x3b019d78	0.0019777697
157	0x3b9b69e7	0.004742849
158	0x3b45f4de	0.0030205767
159	0xbb74042b	-0.003723393
160	0xba01f72e	-0.0004957792
161	0xbc3e76dd	-0.011625019
162	0xbb0a0b6b	-0.0021063935
163	0x3a9925be	0.0011684222
164	0x3af7f467	0.0018917442
165	0xbc3e7e5f	-0.011626809
166	0xbc3dbe4a	-0.011581013
167	0x3b6793ae	0.0035335827
168	0xbaed377a	-0.0018098198
169	0xbc26675b	-0.010156478
170	0x3bc777bf	0.006087273
171	0xbad49772	-0.0016219451
172	0x3bbfe9a5	0.00585671
173	0xba3d0f8b	-0.0007212094
174	0x3bfab194	0.0076505635
175	0x3b72230a	0.0036947154
176	0xbc0c64a9	-0.008568921
177	0x3b80a597	0.00392599
178	0x397ca4e6	0.00024094022
179	0x3bbd6e0d	0.0057809413
180	0xbafa1219	-0.001907888
181	0xb8a01bc0	-7.6345634e-05
182	0xbc4f4e36	-0.012652924
183	0xbba0cc91	-0.0049071987
184	0xbc389ab9	-0.0112673575
185	0xbbd31be1	-0.0064425324
186	0xbc3c4cff	-0.011492967
187	0x3a95924c	0.0011411398
188	0x3af75a52	0.0018871522
189	0xba9a1bde	-0.0011757573
190	0xbc233875	-0.009962191
191	0xbc66d411	-0.0140886465
192	0x3ab984b9	0.0014153934
193	0x3c27ac39	0.010233932
194	0x3b800a00	0.003907442
195	0xbc44c152	-0.012008982
196	0x3c2adf37	0.010429195
197	0xbc27d545	-0.0102437185
198	0xbb570e9a	-0.00328151
199	0xbc3b4a50	-0.011431292
200	0xbb660069	-0.003509546
201	0x3b282dbb	0.0025662023
202	0x3ad0a5b0	0.0015918519
203	0xbc27258b	-0.010201822
204	0xbc46542b	-0.012105028
205	0xbc2d1a2c	-0.010565322
206	0x3b1bf85f	0.0023799164
207	0xbb773be9	-0.0037724918
208	0x39aadd01	0.00032589587
209	0x3bf6abfe	0.0075278273
210	0xbb405928	-0.0029350016
211	0xbbf05ff2	-0.0073356563
212	0xb8321cac	-4.246521e-05
213	0x3b0d4720	0.0021557286
214	0x3ba0ee7a	0.004911241
215	0x3ab540a2	0.0013828466
216	0xbc350763	-0.011049124
217	0xbbbf694b	-0.0058414093
218	0x3baf17f9	0.005343434
219	0xbab1e168	-0.0013571205
220	0xba80d12f	-0.0009827967
221	0xbb945d5d	-0.0045277313
222	0xbb0cd015	-0.0021486331
223	0xbabd7ecf	-0.0014457348
224	0xbc348a08	-0.011019237
225	0xbc51ea54	-0.012812216
226	0x3b26a83f	0.0025429872
227	0x3b1ee4b5	0.0024245207
228	0xbba1dad6	-0.0049394174
229	0xbaeb57ea	-0.0017955278
230	0xbb0e4805	-0.0021710407
231	0xbbacf4a1	-0.0052781855
232	0xbb90b5e6	-0.0044162152
233	0x3b6f2a9f	0.003649391
234	0x3aaedadb	0.001334037
235	0x3a5d6ed2	0.00084469945
236	0xbbea46b8	-0.0071495436
237	0xbb1359cf	-0.002248395
238	0xbbd7ca75	-0.006585414
239	0xbbd9fd61	-0.0066525196
240	0x3ac2c721	0.001486037
241	0xbb21ab37	-0.0024668702
242	0x3b315300	0.0027057528
243	0xbbfe2b59	-0.0077566323
244	0x39886836	0.00026017585
245	0xbb818b81	-0.0039533977
246	0xbb0adf13	-0.0021190092
247	0xbb20f113	-0.0024557754
248	0xbbcffb06	-0.006347063
249	0xba4612d5	-0.0007555907
250	0xba14c147	-0.00056745525
251	0x396afee6	0.00022410936
252	0xbba5422c	-0.0050432887
253	0xbc2c9aaa	-0.010534922
254	0xba8c9096	-0.0010724242
255	0xbc5dcc6d	-0.013537508

action_model._discrete_distribution.branches.0.weight f4 [3, 256]
0	0xbb1eb01f	-0.0024213863
1	0x3b3b3e8c	0.0028571216
2	0xbbec0679	-0.00720292
3	0x3bdc1024	0.0067157913
4	0x3c56f845	0.0131207155
5	0xbbc9939c	-0.0061516296
6	0xbc2b872e	-0.010469241
7	0xbc9eb381	-0.019372704
8	0xbb2992b1	-0.0025874788
9	0x3bc84019	0.0061111567
10	0xbc28de14	-0.010306854
11	0xbc15145a	-0.0090990905
12	0xbbcd4693	-0.0062645166
13	0xbba48719	-0.0050209877
14	0x3b8e3890	0.004340239
15	0x3b624ed7	0.0034531855
16	0xbc268ca4	-0.010165367
17	0xbc515d8b	-0.01277865
18	0x3c396c7a	0.011317367
19	0xbc83d8cc	-0.016094588
20	0xbb30f270	-0.0026999973
21	0x38cdf11c	9.820072e-05
22	0xba6e27e4	-0.00090849237
23	0x3bf51d39	0.0074802903
24	0xbb942ca2	-0.004521922
25	0xbc206cdb	-0.009791578
26	0xba5967e2	-0.0008293373
27	0x3ca99477	0.020700676
28	0xba2f02d5	-0.0006676142
29	0x3af2aa7b	0.0018513942
30	0x3bbe9a36	0.005816723
31	0x3ba5be0a	0.005058055
32	0xba358021	-0.0006923695
33	0x3b331e98	0.0027331468
34	0xbbae9486	-0.005327764
35	0x3a30c98d	0.00067439006
36	0xbb4f2f29	-0.0031613803
37	0xbb5957b3	-0.0033163845
38	0xbc22c07f	-0.00993359
39	0xbc397961	-0.011320443
40	0xbc2e8394	-0.010651488
41	0xbc0b7dec	-0.008513909
42	0xbb422738	-0.0029625427
43	0x3bc3a462	0.0059705237
44	0xbba7c0b2	-0.0051194066
45	0xbb494ef1	-0.0030717219
46	0xbcae37b3	-0.021266794
47	0xb9477a43	-0.00019023665
48	0xbbb705bd	-0.005585401
49	0xbc5173e0	-0.012783974
50	0xbbccc2e4	-0.0062488187
51	0x3c0351fe	0.008015154
52	0xbc65eb5a	-0.014033163
53	0xbc85e5b3	-0.01634488
54	0x3c009b77	0.007849566
55	0xbb6fb62d	-0.003657709
56	0x3be1b413	0.0068879216
57	0x3cb7363c	0.022364728
58	0xb8f423be	-0.00011641484
59	0xbbae567f	-0.0053203697
60	0xbb1e1da9	-0.0024126566
61	0xbbcfe557	-0.006344478
62	0xbbd06fba	-0.006360975
63	0xbbf7bab3	-0.007560098
64	0x3c7fad9c	0.015605357
65	0x392c09a0	0.00016406784
66	0xbc2372ee	-0.009976132
67	0x3b2637ff	0.0025362966
68	0x3a84fe68	0.001014662
69	0xbc7460ee	-0.014915688
70	0xba248299	-0.0006275564
71	0x3bb87859	0.005629581
72	0xbc419ccd	-0.011817169
73	0xbc272a6a	-0.010202983
74	0xbc17e50d	-0.009270919
75	0xbbdd559b	-0.0067545897
76	0xbba409f1	-0.005006068
77	0xbc838d9f	-0.016058741
78	0x3c4cef86	0.012508279
79	0x3b890d2f	0.00418248
80	0xbb6c8430	-0.0036089532
81	0xbc5573ad	-0.013028068
82	0x3b528973	0.0032125383
83	0xbbebf54d	-0.007200873
84	0xbbfd6e6d	-0.007734111
85	0xbc8092d6	-0.015695017
86	0xbbc44d3c	-0.0059906524
87	0x3c1f84a0	0.00973621
88	0xb9ed9fbf	-0.00045323183
89	0x38fd1b85	0.00012069106
90	0x388ddb81	6.76429e-05
91	0xba417b0a	-0.00073807
92	0xbc4cbc16	-0.012496015
93	0x3bbaf54c	0.005705511
94	0xbc2019e6	-0.0097718
95	0xbc2e8e67	-0.010654069
96	0xbc745845	-0.014913623
97	0x3b2c96f2	0.0026335088
98	0xbbb50cac	-0.0055251922
99	0x3c080700	0.00830245
100	0xbc17a570	-0.009255752
101	0x3a9a80f2	0.0011787696
102	0x3ba4dec1	0.005031437
103	0x3b31de98	0.0027140733
104	0x3bae7f43	0.0053252294
105	0x3b3e47ab	0.0029034417
106	0xbc5236d7	-0.012830458
107	0x3c1835e3	0.009290191
108	0xba670a28	-0.0008813464
109	0x3920486c	0.00015285768
110	0xbc0445a1	-0.008073241
111	0xbbcc2482	-0.006229938
112	0xbc89bd53	-0.01681391
113	0xbc007419	-0.00784018
114	0xbbf463ae	-0.007458172
115	0x3c2e4d53	0.010638553
116	0xbbf2acc5	-0.0074058496
117	0xbc5316f6	-0.012883892
118	0x3beb2deb	0.0071771047
119	0x3c5a8b59	0.013338887
120	0xbb956a69	-0.004559804
121	0xbc965e0c	-0.018355392
122	0xbc327330	-0.010891721
123	0xbb96fb62	-0.004607604
124	0xbb9a5649	-0.004709993
125	0xbc0d5f3e	-0.008628665
126	0x3b4211a6	0.002961257
127	0xbc003c7f	-0.007826923
128	0xbbf48a78	-0.007462796
129	0xbb498a2b	-0.003075252
130	0xb9dc810f	-0.00042057826
131	0x3b64fa7a	0.0034939335
132	0xbbe9cd39	-0.00713506
133	0xbbdc6688	-0.00672609
134	0xbad48fcc	-0.0016217171
135	0x3b845729	0.0040387106
136	0x3ac4a814	0.0015003704
137	0xbbb9442e	-0.0056538796
138	0x3b7aa089	0.003824266
139	0xbc6eec33	-0.0145826815
140	0xbc918ad8	-0.017766401
141	0xbb1e6dcc	-0.002417433
142	0xbc95d05e	-0.018287834
143	0x3b7ae25d	0.0038281896
144	0xba1dac9b	-0.0006014795
145	0x3b507c8e	0.0031812522
146	0x3bd9c94b	0.0066463104
147	0xbc53b9b6	-0.012922695
148	0xbc32e41b	-0.010918642
149	0x3bc55a90	0.006022759
150	0xba7517b9	-0.0009349543
151	0x3bf5ac49	0.0074973446
152	0xbb2909e5	-0.002579325
153	0x3bf27d69	0.007400204
154	0xbc757418	-0.014981292
155	0xbb054ae3	-0.0020338825
156	0xbac3aea5	-0.0014929367
157	0x3b10741a	0.0022041858
158	0xbc0fde48	-0.008781023
159	0x3c4ff56a	0.012692789
160	0xbb03ec6d	-0.0020129934
161	0xbb8f6168	-0.0043756254
162	0xbba03db7	-0.0048901695
163	0xbc5b34d2	-0.013379293
164	0xbc2208c9	-0.00988979
165	0xbc22c811	-0.009935395
166	0xbada2b03	-0.0016644899
167	0x3bd9d045	0.006647142
168	0xbc0c634b	-0.008568595
169	0xbbdf9a50	-0.0068238154
170	0x3cb30763	0.021854108
171	0x3c9a6c66	0.018850517
172	0xbabb1e15	-0.0014275933
173	0x3be033b2	0.0068421
174	0x3b1298ea	0.0022368976
175	0x3ccf280d	0.025287652
176	0xbbc793b0	-0.006090604
177	0xb9ac1dac	-0.00032828504
178	0x3b9e9e77	0.004840668
179	0xbb2a79b0	-0.0026012473
180	0x3ba61971	0.005068951
181	0x3c73af88	0.014873393
182	0xbc5933d2	-0.013256984
183	0x39f864ba	0.00047377293
184	0x3c2ece9c	0.010669377
185	0xb9fb819f	-0.00047971026
186	0x39219bba	0.00015412169
187	0xbb773bcf	-0.0037724858
188	0x3c02d1f5	0.007984628
189	0x3c4bea58	0.012446009
190	0xbc1d2a63	-0.009592625
191	0xbcb0570f	-0.021525888
192	0xbb47ee85	-0.003050716
193	0xbb9a7a43	-0.0047142818
194	0x3c0ac221	0.0084691355
195	0xbb388d48	-0.0028160382
196	0xbb969e06	-0.0045964746
197	0xbc2305bd	-0.009950099
198	0xbc3d1cd5	-0.011542519
199	0xbc711fe6	-0.014717078
200	0xbbc702cc	-0.0060733315
201	0xbc51c7fa	-0.012804026
202	0x3b0566f3	0.0020355552
203	0xb8ab444f	-8.166639e-05
204	0xbb18fd73	-0.0023344427
205	0xbc8266c5	-0.015918145
206	0xbbd1bcff	-0.006400704
207	0x3b09d5b2	0.0021031913
208	0x3b81c717	0.003960501
209	0xbb3444ac	-0.0027506752
210	0x3ae2fe78	0.0017318269
211	0xbc661dfb	-0.014045234
212	0xbb896360	-0.0041927546
213	0xbbd9cc4a	-0.0066466676
214	0xbb9b91be	-0.0047475984
215	0xbbb9e35c	-0.0056728553
216	0xbb22f829	-0.0024867153
217	0xbb3d027f	-0.00288406
218	0x3bddf6af	0.0067737917
219	0x3aa96b30	0.0012925621
220	0xbbcc136f	-0.0062279026
221	0xbc6ed60f	-0.014577403
222	0xbc69e63c	-0.014276084
223	0xbc442967	-0.011972762
224	0xbb3170b7	-0.002707524
225	0xbbecf181	-0.007230938
226	0x3bf8f02c	0.00759699
227	0x3bc6ea9a	0.006070447
228	0xbc2d4afa	-0.010576958
229	0x3b5dc6cb	0.0033840414
230	0xbb274955	-0.0025525887
231	0xbbb36cfc	-0.0054756384
232	0xbad3faba	-0.0016172745
233	0xbc2df7a7	-0.010618127
234	0x3b2a1927	0.0025954933
235	0xbc4c8ca6	-0.012484705
236	0xbb757291	-0.003745232
237	0xbc008d52	-0.007846193
238	0xbad6f584	-0.0016400074
239	0xbc03ce74	-0.008044828
240	0x3c88e2aa	0.016709644
241	0xbbf742f5	-0.0075458237
242	0xbbcb490d	-0.0062037767
243	0xbba98c04	-0.005174162
244	0xbc064737	-0.00819569
245	0xbc06273e	-0.008188067
246	0xbc2c9c80	-0.010535359
247	0xbc0495e2	-0.0080923755
248	0xbb6e631b	-0.003637499
249	0x3ba1f56a	0.0049425857
250	0x3b68df42	0.0035533463
251	0x3b5f31f5	0.0034056876
252	0xb9f6f1eb	-0.0004710102
253	0x3b615d36	0.0034387833
254	0x3c3a52ca	0.0113722775
255	0xbc235b1a	-0.009970451

action_model._discrete_distribution.branches.0.bias f4 [3]
0	0x3bcdbda8	0.0062787123
1	0xbbb67ba8	-0.00556894
2	0xb8f593e2	-0.00011710056
