results/phase1.3/PlayerAgent/checkpoint.pt (torch, 454498 bytes, 48 tensors)

discrete_act_size_vector f4 [1, 2]
0	0x40400000	3.0
1	0x40000000	2.0

network_body.observation_encoder.processors.0.normalizer.running_mean f4 [7]
0	0x403ea31d	2.9787056
1	0x3f04d3e3	0.51885813
2	0xbf2e144b	-0.67999715
3	0x3c007169	0.007839539
4	0x3e408f4e	0.18804666
5	0x3d9a5188	0.07535082
6	0x3f79a87b	0.97522706

network_body.observation_encoder.processors.0.normalizer.running_variance f4 [7]
0	0x49b0efe8	1.449469e+06
1	0x49d1d68e	1.7189938e+06
2	0x48a598b7	339141.72
3	0x459f9d79	5107.684
4	0x47c3cac1	100245.51
5	0x4b5c0409	1.4418953e+07
6	0x46fafe11	32127.033

network_body.processors.0.normalizer.running_mean f4 [7]
0	0x403ea31d	2.9787056
1	0x3f04d3e3	0.51885813
2	0xbf2e144b	-0.67999715
3	0x3c007169	0.007839539
4	0x3e408f4e	0.18804666
5	0x3d9a5188	0.07535082
6	0x3f79a87b	0.97522706

network_body.processors.0.normalizer.running_variance f4 [7]
0	0x49b0efe8	1.449469e+06
1	0x49d1d68e	1.7189938e+06
2	0x48a598b7	339141.72
3	0x459f9d79	5107.684
4	0x47c3cac1	100245.51
5	0x4b5c0409	1.4418953e+07
6	0x46fafe11	32127.033

network_body._body_endoder.seq_layers.0.weight f4 [128, 7]
0	0xbe795840	-0.24350071
1	0x3db6d47b	0.08927246
2	0xbef73875	-0.4828526
3	0xbf0171b8	-0.50564146
4	0xbe9ab009	-0.3021243
5	0x3dba6b7a	0.09102531
6	0xbec00c17	-0.37509224
7	0xbeb02ed2	-0.3441072
8	0x3e0bafd5	0.13641293
9	0x3e22ff56	0.15917715
10	0xbeea4531	-0.45755914
11	0xbb90e930	-0.0044223294
12	0x3f535c3f	0.8256263
13	0xbef67690	-0.4813733
14	0x3f3833e3	0.7195417
15	0xbda434a4	-0.08017853
16	0x3d8262f4	0.0636653
17	0xbf605b00	-0.87638855
18	0x3e8b4262	0.27199084
19	0x3df5befe	0.119993195
20	0x3d3c81d3	0.046022248
21	0xbeb2faca	-0.34956962
22	0x3e7f9e39	0.24962701
23	0x3ed6de89	0.41966656
24	0xbd9c58a5	-0.07634095
25	0x3dc7af86	0.09750275
26	0xbf1034ac	-0.5633037
27	0x3cc80a43	0.024418956
28	0x3e980615	0.2969214
29	0x3e9b52ee	0.30336708
30	0x3ee6368e	0.44963497
31	0xbeccb364	-0.39980614
32	0xbeaae8ae	-0.33380646
33	0x3d6d22b8	0.05789444
34	0x3e51ae30	0.20476604
35	0xbe351c13	-0.1768649
36	0x3f052e2c	0.5202358
37	0xbedcad28	-0.43100858
38	0xbe343fdb	-0.17602484
39	0xbea1c5a8	-0.31596112
40	0x3d8f7a43	0.070057414
41	0x3da01208	0.07815939
42	0x3e82d73e	0.25554842
43	0xbead725e	-0.33876318
44	0xbeb0fbed	-0.34567204
45	0xbdb7686a	-0.08955462
46	0x3ebd6c62	0.36996752
47	0x3f892a06	1.071595
48	0x3ced1baa	0.028943855
49	0xbe4cd130	-0.20001674
50	0x3f9f7e24	1.246037
51	0xbe2e28b7	-0.17007719
52	0x3e2080bf	0.15674113
53	0xbed79391	-0.42104772
54	0xbe830911	-0.25592855
55	0x3cabe94a	0.020985264
56	0x3e4b40ed	0.19848986
57	0xbf6d5434	-0.9270661
58	0x3f363d27	0.7118706
59	0xbf93f876	-1.1560199
60	0xbeda252a	-0.4260648
61	0xbeae60b4	-0.34058154
62	0x3df93acb	0.12169417
63	0xbf00a781	-0.5025559
64	0xbeaf84a0	-0.34280872
65	0xbd1abe10	-0.037778914
66	0xbc1f842c	-0.009736102
67	0x3da08fa2	0.07839896
68	0x3ecd10bb	0.40051827
69	0x3efdfb63	0.49605855
70	0xbe26e2a8	-0.162974
71	0x3f211083	0.6291582
72	0xbeeec5d7	-0.46635315
73	0xbf2adf8f	-0.66747373
74	0xbe3ad61e	-0.18245742
75	0xbd8a6a64	-0.06758574
76	0x3f074764	0.5284331
77	0x3f1eb03a	0.6198765
78	0xbf27c4b1	-0.655345
79	0x3edd0a03	0.431717
80	0x3e8f15a8	0.2794621
81	0x3f14f0a4	0.5817969
82	0x3f1c207e	0.6098708
83	0xbf039ec5	-0.5141414
84	0x3daccfca	0.0843807
85	0x3e626264	0.22107846
86	0x3ced5765	0.028972337
87	0xbda46e7a	-0.08028884
88	0x3e35a37e	0.17738149
89	0xbf313bc0	-0.69231796
90	0x3eba80fe	0.36426538
91	0x3e41c29e	0.18921897
92	0xbe9b14ff	-0.30289456
93	0xbe6ffff5	-0.23437484
94	0xbde647b9	-0.11244149
95	0x3f527674	0.82211995
96	0xbf021ccf	-0.5082521
97	0xbe5bd864	-0.21469265
98	0xbe64df4d	-0.22350807
99	0x3d85349f	0.06504177
100	0xbd84fe2a	-0.064937904
101	0x3f357abd	0.7089041
102	0xbe66a2f2	-0.22523096
103	0x3d9473e4	0.07248667
104	0xbf36649a	-0.71247256
105	0xbeae95b8	-0.340986
106	0x3eaf2919	0.34211043
107	0x3ebb9c97	0.36642906
108	0x3ea65a92	0.32490975
109	0xbe2183c3	-0.1577292
110	0x3f1bc47a	0.60846674
111	0x3df644fc	0.120248765
112	0xbf58d195	-0.84694797
113	0xbe025b7a	-0.12730208
114	0x3eb51e34	0.35374606
115	0x3f1841cf	0.59475416
116	0xbee0b391	-0.43886998
117	0x3db13c65	0.086540975
118	0x3eb2416b	0.34815535
119	0xbee2e575	-0.44315687
120	0xbea84694	-0.32866347
121	0x3c4e771d	0.012601641
122	0x3e585115	0.2112468
123	0xbee47de9	-0.44627312
124	0x3f0dc1a3	0.5537359
125	0x3f362672	0.7115241
126	0xbf0d323a	-0.55154765
127	0xbe632059	-0.22180308
128	0x3d2fb528	0.042897373
129	0x3e8d8024	0.27636826
130	0x3efd0797	0.49419853
131	0x3d499bc9	0.049220834
132	0xbe98600b	-0.29760775
133	0xbe8e5e65	-0.27806392
134	0x3f02fdc6	0.5116848
135	0x3ef1a5c2	0.47196776
136	0xbeab6228	-0.33473325
137	0xbd6e20c5	-0.05813672
138	0xbe862e01	-0.26206973
139	0x3f183cf3	0.59468
140	0xbd7f527b	-0.06233452
141	0xbe9d9423	-0.30777082
142	0xbcbac001	-0.022796633
143	0x3eacaadd	0.33724108
144	0xbee64385	-0.44973388
145	0x3eb2e710	0.34941912
146	0x3dd15116	0.10220544
147	0x3de5db59	0.11223478
148	0x3f05d10a	0.52272093
149	0xbe3f1518	-0.1866039
150	0xbe420c43	-0.1894999
151	0xbf4dcc95	-0.8039029
152	0x3d07e4ab	0.03317706
153	0x3f2fb9d0	0.686429
154	0x3ee07c6a	0.4384492
155	0x3e89f056	0.26941174
156	0x3f4bb5b8	0.79574156
157	0x3dd7e69c	0.10542032
158	0x3b32a629	0.0027259684
159	0xbea01e92	-0.31273323
160	0xbd0ff1e8	-0.03514281
161	0xbec1677a	-0.3777426
162	0x3db505f5	0.08839027
163	0x3eafe0ac	0.343511
164	0xbeb8ecb1	-0.3611808
165	0xbeb6188c	-0.35565603
166	0xbc987e8f	-0.018615035
167	0x3d0289ce	0.031869702
168	0x3e72ff29	0.23730148
169	0xbe7b80ef	-0.24560903
170	0xbf3e8a0d	-0.744294
171	0xbe60c08d	-0.21948452
172	0xbf2d3c5f	-0.67670244
173	0x3f461034	0.77368474
174	0x3f5f2cd1	0.8717776
175	0x3cedf391	0.029046806
176	0xbdaa8f9f	-0.08328175
177	0xbf327708	-0.6971288
178	0xbd3e81dd	-0.046510566
179	0x3eafbbdf	0.34323022
180	0x3f07ad93	0.5299923
181	0xbec95bbb	-0.39327797
182	0xbefe89ca	-0.497145
183	0x3e8b6a86	0.27229708
184	0xbf3dde34	-0.7416718
185	0xbdac433e	-0.08411263
186	0xbe5c35fa	-0.21504965
187	0xbf0dbcf7	-0.5536646
188	0x3e0ce7e1	0.1376033
189	0xbe71d12c	-0.23614949
190	0x3eb1d292	0.34730965
191	0x3ed2ab7d	0.4114646
192	0xbb72e816	-0.0037064604
193	0xbe21e2be	-0.15809152
194	0x3e527368	0.20551836
195	0xbe2cbca9	-0.16868843
196	0x3e9ed5e7	0.3102257
197	0xbf4f7cb2	-0.81049645
198	0x3ed341f1	0.41261247
199	0xbf2b22ba	-0.66849864
200	0x3e189d46	0.14903745
201	0x3ead7bdd	0.33883563
202	0x3d871c1d	0.06597159
203	0x3f384a70	0.7198858
204	0x3e6aedcc	0.22942275
205	0xbe3dfb1e	-0.18552825
206	0xbe159b62	-0.14610055
207	0x3eef46dc	0.4673375
208	0xbd1546c6	-0.036444448
209	0x3e4e43e9	0.20143093
210	0xbf4471cf	-0.7673616
211	0x3e7cd1de	0.24689433
212	0xbed7011d	-0.41993037
213	0xbe37b785	-0.17941101
214	0x3e127787	0.14303409
215	0x3f2c1a68	0.6722779
216	0x3e26b27d	0.16279025
217	0x3e3c8066	0.18408355
218	0xbf2b73e4	-0.6697371
219	0x3e8b991d	0.27265254
220	0xbe9aa1c6	-0.30201548
221	0x3dc3e005	0.09564213
222	0x3e9c5c3d	0.30539122
223	0xbe8517c1	-0.25994685
224	0x3c551fb7	0.01300805
225	0xbc98000b	-0.018554708
226	0x3e1cdcca	0.153186
227	0xbe84df7c	-0.25951755
228	0x3e5974fa	0.2123603
229	0xbd921df1	-0.07134617
230	0x3ed7140a	0.42007476
231	0x3e5046ae	0.20339462
232	0x3e982d1b	0.29721913
233	0x3eaaa916	0.33332127
234	0x3ee4e409	0.44705227
235	0x3ca4d445	0.02012075
236	0x3e3e63d4	0.18592769
237	0x3e631673	0.22176532
238	0x3e45cf5f	0.19317387
239	0x3e854412	0.26028496
240	0xbe95523e	-0.29164308
241	0xbe5b82aa	-0.21436563
242	0x3f25201e	0.6450213
243	0xbd6ec05c	-0.058288917
244	0xbebbadf0	-0.3665614
245	0x3f31dd3b	0.69478196
246	0xbe829efa	-0.25511914
247	0xbc879405	-0.016550073
248	0xbe174a89	-0.14774527
249	0x3d1387a3	0.036018025
250	0x3d833f04	0.06408504
251	0x3e15acbb	0.14616673
252	0x3e933ce8	0.28757405
253	0xbe05e40b	-0.13075273
254	0x3ddb5954	0.10710397
255	0xbef1bd06	-0.47214526

network_body._body_endoder.seq_layers.0.bias f4 [128]
0	0xbb6020e3	-0.003419929
1	0x3d8a46ca	0.06751783
2	0x3d01055f	0.031499263
3	0x3d37fa98	0.04491672
4	0x3e01caef	0.1267507
5	0x3db5ef35	0.08883516
6	0x3deda029	0.11602814
7	0x3dc2ac9c	0.09505579
8	0x3e11e200	0.14246368
9	0xbe05d222	-0.1306844
10	0x3cf70432	0.030153368
11	0x3e05453f	0.13014697
12	0x3de33187	0.11093431
13	0xbd63a43f	-0.05557656
14	0xbd0f448b	-0.034977477
15	0x3dc0fdc0	0.09423399
16	0x3d507a90	0.050898135
17	0xbd84fe47	-0.06493812
18	0xbd25c4e6	-0.04047098
19	0x3dcfd637	0.1014828
20	0x3d009c58	0.0313991
21	0x3de3cb25	0.11122731
22	0x3df44ae5	0.119283475
23	0xbd827ccf	-0.063714616
24	0x3d94a583	0.07258131
25	0xbbd99f85	-0.0066413307
26	0xbd30c8f7	-0.043160405
27	0x3dbd5f8b	0.09246739
28	0x3d356c89	0.04429296
29	0x3e029953	0.12753801
30	0x3cbacb21	0.022801938
31	0x3d1ba265	0.03799667
32	0x3df8a4d6	0.12140815
33	0x3e005d11	0.12535502
34	0x3d629e34	0.055326656
35	0x3d293028	0.04130569
36	0x3d3a5e22	0.04549993
37	0x3de1a94a	0.110186175
38	0x3db74ac4	0.08949807
39	0x3d5d7020	0.05406201
40	0x3d7ae1b2	0.061250396
41	0xbce257c4	-0.02762974
42	0xbd9d9582	-0.07694532
43	0x3ddd903f	0.108185284
44	0xbd8c0498	-0.06836814
45	0x3d05f535	0.03270455
46	0x3dc13b44	0.09435132
47	0x3e070921	0.13187076
48	0x3debaec3	0.115079425
49	0x3dce072f	0.10059964
50	0xbd7c3f5b	-0.061583858
51	0xbc77d12a	-0.015125552
52	0x3dfc232f	0.12311398
53	0x3ddd32d2	0.10800709
54	0x3dd5da66	0.10442047
55	0xbe040d6f	-0.1289575
56	0x3d78a940	0.060708284
57	0x3e0069dc	0.12540382
58	0x3dd5dfe9	0.10443098
59	0xbcc1d0ec	-0.023659192
60	0x3ca5e311	0.020249875
61	0x3df75648	0.12077004
62	0x3de04411	0.10950483
63	0xbd82748a	-0.06369884
64	0x3de1629f	0.110051386
65	0x3dd12210	0.10211575
66	0xbdd76410	-0.10517132
67	0xbd9d1503	-0.07670023
68	0x3dc8014f	0.097658746
69	0xbd93ceb5	-0.072171606
70	0xbd2e3754	-0.042533234
71	0x3ddb4b4d	0.10707722
72	0x3d73c28b	0.059511703
73	0xbc8f2e99	-0.017478274
74	0x3c194d48	0.009356804
75	0x3dc424f9	0.095773645
76	0x3ddca3b9	0.10773415
77	0x3df011f1	0.11722172
78	0x3d819e0c	0.06328973
79	0x3dcbd619	0.09952945
80	0x3df319cd	0.118701555
81	0xbbfe1fea	-0.0077552693
82	0x3dbe85ce	0.09302865
83	0x3dc8138c	0.09769353
84	0x3d91ec0b	0.071251
85	0xbdc025bc	-0.09382197
86	0xbdc3753b	-0.09543844
87	0x3dc2ed6b	0.0951794
88	0xbaa9c6e0	-0.0012952946
89	0x3db0f158	0.08639783
90	0x3de6503b	0.112457715
91	0x3d866b91	0.065634854
92	0xbb3e6f7f	-0.0029058156
93	0xbdcbad52	-0.099451676
94	0x3d52da97	0.051477995
95	0x3d89b2e3	0.06723573
96	0x3ddeed54	0.108851105
97	0x3d87869d	0.06617472
98	0x3d090229	0.033449326
99	0x3d5c973c	0.053855166
100	0x3de46534	0.111521155
101	0x3dd6f1c9	0.104953356
102	0xbdaae472	-0.08344354
103	0x3daf000c	0.08544931
104	0x3de270a1	0.110566385
105	0x39cc9d80	0.0003902726
106	0x3df6b59b	0.12046357
107	0xbd8018c0	-0.06254721
108	0x3de72a79	0.11287398
109	0xbd42efee	-0.047592096
110	0x3d4f666c	0.050634786
111	0xbc03bc68	-0.008040525
112	0x3dfba8cf	0.12288057
113	0x3e024076	0.12719902
114	0x3d8c95ad	0.06864486
115	0x3dcce849	0.100052424
116	0x3d2d9c3e	0.042385332
117	0x3e09ddf8	0.1346358
118	0x3d9c9e08	0.076473296
119	0x3d9863b4	0.07440892
120	0x3b3302fd	0.0027315014
121	0xbaf7c7c5	-0.001890414
122	0x3db11ec8	0.08648449
123	0x3d4daffd	0.050216664
124	0xbd717f92	-0.05895955
125	0x3d86e117	0.06585901
126	0x3df42872	0.11921777
127	0x3d994233	0.074833296

network_body._body_endoder.seq_layers.2.weight f4 [128, 128]
0	0x3cadf9cc	0.021237276
1	0xbe3d52fa	-0.18488684
2	0x3c09f875	0.008421053
3	0xbcbe968f	-0.023265151
4	0x3e106e5e	0.14104602
5	0x3da7aad9	0.081868835
6	0x3e7219e0	0.23642683
7	0x3e02a863	0.12759547
8	0xbbf862dd	-0.007580145
9	0xbdc7bf65	-0.097533025
10	0xbd34c328	-0.044131428
11	0x3e1cd79f	0.15316628
12	0xbca46a34	-0.020070173
13	0xbd911490	-0.07084
14	0xbd7d9aaa	-0.061915077
15	0x3d95ef41	0.07321025
16	0x3e304e5b	0.1721739
17	0x3e43aea7	0.19109593
18	0x3d18ae18	0.037275404
19	0x3c153fac	0.009109419
20	0x3d940e81	0.07229329
21	0x3ccfe515	0.02537779
22	0x3e7d5fda	0.24743596
23	0xbe4b03bf	-0.19825648
24	0x3e38dbc3	0.18052582
25	0xbd65245a	-0.05594287
26	0xbe6480d4	-0.22314769
27	0x3d72a7a4	0.059241906
28	0xbe686680	-0.2269535
29	0x3d8141b5	0.06311361
30	0x3d1dd4e1	0.038533095
31	0x3e279556	0.16365561
32	0x3e186710	0.14883065
33	0xbd9ccf92	-0.076567784
34	0x3e21f03d	0.158143
35	0xbd6caff5	-0.057784993
36	0x3d801308	0.0625363
37	0x3d2ba6b5	0.04190703
38	0xbd14b41a	-0.03630457
39	0x3c5e27df	0.013559311
40	0x3dc033db	0.09384891
41	0xba03803e	-0.0005016363
42	0xbe042a26	-0.12906703
43	0xbc708a4f	-0.014681413
44	0xbdaa0c6e	-0.08303152
45	0xbde473c8	-0.11154896
46	0x3d72ebe2	0.059306987
47	0xbdcc03d5	-0.099616684
48	0x3d840c8f	0.06447708
49	0x3c981d0a	0.018568534
50	0xbdba18c5	-0.09086756
51	0x3cf56a09	0.029957788
52	0x3d0c2964	0.03421916
53	0x3d968e69	0.07351381
54	0x3e010887	0.12600909
55	0xbe1f13cd	-0.15534897
56	0x3d849e92	0.064755574
57	0x3d71b79d	0.059012998
58	0x3e1bd6c5	0.15218647
59	0x3e149253	0.14508943
60	0x3d9194d8	0.07108468
61	0x3de2db3f	0.11076974
62	0x3d6f6db3	0.058454227
63	0x3dd4df43	0.10394146
64	0xbd339f13	-0.043852877
65	0x3bcf490b	0.006325846
66	0xbd5c1316	-0.05372914
67	0xbe132a6b	-0.1437165
68	0x3d94d5a1	0.07267309
69	0xbdb4ccaf	-0.08828103
70	0xbca5e52a	-0.020250876
71	0xbd012642	-0.031530626
72	0x3deae8d8	0.11470193
73	0x3bbad398	0.0057014935
74	0xbdad953c	-0.0847573
75	0x3c438656	0.011933884
76	0x3e676fd6	0.22601256
77	0x3d962faa	0.0733331
78	0x3cdd5434	0.02701769
79	0xbcaf0cf9	-0.02136849
80	0x3e2d88fa	0.16946784
81	0x3d39f133	0.04539604
82	0xbd9d96ff	-0.07694816
83	0xbd358926	-0.044320248
84	0xbc085976	-0.00832211
85	0xbce8ac51	-0.02840248
86	0xbd8bce6b	-0.068264805
87	0x3c8bca84	0.01706434
88	0x3cf701a6	0.030152153
89	0x3c092db5	0.008372714
90	0x3e2cd8c1	0.1687956
91	0xbc9a239f	-0.018815814
92	0xbdd82991	-0.10554803
93	0xbe235380	-0.15949821
94	0xbd16b69f	-0.036795255
95	0x3e065f3b	0.13122265
96	0xba8acd52	-0.0010589755
97	0xbdd3970d	-0.10331545
98	0x3e1083d7	0.14112793
99	0xbdd37851	-0.10325683
100	0x3cd44904	0.025913723
101	0x3cb41c4f	0.021986155
102	0xbe8741c4	-0.26417363
103	0xbbd3050b	-0.00643981
104	0xbb0eb061	-0.002177261
105	0x3d890241	0.06689883
106	0x3d6fcadd	0.058543075
107	0xbdb468eb	-0.08809074
108	0x3e2501c2	0.16113952
109	0x3cd9cefa	0.026587952
110	0xbe056d4f	-0.13029979
111	0x3bf52006	0.007480624
112	0x3d930b26	0.07179861
113	0x3dab73cd	0.083716966
114	0x3dc5844f	0.096443765
115	0x3d6ae4d3	0.05734713
116	0x3d144d78	0.036206692
117	0x3df1a74a	0.11799486
118	0xbd99cd61	-0.07509876
119	0x3da51a51	0.0806166
120	0xbd4fe22b	-0.0507528
121	0x3e236253	0.15955476
122	0x3d6b7228	0.057481915
123	0x3e33832a	0.17530504
124	0xbda665ff	-0.08124923
125	0xbda93391	-0.08261789
126	0x3e40ed4c	0.18840522
127	0x3ddc9ef5	0.10772506
128	0x3e1e72b9	0.1547345
129	0x3d465c85	0.048428077
130	0x3df4c74b	0.119520746
131	0x3d08408f	0.033264693
132	0x3bd71002	0.0065631876
133	0xbde93b70	-0.1138829
134	0x3e1425eb	0.1446759
135	0xbd4ecd9a	-0.050489046
136	0x3bca1e50	0.0061681643
137	0x3e0ea406	0.13929757
138	0xbcae20e0	-0.02125591
139	0x3dde94ab	0.108682
140	0x3db10374	0.08643237
141	0x3da8bb47	0.08238845
142	0x3c780226	0.015137231
143	0x3db14807	0.08656316
144	0xbd01662c	-0.03159158
145	0x3dea8230	0.114506125
146	0x3d04772f	0.032340225
147	0x3dcefd2e	0.10106884
148	0x3d6bbb7e	0.057551853
149	0x3da139c4	0.07872346
150	0x3dce11e8	0.10062009
151	0x3c47b844	0.012189928
152	0x3e0e7594	0.1391204
153	0x3d119e92	0.035551615
154	0xbbea7a1d	-0.0071556703
155	0x3d1d6cad	0.03843372
156	0x3c3d6919	0.011560702
157	0xbd41c527	-0.04730716
158	0xbe4ad1e1	-0.19806625
159	0x3d2c0317	0.041995134
160	0x3dcd0ff1	0.10012806
161	0x3d867547	0.06565338
162	0x3d6c06a5	0.057623524
163	0x3d5cb463	0.053882968
164	0x3e21203e	0.15734956
165	0x3d8b422c	0.06799731
166	0x3ddf6b06	0.10909085
167	0xbd88deab	-0.066830955
168	0x3dac0d88	0.084010184
169	0xbd11ac7e	-0.035564892
170	0x3df296d8	0.118451774
171	0x3d52d498	0.051472276
172	0x3cb36c9d	0.021902377
173	0x3d2f517b	0.042802315
174	0xbce1723c	-0.027520292
175	0x3bbc52ad	0.0057471604
176	0x3e2a212d	0.16614218
177	0xbe0cb724	-0.13741738
178	0x3daeabf9	0.08528895
179	0x3d8c37f5	0.068466105
180	0x3e327211	0.17426325
181	0x3c8c243c	0.017107122
182	0x3e39b53e	0.18135545
183	0x3d367624	0.04454626
184	0xbcb3d9ed	-0.021954501
185	0x3e2d83df	0.16944836
186	0x3cc57bdd	0.024106914
187	0x3b61e357	0.003446778
188	0x3d173307	0.036913898
189	0xbd04492b	-0.03229634
190	0x3d63cbce	0.055614285
191	0xbdc62b10	-0.09676182
192	0xbda6a35e	-0.081366286
193	0x3e84ad42	0.25913435
194	0xbdb08736	-0.086195394
195	0x3dcb6b58	0.099325836
196	0x3de9d1ff	0.11417007
197	0xbcef97a3	-0.02924711
198	0x3cf7dde1	0.030257167
199	0x3cfe7c51	0.031065138
200	0x3bd97abb	0.006636945
201	0xbe33b60e	-0.17549917
202	0xbde9a9c9	-0.11409337
203	0xbcb08564	-0.02154798
204	0x3c192515	0.00934722
205	0x3d47cb6f	0.048777994
206	0xbd2a41f0	-0.04156679
207	0x3dcb9b5e	0.09941743
208	0x3d33bdda	0.04388223
209	0x3d41a643	0.0472777
210	0xbc965ead	-0.018355692
211	0xbd1ee9e5	-0.038797278
212	0x3caa36bc	0.020778053
213	0xbd96bbb8	-0.07360023
214	0xbe5b4c59	-0.21415843
215	0x3c24787a	0.0100384895
216	0xbd81c5df	-0.06336569
217	0x3db7402f	0.08947789
218	0x3e40f04d	0.18841667
219	0xbcf70c76	-0.030157309
220	0xbc2fad21	-0.0107224295
221	0xbdcb7da1	-0.09936071
222	0xbc718c3c	-0.014742907
223	0xbdcfe030	-0.10150182
224	0x3db70ccb	0.08937987
225	0x3dbd460e	0.092418775
226	0xbdd3d357	-0.10343044
227	0xbd06e75f	-0.032935496
228	0xbda931ba	-0.08261438
229	0x3d61f815	0.05516823
230	0xbe072433	-0.13197403
231	0xbd8489b8	-0.0647158
232	0x3dc1f322	0.09470202
233	0x3d710e62	0.058851607
234	0x3c2e4268	0.01063595
235	0x3c0ed04e	0.008716656
236	0x3babf841	0.0052481
237	0x3d6938b2	0.056938834
238	0xbcfa9b70	-0.030591697
239	0x3deb1875	0.11479274
240	0x3d05009d	0.032471288
241	0x3e4fbb17	0.20286213
242	0xbd7b3727	-0.061331894
243	0xbd73755c	-0.059438094
244	0xbcc9e682	-0.024646048
245	0xbd0c4ebb	-0.03425477
246	0x3be20056	0.0068970127
247	0x3cbc50ca	0.022987742
248	0x3dc47e7e	0.09594439
249	0x3e147acb	0.14499967
250	0xbd04cbc3	-0.032420885
251	0xbb8ef060	-0.004362151
252	0xbcf67bc6	-0.030088317
253	0x3d57e5a8	0.05270925
254	0x3cdd1a85	0.026990185
255	0xbd20b96c	-0.039239332

network_body._body_endoder.seq_layers.2.bias f4 [128]
0	0x3da68b5e	0.08132051
1	0x3dc50e5a	0.09621878
2	0x3dad3ca0	0.08458829
3	0x3dd71004	0.105011016
4	0x3dd45749	0.10368211
5	0x3dbeb623	0.093120836
6	0x3d14cd95	0.03632887
7	0xbd04ce34	-0.032423213
8	0x3d905fff	0.0704956
9	0x3dc3f511	0.09568227
10	0x3dc71642	0.09721042
11	0x3df462d7	0.11932915
12	0xbcaf63f7	-0.021409972
13	0x3db152b6	0.08658354
14	0x3dc9c767	0.09852486
15	0x3df6b1fb	0.12045666
16	0x3db5a27b	0.08868881
17	0x3c9c3f1e	0.019073065
18	0x3d847ac2	0.06468727
19	0x3db5a23f	0.088688366
20	0xbd643422	-0.05571378
21	0x3de68d8e	0.11257468
22	0xbd88a0c4	-0.066712886
23	0x3de0ee1e	0.10982917
24	0x3c6f481a	0.014604593
25	0x3dafddfd	0.08587263
26	0xbd51d420	-0.05122769
27	0xbd211a14	-0.03933151
28	0xbb439ff7	-0.0029849985
29	0xbd5a081e	-0.053230397
30	0xbd15f0cf	-0.036606606
31	0x3da8b23f	0.08237123
32	0x3da8fdd4	0.08251539
33	0xbd871923	-0.06596591
34	0xbd5a0c92	-0.053234644
35	0x3dccf9db	0.10008594
36	0xbc5f510f	-0.013630166
37	0xbcd70099	-0.026245402
38	0x3db5e0e7	0.08880787
39	0xbd7372f1	-0.05943579
40	0x3dba9a16	0.09111421
41	0x3df6fdf3	0.12060156
42	0x3dc5bd8b	0.09655293
43	0x3d9bc6a7	0.07606249
44	0xbd086926	-0.033303402
45	0x3da9bb23	0.082876466
46	0x3d77cb8c	0.06049685
47	0x3df3c90f	0.11903583
48	0xbd00d775	-0.031455476
49	0x3ddb7f63	0.107176565
50	0xbd477b88	-0.048701793
51	0xbcb02501	-0.02150202
52	0x3d2cd9b2	0.042199798
53	0xbce3f4a1	-0.02782661
54	0xbd57eb82	-0.052714832
55	0x3da21487	0.079140715
56	0xbd338a60	-0.043833137
57	0xbd4f9c7d	-0.05068635
58	0xbd4e92e2	-0.050433047
59	0x3da3153a	0.07963033
60	0x3de50acf	0.11183702
61	0x3d9b599d	0.07585452
62	0x3d857510	0.065164685
63	0xbc191f62	-0.009345861
64	0xbd8916c6	-0.06693797
65	0x3db9233e	0.09039925
66	0x3dd0bb25	0.10191945
67	0xbd25bef4	-0.04046531
68	0x3d90f108	0.07077223
69	0xbd786d44	-0.06065108
70	0xbd891c1b	-0.06694814
71	0x3def8d56	0.116968796
72	0xbd81adeb	-0.06332
73	0xbd6e58ee	-0.05819028
74	0xbd0aa159	-0.03384528
75	0x3de3e526	0.11127691
76	0x3dc56450	0.09638274
77	0x3d5be681	0.053686623
78	0xbd3817a5	-0.044944424
79	0xbb50e494	-0.0031874524
80	0x3d8602bc	0.0654349
81	0xbd032861	-0.03202093
82	0xbd7e4435	-0.062076766
83	0x3dc323d0	0.09528315
84	0x3d679566	0.05653896
85	0xbc46dff9	-0.01213836
86	0xbd622779	-0.055213425
87	0xbd85e98a	-0.06538685
88	0x3d81d7a8	0.06339961
89	0x3d7e83e8	0.062137514
90	0x3d39ed43	0.045392286
91	0x3d22782a	0.03966538
92	0xbd52667e	-0.051367275
93	0x3d8ecf23	0.06973102
94	0x3da77684	0.08176902
95	0x3dbb4f0b	0.091459356
96	0x3d882abf	0.06648778
97	0xbd4a719b	-0.04942475
98	0x3d9491c5	0.07254366
99	0xbd8075db	-0.06272479
100	0xbd85d997	-0.065356426
101	0x3dbac28a	0.09119137
102	0x3cea3743	0.028590804
103	0x3dd0b0de	0.10189985
104	0x3d521727	0.05129161
105	0x3dd89d97	0.10576933
106	0x3cc06f2c	0.02349051
107	0x3da71e10	0.08160031
108	0x3db8f67f	0.090313904
109	0xbd091df3	-0.033475827
110	0xbd8f9ad3	-0.07011952
111	0x3dfec3ea	0.124397114
112	0xbcf95f30	-0.030440897
113	0xbd269dbc	-0.04067777
114	0x3dd71182	0.10501386
115	0xbcd401ec	-0.025879823
116	0x3dcd27a2	0.10017325
117	0x3dcf1d0a	0.10112961
118	0x3de6452d	0.11243663
119	0x3dbeff28	0.09326011
120	0x3d969b0c	0.073537916
121	0xbd50d260	-0.05098188
122	0x3db09d50	0.08623755
123	0x3d9db80f	0.07701122
124	0x3d74d031	0.05976886
125	0xbcb7df78	-0.022445425
126	0x3db17d34	0.08666459
127	0xbd105c54	-0.0352443

action_model._discrete_distribution.branches.0.weight f4 [3, 128]
0	0xbcb4380d	-0.021999383
1	0xbcaa9bae	-0.020826187
2	0xbd09aeef	-0.033614095
3	0xbcb945e8	-0.022616342
4	0xbcf19332	-0.029489134
5	0xbcd96e97	-0.026541991
6	0xbc9ec6b3	-0.019381857
7	0x3cd644c6	0.02615584
8	0xbd484233	-0.048891257
9	0xbd4e2227	-0.05032554
10	0xbd1c960f	-0.038229045
11	0xbd547545	-0.05186965
12	0x3d02f5cf	0.031972703
13	0xbd0d3bab	-0.034480732
14	0xbd28744a	-0.041126527
15	0xbcf297c0	-0.029613376
16	0xbd02fc44	-0.03197886
17	0xbcf08976	-0.029362421
18	0xbd142fbe	-0.036178343
19	0xbcf4af43	-0.029868728
20	0x3c8fff84	0.017577894
21	0xbceb3360	-0.028711021
22	0x3cb253de	0.021768507
23	0xbd0a98ad	-0.03383701
24	0x3b54c228	0.003246436
25	0xbc143f23	-0.009048256
26	0x3d067bb9	0.032832835
27	0x3d3d6c2b	0.046245735
28	0xbc17135f	-0.009220927
29	0x3cb659c2	0.022259597
30	0x3cc5ee2a	0.024161417
31	0xbc923720	-0.017848551
32	0xbd40233a	-0.046908595
33	0x3cdc0c96	0.02686147
34	0x3cbd4ee0	0.0231089
35	0xbc85fb7b	-0.016355267
36	0x3d1f9952	0.038964577
37	0x3c95d9c0	0.018292308
38	0xbcf7af2e	-0.0302349
39	0x3c4e324e	0.012585236
40	0xbbd9849b	-0.0066381223
41	0xbd3996e7	-0.045309927
42	0xbd017ca4	-0.031613007
43	0xbd04234b	-0.03226022
44	0x3cc18ed4	0.023627676
45	0xbcc707cd	-0.024295712
46	0xbd07ff59	-0.033202503
47	0xbd344f97	-0.044021215
48	0x3b5e5a75	0.0033928428
49	0xbce27f44	-0.027648576
50	0x3ce05ccd	0.027388
51	0x3c688f8c	0.0141943805
52	0xbd585ca4	-0.052822724
53	0x3ce245a6	0.027621102
54	0x3d286067	0.04110756
55	0xbd7a0cb3	-0.061047267
56	0x3c51c311	0.012802855
57	0x3cd5fc62	0.026121322
58	0x3c81b85e	0.015834983
59	0xbd1f30fd	-0.03886508
60	0xbd8bb64d	-0.068218805
61	0xbca2aa5a	-0.01985662
62	0xbc7f0a2f	-0.015566393
63	0xbba1faca	-0.0049432265
64	0x3d1e2d98	0.0386177
65	0xbc5080cd	-0.012726021
66	0xbd04d06d	-0.032425333
67	0x3cb039c5	0.021511922
68	0xbc487b75	-0.012236466
69	0x3ce9b4fd	0.028528685
70	0x3cfd18a4	0.030895539
71	0xbd2d26f2	-0.04227347
72	0x3ca4dd19	0.020124959
73	0x3c524fe9	0.012836435
74	0x3d06bffd	0.032897938
75	0xbd1f0b8c	-0.03882937
76	0xbcc6c8df	-0.024265705
77	0xbc99a4f1	-0.018755408
78	0x3d10e302	0.03537274
79	0x3c7ec364	0.015549514
80	0xbc6a7079	-0.014309042
81	0x3ccce92c	0.025013529
82	0x3d30770f	0.043082293
83	0xbcd820fe	-0.02638292
84	0xbd16844f	-0.036747273
85	0x3bc5a847	0.006032023
86	0x3ceb01ab	0.028687319
87	0x3ce4d0ed	0.027931655
88	0xbc817952	-0.01580492
89	0xbc885751	-0.016643198
90	0xba293c00	-0.0006455779
91	0xbd30dbf5	-0.043178517
92	0x3cc74b65	0.024327943
93	0xbbb60747	-0.0055550667
94	0xbc275cc3	-0.010214987
95	0xbd201493	-0.03908212
96	0xba8b723e	-0.0010638905
97	0x3cee88cc	0.029117964
98	0xbd1fdcfd	-0.03902911
99	0x3cf53da9	0.029936628
100	0x3cc17b55	0.02361838
101	0xbc33c1e3	-0.010971519
102	0x3a8a6cf0	0.001056103
103	0xbcd2d7bd	-0.025737638
104	0xbc8fd979	-0.017559754
105	0xbccf2918	-0.02528815
106	0xbaf1c3a4	-0.0018445146
107	0xbce1b131	-0.027550312
108	0xbccc6a0a	-0.024952907
109	0xbba364a6	-0.0049863635
110	0x3cfc7fec	0.030822717
111	0xbd3ca7dd	-0.046058524
112	0x3d0c68d9	0.034279678
113	0x3d17fbab	0.037105244
114	0xbd7f4f14	-0.062331274
115	0x3ad8d467	0.0016542793
116	0xbcd80f19	-0.026374387
117	0xbd101ca3	-0.03518356
118	0xbd64877f	-0.05579328
119	0xbd3dca7b	-0.04633568
120	0xbce7b838	-0.028286085
121	0x3cead2cd	0.02866497
122	0xbd0aa138	-0.033845156
123	0xbcd10ba0	-0.025518239
124	0xba8bc1dd	-0.0010662634
125	0x3c99c546	0.018770825
126	0xbd5b76df	-0.05358016
127	0x3ceae787	0.028674854
128	0xbd8cd608	-0.06876761
129	0xbd7d97bd	-0.061912287
130	0xbd54aec8	-0.051924497
131	0xbd976c0a	-0.07393654
132	0xbda088f5	-0.078386225
133	0xbd8d15b4	-0.06888905
134	0xbca8d444	-0.020609029
135	0x3d01d342	0.03169561
136	0xbd5e012e	-0.054200344
137	0xbd887745	-0.06663374
138	0xbd91a9ee	-0.0711249
139	0xbd893040	-0.06698656
140	0x3cd27734	0.025691606
141	0xbd9b7115	-0.07589928
142	0xbdba4196	-0.09094541
143	0xbd71fdba	-0.059079863
144	0xbd7a156b	-0.061055582
145	0xbce186d9	-0.02753012
146	0xbd03dea3	-0.032194745
147	0xbd32ff31	-0.0437004
148	0x3d8d764b	0.06907328
149	0xbd9b2518	-0.075754344
150	0x3d38230d	0.044955302
151	0xbd980087	-0.074219756
152	0xbbefb4e8	-0.007315267
153	0xbcdcd2eb	-0.026956042
154	0x3d809f85	0.06280426
155	0x3d158284	0.036501423
156	0x3cc52681	0.024066212
157	0x3d88b8ad	0.06675849
158	0x3d3c6cb8	0.04600212
159	0xbd40ac8d	-0.047039557
160	0xbd4253ce	-0.047443204
161	0x3d88044e	0.06641446
162	0x3d1332ab	0.035936993
163	0xbd8dc4aa	-0.06922276
164	0x3c85f6c6	0.016353022
165	0x3ca50274	0.020142771
166	0xbd9092aa	-0.07059224
167	0x3dc97782	0.098372474
168	0xbd70f9e9	-0.058832083
169	0xbda710a7	-0.08157473
170	0xbd9ce116	-0.07660119
171	0xbd7a4e44	-0.061109796
172	0x3d4add1f	0.049527284
173	0xbd56d5dc	-0.052450046
174	0xbd3e0243	-0.046388876
175	0xbda19178	-0.07889074
176	0xbaa3f05f	-0.0012507549
177	0xbd6c0a26	-0.057626866
178	0x3d79086a	0.06079904
179	0x3cf36f69	0.02971621
180	0xbd4a1555	-0.04933675
181	0xbb684bea	-0.003544564
182	0x3d761643	0.060079824
183	0xbd7247df	-0.059150573
184	0x3b849292	0.004045793
185	0x3d80c369	0.062872715
186	0x3d6ae2e8	0.0573453
187	0xbd0686b4	-0.032843307
188	0xbdaff220	-0.085911036
189	0xbd6c7e0d	-0.0577374
190	0xbd58f9aa	-0.052972473
191	0x3a300913	0.00067152194
192	0x3d4ab41e	0.04948818
193	0xbd8c4515	-0.06849114
194	0xbd9f381a	-0.077743724
195	0x3d18ca40	0.037302256
196	0xbd7d4c1c	-0.06184016
197	0x3d2d7c65	0.04235496
198	0x3d95897e	0.07301615
199	0xbda77d83	-0.08178236
200	0x3d9730f8	0.07382387
201	0x3d6a1b2b	0.057154816
202	0x3cc6c12a	0.02426203
203	0xbdb09cce	-0.08623658
204	0xbd6f4f63	-0.05842532
205	0xbd3cdf61	-0.04611147
206	0x3d345e1b	0.04403506
207	0x3b1ae11b	0.0023632708
208	0xbd41bb38	-0.047297686
209	0x3d086a7f	0.033304688
210	0x3d7ba837	0.06143972
211	0xbd8e3841	-0.06944323
212	0xbd635807	-0.05550387
213	0xbcb662bb	-0.022263875
214	0x3da0b9a6	0.0784791
215	0x3d543f71	0.051818315
216	0xbd86de5c	-0.065853804
217	0xbd5d824b	-0.054079335
218	0x3b920578	0.0044562183
219	0xbda75950	-0.08171332
220	0x3d07dac3	0.03316761
221	0xbd10f388	-0.0353885
222	0xbd8605a2	-0.06544043
223	0xbdc15e36	-0.094417974
224	0xbd510495	-0.05102976
225	0x3d4905d9	0.049077842
226	0xbd25bffe	-0.0404663
227	0x3d886738	0.066603124
228	0x3d8384e7	0.064218335
229	0xbd445254	-0.047930077
230	0xbc24b55d	-0.010053006
231	0xbd835c6b	-0.06414112
232	0xbd0559ce	-0.032556348
233	0xbd6d5621	-0.057943467
234	0xbb9d0d53	-0.004792848
235	0xbd4b3e0c	-0.04961972
236	0xbd9e80e3	-0.07739427
237	0x3af94682	0.0019018205
238	0x3d8326f9	0.06403918
239	0xbdf61af6	-0.12016861
240	0x3d3f965a	0.046774246
241	0x3d2569b4	0.04038401
242	0xbd6f2db7	-0.058393206
243	0x3d823f42	0.06359722
244	0xbdadc38d	-0.08484564
245	0xbdac2a44	-0.08406499
246	0xbd968bfb	-0.07350918
247	0xbdb93833	-0.09043922
248	0xbd4f558b	-0.05061869
249	0x3d8a1b83	0.06743529
250	0xbd77a8de	-0.06046378
251	0xbd4100ac	-0.04711978
252	0xbd08fb9b	-0.033443075
253	0x3d2ae312	0.041720457
254	0xbd83e924	-0.064409524
255	0x3d488dd1	0.04896337

action_model._discrete_distribution.branches.0.bias f4 [3]
0	0xbd139652	-0.03603203
1	0xbd631194	-0.055436686
2	0x3d7a79c0	0.061151266

action_model._discrete_distribution.branches.1.weight f4 [2, 128]
0	0x3c274d9d	0.010211376
1	0xbc88f129	-0.016716557
2	0x3d2ae362	0.041720755
3	0x3d4dcf4c	0.05024652
4	0xbc8ea0db	-0.017410686
5	0xbb814d3f	-0.003945976
6	0xbb0331cf	-0.0020018702
7	0xbd89ac9a	-0.06722374
8	0x3c2b6f30	0.010463521
9	0x3d3382c5	0.043825883
10	0x3bf3b64b	0.0074375025
11	0x3d49f00b	0.04930119
12	0xbdc1d4ea	-0.09464438
13	0x3b7c624a	0.0038510733
14	0x3c696274	0.014244664
15	0x3d2c9707	0.04213622
16	0x3c8d643b	0.017259708
17	0xbd71f069	-0.059067164
18	0x3d1d0b65	0.038340945
19	0x3c7f226c	0.015572172
20	0xbd164b87	-0.036693122
21	0x3a45c476	0.00075442286
22	0xbd05f91e	-0.03270828
23	0x3d59e85c	0.05320011
24	0xbd93b132	-0.07211532
25	0x3d54f4cd	0.051991273
26	0xbd330d77	-0.043714013
27	0xbc8ac613	-0.016940152
28	0xba7b2766	-0.0009580761
29	0xbd121177	-0.035661187
30	0xbd825e33	-0.06365623
31	0x3ce8d324	0.028420992
32	0x3d10ccc6	0.035351537
33	0xbccf1e39	-0.025282966
34	0xbd617938	-0.055047244
35	0x3cf74a9a	0.03018694
36	0xbdc776d3	-0.09739461
37	0xbdce2a47	-0.100666575
38	0x3cf463e7	0.029832793
39	0xbc0999d8	-0.008398496
40	0x3ce486f6	0.027896386
41	0x3d70598b	0.058679145
42	0xbd32553a	-0.04353831
43	0x3c0d0221	0.008606465
44	0xbd992762	-0.07478215
45	0x3b42ed5e	0.0029743533
46	0xbc84d30b	-0.016213914
47	0x3d6bbd86	0.05755379
48	0xbdae453a	-0.08509298
49	0x3d512373	0.051059198
50	0xbcb7635c	-0.022386245
51	0xbd9ba018	-0.07598895
52	0x3d1b6d6c	0.03794615
53	0xbdb5bc30	-0.088737845
54	0xbd90c646	-0.07069068
55	0x3cf295b6	0.029612403
56	0xbc1ae87f	-0.009454845
57	0xbd46c2e6	-0.048525713
58	0xbc608218	-0.013702892
59	0x3d2326d7	0.039831962
60	0x3d73b22a	0.059496082
61	0x3d8178cd	0.06321869
62	0x3c5b265b	0.013375844
63	0xbdcd89f8	-0.10036081
64	0xbac39273	-0.0014920965
65	0x3ad46184	0.0016203378
66	0x3d734044	0.05938746
67	0xbda08e5a	-0.078396514
68	0x3c2e008f	0.01062025
69	0xbcf24d6b	-0.029577931
70	0xbc908646	-0.017642152
71	0x3d10c82c	0.03534715
72	0xbd0578a4	-0.032585755
73	0x3c11378e	0.008863343
74	0xbd880420	-0.06641412
75	0xbc8b4209	-0.016999261
76	0x3d157388	0.036487132
77	0x3d1cec2c	0.03831117
78	0xbd6dac1c	-0.058025464
79	0xbdbdb901	-0.09263802
80	0x3c3ab23b	0.0113950325
81	0xbdb36107	-0.08758741
82	0xbd2d4d7a	-0.042310216
83	0x3ca8c9e3	0.02060408
84	0x3c73da28	0.0148835555
85	0xbd24b221	-0.04020894
86	0xbccabf60	-0.024749458
87	0xbc2e33c3	-0.010632458
88	0x3d13754c	0.036000535
89	0xbd98c929	-0.07460243
90	0x3d88235f	0.066473715
91	0xbd4fdc2f	-0.050747093
92	0x3c908e52	0.017645989
93	0x3d177025	0.036972184
94	0xbb37122d	-0.0027934418
95	0xbb1df2ce	-0.0024101022
96	0xbb8a93d3	-0.004229048
97	0xbd183b29	-0.037165795
98	0x3d0f31e2	0.03495968
99	0xbcd21c62	-0.0256483
100	0x3c3c065a	0.011476124
101	0x3c1c67c9	0.009546229
102	0xbce9b912	-0.028530631
103	0x3d29e4e2	0.041478045
104	0x3c26fd25	0.01019219
105	0x3d60f7f9	0.054923985
106	0xbd4dd390	-0.05025059
107	0x3ca240c5	0.019806275
108	0x3c9a0692	0.018801961
109	0x3d92e233	0.0717205
110	0x3bafd14e	0.0053655272
111	0xbb898a65	-0.004197406
112	0xbdcb34f7	-0.099222116
113	0xbda1463d	-0.07874725
114	0x3d8e019c	0.06933901
115	0x3c673b66	0.014113283
116	0x3c9dea18	0.019276664
117	0x3c9a22e9	0.018815475
118	0x3cd7e7be	0.02635562
119	0x3d1ad987	0.037805106
120	0x3be8f9a5	0.007109838
121	0xbd228e08	-0.039686233
122	0xbc21e602	-0.009881498
123	0xbd2df5bd	-0.042470682
124	0xbd761269	-0.06007615
125	0xbdbbe0c7	-0.09173732
126	0x3ca59399	0.020211982
127	0xbd5c6a89	-0.053812537
128	0xbbdb39d4	-0.0066902433
129	0x3c182ca5	0.009287988
130	0xbcff7a50	-0.031186253
131	0xbd4e7bd8	-0.050411075
132	0x3b72d2b5	0.003705186
133	0xbc86e86a	-0.016468246
134	0xbbdbc1da	-0.0067064585
135	0x3d8785c3	0.0661731
136	0xbba082c2	-0.0048984
137	0xbd4e9214	-0.05043228
138	0xbcb60f8e	-0.022224214
139	0xbd6fa0ed	-0.05850308
140	0x3d933499	0.071877666
141	0x3a391648	0.000706051
142	0xbcc055b4	-0.023478366
143	0xbd62ab3d	-0.055339087
144	0xbcf99ce9	-0.030470328
145	0x3d634aac	0.055491135
146	0xbd758bf2	-0.059947915
147	0xbd19a00f	-0.03750616
148	0x3d1039a9	0.03521124
149	0xbb9f492e	-0.0048610186
150	0x3c5ef19d	0.01360741
151	0xbd93657f	-0.07197093
152	0x3da80883	0.082047485
153	0xbd14ccfd	-0.036328305
154	0x3cf527aa	0.02992614
155	0x3d440719	0.04785833
156	0x3bd94ada	0.0066312375
157	0x3d115de1	0.03548992
158	0x3d90ea6a	0.07075961
159	0xbc8cfe5d	-0.017211134
160	0xbd4f37f1	-0.05059046
161	0x3cf64914	0.030064143
162	0x3d5a4222	0.053285725
163	0xbd303b3b	-0.043025237
164	0x3dc88c98	0.09792441
165	0x3dadaca5	0.08480195
166	0xbd2187e0	-0.03943622
167	0x3cbd5979	0.023113953
168	0xbd285036	-0.04109212
169	0xbd288377	-0.041141
170	0x3d06b0b6	0.03288337
171	0x3af2011d	0.0018463467
172	0x3da8af98	0.08236617
173	0xbb8be0b7	-0.0042687315
174	0x3c0b7938	0.0085127875
175	0xbd791f03	-0.06082059
176	0x3dc3101f	0.09524559
177	0xbd5a897b	-0.053353768
178	0x3d18037e	0.037112705
179	0x3da3c367	0.079962544
180	0xbd25327c	-0.04033135
181	0x3db6d271	0.08926857
182	0x3d63cdd8	0.05561623
183	0xbd1181a9	-0.035524044
184	0x3c4ae11a	0.01238277
185	0x3d2ed1c4	0.042680517
186	0x3b4d3000	0.0031309128
187	0xbd1bbcb0	-0.038021743
188	0xbd902d01	-0.07039834
189	0xbd8bcc01	-0.0682602
190	0xbcddbfbe	-0.027068969
191	0x3dc1f874	0.09471217
192	0x3bbf26f4	0.005833501
193	0xbbddabf7	-0.0067648846
194	0xbd391af5	-0.045191724
195	0x3da2bdc3	0.079463504
196	0xbc0997db	-0.008398022
197	0x3d1cef59	0.038314197
198	0x3ce45865	0.027874181
199	0xbd1d5d17	-0.038418856
200	0x3cd46701	0.025928022
201	0x3bca3654	0.006171027
202	0x3d9035b9	0.07041497
203	0x3ba2bccc	0.004966354
204	0xbd433143	-0.0476544
205	0xbcce74ff	-0.025202272
206	0x3d92677d	0.07148645
207	0x3db1cd56	0.08681743
208	0xbcd8958b	-0.026438495
209	0x3d8efdac	0.06981978
210	0x3d43bf07	0.0477896
211	0xbc228beb	-0.009921054
212	0xbd11045d	-0.03540455
213	0x3d5c5599	0.05379257
214	0x3d3fb14e	0.04679995
215	0x3cdc923d	0.0269252
216	0xbc44a920	-0.012003213
217	0x3d8b6ea3	0.06808212
218	0xbd89baa8	-0.06725055
219	0x3d1052ec	0.03523533
220	0xb85cf26c	-5.267786e-05
221	0xbd10f6ea	-0.035391726
222	0xbc0e80a6	-0.008697664
223	0x3cbc6276	0.022996169
224	0x3c2d8da2	0.01059285
225	0x3d25f42c	0.040516064
226	0xbd423001	-0.04740906
227	0x3d206e10	0.039167464
228	0x3bcc73fb	0.006239412
229	0xbad913bf	-0.0016561671
230	0x3d3481f6	0.044069253
231	0xbcebf5bf	-0.028803704
232	0xbbfb7127	-0.007673401
233	0xbd1f51f1	-0.038896505
234	0x3d7850fa	0.0606241
235	0xbd171419	-0.0368844
236	0xbcfbd1e6	-0.030739736
237	0xbda5bf7a	-0.08093162
238	0x3cb29c98	0.021803185
239	0x3ba41640	0.005007535
240	0x3d81b74b	0.063337885
241	0x3d9a9274	0.07547465
242	0xbdaa30f9	-0.08310122
243	0xbc54fb79	-0.012999409
244	0xbccc6132	-0.02494869
245	0xbd0605f6	-0.03272053
246	0xbce64aa8	-0.02811177
247	0xbd3cd698	-0.04610309
248	0xbcfe7352	-0.031060848
249	0x3d134b43	0.035960447
250	0xba4cc48a	-0.0007811269
251	0x3cfc00ab	0.030762037
252	0x3d7f1a97	0.062281217
253	0x3daa4cb3	0.083154105
254	0xbd015d2d	-0.031583
255	0x3d8333fd	0.064064

action_model._discrete_distribution.branches.1.bias f4 [2]
0	0x3cb98011	0.022644075
1	0xbcb9800e	-0.022644069

exp_avg f4 [128, 7]
0	0x3753ea10	1.2631077e-05
1	0x355ca028	8.2189445e-07
2	0x36e443f1	6.802839e-06
3	0xb63d5957	-2.8215197e-06
4	0x37430276	1.1623479e-05
5	0x363083b2	2.63027e-06
6	0x35f8b570	1.8530245e-06
7	0xb64a72be	-3.0167134e-06
8	0xb7e3713a	-2.7113234e-05
9	0xb6939c96	-4.3991704e-06
10	0x355e4044	8.2794963e-07
11	0xb77ff58e	-1.5256357e-05
12	0xb588ab36	-1.0182619e-06
13	0xb65a19f2	-3.2499634e-06
14	0xb83874b5	-4.397771e-05
15	0xb7c886bf	-2.3904604e-05
16	0xb6ff425a	-7.6073165e-06
17	0x371789e1	9.032404e-06
18	0xb9131233	-0.00014025792
19	0xb71f8463	-9.507962e-06
20	0xb73b7b08	-1.1174714e-05
21	0xb75af587	-1.3050979e-05
22	0xb90e77d1	-0.0001358681
23	0xb6cf0a55	-6.1702835e-06
24	0xb5e78612	-1.7249861e-06
25	0xb880719e	-6.1246785e-05
26	0xb646fde0	-2.9652074e-06
27	0x35b1266c	1.319871e-06
28	0xb886b057	-6.422464e-05
29	0xb93c489a	-0.00017956123
30	0xb8226c50	-3.8724684e-05
31	0x377993d8	1.4875979e-05
32	0xb8f85fde	-0.00011843418
33	0xb7773f02	-1.4737017e-05
34	0xb772ccd8	-1.4472018e-05
35	0xb7d36aa0	-2.5202811e-05
36	0xb925459f	-0.00015761562
37	0xb763374c	-1.3543129e-05
38	0x3655b57a	3.1845107e-06
39	0xb9173050	-0.0001441848
40	0xb6d44a24	-6.3267235e-06
41	0xb5da8cba	-1.6283223e-06
42	0xb7f9f619	-2.9797711e-05
43	0x3899891b	7.3211464e-05
44	0x372e4d17	1.0389157e-05
45	0x371323f2	8.770252e-06
46	0xb8bf92c4	-9.134927e-05
47	0xb6b35c39	-5.345352e-06
48	0xb71924f5	-9.128115e-06
49	0xb8cfbb17	-9.9053774e-05
50	0xb9efd0b6	-0.00045741134
51	0xb785118a	-1.5863003e-05
52	0x332cac50	4.0203588e-08
53	0xb9f56ba3	-0.00046810237
54	0xb7aea5e4	-2.0819665e-05
55	0xb731af7b	-1.0590879e-05
56	0xb78a6a94	-1.6500511e-05
57	0x38d815df	0.000103037564
58	0xb8104371	-3.4395085e-05
59	0x36656c40	3.418667e-06
60	0x39071f5f	0.0001288629
61	0xb6bb2c84	-5.5782166e-06
62	0xb6c27bf5	-5.796081e-06
63	0x37b40e9d	2.1464477e-05
64	0x37b655fe	2.1736134e-05
65	0x37627c89	1.3499645e-05
66	0xb60a49a2	-2.0606462e-06
67	0x37d0e422	2.4901765e-05
68	0x36b88105	5.498647e-06
69	0x36cfa8e3	6.1887417e-06
70	0xb7d16ac2	-2.4964454e-05
71	0xb9761f16	-0.00023471969
72	0xb6e206d8	-6.7361216e-06
73	0x36d74a14	6.416123e-06
74	0xb927b332	-0.00015993117
75	0xb6c50346	-5.8714386e-06
76	0xb6f864e3	-7.4027207e-06
77	0xb84a14e6	-4.8180016e-05
78	0x38f607a3	0.000117316165
79	0x37d9ac81	2.5948744e-05
80	0x37b9d393	2.215224e-05
81	0xb94ca5ab	-0.00019516672
82	0xb709d885	-8.216249e-06
83	0xb7993819	-1.8265144e-05
84	0xb86032fc	-5.3453245e-05
85	0xb95675f2	-0.00020452568
86	0xb78d6afb	-1.6858326e-05
87	0x363cb076	2.8116897e-06
88	0xb948ee57	-0.00019162275
89	0xb7440045	-1.1682573e-05
90	0xb75c3784	-1.3125948e-05
91	0xb6b4e2b4	-5.3908097e-06
92	0x39499f34	0.00019228162
93	0x36e8ecf1	6.9417224e-06
94	0x37295f80	1.009542e-05
95	0xb817f1df	-3.6226465e-05
96	0xb59cde26	-1.168756e-06
97	0xb7154afe	-8.898553e-06
98	0x3763d532	1.3579893e-05
99	0x37e55200	2.7337112e-05
100	0x3745a53b	1.1780586e-05
101	0x370c0213	8.345133e-06
102	0x37e2464c	2.6974034e-05
103	0x36648c0e	3.405617e-06
104	0xb692f6dc	-4.3798773e-06
105	0xb790f9c3	-1.7282442e-05
106	0xb8e5ec09	-0.00010963536
107	0xb6f24786	-7.2204884e-06
108	0xb63fb844	-2.8568475e-06
109	0xb894d7a2	-7.097355e-05
110	0xb689cbac	-4.1066287e-06
111	0xb5fef59b	-1.8995955e-06
112	0x358c6d6d	1.046266e-06
113	0x3642940a	2.8994423e-06
114	0x361e2701	2.3566538e-06
115	0xb5187bb1	-5.680441e-07
116	0x346772a7	2.1555262e-07
117	0x345de706	2.0666275e-07
118	0x342e79fd	1.6249392e-07
119	0x3689b528	4.1040075e-06
120	0x3641f88f	2.8903921e-06
121	0x3598e781	1.1392259e-06
122	0xb592992f	-1.092243e-06
123	0xb58998ca	-1.0251763e-06
124	0x354b5f2d	7.576189e-07
125	0x358af550	1.0353197e-06
126	0x378f9add	1.7119042e-05
127	0x39655aeb	0.00021873011
128	0x372644a6	9.9103545e-06
129	0x37901347	1.7175114e-05
130	0x3802b88d	3.116629e-05
131	0x36856384	3.975294e-06
132	0xb71b785f	-9.266746e-06
133	0xb878649c	-5.9221507e-05
134	0xb9c2039d	-0.00037005256
135	0xb7be3608	-2.2674925e-05
136	0x373904fa	1.1028018e-05
137	0xb9808655	-0.00024514148
138	0xb759f42b	-1.2991058e-05
139	0xb78e03b0	-1.6929436e-05
140	0x35ea6971	1.7465046e-06
141	0x3792bba4	1.7491933e-05
142	0xb6f66e67	-7.344224e-06
143	0xb4a47a4b	-3.063636e-07
144	0x379cb587	1.868118e-05
145	0xb4be0b6c	-3.5398568e-07
146	0x32a5a4f7	1.9283545e-08
147	0xb8254ff1	-3.9413517e-05
148	0xb82423d7	-3.9134025e-05
149	0xb8170f14	-3.6015248e-05
150	0x37159880	8.916599e-06
151	0xb86c068b	-5.627288e-05
152	0xb71d105e	-9.36174e-06
153	0xb7367432	-1.0875099e-05
154	0xb88adf9a	-6.622002e-05
155	0xb97864ab	-0.00023688625
156	0xb7cf1884	-2.4687739e-05
157	0xb59bfd60	-1.1622142e-06
158	0xb92cc21f	-0.00016475514
159	0xb770460e	-1.4321426e-05
160	0xb6c51995	-5.8740357e-06
161	0x36da527f	6.50651e-06
162	0xb6f32374	-7.2460916e-06
163	0xb4baf9f6	-3.482707e-07
164	0xb5631aea	-8.4603255e-07
165	0x3509fcf4	5.140457e-07
166	0x35801503	9.542858e-07
167	0x360a5bca	2.061703e-06
168	0xb7609fc4	-1.3388639e-05
169	0x382f19bb	4.1747215e-05
170	0xb7cffad7	-2.479313e-05
171	0x36832a44	3.9090246e-06
172	0x381a5151	3.6792193e-05
173	0xb697c742	-4.5233473e-06
174	0xb670133e	-3.5773987e-06
175	0x3734cc99	1.0776473e-05
176	0x39019e98	0.0001236148
177	0x3731bcfd	1.0594024e-05
178	0x365ad213	3.260681e-06
179	0x38556983	5.0881423e-05
180	0x3642d1b0	2.9030307e-06
181	0xb669ce4e	-3.483979e-06
182	0x376bf9bc	1.4065237e-05
183	0x37b6ea1b	2.1805105e-05
184	0x36fa5c14	7.4613e-06
185	0xb6185dd7	-2.2704387e-06
186	0x38498cef	4.805339e-05
187	0x3643e3cb	2.9189857e-06
188	0x36569e88	3.1980762e-06
189	0xb7c7451d	-2.3754832e-05
190	0xb921dc9c	-0.0001543634
191	0xb74334d0	-1.1635202e-05
192	0xb5c31864	-1.4535731e-06
193	0xb8cf1397	-9.874178e-05
194	0xb6c4af3e	-5.861656e-06
195	0x35fdffff	1.8924474e-06
196	0xb801d58d	-3.095488e-05
197	0xb73383f6	-1.0699956e-05
198	0x3789597d	1.6373344e-05
199	0x36cde76f	6.1364185e-06
200	0xb899a411	-7.326168e-05
201	0xb6a9a3de	-5.055669e-06
202	0xb7062dfa	-7.997727e-06
203	0xb8807d60	-6.1268685e-05
204	0xb900368e	-0.00012227354
205	0xb76c0b25	-1.4069291e-05
206	0x3722c629	9.70209e-06
207	0xb95cbf1d	-0.0002105203
208	0xb76005af	-1.3352764e-05
209	0xb74db702	-1.2261562e-05
210	0x361d8882	2.347428e-06
211	0xb8507038	-4.9695576e-05
212	0xb620a2b3	-2.3936561e-06
213	0xb60aeffc	-2.0703292e-06
214	0xb70743a4	-8.062376e-06
215	0x349f1a35	2.9635126e-07
216	0x3545e35a	7.371906e-07
217	0xb7661125	-1.371306e-05
218	0xb6704c40	-3.580717e-06
219	0x3765481f	1.3666256e-05
220	0x361d6491	2.345336e-06
221	0xb8325c18	-4.2524276e-05
222	0xb5ea2f06	-1.7448044e-06
223	0xb6867a6c	-4.007763e-06
224	0xb85a7543	-5.208446e-05
225	0xb8c515c5	-9.397747e-05
226	0xb6848d5c	-3.950363e-06
227	0x372026d7	9.545786e-06
228	0xb90b5c55	-0.0001329047
229	0xb7307adb	-1.0519022e-05
230	0xb7680786	-1.3830029e-05
231	0xb86bd80b	-5.622957e-05
232	0xb9339df2	-0.0001712961
233	0xb78d6873	-1.6857148e-05
234	0x36cc69bd	6.0919833e-06
235	0xb92ac93f	-0.00016287433
236	0xb74d1bf4	-1.22254605e-05
237	0xb7397301	-1.1053636e-05
238	0xb7ac9595	-2.0573652e-05
239	0xb7a86eb8	-2.0078718e-05
240	0x34fabc73	4.6703244e-07
241	0x362691c3	2.4820772e-06
242	0xb8cff462	-9.916049e-05
243	0xb69201e1	-4.351358e-06
244	0xb6dfb587	-6.6670505e-06
245	0xb80ef0a1	-3.407954e-05
246	0x365c796c	3.2853231e-06
247	0xb679373c	-3.7136042e-06
248	0x36e4f33d	6.823246e-06
249	0xb882de2a	-6.240264e-05
250	0xb6e58365	-6.840028e-06
251	0xb70ebbbb	-8.507569e-06
252	0xb8324850	-4.2505853e-05
253	0xb7c58d65	-2.3550072e-05
254	0xb69e7f3e	-4.72358e-06
255	0x37119eb3	8.6796235e-06

exp_avg_sq f4 [128, 7]
0	0x3193509e	4.287428e-09
1	0x31be6d32	5.542142e-09
2	0x314a7be1	2.9465286e-09
3	0x2f105472	1.3126725e-10
4	0x32004758	7.466802e-09
5	0x2f26fd8c	1.518769e-10
6	0x318f8319	4.176752e-09
7	0x310a034c	2.0083517e-09
8	0x3246321a	1.1536509e-08
9	0x31000da5	1.8634208e-09
10	0x2e96d14b	6.858388e-11
11	0x32b411d7	2.096287e-08
12	0x2f0f463b	1.3030725e-10
13	0x31d88a93	6.3021814e-09
14	0x32bb2104	2.1784679e-08
15	0x32dafb0c	2.5492703e-08
16	0x3191bab9	4.2412833e-09
17	0x2fd7cfe5	3.925599e-10
18	0x33b5f1e4	8.472469e-08
19	0x3035b81f	6.610907e-10
20	0x315d8d6a	3.2240117e-09
21	0x32c7ae83	2.3246008e-08
22	0x340bb98c	1.3012885e-07
23	0x309946b7	1.1152314e-09
24	0x323cfd6d	1.1000663e-08
25	0x34e98e00	4.350295e-07
26	0x30add369	1.2647493e-09
27	0x319c4055	4.5475113e-09
28	0x3443ab26	1.8223054e-07
29	0x34d9fcf3	4.0603445e-07
30	0x333889ed	4.296628e-08
31	0x319e9d95	4.61632e-09
32	0x35940317	1.1027759e-06
33	0x31ca100c	5.880798e-09
34	0x3294545c	1.726783e-08
35	0x32c0c560	2.2441498e-08
36	0x33f0df4c	1.12164884e-07
37	0x32258867	9.635278e-09
38	0x313ca1f3	2.7449658e-09
39	0x349b12ed	2.888477e-07
40	0x3063d4ae	8.2884355e-10
41	0x320f72fd	8.349841e-09
42	0x3300fd64	3.003278e-08
43	0x33a2a882	7.574364e-08
44	0x31fe20d5	7.3961055e-09
45	0x31827e74	3.797874e-09
46	0x34bd7192	3.5286627e-07
47	0x3084c9d9	9.661633e-10
48	0x316ef910	3.4775134e-09
49	0x340b204b	1.2957132e-07
50	0x355cc7ab	8.224694e-07
51	0x3325a90a	3.8570796e-08
52	0x3480fa82	2.4024126e-07
53	0x36063874	2.0000416e-06
54	0x31b32d6c	5.2147495e-09
55	0x3385316d	6.2022856e-08
56	0x335b858b	5.1111368e-08
57	0x33659578	5.345416e-08
58	0x32637cb4	1.3241493e-08
59	0x305b68dc	7.982075e-10
60	0x33d41d4a	9.877347e-08
61	0x319499df	4.32486e-09
62	0x3140cf56	2.8057534e-09
63	0x3288b340	1.5913997e-08
64	0x32cc9c11	2.3819696e-08
65	0x3166eacf	3.3602878e-09
66	0x3173dbd5	3.5486114e-09
67	0x33c98e88	9.385718e-08
68	0x3010753d	5.25535e-10
69	0x3057f132	7.8559304e-10
70	0x333372b0	4.1780993e-08
71	0x348910ff	2.5530605e-07
72	0x31a464a6	4.7844706e-09
73	0x3117cdd9	2.2090403e-09
74	0x3553ecdb	7.8948295e-07
75	0x30e6581d	1.6759746e-09
76	0x314ca3f4	2.9779104e-09
77	0x33bf5fd0	8.911559e-08
78	0x349ef565	2.960834e-07
79	0x31f45ed7	7.1121167e-09
80	0x3398754b	7.099387e-08
81	0x35c30e26	1.453275e-06
82	0x316ed737	3.4755894e-09
83	0x3284b031	1.5446945e-08
84	0x33bf44b0	8.906625e-08
85	0x34b71051	3.4098278e-07
86	0x325aef21	1.2743642e-08
87	0x3371b147	5.6273418e-08
88	0x358f7ba4	1.0690314e-06
89	0x3173e6a2	3.5492254e-09
90	0x3195a01f	4.3546744e-09
91	0x33fc8461	1.1758744e-07
92	0x35032533	4.8855435e-07
93	0x32762710	1.4327966e-08
94	0x336a7e99	5.459751e-08
95	0x3603b162	1.9623772e-06
96	0x31a96b73	4.930763e-09
97	0x329b4387	1.8075083e-08
98	0x3207e3f7	7.909867e-09
99	0x32dd7f41	2.5785655e-08
100	0x3113b042	2.1491506e-09
101	0x33df0677	1.0385423e-07
102	0x3352c480	4.907315e-08
103	0x2f8cf8ee	2.5642727e-10
104	0x326b4a69	1.3695719e-08
105	0x3289a169	1.60223e-08
106	0x339f87b0	7.428696e-08
107	0x316236a7	3.2918395e-09
108	0x32a95cc1	1.9716369e-08
109	0x3479c3da	2.3261182e-07
110	0x3030a5e6	6.4264183e-10
111	0x31b110f7	5.1533067e-09
112	0x309f7e88	1.1604735e-09
113	0x30b30f72	1.3028354e-09
114	0x30fba7df	1.8310365e-09
115	0x30911742	1.0556749e-09
116	0x312753ec	2.4349402e-09
117	0x2f2b13a8	1.5559343e-10
118	0x2fa675e4	3.027899e-10
119	0x2f9eb96f	2.887179e-10
120	0x30688e10	8.460299e-10
121	0x302bf5c0	6.255867e-10
122	0x2e6b8db1	5.355866e-11
123	0x300d0fd3	5.131799e-10
124	0x2e45cfa3	4.4977033e-11
125	0x2df34c31	2.7659737e-11
126	0x33ea1e08	1.0901937e-07
127	0x350f72e8	5.343886e-07
128	0x318def20	4.1308255e-09
129	0x3492aaff	2.7319035e-07
130	0x360545b8	1.9859126e-06
131	0x318f1c99	4.165099e-09
132	0x3304d5c4	3.0928064e-08
133	0x3453343c	1.9669909e-07
134	0x3588f28b	1.0203379e-06
135	0x324c7b00	1.190233e-08
136	0x31d3ae31	6.1607115e-09
137	0x364bd6e5	3.0374442e-06
138	0x321c03e6	9.0812815e-09
139	0x322e6f9b	1.0153509e-08
140	0x3136b9d6	2.6590121e-09
141	0x310fb981	2.0914686e-09
142	0x30d5f2e0	1.5566819e-09
143	0x309fc57b	1.16249e-09
144	0x315d3e5a	3.2195175e-09
145	0x2ea01266	7.279226e-11
146	0x2f1b8324	1.4143758e-10
147	0x33fc9d68	1.17632965e-07
148	0x33f4194f	1.1366739e-07
149	0x3382a1bc	6.083016e-08
150	0x30c30d66	1.4191925e-09
151	0x33ab094f	7.964501e-08
152	0x3168d864	3.3883447e-09
153	0x31976002	4.4055932e-09
154	0x346a5ea8	2.1827384e-07
155	0x352cb8c9	6.434389e-07
156	0x3313927d	3.4359335e-08
157	0x3447c992	1.860665e-07
158	0x360ade7b	2.0693103e-06
159	0x321007b9	8.383659e-09
160	0x33a626d5	7.737041e-08
161	0x309051dd	1.0500646e-09
162	0x320045e6	7.466474e-09
163	0x313c00f5	2.7358145e-09
164	0x2f1697bb	1.3696326e-10
165	0x322212ac	9.433887e-09
166	0x2f0ff80a	1.3093895e-10
167	0x30f3d6a0	1.7741577e-09
168	0x3371e025	5.6316043e-08
169	0x33012cbd	3.0075842e-08
170	0x3341b43e	4.5100244e-08
171	0x30ca841c	1.4734982e-09
172	0x333b04e7	4.354379e-08
173	0x3092b9fc	1.0675758e-09
174	0x30dbef06	1.6002282e-09
175	0x33715bea	5.619578e-08
176	0x346409b5	2.1237686e-07
177	0x323971f8	1.0794331e-08
178	0x32ca372b	2.3540982e-08
179	0x3546172e	7.379448e-07
180	0x30ef304f	1.7403269e-09
181	0x32620ba9	1.3157583e-08
182	0x325946a5	1.2647125e-08
183	0x32e95cee	2.716703e-08
184	0x31d199de	6.1001932e-09
185	0x30522d9d	7.6462375e-10
186	0x3357e451	5.026624e-08
187	0x30e029c9	1.6310021e-09
188	0x3065e0c2	8.3629115e-10
189	0x32e5d877	2.6757546e-08
190	0x341d3dc2	1.4644232e-07
191	0x31098227	2.0010107e-09
192	0x32b7dcf3	2.140448e-08
193	0x34f38966	4.5362248e-07
194	0x308b4180	1.0132197e-09
195	0x31d1e895	6.109142e-09
196	0x32fd094f	2.945731e-08
197	0x32b2bff9	2.0809226e-08
198	0x31ecda64	6.893332e-09
199	0x301aa153	5.625413e-10
200	0x34924cdf	2.725055e-07
201	0x3077e11c	9.0177976e-10
202	0x30b36777	1.3053371e-09
203	0x33c49d7c	9.1556075e-08
204	0x342922eb	1.5752055e-07
205	0x32c0045a	2.235372e-08
206	0x32482a90	1.165121e-08
207	0x3511426a	5.4113355e-07
208	0x31342c6c	2.6218698e-09
209	0x3261d810	1.3145851e-08
210	0x31946c37	4.3196695e-09
211	0x328f6665	1.6693955e-08
212	0x31d72de5	6.262541e-09
213	0x30a857c9	1.2248559e-09
214	0x333ee789	4.4448402e-08
215	0x2f8f226b	2.6036004e-10
216	0x30b09c4b	1.2850107e-09
217	0x31b78fdd	5.3423563e-09
218	0x31ba7074	5.426097e-09
219	0x310e7807	2.0731947e-09
220	0x2f82a45e	2.3763652e-10
221	0x336de626	5.539018e-08
222	0x2f39e121	1.6905634e-10
223	0x3146409f	2.8849525e-09
224	0x339f5bdf	7.420726e-08
225	0x340a9f93	1.2910304e-07
226	0x325b78e6	1.2774967e-08
227	0x3153ff70	3.084974e-09
228	0x35455bb0	7.352164e-07
229	0x312e7ffc	2.5393083e-09
230	0x315853d7	3.1479794e-09
231	0x34007941	1.1965041e-07
232	0x349d73ef	2.9327882e-07
233	0x32d21de3	2.4460808e-08
234	0x32ccfc72	2.3863524e-08
235	0x3589ffb7	1.0281718e-06
236	0x316ea2fc	3.4726204e-09
237	0x3259aa3e	1.2669771e-08
238	0x324073b2	1.1202177e-08
239	0x32bede34	2.2219957e-08
240	0x31ed9f93	6.9157493e-09
241	0x3197f194	4.4221427e-09
242	0x33840ae8	6.148713e-08
243	0x2fff3190	4.6419446e-10
244	0x31fe882d	7.4078543e-09
245	0x32a7d9a6	1.9540334e-08
246	0x325dc21a	1.2908027e-08
247	0x31810395	3.7548014e-09
248	0x30561ad3	7.7890866e-10
249	0x3388bab3	6.366954e-08
250	0x302de6c6	6.326498e-10
251	0x309bb154	1.1328134e-09
252	0x32f31096	2.8296466e-08
253	0x32da8a55	2.5441446e-08
254	0x31abec2e	5.0036055e-09
255	0x30120a00	5.31287e-10
