results/phase1.3/PlayerAgent/PlayerAgent-500013.onnx (onnx, 80832 bytes, 11 tensors)

discrete_act_size_vector f4 [1, 2]
000000 00 00 40 40 00 00 00 40
       3.0 2.0

network_body.observation_encoder.processors.0.normalizer.running_mean f4 [7]
000000 a8 c1 31 40 ba 87 b8 3e b7 ea 37 bf b4 a6 aa 3b
       2.7774448 0.3604105 -0.7184252 0.005207861
000010 22 2b 3d 3e 46 eb 60 bc 56 14 7a 3f
       0.18473485 -0.013727969 0.9768728

network_body._body_endoder.seq_layers.0.weight f4 [128, 7]
000000 6d 97 63 be 8e 17 b4 3d ee 10 f7 be 8b 8c 07 bf
       -0.22225733 0.08793555 -0.48255104 -0.52948827
000010 63 21 9a be 9e ba e1 3d a5 bd b8 be d7 23 b3 be
       -0.30103597 0.110219225 -0.36082187 -0.3498828
000020 61 29 e4 3d 0f 30 22 3e 06 a2 e6 be 7e e9 ea bb
       0.11140705 0.15838645 -0.4504549 -0.0071689477
000030 b3 ef 52 3f 40 49 f3 be 8d 01 30 3f a7 fc ce bd
       0.82397 -0.47516823 0.68752366 -0.10106783
000040 cb d3 84 3d dc a1 54 bf e1 61 66 3e 85 24 af 3d
       0.06485709 -0.8305948 0.22498275 0.085518874
000050 02 78 8b 3c d9 e7 b3 be 8f a5 59 3e 95 d7 d7 3e
       0.017024998 -0.35137823 0.21254562 0.42156664
000060 fb 3d 9a bd 00 ae cd 3d a8 85 0e bf cf b5 87 3c
       -0.07531353 0.100429535 -0.55672693 0.016566185
000070 7a 9d 90 3e 55 8c 90 3e cd 54 e5 3e a0 2f c2 be
       0.28245145 0.28232065 0.4479126 -0.3792696
000080 07 04 ac be 6f ee 3e 3d 95 d0 43 3e ba 93 45 be
       -0.33596823 0.046614107 0.19122536 -0.19294634
000090 8b 33 f5 3e 46 e9 db be 42 e1 25 be 52 a0 ab be
       0.47890887 -0.4295141 -0.1619921 -0.33520752
0000a0 a1 fe 73 3d 18 26 8e 3d 2d 16 6c 3e 8e 00 9e be
       0.059569005 0.069408596 0.23055334 -0.30859798
0000b0 75 b1 ae be 37 e4 9a bd 31 5a ad 3e b8 d9 84 3f
       -0.34119764 -0.0756306 0.33857873 1.0378942
0000c0 e8 f3 b0 3b 7b e0 65 be ee b4 99 3f 44 1f 2d be
       0.0054001696 -0.22448914 1.200834 -0.16906458
0000d0 40 53 25 3e e9 5b e5 be 6d fd 8a be 37 dc c1 3b
       0.16145039 -0.44796684 -0.27146474 0.0059161442
0000e0 4c ae 3b 3e 76 61 62 bf 94 d3 34 3f 0d ca 90 bf
       0.18328208 -0.88429964 0.7063534 -1.1311661
0000f0 d9 96 c9 be 3a c9 b2 be 39 49 e3 3d b9 d6 f6 be
       -0.393729 -0.3491915 0.110979505 -0.48210695
000100 20 53 aa be 33 af 19 bd 80 a4 ac bc f4 ce a6 3d
       -0.33266544 -0.0375206 -0.021074533 0.08144942
000110 d5 b4 d6 3e ab d1 03 3f 9b a7 2d be 16 60 14 3f
       0.4193484 0.514918 -0.16958468 0.57959116
000120 1c 27 ec be a5 0c 29 bf 69 c2 42 be e3 a6 80 bd
       -0.46123588 -0.6603492 -0.19019474 -0.06281831
000130 fe 73 06 3f 3e 3b 16 3f ba a0 20 bf 06 5e e2 3e
       0.5252074 0.58684146 -0.6274525 0.4421236
000140 13 37 94 3e 42 17 0c 3f d2 2e 12 3f 70 e8 09 bf
       0.28948268 0.5472299 0.5710269 -0.53870296
000150 2f 0b 8a 3d 91 9e 41 3e e8 f5 02 3d 0e 9d 98 bd
       0.06740414 0.18908145 0.031972796 -0.07451831
000160 07 cf 29 3e 19 85 33 bf 8a 65 af 3e a0 74 3a 3e
       0.16582881 -0.70124966 0.34257156 0.18208551
000170 e7 63 8f be be 00 72 be 46 9b e3 bd 9e 3c 4f 3f
       -0.28005907 -0.23633096 -0.111136004 0.8095187
000180 8b fb 05 bf 33 83 59 be fd 4b 57 be a4 5c 97 3d
       -0.5233695 -0.21241455 -0.21025081 0.07390717
000190 ca 9f 82 bd 75 17 35 3f b0 58 68 be c7 fb a9 3d
       -0.063781336 0.7073892 -0.22690082 0.08299976
0001a0 21 0c 33 bf 6c 37 b4 be 0d 22 9f 3e 54 3d bc 3e
       -0.6994038 -0.35198534 0.31080666 0.3676554
0001b0 78 70 a8 3e 0d 51 24 be 15 78 1a 3f 01 f8 e5 3d
       0.32898307 -0.16046543 0.6033948 0.112289436
0001c0 e0 89 58 bf da 44 02 be 51 32 b5 3e fc 6b 18 3f
       -0.8458538 -0.12721577 0.3538995 0.5953977
0001d0 46 ee e1 be ae 8a b0 3d 86 c2 b2 3e b9 f3 d8 be
       -0.441271 0.08620201 0.34914035 -0.42373446
0001e0 b7 ca aa be 67 68 71 3c 03 30 51 3e fa 1d eb be
       -0.33357784 0.014734364 0.20428471 -0.45921308
0001f0 58 d7 0f 3f 6b d6 39 3f be 88 0d bf fd 9f 47 be
       0.56187963 0.725928 -0.55286777 -0.19494624
000200 1e 85 25 3d 96 3f 8d 3e 7c bc f8 3e 96 79 17 3d
       0.040410154 0.27587575 0.48581302 0.036981188
000210 b8 75 93 be 9f 0e 94 be be 96 f3 3e 61 80 f2 3e
       -0.2880075 -0.28917405 0.47575945 0.4736357
000220 77 fc a3 be 05 8a 83 bd 56 b8 86 be 7e b3 15 3f
       -0.32028553 -0.064228095 -0.26312512 0.5847701
000230 30 da 8d bd b2 aa 90 be 9e 39 b9 bc ea 46 ae 3e
       -0.069263816 -0.2825523 -0.022610482 0.34038478
000240 d6 78 d4 be 79 a4 ae 3e ec c9 cb 3d 66 22 c8 3d
       -0.4149844 0.34109858 0.09950623 0.09772186
000250 e7 66 03 3f e1 87 40 be 67 13 25 be aa ad 4f bf
       0.5132889 -0.18801834 -0.16120683 -0.81124365
000260 0e 40 91 3c c9 a1 2b 3f 73 6e da 3e b2 d8 7c 3e
       0.017730739 0.6704374 0.4266239 0.24692038
000270 49 8f 4b 3f 68 b6 df 3d 10 2e 43 ba a8 f6 a2 be
       0.7951551 0.10923463 -0.00074455235 -0.3182881
000280 a7 2a 40 bd 72 f8 b3 be cb 58 9f 3d a4 e1 b0 3e
       -0.046915676 -0.35150486 0.07780608 0.3454715
000290 02 4c c2 be 3a 5d ac be bb 42 a0 bb 66 93 11 3d
       -0.37948614 -0.33664876 -0.0048907674 0.03554096
0002a0 f8 10 6a 3e bd c7 6a be 7f 95 3e bf 2c 08 55 be
       0.22858036 -0.22927757 -0.7444686 -0.20803899
0002b0 20 8e 28 bf 47 c8 42 3f 4b 13 5c 3f d7 07 0c 3d
       -0.65841866 0.7608685 0.8596694 0.034187164
0002c0 92 64 71 bd d0 5e 33 bf 12 e4 49 bd 93 bb ae 3e
       -0.058933802 -0.7006655 -0.04928977 0.34127483
0002d0 78 6a 07 3f 6f b6 c4 be 12 07 f5 be fe ee 94 3e
       0.52896833 -0.38420436 -0.47856957 0.29088587
0002e0 c5 c3 3e bf 2d e2 cc bd b5 25 4b be bd 2f 0c bf
       -0.7451747 -0.10004077 -0.19838603 -0.5476034
0002f0 a8 64 22 3e f9 2c 7d be 5f 51 9e 3e 4c 3d d3 3e
       0.1585871 -0.24724187 0.30921456 0.41257703
000300 72 da 01 ba 87 ec 24 be b5 de 4f 3e 64 d1 39 be
       -0.00049535104 -0.16105853 0.202998 -0.18146282
000310 f3 43 94 3e 88 df 49 bf 1f ff d7 3e 1a 97 23 bf
       0.2895809 -0.78856707 0.4218683 -0.6390244
000320 6b 0a 0e 3e 36 55 a3 3e 6d 9f 2e 3d ab 07 33 3f
       0.13871162 0.31900948 0.04263251 0.69933575
000330 18 a8 51 3e 2e 99 3a be 5f 61 07 be 54 9b e3 3e
       0.20474279 -0.18222496 -0.13220738 0.44454443
000340 04 e3 65 bd 25 f7 35 3e b7 0c 41 bf 89 ff 6c 3e
       -0.056124702 0.1777006 -0.75410026 0.23144354
000350 90 90 d7 be b5 60 3f be 0d 4e 25 3e 1b eb 2e 3f
       -0.4210248 -0.18689235 0.16143055 0.6832749
000360 34 e3 2b 3e 23 75 27 3e 09 cf 23 bf 41 c2 90 3e
       0.1678589 0.16353278 -0.63987786 0.28273204
000370 2c ee 8c be b5 e9 a9 3d 5f ff 91 3e b5 08 8e be
       -0.2752546 0.08296529 0.28515145 -0.27741018
000380 d4 eb ac bb 89 4b 16 bd 11 d6 22 3e e8 94 77 be
       -0.0052771363 -0.03669313 0.15901972 -0.24177897
000390 77 62 4e 3e cd 89 ad bd 9d ba cc 3e e6 0d 40 3e
       0.20154749 -0.08473549 0.39986125 0.18755302
0003a0 48 80 8c 3e 47 cc ab 3e 74 d1 ea 3e 06 2b 2b 3c
       0.2744162 0.3355429 0.45862925 0.010447269
0003b0 af a9 30 3e 0d 48 50 3e 3a 9f 33 3e 3a ea 80 3e
       0.17252229 0.20339985 0.17541209 0.251787
0003c0 5b 6e 94 be 18 48 53 be b9 da 1b 3f 7d aa 9b bd
       -0.28990445 -0.2063297 0.6088062 -0.076008774
0003d0 ef 48 bf be 15 f3 2a 3f b7 ec 7d be 14 4b 75 bc
       -0.3736033 0.66777164 -0.24797331 -0.014971513
0003e0 f4 6e ff bd 0e f3 78 3c df e5 17 3d ac 64 e8 3d
       -0.124723345 0.0151946675 0.037084457 0.11347327
0003f0 a6 a2 85 3e 73 c0 0e be 9a 78 e4 3d df c8 de be
       0.26100653 -0.13940601 0.111558154 -0.43512627

network_body._body_endoder.seq_layers.0.bias f4 [128]
000000 5a 49 b6 3c 3a 12 7c 3d 9b 98 32 bc 73 89 2f 3d
       0.022251774 0.06154082 -0.010900642 0.04285569
000010 95 5c db 3d ca 12 8d 3d 42 03 a4 3d c0 1d 89 3d
       0.10711018 0.06888349 0.08008434 0.066951275
000020 dc 97 fb 3d ac 92 d8 bd 93 9b b9 3c 38 92 bc 3d
       0.12284824 -0.105748504 0.022657191 0.092075765
000030 c0 4a b8 3d 54 5a 84 bd 31 19 8f bc 42 2f a7 3d
       0.089986324 -0.06462541 -0.017468067 0.081633106
000040 ed e3 53 3d ff 7c 51 bd c6 06 2c bd 6e 2a b4 3d
       0.05173104 -0.051144596 -0.041998647 0.08797155
000050 28 87 b0 3c c0 b6 b8 3d 5f 55 d4 3d 0b 4d 24 bd
       0.021548823 0.09019232 0.10367846 -0.040112536
000060 a8 30 6a 3d 47 53 b6 38 c9 59 93 bc c6 81 a3 3d
       0.05717531 8.693948e-05 -0.017987149 0.07983737
000070 fc 47 9d 3c 6c 33 cb 3d 2e e9 1a 3d 6b e3 52 3c
       0.019199364 0.09921917 0.037820034 0.0128716035
000080 37 eb c9 3d 4f c2 d6 3d 5e e8 c8 3c c4 11 f5 3b
       0.09859317 0.1048628 0.024524864 0.0074789245
000090 ed 17 59 3c 57 55 b1 3d c8 9f 4c 3d ef dd 35 3d
       0.013250333 0.086588554 0.049957067 0.044401105
0000a0 00 cc 48 3d 3e cc 62 bc 73 00 88 bd 88 40 be 3d
       0.049022675 -0.01384264 -0.06640711 0.09289652
0000b0 85 c2 63 bd cd fe fb 3c 32 8c 96 3d 6a 94 ed 3d
       -0.05560543 0.030761147 0.07350959 0.11600573
0000c0 84 77 cb 3d 7f 53 a6 3d 4d 4b 90 bd ed 42 a0 bc
       0.09934905 0.08121394 -0.070456125 -0.019563163
0000d0 3e ca ce 3d 56 bc b3 3d da e6 aa 3d 5a b4 d4 bd
       0.100971684 0.087761566 0.08344813 -0.10385962
0000e0 f5 ce 39 3d 9d 4e e0 3d 10 65 c1 3d 0b 3f 8e bb
       0.045363385 0.10952494 0.09443104 -0.0043410114
0000f0 90 a7 46 3c c6 a2 d1 3d 00 e6 bc 3d 8f 03 1f bd
       0.012124911 0.10236125 0.092235565 -0.038821753
000100 65 20 ba 3d 66 32 a8 3d 9f e1 a2 bd 21 0c 9b bd
       0.0908821 0.08212738 -0.0795319 -0.07570673
000110 c1 bc 84 3d fe e3 a3 bd 31 84 61 bd 95 9a b5 3d
       0.064813145 -0.080024704 -0.05505771 0.08867375
000120 20 08 64 3d 58 4f 18 3c 48 25 c9 3c ce 11 aa 3d
       0.05567181 0.009296261 0.02455391 0.08304177
000130 4a 00 b9 3d f7 a2 ca 3d 16 b1 3c 3d 6d 6a 7a 3d
       0.09033258 0.09894364 0.04606732 0.06113665
000140 77 ee c7 3d 4a 54 be bc 63 63 9b 3d 97 47 a2 3d
       0.097622804 -0.023233552 0.07587316 0.07923811
000150 f8 de 34 3d 4f 36 a1 bd 8b e3 96 bd 8c 67 9b 3d
       0.044157952 -0.07871687 -0.07367619 0.075881094
000160 b4 39 c1 3c 12 55 9a 3d 54 79 c1 3d a5 3b 1d 3d
       0.023587085 0.07535757 0.0944697 0.03838696
000170 b4 b4 2f bc 45 68 97 bd a9 91 05 3d 72 02 8a 3d
       -0.010724235 -0.07392935 0.032609615 0.06738748
000180 59 38 ad 3d e7 52 46 3d db 4d 8f 3c 61 e5 08 3d
       0.08458013 0.048418906 0.017493179 0.033421878
000190 a2 fd bc 3d 5f 8d ad 3d fd b4 85 bd fd e1 81 3d
       0.09228064 0.0847423 -0.065286614 0.06341932
0001a0 84 5e be 3d b3 6a 55 3a cf ce d3 3d 35 0c 8c bd
       0.09295371 0.00081412046 0.1034218 -0.06838266
0001b0 fe a3 c5 3d bb ce 8b bd 2c 7d fe 3c c8 20 2f bd
       0.0965042 -0.0682654 0.031065546 -0.042755872
0001c0 e3 d6 d5 3d f0 de c6 3d e0 ea 70 3d ec 41 ad 3d
       0.10441377 0.09710491 0.058817744 0.08459839
0001d0 0d e9 8d 3b ce 81 ee 3d c3 f3 66 3d 31 70 76 3d
       0.0043307603 0.11645852 0.056384813 0.060165588
0001e0 34 69 e3 bc 1f 5f de bc 1f 59 7d 3d 66 30 21 3d
       -0.027760126 -0.027144967 0.06185257 0.039352797
0001f0 8c eb 41 bd ff 9c 47 3d 50 cc ab 3d 11 d3 7d 3d
       -0.047343776 0.048733708 0.08388579 0.061968867

network_body._body_endoder.seq_layers.2.weight f4 [128, 128]
000000 c2 c6 e7 3c 01 98 38 be c5 22 99 bb c1 c7 a7 bc
       0.028293017 -0.18026735 -0.0046733343 -0.020480992
000010 56 05 0b 3e b9 f9 aa 3d 9b ec 64 3e 4e 58 02 3e
       0.13576254 0.08348412 0.22355883 0.12728998
000020 98 d0 af bc 51 4f b4 bd 47 ba 3a bd d7 e8 11 3e
       -0.02146177 -0.08804191 -0.045587804 0.14248978
000030 ac 02 07 bd 98 e8 a2 bd 38 74 5a bd e2 77 99 3d
       -0.032961532 -0.0795452 -0.05333349 0.07493569
000040 30 f4 39 3e ad 72 48 3e 8f df 1c 3d 8a f1 f3 3b
       0.18159556 0.19574995 0.03829914 0.007444565
000050 9f 53 92 3d df 79 b4 3c a9 b8 78 3e f5 69 44 be
       0.07144856 0.022030769 0.24289192 -0.19181044
000060 80 2b 33 3e a8 04 74 bd 2f b5 5c be de ef 7c 3d
       0.17497063 -0.059574753 -0.21553491 0.061752193
000070 a5 c2 78 be bc 28 56 3d 5f 1a 2b 3d c9 d2 1b 3e
       -0.24293001 0.05228494 0.041773196 0.15217127
000080 01 d2 06 3e 6e be aa bd 5c bd 1a 3e 08 2e 8e bd
       0.13166048 -0.08337103 0.15111297 -0.069423735
000090 52 fa 33 3d 0e fa 1b 3d 0f e2 46 bd f2 3b 7d 3c
       0.043939896 0.038080268 -0.04855543 0.015456187
0000a0 ad cc ae 3d 85 eb a2 3b cd 94 fa bd 6a cb b6 bc
       0.085351326 0.004971924 -0.12235413 -0.022313792
0000b0 33 a1 94 bd 09 07 f5 bd 24 dc 42 3d d7 dc db bd
       -0.07257309 -0.119642325 0.047573224 -0.10735481
0000c0 05 04 65 3d 11 21 bb 3b 85 39 c5 bd bb 54 cb 3c
       0.055912036 0.005710729 -0.096301116 0.024820676
0000d0 11 e9 f0 3c ac 0d 83 3d d4 0a e8 3d 79 5d 19 be
       0.02940801 0.06399092 0.1133019 -0.14977063
0000e0 ac 7b 87 3d 40 65 3f 3d aa 85 13 3e c9 93 14 3e
       0.066153854 0.04672742 0.14406458 0.145095
0000f0 88 e9 7f 3d 6d 14 ce 3d e3 36 60 3d b9 d1 e5 3d
       0.062478572 0.1006249 0.054739844 0.11221642
000100 cd c3 41 bd d4 af 98 38 37 10 4f bd b9 03 11 be
       -0.04730587 7.280675e-05 -0.050552573 -0.14161576
000110 b1 b9 87 3d da 99 b4 bd ce f2 e7 bc 6f e1 07 bd
       0.06627215 -0.08818407 -0.02831402 -0.033173975
000120 be 67 e1 3d 5b cc 8b 3c a2 35 a3 bd f8 fb 0f 3c
       0.110061154 0.017065218 -0.07969214 0.008788101
000130 28 08 67 3e f6 f6 88 3d 73 52 91 3c 9b 46 01 bd
       0.22561705 0.06687729 0.01773951 -0.031561475
000140 6d cd 27 3e 4c 50 0f 3d 45 9f 9e bd 96 e9 44 bd
       0.16386957 0.034988686 -0.07745222 -0.048074327
000150 b8 af 9d bc da de b0 bc f1 13 6c bd 62 60 43 3c
       -0.019248828 -0.021590639 -0.057636205 0.011924835
000160 42 aa 1e 3d 4f 9e 4b 3c 3d ce 28 3e 0f 02 ec bc
       0.03873659 0.01242788 0.16484924 -0.028809575
000170 c0 db dc bd cb 12 1a be a2 4e 12 bd ed 09 0e 3e
       -0.107841015 -0.15046231 -0.03571952 0.13870974
000180 79 33 4a bc 48 d9 de bd 8e 50 08 3e a4 aa da bd
       -0.012341374 -0.10881287 0.13311979 -0.10677078
000190 18 a8 96 3c 0e 8c 62 3c 1d 65 81 be 49 fd 80 bc
       0.0183907 0.013827337 -0.25272456 -0.015745776
0001a0 3f 5a f2 bb e0 b1 81 3d 26 31 48 3d 58 b8 c0 bd
       -0.007396012 0.06332755 0.048874997 -0.09410161
0001b0 73 ab 23 3e c1 06 7c 3c 09 83 11 be 2c 79 83 bb
       0.15983371 0.01538247 -0.14210142 -0.0040122475
0001c0 c4 a0 91 3d da 6c 92 3d 97 e4 b2 3d 45 10 5f 3d
       0.07110742 0.07149668 0.08735006 0.054458875
0001d0 15 eb e8 3c 66 37 df 3d d5 3e a8 bd 16 e4 9c 3d
       0.028432408 0.10899238 -0.08215109 0.076606914
0001e0 80 9f 80 bd 19 c0 17 3e 94 d6 43 3d 39 2a 2d 3e
       -0.06280422 0.14819373 0.04781206 0.16910638
0001f0 6e d7 8f bd 55 7d be bd 40 fa 3d 3e e5 8c d7 3d
       -0.07023512 -0.09301249 0.18552494 0.105249204
000200 92 02 2d 3e 0c 60 6f 3d 97 7c c0 3d 84 0c 4c 3d
       0.16895512 0.058441207 0.093987636 0.049816623
000210 b1 f2 ce 3b 7d 5a cc bd 24 5d ee 3d ae b3 09 bd
       0.006315552 -0.09978197 0.11638859 -0.03361862
000220 58 bd a2 bb 16 dd 15 3e 87 a3 0d bc 5a 97 a9 3d
       -0.004966419 0.14635119 -0.008644945 0.08280821
000230 14 c1 92 3d 5e 9c 78 3d da a9 ec 3c e5 7e ce 3d
       0.07165733 0.060696 0.028889585 0.10082797
000240 08 7e 4b bc 1d 73 05 3e f0 4a 96 3c 97 75 eb 3d
       -0.012420185 0.13032193 0.01834628 0.11497038
000250 48 8a 87 3d 67 7a a3 3d db 38 c6 3d 89 fc f5 3c
       0.06618172 0.07982331 0.09678813 0.030027645
000260 94 00 0b 3e f0 60 c8 3c 39 58 0f 3c ac 85 5c 3d
       0.1357444 0.024460286 0.008749061 0.053838417
000270 6e 4b a3 bc a4 c5 85 bd 22 96 3e be da 18 6a 3c
       -0.019933429 -0.065318376 -0.18611959 0.014288152
000280 74 50 94 3d 9e 1a 76 3d 18 9d 3b 3d ac b0 dc 3c
       0.07241908 0.060083978 0.045804113 0.026939712
000290 c9 30 fb 3d 8c 4f 95 3d 31 e6 b0 3d ca 71 3e bd
       0.122651644 0.07290563 0.086376555 -0.046495236
0002a0 0b ea 92 3d af 2f a9 bc 75 db 05 3e e3 e6 1f 3d
       0.071735464 -0.02065262 0.13071997 0.03903855
0002b0 97 2b 1a 3d 5b 80 18 3d 9a 01 22 bd 00 4f 57 bb
       0.037639227 0.037231784 -0.03955231 -0.0032853484
0002c0 8f e1 20 3e 58 d1 14 be 83 fb 95 3d f8 1e 80 3d
       0.15711044 -0.14532983 0.07323363 0.06255907
0002d0 0a c6 32 3e fc cc d3 3a e9 dc 20 3e d6 b4 80 3d
       0.17458358 0.0016159113 0.1570927 0.06284492
0002e0 1c af 31 bc 62 2c 23 3e fc 22 88 3c b4 da 8a 3b
       -0.010844972 0.159349 0.016618244 0.004237497
0002f0 42 18 e5 3c d2 55 6d bd c0 b0 72 3d bc 9d a3 bd
       0.027965669 -0.057943173 0.059250593 -0.0798907
000300 ff 43 aa bd c4 e4 81 3e 6f fc a8 bd 74 34 aa 3d
       -0.083137505 0.25369847 -0.08251273 0.08310786
000310 e1 7a c3 3d 23 4e 50 bd 27 aa 70 3b 52 30 47 3d
       0.09544922 -0.050855767 0.0036722512 0.048630066
000320 f3 b7 09 bc e1 01 1e be bb b6 d8 bd 5a 3e 85 bc
       -0.008405673 -0.15430404 -0.10581728 -0.016265083
000330 d7 f2 69 3c 23 ab 49 3d 4a f5 88 bd 30 b7 95 3d
       0.014279089 0.049235474 -0.0668741 0.07310331
000340 e7 b3 23 3d 3b 4b c1 3c e2 4d 39 bc 5b ab 03 bd
       0.03996649 0.023595443 -0.011310073 -0.03214584
000350 f1 22 17 ba cd 2c 7b bd dc 69 4d be 71 55 6a 3c
       -0.00057653995 -0.061322022 -0.20059913 0.014302597
000360 dd 78 32 bd 5c 9b cc 3d e4 f4 42 3e 1a 77 3b bd
       -0.043572295 0.0999057 0.19038731 -0.04576788
000370 5b 99 26 bc be 30 ac bd 3c e6 a1 bb e8 b0 aa bd
       -0.010168399 -0.08407734 -0.004940776 -0.083345234
000380 95 fc 8f 3d 2b 9c ae 3d c5 db df bd c7 96 e5 bc
       0.07030598 0.085258804 -0.109305896 -0.028025998
000390 85 fa a3 bd a0 dd 2c 3d e7 ff e9 bd 3f 64 a5 bd
       -0.08006767 0.042203546 -0.114257626 -0.08075761
0003a0 ae 73 cd 3d 24 57 41 3d 58 09 4a bb 8a e3 88 bc
       0.1003183 0.047202244 -0.0030828323 -0.016710062
0003b0 bf 23 4b 3c 5b 76 d4 3c 6e 18 73 bd d5 d1 b1 3d
       0.012398659 0.025935343 -0.05934947 0.086826004
0003c0 92 0d 19 3d dc be 30 3e 3e cd 93 bd 65 ea 42 bd
       0.037366457 0.17260307 -0.07216881 -0.047586817
0003d0 4d 06 2a bd 14 4e 38 bd 8e 80 7d 3b 6b b3 cb 3c
       -0.041509915 -0.044996336 0.003868136 0.024865827
0003e0 93 31 85 3d 0d cf ef 3d 3f bc 4d bd a5 35 92 bc
       0.06503596 0.11709414 -0.050228354 -0.017847845
0003f0 04 d4 e8 bc c3 7b d2 3c 80 0c cc 3c 29 8f 1e bd
       -0.02842141 0.02569378 0.024908304 -0.038710747

network_body._body_endoder.seq_layers.2.bias f4 [128]
000000 f9 9b 89 3d 7d 58 92 3d ea 5b 8f 3d 51 40 b8 3d
       0.067192025 0.07145784 0.06999953 0.089966424
000010 37 7e a7 3d ce d7 9c 3d a1 bf d8 3c 7c 87 4a bd
       0.081783704 0.07658349 0.026458563 -0.049445614
000020 26 89 66 3d a2 23 aa 3d 5a b9 a6 3d 6e 10 cd 3d
       0.05628314 0.08307578 0.08140822 0.10012899
000030 7c 83 1c bd f1 8d 8f 3d 19 4d a0 3d 55 7b ce 3d
       -0.03821133 0.07009495 0.07827205 0.100821175
000040 36 2a 97 3d ef 62 9c 3b 7f ae 6a 3d 3f 26 8a 3d
       0.07381098 0.004772536 0.05729532 0.06745576
000050 61 68 68 bd 9f c6 b9 3d 1e c9 7e bd 9f 38 c6 3d
       -0.05674017 0.09071087 -0.06220352 0.09678768
000060 ed 0c 88 3b 06 12 98 3d ed 65 4f bd 42 09 19 bd
       0.0041519315 0.07425313 -0.050634313 -0.037362345
000070 0d c9 a6 3b 80 ff 55 bd dd f6 2c bd e0 ae 8c 3d
       0.005089885 -0.052245617 -0.042227615 0.06869292
000080 1f 27 75 3d 51 19 7a bd e7 3c 74 bd 11 96 b0 3d
       0.059851762 -0.0610593 -0.059628394 0.08622373
000090 1c 6d fd bc 64 88 37 bd 00 27 9e 3d 32 51 5b bd
       -0.030935816 -0.044807807 0.077222824 -0.05354423
0000a0 d7 92 9e 3d 38 a5 d5 3d ea ca 95 3d 06 a6 7d 3d
       0.07742851 0.104319036 0.073140934 0.06192591
0000b0 f7 22 33 bd a8 82 88 3d f9 55 38 3d ee 15 d0 3d
       -0.043734517 0.06665546 0.045003865 0.10160433
0000c0 6e 6f 52 bd fe ab ba 3d 58 af 33 bd 21 eb 24 bd
       -0.0513758 0.09114836 -0.043868393 -0.0402633
0000d0 92 76 d7 3c e2 62 3d bd 91 ee 6d bd 2a 4d 7b 3d
       0.026301656 -0.04623688 -0.058088843 0.061352886
0000e0 51 42 29 bd 2c e7 53 bd 35 4f 2f bd 26 56 75 3d
       -0.04132301 -0.051734135 -0.042800147 0.05989661
0000f0 f6 bf c4 3d 94 95 78 3d da 3e 51 3d a8 b0 bb bc
       0.09606926 0.060689524 0.05108533 -0.022911385
000100 6e df 67 bd 0c 5f 95 3d f3 ca b1 3d be bb 5e bd
       -0.056609564 0.072935194 0.086812876 -0.054378264
000110 8e a3 70 3d ee ba 52 bd 7c 42 7d bd ce de c6 3d
       0.058749728 -0.0514478 -0.061830983 0.09710465
000120 75 a6 6f bd 30 73 38 bd 30 de 29 bd de 8d b6 3d
       -0.058508355 -0.045031726 -0.04147166 0.08913778
000130 44 99 a6 3d fb 1c 2a 3d 73 67 4a bd 85 bf a8 bc
       0.08134702 0.041531544 -0.049415063 -0.020599136
000140 cb 7c 60 3d dc 98 33 bd 71 bc 77 bd a0 64 9e 3d
       0.05480651 -0.04384695 -0.060482446 0.077340364
000150 c9 c3 1d 3d 37 f0 d2 bc 1b d4 55 bd ee c4 77 bd
       0.038516793 -0.025749309 -0.052204233 -0.06049054
000160 3b 7f 47 3d 41 51 32 3d ee d9 0d 3d cb d4 11 3b
       0.04870532 0.04353452 0.034631662 0.0022252079
000170 e9 b3 22 bd 1e e0 78 3d c1 c6 88 3d 32 ff 88 3d
       -0.039722357 0.06076061 0.06678534 0.066893
000180 96 d3 5f 3d 6b fd 55 bd d0 68 6a 3d 8d 50 77 bd
       0.054645143 -0.05224363 0.057228863 -0.060379554
000190 42 a7 5e bd eb f2 95 3d 60 8c a5 3c 52 a2 b0 3d
       -0.05435873 0.073217236 0.020208538 0.0862471
0001a0 61 f4 11 3d 98 e2 b3 3d 9f 6b dc 3b d0 5f 8c 3d
       0.03563345 0.08783454 0.0067266966 0.06854212
0001b0 5f 5b 9a 3d ea 02 2c bd 01 e9 76 bd f9 6e d0 3d
       0.07536959 -0.041994967 -0.060280804 0.10177416
0001c0 71 13 32 bd 3d 46 45 bd 65 c1 bc 3d a1 eb 8d bc
       -0.043475572 -0.048162688 0.092165746 -0.01732427
0001d0 fc 59 ac 3d 07 5d ac 3d 92 a6 c6 3d 8d 78 a3 3d
       0.08415601 0.08416181 0.096997395 0.079819776
0001e0 57 b3 7e 3d 59 18 43 bd 40 3e 8d 3d ec bc 69 3d
       0.06218275 -0.04763064 0.06896639 0.057064936
0001f0 9f 64 40 3d 25 9a 19 bd 1f da 8e 3d 7b 03 3b bd
       0.04697096 -0.03750052 0.06975197 -0.045657616

action_model._discrete_distribution.branches.0.weight f4 [3, 128]
000000 dd f2 88 bc 65 17 30 bc ac 48 bd bc 07 11 9d bc
       -0.016717369 -0.010747765 -0.023105942 -0.019173158
000010 c7 44 9f bc d4 32 ab bc 92 c3 8d bc 6c 72 f6 3c
       -0.019441975 -0.02089826 -0.01730517 0.030083857
000020 e5 f9 31 bd 38 06 23 bd a2 f1 00 bd da cd 30 bd
       -0.04345121 -0.039800853 -0.03148044 -0.043165065
000030 4d f1 16 3d b5 70 e3 bc 8b 07 04 bd 4f 7e b7 bc
       0.036851216 -0.027763704 -0.032233756 -0.022399096
000040 9e e7 d0 bc b7 e3 b8 bc 46 d1 0c bd 11 b8 c2 bc
       -0.025501069 -0.02256952 -0.034379266 -0.02376941
000050 38 3d 4c 3c 05 ae a9 bc 7c 4b 85 3c 36 a3 e7 bc
       0.012465768 -0.020712862 0.016271345 -0.028276067
000060 8d 59 02 3c 0d 8a ed bb 7e f4 da 3c 42 3d 2b 3d
       0.007955921 -0.007249123 0.026727911 0.041806467
000070 67 c4 5e bc 94 22 87 3c b4 33 c0 3c 2b 7e 79 bc
       -0.013596631 0.01649598 0.023462154 -0.015227835
000080 49 97 0d bd cb 79 a7 3c 59 26 a7 3c 9a 20 4d bc
       -0.034568105 0.020443818 0.020404028 -0.01251998
000090 93 ac 39 3d c3 f4 cc 3c c3 46 df bc c5 da 97 3b
       0.045330595 0.025019055 -0.027255422 0.0046342337
0000a0 5a 33 2c bb 67 e3 1e bd 47 e3 a3 bc ec b4 e7 bc
       -0.0026275725 -0.038791087 -0.020005835 -0.028284512
0000b0 15 b4 d3 3c ed 82 98 bc 70 c2 e3 bc d5 8b 19 bd
       0.025842706 -0.018617118 -0.027802676 -0.03748687
0000c0 60 20 3e 3c aa 99 bd bc c8 ed aa 3c 9a 87 8a 3c
       0.0116043985 -0.023144562 0.020865336 0.016910363
0000d0 44 bd 24 bd c9 0d 0f 3d 11 73 25 3d 7b d3 49 bd
       -0.04021956 0.034925256 0.04039294 -0.04927395
0000e0 91 d0 4d 3c 3c 5b b5 3c 0b ac 10 3c d8 01 f8 bc
       0.012561933 0.02213823 0.008830081 -0.030274317
0000f0 09 37 7a bd 14 56 85 bc bb aa 55 bc 89 9f b0 3a
       -0.061087642 -0.016276397 -0.013041194 0.001347528
000100 08 84 02 3d b3 71 d8 bb ca 42 f1 bc 71 bc bb 3c
       0.031864196 -0.006605351 -0.029450793 0.022917004
000110 ae ee 12 bc 89 fe b3 3c 26 5a c8 3c a8 21 15 bd
       -0.0089680385 0.021971958 0.024457049 -0.03640905
000120 12 66 58 3c 5a 3b b5 3b 6e 83 07 3d 7d ef e7 bc
       0.013207929 0.005530757 0.033084325 -0.02831244
000130 e5 d3 a0 bc 83 df 27 bc 17 e6 0e 3d 57 60 ad 3c
       -0.01963229 -0.01024616 0.0348874 0.021164102
000140 7a 69 6b bc 63 19 e2 3c fa a5 27 3d 7f 45 ab bc
       -0.014368409 0.027599996 0.040929772 -0.020907162
000150 c7 f9 e3 bc 75 ae 38 3c f7 fb bd 3c 91 65 aa 3c
       -0.027829064 0.011272063 0.023191435 0.020800384
000160 56 df 30 bc 90 ca da bb a3 9f c9 bb 43 96 b3 bc
       -0.010795435 -0.0066769794 -0.0061530634 -0.021922236
000170 ea ac a1 3c b9 b2 46 bb d3 f0 96 bb c3 22 e2 bc
       0.019735772 -0.003031893 -0.004606345 -0.027604466
000180 d0 43 6c 3b 65 d4 c9 3c 73 f1 0a bd d3 11 ba 3c
       0.0036051162 0.02463741 -0.03392167 0.022713577
000190 ba d2 89 3c e0 d1 9b bb 49 4d a7 3a 6e 6f a7 bc
       0.016824115 -0.0047552437 0.0012764122 -0.020438876
0001a0 09 88 6d bc ed 0b ab bc f2 f6 a2 3a 50 08 bd bc
       -0.014497765 -0.02087971 0.0012433215 -0.023075253
0001b0 9e 2b 9f bc 20 7a 2c bc 60 bb c6 3c c4 ce 0d bd
       -0.019429978 -0.010527164 0.02425927 -0.034621015
0001c0 f1 f4 0c 3d ea 09 18 3d aa 9e 6e bd 91 f6 a1 bb
       0.03441328 0.03711883 -0.058256783 -0.004942723
0001d0 84 29 a2 bc 5d 1e e0 bc 33 ee 41 bd 24 f8 1f bd
       -0.019795187 -0.027358228 -0.047346305 -0.039055005
0001e0 8a d5 d1 bc 44 0f c6 3c 97 f6 d6 bc e9 2d 83 bc
       -0.025614519 0.024177201 -0.02624063 -0.016013103
0001f0 bd a1 9a 3b cb e1 9c 3c 58 b3 33 bd 7d 4e dd 3c
       0.0047189877 0.019150635 -0.043872207 0.027014965
000200 e4 da 75 bd 05 c5 33 bd 95 a3 1b bd 76 ea 88 bd
       -0.060023203 -0.043889064 -0.0379978 -0.06685345
000210 32 22 77 bd 13 ce 5e bd 40 a9 7d bc 34 b5 31 3d
       -0.060335346 -0.054395746 -0.015482247 0.0433857
000220 d7 b2 32 bd 9e 5d 66 bd ad d6 6f bd 48 6e 63 bd
       -0.043627586 -0.056241624 -0.05855434 -0.055525094
000230 c4 b9 24 3d 9a ea 75 bd b3 c3 96 bd a7 50 4a bd
       0.040216222 -0.060038187 -0.073615454 -0.049393322
000240 9c 5c 4a bd ef 1c 57 bc 18 1f d5 bc d2 d2 18 bd
       -0.049404725 -0.013129457 -0.026015803 -0.03731043
000250 a6 93 82 3d e1 f1 7a bd 22 79 1d 3d f6 cc 84 bd
       0.06375818 -0.06126583 0.0384456 -0.06484406
000260 8d 02 5f 3b 99 9d b9 bc cc 6b 67 3d b9 8b ff 3c
       0.003402862 -0.022658156 0.056499287 0.031194555
000270 b4 4a 9d 3c 88 e4 7a 3d 71 7f 4b 3d d3 92 2a bd
       0.01920066 0.0612531 0.049682084 -0.04164393
000280 0b d0 d9 bc 77 2c 6c 3d e8 11 18 3d 87 fd 7a bd
       -0.02658846 0.057659592 0.03712645 -0.06127694
000290 98 74 06 3d f7 eb 18 3d 2e 51 83 bd d2 e2 b5 3d
       0.032826036 0.03733441 -0.06411968 0.08881153
0002a0 ab 24 53 bd 35 c2 92 bd c6 b3 62 bd e1 c5 54 bd
       -0.05154864 -0.07165948 -0.055347227 -0.051946525
0002b0 38 c2 62 3d 89 d5 25 bd 0a 25 0e bd 2b 9d 90 bd
       0.055361003 -0.040486846 -0.034703292 -0.070612274
0002c0 33 57 9d 3c 64 ca 45 bd 84 0f 55 3d 2d ae 1e 3d
       0.019206619 -0.048288718 0.05201675 0.038740326
0002d0 24 d3 1a bd b5 07 7f 3c bd f8 7f 3d 7f 60 40 bd
       -0.037799016 0.015565802 0.062493075 -0.046967026
0002e0 6d ac 3b 3a 54 6f 79 3d ec a0 41 3d e5 fe c1 bc
       0.00071591773 0.060897186 0.047272608 -0.023681113
0002f0 96 73 9c bd 20 3e 50 bd ae 3c 3f bd d7 a6 69 3c
       -0.07639234 -0.050840497 -0.046688728 0.014260969
000300 82 3f 1b 3d fb 6c 6f bd 4b d3 93 bd 89 7a 3b 3d
       0.037902363 -0.05845354 -0.07218035 0.045771156
000310 c1 db 5b bd a8 9c 02 3d 15 cf 84 3d d9 b9 95 bd
       -0.05367637 0.03188768 0.0648481 -0.07310838
000320 81 2a 87 3d ae 11 39 3d a1 cd e5 3c 4d 05 8c bd
       0.06599904 0.045182876 0.028052153 -0.068369485
000330 a0 47 51 bd 11 8e 21 bd e1 ba 42 3d ee 82 78 3c
       -0.051093698 -0.039442126 0.047541503 0.015167935
000340 7f 01 42 bd 61 bb 2e 3d ab cd 7d 3d 0e 4d 66 bd
       -0.047364708 0.042659167 0.06196372 -0.05622583
000350 fb ff 2c bd 26 91 3c bc 5b a2 94 3d 9e 43 32 3d
       -0.04223631 -0.011509215 0.07257529 0.043521516
000360 69 59 5c bd 25 ed 0d bd 4f 08 a6 39 ef b0 52 bd
       -0.053796206 -0.034649987 0.00031668178 -0.05143827
000370 1a d5 c0 3c 26 7e e0 bc b7 09 5e bd 37 b0 97 bd
       0.023539115 -0.027403902 -0.054208484 -0.07406657
000380 b1 0e 2f bd b7 82 37 3d ca 3b f0 bc ef f0 71 3d
       -0.04273862 0.044802394 -0.029325385 0.059067663
000390 a1 6e 5e 3d 84 55 0d bd 5e 6c 0d bc 45 9e 63 bd
       0.054304723 -0.034505382 -0.008631794 -0.05557086
0003a0 81 42 e7 bc 1d 1e 56 bd b0 e1 8b 3b 66 da 1e bd
       -0.028229954 -0.052274812 0.0042688474 -0.0387825
0003b0 d6 48 85 bd a5 38 be ba 24 02 56 3d d2 77 cd bd
       -0.06508033 -0.0014512731 0.052248135 -0.100326195
0003c0 ab 61 54 3d 5d 63 36 3d 37 eb 4a bd 0a 21 57 3d
       0.051850956 0.044528354 -0.049540725 0.052521743
0003d0 56 f9 92 bd 32 46 8f bd 3b 4b 81 bd de f6 9f bd
       -0.07176463 -0.069958106 -0.06313177 -0.07810758
0003e0 65 78 35 bd ba e6 84 3d 82 20 3a bd 7a e4 0c bd
       -0.04430427 0.0648932 -0.045441158 -0.03439758
0003f0 88 bb ad bc 63 5b 41 3d fc ba 4f bd cf 63 54 3d
       -0.021207586 0.047206294 -0.05071543 0.051852997

action_model._discrete_distribution.branches.0.bias f4 [3]
000000 b4 b6 f6 bc 7d 37 4d bd 3b 74 5d 3d
       -0.030116417 -0.050101746 0.054065924

action_model._discrete_distribution.branches.1.weight f4 [2, 128]
000000 bd 0d ba 3b 15 4b d9 bb 9f 29 15 3d 5f 92 01 3d
       0.0056779073 -0.006631265 0.036416646 0.03163373
000010 1a 8e 36 bc b6 6e ca bb e5 9c 04 bc af 84 17 bd
       -0.011142278 -0.0061777486 -0.008094047 -0.03699177
000020 35 b4 7d 3b f9 3e 24 3d ca 84 b6 3b 2c 0a 0d 3d
       0.0038712148 0.040099118 0.005570029 0.03443353
000030 24 42 70 bd c6 35 75 3b 66 c3 19 3c 74 24 ce 3c
       -0.058656827 0.0037416085 0.0093849655 0.025163867
000040 b7 44 0b 3c ff a6 13 bd aa eb 9e 3c eb 9f 07 3b
       0.00850027 -0.03604793 0.019399483 0.0020694684
000050 b7 a4 e2 bc 81 9f 93 3a 84 66 c9 bc 58 ec 11 3d
       -0.027666433 0.0011262746 -0.024585016 0.035625786
000060 b9 5a 4a bd 53 2e 0a 3d 18 59 1e bd 05 07 0e bc
       -0.049402926 0.033735584 -0.038659185 -0.008668666
000070 7f e5 46 bb 73 5c c2 bc ed 5d 18 bd fa 17 7c 3c
       -0.0030349193 -0.023725724 -0.03719895 0.015386576
000080 73 eb 37 3c 67 f0 ab bc 06 7a 0d bd de 1e 97 3c
       0.011225569 -0.020988656 -0.0345402 0.018447336
000090 68 e2 63 bd 23 83 6d bd 58 fa 8d 3c 4c 29 0d bc
       -0.05563584 -0.05798639 0.017331287 -0.008615803
0000a0 84 dd 7c 3c 0d 81 38 3d 33 4a cd bc 32 d1 f3 3b
       0.015433673 0.045044947 -0.025059795 0.0074407095
0000b0 c6 41 39 bd fa 7b ae 3a 3c d5 2d bc e0 84 27 3d
       -0.045228742 0.0013312094 -0.010609921 0.040898204
0000c0 cc 92 34 bd 71 22 de 3c 0d fd 5a bc 32 d4 1f bd
       -0.04408531 0.027116032 -0.013365996 -0.039020725
0000d0 1d d1 01 3d 5e 37 43 bd 82 51 41 bd fe 24 d1 3c
       0.031693567 -0.047660224 -0.047196873 0.025530335
0000e0 c2 c5 90 ba 45 91 11 bd 68 33 6f bc 4a 43 be 3c
       -0.0011045265 -0.03553893 -0.014599659 0.023225445
0000f0 88 49 27 3d 64 32 0d 3d ce b4 c8 3a 99 05 91 bd
       0.04084161 0.034471884 0.0015312673 -0.07081146
000100 e8 04 c1 ba 34 a0 7b 39 b6 95 29 3d 4e 79 2f bd
       -0.0014726194 0.00023996906 0.04140254 -0.042840295
000110 0a 2d c1 3b ef 50 f0 bc 36 67 6a bc b2 1a c5 3c
       0.0058952617 -0.029335467 -0.014306834 0.02406058
000120 33 df e9 bc dd ab d8 3b 8f 12 25 bd 0a 48 d8 bb
       -0.028548812 0.0066122846 -0.040300902 -0.0066003846
000130 8b b6 b0 3c 9d cf 05 3d 73 78 28 bd 95 eb 63 bd
       0.021571418 0.0326687 -0.041130494 -0.05564459
000140 2e b6 46 bb c2 4b 82 bd 4e 1e dc bc d6 eb 72 3c
       -0.003032099 -0.06362106 -0.02686992 0.0148267355
000150 31 0d 24 3a ab 9e 83 bc 20 88 8d bc 15 b8 da bb
       0.0006258069 -0.01606687 -0.017276824 -0.0066747763
000160 c9 b3 cb 3c 51 74 4e bd 81 db cd 3c ae e7 53 bc
       0.024866002 -0.050403897 0.025129082 -0.012933655
000170 02 98 79 3c 46 9f b1 3c 63 32 74 ba 1f 9b 94 3b
       0.015233995 0.021682393 -0.00093153695 0.0045350934
000180 3b cc d7 bb ba 92 d8 bc ac b4 67 3c 0a 39 8f bc
       -0.0065856255 -0.026437152 0.014142197 -0.017483253
000190 c7 67 0e 3c dc 3c 1b 3c c9 5b c8 bc 33 bb e4 3c
       0.008691735 0.009474959 -0.02445783 0.027921295
0001a0 ac f4 2e 3b 7b 9b 0c 3d 39 a7 aa bc 42 1d 07 3c
       0.0026696129 0.034327965 -0.020831691 0.008246722
0001b0 4c 0f 40 3c 53 3b fb 3c 57 af 99 3b aa 4a 1c 3b
       0.011722397 0.030667936 0.0046900916 0.0023848214
0001c0 cb ea 8c bd ec af 52 bd 25 13 3a 3d fd 2f 1a 3c
       -0.06880721 -0.051437303 0.045428414 0.009410855
0001d0 11 24 4e 3c 48 2e 44 3c 46 ac c7 3c 94 51 d7 3c
       0.012581841 0.011973925 0.024374139 0.026284017
0001e0 f4 90 09 b9 9d 42 f5 bc 0d 02 da bb 2f 86 17 bd
       -0.00013119337 -0.02993899 -0.0066530765 -0.0369932
0001f0 b5 86 1f bd fe 95 71 bd 31 20 26 3c 7a ff ef bc
       -0.038946826 -0.058980934 0.010139511 -0.029296625
000200 b9 58 0d bb 9b 02 51 ba cd 06 d4 bc ed 3e 02 bd
       -0.0021567775 -0.00079731055 -0.02588215 -0.031798292
000210 c3 fb 27 bb 1b 40 69 bc d1 07 21 ba 00 37 13 3d
       -0.002563224 -0.014236475 -0.00061428273 0.035941124
000220 58 06 de 3a 48 4e 3f bd 25 c3 a6 bc 13 bb 32 bd
       0.0016939146 -0.046705514 -0.020356724 -0.04363544
000230 8e 01 13 3d 66 c8 55 3a 1e 86 98 bc 72 26 1d bd
       0.035890155 0.0008155167 -0.01861864 -0.038366742
000240 12 db b1 bc 42 01 05 3d 64 f6 27 bd fa a2 c4 bc
       -0.021710906 0.032471903 -0.04100646 -0.024003495
000250 fa 80 d6 3c 7e 78 ab bb 07 b4 b3 3b f0 ce 5e bd
       0.026184548 -0.0052328696 0.0054841074 -0.05439657
000260 5f 09 73 3d 02 0d 94 bc f6 be cb 3c d1 25 22 3d
       0.05933511 -0.018072609 0.02487133 0.039586846
000270 57 ac 0e 3c 45 f5 c0 3c 54 76 35 3d e4 dc 88 bb
       0.008708081 0.023554454 0.0443023 -0.004176723
000280 03 cc d8 bc 40 1b d3 3c ef 42 06 3d 59 25 00 bd
       -0.026464468 0.02576983 0.032778677 -0.031285618
000290 f1 0d 66 3d dd 87 2c 3d 3b a6 dc bc 3a 21 bf 3c
       0.05616564 0.042121757 -0.026934734 0.023331273
0002a0 4d 88 ea bc f6 55 e1 bc 66 02 6c 3c c9 66 45 3b
       -0.028629446 -0.02750681 0.014404869 0.003012108
0002b0 2e 52 58 3d 0a 12 2c bb 44 a1 3e 3b 5e e6 34 bd
       0.052812748 -0.002625587 0.002908782 -0.044165008
0002c0 8c 28 5e 3d 87 ee f0 bc 1c 22 e6 3c c9 1a 30 3d
       0.054237887 -0.029410614 0.028092436 0.042994294
0002d0 2c 96 0b bd de 63 45 3d bd 92 03 3d 42 c9 00 bd
       -0.034078762 0.048190944 0.032122362 -0.031441934
0002e0 a7 22 84 3b 49 40 f3 3c b9 fa 83 3b fd 6e af bc
       0.004032451 0.02969374 0.004027691 -0.021415228
0002f0 46 f1 53 bd d8 d8 21 bd be 6f 79 bc 15 74 85 3d
       -0.05174377 -0.03951344 -0.015224395 0.065162815
000300 92 83 be 3b 9c 70 b0 bb d6 e0 de bc 1c d8 33 3d
       0.0058140242 -0.005384518 -0.02720682 0.04390727
000310 53 b7 70 bb 21 f1 1b 3d b8 05 c9 3c 83 44 de bc
       -0.0036730363 0.038071755 0.02453886 -0.027132278
000320 ea 54 b3 3c c4 fc 09 3c c7 75 35 3d 5a 03 b2 bb
       0.021891076 0.00842208 0.044301774 -0.0054325284
000330 fe 18 06 bd d2 3b a0 bc 55 9b 5f 3d 3f 14 4c 3d
       -0.03273868 -0.019559775 0.054591496 0.049823996
000340 5d cb 44 bc c7 d0 3b 3d b8 80 04 3d 1c c8 87 bb
       -0.012011376 0.045853402 0.03234932 -0.004143728
000350 1b 3c ad bc 97 e5 f2 3c b8 15 21 3d 71 26 bc 3c
       -0.021146825 0.029650493 0.039327353 0.022967549
000360 64 b8 63 ba 59 bf 33 3d a1 38 d4 bc ec f5 28 bb
       -0.0008686839 0.043883655 -0.025905909 -0.0025781346
000370 ea 9e 1a 3b d2 ac a4 bc 0a 02 2d bc 52 7d 83 3c
       0.0023593255 -0.020101938 -0.010559568 0.016050968
000380 d5 29 54 3c ad 04 f4 3c 79 d6 d9 bc d8 f8 fd 3c
       0.012949427 0.029787386 -0.026591526 0.031002447
000390 8d d8 13 3c 4d bc cf ba 58 d3 23 3d 55 ce 79 bc
       0.009023798 -0.0015848965 0.039996475 -0.015246947
0003a0 46 26 1e b9 e7 ea 95 bc 0e a2 ff 3c 0d 76 cf bc
       -0.00015082312 -0.018300487 0.031205203 -0.025324846
0003b0 00 d3 c1 bc 36 58 23 bd 1f 25 b8 3c e1 65 ce ba
       -0.023660183 -0.039879046 0.022478638 -0.0015746915
0003c0 41 da 06 3d 56 48 45 3d e0 71 72 bd 0e f0 07 bc
       0.032922987 0.048164688 -0.05919063 -0.00829698
0003d0 24 89 95 bc 36 00 d4 bc 33 0f d6 bc dd a5 0d bd
       -0.01825387 -0.025879007 -0.026130294 -0.034582008
0003e0 c2 21 c3 bc 06 bd d6 3c 84 62 83 bb 9a 21 cf 3c
       -0.023819808 0.02621318 -0.0040095467 0.025284577
0003f0 e4 8e 28 3d dc 6d 4e 3d de 36 b0 bc 23 fd 21 3d
       0.041151896 0.05039774 -0.021510538 0.03954805

action_model._discrete_distribution.branches.1.bias f4 [2]
000000 92 01 c4 3c 90 01 c4 bc
       0.02392653 -0.023926526

onnx::Div_68 f4 [7]
000000 5d 73 d3 3f 0e 66 d0 3f 27 f8 4f 3f 2c 70 93 3d
       1.6519581 1.6281145 0.81238025 0.071991295
000010 04 b3 c6 3e 38 92 a2 40 82 f6 5a 3e
       0.38808453 5.080349 0.21383098
