results/phase1.3/PlayerAgent/PlayerAgent-187643.pt (torch, 455082 bytes, 48 tensors)

discrete_act_size_vector f4 [1, 2]
0	0x40400000	3.0
1	0x40000000	2.0

network_body.observation_encoder.processors.0.normalizer.running_mean f4 [7]
0	0x3fafa3a9	1.372182
1	0xbe32fb3a	-0.17478648
2	0xbf5c1918	-0.8597579
3	0x3916e11b	0.00014388973
4	0x3e30c070	0.17260909
5	0xbd74783b	-0.059684973
6	0x3f75f6c0	0.96079636

network_body.observation_encoder.processors.0.normalizer.running_variance f4 [7]
0	0x493c530c	771376.75
1	0x491fc3c4	654396.25
2	0x4893fe6e	303091.44
3	0x41dff7ff	27.996092
4	0x46d15f07	26799.514
5	0x4a4e1f4e	3.3771075e+06
6	0x46616686	14425.631

network_body.processors.0.normalizer.running_mean f4 [7]
0	0x3fafa3a9	1.372182
1	0xbe32fb3a	-0.17478648
2	0xbf5c1918	-0.8597579
3	0x3916e11b	0.00014388973
4	0x3e30c070	0.17260909
5	0xbd74783b	-0.059684973
6	0x3f75f6c0	0.96079636

network_body.processors.0.normalizer.running_variance f4 [7]
0	0x493c530c	771376.75
1	0x491fc3c4	654396.25
2	0x4893fe6e	303091.44
3	0x41dff7ff	27.996092
4	0x46d15f07	26799.514
5	0x4a4e1f4e	3.3771075e+06
6	0x46616686	14425.631

network_body._body_endoder.seq_layers.0.weight f4 [128, 7]
0	0xbe4377d7	-0.19088684
1	0x3dc5e0af	0.096619956
2	0xbef1fe7d	-0.47264472
3	0xbf00370b	-0.5008399
4	0xbe9c956b	-0.30582747
5	0x3e07216b	0.13196342
6	0xbeb6f00b	-0.35730013
7	0xbebeb9ab	-0.37251028
8	0x3dbd7612	0.09251036
9	0x3e1e3526	0.15449962
10	0xbef0176b	-0.46892866
11	0xbc8c4467	-0.01712246
12	0x3f517dcb	0.8183257
13	0xbeef33b4	-0.46719134
14	0x3f27eded	0.6559742
15	0xbe0d263c	-0.13784117
16	0x3d508068	0.050903708
17	0xbf5b8017	-0.85742325
18	0x3e482750	0.19546247
19	0x3d7a13bd	0.06105398
20	0x3c8bcf19	0.017066525
21	0xbec1b5ad	-0.3783392
22	0x3e39cb9f	0.18144082
23	0x3ed2ccba	0.4117182
24	0xbcba26f2	-0.022723649
25	0x3db57b99	0.08861465
26	0xbf0e1777	-0.55504555
27	0xbb04ef07	-0.0020284073
28	0x3e7ff59d	0.24996038
29	0x3e82ef5e	0.25573248
30	0x3edccd13	0.4312521
31	0xbec33874	-0.38129008
32	0xbeb41c34	-0.35177767
33	0x3cbfe969	0.023426728
34	0x3e32402b	0.1740729
35	0xbe564c26	-0.20927486
36	0x3eeb1a79	0.45918635
37	0xbeddf3bb	-0.43350014
38	0xbdbc7195	-0.092013516
39	0xbeb1a98f	-0.34699675
40	0x3d4cc5e6	0.04999342
41	0x3d81fd23	0.0634711
42	0x3e5ac1a9	0.21362938
43	0xbe9c83d0	-0.30569315
44	0xbeb0e1f4	-0.3454739
45	0xbd1a0f94	-0.037612513
46	0x3ea2d329	0.31801727
47	0x3f82365e	1.0172842
48	0xbbaa6417	-0.00519992
49	0xbe7fa142	-0.24963859
50	0x3f9674cc	1.1754394
51	0xbe3305ec	-0.17482728
52	0x3e315ab9	0.17319764
53	0xbeeef92a	-0.46674472
54	0xbe90781a	-0.2821663
55	0xbb612202	-0.0034352546
56	0x3e19f754	0.15035754
57	0xbf597cc8	-0.84956026
58	0x3f2f74ee	0.68537796
59	0xbf87e4e8	-1.0616732
60	0xbec10495	-0.37698808
61	0xbebaff6b	-0.36522993
62	0x3dc62af3	0.09676161
63	0xbee300d2	-0.44336563
64	0xbea48885	-0.32135406
65	0xbc8d7edc	-0.017272405
66	0xbdb5cf60	-0.08877444
67	0x3dbc8ee3	0.09206941
68	0x3ee40719	0.44536665
69	0x3f0a57aa	0.54040015
70	0xbe205428	-0.15657103
71	0x3f12ace6	0.5729507
72	0xbeeade8b	-0.45872912
73	0xbf2605a0	-0.64852333
74	0xbe422a1e	-0.18961379
75	0xbd4e8bd6	-0.050426327
76	0x3f086bbf	0.5328941
77	0x3f0a9eb6	0.54148424
78	0xbf1fa513	-0.6236126
79	0x3ede0585	0.43363586
80	0x3eae2abb	0.34016976
81	0x3f0146d1	0.5049868
82	0x3f05931d	0.521776
83	0xbf0c0806	-0.5469974
84	0x3d1efd2a	0.038815655
85	0x3e241d7b	0.16026871
86	0x3c9b7325	0.018975804
87	0xbc6e5ab7	-0.014547995
88	0x3e1e5ef4	0.15465909
89	0xbf36c4ad	-0.71393853
90	0x3ea20ede	0.31651968
91	0x3e4d61ca	0.20056835
92	0xbe81c137	-0.25342724
93	0xbe6c85d8	-0.23097932
94	0xbe26d44f	-0.16291927
95	0x3f524e36	0.8215059
96	0xbf05ef78	-0.52318525
97	0xbe4538c9	-0.19259943
98	0xbe44b2c3	-0.19208817
99	0x3d9a98df	0.07548689
100	0xbd4fc064	-0.050720587
101	0x3f2ee51e	0.68318355
102	0xbe81e595	-0.2537047
103	0x3dc7d0e1	0.09756637
104	0xbf2ea992	-0.68227494
105	0xbec4c04b	-0.38427958
106	0x3e940149	0.2890723
107	0x3eb78877	0.35846302
108	0x3e9053f8	0.28189063
109	0xbe375055	-0.17901738
110	0x3f1639a6	0.58681715
111	0x3dd640bf	0.10461568
112	0xbf5bb056	-0.8581594
113	0xbe03c5a3	-0.12868361
114	0x3eb37b87	0.3505518
115	0x3f1baf5c	0.6081445
116	0xbee12e0f	-0.43980452
117	0x3da77a4c	0.08177623
118	0x3eb2a3e9	0.3489068
119	0xbed021f0	-0.40650892
120	0xbeace498	-0.33768153
121	0x3ca0cb3c	0.01962816
122	0x3e40b9f5	0.18820937
123	0xbef26a98	-0.4734695
124	0x3f1172a9	0.5681558
125	0x3f3c3bfc	0.7352903
126	0xbf08805a	-0.5332085
127	0xbe2fc164	-0.17163616
128	0x3d680675	0.056646783
129	0x3e60f9a3	0.21970229
130	0x3efb25ce	0.4905228
131	0x3cf67281	0.030083897
132	0xbe89d677	-0.26921436
133	0xbea8d1f7	-0.3297269
134	0x3ed8fad4	0.42378867
135	0x3ee87719	0.45403364
136	0xbe7938c6	-0.24338064
137	0xbdc0d073	-0.094147585
138	0xbe8b14ac	-0.2716421
139	0x3f1065ba	0.5640522
140	0xbdb34d3f	-0.08754968
141	0xbe8da81b	-0.27667317
142	0xbcf4768d	-0.029841686
143	0x3eb27adb	0.34859356
144	0xbecd4275	-0.40089765
145	0x3ea66f0a	0.3250659
146	0x3dbe6cc9	0.09298093
147	0x3d98ae8f	0.074551694
148	0x3efe0b27	0.49617884
149	0xbe4b5d7a	-0.19859877
150	0xbe1205e7	-0.14260064
151	0xbf4e231e	-0.80522335
152	0xbb8ece7c	-0.004358111
153	0x3f26f9f4	0.6522515
154	0x3eca644c	0.39529645
155	0x3e638b31	0.22221066
156	0x3f4744de	0.7783946
157	0x3e28bad0	0.16477513
158	0xbc655950	-0.013998345
159	0xbeaa4319	-0.33254316
160	0xbd82be48	-0.063839495
161	0xbea86067	-0.3288605
162	0x3da36cd3	0.07979741
163	0x3eb1a866	0.3469879
164	0xbed9106b	-0.42395338
165	0xbea37796	-0.31927174
166	0x3ab3de66	0.0013722896
167	0x3d130b1e	0.035899274
168	0x3e5e345c	0.21699661
169	0xbe66c228	-0.22535002
170	0xbf3fda4c	-0.7494247
171	0xbe7f8f42	-0.24956992
172	0xbf25730e	-0.64628685
173	0x3f3ee2b1	0.74564654
174	0x3f590329	0.84770447
175	0x3d7b6d8a	0.06138376
176	0xbcd76742	-0.026294354
177	0xbf311df3	-0.69186324
178	0xbdceda0e	-0.101001844
179	0x3eb80f54	0.35949194
180	0x3f0afbfb	0.5429074
181	0xbebaa8bb	-0.36456856
182	0xbee4d388	-0.44692636
183	0x3ea6ab6e	0.32552665
184	0xbf3c9855	-0.7366994
185	0xbe30e651	-0.17275359
186	0xbe2f366a	-0.17110601
187	0xbf0ab26a	-0.5417849
188	0x3e3434e5	0.17598303
189	0xbe90a5a1	-0.28251365
190	0x3e8d30f2	0.27576405
191	0x3ecc5604	0.39909375
192	0xbb4e6ca0	-0.003149785
193	0xbe32b4d6	-0.17451796
194	0x3e415b51	0.1888249
195	0xbe48efd8	-0.19622743
196	0x3e8256d5	0.25456873
197	0xbf42a6fa	-0.76036036
198	0x3ed1f643	0.41008195
199	0xbf24b762	-0.6434232
200	0x3e02efa7	0.12786733
201	0x3e95baad	0.29243985
202	0x3ab67e4a	0.0013923135
203	0x3f2c2408	0.6724248
204	0x3e392aa6	0.18082675
205	0xbe461636	-0.1934441
206	0xbdaed93c	-0.08537528
207	0x3eda9274	0.4268986
208	0xbd9e840b	-0.07740029
209	0x3e2719ee	0.16318485
210	0xbf3fe60b	-0.7496039
211	0x3e6e4d6b	0.2327172
212	0xbed71d57	-0.42014572
213	0xbe140fa0	-0.14459085
214	0x3e283f73	0.16430454
215	0x3f2fb2e3	0.68632334
216	0x3e2ad578	0.16682994
217	0x3e169a2f	0.14707254
218	0xbf1afea5	-0.60544807
219	0x3e8fc071	0.2807651
220	0xbe545121	-0.20734073
221	0x3da2b6e0	0.07945037
222	0x3e8b511e	0.27210325
223	0xbe956228	-0.2917645
224	0xbd243576	-0.040090047
225	0xbd86983a	-0.06572004
226	0x3e127336	0.14301762
227	0xbe511ec0	-0.20421886
228	0x3e3c118d	0.1836607
229	0xbdce43f9	-0.100715585
230	0x3ebd795a	0.37006646
231	0x3e1cd992	0.15317371
232	0x3e7c2ef4	0.24627286
233	0x3ea45d03	0.32102212
234	0x3efef171	0.4979358
235	0xbc0e6823	-0.00869182
236	0x3e166399	0.14686431
237	0x3e3937c9	0.18087687
238	0x3e3dbf63	0.1853004
239	0x3e851540	0.25992775
240	0xbe92ee4e	-0.28697437
241	0xbe778a82	-0.2417393
242	0x3f1d2913	0.613908
243	0xbd97e2fb	-0.0741634
244	0xbebb6535	-0.36600652
245	0x3f21da4a	0.6322371
246	0xbe7efd14	-0.24901229
247	0xbd1fa931	-0.038979713
248	0xbd8244c2	-0.06360771
249	0x3c9c2ec0	0.01906526
250	0x3bf12b5b	0.0073599047
251	0x3da13d8d	0.07873068
252	0x3e5c012c	0.21484822
253	0xbe2668b0	-0.16250873
254	0x3da87c26	0.082268044
255	0xbedb048c	-0.42776906

network_body._body_endoder.seq_layers.0.bias f4 [128]
0	0x3d4a793e	0.04943203
1	0x3d4f58fc	0.05062197
2	0xbd5032df	-0.050829764
3	0x3cc82373	0.024430966
4	0x3d91b648	0.071148455
5	0x3d5b3442	0.053516634
6	0x3d59efbf	0.053207155
7	0x3d3de5dc	0.04636179
8	0x3dafdfe8	0.085876286
9	0xbd8c9415	-0.06864182
10	0x3d08f35e	0.033435218
11	0x3d1a2452	0.037632294
12	0x3d74dcd0	0.059780896
13	0xbd3c9089	-0.046036277
14	0x3ba59ab9	0.005053845
15	0x3d6fc685	0.058538932
16	0x3d405f15	0.046965677
17	0xbd32feb2	-0.043699928
18	0xbcb3c6d8	-0.021945402
19	0x3d4f5a51	0.05062324
20	0x3ad2b358	0.0016075177
21	0x3d83bf31	0.06432951
22	0x3d8e3d46	0.06945281
23	0xbce6bee9	-0.028167205
24	0x3d26ffe0	0.040771365
25	0x3cebd49a	0.0287879
26	0x3c8a2e3c	0.01686775
27	0x3d5e67f4	0.054298356
28	0xbc96d058	-0.018409893
29	0x3d819281	0.063267715
30	0x3d2d8caa	0.042370476
31	0xbbd8a1d6	-0.006611089
32	0x3d77dca2	0.060513146
33	0x3d8c8be4	0.068626195
34	0x3d0180bf	0.031616922
35	0xbd0d4475	-0.034489114
36	0xbd1ac755	-0.037787754
37	0x3d61a553	0.055089306
38	0x3c4a4e62	0.0123477895
39	0x3d3a7327	0.045519974
40	0x3d3a9bcf	0.045558747
41	0x3c48f4fe	0.012265442
42	0xbd30e704	-0.043189064
43	0x3d7a209d	0.06106626
44	0xbd09a929	-0.03360859
45	0x3cb35cb8	0.021894798
46	0x3d4d9802	0.050193794
47	0x3da5cf08	0.08096129
48	0x3d824fe0	0.06362891
49	0x3d43395c	0.047662124
50	0xbd648c80	-0.055798054
51	0xbcc6d2ff	-0.024270533
52	0x3d8e1f68	0.06939584
53	0x3d3cae87	0.04606488
54	0x3d41e8b4	0.047341064
55	0xbd913d8b	-0.070918165
56	0x3cdbe6bb	0.02684342
57	0x3da4b1d9	0.08041734
58	0x3d87b80e	0.066269025
59	0x3ca9cd19	0.020727681
60	0x3cd0792a	0.0254484
61	0x3d8d9f5c	0.06915161
62	0x3d7c4222	0.061586507
63	0xbc362385	-0.011116867
64	0x3d892533	0.06696548
65	0x3d636204	0.055513397
66	0xbd2195a2	-0.03944934
67	0xbd78c511	-0.060734812
68	0x3cbe219c	0.023209386
69	0xbd8e329e	-0.06943248
70	0xbd36b329	-0.044604454
71	0x3d793cdd	0.06084906
72	0x3d5c58a8	0.053795487
73	0x3d14f432	0.036365695
74	0x3d30fb52	0.043208428
75	0x3d5cd3b1	0.053912822
76	0x3d8c5afa	0.0685329
77	0x3d8559b8	0.06511253
78	0x3d3e8c5c	0.046520576
79	0x3d03da94	0.032190874
80	0x3d83371d	0.064069964
81	0xbbe723a8	-0.007053811
82	0x3d625e3f	0.05526566
83	0x3d717c70	0.058956563
84	0x3d2b35b5	0.041799266
85	0xbd570cc1	-0.052502397
86	0xbd595de7	-0.053068068
87	0x3d4319d9	0.047632072
88	0x3d21aa6c	0.039469168
89	0x3d7c0765	0.06153049
90	0x3d8da8d5	0.06916968
91	0x3cf3e0be	0.029770251
92	0xbcb5eb56	-0.022206943
93	0xbd2a234a	-0.04153756
94	0x3cb597a3	0.022167033
95	0x3d7b5916	0.061364256
96	0x3d577640	0.052603006
97	0x3d269205	0.0406666
98	0x3af1eac6	0.0018456809
99	0xba815a62	-0.0009868855
100	0x3d8d712a	0.0690635
101	0x3d535632	0.051595874
102	0xbd286336	-0.04111024
103	0x3d0ca945	0.034341116
104	0x3d80c66d	0.06287847
105	0x3cb3757a	0.021906603
106	0x3d904400	0.0704422
107	0xbd476df7	-0.048688855
108	0x3d94dd88	0.07268816
109	0xbd86066c	-0.065441936
110	0x3cf799e7	0.030224754
111	0xbd6d3d4c	-0.057919785
112	0x3d968d42	0.073511615
113	0x3d76cbe6	0.060253046
114	0x3d269b72	0.040675588
115	0x3d6c738d	0.057727385
116	0xbc134adb	-0.008990015
117	0x3da57c6a	0.08080371
118	0x3d35560c	0.044271514
119	0x3d257b20	0.040400624
120	0xbce939c3	-0.028469926
121	0xbcf1e784	-0.02952934
122	0x3d3983da	0.04529176
123	0x3c22e804	0.009943012
124	0xbce4e578	-0.02794145
125	0x3d398a53	0.045297932
126	0x3d477b05	0.048701305
127	0x3d32e9f0	0.04368013

network_body._body_endoder.seq_layers.2.weight f4 [128, 128]
0	0x3d1d7d1d	0.038449395
1	0xbe32c69b	-0.17458574
2	0xbcb6dcd6	-0.0223221
3	0xbc8de3f9	-0.01732062
4	0x3e0139a2	0.12619641
5	0x3db32761	0.08747745
6	0x3e572e6c	0.21013802
7	0x3e00ac02	0.12565616
8	0xbd199340	-0.037493944
9	0xbd99e02b	-0.0751346
10	0xbd37317a	-0.04472492
11	0x3dff2355	0.12457911
12	0xbd3fd0fc	-0.046830162
13	0xbdb892ca	-0.09012373
14	0xbd38b21d	-0.045091737
15	0x3d9a5634	0.07535973
16	0x3e4752e3	0.19465213
17	0x3e520488	0.20509541
18	0x3d2b0c3d	0.04175972
19	0x3bb53411	0.0055298884
20	0x3d982919	0.07429714
21	0x3c89ba50	0.016812474
22	0x3e6e95be	0.2329931
23	0xbe3e613a	-0.18591776
24	0x3e307137	0.17230688
25	0xbd774e44	-0.060377374
26	0xbe503d75	-0.20335944
27	0x3d819de9	0.06328947
28	0xbe893d22	-0.26804453
29	0x3d1e0936	0.038583003
30	0x3d5a7934	0.053338245
31	0x3e0c2a26	0.13687953
32	0x3dd6ab61	0.10481907
33	0xbdc43374	-0.095801264
34	0x3e14c2d3	0.14527445
35	0xbdabdd14	-0.08391777
36	0x3cb1a3a7	0.02168448
37	0x3d01f8fb	0.031731587
38	0xbd731b85	-0.059352417
39	0x3cabc178	0.020966277
40	0x3da09d7b	0.07842537
41	0x3c55a238	0.013039164
42	0xbde88dba	-0.11355157
43	0xbcef4dd1	-0.02921191
44	0xbd701238	-0.058611125
45	0xbe027088	-0.1273824
46	0x3d115c33	0.03548832
47	0xbdf92bf8	-0.121665895
48	0x3d36eccf	0.044659432
49	0xbc0bac49	-0.008524963
50	0xbdd1af8e	-0.102385625
51	0x3caccbd9	0.021093296
52	0x3ca5698b	0.020191928
53	0x3d4518ad	0.048119236
54	0x3db96ef7	0.09054368
55	0xbe0fdc74	-0.1404894
56	0x3d9391de	0.07205556
57	0x3cffd0ed	0.031227553
58	0x3e053223	0.13007407
59	0x3e17fde6	0.14842948
60	0x3d65cdfb	0.05610464
61	0x3da30540	0.07959986
62	0x3d51c280	0.05121088
63	0x3e02304b	0.12713735
64	0xbd59ea55	-0.053201992
65	0xbc1ae78e	-0.009454621
66	0xbd29d70e	-0.041464858
67	0xbe123f2a	-0.14281908
68	0x3d4e1aac	0.050318405
69	0xbdb9f4ec	-0.09079918
70	0xbd32d4b7	-0.043659892
71	0xbd13d126	-0.03608813
72	0x3ddc869c	0.10767862
73	0x3d14ecf1	0.036358777
74	0xbd95b690	-0.07310212
75	0x3b7892f9	0.00379294
76	0x3e637984	0.22214323
77	0x3d64ce45	0.055860776
78	0x3c6b1a55	0.01434954
79	0xbd3645ca	-0.04450015
80	0x3e1c9661	0.1529174
81	0x3cb9bb6a	0.022672374
82	0xbd9db48e	-0.07700454
83	0xbd39e6ec	-0.04538624
84	0xbd082c6f	-0.0332455
85	0xbc34c895	-0.011034151
86	0xbd4797af	-0.04872864
87	0x3b5c11ee	0.0033580023
88	0x3d607be2	0.054805644
89	0x3c848887	0.016178383
90	0x3e270397	0.16309963
91	0xbd227bfb	-0.03966902
92	0xbddf70e4	-0.10910204
93	0xbe09e343	-0.134656
94	0xbd14fe57	-0.03637537
95	0x3e1bd383	0.15217404
96	0xbcffb13f	-0.031212447
97	0xbdebd51a	-0.11515255
98	0x3e0360a3	0.12829833
99	0xbde4716a	-0.111544445
100	0x3c878b0f	0.0165458
101	0x3b0efab3	0.002181691
102	0xbe73822f	-0.2378013
103	0xbcf64e11	-0.030066522
104	0xbc798224	-0.015228782
105	0x3d7a7ddd	0.06115519
106	0x3d068eaf	0.032850917
107	0xbdc80098	-0.09765738
108	0x3e203f72	0.15649202
109	0xbb45537d	-0.0030109577
110	0xbe2169aa	-0.15762964
111	0xbca73cfa	-0.020414818
112	0x3d8ad5ca	0.06779058
113	0x3d2dffa8	0.04248014
114	0x3d9a09b3	0.07521381
115	0x3d4b6eaf	0.049666103
116	0x3ca77291	0.020440372
117	0x3dc05884	0.09391883
118	0xbdaefaee	-0.08543955
119	0x3d8f822b	0.070072494
120	0xbd9e1961	-0.077196844
121	0x3e0863c4	0.13319308
122	0x3d1b556a	0.037923254
123	0x3e1f3a04	0.15549475
124	0xbd651598	-0.055928797
125	0xbdd16e9e	-0.10226177
126	0x3e397984	0.18112761
127	0x3dd7c137	0.105349
128	0x3e37fb0f	0.17966865
129	0x3d838571	0.06421936
130	0x3d88f257	0.06686848
131	0x3d67b85a	0.056572296
132	0xbb6fadd1	-0.0036572109
133	0xbdbdbba1	-0.09264303
134	0x3dbfcfba	0.093657926
135	0xbd0315f7	-0.03200337
136	0xbcbc9032	-0.023017976
137	0x3e227af0	0.1586721
138	0xbb81b006	-0.003957751
139	0x3d697b8d	0.057002593
140	0x3d547936	0.05187341
141	0x3d2b6fc8	0.04185465
142	0x3d171875	0.03688856
143	0x3dd7227e	0.10504626
144	0x3be5e1bf	0.0070154364
145	0x3e15cffd	0.14630122
146	0x3c606087	0.013694889
147	0x3dee7ed9	0.11645288
148	0x3d983fd3	0.074340485
149	0x3d9dd56c	0.077067226
150	0x3daaa3a6	0.08331995
151	0x3d2fca52	0.042917557
152	0x3e09e6c8	0.13466942
153	0x3ca556b0	0.020182937
154	0x3cb2b62a	0.021815378
155	0x3d71d824	0.05904402
156	0xbd6e7880	-0.058220387
157	0xbdac55e0	-0.08414817
158	0xbe3007a9	-0.17190422
159	0xbc4ab15e	-0.012371389
160	0x3d16d0f7	0.03682038
161	0x3d30549b	0.043049436
162	0x3d186e64	0.03721465
163	0x3b7da465	0.0038702723
164	0x3daf1cd8	0.085504234
165	0x3d8d8d33	0.06911697
166	0x3d8e5058	0.06948918
167	0xbd1666a8	-0.036718994
168	0x3d80d008	0.06289679
169	0xbc43a2ca	-0.011940667
170	0x3e0e73af	0.13911317
171	0x3cddc82c	0.027072988
172	0x3d4fd1db	0.050737243
173	0x3ce41f62	0.027846996
174	0xbd5b0be0	-0.05347812
175	0xbca764fa	-0.020433892
176	0x3e127fe5	0.143066
177	0xbe22536b	-0.15852134
178	0x3d8351b3	0.06412067
179	0x3d70041e	0.058597676
180	0x3e2ac3b6	0.1667622
181	0xbcb8c1f3	-0.02255342
182	0x3e012bc7	0.12614356
183	0x3d9f7e9d	0.077878214
184	0x3adb45e5	0.0016729204
185	0x3e12dcde	0.14342067
186	0xb9e18257	-0.00043012455
187	0x3c009b41	0.007849515
188	0x3c9eba92	0.019376073
189	0xbdb98577	-0.090586595
190	0x3d75cb38	0.060008258
191	0xbd7cd243	-0.06172396
192	0xbdb46bf6	-0.088096544
193	0x3e7b6ba6	0.24552783
194	0xbd9693e2	-0.07352425
195	0x3d901319	0.070348926
196	0x3d91207f	0.07086276
197	0xbd890d95	-0.06692044
198	0xbccfbcf1	-0.025358649
199	0x3d5015d3	0.050802063
200	0xbc7003f5	-0.014649381
201	0xbe02ec3a	-0.12785426
202	0xbdcd2057	-0.10015934
203	0xbcb0d0d1	-0.021583946
204	0x3c4df306	0.012570148
205	0x3d1c7633	0.03819866
206	0xbda23159	-0.079195686
207	0x3d4f3bec	0.050594255
208	0x3ceed450	0.029153973
209	0x3b14579c	0.0022635227
210	0xbbde1a1b	-0.0067780144
211	0xbcc72689	-0.024310367
212	0xbcb61fc3	-0.022231942
213	0xbd44d74b	-0.048056882
214	0xbe453dc3	-0.19261841
215	0x3c069f3b	0.008216674
216	0xbcb54af9	-0.022130476
217	0x3dd71064	0.10501173
218	0x3e4488f9	0.19192876
219	0xbd7cba9c	-0.061701402
220	0xbc20df23	-0.009818825
221	0xbd83fc4a	-0.06444605
222	0xbb1a0512	-0.0023501557
223	0xbd7cb98b	-0.061700385
224	0x3d2aeb93	0.041728567
225	0x3d9be34c	0.07611713
226	0xbdea98ed	-0.114549495
227	0xbcfe10e3	-0.031013912
228	0xbd9d426f	-0.07678687
229	0x3cce56b4	0.025187828
230	0xbdccf7c9	-0.10008199
231	0xbdd0062f	-0.101574294
232	0x3dc0dc3a	0.09417005
233	0x3d24c688	0.040228397
234	0xbcbae89e	-0.022815999
235	0xbd042427	-0.03226104
236	0x3c63957b	0.013890619
237	0xbbe4c17d	-0.0069810734
238	0xbdb1c5ec	-0.08680329
239	0x3d7733ca	0.060352124
240	0x3d1367ff	0.03598785
241	0x3e039349	0.12849154
242	0xbdb3c9ac	-0.087787
243	0xbd5015ef	-0.050802168
244	0xbd599be3	-0.05312718
245	0xbd7df30a	-0.06199936
246	0x3a923017	0.0011153248
247	0x3c9cb8e7	0.019131137
248	0x3d19ec20	0.037578702
249	0x3dbb8fc7	0.09158283
250	0xbd85eefd	-0.06539724
251	0xbd229f84	-0.039702907
252	0xbc8b65c0	-0.017016292
253	0x3bcf7e4e	0.0063321954
254	0x3ca56ab2	0.020192478
255	0xbd1fac5c	-0.038982734

network_body._body_endoder.seq_layers.2.bias f4 [128]
0	0x3d4f1659	0.05055842
1	0x3d3fabc7	0.04679468
2	0x3d31d0c9	0.043412004
3	0x3d79e750	0.061011612
4	0x3d540acd	0.051768113
5	0x3d6b9e34	0.05752392
6	0x3cb30966	0.021855067
7	0xbd671578	-0.05641696
8	0x3d26611f	0.040619966
9	0x3d7deb23	0.061991822
10	0x3d6b98e0	0.05751884
11	0x3d905442	0.07047321
12	0xbd39d424	-0.04536833
13	0x3d505e4e	0.050871186
14	0x3d2f5d53	0.04281361
15	0x3d8af57b	0.06785103
16	0x3d59850c	0.0531054
17	0xbc1b02f8	-0.009461157
18	0x3d1c0781	0.038093094
19	0x3d31a9b3	0.04337473
20	0xbd68091b	-0.05664931
21	0x3d696285	0.05697872
22	0xbd54d787	-0.051963355
23	0x3d85c77d	0.0653219
24	0x3c0128cf	0.007883265
25	0x3d446ee2	0.04795731
26	0xbd3f2a07	-0.04667094
27	0xbd0d4588	-0.03449014
28	0x3ca2eb7d	0.01988768
29	0xbd3c57e2	-0.04598225
30	0xbd1f4ce7	-0.0388917
31	0x3d55a920	0.052163243
32	0x3cf3dc2d	0.029768074
33	0xbd63e80c	-0.05564122
34	0xbd6368da	-0.055519916
35	0x3d802cf9	0.06258578
36	0xbd191c23	-0.03738035
37	0xbd727d84	-0.059201732
38	0x3d64efc7	0.055892732
39	0xbd3ab39f	-0.045581456
40	0x3d566767	0.052344706
41	0x3d9b850d	0.07593737
42	0x3d328efd	0.043593396
43	0x3d3425d7	0.0439814
44	0xbd1deded	-0.03855698
45	0x3d460b42	0.04835058
46	0x3d09caea	0.03364078
47	0x3d95f247	0.07321601
48	0xbd860719	-0.065443225
49	0x3d708b07	0.058726337
50	0xbd005e1e	-0.031339757
51	0xbd44f82a	-0.04808823
52	0xbaa1ecbf	-0.0012353881
53	0xbd4d5595	-0.050130446
54	0xbd42ef9b	-0.047591787
55	0x3d033008	0.032028228
56	0xbd1b988a	-0.03798727
57	0xbd39f3df	-0.04539859
58	0xbd1101b7	-0.035402026
59	0x3cf88075	0.03033469
60	0x3d8c19be	0.068408474
61	0x3cfdd389	0.030984657
62	0x3d212eb2	0.039351173
63	0xbcf80ece	-0.030280497
64	0xbd3710a3	-0.0446936
65	0x3d5f22ac	0.054476425
66	0x3d7ece99	0.062208746
67	0xbd597830	-0.053093135
68	0x3d45dd17	0.04830655
69	0xbd0b6c70	-0.03403896
70	0xbd638d5f	-0.055554744
71	0x3d8ec640	0.06971407
72	0xbd4985ff	-0.049200054
73	0xbd02b16f	-0.031907495
74	0xbd0a8034	-0.03381367
75	0x3d67025c	0.056398734
76	0x3d6dec4c	0.05808668
77	0x3cd69da0	0.026198208
78	0xbd3a9c17	-0.045559015
79	0xbcdb0dcc	-0.026739977
80	0x3d470513	0.048588824
81	0xbd61eab7	-0.055155482
82	0xbd3db529	-0.046315346
83	0x3d4b0ce4	0.04957284
84	0x3cce9d0f	0.025221376
85	0xbc89e74f	-0.01683393
86	0xbd4b7b4a	-0.049678124
87	0xbd56a67f	-0.052404877
88	0x3d111798	0.03542289
89	0x3c90c565	0.01767225
90	0x3d03c489	0.032169852
91	0xbcb6a23f	-0.022294162
92	0xbcf27ab4	-0.029599525
93	0x3d3d1f70	0.04617256
94	0x3d4beed6	0.04978832
95	0x3ce26302	0.027635101
96	0x3d42de06	0.04757502
97	0xbd5ad6ee	-0.05342763
98	0x3d11ada9	0.035566006
99	0xbd644050	-0.055725396
100	0xbd364950	-0.04450351
101	0x3d5126b5	0.051062305
102	0x3cbd2de8	0.023093179
103	0x3d79331f	0.06083977
104	0x3cbb168b	0.022837898
105	0x3d7d85d7	0.061895218
106	0x3c75f483	0.015011909
107	0x3d512be5	0.05106725
108	0x3d5a327b	0.0532708
109	0xbd3da375	-0.046298463
110	0xbd4d6579	-0.0501456
111	0x3d71809c	0.058960542
112	0xbd539dae	-0.051664047
113	0xbd359604	-0.04433252
114	0x3d7e6a2a	0.062112965
115	0xbc1b2586	-0.0094693955
116	0x3d718079	0.05896041
117	0x3d704a5e	0.058664672
118	0x3d93484a	0.071915224
119	0x3d61e657	0.05515131
120	0x3d38b692	0.045095988
121	0xbd2086f3	-0.039191198
122	0x3d4c1adf	0.049830314
123	0x3d27cb42	0.040965326
124	0x3d349c3c	0.04409431
125	0xbd233e20	-0.03985417
126	0x3d4a22a1	0.04934943
127	0xbd476efa	-0.04868982

action_model._discrete_distribution.branches.0.weight f4 [3, 128]
0	0xbbc554a2	-0.006022052
1	0x38f24d42	0.000115538496
2	0xbbc6639a	-0.006054354
3	0xbb7c2c62	-0.0038478603
4	0xbb92a30a	-0.004475002
5	0xbc3036ca	-0.01075525
6	0xbc437e96	-0.011932036
7	0x3ca375ef	0.019953696
8	0xbd059391	-0.032611433
9	0xbca9dc78	-0.02073501
10	0xbc9be06d	-0.019027913
11	0xbcc1acde	-0.023642
12	0x3cf2ccb9	0.029638635
13	0xbc89329d	-0.016747767
14	0xbc528f3b	-0.012851532
15	0xbba165e8	-0.0049254782
16	0xbc3ae863	-0.011407944
17	0xbc8893c8	-0.01667203
18	0xbca89143	-0.020577079
19	0xbc457cac	-0.01205365
20	0xbaa7c665	-0.0012800215
21	0xbbb1306c	-0.0054073837
22	0x3baef44c	0.005339181
23	0xbc083db4	-0.008315492
24	0x3c3d61c8	0.011558957
25	0x3b45fad9	0.0030209331
26	0x3c5075a7	0.012723363
27	0x3ceb86ba	0.028750766
28	0xbc9e7a6b	-0.019345483
29	0x3aa4d04f	0.0012574288
30	0x3c63f713	0.013913888
31	0xbbce5c82	-0.006297649
32	0xbc512a45	-0.0127664255
33	0x3bb0332e	0.005377195
34	0x3becddcd	0.007228589
35	0x39a3a5dd	0.0003121336
36	0x3d1d8908	0.03846076
37	0x3c82ee5b	0.015982797
38	0xbc7311c8	-0.014835782
39	0xbc15df86	-0.00914753
40	0x3c2c9f4f	0.010536029
41	0xbca60ec1	-0.020270707
42	0xbb9b64e3	-0.0047422512
43	0xbc91a5e4	-0.017779298
44	0x3cc58d33	0.02411518
45	0xbbfa5d99	-0.0076405522
46	0xbca690ee	-0.02033278
47	0xbc9680ec	-0.018372022
48	0x3bae7556	0.005324046
49	0xbbc6e90b	-0.0060702614
50	0x3bcfd6e5	0.006342756
51	0x3bac9804	0.005267145
52	0xbcaa445d	-0.020784551
53	0x3cd75274	0.026284434
54	0x3d17dd8e	0.037076525
55	0xbcde7cca	-0.027159113
56	0x3c00154b	0.007817577
57	0x3c57d6bf	0.013173758
58	0xbbce974a	-0.006304656
59	0xbc8b3650	-0.016993672
60	0xbd2aabd1	-0.041667763
61	0xbb138a32	-0.002251279
62	0xbb797ba3	-0.0038068078
63	0x3be5d76c	0.0070142057
64	0x3c9a9588	0.01887013
65	0x3b5805a4	0.0032962346
66	0xbc870e2c	-0.01648625
67	0x3c4afd6d	0.012389523
68	0xba5ff31e	-0.0008543002
69	0x3bbcc72c	0.005761048
70	0x3c2fc365	0.010727738
71	0xbca7306e	-0.020408835
72	0x3a422ccf	0.00074071897
73	0xbc09e117	-0.008415482
74	0x3cefed8f	0.029288081
75	0xbbe8b54d	-0.007101691
76	0xbbd69af9	-0.006549236
77	0x3a08dabd	0.0005220583
78	0x3cefa9aa	0.029255707
79	0x3ca8ba33	0.0205966
80	0xbc36812d	-0.011139196
81	0x3c9aadec	0.01888176
82	0x3d1d4fd9	0.038406227
83	0xbbf9d971	-0.007624798
84	0xbc8ac6e3	-0.01694054
85	0x3c7354c6	0.0148517545
86	0x3c155345	0.009114091
87	0x3bb9ac33	0.0056662797
88	0x3a839df2	0.0010041578
89	0x3ba6c010	0.0050888136
90	0xbbf305fc	-0.007416485
91	0xbc22d3d8	-0.009938203
92	0x3c39c1fe	0.011337755
93	0x3c0556e5	0.008138393
94	0x3ba03c6a	0.0048900144
95	0xbc070ea3	-0.008243236
96	0x3c341869	0.010992148
97	0x3c369dcc	0.01114602
98	0xbcabde5a	-0.020980049
99	0x3be1d059	0.006891292
100	0x3b42c548	0.002971964
101	0x3c0d155c	0.0086110495
102	0x3a3c30f5	0.0007178926
103	0xbbc1bb96	-0.0059122546
104	0xbc0729cb	-0.00824971
105	0xbc0b0a6e	-0.008486373
106	0xbb4c3ea5	-0.0031165269
107	0xbc178ab8	-0.009249382
108	0xbbd50515	-0.00650085
109	0xbc254e47	-0.010089464
110	0x3c245f39	0.0100324685
111	0xbc01071a	-0.007875228
112	0x3cad1618	0.0211287
113	0x3cf1d174	0.02951882
114	0xbd21e13a	-0.039521433
115	0xbc9d49e5	-0.019200275
116	0xbb97bd01	-0.0046306853
117	0xbc465e07	-0.012107379
118	0xbce7ac7d	-0.028280491
119	0xbca87bcd	-0.020566845
120	0xbc86414e	-0.016388562
121	0x3c84c42c	0.016206823
122	0xbc801eda	-0.015639711
123	0xbbf3153b	-0.0074183024
124	0x3c2bd9f8	0.0104889795
125	0x3c10bf3c	0.008834656
126	0xbd0361f8	-0.032075852
127	0x3c6d36f0	0.01447843
128	0xbd56006c	-0.052246496
129	0xbcf8fc31	-0.030393692
130	0xbc8364ca	-0.01603927
131	0xbd707ba3	-0.05871166
132	0xbd175eae	-0.036955528
133	0xbd2a638f	-0.041598853
134	0xbc39a611	-0.011331097
135	0x3d49ad42	0.049237497
136	0xbd117cf3	-0.03551955
137	0xbd471ce3	-0.048611533
138	0xbd37bce6	-0.044857882
139	0xbd39f049	-0.04539517
140	0x3d40c3b9	0.047061656
141	0xbd3c0b4b	-0.045909207
142	0xbd569f26	-0.05239787
143	0xbd1fa5ce	-0.038976483
144	0xbd214316	-0.03937062
145	0x3b62af3c	0.003458931
146	0xbca3c86b	-0.019993028
147	0xbd074c2a	-0.03303162
148	0x3d67aa83	0.056559097
149	0xbd2f60aa	-0.042816795
150	0x3d17165b	0.036886554
151	0xbd515dfb	-0.051115017
152	0x3c39a444	0.011330668
153	0xbc9165c8	-0.017748728
154	0x3d43e07c	0.047821507
155	0x3cc3c439	0.023897277
156	0x3c52a639	0.012857013
157	0x3d687578	0.056752652
158	0x3d498534	0.049199298
159	0xbd16fdf1	-0.03686327
160	0xbc494c36	-0.0122862365
161	0x3d379a6f	0.044825014
162	0x3d060657	0.03272089
163	0xbd567e8d	-0.052366782
164	0x3d15ed98	0.03660354
165	0x3d2b510c	0.04182534
166	0xbd68f79c	-0.056876764
167	0x3d9bac82	0.07601263
168	0xbd2e3d68	-0.04253903
169	0xbd7588d6	-0.05994495
170	0xbcebf96d	-0.028805459
171	0xbd2d1cea	-0.042263903
172	0x3d62fa92	0.055414744
173	0xbcf28b8b	-0.029607555
174	0xbccca1f6	-0.024979573
175	0xbd7e7466	-0.062122725
176	0x3cfcae91	0.030844958
177	0xbd1d08a7	-0.03833833
178	0x3d22118c	0.039567515
179	0x3d2a93e8	0.04164496
180	0xbcfd5ccf	-0.030928044
181	0x3d01cd69	0.031690035
182	0x3d77c767	0.0604929
183	0xbd09e280	-0.033663273
184	0x3bc57e25	0.0060270005
185	0x3d5b12a4	0.053484574
186	0x3d14c6da	0.036322452
187	0xbc7e93eb	-0.015538196
188	0xbd850fe0	-0.064971685
189	0xbd3a1e30	-0.045438945
190	0xbd2a2572	-0.041539617
191	0x3ce0b632	0.027430627
192	0x3ce93bc9	0.02847089
193	0xbd50f7e8	-0.05101767
194	0xbd884e35	-0.06655542
195	0x3d3ab5bf	0.045583483
196	0xbd44dd36	-0.048062526
197	0x3ca3442c	0.019929968
198	0x3d665e8f	0.05624252
199	0xbd835827	-0.06413298
200	0x3d5eea49	0.05442265
201	0x3d063c51	0.032772366
202	0x3cd92a02	0.026509289
203	0xbd28f5ee	-0.04125016
204	0xbd32d334	-0.04365845
205	0xbd144006	-0.03619387
206	0x3d4e2292	0.050325938
207	0x3cb4a2c6	0.022050273
208	0xbd42e7eb	-0.047584455
209	0x3d491896	0.049095713
210	0x3d77ae15	0.060468752
211	0xbd282ea0	-0.04106009
212	0xbd11d5ce	-0.03560429
213	0xbb84bd9d	-0.004050924
214	0x3d7b3074	0.061325505
215	0x3d1dd54f	0.038533505
216	0xbd31f854	-0.043449715
217	0xbc2abcd8	-0.010421
218	0xbbaaeac6	-0.0052159755
219	0xbd04128c	-0.03224425
220	0x3c86bcff	0.016447542
221	0xbc9a8c1b	-0.018865636
222	0xbd2b33fa	-0.041797616
223	0xbd3b6437	-0.04574987
224	0xbd1c144a	-0.038105287
225	0x3d1de796	0.038550936
226	0xbcb34ce4	-0.02188725
227	0x3d4b266f	0.0495972
228	0x3d26ee2e	0.04075449
229	0xbca18920	-0.019718707
230	0xbc09f193	-0.008419412
231	0xbd3c23ed	-0.0459327
232	0xbcdf64b0	-0.027269691
233	0xbd4050bf	-0.046952005
234	0x3bae8310	0.0053256825
235	0xbce9e3f6	-0.028551083
236	0xbd54a397	-0.051913824
237	0xbadc7d7e	-0.0016822068
238	0x3d225ed1	0.039641205
239	0xbd88a05c	-0.06671211
240	0x3d4a230d	0.049349833
241	0x3d3f2d48	0.046674043
242	0xbd21a959	-0.039468143
243	0x3d2b24a3	0.041782986
244	0xbd6268d1	-0.055275742
245	0xbd61e56f	-0.055150446
246	0xbd590da7	-0.052991536
247	0xbd78608e	-0.060638957
248	0xbd18b30a	-0.03728012
249	0x3d6bbbb2	0.057552047
250	0xbd03335d	-0.032031406
251	0xbcde456e	-0.027132716
252	0xbc2d037a	-0.010559911
253	0x3d37d73f	0.04488301
254	0xbd2b3a6c	-0.041803762
255	0x3d44dedb	0.048064094

action_model._discrete_distribution.branches.0.bias f4 [3]
0	0xbc93620b	-0.017991086
1	0xbd36efdc	-0.04466234
2	0x3d331f9d	0.04373132

action_model._discrete_distribution.branches.1.weight f4 [2, 128]
0	0x3aa1a948	0.0012333775
1	0xbb8b338c	-0.004248088
2	0x3d0ae954	0.033913925
3	0x3c157b6f	0.009123667
4	0xba17e78c	-0.0005794696
5	0xbc0b9247	-0.008518762
6	0xbc96e7e0	-0.018421113
7	0xbb8aa042	-0.00423053
8	0xbb94776e	-0.0045308387
9	0x3d0544ba	0.032536246
10	0x3b10282f	0.0021996608
11	0x3cb1cf27	0.021705223
12	0xbcb3c7f2	-0.021945927
13	0xb9b79d8f	-0.0003502187
14	0x37fe9d70	3.0352472e-05
15	0x3c1c4018	0.0095367655
16	0xbbd21fb7	-0.006412472
17	0xbc45ab91	-0.01206483
18	0xbc7ac1e4	-0.015305016
19	0xbc2bb3fa	-0.0104799215
20	0xbc2c33e6	-0.01051042
21	0x39f7f8ca	0.00047296874
22	0xbbbe0f86	-0.0058001904
23	0x3c6662ab	0.01406161
24	0xbcd23eb7	-0.02566467
25	0x3c55af4d	0.013042283
26	0xbccf0c52	-0.02527443
27	0x3c0ef464	0.008725259
28	0xbbf6013a	-0.0075074704
29	0xbab6d8a3	-0.0013950061
30	0xbb401e2e	-0.0029314863
31	0x3987ae85	0.00025879234
32	0xbc047ab5	-0.008085896
33	0xbbdec6fa	-0.006798622
34	0xbc4787ae	-0.012178345
35	0x3bf50923	0.007477896
36	0xbca367c1	-0.019946935
37	0xbca1c2f7	-0.019746287
38	0xbb557be2	-0.003257506
39	0xbc01b003	-0.0079155
40	0xbb7afe19	-0.0038298427
41	0x3d0dff10	0.034667075
42	0xbc0a26ca	-0.0084321
43	0xbac4af6b	-0.0015005892
44	0xbcd0e921	-0.02550179
45	0xbbd620af	-0.006534658
46	0xbc91def9	-0.017806517
47	0x3cc7c149	0.024384158
48	0xbb0ac75e	-0.002117596
49	0x3b81a81d	0.0039568082
50	0x3b160f39	0.0022897257
51	0xbba19975	-0.0049316236
52	0x3ccb138b	0.024789592
53	0xbb9b1cc0	-0.004733652
54	0xbd0d921b	-0.034563165
55	0x3ccf8b77	0.025335057
56	0x3c9dca2b	0.01926144
57	0xbcaa16ed	-0.020762885
58	0xbb418c4f	-0.0029533093
59	0x3c4424a1	0.011971624
60	0x3cda7e96	0.026671689
61	0x3badec93	0.005307743
62	0xbc982316	-0.018571418
63	0xbd1105ec	-0.03540604
64	0x3c3ed5f3	0.011647689
65	0xbb0bdfdc	-0.0021343147
66	0x3cbf24ce	0.02333298
67	0xbc5b7b60	-0.013396114
68	0xbc13015e	-0.008972494
69	0xbc7f239d	-0.015572456
70	0x3a9f7d70	0.0012168121
71	0x3c3865a0	0.011254698
72	0xbc9a4d85	-0.018835792
73	0x3c88bbf0	0.016691178
74	0xbcbaac7e	-0.022787329
75	0xbc15183e	-0.009100018
76	0x3b9fd6ec	0.0048779156
77	0x3cedc717	0.029025597
78	0xbbf0ec11	-0.00735236
79	0xbcbe4563	-0.023226446
80	0xbc83c042	-0.016082887
81	0xbc9ba93a	-0.019001592
82	0xbcb330e2	-0.021873895
83	0x3bfb3c6c	0.007667115
84	0xbcd60ae2	-0.026128236
85	0xbbff48f0	-0.0077906772
86	0xbaa13751	-0.0012299811
87	0x3c689be1	0.014197321
88	0x3b9d399e	0.0047981283
89	0xbc61b5c6	-0.013776248
90	0xbc39c7f3	-0.0113391755
91	0x3c53a2d0	0.0129172355
92	0x3cce7561	0.025202455
93	0x3ae3dca4	0.0017384482
94	0xba1b5cf4	-0.0005926632
95	0x3c52e07a	0.012870902
96	0xbc27bfd6	-0.010238608
97	0xbc06f3c0	-0.0082368255
98	0xbb53760a	-0.0032266402
99	0x3a9d5dbf	0.0012006088
100	0x3c95552c	0.01822909
101	0x3ab250c1	0.0013604389
102	0xbbb4f016	-0.0055217845
103	0x3c71ff66	0.014770364
104	0xbbb21057	-0.005434077
105	0x3c6b8371	0.0143746
106	0xbba5ddcd	-0.005061841
107	0xbc9d8cd1	-0.019232186
108	0xba8f53cd	-0.0010935009
109	0xbbb04a34	-0.0053799395
110	0x3c8b549b	0.017008116
111	0x3c4d4c04	0.012530331
112	0xbd2984af	-0.041386303
113	0xbc8ff884	-0.017574556
114	0x3c4e05d2	0.01257463
115	0x3c85a1d3	0.016312515
116	0x3b41505d	0.0029497363
117	0x3a122127	0.0005574398
118	0x3cb16d26	0.021658491
119	0x3bad85fb	0.0052955127
120	0xbc6b8ae6	-0.014376378
121	0xbc8a529d	-0.016885096
122	0xbb1a2fb2	-0.0023526964
123	0xbb92df9b	-0.0044822223
124	0xbc6c5b7c	-0.014426108
125	0xbd050abc	-0.03248094
126	0x3b5818ea	0.0032973834
127	0xbb96df22	-0.004604236
128	0x3b15ee06	0.0022877469
129	0xbb506fb5	-0.0031804864
130	0xbcbf8623	-0.023379391
131	0xbc182db3	-0.009288239
132	0xbc570e8c	-0.013126027
133	0xbc42e535	-0.0118954675
134	0x3c1f224f	0.00971277
135	0x3b506543	0.0031798638
136	0x3c256992	0.010095971
137	0xbd205405	-0.039142627
138	0xbc8b26f0	-0.01698634
139	0xbcfd30f6	-0.030907135
140	0xba5727cb	-0.0008207529
141	0x3ba0cdcc	0.0049073454
142	0xbc17c80a	-0.009264002
143	0xbcba4885	-0.022739658
144	0xbbdec355	-0.0067981877
145	0x3c0b1484	0.008488778
146	0xbbce80bd	-0.006301968
147	0xbc3ba9ed	-0.011454088
148	0x3c13ec6d	0.009028536
149	0xbb96102c	-0.0045795646
150	0xbc59eb54	-0.0133007355
151	0xbd067b42	-0.03283239
152	0x3d11ce07	0.035596874
153	0x3b2bc067	0.002620721
154	0x3c3c320f	0.011486544
155	0x3cb5cdf9	0.022192942
156	0x3c57f38a	0.013180623
157	0x3aa065d3	0.0012237377
158	0x3c246915	0.010034819
159	0x3c336c13	0.01095106
160	0xbbea63e2	-0.0071530202
161	0x3c3db92f	0.011579796
162	0x3c2aab4c	0.010416817
163	0xbca66e18	-0.020316169
164	0x3ca7bed3	0.020476734
165	0x3b7e6399	0.003881669
166	0xbbcff189	-0.006345932
167	0x3cb9648c	0.022630952
168	0xbc19738a	-0.009365926
169	0xbc8c51e9	-0.017128902
170	0xbb11ad01	-0.0022228363
171	0x3c43d83d	0.011953411
172	0x3d078500	0.033085823
173	0x3babb6a7	0.0052402797
174	0x3c259104	0.010105375
175	0xbce28440	-0.027650952
176	0x3c4908c7	0.012270159
177	0xbbccd879	-0.0062513915
178	0x3c4bc349	0.012436696
179	0x3c11e714	0.008905191
180	0xbcde9dab	-0.027174791
181	0x3bac80c8	0.0052643754
182	0x3c9fa689	0.01948859
183	0xbcfff904	-0.03124667
184	0xbc85cdde	-0.016333517
185	0x3c746973	0.014917719
186	0xbbf9a601	-0.007618666
187	0xbc267bfe	-0.010161398
188	0xbd19e705	-0.037573833
189	0xbc299035	-0.010349323
190	0x3b9fda29	0.0048783016
191	0x3cf3c5bf	0.029757379
192	0xbbef6989	-0.007306282
193	0xbb45476e	-0.003010239
194	0xbc15b4c2	-0.009137334
195	0x3c6cf689	0.014463075
196	0x3c376a04	0.01119471
197	0x3cc72328	0.024308756
198	0x3c13b4af	0.009015246
199	0xbc6ab937	-0.014326385
200	0x3c478679	0.012178057
201	0xbad92962	-0.0016568119
202	0x3cdb72f9	0.026788222
203	0xbb4035c4	-0.0029328922
204	0xbc837135	-0.016045192
205	0xbc8263a8	-0.01591666
206	0x3caa80cb	0.020813366
207	0x3c8e96bb	0.017405858
208	0x3a883d25	0.0010394199
209	0x3aa1bc66	0.0012339472
210	0x3ce01409	0.027353304
211	0x3b45a665	0.0030158993
212	0x3bb7bcf5	0.005607242
213	0x3caf191a	0.021374274
214	0x3cbeb6cd	0.023280526
215	0x3b09536d	0.0020954267
216	0x3c9d47a6	0.019199204
217	0x3bedc37a	0.0072559686
218	0x3c2d0db6	0.010562351
219	0xbce8e3f9	-0.028429018
220	0xbbf9562d	-0.00760915
221	0xb925abb7	-0.00015799595
222	0xbc328f5a	-0.0108984355
223	0x3bfccf64	0.0077151526
224	0x3c8801c2	0.0166024
225	0x3c3dd7a8	0.011587061
226	0xbc171ae7	-0.009222723
227	0x3c49d3f0	0.012318596
228	0xba06a009	-0.00051355414
229	0x3bd5f687	0.0065296325
230	0x3cac8703	0.021060472
231	0xbb095d01	-0.0020959976
232	0x3c024cc3	0.007952872
233	0x3ad8a42f	0.0016528423
234	0x3c7ce48e	0.015435351
235	0x3b0d2b29	0.0021540618
236	0xbc31ac30	-0.010844275
237	0xbb7b14c0	-0.0038311929
238	0x3c2678ba	0.010160619
239	0xbc400617	-0.011720202
240	0x3bb44a4e	0.005502022
241	0x3c6a52bd	0.014301953
242	0xbcd7c05c	-0.026336841
243	0xbc7903b1	-0.015198634
244	0xbc0d4245	-0.008621757
245	0xbc6cf43e	-0.014462529
246	0xbcbfd011	-0.023414643
247	0xbc5eb75f	-0.013593524
248	0xbc1cdee5	-0.009574627
249	0x3c579a0c	0.013159286
250	0xbc08265b	-0.008309926
251	0xbbeccb7c	-0.0072264057
252	0x3c883e1d	0.01663118
253	0x3cc3c52c	0.02389773
254	0xbc7053cd	-0.014668417
255	0x3c7364d7	0.014855585

action_model._discrete_distribution.branches.1.bias f4 [2]
0	0x3c868c39	0.016424285
1	0xbc868c38	-0.016424283

exp_avg f4 [128, 7]
0	0xb69010af	-4.2934766e-06
1	0x3707c99b	8.093567e-06
2	0x37bc0c12	2.2416967e-05
3	0x00000000	0.0
4	0x37c14ff6	2.3044628e-05
5	0x36c0e289	5.748418e-06
6	0x35e6a16f	1.7183319e-06
7	0xb7992009	-1.8253939e-05
8	0xb79f563c	-1.8994433e-05
9	0xb6a6ba4a	-4.9688724e-06
10	0x00000000	0.0
11	0xb7fef7e4	-3.0394593e-05
12	0xb7005e11	-7.651296e-06
13	0xb722fe0c	-9.715102e-06
14	0x373481b6	1.0759037e-05
15	0x38570bc8	5.1270967e-05
16	0x3728249a	1.0022102e-05
17	0x00000000	0.0
18	0x38839b30	6.275473e-05
19	0x36a82400	5.010981e-06
20	0x34292338	1.5752164e-07
21	0xb785d74d	-1.5955093e-05
22	0xb7b111c4	-2.1108317e-05
23	0xb6933921	-4.387592e-06
24	0x00000000	0.0
25	0xb837f469	-4.3858225e-05
26	0x351a1f84	5.741533e-07
27	0xb7182e4b	-9.070684e-06
28	0xb893c001	-7.04527e-05
29	0xb6b9be2e	-5.5355695e-06
30	0xb8d0d9c8	-9.958778e-05
31	0x00000000	0.0
32	0xb92f8381	-0.0001673829
33	0xb86fdb72	-5.7186415e-05
34	0xb7d3ed8d	-2.5263778e-05
35	0x35f7f90b	1.8475415e-06
36	0xb88903d1	-6.53338e-05
37	0x376fd3e6	1.4294847e-05
38	0x00000000	0.0
39	0xb899c74c	-7.3327305e-05
40	0xb75fe6ab	-1.3345542e-05
41	0x37056f3c	7.9533165e-06
42	0xb72ccd9c	-1.0299871e-05
43	0xb81b34b2	-3.7003956e-05
44	0xb76dc3dc	-1.4171903e-05
45	0x00000000	0.0
46	0xb8596084	-5.182672e-05
47	0xb6bde250	-5.658985e-06
48	0xb6e6a718	-6.8739864e-06
49	0xb7956831	-1.7810702e-05
50	0xb9a306ea	-0.00031094934
51	0x3724e833	9.829225e-06
52	0x00000000	0.0
53	0xb9b9dd17	-0.00035450674
54	0xb82496b6	-3.9241007e-05
55	0x388e7c8d	6.794287e-05
56	0xb9008613	-0.00012256978
57	0x3977179e	0.00023564554
58	0x38339c28	4.2822357e-05
59	0x00000000	0.0
60	0x39024c96	0.00012426297
61	0xb8133955	-3.5100926e-05
62	0xb7c0f2ac	-2.3001186e-05
63	0x381778f3	3.611385e-05
64	0xb73e08d9	-1.13269425e-05
65	0xb7c21c6a	-2.3139834e-05
66	0x00000000	0.0
67	0x3686225d	3.9975116e-06
68	0x373905ff	1.1028255e-05
69	0x36c803f0	5.960923e-06
70	0x37afcc91	2.0956884e-05
71	0xb8b7cde5	-8.764471e-05
72	0xb6ad1da3	-5.159252e-06
73	0x00000000	0.0
74	0xb8802ea2	-6.112202e-05
75	0xb4f11145	-4.4902313e-07
76	0x37d44b64	2.5307476e-05
77	0xb83d9ccd	-4.5207144e-05
78	0x36afbfd4	5.237738e-06
79	0x37ad2494	2.064024e-05
80	0x00000000	0.0
81	0xb7edd8b6	-2.8353516e-05
82	0xb703f853	-7.866026e-06
83	0xb6c58c01	-5.887356e-06
84	0xb83b1513	-4.46039e-05
85	0xb8a7b55d	-7.996962e-05
86	0x37a2df9d	1.9416033e-05
87	0x00000000	0.0
88	0xb9031711	-0.00012501726
89	0xb7c102d8	-2.3008717e-05
90	0xb72cd37b	-1.0301238e-05
91	0x388fb64d	6.8527275e-05
92	0x38e57090	0.00010940537
93	0xb6e1783e	-6.7195206e-06
94	0x00000000	0.0
95	0x3933dc5d	0.00017152862
96	0x382876b0	4.0164858e-05
97	0xb644e6ec	-2.934069e-06
98	0xb4d9f8a1	-4.06003e-07
99	0x374c8ffa	1.219287e-05
100	0xb7d073aa	-2.4849393e-05
101	0x00000000	0.0
102	0x378d567f	1.6848788e-05
103	0x35f1e105	1.8021389e-06
104	0x367317ef	3.6223753e-06
105	0xb7ed1d4b	-2.8266242e-05
106	0xb83ca618	-4.497738e-05
107	0xb7c0bc63	-2.2975908e-05
108	0x00000000	0.0
109	0xb8b939f0	-8.832279e-05
110	0xb76cb556	-1.4108917e-05
111	0xb74c8bcb	-1.2191896e-05
112	0xb788f2cb	-1.6325523e-05
113	0x3890c2a1	6.9027075e-05
114	0xb76f94e8	-1.428018e-05
115	0x00000000	0.0
116	0x37f74d24	2.9480616e-05
117	0xb6889f2d	-4.0716463e-06
118	0xb6a56de8	-4.930178e-06
119	0xb696e5a0	-4.49708e-06
120	0x378f6e81	1.7098386e-05
121	0xb6a20406	-4.8284446e-06
122	0x00000000	0.0
123	0x35b2b350	1.331422e-06
124	0xb5ba3c1a	-1.3875572e-06
125	0xb59e7537	-1.1806031e-06
126	0x3805b3d2	3.187714e-05
127	0x36881656	4.055716e-06
128	0xb64b2042	-3.0268134e-06
129	0x00000000	0.0
130	0x382dfbec	4.1481035e-05
131	0x37444b59	1.1700054e-05
132	0x37a9d4f1	2.0245529e-05
133	0xb8929cd4	-6.991034e-05
134	0xb8fea311	-0.00012142037
135	0xb716cacd	-8.987915e-06
136	0x00000000	0.0
137	0xb954a61d	-0.00020279778
138	0xb8252ca1	-3.938063e-05
139	0xb7797505	-1.4868802e-05
140	0xb78484f0	-1.579753e-05
141	0x38a9f664	8.104442e-05
142	0xb83681bf	-4.3513017e-05
143	0x00000000	0.0
144	0x3733fd1e	1.0728165e-05
145	0xb701e090	-7.741284e-06
146	0xb464766a	-2.1277233e-07
147	0x380e0783	3.3862434e-05
148	0x38b10718	8.441339e-05
149	0xb94e8fd1	-0.00019699267
150	0x00000000	0.0
151	0xb91e9eb1	-0.00015127171
152	0xb8411b09	-4.6039964e-05
153	0x37a917c9	2.0157446e-05
154	0xb8f51192	-0.00011685783
155	0xb9174348	-0.00014425546
156	0xb33b6b98	-4.3637186e-08
157	0x00000000	0.0
158	0xb97172e0	-0.00023026345
159	0xb857736b	-5.1367486e-05
160	0xb82aaf27	-4.069428e-05
161	0xb7300585	-1.0491703e-05
162	0x37d262ce	2.507996e-05
163	0xb7d42bdd	-2.5292795e-05
164	0x00000000	0.0
165	0x36a1bd7c	4.820233e-06
166	0xb665da75	-3.4250818e-06
167	0xb712ee96	-8.757828e-06
168	0xb812b418	-3.4976838e-05
169	0x394a2d4f	0.000192811
170	0xb8e7a5c1	-0.000110458124
171	0x00000000	0.0
172	0xb71a484c	-9.195948e-06
173	0xb7bffaf5	-2.2885835e-05
174	0xb6a2f0e8	-4.8560214e-06
175	0x37d7cae0	2.5724468e-05
176	0xb7d888ce	-2.5812911e-05
177	0x38a92fe8	8.067471e-05
178	0x00000000	0.0
179	0x38d1354f	9.975826e-05
180	0x37dadda9	2.6090844e-05
181	0x3761bb0a	1.34545935e-05
182	0xb7a139a3	-1.9219535e-05
183	0xb8236150	-3.8952858e-05
184	0x389fe775	7.624823e-05
185	0x00000000	0.0
186	0x38ba3c76	8.880433e-05
187	0x37d6ba2d	2.5597483e-05
188	0xb7d0c9ed	-2.4889561e-05
189	0xb7ed666d	-2.8300297e-05
190	0xb81840cc	-3.629997e-05
191	0xb743efac	-1.1678709e-05
192	0x00000000	0.0
193	0xb894c74d	-7.0943126e-05
194	0xb74b7066	-1.2125913e-05
195	0xb78d138a	-1.6817608e-05
196	0xb84eb8e5	-4.9286424e-05
197	0x38a3f33e	7.817753e-05
198	0x36ce3e38	6.1465216e-06
199	0x00000000	0.0
200	0x3844da12	4.6933135e-05
201	0xb72415d0	-9.78024e-06
202	0xb738c96d	-1.1014153e-05
203	0xb7f5bd20	-2.9294344e-05
204	0xb735eccd	-1.0843575e-05
205	0xb7292e74	-1.0084001e-05
206	0x00000000	0.0
207	0xb8f6577b	-0.000117464886
208	0xb7740ab6	-1.4546027e-05
209	0xb7e43c20	-2.7207716e-05
210	0xb780624b	-1.530456e-05
211	0xb8777f7f	-5.900813e-05
212	0x387f5339	6.0874245e-05
213	0x00000000	0.0
214	0xb8128296	-3.493073e-05
215	0xb614b310	-2.2157947e-06
216	0x372675b6	9.921778e-06
217	0xb79c4e57	-1.8633129e-05
218	0x38c80bdf	9.538954e-05
219	0xb79f44d8	-1.8986335e-05
220	0x00000000	0.0
221	0x37d89304	2.5817666e-05
222	0xb638f186	-2.7558722e-06
223	0xb60812fe	-2.0276634e-06
224	0xb7f3d1d7	-2.9065572e-05
225	0xb78c0d89	-1.6695603e-05
226	0xb7a6e47a	-1.9895135e-05
227	0x00000000	0.0
228	0xb8c8665f	-9.555811e-05
229	0xb76a009f	-1.39476315e-05
230	0xb7289ffc	-1.005083e-05
231	0xb8892695	-6.5398555e-05
232	0xb8f60bf0	-0.000117324176
233	0xb8523d08	-5.012474e-05
234	0x00000000	0.0
235	0xb96f0c91	-0.00022797498
236	0xb82ecfc4	-4.167833e-05
237	0xb7d6c816	-2.560396e-05
238	0xb7ce29be	-2.4576551e-05
239	0xb932e290	-0.00017059804
240	0x38db9f99	0.00010472461
241	0x00000000	0.0
242	0xb8bc48ea	-8.97812e-05
243	0x37715922	1.4385472e-05
244	0x38287015	4.0158706e-05
245	0xb7aef521	-2.0856563e-05
246	0x3872caaf	5.788606e-05
247	0x379601bd	1.7882203e-05
248	0x00000000	0.0
249	0x38089bb1	3.2569926e-05
250	0xb716e602	-8.99425e-06
251	0xb710ebd5	-8.637978e-06
252	0xb77a7bab	-1.4929955e-05
253	0x37926900	1.745345e-05
254	0x3591ddf5	1.086794e-06
255	0x00000000	0.0

exp_avg_sq f4 [128, 7]
0	0x3121c3d2	2.3539894e-09
1	0x32145229	8.633415e-09
2	0x3200f2c2	7.505777e-09
3	0x00000000	0.0
4	0x3112eac0	2.1379236e-09
5	0x2f30f08d	1.6092568e-10
6	0x3205a9d8	7.780237e-09
7	0x30bb1c98	1.3614168e-09
8	0x324b3f4d	1.1830548e-08
9	0x31e0f211	6.546778e-09
10	0x00000000	0.0
11	0x3154a7d6	3.0945464e-09
12	0x2fa3d81d	2.9803085e-10
13	0x32168a3a	8.762578e-09
14	0x3285b8a9	1.5567212e-08
15	0x31c62ae6	5.7674354e-09
16	0x31f62614	7.1638713e-09
17	0x00000000	0.0
18	0x3275a2ad	1.4297865e-08
19	0x2f955def	2.7169686e-10
20	0x312bb930	2.4989042e-09
21	0x30243463	5.97373e-10
22	0x316f614c	3.4834384e-09
23	0x311161dd	2.1155906e-09
24	0x00000000	0.0
25	0x313bca72	2.7327158e-09
26	0x306d613a	8.6358265e-10
27	0x3127fccb	2.4445395e-09
28	0x33f618ae	1.1459757e-07
29	0x33afe03a	8.189859e-08
30	0x33c119c6	8.991951e-08
31	0x00000000	0.0
32	0x3347bd9a	4.650574e-08
33	0x3163a34e	3.3125676e-09
34	0x330a5f99	3.2217574e-08
35	0x32a2c345	1.894808e-08
36	0x330f8531	3.341592e-08
37	0x33084b48	3.1733435e-08
38	0x00000000	0.0
39	0x32a567e3	1.925577e-08
40	0x30414b60	7.0320105e-10
41	0x32c88752	2.3344601e-08
42	0x33003b44	2.9856224e-08
43	0x322f5f47	1.0208004e-08
44	0x32c1f1bd	2.2578087e-08
45	0x00000000	0.0
46	0x3319cfb3	3.581199e-08
47	0x2fe2c64a	4.1250053e-10
48	0x31750898	3.5657077e-09
49	0x331d5123	3.6628204e-08
50	0x345d19fd	2.0591683e-07
51	0x3404d599	1.2371164e-07
52	0x00000000	0.0
53	0x33682c80	5.4057182e-08
54	0x3143d1e7	2.849555e-09
55	0x33a918af	7.874166e-08
56	0x33133399	3.4273032e-08
57	0x328f542b	1.6685666e-08
58	0x328891e1	1.5898822e-08
59	0x00000000	0.0
60	0x327be85d	1.4662956e-08
61	0x314db11e	2.9932106e-09
62	0x309b4781	1.1298057e-09
63	0x319e8f38	4.6146873e-09
64	0x3147c960	2.907278e-09
65	0x3191f2a6	4.2476413e-09
66	0x00000000	0.0
67	0x318e7821	4.146401e-09
68	0x2f8db86f	2.5778799e-10
69	0x2f7917b5	2.265484e-10
70	0x3204657a	7.706484e-09
71	0x321044c0	8.397535e-09
72	0x326d4fca	1.3813358e-08
73	0x00000000	0.0
74	0x32badbef	2.1753264e-08
75	0x2fcb0ef8	3.693612e-10
76	0x3121610b	2.3483746e-09
77	0x31fc523c	7.3435142e-09
78	0x31d30eab	6.142576e-09
79	0x323cf7a8	1.0999351e-08
80	0x00000000	0.0
81	0x32ff7f52	2.9743806e-08
82	0x2edee274	1.0135617e-10
83	0x31c77f43	5.8061302e-09
84	0x32bc6de8	2.193606e-08
85	0x32db80f4	2.5553597e-08
86	0x32c3344b	2.2724768e-08
87	0x00000000	0.0
88	0x32a98d53	1.9738456e-08
89	0x308c530f	1.0209947e-09
90	0x30aae2ae	1.2433554e-09
91	0x32c3c8fa	2.2792381e-08
92	0x32bc3c9e	2.1913646e-08
93	0x3328a905	3.926927e-08
94	0x00000000	0.0
95	0x33b0f382	8.2399325e-08
96	0x30b01e9d	1.2814386e-09
97	0x318907a5	3.988094e-09
98	0x3115864d	2.1758695e-09
99	0x31a7931b	4.8770636e-09
100	0x318193c8	3.771195e-09
101	0x00000000	0.0
102	0x302b17c4	6.224321e-10
103	0x2e43b24d	4.449623e-11
104	0x31d7c940	6.280203e-09
105	0x31847a4e	3.85561e-09
106	0x3263b089	1.32532785e-08
107	0x321e8af6	9.2284065e-09
108	0x00000000	0.0
109	0x31c2cd0e	5.669455e-09
110	0x2fe822dc	4.2225323e-10
111	0x3258bd3c	1.2615882e-08
112	0x315fbee0	3.255927e-09
113	0x315c845d	3.2089453e-09
114	0x31e4a8d7	6.654868e-09
115	0x00000000	0.0
116	0x31fd901e	7.3796533e-09
117	0x3009b0ab	5.009137e-10
118	0x308b0bdf	1.0116955e-09
119	0x2facbc94	3.142061e-10
120	0x312a773c	2.4806033e-09
121	0x311192bc	2.1183686e-09
122	0x00000000	0.0
123	0x30917dd6	1.0585903e-09
124	0x2f1d6a15	1.4316755e-10
125	0x2e97b18f	6.898226e-11
126	0x30f7f7d0	1.8042048e-09
127	0x3132c493	2.6014149e-09
128	0x3129a23c	2.4684956e-09
129	0x00000000	0.0
130	0x31b600a3	5.2969695e-09
131	0x2ec98fa2	9.165936e-11
132	0x3134d2f9	2.6313371e-09
133	0x32420d02	1.1295244e-08
134	0x3290937b	1.6830873e-08
135	0x327062be	1.399229e-08
136	0x00000000	0.0
137	0x32b2f12b	2.0831598e-08
138	0x30df301b	1.6239058e-09
139	0x3060c937	8.177667e-10
140	0x3186be79	3.9215675e-09
141	0x310f51a6	2.085565e-09
142	0x319a7681	4.4954622e-09
143	0x00000000	0.0
144	0x30e2babb	1.6496736e-09
145	0x2ef1dfa9	1.0999141e-10
146	0x2f2d7b14	1.5777984e-10
147	0x34314238	1.65085e-07
148	0x33d2bebc	9.8135814e-08
149	0x3430abd2	1.6453785e-07
150	0x00000000	0.0
151	0x337a846a	5.832809e-08
152	0x3193e61d	4.304424e-09
153	0x31d04139	6.0610117e-09
154	0x33a6a075	7.759164e-08
155	0x33cfc8bd	9.675703e-08
156	0x3396252a	6.9916794e-08
157	0x00000000	0.0
158	0x33876235	6.304291e-08
159	0x3177af99	3.6043046e-09
160	0x33503deb	4.8485088e-08
161	0x2fc9273e	3.658957e-10
162	0x3298dedf	1.7796479e-08
163	0x3226db8c	9.712391e-09
164	0x00000000	0.0
165	0x3050baf4	7.5935636e-10
166	0x2f3d0375	1.7190678e-10
167	0x31dcc7c1	6.425552e-09
168	0x3418fe45	1.4248606e-07
169	0x3352629a	4.8984113e-08
170	0x3422084c	1.5090444e-07
171	0x00000000	0.0
172	0x33be3438	8.857063e-08
173	0x310a34ee	2.011173e-09
174	0x3163d080	3.3151366e-09
175	0x3256051e	1.2457603e-08
176	0x32957b07	1.740183e-08
177	0x32e379a9	2.6481603e-08
178	0x00000000	0.0
179	0x32a73f84	1.9470242e-08
180	0x2fc1d7d9	3.5259864e-10
181	0x3219475a	8.921996e-09
182	0x31d3480d	6.1490995e-09
183	0x3218867c	8.878143e-09
184	0x3278ac9a	1.4474745e-08
185	0x00000000	0.0
186	0x320f44ec	8.3393665e-09
187	0x30dd8fcf	1.6120739e-09
188	0x30b1df29	1.2941871e-09
189	0x30a9ee95	1.2364177e-09
190	0x3192de00	4.2743977e-09
191	0x316269e1	3.2947514e-09
192	0x00000000	0.0
193	0x3156c23d	3.125151e-09
194	0x2f22a695	1.4792996e-10
195	0x315826a2	3.1454097e-09
196	0x318f4eff	4.1708286e-09
197	0x316155c2	3.2790557e-09
198	0x31b664af	5.3083435e-09
199	0x00000000	0.0
200	0x325a99c9	1.2724237e-08
201	0x2edf2bcd	1.01486465e-10
202	0x2f0e385c	1.2934848e-10
203	0x3396596f	7.001187e-08
204	0x3314c3bc	3.4636955e-08
205	0x335c399b	5.1275133e-08
206	0x00000000	0.0
207	0x3339b8fb	4.3241908e-08
208	0x30ca1e59	1.470606e-09
209	0x320554ec	7.760928e-09
210	0x3202b24b	7.607535e-09
211	0x32ba1bc8	2.1665883e-08
212	0x32c6878b	2.3111872e-08
213	0x00000000	0.0
214	0x3299737f	1.7864066e-08
215	0x302ed342	6.3601047e-10
216	0x318a1d28	4.0196433e-09
217	0x30e9f4ef	1.7022596e-09
218	0x31111865	2.1114144e-09
219	0x316bea49	3.4330176e-09
220	0x00000000	0.0
221	0x31c5fb4b	5.7620233e-09
222	0x2dfd2369	2.8778495e-11
223	0x304b6013	7.39875e-10
224	0x3251f9f4	1.2222234e-08
225	0x31a33a26	4.750535e-09
226	0x3280bcba	1.4986984e-08
227	0x00000000	0.0
228	0x331a7ecc	3.597124e-08
229	0x3015b4c7	5.4462784e-10
230	0x2fee42f7	4.333953e-10
231	0x3326c4fc	3.8829043e-08
232	0x33207092	3.7355285e-08
233	0x33527790	4.9003177e-08
234	0x00000000	0.0
235	0x33506ebf	4.8529497e-08
236	0x30921460	1.0628689e-09
237	0x32130571	8.557763e-09
238	0x328bb8be	1.626574e-08
239	0x330a8b19	3.2257137e-08
240	0x32d2ac0f	2.452546e-08
241	0x00000000	0.0
242	0x32fd6839	2.9500471e-08
243	0x30720320	8.804353e-10
244	0x329cf24a	1.827097e-08
245	0x31e0313d	6.5248558e-09
246	0x310beb1a	2.0360802e-09
247	0x311efd69	2.3136073e-09
248	0x00000000	0.0
249	0x315c1dc4	3.2031133e-09
250	0x2f52e08b	1.9179162e-10
251	0x2f8c6609	2.5538352e-10
252	0x312ec994	2.5434916e-09
253	0x30adc0e0	1.2642225e-09
254	0x30de8775	1.6191125e-09
255	0x00000000	0.0
