results/phase1.3/PlayerAgent/PlayerAgent-128.onnx (onnx, 80379 bytes, 10 tensors)

discrete_act_size_vector f4 [1, 2]
0	0x40400000	3.0
1	0x40000000	2.0

network_body.observation_encoder.processors.0.normalizer.running_mean f4 [7]
0	0x3ea7586c	0.32684648
1	0xbf8e0353	-1.1094764
2	0xbeaeb142	-0.34119612
3	0x00000000	0.0
4	0x3daea2ba	0.085271314
5	0xbe80acfa	-0.2513197
6	0x3f7e03f8	0.99224806

network_body._body_endoder.seq_layers.0.weight f4 [128, 7]
0	0x3d3aea51	0.045633618
1	0xbed27484	-0.4110452
2	0x3f06d012	0.5266124
3	0x3da85a94	0.082204014
4	0xbcd39509	-0.025827901
5	0x3f6e00f5	0.9297021
6	0x3e1f4ba9	0.15556206
7	0xbe733d9b	-0.2375397
8	0xbe23bbc4	-0.15989596
9	0x3eb2aa41	0.34895518
10	0xbd4f5c06	-0.05062487
11	0xbd33e158	-0.043916076
12	0xbf525114	-0.82154965
13	0xbe277ba9	-0.16355766
14	0xbeea6297	-0.45778343
15	0xbd121aa1	-0.035669927
16	0x3e75d53f	0.24007128
17	0xbf61788f	-0.8807458
18	0x3eac6176	0.33668107
19	0xbe5b740e	-0.2143099
20	0xbec3266e	-0.38115257
21	0xbe06028c	-0.13086909
22	0x3e2e7e1a	0.17040291
23	0xbe546a22	-0.20743611
24	0xbd1500c4	-0.036377683
25	0x3e3621c7	0.17786323
26	0xbf02f8d9	-0.5116096
27	0x3ea4d59c	0.3219422
28	0xbd5ed0fe	-0.05439853
29	0x3e3b0045	0.18261822
30	0xbea58008	-0.32324243
31	0x3efe05d8	0.49613833
32	0x3eab4cad	0.33456936
33	0xbec61b55	-0.38692728
34	0x3ef363de	0.4753713
35	0x3c82deaf	0.015975324
36	0xbf109107	-0.56471294
37	0x3df37529	0.11887581
38	0x3ea4b3e8	0.32168508
39	0x3f5fea7e	0.8746718
40	0xbe0d579e	-0.13802955
41	0xbedb6f2a	-0.4285825
42	0xbd634892	-0.05548913
43	0xbb95c5dc	-0.004570706
44	0xbe07be2f	-0.13256143
45	0xbec371a8	-0.3817265
46	0xbdf1bad9	-0.118032165
47	0xbf3a750d	-0.72834855
48	0xbf4c91df	-0.7991008
49	0xbe75d049	-0.24005236
50	0x3eb60709	0.35552242
51	0x3e5f79af	0.21823762
52	0xbdd2c41e	-0.10291313
53	0x3dbf8aa5	0.09352616
54	0x3e118080	0.14209175
55	0xbc309b67	-0.010779238
56	0xbda29f9c	-0.07940599
57	0xbf3964dd	-0.7241953
58	0xbefb648b	-0.49100146
59	0xbe735eb5	-0.23766597
60	0x3f19475a	0.598745
61	0xbe92c7bd	-0.28668013
62	0xbd8c6544	-0.068552524
63	0x3e97d12b	0.2965177
64	0xbf051852	-0.51990235
65	0x3d101a87	0.03518155
66	0x3ed4de0c	0.41575658
67	0x3f62e43d	0.88629514
68	0xbdb33878	-0.08751005
69	0x3e973f35	0.2954041
70	0xbf25ec8d	-0.6481407
71	0xbd1f8814	-0.038948134
72	0x3e2a215e	0.16614291
73	0xbf571e75	-0.8403085
74	0x3efb13c8	0.4903853
75	0x3f0d864b	0.5528304
76	0xbd8bf786	-0.06834321
77	0xbbbc704c	-0.0057506915
78	0xbede57c1	-0.43426326
79	0x3dacac2e	0.08431278
80	0xbeb651e5	-0.35609356
81	0xbe04ec66	-0.12980804
82	0x3ddde55b	0.10834762
83	0xbf1dac3a	-0.6159092
84	0x3f039047	0.51392025
85	0x3e69b734	0.22823793
86	0x3e95917d	0.2921256
87	0x3d4354eb	0.047688406
88	0x3e36ad47	0.17839538
89	0x3da935b2	0.08262195
90	0x3ec5e598	0.3865173
91	0xbe770367	-0.24122392
92	0x3dcb64fa	0.09931369
93	0x3f3f0424	0.74615693
94	0x3e945a07	0.28974935
95	0xbf510508	-0.816483
96	0x3ed086a9	0.40727738
97	0xbdb73f5d	-0.089476325
98	0xbde007a8	-0.1093896
99	0x3e8c99fc	0.2746123
100	0x3eccbd0b	0.39987978
101	0x3eb9deb9	0.36302736
102	0x3f0b8610	0.5450144
103	0x3f44f70d	0.7693947
104	0xbec68d8e	-0.38779873
105	0xbf19f95a	-0.60146105
106	0x3e82dab4	0.25557482
107	0x3e9c3d6b	0.30515608
108	0xbf2ceb79	-0.675468
109	0x3dd511ce	0.104037866
110	0x3d87b26a	0.06625827
111	0x3e6bc0c8	0.23022759
112	0x3d0f8886	0.03504231
113	0xbe84314a	-0.25818855
114	0xbeef6baa	-0.4676183
115	0x3f3be2e6	0.73393095
116	0x3e8d7572	0.27628666
117	0xbee638f5	-0.4496533
118	0x3ef105ea	0.47074825
119	0xbe413e8e	-0.18871519
120	0x3e885501	0.26627353
121	0x3df715bb	0.12064692
122	0x3c11099f	0.0088523915
123	0x3e3746d6	0.17898116
124	0xbe1bd60a	-0.15218368
125	0xbf25cdf6	-0.64767396
126	0xbeb28228	-0.34864926
127	0x3f08eb05	0.5348361
128	0xbbeacd3e	-0.00716558
129	0x3e655e2c	0.22399205
130	0x3ecb7379	0.39736536
131	0xbe17849c	-0.1479668
132	0xbdca3415	-0.09873215
133	0xbdca8278	-0.09888166
134	0x3e162c57	0.14665352
135	0x3dfe0af1	0.12404431
136	0xbdbcb340	-0.09213877
137	0xbefd3217	-0.49452278
138	0x3dab5292	0.083653584
139	0xbe24a2dc	-0.16077751
140	0x3f2b2ffb	0.6687009
141	0xbf22f9f9	-0.6366268
142	0xbd2211cb	-0.03956775
143	0x3ea45830	0.32098532
144	0x3ec3b2ff	0.382225
145	0xbf005c3c	-0.5014074
146	0xbebf2a93	-0.3733717
147	0x3e263474	0.16230947
148	0xbe9135a0	-0.28361225
149	0xbd4bec42	-0.04978586
150	0xbdbec3bb	-0.093146764
151	0xbe5cc8f7	-0.21561037
152	0xbe9e8c71	-0.30966523
153	0x3e4ae210	0.19812799
154	0xbf254689	-0.64560753
155	0xbdeaa94b	-0.11458071
156	0x3e47b205	0.19501503
157	0x3c8cac4d	0.017172003
158	0xbe31e2fa	-0.17371741
159	0x3f4efc72	0.8085395
160	0x3e319810	0.17343163
161	0xbe774633	-0.24147873
162	0xbf062bc6	-0.5241054
163	0xbe1f78dc	-0.15573448
164	0xbdd72971	-0.10505951
165	0x3e5d3504	0.21602255
166	0x3e87b0ab	0.26501974
167	0x3f392efe	0.7233733
168	0x3e8516af	0.2599387
169	0x3e0a0b5e	0.13480899
170	0x3dac0c03	0.084007286
171	0xbeb4e234	-0.3532883
172	0x3dacb1de	0.08432363
173	0x3e0f3047	0.1398326
174	0x3ecebdb7	0.40379116
175	0xbf0d1752	-0.5511371
176	0x3ef09819	0.4699104
177	0x3eda8476	0.42679185
178	0x3e975802	0.29559332
179	0xbcdbf3c8	-0.026849642
180	0x3e15a734	0.14614564
181	0xbe8a018c	-0.26954305
182	0xbde3f39e	-0.11130451
183	0x3ec53eaa	0.3852437
184	0xbe9107d4	-0.28326285
185	0x3f11a1d2	0.56887543
186	0x3ef09f14	0.46996367
187	0xbf086496	-0.5327848
188	0x3ea84378	0.32863975
189	0x3e61c0d9	0.22046222
190	0x3f63308d	0.8874596
191	0x3f387d59	0.72066265
192	0x3f4d38c1	0.80164725
193	0x3c86fa8c	0.016476892
194	0x3e663a4a	0.22483173
195	0xbf542e05	-0.8288272
196	0x3dda4f57	0.10659664
197	0xbe9db62b	-0.30803046
198	0x3eceae6a	0.40367442
199	0x3e7ebc5a	0.24876538
200	0x3ea3882b	0.31939825
201	0x3c0b64f7	0.008507959
202	0xbc5b2f1b	-0.01337793
203	0xbc6deddf	-0.014522045
204	0xbe985597	-0.297528
205	0xbf1a20b5	-0.60206157
206	0xbed2f569	-0.41202858
207	0x3e352afd	0.1769218
208	0xba8b49d2	-0.0010626859
209	0x3b970150	0.0046083108
210	0x3e8f5b05	0.2799913
211	0x3eca5a71	0.39522126
212	0xbe1296f5	-0.14315398
213	0xbeb9401a	-0.36181718
214	0xbf05f393	-0.5232479
215	0x3eeba068	0.46020818
216	0x3e5cb11d	0.21551938
217	0x3dfe9cad	0.12432227
218	0xbb55d591	-0.0032628516
219	0x3f65d9ab	0.8978526
220	0x3ea93a7c	0.33052433
221	0xbf330abb	-0.6993825
222	0xbdf56674	-0.11982432
223	0x3f8170eb	1.0112585
224	0xbf4f2f57	-0.8093161
225	0x3e42ecfd	0.19035716
226	0x3eddcc16	0.43319768
227	0xbf61339b	-0.8796937
228	0x3f1de918	0.616838
229	0x3e548d35	0.20756991
230	0xbee78a2a	-0.45222598
231	0xbecd48cd	-0.40094605
232	0x3ed42af1	0.41439012
233	0xbde9c6d0	-0.114148736
234	0x3c8559c9	0.016278164
235	0x3d565a0e	0.052331977
236	0xbed4eae0	-0.41585445
237	0xbdbfc629	-0.09363968
238	0xbd2199a7	-0.039453175
239	0xbef4457c	-0.47709262
240	0xbd1990fe	-0.03749179
241	0xbf5f7406	-0.8728641
242	0x3f85b61d	1.0446202
243	0x3f29a746	0.66270864
244	0x3dd07480	0.101784706
245	0x3a82c88c	0.000997798
246	0x3e265374	0.16242772
247	0x3d2b6825	0.041847367
248	0xbe6b57ac	-0.22982663
249	0xbdcf952f	-0.101358764
250	0x3f941415	1.1568629
251	0x3e5e3c9e	0.21702811
252	0xbe8016f4	-0.25017512
253	0xbcd5fc3d	-0.026121253
254	0xbf38845a	-0.7207695
255	0xbf6f6b3a	-0.9352299

network_body._body_endoder.seq_layers.0.bias f4 [128]
0	0x00000000	0.0
1	0x00000000	0.0
2	0x00000000	0.0
3	0x00000000	0.0
4	0x00000000	0.0
5	0x00000000	0.0
6	0x00000000	0.0
7	0x00000000	0.0
8	0x00000000	0.0
9	0x00000000	0.0
10	0x00000000	0.0
11	0x00000000	0.0
12	0x00000000	0.0
13	0x00000000	0.0
14	0x00000000	0.0
15	0x00000000	0.0
16	0x00000000	0.0
17	0x00000000	0.0
18	0x00000000	0.0
19	0x00000000	0.0
20	0x00000000	0.0
21	0x00000000	0.0
22	0x00000000	0.0
23	0x00000000	0.0
24	0x00000000	0.0
25	0x00000000	0.0
26	0x00000000	0.0
27	0x00000000	0.0
28	0x00000000	0.0
29	0x00000000	0.0
30	0x00000000	0.0
31	0x00000000	0.0
32	0x00000000	0.0
33	0x00000000	0.0
34	0x00000000	0.0
35	0x00000000	0.0
36	0x00000000	0.0
37	0x00000000	0.0
38	0x00000000	0.0
39	0x00000000	0.0
40	0x00000000	0.0
41	0x00000000	0.0
42	0x00000000	0.0
43	0x00000000	0.0
44	0x00000000	0.0
45	0x00000000	0.0
46	0x00000000	0.0
47	0x00000000	0.0
48	0x00000000	0.0
49	0x00000000	0.0
50	0x00000000	0.0
51	0x00000000	0.0
52	0x00000000	0.0
53	0x00000000	0.0
54	0x00000000	0.0
55	0x00000000	0.0
56	0x00000000	0.0
57	0x00000000	0.0
58	0x00000000	0.0
59	0x00000000	0.0
60	0x00000000	0.0
61	0x00000000	0.0
62	0x00000000	0.0
63	0x00000000	0.0
64	0x00000000	0.0
65	0x00000000	0.0
66	0x00000000	0.0
67	0x00000000	0.0
68	0x00000000	0.0
69	0x00000000	0.0
70	0x00000000	0.0
71	0x00000000	0.0
72	0x00000000	0.0
73	0x00000000	0.0
74	0x00000000	0.0
75	0x00000000	0.0
76	0x00000000	0.0
77	0x00000000	0.0
78	0x00000000	0.0
79	0x00000000	0.0
80	0x00000000	0.0
81	0x00000000	0.0
82	0x00000000	0.0
83	0x00000000	0.0
84	0x00000000	0.0
85	0x00000000	0.0
86	0x00000000	0.0
87	0x00000000	0.0
88	0x00000000	0.0
89	0x00000000	0.0
90	0x00000000	0.0
91	0x00000000	0.0
92	0x00000000	0.0
93	0x00000000	0.0
94	0x00000000	0.0
95	0x00000000	0.0
96	0x00000000	0.0
97	0x00000000	0.0
98	0x00000000	0.0
99	0x00000000	0.0
100	0x00000000	0.0
101	0x00000000	0.0
102	0x00000000	0.0
103	0x00000000	0.0
104	0x00000000	0.0
105	0x00000000	0.0
106	0x00000000	0.0
107	0x00000000	0.0
108	0x00000000	0.0
109	0x00000000	0.0
110	0x00000000	0.0
111	0x00000000	0.0
112	0x00000000	0.0
113	0x00000000	0.0
114	0x00000000	0.0
115	0x00000000	0.0
116	0x00000000	0.0
117	0x00000000	0.0
118	0x00000000	0.0
119	0x00000000	0.0
120	0x00000000	0.0
121	0x00000000	0.0
122	0x00000000	0.0
123	0x00000000	0.0
124	0x00000000	0.0
125	0x00000000	0.0
126	0x00000000	0.0
127	0x00000000	0.0

network_body._body_endoder.seq_layers.2.weight f4 [128, 128]
0	0xbe070aa6	-0.13187656
1	0x3d48f58e	0.049062304
2	0xbe01f8b5	-0.1269253
3	0xbc16b83a	-0.0091991965
4	0x3da549a2	0.08070685
5	0x3cfdc968	0.030979827
6	0xbddf83bb	-0.109137975
7	0xbc3c6ca4	-0.011500511
8	0xbd557c56	-0.05212053
9	0x3de3f375	0.1113042
10	0x3d50b2e3	0.05095185
11	0x3c9cd999	0.019146727
12	0x3d1da462	0.038486846
13	0xbcbc493a	-0.022984136
14	0x3ce07ee3	0.027404254
15	0xbe5db5b7	-0.2165135
16	0xbdf5853c	-0.11988303
17	0x3cca3315	0.024682561
18	0xbd05ce95	-0.032667715
19	0xbd8362ff	-0.064153664
20	0x3d49ea25	0.049295563
21	0xbe54a44a	-0.20765796
22	0xbd006f0b	-0.0313559
23	0x3b6f39fe	0.0036503072
24	0x3db05b29	0.086111374
25	0xbceeea41	-0.029164435
26	0x3cb18014	0.021667518
27	0xbd8d5daf	-0.06902634
28	0xbde325bd	-0.110911824
29	0xbdbef571	-0.09324158
30	0xbd14cbed	-0.03632729
31	0xbcaf8952	-0.021427784
32	0x3d0bc2f3	0.034121465
33	0x3d068926	0.03284564
34	0xbc0ce3b4	-0.0085992105
35	0x3d4dd0cd	0.050247956
36	0x3d009b4c	0.031398103
37	0xbe03bbbb	-0.12864582
38	0x3da9a641	0.082836635
39	0x3e0a8d5d	0.13530488
40	0x3e0fb567	0.14034043
41	0x3d59d558	0.053181976
42	0xbcc6babe	-0.024258967
43	0x3ca014d7	0.019541187
44	0x3d43cb9a	0.04780159
45	0x3d0ee39c	0.034885034
46	0x3c572df3	0.013133514
47	0x3d631b62	0.055446036
48	0xbc8a9f89	-0.016921775
49	0x3c840871	0.016117306
50	0x3d48d5a1	0.049031857
51	0x3d7b5694	0.061361864
52	0xbd3fb6d0	-0.046805203
53	0xbc614ab6	-0.013750723
54	0x3e4be9fc	0.19913477
55	0xbde06c42	-0.109581485
56	0x3dcc3ea2	0.09972884
57	0x3da25e27	0.079281144
58	0x3d0b8b78	0.034068555
59	0xbd2e53a0	-0.04256022
60	0x3d409eff	0.04702663
61	0xbc738061	-0.014862151
62	0x3ce47942	0.027889851
63	0x3c9d1ba9	0.019178228
64	0xbd18aeee	-0.0372762
65	0x3e3bc86d	0.18338175
66	0xbccd92c9	-0.025094407
67	0x3d9c111a	0.07620449
68	0xbe31c175	-0.17358954
69	0xbdf4a459	-0.11945409
70	0xbdd7c4fe	-0.1053562
71	0xbd4e487f	-0.050362106
72	0x3cd97a1b	0.026547482
73	0xbd4df1d3	-0.05027945
74	0xbe114d34	-0.14189607
75	0xbd939266	-0.07205658
76	0x3e08b04b	0.133485
77	0x3d47ccba	0.048779227
78	0x3d838430	0.06421697
79	0xbdc1ae93	-0.094571255
80	0x3d99be0a	0.0750695
81	0x3d904bbe	0.07045697
82	0x3d84c40e	0.06482707
83	0x3b2abee7	0.0026053728
84	0x3d36261a	0.04446993
85	0xbd2c124a	-0.04200963
86	0x3dad38c7	0.08458095
87	0xbd5c0014	-0.053711012
88	0xbd11bd7a	-0.03558109
89	0x3a93d2b2	0.0011278002
90	0x3db61f22	0.08892657
91	0xbdf562bb	-0.11981722
92	0xbd42b3c5	-0.047534723
93	0xbd15200e	-0.036407523
94	0x3e08826f	0.13331006
95	0xbe1eea1a	-0.1551899
96	0xbd0cfa51	-0.034418408
97	0x3da293b2	0.07938327
98	0xbd89e483	-0.06733038
99	0xbc1b689c	-0.00948539
100	0xbcd0565e	-0.025431808
101	0xbc48eb91	-0.012263195
102	0x3d94d429	0.07267029
103	0x3be82668	0.0070846565
104	0x3e163a8f	0.14670776
105	0xbcdc1742	-0.026866559
106	0xbc4e447f	-0.012589573
107	0x3db05c08	0.086113036
108	0xbb5f986a	-0.0034117945
109	0xbd026699	-0.031836126
110	0x3c3b5654	0.011434156
111	0x3cfb2ccb	0.030661007
112	0xbdaefa79	-0.085438676
113	0x3c93da58	0.01804845
114	0xbcaca42e	-0.02107438
115	0x3d6c86a0	0.057745576
116	0x3d647597	0.055776205
117	0xbd271b5f	-0.040797587
118	0x3d53676c	0.051612303
119	0x3b9128fe	0.0044299355
120	0xbc936d60	-0.01799649
121	0xbd24b768	-0.040213972
122	0xbc849db4	-0.01618848
123	0x3d257dfb	0.040403347
124	0x3da20307	0.07910734
125	0xbd0c3379	-0.034228776
126	0x3dd2f683	0.10300925
127	0xbd66f558	-0.05638632
128	0xbe3094b7	-0.1724423
129	0x3da5845c	0.08081886
130	0xbdd37e55	-0.1032683
131	0xbc8e3070	-0.017357081
132	0xbd50fd09	-0.051022563
133	0x3a30d00c	0.00067448686
134	0x3e09b6f4	0.13448697
135	0x3d8d1cfe	0.068902954
136	0xbd8afcad	-0.06786475
137	0xbdafd3be	-0.085853085
138	0xbd2a8e32	-0.041639514
139	0x3dc6335a	0.09677763
140	0xbdeecc20	-0.116600275
141	0xbc97bcfe	-0.018522736
142	0x3dbc8fcc	0.092071146
143	0x3cb16fe6	0.021659803
144	0x3d58979b	0.052878957
145	0x3cc7bada	0.02438109
146	0xbe31b880	-0.17355537
147	0x3d426bd8	0.04746613
148	0x3cb096c4	0.021556266
149	0x3cbc548d	0.022989536
150	0x3e1f8c2e	0.15580818
151	0xbd179492	-0.037006922
152	0x3e2ac24d	0.16675682
153	0x3ddf94cf	0.10917055
154	0xbcc6f0db	-0.02428477
155	0xbd2d5d53	-0.04232533
156	0xbdd16b1b	-0.10225507
157	0x3c30822d	0.010773224
158	0xbd9b17d7	-0.075729065
159	0x3d542e7c	0.051802143
160	0x3d8161e0	0.06317496
161	0xbe12e1c4	-0.14343935
162	0xbd9aafaf	-0.0755304
163	0x3e2d9f69	0.16955341
164	0xbe2d214a	-0.1690723
165	0x3d274cd5	0.040844757
166	0x3ce02aba	0.027364124
167	0xbd1ae0b7	-0.03781196
168	0x3db17d6d	0.08666501
169	0xbbb117ef	-0.0054044644
170	0x3d2ae1c4	0.041719213
171	0x3df53e1d	0.11974738
172	0x3d0ea52e	0.034825496
173	0xbc8309b0	-0.01599583
174	0xbce94b41	-0.028478267
175	0xbda481fa	-0.080326036
176	0x3de12310	0.10993016
177	0xbddb091d	-0.106950976
178	0x3dd0e482	0.101998344
179	0x3d82888f	0.06373703
180	0x3cef94fc	0.029245846
181	0x3e3f2448	0.18666184
182	0x3d61826b	0.055056017
183	0xbc75d2c5	-0.015003865
184	0xbdb8a1c4	-0.09015229
185	0xbbf2d1d0	-0.0074102655
186	0xbd4439c5	-0.047906656
187	0xbd2ac8a9	-0.04169527
188	0xbdab9a94	-0.08379093
189	0xbdd57aa0	-0.104237795
190	0x3dacdd43	0.0844064
191	0xbd9a3e73	-0.075314425
192	0x3d834e6b	0.064114414
193	0x3c522ddf	0.012828319
194	0xbe49d8a6	-0.19711551
195	0x3d05fb95	0.03271063
196	0x3d0abc5e	0.033871047
197	0xbd1cb0a2	-0.038254388
198	0x3d786721	0.060645226
199	0x3e09d6cf	0.13460849
200	0xbd8d531e	-0.06900619
201	0xbe59329e	-0.21210715
202	0xbd71d691	-0.059042517
203	0xbe332e40	-0.17498112
204	0xbc5d35d3	-0.013501602
205	0xbda440da	-0.08020182
206	0xbba1578c	-0.0049237665
207	0xbc6665bf	-0.014062344
208	0xbdb17a51	-0.08665908
209	0xbd85a348	-0.06525284
210	0xbd58c5e8	-0.052923113
211	0xbe4ecfcf	-0.2019646
212	0xbac69a8d	-0.0015152261
213	0x3e2ad39a	0.16682282
214	0xbe020c6f	-0.12700056
215	0xbe33c93e	-0.17557237
216	0x3d4fd8a3	0.05074371
217	0xbbeedd50	-0.007289566
218	0x3ca9261f	0.02064806
219	0xbd18019b	-0.037110906
220	0x3ca5ebcc	0.020254038
221	0x3d86c36d	0.06580243
222	0x3b738f9a	0.003716445
223	0xbe04efbe	-0.1298208
224	0xbabe0bbe	-0.0014499349
225	0x3d5ab9bb	0.053399783
226	0xbd01f007	-0.03172305
227	0xbd82a48f	-0.06379043
228	0x3c770528	0.015076913
229	0x3cb2b26a	0.02181359
230	0x3d6346fd	0.05548762
231	0x3da39878	0.079880655
232	0x3c475c5d	0.012168017
233	0x3d92c303	0.07166102
234	0x3d9512fd	0.07279012
235	0x3daaa87b	0.08332916
236	0xbdb6cc0e	-0.08925639
237	0xbc29973d	-0.010350999
238	0xbd770c48	-0.060314447
239	0xbcbf8461	-0.023378553
240	0x3d74e7ba	0.059791304
241	0xbd82dc4a	-0.06389673
242	0x3d2ffafa	0.04296396
243	0x3d6ed0f6	0.05830475
244	0xbdac3e91	-0.08410371
245	0x3d8d131f	0.06888413
246	0x3d888f66	0.06667976
247	0x3d157440	0.036487818
248	0xbc8bfd17	-0.017088456
249	0x3e23c31c	0.15992397
250	0x3da5cc89	0.080956526
251	0xbcf8d2a6	-0.030373883
252	0x3d5f5c1d	0.054531205
253	0xbdd35aad	-0.103200294
254	0x3d5cd611	0.053915087
255	0x3d23c59d	0.03998338

action_model._discrete_distribution.branches.0.weight f4 [3, 128]
0	0x3b9796dc	0.004626138
1	0xbbaae28b	-0.0052149943
2	0xbb6c3ed7	-0.0036048198
3	0xbb112f48	-0.0022153426
4	0xbc361d01	-0.0111153135
5	0xbb534fa2	-0.003224351
6	0x3a9d01cc	0.0011978685
7	0xba143f6e	-0.0005655204
8	0xbc04a452	-0.008095818
9	0x3c2e6bc2	0.010645809
10	0xbbc12be3	-0.0058951243
11	0x3b949737	0.004534628
12	0x3b5bd435	0.0033543233
13	0xbb8d8062	-0.004318283
14	0x3c58adca	0.013225028
15	0xbaa060df	-0.0012235901
16	0xbb64227d	-0.0034810596
17	0x3ca260f6	0.019821625
18	0x3b1c2f2f	0.0023831835
19	0x3b639a52	0.0034729433
20	0x3c0010a3	0.0078164665
21	0xbb2f9ccd	-0.0026796341
22	0x3c46a3b3	0.01212399
23	0x3a34ad07	0.0006892238
24	0xbad4edc2	-0.0016245174
25	0xbb8bd953	-0.0042678504
26	0x3bc3e097	0.005977701
27	0xba2d2de3	-0.0006606264
28	0xbb92c08f	-0.004478521
29	0x3b878241	0.0041354005
30	0x3b96a7c5	0.0045976364
31	0xbbb22195	-0.005436132
32	0x3c33cf7d	0.010974762
33	0x3be037d2	0.006842592
34	0xbc2e1a2a	-0.010626355
35	0x3bc15664	0.005900191
36	0x3c3bef0b	0.0114705665
37	0x3c6504f5	0.013978233
38	0xbab69f89	-0.0013933043
39	0x3a4c9837	0.0007804664
40	0xbc93455b	-0.017977407
41	0x3b750593	0.0037387356
42	0xbc628cef	-0.0138275465
43	0xbae2eb82	-0.0017312618
44	0xbb49c0ea	-0.0030785152
45	0xbc0bd0be	-0.008533655
46	0xbb2e0c31	-0.002655756
47	0x3c3b5a7b	0.011435146
48	0x3c27149b	0.010197784
49	0x3a353779	0.0006912868
50	0x3bce8815	0.0063028433
51	0x3c392d03	0.011302236
52	0x3ac0d1bb	0.0014710942
53	0xbc0aafd2	-0.00846477
54	0x3b74daa7	0.0037361772
55	0x3c2430e7	0.010021425
56	0xbb891e64	-0.004184531
57	0xbd090fe7	-0.03346243
58	0x3b83b15f	0.004018947
59	0xbc773c1b	-0.015090014
60	0xbc1a3b3c	-0.009413537
61	0xbaa4a7e7	-0.0012562246
62	0xbbb8a5bd	-0.005634992
63	0x3944fc7f	0.00018786079
64	0xba0be1bd	-0.0005336067
65	0x3c2d61bf	0.0105823865
66	0xb91846a4	-0.00014522165
67	0xbab4de16	-0.0013799097
68	0xbac26d53	-0.0014833607
69	0x3bd0174f	0.006350435
70	0xbb260217	-0.0025330835
71	0x3c105ba9	0.008810916
72	0xbb2add37	-0.0026071796
73	0x39609995	0.00021419518
74	0xbb0f9a59	-0.0021912067
75	0x3ca24863	0.019809907
76	0x3c325291	0.010883943
77	0xbc023922	-0.007948192
78	0xbbc6f9c0	-0.006072253
79	0xb9d77b02	-0.00041099644
80	0xbb2df8d2	-0.0026546014
81	0xbb3a281b	-0.0028405252
82	0x3ba12421	0.004917637
83	0x3c4bfe31	0.012450741
84	0xbc57b8ab	-0.013166587
85	0x3bcd1685	0.006258788
86	0x3c079c4d	0.008277011
87	0xba6d5bba	-0.0009054501
88	0x3bf2830d	0.0074008764
89	0xbab18e8c	-0.0013546511
90	0x3bebb28b	0.007192915
91	0x3bdf96d8	0.006823402
92	0xbc28866f	-0.010285958
93	0x3c0c5252	0.008564549
94	0xbbd89d77	-0.006610568
95	0x3a94a243	0.0011339862
96	0x3cb071bf	0.021538613
97	0xbab4865c	-0.0013772952
98	0x3c9082cd	0.017640496
99	0xbc803a9f	-0.015652953
100	0x3c0043ea	0.007828692
101	0xbc44a90f	-0.012003197
102	0xba407403	-0.0007341506
103	0xb9487cb8	-0.00019119948
104	0xbc30cf7b	-0.010791655
105	0x3acb3164	0.001550239
106	0xbb802dda	-0.003911716
107	0x3b443c17	0.0029943043
108	0xbb09e076	-0.002103833
109	0x3c08a08e	0.0083390605
110	0x3c0422f2	0.008064972
111	0xbcfa30d2	-0.030540857
112	0x3b95e2d0	0.0045741573
113	0xbb03fec1	-0.0020140859
114	0x3b3fd683	0.0029272146
115	0xbc74f822	-0.014951738
116	0xbc499012	-0.012302415
117	0xbc870066	-0.016479682
118	0xbba837b7	-0.005133595
119	0xbb20942e	-0.0024502384
120	0xbc38a221	-0.011269123
121	0x3b7e94af	0.0038845947
122	0xbc44b29f	-0.012005477
123	0x3aa3648f	0.0012465882
124	0x3aa1c01e	0.001234058
125	0xbc4fd317	-0.012684605
126	0x3b981494	0.004641125
127	0x3bb3b75d	0.005484505
128	0x3bdb0735	0.0066842088
129	0xb98e7d8c	-0.0002717789
130	0x3c0f1dcf	0.008735134
131	0x3c362f1f	0.011119633
132	0xbc2cd733	-0.010549354
133	0x3bce789f	0.0063010002
134	0x3c261a4b	0.010138105
135	0xbcb6cadb	-0.022313526
136	0xbcc89b74	-0.024488188
137	0x3c28d19b	0.01030388
138	0x3b458dd2	0.0030144346
139	0x3a69a233	0.0008912414
140	0x3c00cb68	0.007860996
141	0x3b872a2b	0.0041249
142	0xbc2a9a66	-0.010412788
143	0x3ba696ea	0.0050839083
144	0x3c09ffbb	0.008422787
145	0xba4925fb	-0.0007673201
146	0xbc03e6b1	-0.008050607
147	0xbc01d2e5	-0.007923816
148	0x3b8df92e	0.004332683
149	0xbb495f4d	-0.003072697
150	0x3c2a85ad	0.010407847
151	0xbc7bf15b	-0.015377368
152	0x3a8fd8d7	0.0010974657
153	0xbc5c9a60	-0.01346454
154	0x3c363760	0.011121601
155	0x3bc4fbdf	0.0060114707
156	0xbbf06085	-0.007335725
157	0x3c04da4f	0.008108689
158	0xbbff3295	-0.0077880123
159	0xbb0fc90a	-0.0021939897
160	0x3b57bdeb	0.0032919596
161	0x3c4ab59f	0.012372403
162	0xbc27d381	-0.010243298
163	0xbc31d2aa	-0.010853449
164	0x3bcf6ea0	0.006330326
165	0xbbc52468	-0.006016303
166	0x3b961d57	0.0045811343
167	0xbc51c3b2	-0.012803005
168	0x3c988d4b	0.018622061
169	0x3c4f6b77	0.012659899
170	0x3be98d93	0.0071274727
171	0xba09729f	-0.0005243215
172	0xbaac7dee	-0.0013160089
173	0xbb740d3d	-0.0037239336
174	0x3c0c8272	0.008576022
175	0x3c009244	0.007847372
176	0xbc1e4e87	-0.009662277
177	0xbc4e99b7	-0.012609891
178	0xbacd8b45	-0.0015681764
179	0xbb07529f	-0.0020648611
180	0x3bd69547	0.006548557
181	0x3a538c95	0.00080699596
182	0xbc342fdc	-0.010997739
183	0x3bcdfd9f	0.0062863375
184	0x3c8f8b3b	0.017522445
185	0x3c04e3ac	0.008110922
186	0xbb9570e6	-0.0045605777
187	0x3bc52f4f	0.0060176025
188	0xbc3b309c	-0.011425164
189	0x3c76c607	0.015061862
190	0x3be440d8	0.006965738
191	0xba1d7ce5	-0.00060076854
192	0xbbb76e1b	-0.0055978424
193	0xbc17e649	-0.009271213
194	0xbc0e3129	-0.008678713
195	0xb829d659	-4.0492367e-05
196	0x3bf20495	0.0073858
197	0xbbd33d22	-0.0064464966
198	0x39e98e5f	0.00044547298
199	0xb7b2c698	-2.1311731e-05
200	0x39997af2	0.00029274035
201	0x3c105e0b	0.008811484
202	0xbb55f0e0	-0.0032644793
203	0xbc12197a	-0.008917207
204	0x3cb157cb	0.021648308
205	0xbba0901b	-0.004899991
206	0xbc0123dd	-0.007882086
207	0x3ba0b683	0.0049045696
208	0xbadb3ddb	-0.0016726808
209	0x3c40bcd7	0.011763773
210	0xbbec46f5	-0.007210607
211	0x3b966df0	0.0045907423
212	0x3bc3e68f	0.0059784125
213	0xbbbd3adf	-0.0057748402
214	0x3be2d553	0.006922403
215	0xbb9074bb	-0.0044084466
216	0x3b458e16	0.0030144504
217	0x3b3ef65d	0.0029138543
218	0xba8d0c34	-0.0010761083
219	0x3c656462	0.014000984
220	0x3cbbbbf3	0.02291677
221	0x3bd909ba	0.006623474
222	0xbbf024e5	-0.007328617
223	0x3c2145e9	0.009843328
224	0x3c0cc0ae	0.00859086
225	0xbc323486	-0.01087678
226	0x3ab9b4fa	0.0014168315
227	0xbc4b7312	-0.012417572
228	0x3b966839	0.004590061
229	0x3b45e901	0.0030198696
230	0xbbefe7bf	-0.0073213275
231	0xbc16ce33	-0.009204435
232	0x3b5d4c9f	0.0033767594
233	0x3c039d4f	0.008033111
234	0x3cc1b020	0.023643553
235	0xbba09a7d	-0.004901229
236	0xbb441d47	-0.0029924677
237	0xbc5a21d5	-0.01331373
238	0xb9374aef	-0.00017480155
239	0x3c193821	0.009351761
240	0x3c67e9e0	0.014154881
241	0xbc820401	-0.01587105
242	0x3bd5284b	0.0065050474
243	0x3c35560c	0.011067878
244	0xbab0ca07	-0.0013487943
245	0xb9b69f47	-0.00034832416
246	0xbc187a2f	-0.009306475
247	0xbadaaf5b	-0.001668434
248	0xbb065b33	-0.0020501136
249	0x3c5d9c38	0.013526015
250	0x3bf7953b	0.0075556315
251	0xbab494ea	-0.001377729
252	0xba3ebc02	-0.000727594
253	0x3c0670b8	0.008205585
254	0xbc65539b	-0.013996984
255	0xbc294e14	-0.010333557

action_model._discrete_distribution.branches.0.bias f4 [3]
0	0x00000000	0.0
1	0x00000000	0.0
2	0x00000000	0.0

action_model._discrete_distribution.branches.1.weight f4 [2, 128]
0	0xbc4e23e7	-0.012581802
1	0xbba9cd37	-0.005181934
2	0xbc1218fa	-0.008917088
3	0xbc4c62e7	-0.012474752
4	0xbb25a506	-0.0025275364
5	0xbc4f039a	-0.012635136
6	0x3bed2d28	0.007238049
7	0x3c2b1f7d	0.010444519
8	0xbc44f5c3	-0.012021485
9	0x3c5ff10a	0.013668308
10	0x38c8e04b	9.578521e-05
11	0xbaee707b	-0.0018191481
12	0x3bea7603	0.0071551814
13	0x3abb1abe	0.0014274938
14	0xbb313c93	-0.0027044162
15	0x3c351c72	0.011054145
16	0x3af1bceb	0.0018443143
17	0x3ba82f4f	0.0051325927
18	0x3c0a5b76	0.008444658
19	0x3b40f02f	0.0029440036
20	0x3b83ea37	0.0040257233
21	0xb9b76d60	-0.0003498597
22	0x3cbe1c43	0.023206836
23	0x3c093d03	0.008376363
24	0x3c4bd4b1	0.012440846
25	0x388eb471	6.8046975e-05
26	0xbad13ded	-0.001596389
27	0xbbad0d1b	-0.0052811033
28	0x3a98f84b	0.0011670677
29	0xbc4218cd	-0.011846733
30	0x3beef7d5	0.0072927275
31	0x3cb9e89f	0.02269393
32	0x3befd342	0.007318885
33	0x3c51eb8f	0.012812509
34	0x3b934d67	0.004495311
35	0xbb8281f7	-0.003982778
36	0xbc057073	-0.008144486
37	0xbbd8a220	-0.0066111237
38	0x3b1cb9ff	0.0023914573
39	0x3c192fbf	0.009349762
40	0x3c1f9d00	0.009742022
41	0x3b9f8c0d	0.0048689903
42	0x3c2829c7	0.010263867
43	0xbba0e06b	-0.004909565
44	0xbbae6482	-0.00532204
45	0x3bf8cef3	0.0075930296
46	0xbc19a69e	-0.009378104
47	0xbaa8df8d	-0.0012884006
48	0xbb9cc6dc	-0.004784448
49	0xbc4afce7	-0.012389398
50	0x3c037007	0.008022315
51	0xbc56fbbb	-0.013121541
52	0xbb4ff2cd	-0.0031730414
53	0xbb88608b	-0.0041618994
54	0xbbbdeeeb	-0.0057963035
55	0x3a6b3567	0.0008972496
56	0x3c2da31b	0.010597969
57	0xbb131a3f	-0.0022446064
58	0xbc12ffed	-0.00897215
59	0x390f8404	0.00013686722
60	0x3ad7fcf5	0.0016478585
61	0xbc78c70a	-0.015184173
62	0x3a890f29	0.0010456789
63	0xbba18368	-0.004928995
64	0xbbf5f478	-0.0075059496
65	0xbc4a7b1b	-0.012358452
66	0xbb406190	-0.0029355027
67	0x374aaa12	1.2079736e-05
68	0xbb0b00b3	-0.0021210134
69	0xbc68c362	-0.014206739
70	0x3aa18bd7	0.0012325001
71	0xbbb36665	-0.005474853
72	0x3afde69a	0.0019371093
73	0x3c81b20c	0.01583197
74	0x3b4e9390	0.003152106
75	0xbb06d712	-0.002057497
76	0x3cacbe87	0.021086944
77	0x3c43a937	0.011942199
78	0xbb378c16	-0.0028007082
79	0x3c8b0ce3	0.016973918
80	0xbca87742	-0.020564679
81	0x3b982ecf	0.004644252
82	0x3c44900d	0.011997235
83	0x3c1d8e28	0.009616412
84	0xb915dd9d	-0.00014292305
85	0x3c2b2f7e	0.010448335
86	0xbabdee99	-0.0014490663
87	0x3c8fe2f2	0.01756427
88	0x3baeb21c	0.005331291
89	0x3bc590fa	0.0060292454
90	0x3bd53b98	0.0065073483
91	0xbb16fc12	-0.002303843
92	0xbc009f02	-0.00785041
93	0xbbd312ab	-0.0064414344
94	0x3bf3b28b	0.0074370555
95	0x3c48147b	0.012211914
96	0xbbd37107	-0.006452683
97	0x3c0b116f	0.008488043
98	0xbbe7ec75	-0.0070777484
99	0xba282ecf	-0.00064156664
100	0x3b92376c	0.004462173
101	0x3c206037	0.009788564
102	0xbc33b3ac	-0.01096813
103	0x3c2d67fe	0.010583876
104	0xbad1401f	-0.0015964544
105	0xbaa1ad0f	-0.0012334901
106	0x3c219617	0.009862444
107	0x3a11b43b	0.00055581675
108	0x3c2f73db	0.010708774
109	0xbc74d560	-0.014943451
110	0xbbef904b	-0.0073109022
111	0x3bc912c3	0.00613627
112	0xba9acc76	-0.0011810202
113	0x3bd9a3cb	0.00664184
114	0x3c157073	0.009121048
115	0xba8b893a	-0.0010645755
116	0xbbc7e201	-0.00609994
117	0x3ba27bac	0.0049585905
118	0xba9fb297	-0.0012183961
119	0xba7690ea	-0.0009405749
120	0x3b2fb5f7	0.002681134
121	0xbc33c66b	-0.0109725995
122	0x3ba5ab8c	0.0050558504
123	0x3b4fb1ba	0.0031691627
124	0xbb7f1ac8	-0.0038925875
125	0x3c03296a	0.008005479
126	0x3b859e2d	0.004077694
127	0x3bddc250	0.0067675486
128	0x3b37e9aa	0.0028062859
129	0xbbcfc3dd	-0.0063404874
130	0x3bb5a716	0.0055436
131	0xba7adb0d	-0.0009569384
132	0xbb92abea	-0.00447606
133	0x3c70214d	0.014656377
134	0xb7c47472	-2.3419245e-05
135	0xbb0c0272	-0.0021363762
136	0x3c363d8c	0.011123072
137	0x3c8f1a26	0.017468523
138	0x392ce3c7	0.00016488052
139	0x3c269673	0.010167706
140	0xbca37e0a	-0.019957561
141	0x3a3d8668	0.0007229806
142	0x3bdaea87	0.00668079
143	0xbb6f0a3f	-0.0036474613
144	0x3c502d6b	0.012706141
145	0x3bedcf82	0.007257403
146	0x3bc5a4db	0.006031615
147	0x3c846bdf	0.016164718
148	0xba097e2b	-0.0005244936
149	0xbb0548b1	-0.0020337517
150	0x3c2a534f	0.010395839
151	0x3a97d70f	0.0011584478
152	0x3b18113b	0.002320363
153	0x3be8a283	0.007099451
154	0x3b043370	0.002017226
155	0xbaab78ac	-0.0013082228
156	0xb9e8e99d	-0.00044424544
157	0xbcac926f	-0.021065919
158	0x3c4351a4	0.01192132
159	0xbb8fb41a	-0.0043854835
160	0x3c8cecc9	0.017202752
161	0x3bddfdab	0.0067746243
162	0xbba7e70b	-0.005123978
163	0xba7fce8a	-0.0009758255
164	0xbb4d0ac2	-0.003128693
165	0xbb2c669c	-0.0026306277
166	0x3babfe3e	0.005248814
167	0x3c346929	0.0110114
168	0x3a89b153	0.0010505117
169	0x3c0caafd	0.008585689
170	0x3b1a93f3	0.002358672
171	0xbc588fda	-0.013217891
172	0x3b977db6	0.00462314
173	0xbbcd7c47	-0.0062709185
174	0xbc19a9bc	-0.009378847
175	0xbc1eeb9c	-0.009699728
176	0x3bbef78e	0.0058278507
177	0xbc7a7203	-0.015285972
178	0xbc0cc56f	-0.008591994
179	0xbc3e0c0b	-0.011599551
180	0x3b1604cb	0.002289104
181	0xbc12b700	-0.008954763
182	0xbc1ed85a	-0.009695137
183	0xbb4ea6ab	-0.0031532447
184	0x3bad27fd	0.005284308
185	0x3bc76712	0.006085285
186	0x3b89c1e8	0.0042040236
187	0xbc0e811d	-0.008697775
188	0xbb6f6a60	-0.003653191
189	0xbc17d35f	-0.009266703
190	0xbbe5cc85	-0.007012906
191	0xbcb1549b	-0.021646788
192	0xbcb9d08b	-0.022682449
193	0x3a29b9b0	0.0006474508
194	0xbca746d5	-0.020419518
195	0x3a872203	0.0010309819
196	0x3b0b991f	0.0021300984
197	0xbbb994ae	-0.005663476
198	0xba906e1f	-0.0011019147
199	0x3a55116d	0.0008127902
200	0x3c17d1ae	0.0092663
201	0xbc14c1f3	-0.009079444
202	0x3ba80283	0.0051272525
203	0xbbf31d0f	-0.0074192355
204	0xba80db0e	-0.0009830908
205	0xba000e52	-0.00048849464
206	0x3b01dd47	0.001981573
207	0x3b8c8344	0.004288109
208	0xbc000521	-0.007813723
209	0xbbf99f9d	-0.0076179043
210	0xbb8cf692	-0.0043018544
211	0xbb4fd6a3	-0.0031713627
212	0x3bca6547	0.006176624
213	0x3c75eb37	0.015009693
214	0x3c4e6287	0.012596733
215	0x3c2969fa	0.010340208
216	0xbb079f48	-0.0020694304
217	0xbbc467f2	-0.0059938366
218	0x3aa6d77b	0.0012729013
219	0xbb9165df	-0.004437193
220	0x3aecd3e0	0.0018068515
221	0xbc9379c3	-0.018002396
222	0xbbf0ff70	-0.0073546693
223	0x3c54da4d	0.0129915
224	0x3bf2bbcb	0.0074076406
225	0xbbe5679b	-0.007000876
226	0xbac262d2	-0.0014830476
227	0xbc345b5b	-0.011008109
228	0x3c76479a	0.01503172
229	0x3aa482d9	0.0012551203
230	0x3b3cc233	0.0028802275
231	0xbbbc007c	-0.0057373624
232	0xbbfbff62	-0.007690356
233	0xbbbf1490	-0.0058313087
234	0x3c2a6ff2	0.010402666
235	0xbc1b0e57	-0.009463868
236	0x3bd751d8	0.006571036
237	0x3c64e58d	0.013970745
238	0xbacf2d6a	-0.0015806381
239	0x3cbeb81a	0.023281146
240	0x3cb1f2cd	0.021722222
241	0xbacfbd82	-0.0015849324
242	0xbbe32780	-0.006932199
243	0xbb846e13	-0.004041442
244	0x3ba1aa41	0.004933626
245	0x3b682e3f	0.0035427955
246	0xbc14942b	-0.009068529
247	0x39bd53d9	0.0003611136
248	0xbb24607e	-0.0025081928
249	0xbac6a1b6	-0.0015154395
250	0x3c4f8e38	0.012668185
251	0xbc4f7e37	-0.012664369
252	0x3c91d1d1	0.017800244
253	0x3c3ecdc2	0.011645736
254	0x3c06a8ff	0.008219003
255	0x3c8ffdfe	0.017577168

action_model._discrete_distribution.branches.1.bias f4 [2]
0	0x00000000	0.0
1	0x00000000	0.0

onnx::Div_68 f4 [7]
0	0x3dbdc66a	0.0926636
1	0x3e8def37	0.2772157
2	0x3e201b51	0.1563542
3	0x3db450fc	0.08804509
4	0x3e95ee68	0.29283452
5	0x404ba2d7	3.181814
6	0x3dfe82da	0.12427302
