results/phase1.3/PlayerAgent/PlayerAgent-3988.pt (torch, 156188 bytes, 22 tensors)

discrete_act_size_vector f4 [1, 2]
00000000: 0000 4040 0000 0040
3.0 2.0

network_body.observation_encoder.processors.0.normalizer.running_mean f4 [7]
00000000: 4a9c a83e ceb1 8dbf 44fb adbe 0000 0000
00000010: fea6 fe3d ae21 39bd dbad 7f3f
0.3293174 -1.1069887 -0.33980763 0.0 0.12434195 -0.045198135 0.9987466

network_body.observation_encoder.processors.0.normalizer.running_variance f4 [7]
00000000: 99e2 8d3f b6f5 1044 ac11 ad42 0000 803f
00000010: c5a9 d943 f573 ef45 54e6 1f41
1.1084777 579.83923 86.534515 1.0 435.32632 7662.4946 9.993732

network_body.processors.0.normalizer.running_mean f4 [7]
00000000: 4a9c a83e ceb1 8dbf 44fb adbe 0000 0000
00000010: fea6 fe3d ae21 39bd dbad 7f3f
0.3293174 -1.1069887 -0.33980763 0.0 0.12434195 -0.045198135 0.9987466

network_body.processors.0.normalizer.running_variance f4 [7]
00000000: 99e2 8d3f b6f5 1044 ac11 ad42 0000 803f
00000010: c5a9 d943 f573 ef45 54e6 1f41
1.1084777 579.83923 86.534515 1.0 435.32632 7662.4946 9.993732

network_body._body_endoder.seq_layers.0.weight f4 [128, 7]
00000000: 497e 733e 9d15 763e 9633 e7be 7e7f 5b3f
00000010: 7988 963e 0769 503e 81b1 90bd fae7 f3bc
00000020: eacd 04bf 8c2d 663f ca71 883d 43aa dbbe
00000030: 4d90 90be e37f c13e 86c4 21be 8888 eb3e
00000040: 29fd f7be eeb3 8f3d bcdb 9bbe 1ede a93e
00000050: 97ff 863e 9a1f e73d 7f68 83bd cc51 ac3e
00000060: 6323 de3e 4d4b 2e3e 1815 0f3f 2e49 a9be
00000070: efaf a1be 0f0d 5c3e 1b46 daba d009 a63e
00000080: 1180 d8be 7de6 c5be 6fd1 e83d 80ba ccbd
00000090: cff1 2cbe 4e19 553e 512f 043a e6eb 3bbd
000000a0: 9808 7b3f 67bd f63d 184f 99be 0bdf 62be
000000b0: c4fe 8b3e d759 813e f971 56bf eec6 6b3e
000000c0: f405 01be 868f f93e 193f cb3d 32e6 0fbd
000000d0: 53ba 63be 0096 443e f256 5cbe 20e4 163f
000000e0: 8bd9 a7be 47ef da3e 8807 a53e c166 5cbd
000000f0: b0b0 503f 3ba0 883d 8488 483f 4bf8 11bf
00000100: 3a35 ce3e 5cbb cf3d f81f e33e 9284 dd3e
00000110: 5936 f13d ed82 6b3e 9182 043f 5391 f13e
00000120: c7ad aabe e19f 8abd acc0 c13e 3c2c c8be
00000130: 53f5 ea3e c989 03bf 7f4f 4fbe d0c8 47bd
00000140: 857e dfbc 5d6e 41be ca0e afbe 5c39 e33d
00000150: b285 2d3e 9584 aabe a2c9 673f 109d 653e
00000160: 4bf2 b1bc 0617 36bf a543 1e3e 7b80 24be
00000170: f03d b0be 3f47 cb3d f0c4 69be ff42 f63e
00000180: 41f1 98be 9ce7 023e 7d34 403f 5145 a2bd
00000190: 40fe 363f d789 77bc 0cfc b9be dc25 95be
000001a0: b624 293e a0f7 dcbe 8542 3fbf 518f dfbd
000001b0: e165 843e 3bed 57bf a9ee 2fbe 3bef e53d
000001c0: 1c4c 0cbe e87c b9bd 4050 72be 6df7 c03e
000001d0: b404 f1bd e20e 6e3f a6c0 1e3f 2bcf fcbe
000001e0: e92b 7d3e be7a 463e c766 83bc f3fe 613e
000001f0: d5fa 28bd 088b a8bd 9d78 f63e cc77 023e
00000200: d226 383d 433d 3d3e a89e 463e 49d8 8f3e
00000210: df81 a7be f508 f6bd 2dde eabe c10b 3dbf
00000220: 77d5 fa3c 508c 24bf 6886 1cbf 22c7 22be
00000230: 014f 2d3f 5af4 73bd 59e1 f93e 4b15 ac3e
00000240: 3053 ae3e a00a 39be e9b7 8cbe 3c71 293f
00000250: 1dcf 07bf 339a fcbd 7543 653e 6060 403e
00000260: 58bf c9bd 762d 563d 1250 2e3d 5442 d2bd
00000270: 25be 9c3d 6185 383e ff94 a3be c577 a83e
00000280: d77c 25bd 996c c13e bc81 723e ac01 81bc
00000290: d580 923e 19a3 d0bd 3ef3 0ebf f6b3 8c3e
000002a0: 3b34 05bd bfe7 d4bd dc47 c6be 03b0 2bbd
000002b0: 62a0 d73d 6c03 b73e 7b46 4dbf dc30 60bd
000002c0: bf22 bdbd 4ec3 303f c85f 2ebd 65d4 a5be
000002d0: 58ec 7fbd fb12 a03e 312b 82bf 6702 323e
000002e0: 9ab7 843e 9b7a 753e 9bf9 02bf 845a ce3e
000002f0: 65aa 143f 0e58 ccbe 0076 063f fc02 7fbe
00000300: 563e 723e 3485 013f 3122 11bd 44bc 443f
00000310: 4c6e babe b4d3 1e3f cb24 42be 7ab6 b43d
00000320: b3a5 fc3e 708d 763e 2251 4dbe 879a 08be
00000330: 1fa3 013e 52cc 7d3e 641f 72be 1ade bfbe
00000340: d400 213d 6760 06bf ce3a a9be 90f2 103f
00000350: 2788 213f c1ac 5438 54ca b1bc 67e7 36be
00000360: edf8 f4be 2b8c 07bf ee4f 373e a88c c73d
00000370: 0dfa 46bc dfc1 d6bc 24be acbd 1ed8 1c3f
00000380: f1e0 21bf 7db5 61be b150 d0bd 3c05 5d3e
00000390: 1a4b 47bf ecbd 043d 847a 04bf 6d04 ba3e
000003a0: 4efa 063e 9f33 473d 0131 4fbc 5bcf da3e
000003b0: 44ed ae3d d5a1 183f fe0d 173f b9be 91bd
000003c0: f69f b3be d515 3e3e eacd ad3e 0a36 abbc
000003d0: 880c d43e 9704 0fbf d475 6a3c 29c9 a73e
000003e0: 8eca 023f 6939 073e 127c 903d 5310 5dbe
000003f0: 86c8 8b3d 6744 ae3e ff0a 163e 43cd 38bd
0.23778643 0.24031682 -0.45156544 0.8574141 0.29400995 0.20352565 -0.07065106 -0.029773701
-0.518767 0.8991325 0.066623285 -0.42903337 -0.28235093 0.37792882 -0.15797624 0.46002603
-0.48435333 0.07016741 -0.30441082 0.33177274 0.26366875 0.112853244 -0.064164154 0.33656156
0.43386373 0.17020912 0.5589156 -0.33063644 -0.3157954 0.21489356 -0.0016652973 0.3242936
-0.42285207 -0.3865241 0.11368071 -0.099965096 -0.16889118 0.20810434 0.0005042451 -0.045879267
0.9805999 0.120478444 -0.29943156 -0.22155397 0.27342808 0.25263855 -0.8376766 0.23025104
-0.12599927 0.48742312 0.09924144 -0.03513164 -0.22239046 0.19197845 -0.21517542 0.5894184
-0.3278316 0.4276068 0.32232308 -0.05380893 0.81519604 0.066711865 0.78333306 -0.5701949
0.40274984 0.10143158 0.44360328 0.43265206 0.11777944 0.22999163 0.5176173 0.47181186
-0.33335707 -0.06768776 0.3784231 -0.39096248 0.45890293 -0.5138212 -0.20245169 -0.048775494
-0.027282009 -0.18889757 -0.3419097 0.11094925 0.16945532 -0.33304277 0.9054204 0.22423196
-0.02172198 -0.7112888 0.15455492 -0.16064636 -0.34422255 0.099256985 -0.22829032 0.4809799
-0.29871562 0.12783664 0.7508009 -0.07923377 0.71481705 -0.015108547 -0.3632511 -0.29130447
0.1651791 -0.43157673 -0.74710876 -0.10916007 0.25858977 -0.8434636 -0.17180885 0.1122727
-0.13700908 -0.09057027 -0.23663425 0.3768877 -0.11768475 0.9299146 0.6201271 -0.49376807
0.24723782 0.1938276 -0.016040219 0.22069912 -0.041254837 -0.08229643 0.48138896 0.12741011
0.044958897 0.184804 0.1939646 0.280947 -0.3271627 -0.12013427 -0.45872632 -0.7384606
0.030619366 -0.642766 -0.6114259 -0.15896276 0.67698675 -0.059559204 0.4880474 0.33609995
0.34047842 -0.1807046 -0.27484062 0.66188407 -0.53050405 -0.12334099 0.22389014 0.18786764
-0.09850949 0.05228945 0.04255683 -0.10266557 0.07653455 0.1801963 -0.31949612 0.32903877
-0.04040226 0.37778166 0.23682302 -0.015747868 0.28613916 -0.101873584 -0.5583991 0.2748105
-0.032520514 -0.103957646 -0.387267 -0.041915905 0.105286375 0.35744798 -0.8018567 -0.054734096
-0.09235143 0.6904801 -0.042571813 -0.32388607 -0.062481254 0.3126448 -1.0169431 0.17383729
0.25921327 0.23972552 -0.5116212 0.40303433 0.580725 -0.3991093 0.52523804 -0.24903482
0.23656592 0.50593877 -0.035432998 0.7684977 -0.36412275 0.62041783 -0.18959348 0.08823867
0.49345168 0.24077392 -0.20050481 -0.13340198 0.12659882 0.24784973 -0.23644787 -0.37474138
0.03930743 -0.5249085 -0.33052677 0.5662012 0.63098377 5.070563e-05 -0.021702923 -0.1786171
-0.47846165 -0.52948254 0.17901585 0.09743625 -0.012144578 -0.026215492 -0.08434704 0.6126727
-0.6323386 -0.22041889 -0.10171641 0.21584028 -0.7784897 0.032407686 -0.51749444 0.36331502
0.13181421 0.048633214 -0.012645961 0.42736325 0.085413486 0.59621936 0.59005725 -0.071164556
-0.35082978 0.18563016 0.33946162 -0.020899791 0.4141581 -0.5586638 0.014310319 0.3277066
0.51090324 0.13205494 0.070549145 -0.21588258 0.06825356 0.34036562 0.14652632 -0.045117628

network_body._body_endoder.seq_layers.0.bias f4 [128]
00000000: 0000 0000 0000 0000 0000 0000 0000 0000
00000010: 0000 0000 0000 0000 0000 0000 0000 0000
00000020: 0000 0000 0000 0000 0000 0000 0000 0000
00000030: 0000 0000 0000 0000 0000 0000 0000 0000
00000040: 0000 0000 0000 0000 0000 0000 0000 0000
00000050: 0000 0000 0000 0000 0000 0000 0000 0000
00000060: 0000 0000 0000 0000 0000 0000 0000 0000
00000070: 0000 0000 0000 0000 0000 0000 0000 0000
00000080: 0000 0000 0000 0000 0000 0000 0000 0000
00000090: 0000 0000 0000 0000 0000 0000 0000 0000
000000a0: 0000 0000 0000 0000 0000 0000 0000 0000
000000b0: 0000 0000 0000 0000 0000 0000 0000 0000
000000c0: 0000 0000 0000 0000 0000 0000 0000 0000
000000d0: 0000 0000 0000 0000 0000 0000 0000 0000
000000e0: 0000 0000 0000 0000 0000 0000 0000 0000
000000f0: 0000 0000 0000 0000 0000 0000 0000 0000
00000100: 0000 0000 0000 0000 0000 0000 0000 0000
00000110: 0000 0000 0000 0000 0000 0000 0000 0000
00000120: 0000 0000 0000 0000 0000 0000 0000 0000
00000130: 0000 0000 0000 0000 0000 0000 0000 0000
00000140: 0000 0000 0000 0000 0000 0000 0000 0000
00000150: 0000 0000 0000 0000 0000 0000 0000 0000
00000160: 0000 0000 0000 0000 0000 0000 0000 0000
00000170: 0000 0000 0000 0000 0000 0000 0000 0000
00000180: 0000 0000 0000 0000 0000 0000 0000 0000
00000190: 0000 0000 0000 0000 0000 0000 0000 0000
000001a0: 0000 0000 0000 0000 0000 0000 0000 0000
000001b0: 0000 0000 0000 0000 0000 0000 0000 0000
000001c0: 0000 0000 0000 0000 0000 0000 0000 0000
000001d0: 0000 0000 0000 0000 0000 0000 0000 0000
000001e0: 0000 0000 0000 0000 0000 0000 0000 0000
000001f0: 0000 0000 0000 0000 0000 0000 0000 0000
0.0 0.0 0.0 0.0 0.0 0.0 0.0 0.0
0.0 0.0 0.0 0.0 0.0 0.0 0.0 0.0
0.0 0.0 0.0 0.0 0.0 0.0 0.0 0.0
0.0 0.0 0.0 0.0 0.0 0.0 0.0 0.0
0.0 0.0 0.0 0.0 0.0 0.0 0.0 0.0
0.0 0.0 0.0 0.0 0.0 0.0 0.0 0.0
0.0 0.0 0.0 0.0 0.0 0.0 0.0 0.0
0.0 0.0 0.0 0.0 0.0 0.0 0.0 0.0
0.0 0.0 0.0 0.0 0.0 0.0 0.0 0.0
0.0 0.0 0.0 0.0 0.0 0.0 0.0 0.0
0.0 0.0 0.0 0.0 0.0 0.0 0.0 0.0
0.0 0.0 0.0 0.0 0.0 0.0 0.0 0.0
0.0 0.0 0.0 0.0 0.0 0.0 0.0 0.0
0.0 0.0 0.0 0.0 0.0 0.0 0.0 0.0
0.0 0.0 0.0 0.0 0.0 0.0 0.0 0.0
0.0 0.0 0.0 0.0 0.0 0.0 0.0 0.0

network_body._body_endoder.seq_layers.2.weight f4 [128, 128]
00000000: 3a55 eabc 3575 ad3b 59ae 653b 0827 3abd
00000010: 2164 233c 3b2f 13be faec e13d 77b1 093d
00000020: a80a 03be a9dc a3bc 641c b7bd 67e1 cbbd
00000030: acb9 0abd 8bdd d4bc 6a1b f8bc 7007 b0bd
00000040: 2d59 e43c 24a5 d23d 27ca 6a3c 765e 64be
00000050: ee1c 1cbc ed5c bfbb 2543 66bc fbf0 1abe
00000060: 1a9d 31be eeca ab3c bc61 ed3d 364c eebc
00000070: 834d 8d3d f74c dc3d 5e03 243d 41c4 cbbc
00000080: 35ec cd3d 2975 273c 375e 163e 9017 0d3c
00000090: cab1 ab3d 30fc 363d dc7a 2bbd 3a97 58bd
000000a0: 9e02 acbd 9a20 1ebe 2b3b 493e 8c93 b93d
000000b0: d50b 04be 7b45 393e 9a4a 90bd 29cc 1b3d
000000c0: 98e6 00be 2a9a 9d3d 9c71 2c3d 291d 983d
000000d0: e17b 963d 94d9 073e b2f0 efbd 4440 30bd
000000e0: 67d5 d83c 587b 85bd 95f3 173b 2b22 8f3b
000000f0: 66ab aebd 073c 3abd 0875 b73d 71cb dc3c
00000100: 836a 8c3b bec1 cdbd 693a 7e3d c8b1 763d
00000110: 1dfc ebbd c365 1cbe dc0d 87bc 8419 9cbd
00000120: 581e 5fbc 7c54 c0bb 5f32 ab3d 1957 ee3d
00000130: c0dd db3c d2e1 74bd c709 c4bc 406e 913e
00000140: 0afc 58bb 7c32 173e 8e3b 9ebc 39ef 503d
00000150: 9684 573d a178 903c cbac 6d3d d850 10be
00000160: 70b8 813e e534 703d 56bb bb3b 82a6 68bd
00000170: 39dc b23d 01dd 013c 0372 ff3c f253 c5ba
00000180: 844e a73c 9e03 adbc 010f 9cbd e14c ecbd
00000190: 7d2f 413d 1145 883d d1dd 4d3d 586e a73c
000001a0: 2f7c eb3d 4dbe c0bc 8968 1a3e c6ef fbbd
000001b0: abc0 18bd 687b 813b 1086 1a3e e62b e93d
000001c0: d646 183b 6f26 66bd 10d4 f9bb 16a9 b43c
000001d0: 92be d93c 0567 6ebc 3580 473d fe3e f4bd
000001e0: 749f 64bd 5605 86bd 4f4b 91bd 6be1 67bb
000001f0: 5407 12be 385d c5bd 817e 2bbd 55e4 8abd
00000200: de7a 903b 0015 a93c 91f3 afbd 004f 2ebe
00000210: 8b93 be3d b13a 08be 9ad9 e13d ba14 c83c
00000220: 30e6 9cbd c322 063e 6c99 e3bd 5309 ddbc
00000230: eb28 a83d 9af8 e0bd 3c95 e43d 70d9 69be
00000240: e327 9b3c 98cb 783c 8844 e93c 1a49 483d
00000250: 003e 3c3d d258 d6bd 64e7 223d 3b23 d0bc
00000260: 331a d13c 5ee3 8abd 2b96 2d3d 70c6 183d
00000270: 1811 383e 5423 0bbe d945 613d 94ca d5bb
00000280: d470 d2bc b9e3 0abe faba 693c b50b 86bd
00000290: adfd 143d c086 27bd ccd6 e8bd 1978 9dbc
000002a0: 3df7 c43d 7b3b f53d 1abc 97bd 3f7c ccbd
000002b0: f2b2 0b3e 0b5a 923d 5bab 5b3d dfec febb
000002c0: 467f e0bd 62ca 96bd b5d1 1ebd 1838 843d
000002d0: fcfe 093d 6271 9c3d af8e 95bd c91d 723c
000002e0: adfe 0ebd e672 6e3d b3c6 13bc bc1c fbbc
000002f0: 4d4a 8b3d 587f d3bd f238 d0bd c227 4b3d
00000300: dac5 c8bd 0b07 eb3d 5a5a 203e 0080 d2bd
00000310: 8485 9ebd b3d7 2ebd 179e df3c bd2d c2bb
00000320: 7f4e b83d a96e 8e3c 9664 c8bd 5508 dfbc
00000330: 30a1 993d 8a3f 37bd b6b7 29bd 8993 c63c
00000340: 700a bfbd 7d57 213d d743 9a3d 0360 82bd
00000350: da7b 083d 7a03 873d e837 153d 32b2 c43d
00000360: 1fcb 97bc 20e9 d03d 783b 88bd 0a07 bbbd
00000370: 5119 dcbd 3992 66bc 1b9d e1bc 8502 a3bd
00000380: bf27 a53d 34bf ed3c ad7d eabc ed1e 943d
00000390: 7a07 5abc dbd5 5dbd 0821 0d3d 587f 7c3d
000003a0: 92b7 60bd 406f 92bd c193 243e 1795 0e3e
000003b0: 3bc7 8cbd 0ce9 8b3d dabd 083c e96c adbd
000003c0: e916 0dbd b74f 9a3d 28d9 433d 4dc4 72bd
000003d0: 585a 1ebe c91f ac3d d89d b23d abeb 233e
000003e0: 75ad 39bb 9ad0 733c 0bb5 9cbd 159d 953d
000003f0: d2c6 4dbd 320b a1bd ff83 c93d a407 b8bc
-0.028605092 0.005293513 0.0035046546 -0.04544738 0.009972603 -0.14373486 0.11031528 0.03361651
-0.12797034 -0.02000268 -0.08940962 -0.099551015 -0.033868477 -0.025984546 -0.03028651 -0.085951686
0.027874554 0.10285404 0.014330423 -0.22301659 -0.009528382 -0.005839935 -0.014054094 -0.15130989
-0.17345086 0.020970788 0.11590907 -0.029089075 0.0689955 0.107568674 0.040042274 -0.024873855
0.100548185 0.010220804 0.14684378 0.008611575 0.0838352 0.0446741 -0.041865215 -0.052878596
-0.08398937 -0.15442124 0.19651477 0.090613455 -0.12895139 0.18092911 -0.07045479 0.0380365
-0.12587965 0.0769542 0.042100534 0.07427437 0.07347847 0.13266593 -0.11715831 -0.04303004
0.026468946 -0.065176666 0.0023185958 0.004368087 -0.085287854 -0.045467403 0.08957869 0.026952477
0.004285158 -0.10046719 0.062067423 0.06022814 -0.11522696 -0.15273194 -0.0164861 -0.07622054
-0.013618074 -0.0058694463 0.08359217 0.11637706 0.026839137 -0.05978567 -0.023930443 0.28404427
-0.0033109211 0.14765352 -0.019315507 0.05100939 0.05261668 0.017635645 0.058026116 -0.1409334
0.25336027 0.058644194 0.0057291193 -0.05679942 0.087334104 0.007926227 0.031182295 -0.0015054925
0.020423181 -0.021119889 -0.07620049 -0.11538101 0.04716443 0.06653798 0.05026037 0.020438358
0.114982955 -0.023528242 0.1507894 -0.123015925 -0.037293117 0.0039514787 0.15090203 0.11385326
0.002323558 -0.056188997 -0.007624157 0.022053283 0.026580129 -0.014550929 0.048706252 -0.11926077
-0.05581613 -0.065439865 -0.07094442 -0.0035382162 -0.14260608 -0.09636921 -0.04186869 -0.06781832
0.004409178 0.020639896 -0.085913785 -0.17022324 0.09305485 -0.13303639 0.11027832 0.024423946
-0.07661092 0.13099198 -0.11113247 -0.026981985 0.082109295 -0.10984917 0.11161277 -0.22836852
0.018939918 0.015185259 0.028475061 0.04889784 0.045957565 -0.1046616 0.039771453 -0.025407424
0.025525188 -0.06781648 0.04237954 0.03729862 0.17975271 -0.13587695 0.054998253 -0.0065243933
-0.025688566 -0.13563432 0.01426577 -0.06545202 0.036374737 -0.040899992 -0.11369094 -0.019222306
0.096174695 0.119742356 -0.074089244 -0.099846356 0.13642481 0.071460806 0.053630214 -0.007779702
-0.109617755 -0.0736282 -0.03877421 0.064560115 0.033690438 0.076388136 -0.07302605 0.014777609
-0.034910847 0.058215044 -0.009019542 -0.03065335 0.06801281 -0.10327023 -0.101671115 0.049598463
-0.09803362 0.11475953 0.15659466 -0.1027832 -0.0774031 -0.042686176 0.027297063 -0.0059258626
0.08999347 0.017386751 -0.0978481 -0.027225653 0.07501447 -0.04473833 -0.041434966 0.024240272
-0.09328163 0.039390076 0.07532471 -0.06365969 0.03332124 0.0659246 0.03643027 0.096043006
-0.018529473 0.10200715 -0.06651968 -0.09132202 -0.10747016 -0.014072948 -0.027540734 -0.07959465
0.080642216 0.029021837 -0.02862438 0.07232461 -0.013307447 -0.054159027 0.03445533 0.061644882
-0.054862566 -0.071501255 0.16071989 0.13924061 -0.06873938 0.068315595 0.008346045 -0.084680386
-0.034445677 0.07534736 0.04781452 -0.05926924 -0.15464151 0.084045 0.087215126 0.16007869
-0.0028332148 0.014881277 -0.07651719 0.07305352 -0.050238438 -0.078634635 0.098396294 -0.02246458

network_body._body_endoder.seq_layers.2.bias f4 [128]
00000000: 0000 0000 0000 0000 0000 0000 0000 0000
00000010: 0000 0000 0000 0000 0000 0000 0000 0000
00000020: 0000 0000 0000 0000 0000 0000 0000 0000
00000030: 0000 0000 0000 0000 0000 0000 0000 0000
00000040: 0000 0000 0000 0000 0000 0000 0000 0000
00000050: 0000 0000 0000 0000 0000 0000 0000 0000
00000060: 0000 0000 0000 0000 0000 0000 0000 0000
00000070: 0000 0000 0000 0000 0000 0000 0000 0000
00000080: 0000 0000 0000 0000 0000 0000 0000 0000
00000090: 0000 0000 0000 0000 0000 0000 0000 0000
000000a0: 0000 0000 0000 0000 0000 0000 0000 0000
000000b0: 0000 0000 0000 0000 0000 0000 0000 0000
000000c0: 0000 0000 0000 0000 0000 0000 0000 0000
000000d0: 0000 0000 0000 0000 0000 0000 0000 0000
000000e0: 0000 0000 0000 0000 0000 0000 0000 0000
000000f0: 0000 0000 0000 0000 0000 0000 0000 0000
00000100: 0000 0000 0000 0000 0000 0000 0000 0000
00000110: 0000 0000 0000 0000 0000 0000 0000 0000
00000120: 0000 0000 0000 0000 0000 0000 0000 0000
00000130: 0000 0000 0000 0000 0000 0000 0000 0000
00000140: 0000 0000 0000 0000 0000 0000 0000 0000
00000150: 0000 0000 0000 0000 0000 0000 0000 0000
00000160: 0000 0000 0000 0000 0000 0000 0000 0000
00000170: 0000 0000 0000 0000 0000 0000 0000 0000
00000180: 0000 0000 0000 0000 0000 0000 0000 0000
00000190: 0000 0000 0000 0000 0000 0000 0000 0000
000001a0: 0000 0000 0000 0000 0000 0000 0000 0000
000001b0: 0000 0000 0000 0000 0000 0000 0000 0000
000001c0: 0000 0000 0000 0000 0000 0000 0000 0000
000001d0: 0000 0000 0000 0000 0000 0000 0000 0000
000001e0: 0000 0000 0000 0000 0000 0000 0000 0000
000001f0: 0000 0000 0000 0000 0000 0000 0000 0000
0.0 0.0 0.0 0.0 0.0 0.0 0.0 0.0
0.0 0.0 0.0 0.0 0.0 0.0 0.0 0.0
0.0 0.0 0.0 0.0 0.0 0.0 0.0 0.0
0.0 0.0 0.0 0.0 0.0 0.0 0.0 0.0
0.0 0.0 0.0 0.0 0.0 0.0 0.0 0.0
0.0 0.0 0.0 0.0 0.0 0.0 0.0 0.0
0.0 0.0 0.0 0.0 0.0 0.0 0.0 0.0
0.0 0.0 0.0 0.0 0.0 0.0 0.0 0.0
0.0 0.0 0.0 0.0 0.0 0.0 0.0 0.0
0.0 0.0 0.0 0.0 0.0 0.0 0.0 0.0
0.0 0.0 0.0 0.0 0.0 0.0 0.0 0.0
0.0 0.0 0.0 0.0 0.0 0.0 0.0 0.0
0.0 0.0 0.0 0.0 0.0 0.0 0.0 0.0
0.0 0.0 0.0 0.0 0.0 0.0 0.0 0.0
0.0 0.0 0.0 0.0 0.0 0.0 0.0 0.0
0.0 0.0 0.0 0.0 0.0 0.0 0.0 0.0

action_model._discrete_distribution.branches.0.weight f4 [3, 128]
00000000: 90f3 a03b 3bbf 24bc 3cb7 a93a c987 c838
00000010: fbab 25bb 049c 82bc 40de d53c f7ea a63b
00000020: fbb8 c13b e0f5 5bbb ffda a3bc 271b 1e3b
00000030: fd1e 6c3b 1a4f 51bc 8fcb 243b 35d5 9b3c
00000040: 1d1c 573c 3f6d e2bc 3f2e fdba 5dec 6b3c
00000050: bc87 423a 19e7 1cbc 1674 ac3b 5d35 c03b
00000060: ff0c 083c 854d 06ba f57c bc3b ff03 f7bb
00000070: bfd1 44ba fff4 3cba f72a 6e3a 2f0b 3f3c
00000080: c790 d13b 4887 26bb cbcc 12bc 3e30 a039
00000090: 54c5 89bb 6f8c 833c 5d3d 693c e468 8ebb
000000a0: 294b 37ba 0bff debb 43e3 efbb 8ffc 5dbc
000000b0: df55 f1ba 5a8c 4cbc 9b5a 913b f14a 3a3c
000000c0: ce48 9d3c ff59 5e3c ff2e a83b fd33 acba
000000d0: 3bf7 053b 3491 3f3a 740a 8fb9 996e 053b
000000e0: bf74 903b ebd9 d7bb ddfa 593c 03d0 143c
000000f0: 43bf d5bb 6fad 013c 1573 77bb 8207 423c
00000100: d240 223b 3370 233b 0f84 a03c e816 4fbb
00000110: d5b7 cc3b f7ab 37bc dd01 12bb ef33 693c
00000120: affc f2ba 0d49 783b 46fb a4b7 483d a83c
00000130: 311d 813a 6df3 533b 6bbc eabb 8ff9 753c
00000140: dd0b 25bc 8241 a33b 07af 963c 862e 46bc
00000150: 46eb 413a b3f7 013b eb73 053c e9be 20bc
00000160: 938a c23b 7054 64bc 1510 fcba 3efe 30bc
00000170: d7a4 d43a a787 803b 2100 963b a732 d8bb
00000180: a731 31bb b044 423c 2b82 523c 04a2 313c
00000190: bf69 1c3a 83a1 61bc b2cf f7bb a660 3a3c
000001a0: a5c1 733b ef5f 0dbc 8073 a8ba 5c55 bab9
000001b0: 7069 2abc 7691 463c 586c 5a3b 2397 adbb
000001c0: 9b3b 103b 8369 c1bb 4061 383c a08c 6dbb
000001d0: d682 0f3c 4b2c 963b 02c7 f7bb 65c3 4ebc
000001e0: e55e 08bb d537 ddb9 db5c 513c 90f9 76bb
000001f0: 14b4 28bc 1af8 1d38 7214 023c 65cf d2bb
00000200: 637f 8c3c 6ffb 47ba ccdb 01bc 306f 63bb
00000210: 289e 763c c3ad 93ba 057f db3b 4566 d1bb
00000220: 7127 11bc 59e9 813c c3ac d8bb fb66 b4bc
00000230: efdd 56bb a531 643a 5737 d93b 4049 223b
00000240: 35cd e0bb 42f7 083c 9522 53bc 1fee 02bb
00000250: 4e79 b23b 5fd6 d0bb 14e2 933b dfab c0bb
00000260: 4abd f3bb bd83 443c 52b2 e3bb b504 43bc
00000270: eaf9 69b7 a492 13bc 9531 46bc 0d2b f5bb
00000280: 57ae 2cbc d141 adbb ef87 243c 8b15 2fbc
00000290: 6da7 2fbc 2a41 593c 2fc5 f2bb cb2c 7ebb
000002a0: 074a f43b 2397 1c3b b88e cc3b aa56 5fba
000002b0: 9049 3cbc d1d9 283c 6f5f debb f9b2 0c3c
000002c0: c40f b7ba fbb6 70bb 5bbe 36bc 7a22 feba
000002d0: f79f 1ab9 06a4 433a 7b01 6dbc aaa3 593c
000002e0: 0003 c03a e920 3dbb f2e3 1f3b 7cd8 16bc
000002f0: 7b3b d53b 1a66 8dbb 72de 273a c563 1ebc
00000300: d389 803b 8fbb c3bb 00ef 37bc 900a b93b
00000310: dead 313b 7386 92bc 3f40 24bb 6aaf 6d3c
00000320: ff0d 34bc 9fcb 49bb c394 613c 727c 563a
00000330: 9766 6ebc af78 b63b 8b08 65bc 47c1 a93b
00000340: fb88 bdbb b339 4ebc 3e7f 3abc 72fb 8f3b
00000350: 4ae3 12bb f262 ffbb d7c4 81ba afd2 7cbc
00000360: aba7 3f3b 607c e83a 03f8 65bc 637f 26bc
00000370: b1c2 273c c257 053b a200 093b bbf9 7ebb
00000380: 3649 3cbb db9c 233c 9b12 a83b 66e5 43bb
00000390: 8118 a63b fd4e 29b9 0d96 79ba bed4 473c
000003a0: b29f 87bc 3ac5 bb3a 28db 4f3b 7c74 393c
000003b0: e0cb b03c 0dc5 573c e19a 84bb 03ec 2d3c
000003c0: f574 613c f210 b53a 682a 003b fa92 fb3b
000003d0: f624 203b 00b9 73bb 11da a33b dfc1 ae37
000003e0: 9be3 373c 185f d638 d505 9b39 ebb9 203b
000003f0: 11af 90bb f73f 53bc e01c 603c 4b4d 55bb
0.0049118474 -0.0100553585 0.0012948285 9.562035e-05 -0.002527951 -0.015943535 0.026106954 0.005093928
0.005911944 -0.00335633 -0.020001886 0.002412507 0.0036029213 -0.012775207 0.0025145744 0.019022563
0.013129261 -0.027639983 -0.001931615 0.014399615 0.00074207387 -0.009576582 0.005262862 0.0058657364
0.00830388 -0.00051232456 0.0057522007 -0.007538318 -0.0007508061 -0.0007208138 0.0009085382 0.011660381
0.0063954326 -0.0025410224 -0.008959959 0.0003055352 -0.0042044315 0.016058175 0.014235822 -0.004346
-0.0006992096 -0.006805306 -0.007320793 -0.013548984 -0.0018412432 -0.012484634 0.00443585 0.0113704065
0.019199755 0.013571261 0.0051325555 -0.0013138052 0.002044155 0.0007307709 -0.00027282874 0.002036011
0.0044084485 -0.006587257 0.013304439 0.009082797 -0.0065230443 0.007914885 -0.0037757803 0.01184261
0.0024757874 0.0024938702 0.01959422 -0.0031599347 0.0062475004 -0.011210433 -0.0022278943 0.014233573
-0.001853844 0.0037885339 -1.9667332e-05 0.020537034 0.0009850619 0.0032341138 -0.0071635745 0.015013113
-0.010073629 0.0049821744 0.018394006 -0.012096053 0.0007397424 0.0019831478 0.008145313 -0.0098111415
0.0059369295 -0.013936147 -0.0019230867 -0.010802804 0.0016223443 0.003922421 0.004577652 -0.006597835
-0.0027037652 0.011857197 0.012848417 0.01084185 0.0005966685 -0.013771418 -0.007562601 0.011375582
0.0037194279 -0.008628829 -0.0012851804 -0.00035540282 -0.010401115 0.0121196415 0.0033328738 -0.005297558
0.0022008184 -0.0059024706 0.011253655 -0.003624715 0.008759221 0.004582917 -0.0075615654 -0.012619828
-0.0020808515 -0.00042194003 0.012778486 -0.0037685372 -0.01029684 3.766278e-05 0.007939445 -0.0064334148
0.017150586 -0.0007628714 -0.007925939 -0.0034703724 0.015052356 -0.0011266995 0.0066984915 -0.0063903653
-0.008859501 0.01585834 -0.0066123917 -0.022021761 -0.0032786091 0.00087049074 0.0066289115 0.0024762899
-0.0068604 0.008359732 -0.012886663 -0.0019978357 0.0054465896 -0.0063732113 0.0045130346 -0.0058798636
-0.0074383365 0.0119942995 -0.0069487477 -0.011902978 -1.394607e-05 -0.00900713 -0.012096782 -0.0074819387
-0.010539613 -0.005287387 0.010042175 -0.010686289 -0.01072107 0.013260165 -0.00740876 -0.0038784023
0.007455114 0.0023893795 0.0062425993 -0.0008519689 -0.011492148 0.010305838 -0.006786279 0.008587592
-0.001396649 -0.0036730159 -0.011153783 -0.0019388937 -0.00014746176 0.0007463101 -0.014465685 0.013283649
0.0014649332 -0.0028858727 0.002439734 -0.009206887 0.0065073348 -0.00431515 0.00064036914 -0.009667342
0.00392268 -0.0059732865 -0.011226416 0.005647011 0.002711169 -0.017886376 -0.0025062708 0.014507154
-0.010989665 -0.0030791534 0.013768378 0.0008181996 -0.0145508265 0.005568586 -0.013979088 0.005180511
-0.0057841516 -0.012586999 -0.011382876 0.0043939883 -0.0022413307 -0.0077937776 -0.0009900582 -0.01543109
0.0029244225 0.0017737262 -0.014036181 -0.010162207 0.010239289 0.0020346497 0.0020904918 -0.0038906175
-0.002873016 0.009986128 0.005129171 -0.002989137 0.005068839 -0.00016146521 -0.00095209555 0.012196718
-0.01655564 0.0014325746 0.003171632 0.011319276 0.02158159 0.013169539 -0.0040467833 0.010615352
0.013760795 0.0013814254 0.0019556526 0.007677433 0.0024436093 -0.0037189126 0.005000361 2.0832695e-05
0.011223699 0.00010222028 0.0002956825 0.0024524878 -0.004415401 -0.012893668 0.013678759 -0.003254729

action_model._discrete_distribution.branches.0.bias f4 [3]
00000000: 0000 0000 0000 0000 0000 0000
0.0 0.0 0.0

action_model._discrete_distribution.branches.1.weight f4 [2, 128]
00000000: 732e 213c f22b 653c 1306 85bc ce3a 093b
00000010: 1b7e 2cbc 5557 a2bb 63bc c7bb d749 4f3a
00000020: 17c6 233b 2324 0f3a 488b fcbb 01f1 863b
00000030: 5a15 78bb cdf9 753c 6313 173c d0cc 72bc
00000040: 30a7 c93b a487 203c d7f4 443b da3a 58bb
00000050: 65aa de3b bc1b 17bc 804b c53b a23b 77bb
00000060: ad58 5dbb 508a ac3c 0716 f6ba 220d 86bb
00000070: 5abf 5f3c 23e9 e43b 772a 81bc 3fd5 c8bb
00000080: 8a6a b13b 6ca3 35bc 9fe5 f6bb b5d8 f4ba
00000090: 2c3c 87bc 89f9 2a3c 37e7 1d3b 67b2 86ba
000000a0: 76bd 443c cb05 cfbb 1fb0 f73a 4fbc 213b
000000b0: b68e 133c 2d8d b3b9 2f89 51bc b93f ccbc
000000c0: 2875 b13c b7ff de3b a3ce 163c 83ac 843c
000000d0: 446e 0ebc 2ac6 c3bb 03cb 6fbb 9505 433b
000000e0: 54b6 b23b 8d3b b13b 4782 b53b 4748 2b3b
000000f0: a4fd 8a3b 8b52 a5bb 92ac f2ba c0fe 5fbb
00000100: 4d1b 1f3c 1276 65bc a2cf edbb 21a8 2a3c
00000110: 0155 2bbc 549f 30ba aa03 9c36 f284 72bc
00000120: 5fe0 81bb 86eb 1dbc 58b8 34bc 0331 05bc
00000130: fbd5 22bc 8f86 593c f966 2cbb 5fbe b13c
00000140: b23f a23a ffc5 2f3c f2ef 50bc 1c26 b53c
00000150: f20d e03c f731 2b3b 931e 01bb bd6b 233a
00000160: 867f 363c 23be a43b 2580 933a 0f2a 9bbb
00000170: c582 b73c 0bce 833c 6d86 683c 7ece 473c
00000180: c807 b73c 48ae 4cbc bf01 37bb 9961 473c
00000190: a686 183c 1040 03bc 9a8b 19bc 3acb 963b
000001a0: db4e 99bb a259 0d3c bfc4 16bb 7497 263a
000001b0: b7d9 a2bc 4813 57bc c2fd e83a 201e 9c3a
000001c0: 38e0 2ebb cd63 13b9 631f 8b3b 9872 d33b
000001d0: f12b 033c de3e a1bb 59fe 0a3c 4039 5dbc
000001e0: 6d69 babb 2c23 a7bc 2c1d 1bbb ba00 2f3c
000001f0: 5928 803c bd3d 5cbb 2b32 0e3b a7f1 80bc
00000200: 9d30 a7ba 75d1 42bc 57fb 7abb 9b3a 5c3c
00000210: 9b3e 4ebc cb1a 34bc 5641 863c 10e7 42bc
00000220: a90d 853b 1bda 523b 70dc 4c3b 695f b5bb
00000230: 8b9d 38bb 3cbf 9eba d0a7 6d3c a7ac 923c
00000240: 9b55 35bb ff2d 743b 618b 32bb 8e25 8b3c
00000250: 3712 8f3a 445b af3b 6389 01bc 029b 0e3c
00000260: 8197 aa39 87b6 c0bb f390 f83b 07d2 f23b
00000270: ee7f 92bc 63ae d7bb 81e4 b7bb 964b 1b3c
00000280: 859f 0ebc aa75 0bbc c53f a7bc d155 a13c
00000290: 0f1c a6bb ec7f 8e3b e2e9 b8ba bc76 863c
000002a0: d8eb 6eba 05e4 bb3a 906d 6fba 8cef 2e3c
000002b0: 4ff2 ac3b eac0 683b dbaf edba 73dc f13c
000002c0: 7f97 293a 23e9 56bc d8d3 883b bc66 8a3a
000002d0: 9bc7 4abb e8ac f0bb 880c 2c3c a7dc 393c
000002e0: 6404 2cbc 53c3 563b d8bc 5eba 045f 123b
000002f0: fecc 153c 8673 a23b 778f 71ba e7fb cf3c
00000300: ebe5 07bc 0a57 06bc 3020 88bb 88b9 07ba
00000310: e5b2 433c b346 163c 1788 69bb fcb9 b8bc
00000320: 3d5e 753b e8bc 483b 03b8 86bb 66a1 36bb
00000330: 47d3 943c eba5 bb3b 7e83 2bbc 5054 263c
00000340: abbb 30ba 4e02 8b3c 56ff b5bb 8588 d6bb
00000350: 75c7 d23b 0233 acbb a32b 41bc 6267 163c
00000360: 415d 123c c0a8 4e3b 95b5 4a3c 4629 34bb
00000370: 8494 ba3c 7f65 9fbc e6a7 41bc c362 fcb9
00000380: a661 94ba 52b7 e839 e73e 5dbc 0589 1fbc
00000390: f238 7f3b cff0 e63a 8ba4 c9bb 4938 30bc
000003a0: d573 533a 632b 8ebc 9379 cc3b b233 52bc
000003b0: ea08 7ebb cbda 223c 030b 9a3b e3fe da3b
000003c0: f258 cb39 fbdf dabb 5bcf 70bc 7234 9aba
000003d0: 6bb9 743c daa1 cf3a 2dfc d2bb a524 e2ba
000003e0: 5071 bbbc 4602 0636 ab36 04bb 18e9 903c
000003f0: 71c7 923b 236e 373c 2715 f738 63b5 db3a
0.0098377345 0.013987528 -0.016238248 0.0020939591 -0.010528113 -0.0049542584 -0.0060954555 0.00079074263
0.0024989897 0.0005460402 -0.0077070333 0.0041180854 -0.0037854523 0.01501317 0.009220931 -0.014819339
0.0061539635 0.009797964 0.0030053162 -0.0032994063 0.006795215 -0.009222921 0.006020963 -0.0037724753
-0.0033774779 0.021062046 -0.0018774875 -0.004090921 0.013656462 0.0069858 -0.01576732 -0.0061289365
0.005414312 -0.011086326 -0.007534697 -0.0018680306 -0.016508184 0.01043547 0.0024094114 -0.0010276557
0.012008062 -0.0063178292 0.0018897093 0.002467889 0.009006193 -0.00034246725 -0.012789055 -0.02493273
0.02166231 0.006805386 0.0092045395 0.016195541 -0.008693282 -0.0059745507 -0.003658951 0.0029757966
0.005453864 0.0054087103 0.005539212 0.002613561 0.004241662 -0.0050452403 -0.0018514565 -0.0034178942
0.009711099 -0.014005201 -0.007257418 0.010416062 -0.010457278 -0.0006737609 4.649589e-06 -0.014802204
-0.0039635147 -0.009638673 -0.011030279 -0.008129361 -0.009938712 0.01327671 -0.0026306494 0.021697221
0.0012378602 0.010728358 -0.01275252 0.022112899 0.0273504 0.002612231 -0.0019702062 0.0006234011
0.011138802 0.005027549 0.00112534 -0.0047352384 0.022401223 0.01608946 0.014192206 0.012195228
0.022342578 -0.012492724 -0.0027924625 0.012169265 0.009309446 -0.008010879 -0.0093716625 0.004601863
-0.0046785898 0.008627327 -0.0023005453 0.0006354966 -0.019879205 -0.013127156 0.0017775821 0.0011910833
-0.0026683938 -0.00014056191 0.004245685 0.0064528696 0.008006082 -0.0049208244 0.008483493 -0.013502419
-0.0056888373 -0.020402513 -0.002366851 0.010681326 0.01564424 -0.0033606135 0.0021697383 -0.015740229
-0.0012755577 -0.011890759 -0.0038296783 0.013441707 -0.0125881685 -0.010992716 0.016388576 -0.01189591
0.0040604663 0.0032173458 0.003125932 -0.0055350554 -0.0028170075 -0.0012111436 0.014505342 0.017904593
-0.0027669433 0.003725886 -0.002724372 0.01698568 0.0010915463 0.005351456 -0.007906291 0.008703949
0.00032537806 -0.005881134 0.0075856387 0.007410291 -0.017883267 -0.006582068 -0.0056119566 0.00947847
-0.008705025 -0.00851194 -0.02041615 0.01969424 -0.005069263 0.0043487456 -0.0014107788 0.016414039
-0.0009114123 0.0014334923 -0.00091334525 0.01067723 0.005277909 0.0035515376 -0.0018134074 0.029524064
0.0006469413 -0.013117108 0.0041756444 0.0010559182 -0.0030941728 -0.007344831 0.010501035 0.0113441115
-0.010499094 0.003277023 -0.0008496768 0.0022334466 0.009143112 0.004957619 -0.00092147983 0.025388671
-0.008294563 -0.008199463 -0.0041542277 -0.00051774876 0.011944507 0.009172129 -0.0035634094 -0.022549622
0.0037440204 0.0030630175 -0.0041112914 -0.0027867197 0.018167151 0.005726566 -0.010468362 0.010151938
-0.0006741832 0.016968872 -0.00555412 -0.006547036 0.0064324685 -0.005255104 -0.011790189 0.009179922
0.008933366 0.0031533688 0.012372394 -0.0027490421 0.022775896 -0.019457577 -0.011819815 -0.0004813877
-0.0011320605 0.00044387073 -0.013503767 -0.009737258 0.0038943854 0.0017619374 -0.0061536483 -0.010755607
0.00080662715 -0.017354673 0.0062400787 -0.012829708 -0.0038762637 0.00993986 0.0047010197 0.006683217
0.00038785447 -0.0066795326 -0.014697875 -0.0011764897 0.014936785 0.0015841082 -0.006438753 -0.0017253353
-0.02288118 1.996888e-06 -0.0020174186 0.017689273 0.0044793417 0.011195692 0.00011781818 0.0016762431

action_model._discrete_distribution.branches.1.bias f4 [2]
00000000: 0000 0000 0000 0000
0.0 0.0

network_body.observation_encoder.processors.0.normalizer.running_mean f4 [7]
00000000: 4a9c a83e ceb1 8dbf 44fb adbe 0000 0000
00000010: fea6 fe3d ae21 39bd dbad 7f3f
0.3293174 -1.1069887 -0.33980763 0.0 0.12434195 -0.045198135 0.9987466

network_body.observation_encoder.processors.0.normalizer.running_variance f4 [7]
00000000: 99e2 8d3f b6f5 1044 ac11 ad42 0000 803f
00000010: c5a9 d943 f573 ef45 54e6 1f41
1.1084777 579.83923 86.534515 1.0 435.32632 7662.4946 9.993732

network_body.processors.0.normalizer.running_mean f4 [7]
00000000: 4a9c a83e ceb1 8dbf 44fb adbe 0000 0000
00000010: fea6 fe3d ae21 39bd dbad 7f3f
0.3293174 -1.1069887 -0.33980763 0.0 0.12434195 -0.045198135 0.9987466

network_body.processors.0.normalizer.running_variance f4 [7]
00000000: 99e2 8d3f b6f5 1044 ac11 ad42 0000 803f
00000010: c5a9 d943 f573 ef45 54e6 1f41
1.1084777 579.83923 86.534515 1.0 435.32632 7662.4946 9.993732

network_body._body_endoder.seq_layers.0.weight f4 [128, 7]
00000000: 22b1 18be e8f0 b43e 991e b73e b5b1 ca3e
00000010: 8b33 013e 2354 cf3e a6e5 553f 3fd0 24bf
00000020: c43a 753e 9446 c5be 0704 3f3f 3676 0abe
00000030: 7118 283e 232c 3bbd 10f5 e33d 863d 2dbe
00000040: d7b4 90be 10a4 5b3e ac31 543b 24d2 7b3e
00000050: 1c0f 77be 55c0 34be f607 cf3e 1733 c23d
00000060: f9e9 873d 2d1d 523e 9d29 b13e 1e94 e3be
00000070: 98b9 853f d14c 0ebe fc63 7b3e c18e 8bbe
00000080: e89d aabc fce7 6c3f 1b52 9abd a215 eb3e
00000090: e974 d93e 66be 96bd 113c a9be 7279 4f3f
000000a0: ed51 27bf fa31 63be 6b17 1d3e b441 29bf
000000b0: 55c3 c2be 4e0e 383e 999d 16bf 91e3 15bf
000000c0: 5b76 dabd b3aa e63d ebce bbbe a84e af3e
000000d0: 4437 313e ebd1 d7be 4b2f d33e 825d 9e3e
000000e0: 00f5 d23d bb88 133e a52e 54bf 251b fbbc
000000f0: a340 c5bb d7ad 3e3f 9def d43c 3d16 8e3e
00000100: 1cc8 3abf 5182 47be 167e 27bd 1972 0a3e
00000110: 26d6 2d3f 6a4f b13d 6a09 023f 091d e53e
00000120: 3514 c13c 07af 9bbe b763 1abf 37ce aabc
00000130: 59f9 f23e 98c4 223f efa9 85bc 6c2f a7bd
00000140: 6bb3 fdbe b2ef 6abe a393 4dbe bfe8 293f
00000150: 9483 dd3d 00eb c3bd aa2a e93e ceb7 683e
00000160: 7fa8 143e b8e3 693d 29a3 083d 758e 303e
00000170: fb08 bfbe 3c48 bb3e 5c9b 1c3e e0eb f0bc
00000180: bdde 8b3e 859e 083d cd08 a43e c52b d93e
00000190: b139 473f d975 0dbe 1762 28be 4e86 efbd
000001a0: 891d 5fbe 9712 a0be 941d fb3e e3b3 2a3f
000001b0: 957d 19bf 3c96 d8be f5c6 513f 303d 33bf
000001c0: e424 7fbf d804 b4bd 8130 16bf f000 f93d
000001d0: 8da1 99be e3fc 9e3e ecab d1be bf9f 343e
000001e0: c93f 0f3e dfb2 96bb 2ee5 8bbe 6157 123f
000001f0: b34e 55be 3ba6 a4ba 709c 913e 12dc 423f
00000200: 582f 8a3e 9bcf 073f 92ca a0be b079 083e
00000210: ec6f 9d3e dc3f 83be 29d9 133c f062 22bf
00000220: 92b4 b03e 29c3 513e f5c6 3a3e b0eb abbe
00000230: d02e 983e 52e7 c5bd 6c0b 053e 5f6c a93e
00000240: 0877 d0be 1810 46be 2d8a bebe f075 aebe
00000250: 927c d63e 56d3 0abf 4cef a5be 5e34 e33d
00000260: ff43 b1be c6bb e3be 006f 02bd 9c2b 983f
00000270: f6d5 893d d584 0cbf 0ccf ca3e 611e ddbe
00000280: 21e1 983e c0d1 6c3e d27d 29be da13 0dbf
00000290: e253 c33e 4784 163f 7713 90be 4a44 9b3f
000002a0: ecea 893e 7842 83be 1492 ccbe a040 22bf
000002b0: 03a1 0e3f b84a 2d3f 70ec 7e3e c771 773e
000002c0: 8d89 243e 0723 b93e e4b0 b1be 597b 413d
000002d0: afe9 3dbe 1c71 29be 0a21 0dbf 7ea5 793c
000002e0: 21d4 a73e b2e8 45be 4494 323e 7711 3abf
000002f0: c4c8 a0be 88ac b93e 7d0c 90be ab54 13bf
00000300: d240 523f eb4b c9bd a548 a4be 8804 a23e
00000310: c450 e23b 304a 11be 45ad e33e 0be0 33be
00000320: 0029 e53d 6f42 15ba 048c ac3e 45a9 ecbd
00000330: 0214 3fbe dfe1 a3be c51d 92bd ae15 4d3e
00000340: 992b a23e b476 aabe 9292 a83d a937 58bf
00000350: 960c 0a3c e5ac 2a3f e290 c0be 627d 1d3e
00000360: 525a 193e c373 15bd b054 d43e bd22 233f
00000370: af42 1e3b d7a4 c73e d893 bbbc eaf6 023f
00000380: 6535 61be 7de2 dabc 0d5f 453e 68c3 b3be
00000390: 6dde 573e fd65 6d3e dd03 fcbc 4c3d 86be
000003a0: 1cfe 093e e0be 2dbd 489b db3d 6c29 59bf
000003b0: b690 f53e b509 173f 211b 11bd 5201 843e
000003c0: 3800 debe 900d 70be f623 f73e 6917 d13d
000003d0: 425f 2bbd 7f61 52be 7a66 4f3f a233 4ebe
000003e0: 8323 c7be ffe5 17bf dd41 31bf d3d5 b2be
000003f0: ae22 633e 36cc c73f 926e 8f3e 13c3 043f
-0.14911321 0.35340047 0.35765532 0.39588705 0.12617318 0.4049388 0.8355354 -0.6438026
0.23948199 -0.3853041 0.7461552 -0.13521656 0.16415574 -0.04569639 0.11130726 -0.16918
-0.2826297 0.21449304 0.003237824 0.24591881 -0.24126858 -0.17651494 0.4043576 0.09482401
0.066364236 0.20518942 0.3460206 -0.44448942 1.0447264 -0.1389649 0.2454986 -0.2725735
-0.020827249 0.9254148 -0.075351916 0.45914942 0.42472008 -0.07360534 -0.3305364 0.81044686
-0.65359384 -0.22187033 0.15340964 -0.6611588 -0.38039652 0.17974207 -0.58834225 -0.58550364
-0.10667106 0.11263027 -0.36681303 0.34239697 0.17306238 -0.42152342 0.4124702 0.30930716
0.10300636 0.14407627 -0.82883674 -0.030652592 -0.006019668 0.7448401 0.025993163 0.2775134
-0.7296159 -0.19483306 -0.04089173 0.13520087 0.6790489 0.08657725 0.50795615 0.44748715
0.023569206 -0.30406973 -0.603084 -0.020850284 0.47455862 0.6358123 -0.016316382 -0.08163342
-0.49550948 -0.22942999 -0.2007585 0.6637077 0.10816112 -0.09566307 0.45540363 0.22726366
0.14517401 0.057101935 0.033358727 0.17241843 -0.3731154 0.36578548 0.1529364 -0.029409349
0.27318373 0.0333543 0.32037964 0.42416206 0.77822405 -0.13814487 -0.16443668 -0.116955385
-0.2178861 -0.31264183 0.49046004 0.66680735 -0.5995725 -0.4230212 0.8194421 -0.7001524
-0.99665666 -0.08789986 -0.5866776 0.12158382 -0.30006066 0.31052312 -0.40951478 0.17639063
0.13989176 -0.00459896 -0.27323288 0.5716458 -0.20830803 -0.0012561748 0.28439665 0.7611705
0.26989245 0.53051156 -0.3140455 0.1332767 0.30749452 -0.25634658 0.009023943 -0.63432217
0.34512764 0.20484604 0.18239959 -0.33578253 0.29723215 -0.096632615 0.12992638 0.33090493
-0.40715814 -0.19342077 -0.37214795 -0.34074354 0.41891915 -0.54228723 -0.32409132 0.110939726
-0.3462219 -0.44479197 -0.03184414 1.1888309 0.06730263 -0.54890186 0.3961109 -0.4318724
0.2985926 0.23126888 -0.16551903 -0.55108416 0.38149935 0.5879559 -0.2813985 1.2130215
0.26937044 -0.2563665 -0.399552 -0.6337986 0.55714434 0.67692137 0.24894881 0.24164496
0.16068096 0.36159536 -0.3470527 0.047236774 -0.18546174 -0.16547054 -0.5512854 0.01523721
0.3277903 -0.19327047 0.17439371 -0.726829 -0.31403172 0.36264443 -0.28134528 -0.5755107
0.8213016 -0.09828933 -0.32086673 0.31644082 0.0069066007 -0.14188457 0.44468132 -0.17565934
0.11189461 -0.00056937983 0.33700573 -0.11555723 -0.18659976 -0.32008263 -0.07134584 0.20027801
0.31673887 -0.33293688 0.08231081 -0.8445993 0.008425852 0.66670066 -0.37610537 0.15379861
0.1497586 -0.036487352 0.4147086 0.6372488 0.0024148633 0.3899295 -0.022897646 0.5115801
-0.21993025 -0.026719326 0.1927454 -0.3511002 0.21080942 0.23183437 -0.03076356 -0.2621864
0.13475841 -0.04241836 0.10722977 -0.8482883 0.47961968 0.58999187 -0.035426263 0.25782257
-0.43359542 -0.23442674 0.48269624 0.10209543 -0.04183889 -0.20545004 0.8101574 -0.20136884
-0.3889428 -0.5933532 -0.69241124 -0.3492876 0.22181198 1.5609195 0.28014046 0.5186016

network_body._body_endoder.seq_layers.0.bias f4 [128]
00000000: 0000 0000 0000 0000 0000 0000 0000 0000
00000010: 0000 0000 0000 0000 0000 0000 0000 0000
00000020: 0000 0000 0000 0000 0000 0000 0000 0000
00000030: 0000 0000 0000 0000 0000 0000 0000 0000
00000040: 0000 0000 0000 0000 0000 0000 0000 0000
00000050: 0000 0000 0000 0000 0000 0000 0000 0000
00000060: 0000 0000 0000 0000 0000 0000 0000 0000
00000070: 0000 0000 0000 0000 0000 0000 0000 0000
00000080: 0000 0000 0000 0000 0000 0000 0000 0000
00000090: 0000 0000 0000 0000 0000 0000 0000 0000
000000a0: 0000 0000 0000 0000 0000 0000 0000 0000
000000b0: 0000 0000 0000 0000 0000 0000 0000 0000
000000c0: 0000 0000 0000 0000 0000 0000 0000 0000
000000d0: 0000 0000 0000 0000 0000 0000 0000 0000
000000e0: 0000 0000 0000 0000 0000 0000 0000 0000
000000f0: 0000 0000 0000 0000 0000 0000 0000 0000
00000100: 0000 0000 0000 0000 0000 0000 0000 0000
00000110: 0000 0000 0000 0000 0000 0000 0000 0000
00000120: 0000 0000 0000 0000 0000 0000 0000 0000
00000130: 0000 0000 0000 0000 0000 0000 0000 0000
00000140: 0000 0000 0000 0000 0000 0000 0000 0000
00000150: 0000 0000 0000 0000 0000 0000 0000 0000
00000160: 0000 0000 0000 0000 0000 0000 0000 0000
00000170: 0000 0000 0000 0000 0000 0000 0000 0000
00000180: 0000 0000 0000 0000 0000 0000 0000 0000
00000190: 0000 0000 0000 0000 0000 0000 0000 0000
000001a0: 0000 0000 0000 0000 0000 0000 0000 0000
000001b0: 0000 0000 0000 0000 0000 0000 0000 0000
000001c0: 0000 0000 0000 0000 0000 0000 0000 0000
000001d0: 0000 0000 0000 0000 0000 0000 0000 0000
000001e0: 0000 0000 0000 0000 0000 0000 0000 0000
000001f0: 0000 0000 0000 0000 0000 0000 0000 0000
0.0 0.0 0.0 0.0 0.0 0.0 0.0 0.0
0.0 0.0 0.0 0.0 0.0 0.0 0.0 0.0
0.0 0.0 0.0 0.0 0.0 0.0 0.0 0.0
0.0 0.0 0.0 0.0 0.0 0.0 0.0 0.0
0.0 0.0 0.0 0.0 0.0 0.0 0.0 0.0
0.0 0.0 0.0 0.0 0.0 0.0 0.0 0.0
0.0 0.0 0.0 0.0 0.0 0.0 0.0 0.0
0.0 0.0 0.0 0.0 0.0 0.0 0.0 0.0
0.0 0.0 0.0 0.0 0.0 0.0 0.0 0.0
0.0 0.0 0.0 0.0 0.0 0.0 0.0 0.0
0.0 0.0 0.0 0.0 0.0 0.0 0.0 0.0
0.0 0.0 0.0 0.0 0.0 0.0 0.0 0.0
0.0 0.0 0.0 0.0 0.0 0.0 0.0 0.0
0.0 0.0 0.0 0.0 0.0 0.0 0.0 0.0
0.0 0.0 0.0 0.0 0.0 0.0 0.0 0.0
0.0 0.0 0.0 0.0 0.0 0.0 0.0 0.0

network_body._body_endoder.seq_layers.2.weight f4 [128, 128]
00000000: afde 893e 2a59 033d d884 2f3d 4f83 fdbd
00000010: 6b49 1e3d 1d41 c83a c251 063e 6d78 4dbd
00000020: a12e 543d 937a 7cbd 0f96 08bc cca7 30be
00000030: 2f91 aa3b 8da2 92bd 78ef 70bc bf1a ed3d
00000040: 8aa4 9abd 920b 9abd ef86 44be 9981 a83d
00000050: f3cd aa3c 5c47 d0bd 5a73 463d 6396 c7bc
00000060: 5d12 0dbe 06a0 d73d 9dfc b0bd 6e99 a2bd
00000070: c5e2 04be 38cc 273e 1997 ea3d 4365 e03b
00000080: 0665 f33c 42be f53d f8e8 77bd 0f51 b8bd
00000090: 0041 aabd f7da 85bc e0d2 03bd 6cfa aabb
000000a0: b333 00bc 6b93 15be c589 5a3d f1d5 c6bd
000000b0: 1706 08bd 3792 3f3c 2294 173e 0ee9 c53d
000000c0: 864f 233e 0343 8d3d 1cbe a3bd 8d0d 283d
000000d0: 92b7 993d 3265 0c3d b903 2f3e 932a 8fbc
000000e0: 837b 8e3c 5767 593c 1d12 4fbc 699b 00bc
000000f0: 8ec0 01be d44f 4e3d 2bdd 0d3a 2700 f0ba
00000100: 62b5 9abd 8e70 163d 254e eaba 33dc af3c
00000110: d812 3c3e 6213 54bc f349 86bd e932 d83d
00000120: 5ade 013d 7fb0 933c 3edb 06be 81b6 f4bc
00000130: 2ad0 d3bd 46ef 3abd 3136 2dbd 108c 2e3d
00000140: b7f5 b83d ee19 c93d ac25 fc3c d1fb 2e3d
00000150: c254 afba 2a65 21be bf34 393d 6789 c4bd
00000160: b573 413e a733 4bbd b424 9fbd 282a 36bb
00000170: 7b77 983d f820 e53d 9979 2cbe ad2e 803c
00000180: d404 ca3d 1cba fdbd 63e9 6abd 1667 a5bd
00000190: 6e35 98be 3246 993c b2a1 e0bc 5eb9 da3d
000001a0: 578b e03b 81af c03d 6f47 2e3c 42fc 5cbe
000001b0: 102e 8e3d a244 ff3c 198e 0e3e 9006 b5bd
000001c0: 7b55 1f3e f6e8 7bbd 71e6 d0bd 1538 f0bc
000001d0: 6ee6 3bbe d417 50bd d01b 333e 35ea 2abd
000001e0: 9087 863d dd11 e739 7579 7abd 10e4 0cbd
000001f0: 938d 183d c372 ca3d fef1 5fbc ea1f 483d
00000200: a6bc 753c b485 ddbc 2f9b d03d 0f4f 93bd
00000210: 1eda 403c de2b 83bd 12ad d23c 49ef 963d
00000220: fc6c 1abd ab2f c93d 56b9 63be 24fc 8dbc
00000230: 4a10 52bd 4c1c 30bd db5f 3f3e fed8 25bd
00000240: 4926 383e 34bc 90bc 5841 9c3d 463d ad3d
00000250: 1245 933c 5842 003d b677 c9bc 6780 563b
00000260: 4f71 183e 4f29 d7bd 087e 153e 8a48 503d
00000270: 2544 463d 5528 f3bc a533 a0bd bc6c 51be
00000280: 62ed 443d 5057 8abc 2c89 c93c 7e21 27be
00000290: 20b7 62bd 3e24 293d 90c8 88bd a1b2 173d
000002a0: dbb3 6b3d 5e74 193e b1b4 183d 6e73 d0bd
000002b0: 1069 69bd 121f e5bc 9b46 dfbb e3c0 15be
000002c0: f0c3 b0bc a3ef 883d 846e aebb c30a 22be
000002d0: fb8b 4a3d ddcd 603c b962 9d3d 5df5 83be
000002e0: 8073 683d 6ba9 6d3d 4ee3 813c ea48 a63b
000002f0: ae22 f03d a65a e33a 2685 2a3e 0cce 883c
00000300: 3bf6 e63d a2cf 1dbc b18d 183e ba9f 653d
00000310: 67d9 f4bd 10ee a23d a3a3 983d 23d5 ce3d
00000320: 74d0 02be 11fa 5b3b 6f2b e7bc 495f 253d
00000330: 69c9 8dbd 54f5 8abd 728f d13b ef1d 023e
00000340: 50e7 dc3d 818e f53d 5689 b3bd c344 9b3d
00000350: 6d55 a4bd 2352 c0ba a080 1dbe 769a 6fbd
00000360: 65ed ba3d 118c a83a 86a5 b43d b78f 793c
00000370: b95d 9dbd ec6b af3c 488f dc3d 01a4 993d
00000380: 1f6b 00be e5e1 fe3c 8263 373e ae51 093e
00000390: e9b3 b73d 5217 333d d2bd 5d3d 7223 983d
000003a0: 7389 c6bc 290f a5bd 769e 99bd 84ed 083c
000003b0: 5360 143c e8f7 933e 2b4a c43d 1883 c8bd
000003c0: 4f41 2bbe af0e 02be 97eb 22be f0dc 1b3d
000003d0: 3b66 5dbd a6dd 023e 8938 3dbd 1289 7c3d
000003e0: 79ab 37bd 0675 03be 9a87 683c 077f b43d
000003f0: f0e1 a23c 7f12 3fbc 87c6 213d f799 35be
0.26927707 0.032067455 0.0428513 -0.12378561 0.038644236 0.0015278194 0.13117126 -0.050163675
0.05180228 -0.061640333 -0.008336558 -0.1725151 0.0052052955 -0.0715991 -0.014705531 0.11577367
-0.075509146 -0.07521738 -0.19192098 0.08227844 0.020850157 -0.10169861 0.04844985 -0.024363702
-0.13776536 0.10528569 -0.08641932 -0.07939421 -0.1297713 0.16386497 0.11454601 0.006848009
0.029711258 0.119991794 -0.06052491 -0.08999836 -0.08313179 -0.016339762 -0.032183528 -0.005217841
-0.007824826 -0.14607017 0.053354044 -0.09708775 -0.033208933 0.011692575 0.14802602 0.09663592
0.15948305 0.06897547 -0.07995245 0.041028548 0.075057164 0.034276195 0.17091264 -0.017476356
0.01739288 0.013269267 -0.012638596 -0.007849553 -0.1267111 0.0503691 0.000541168 -0.0018310592
-0.07554127 0.036728434 -0.0017876072 0.021467304 0.18366563 -0.012944074 -0.065570734 0.10556585
0.03170619 0.018028496 -0.13169572 -0.02987218 -0.103424385 -0.045638345 -0.04228801 0.042614043
0.090312414 0.09819399 0.030779682 0.04272062 -0.00133767 -0.15761247 0.04521632 -0.0959652
0.18891795 -0.049609806 -0.077706724 -0.0027796123 0.07444664 0.11187929 -0.16843261 0.015647257
0.09864202 -0.12389013 -0.05735148 -0.08076303 -0.29728264 0.01871023 -0.027420852 0.10679887
0.006852548 0.09408475 0.010637148 -0.21580604 0.069423795 0.031160656 0.13921393 -0.08839142
0.15559952 -0.061501466 -0.10200203 -0.029323617 -0.1834962 -0.050803974 0.17491078 -0.041727263
0.06568825 0.00044073063 -0.061150987 -0.034397185 0.03724439 0.0988517 -0.013668535 0.04885856
0.014998591 -0.027041294 0.10185849 -0.071928136 0.011770753 -0.064048514 0.025717292 0.07369859
-0.03770159 0.09823545 -0.22238669 -0.017332144 -0.051285066 -0.042995736 0.1868891 -0.040490143
0.17983355 -0.017667867 0.07629651 0.084589526 0.017977271 0.03131327 -0.024593215 0.0032730342
0.14886974 -0.10505926 0.14598858 0.05085043 0.04840483 -0.029682318 -0.078223504 -0.20451635
0.04807795 -0.016887337 0.024601541 -0.1632137 -0.055350423 0.04129433 -0.06678879 0.03703559
0.05754457 0.14985797 0.037281696 -0.101782665 -0.05698496 -0.027968917 -0.0068138367 -0.14624362
-0.021577805 0.06686332 -0.005323233 -0.15824418 0.049449902 0.013720957 0.076848455 -0.25773135
0.056750774 0.058022898 0.015855458 0.00507461 0.117253646 0.0017345741 0.16652355 0.016699813
0.112774335 -0.009632023 0.14897801 0.05606053 -0.11955529 0.07955563 0.07453086 0.10099246
-0.12774831 0.00335658 -0.028218953 0.040374074 -0.069231816 -0.06785074 0.006395274 0.12706731
0.10786307 0.11990071 -0.08766429 0.07581475 -0.08024106 -0.0014672916 -0.15381098 -0.058496915
0.09127311 0.0012859126 0.088206336 0.015232018 -0.07683892 0.021413766 0.10769516 0.075019844
-0.12540863 0.031113574 0.17909053 0.13410065 0.08969862 0.04372341 0.054136105 0.07428636
-0.024235463 -0.08059532 -0.07500927 0.008357409 0.009056169 0.28900075 0.09584459 -0.09790629
-0.16724132 -0.12700914 -0.15910183 0.0380525 -0.054052573 0.12779865 -0.046196494 0.061654158
-0.044841263 -0.1283761 0.014192486 0.08813291 0.019883126 -0.011662125 0.03949597 -0.17734514

network_body._body_endoder.seq_layers.2.bias f4 [128]
00000000: 0000 0000 0000 0000 0000 0000 0000 0000
00000010: 0000 0000 0000 0000 0000 0000 0000 0000
00000020: 0000 0000 0000 0000 0000 0000 0000 0000
00000030: 0000 0000 0000 0000 0000 0000 0000 0000
00000040: 0000 0000 0000 0000 0000 0000 0000 0000
00000050: 0000 0000 0000 0000 0000 0000 0000 0000
00000060: 0000 0000 0000 0000 0000 0000 0000 0000
00000070: 0000 0000 0000 0000 0000 0000 0000 0000
00000080: 0000 0000 0000 0000 0000 0000 0000 0000
00000090: 0000 0000 0000 0000 0000 0000 0000 0000
000000a0: 0000 0000 0000 0000 0000 0000 0000 0000
000000b0: 0000 0000 0000 0000 0000 0000 0000 0000
000000c0: 0000 0000 0000 0000 0000 0000 0000 0000
000000d0: 0000 0000 0000 0000 0000 0000 0000 0000
000000e0: 0000 0000 0000 0000 0000 0000 0000 0000
000000f0: 0000 0000 0000 0000 0000 0000 0000 0000
00000100: 0000 0000 0000 0000 0000 0000 0000 0000
00000110: 0000 0000 0000 0000 0000 0000 0000 0000
00000120: 0000 0000 0000 0000 0000 0000 0000 0000
00000130: 0000 0000 0000 0000 0000 0000 0000 0000
00000140: 0000 0000 0000 0000 0000 0000 0000 0000
00000150: 0000 0000 0000 0000 0000 0000 0000 0000
00000160: 0000 0000 0000 0000 0000 0000 0000 0000
00000170: 0000 0000 0000 0000 0000 0000 0000 0000
00000180: 0000 0000 0000 0000 0000 0000 0000 0000
00000190: 0000 0000 0000 0000 0000 0000 0000 0000
000001a0: 0000 0000 0000 0000 0000 0000 0000 0000
000001b0: 0000 0000 0000 0000 0000 0000 0000 0000
000001c0: 0000 0000 0000 0000 0000 0000 0000 0000
000001d0: 0000 0000 0000 0000 0000 0000 0000 0000
000001e0: 0000 0000 0000 0000 0000 0000 0000 0000
000001f0: 0000 0000 0000 0000 0000 0000 0000 0000
0.0 0.0 0.0 0.0 0.0 0.0 0.0 0.0
0.0 0.0 0.0 0.0 0.0 0.0 0.0 0.0
0.0 0.0 0.0 0.0 0.0 0.0 0.0 0.0
0.0 0.0 0.0 0.0 0.0 0.0 0.0 0.0
0.0 0.0 0.0 0.0 0.0 0.0 0.0 0.0
0.0 0.0 0.0 0.0 0.0 0.0 0.0 0.0
0.0 0.0 0.0 0.0 0.0 0.0 0.0 0.0
0.0 0.0 0.0 0.0 0.0 0.0 0.0 0.0
0.0 0.0 0.0 0.0 0.0 0.0 0.0 0.0
0.0 0.0 0.0 0.0 0.0 0.0 0.0 0.0
0.0 0.0 0.0 0.0 0.0 0.0 0.0 0.0
0.0 0.0 0.0 0.0 0.0 0.0 0.0 0.0
0.0 0.0 0.0 0.0 0.0 0.0 0.0 0.0
0.0 0.0 0.0 0.0 0.0 0.0 0.0 0.0
0.0 0.0 0.0 0.0 0.0 0.0 0.0 0.0
0.0 0.0 0.0 0.0 0.0 0.0 0.0 0.0
