results/phase1.3/PlayerAgent/PlayerAgent-215648.pt (torch, 455082 bytes, 48 tensors)

discrete_act_size_vector f4 [1, 2]
00000000: 0000 4040 0000 0040
3.0 2.0

network_body.observation_encoder.processors.0.normalizer.running_mean f4 [7]
00000000: d407 d53f 7c76 35bd a862 57bf 2a6a fa39
00000010: a8d6 293e 4f92 6bbd 3a38 773f
1.6643014 -0.04430245 -0.8413491 0.00047762814 0.16585791 -0.057512578 0.9657017

network_body.observation_encoder.processors.0.normalizer.running_variance f4 [7]
00000000: 3d6d 5a49 e7e7 2f49 082e 9548 95e6 cf42
00000010: d217 e946 e073 764a 5b31 6346
894675.8 720510.44 305520.25 103.950356 29835.91 4.03788e+06 14540.339

network_body.processors.0.normalizer.running_mean f4 [7]
00000000: d407 d53f 7c76 35bd a862 57bf 2a6a fa39
00000010: a8d6 293e 4f92 6bbd 3a38 773f
1.6643014 -0.04430245 -0.8413491 0.00047762814 0.16585791 -0.057512578 0.9657017

network_body.processors.0.normalizer.running_variance f4 [7]
00000000: 3d6d 5a49 e7e7 2f49 082e 9548 95e6 cf42
00000010: d217 e946 e073 764a 5b31 6346
894675.8 720510.44 305520.25 103.950356 29835.91 4.03788e+06 14540.339

network_body._body_endoder.seq_layers.0.weight f4 [128, 7]
00000000: 9dc7 47be bd74 c33d eb2d f2be 0939 05bf
00000010: dbcc 9cbe cc47 063e 671c b7be bfdc babe
00000020: d29a c33d 3fb9 1e3e 8dc4 e6be 9bb3 30bc
00000030: 30d9 513f 1a97 efbe 2624 283f 3bba 0ebe
00000040: ee7b 4d3d bb9d 55bf e057 483e 0cc4 7a3d
00000050: 485a 7d3c efab bbbe acfc 403e 8c8e d33e
00000060: 0c22 3cbd 1648 c73d 31f3 0dbf 441e e63a
00000070: 4864 833e 74b5 853e 614a dd3e 856c bdbe
00000080: 18c0 b0be f888 db3c 6c3d 353e d8e0 53be
00000090: 5ef1 eb3e f4ef ddbe ee39 f0bd b3a5 b0be
000000a0: d0c0 503d e174 833d f803 5b3e 52e6 9bbe
000000b0: f3ac b0be 118f 34bd 8c4d a23e d740 823f
000000c0: 90e0 60bb 519a 7abe afc3 963f c6d4 32be
000000d0: 8954 3f3e a0c5 ecbe 3282 8fbe 8c03 afba
000000e0: 54b9 1e3e 6be5 59bf df6c 2f3f b63c 89bf
000000f0: 7340 c4be 9d16 babe 3897 c83d 63b9 e5be
00000100: 94b3 a6be a9a1 90bc c09d 7cbd 3dc6 b93d
00000110: b621 e33e 9af5 093f ec11 23be 8c0e 133f
00000120: 2d98 eabe 31f1 2abf 5d79 41be b1c7 4fbd
00000130: 78fe 073f fa39 0b3f c2f5 1ebf 1574 de3e
00000140: 6421 a13e 44e0 003f 8601 063f 8624 0bbf
00000150: fe25 273d 17a4 243e 56a9 9b3c 89c6 21bd
00000160: a594 1b3e f168 36bf d4ff a23e 5594 443e
00000170: 9105 87be 860a 6ebe ba85 0dbe 8696 503f
00000180: adf6 06bf 07c5 4bbe ad0b 46be f57e 9a3d
00000190: d117 4ebd c0ac 2b3f 6940 81be 2cd2 c63d
000001a0: 0941 2fbf 628a c0be 936a 963e 17f9 b73e
000001b0: 7e90 9d3e 9439 30be 2dd1 163f 5f65 d93d
000001c0: ef14 5bbf ed96 06be b776 b33e b525 163f
000001d0: 9d67 e2be 5eb7 a73d ff9b b23e c86d cfbe
000001e0: c077 adbe 2f35 a13c 7d4c 2d3e 98a2 f3be
000001f0: 237c 113f 5e4b 3c3f f4b4 09bf 87a9 32be
00000200: e1c1 623d 9b57 7a3e 359a fa3e 0bbd de3c
00000210: ddba 8cbe e9f7 a2be 9149 de3e ad44 e93e
00000220: 44a9 8abe f878 a9bd cc42 89be 0b8d 113f
00000230: d9ae aabd 0097 8ebe 3ca4 eebc 5df5 a63e
00000240: 5224 d0be bb2a a73e 792b c03d 7b96 a03d
00000250: 93bd fe3e c7ee 4abe 24ee 0bbe 690b 4ebf
00000260: 61ea 37bb 9474 273f 0cd3 cd3e 7bc7 683e
00000270: b489 473f fe17 0f3e 6d37 1fbc 8bd6 a8be
00000280: 804f 72bd d621 a6be eb2e a43d b6da b13e
00000290: cb3c cfbe 77ae a2be 41a6 263b 2636 143d
000002a0: bd1d 603e 7745 67be 65c5 3fbf 55e5 67be
000002b0: 85dc 25bf 091d 3f3f 8465 593f d608 583d
000002c0: 0030 06bd 5a7b 31bf 84b6 9cbd 7f7f b43e
000002d0: 4bcb 093f 6a9d bcbe e502 e8be 0f82 a43e
000002e0: 6fd5 3cbf 4d3c 18be db05 35be f72a 0bbf
000002f0: 0e6d 323e fb81 8bbe 8a4a 903e a0f2 cc3e
00000300: 897c 953c 26ac 2bbe 63cc 443e 60c3 44be
00000310: 022f 853e 9eb1 41bf 2cb1 d23e 88e2 20bf
00000320: 47b7 013e 1627 973e c33a 103c 0956 2c3f
00000330: c24b 383e 59f0 45be ed57 c1bd f346 d83e
00000340: 6cf1 9dbd 1140 2a3e e3a4 3fbf 6374 6f3e
00000350: cc48 d7be 82e8 1ebe a6b4 293e b4c4 2f3f
00000360: 849f 2a3e 37b7 183e 6227 1bbf 2a60 903e
00000370: eda2 69be 18c1 9c3d 308a 8b3e b310 93be
00000380: ed5e 18bd a14f 76bd f5ad 133e bfb4 49be
00000390: 1523 3c3e b132 cbbd 6a1a be3e ecf9 223e
000003a0: 86b6 803e d8e0 a43e 76e2 f23e 4622 c3bb
000003b0: a395 193e 53ba 3d3e 05de 343e 456f 823e
000003c0: d994 93be 4f37 5fbe 2b9c 1a3f b370 9ebd
000003d0: 006f bcbe a198 223f 4053 81be 46c7 23bd
000003e0: f048 b4bd d378 443c b09c 123c 3989 ac3d
000003f0: eac7 603e 8b96 24be 7788 a93d bc76 d4be
-0.1950974 0.095437504 -0.47300658 -0.52040154 -0.30625042 0.13113326 -0.35763857 -0.3649654
0.09551014 0.15500353 -0.4507183 -0.010785009 0.81972027 -0.4679497 0.6568016 -0.13938229
0.050167017 -0.834438 0.19564772 0.06122212 0.015463419 -0.36654612 0.18846387 0.41319692
-0.045930907 0.09730546 -0.55449206 0.0017556627 0.25662446 0.26115 0.4322081 -0.36996856
-0.34521556 0.02679871 0.17699212 -0.2069124 0.46082586 -0.43347132 -0.11729799 -0.34501418
0.05096513 0.06418777 0.21388233 -0.30449158 -0.3450695 -0.04408175 0.3169979 1.0176038
-0.0034313537 -0.2447293 1.1778468 -0.17463979 0.18684591 -0.46244526 -0.2802902 -0.0013352497
0.15500385 -0.8511569 0.685255 -1.0721653 -0.3833042 -0.36345378 0.09794468 -0.44868
-0.32558882 -0.01765521 -0.06167388 0.09071014 0.44361657 0.53890383 -0.15924805 0.5744407
-0.45819226 -0.6677428 -0.18893953 -0.05072755 0.53122663 0.5438534 -0.62093747 0.4344794
0.31470788 0.503422 0.52346075 -0.54352605 0.040807717 0.1607822 0.019001644 -0.03949598
0.15193422 -0.7125388 0.31835806 0.19197209 -0.26371434 -0.23246202 -0.13820544 0.8147968
-0.5272015 -0.19899379 -0.19340391 0.075437464 -0.05031568 0.6706047 -0.25244454 0.09708056
-0.6845861 -0.37605578 0.29378185 0.35932228 0.307743 -0.17209464 0.58912927 0.10615038
-0.8557882 -0.13143511 0.3505151 0.58651286 -0.44219676 0.081892714 0.3488464 -0.40513444
-0.33880424 0.01967868 0.16923709 -0.47584987 0.5683004 0.735525 -0.5379174 -0.17447482
0.05536068 0.24447481 0.48945776 0.027189752 -0.27486315 -0.31829765 0.43415502 0.45560208
-0.27082264 -0.08275026 -0.26808774 0.5685584 -0.08334131 -0.2784958 -0.029131047 0.32609072
-0.4065271 0.32649788 0.09383292 0.07841202 0.4975401 -0.19817649 -0.13665062 -0.8048616
-0.0028063285 0.6541226 0.40200078 0.22732346 0.77944493 0.13973996 -0.009717804 -0.32976183
-0.05915785 -0.3244769 0.080167614 0.34737176 -0.4047607 -0.3177373 0.0025428685 0.036184452
0.21886344 -0.22585092 -0.74910575 -0.22646077 -0.6478961 0.7465368 0.84920526 0.0527428
-0.03276062 -0.69328845 -0.076519996 0.35253522 0.53825825 -0.36838847 -0.45314708 0.32130477
-0.73763174 -0.14866753 -0.17678015 -0.54362434 0.17424414 -0.27247605 0.2818187 0.40028858
0.01824786 -0.16764888 0.19218592 -0.19215155 0.26012427 -0.7566165 0.41150796 -0.6284566
0.12667571 0.29522008 0.008803072 0.6731878 0.1799765 -0.19329967 -0.09440599 0.4224163
-0.07712063 0.16626002 -0.7486097 0.23384242 -0.42047727 -0.15518382 0.16572818 0.6865952
0.16662413 0.14913641 -0.6060697 0.28198367 -0.22816058 0.07654017 0.27253866 -0.28723678
-0.037199903 -0.060134534 0.14421828 -0.19697855 0.18372758 -0.09921778 0.37129527 0.1591565
0.25139254 0.32202792 0.474384 -0.0059550134 0.14998488 0.18528108 0.17662819 0.25475517
-0.288245 -0.21798442 0.60394543 -0.077363394 -0.36803436 0.63514143 -0.25258827 -0.039984964
-0.08802974 0.011991697 0.00894849 0.08424611 0.21951261 -0.16073053 0.08277982 -0.41496837

network_body._body_endoder.seq_layers.0.bias f4 [128]
00000000: 8935 413d dc8c 5a3d a9f9 4cbd f065 f63c
00000010: cd48 9d3d 807b 613d 8552 5b3d 7077 483d
00000020: 82c7 b73d db86 93bd cc48 023d e23b 243d
00000030: 894e 7b3d 158d 5cbd fdea 673b 5455 7f3d
00000040: b417 433d 91ac 31bd 1790 d3bc ffb1 6e3d
00000050: e19b 9f3b 5913 8a3d e9e8 993d 4b39 ddbc
00000060: eec8 2e3d a62a ae3c 7813 3f3c 080c 703d
00000070: 68ca 60bc 5878 833d 07df 2f3d 3e35 9bbb
00000080: dd26 813d 5317 963d f05e c23c 2f89 02bd
00000090: 85bd 09bd cc72 713d 7e52 143c db1e 363d
000000a0: 9463 353d 50f9 073c a380 44bd e058 873d
000000b0: 7a76 12bd d266 c73c 3fea 4f3d fa51 b13d
000000c0: abfc 8c3d 56b5 533d fe53 78bd e0a9 bebc
000000d0: 98e4 963d 23c6 5a3d 9eb1 583d fab9 97bd
000000e0: e3e5 eb3c a3f4 ab3d 55c9 923d b934 943c
000000f0: 539b 973c 961b 973d 06bf 853d 51f3 65bc
00000100: 4377 8e3d 95c8 703d f8da 36bd c8e6 78bd
00000110: 3962 e73c a589 92bd 62ab 49bd 567e 833d
00000120: 5201 5b3d 7e54 113d 1617 2e3d 23e2 793d
00000130: 757a 913d e20a 903d 8ffa 2c3d 8b3d 073d
00000140: f71a 8d3d 6331 94bc 8744 6b3d 09a8 783d
00000150: 3966 093d 1de0 61bd 10f1 53bd c833 563d
00000160: 3151 203d efa5 813d a0fc 933d 4a56 d83c
00000170: 5829 a6bc c649 3abd 5a56 be3c 3f1a 803d
00000180: 338b 543d 54ab 203d 76cd 4b3b e4f3 f33a
00000190: 171d 923d d898 603d 13b1 33bd 52c3 193d
000001a0: d89c 873d d832 bf3c afa8 9a3d 952c 67bd
000001b0: 9ea0 9a3d f9c6 8cbd 2a57 d63c dbd0 78bd
000001c0: b29f 9e3d b11b 873d f97b 2d3d 9dcc 7d3d
000001d0: 6720 55bc ca41 b03d d521 3a3d 958f 2d3d
000001e0: 16d4 01bd 6dc5 19bd e1e6 393d 085a 773c
000001f0: ae4e e0bc 241c 233d 9bf3 3e3d 64c7 383d
0.047170196 0.05335699 -0.050042782 0.030077904 0.07679901 0.05504942 0.053545494 0.04894203
0.089736 -0.07203456 0.031807706 0.04009617 0.061354194 -0.053845484 0.0035387867 0.062337235
0.047630027 -0.043377463 -0.025825543 0.05827522 0.004870877 0.067419715 0.07515127 -0.027004858
0.04267209 0.02126057 0.011662357 0.058605224 -0.013720132 0.06419438 0.042937305 -0.0047365716
0.06306241 0.073286675 0.02372691 -0.03186911 -0.033628006 0.05894737 0.009052871 0.04446302
0.04428442 0.008299187 -0.04797424 0.066087484 -0.03575752 0.02434102 0.050760504 0.08658214
0.0688413 0.051686607 -0.060626976 -0.023274362 0.073678195 0.053411614 0.052903764 -0.07408519
0.028796142 0.0839627 0.07167307 0.018091546 0.018506682 0.073783085 0.065305755 -0.014035062
0.06956341 0.05878504 -0.04464242 -0.060766965 0.028245078 -0.0715516 -0.04923571 0.06420581
0.053468056 0.03548097 0.042502485 0.061006676 0.07103435 0.07033326 0.04223114 0.033017676
0.06889909 -0.018089956 0.0574384 0.060707126 0.033544753 -0.05514537 -0.051743567 0.052295476
0.03913993 0.063304774 0.07225919 0.026408333 -0.020283386 -0.045480512 0.023234535 0.06255006
0.051890563 0.03922589 0.0031097806 0.0018612114 0.07134455 0.054833263 -0.043870043 0.037539788
0.066217124 0.023339674 0.07551705 -0.056439 0.075501665 -0.068738885 0.02616461 -0.060746055
0.07745303 0.065970786 0.042354558 0.061962713 -0.013008214 0.08606298 0.04544242 0.04237326
-0.0316964 -0.037541796 0.0453862 0.015097149 -0.027381267 0.03982176 0.04661904 0.04511203

network_body._body_endoder.seq_layers.2.weight f4 [128, 128]
00000000: 5f4d 193d c4ab 34be bda6 adbc 466e 91bc
00000010: ddd0 023e 6600 b43d 70e2 563e 563c 013e
00000020: ee03 14bd 9f35 9fbd 175b 33bd da19 fb3d
00000030: de95 36bd 0078 bbbd d11b 40bd 4687 9a3d
00000040: 20a5 453e d53b 513e e33f 1c3d 84e4 c53b
00000050: 941c 993d edf2 913c bfac 6f3e e4d3 3ebe
00000060: b74a 313e c225 7cbd 1bc4 50be e3e0 803d
00000070: 9a4a 89be bf80 233d e191 573d 5bc9 0a3e
00000080: ce89 d93d 5d34 c0bd 5543 143e b656 a9bd
00000090: c0b4 bb3c 66f5 063d 0ff3 78bd 671b af3c
000000a0: 59c5 a23d 6e66 423c f84c ecbd 1b8e ecbc
000000b0: 46cf 7abd dff6 00be 0229 193d 27cd f5bd
000000c0: 4216 3c3d 4b4a dfbb 7141 d2bd 67b0 b43c
000000d0: e509 b43c 506d 4a3d d582 bd3d d11e 10be
000000e0: 1ad8 923d 5488 063d 0ed9 073e 4e14 183e
000000f0: ca79 6a3d f6ec 9e3d c94f 533d 7675 013e
00000100: a79b 57bd 4d17 febb e3f0 2cbd 5aac 14be
00000110: b8c6 493d 1454 bfbd 95d3 36bd 0598 0ebd
00000120: b323 dc3d 9776 0e3d cba0 97bd 09c8 9b3b
00000130: eddf 633e d6df 6d3d ea27 563c 42e5 36bd
00000140: 99a3 1e3e ccee b33c 340d 9dbd 30a3 3abd
00000150: 8dcd 04bd 39d3 41bc c5a4 4ebd 3e48 af3b
00000160: 3c5b 5b3d 61e9 733c 984a 283e d965 1dbd
00000170: e5b9 ddbd 6f62 0bbe 0c18 11bd 18d0 1a3e
00000180: 5455 eebc 3c24 ebbd 656d 043e 1742 e3bd
00000190: e1ce 8d3c 9f78 273b ecd2 75be 476e f1bc
000001a0: 6c0c 5ebc 7dc6 723d a5e5 103d d442 ccbd
000001b0: 7293 213e 6049 aabb e410 23be 8a95 a9bc
000001c0: 6aae 8a3d f661 263d db43 9d3d bb28 503d
000001d0: 64b3 ad3c 2d00 c53d 99ef acbd 3f61 913d
000001e0: e124 a0bd c163 083e f3ef 1e3d 35c9 203e
000001f0: 5e1e 70bd f66b d3bd 102e 393e 5261 d73d
00000200: 5d44 373e debb 7e3d d7a1 893d ce2b 653d
00000210: a819 bcba a9cd bcbd f11f be3d 6c52 01bd
00000220: c549 adbc 4971 203e 3ffb 5abb f191 5c3d
00000230: 1142 5b3d 9e2f 203d 7420 103d a2f6 d73d
00000240: aaf5 c03b f2bf 153e bd29 1a3c ab02 f03d
00000250: cf92 9b3d bd19 a03d 4144 ac3d af71 303d
00000260: 9ac0 0a3e 43a8 963c d690 b13c e8b5 6f3d
00000270: 350b 6dbd 4408 acbd 27b8 30be 036f 5ebc
00000280: aaed 183d a315 393d 4f27 103d e2eb a63b
00000290: c686 b23d b164 913d 64c5 873d 063c 16bd
000002a0: 4368 813d ef79 5ebc 7563 0c3e 1315 ea3c
000002b0: 5226 463d d522 e53c 492d 58bd df68 99bc
000002c0: c52b 143e 4e23 20be c942 803d f39a 743d
000002d0: 3de0 2c3e 37b9 b9bc 80ef 023e 4d6a a03d
000002e0: 24f5 023b a7ee 143e 0a08 dc3a f488 043c
000002f0: 7a14 9e3c 285a c0bd df8c 7a3d 565c 7cbd
00000300: f232 b3bd d850 7d3e 9b14 97bd dab6 8c3d
00000310: 5e7c 8e3d e7a8 8ebd 99af dabc a582 563d
00000320: 0781 70bc 7644 03be d726 cfbd ff95 a7bc
00000330: 30a4 553c fc25 263d 7122 a5bd e45d 4d3d
00000340: e206 ff3c f8a1 a539 c41d c9bb ad97 c1bc
00000350: 9afd b8bc 12a3 45bd bd4e 46be f567 253c
00000360: 0c4d babc 0622 d43d f2fd 453e bf97 7dbd
00000370: 9fcc 14bc 9de1 85bd 084d b5ba 5eae 7bbd
00000380: d2cd 2d3d 82fc 983d 5894 e7bd ad22 01bd
00000390: 7755 9abd 8bb3 c03c 1506 d1bd 5e5d d3bd
000003a0: 5afc c23d a6c7 163d 9c26 a9bc bd89 0cbd
000003b0: 84aa 863c e8cc 12bc b631 b6bd 621b 723d
000003c0: 8150 123d b270 013e f2da b3bd 14ce 4bbd
000003d0: 2052 58bd a078 72bd 5988 b43a 9248 9a3c
000003e0: 2d80 183d 638f ba3d f504 86bd b143 19bd
000003f0: 93d2 9cbc eb59 a73b 5d0b 993c 990b 23bd
0.037427302 -0.17643648 -0.021197671 -0.017752778 0.12774988 0.087891385 0.20984817 0.12620673
-0.03613656 -0.07773899 -0.043788042 0.1226079 -0.04457652 -0.091537476 -0.046901528 0.075453326
0.19301271 0.2043298 0.038146865 0.006039204 0.07476154 0.017816031 0.23405741 -0.18635517
0.17313658 -0.061559446 -0.20387308 0.06292894 -0.2681473 0.039917704 0.052629355 0.13553374
0.10621987 -0.093849875 0.1447881 -0.08268492 0.022913337 0.032948874 -0.060778674 0.021375371
0.07947797 0.011865241 -0.11538118 -0.028876355 -0.061232828 -0.12594174 0.037392624 -0.1200202
0.045919664 -0.0068142763 -0.10266388 0.022056771 0.021977374 0.049420655 0.0925347 -0.14074256
0.07170124 0.032844856 0.13266394 0.14851496 0.057245053 0.077600405 0.05158976 0.12642464
-0.052638676 -0.0077542425 -0.042221915 -0.14518872 0.04926178 -0.093422085 -0.044635374 -0.034812946
0.107489966 0.034781065 -0.07403716 0.0047540707 0.2225339 0.058074795 0.01307104 -0.04465223
0.15492095 0.021964453 -0.07668534 -0.045565784 -0.03242259 -0.011830145 -0.050450105 0.005349188
0.053553805 0.014887185 0.16434705 -0.038427208 -0.10826472 -0.13611768 -0.035423324 0.15118444
-0.029093422 -0.114815205 0.12932356 -0.1109659 0.017310562 0.0025554074 -0.24006242 -0.02947153
-0.013552766 0.059271324 0.035375256 -0.09973684 0.15778902 -0.0051967353 -0.15924412 -0.020701189
0.06771548 0.040620767 0.07678958 0.050820094 0.021203704 0.09619174 -0.08444137 0.07098626
-0.07819534 0.13319303 0.038803052 0.15701754 -0.05862271 -0.10323326 0.18083978 0.10516609
0.17897172 0.062190883 0.067203216 0.05594998 -0.0014350908 -0.09218914 0.09283436 -0.031572744
-0.02115334 0.15668215 -0.0033413914 0.053850118 0.053529803 0.03910791 0.0351872 0.10545088
0.0058886604 0.14624003 0.009409365 0.11719259 0.07596361 0.07817409 0.08411456 0.043077167
0.13550034 0.01839078 0.021675508 0.05852309 -0.057872016 -0.08400014 -0.17257749 -0.013576272
0.03733603 0.04518665 0.035193738 0.0050940374 0.08717112 0.070992835 0.06629446 -0.036678337
0.063187145 -0.013578876 0.13709815 0.028574502 0.04837639 0.02797071 -0.052777562 -0.018726764
0.14469822 -0.15638468 0.06262738 0.059718084 0.16882415 -0.022671325 0.12786674 0.07832775
0.001998254 0.14544164 0.0016787064 0.008089293 0.019296873 -0.09392196 0.0611695 -0.061611496
-0.087499514 0.2473787 -0.07376977 0.06870814 0.06957315 -0.06965809 -0.02669506 0.052370686
-0.0146792 -0.12819085 -0.1011483 -0.020457266 0.013039634 0.04056357 -0.0806321 0.05013837
0.031131212 0.0003159193 -0.0061375815 -0.023631895 -0.022581864 -0.04825122 -0.19365974 0.010095586
-0.022741817 0.10358052 0.19335154 -0.061912294 -0.009081989 -0.06537173 -0.0013832161 -0.061445586
0.042432614 0.07470037 -0.11307591 -0.03152721 -0.075358324 0.023523113 -0.10206238 -0.10320543
0.095207885 0.036811493 -0.020648293 -0.034311045 0.01643873 -0.008959986 -0.088962 0.059108146
0.035721306 0.12640646 -0.08781995 -0.04975708 -0.052812696 -0.05919707 0.0013773545 0.018833432
0.037231613 0.0910938 -0.06543914 -0.03741807 -0.019143378 0.0051071546 0.018682176 -0.039805982

network_body._body_endoder.seq_layers.2.bias f4 [128]
00000000: e1b5 543d 7bf6 433d 8d38 473d 7044 843d
00000010: 7a20 5e3d 5cd7 703d 056e a53c 8fff 68bd
00000020: edfd 2a3d 8e6c 843d 2e66 773d 17c3 973d
00000030: eb20 3cbd 0bc8 553d 75ff 3e3d 3333 943d
00000040: d44a 603d dc51 4bbc e4e1 233d 7795 3c3d
00000050: edb6 69bd 6b0c 743d 2a1c 52bd bd90 913d
00000060: f881 503a a7ef 583d f16c 48bd 5d12 10bd
00000070: 0894 8e3c 456b 38bd 5392 23bd 4b6c 5a3d
00000080: 65fc 043d 61f8 68bd ed8c 6abd 754f 873d
00000090: 34bc 23bd 5bcc 72bd 79d9 6d3d bbb9 41bd
000000a0: 884e 5e3d 2fa1 a43d acdd 343d 35a1 363d
000000b0: 3b77 31bd 8f65 483d 49cc 033d 9169 9d3d
000000c0: 5bc5 87bd e4e0 803d e61b 08bd d6d9 43bd
000000d0: 7c17 403b 1913 51bd 3f65 58bd 7882 143d
000000e0: 3dc4 15bd 0b53 47bd c42b 12bd f303 0b3d
000000f0: 82ee 943d 974b 0d3d 0416 193d 05cc 19bd
00000100: 298e 36bd 3ea3 643d 574f 863d 846e 62bd
00000110: 5a27 423d 7ccc 11bd 1f04 65bd 2232 963d
00000120: 22a3 54bd e34c 00bd f427 20bd d69f 6b3d
00000130: 9389 7a3d b86c e43c 5404 44bd c670 00bd
00000140: 7b49 4a3d 9e3d 63bd 52da 50bd 8c7e 553d
00000150: 37ed c13c d8aa c9bc ae03 50bd 506f 54bd
00000160: 6893 073d 284c 863c e3d4 ec3c bf9e a4bc
00000170: 7814 eabc 9cff 403d 0bac 4f3d b596 fa3c
00000180: c18e 3f3d 3b49 5bbd ef50 1b3d 1f25 67bd
00000190: 0c71 38bd c966 533d 1216 a83c 0132 833d
000001a0: 4229 c43c 6599 843d bcb1 103c f3fd 4e3d
000001b0: 5fe7 623d d290 3cbd 04c5 4ebd 8017 833d
000001c0: 5d32 54bd 0bd4 3fbd cdf5 893d 01d7 ffbb
000001d0: 7080 7b3d b16d 7b3d 7d51 9a3d a6f0 6d3d
000001e0: b974 3e3d 45dd 2bbd 217b 523d 1dea 333d
000001f0: 931f 163d 127a 35bd aad1 523d 725d 48bd
0.051931266 0.047842484 0.048637915 0.06458366 0.05423019 0.058799133 0.020194063 -0.056884345
0.04174607 0.06466018 0.06040018 0.07410257 -0.04592983 0.05219273 0.04663034 0.07236328
0.05475886 -0.0124096535 0.040010348 0.04604098 -0.057059217 0.059582155 -0.05129639 0.07107685
0.0007953937 0.052962925 -0.04893202 -0.035173763 0.017404571 -0.045024175 -0.039934468 0.053325932
0.032467265 -0.056877498 -0.057263304 0.06606952 -0.039974406 -0.05927692 0.058068726 -0.047296267
0.054274112 0.08038556 0.044156715 0.044587333 -0.043326598 0.04892498 0.032177243 0.07686151
-0.066294394 0.062928945 -0.03322973 -0.047815166 0.0029310873 -0.051043604 -0.05283093 0.036257237
-0.0365641 -0.04866318 -0.03568627 0.033939313 0.07272054 0.034495916 0.03737451 -0.037548084
-0.04456917 0.055819742 0.065581016 -0.055281177 0.04740081 -0.035595402 -0.055912133 0.07333781
-0.051913388 -0.031323325 -0.039100602 0.05752548 0.061166357 0.027883872 -0.04785569 -0.03135755
0.049386483 -0.055478685 -0.050989456 0.052122638 0.023672683 -0.024617597 -0.05078476 -0.05186397
0.033099562 0.016393736 0.028910106 -0.020095227 -0.028574213 0.047118768 0.050701182 0.03058944
0.046767 -0.053536635 0.03791898 -0.056431886 -0.045029685 0.051611695 0.020518336 0.06406022
0.023945455 0.0647457 0.008831438 0.050535154 0.055396434 -0.04603655 -0.050480857 0.06400967
-0.051805843 -0.04683308 0.06736336 -0.007807613 0.061401784 0.061383907 0.07535074 0.05809083
0.046498034 -0.041959066 0.051386956 0.04392444 0.036651205 -0.04430587 0.051469482 -0.04891724

action_model._discrete_distribution.branches.0.weight f4 [3, 128]
00000000: 589a 00bc 99c9 91ba ce28 e8bb 02c7 a0bb
00000010: be9e d3bb d534 49bc 0d26 68bc 0cc1 bf3c
00000020: 86cd 0fbd 4a33 b4bc a227 aabc 2fcb c7bc
00000030: 67c3 053d 1d75 96bc 19e8 80bc bcde d0bb
00000040: d470 5dbc ae61 99bc 3481 cdbc 64e4 53bc
00000050: 5076 f63a 9cda fcbb 1c56 fa3b 045d 2cbc
00000060: f611 1c3c 2006 9239 6651 7e3c 4ce7 033d
00000070: 8d7b adbc 0e21 733b 8766 733c 0d34 00bc
00000080: 8c0d 77bc 6b5a 0c3c f7d2 0c3c 26b7 f8ba
00000090: babe 273d 471f 9e3c c2c7 90bc c8db 06bc
000000a0: 596a 0f3c 2a84 b7bc 6af7 debb a8b9 adbc
000000b0: 5f52 c33c 9265 26bc 1845 c0bc f50a a0bc
000000c0: db3c 0d3c da9d fdbb 4684 123c 125c f73b
000000d0: 2369 b0bc 63fc f03c 2f40 123d fad3 e9bc
000000e0: ba97 2b3c 2a02 643c e31e 37bb 0242 8ebc
000000f0: 0420 32bd 1b53 7fbb 8f05 d7bb 8fde b03b
00000100: 9090 b43c 3ed4 2f3b 6781 92bc 6f6c 5f3c
00000110: c275 6abb c600 1d3c 5bb5 633c 87f6 b6bc
00000120: e7d4 fb3a 9eac b1bb 08b9 e93c e54d 1ebc
00000130: 9dd5 08bc 4c9d 13b9 48bb e83c 24b2 aa3c
00000140: 7e9f 36bc be1c b23c 0316 123d 4960 27bc
00000150: d4b7 9abc 7993 4c3c 5bf8 443c 80e5 093c
00000160: d36c fbba a322 973b 399b 18bc ca62 0bbc
00000170: 07ee 643c 28b5 a63b 4675 3a3b 64a0 32bc
00000180: fc85 1c3c 4b39 6c3c c544 b4bc 403e 1b3c
00000190: 9af1 b53b 335a a53b 270b aeb8 c645 01bc
000001a0: 7f2a 1abc 07e4 0ebc 9c33 81bb d4e5 53bc
000001b0: 2da1 0dbc 2d8a 31bc 9089 5d3c 9f50 40bc
000001c0: e478 c93c 2462 f13c 4c2a 2cbd 2fd2 7cbc
000001d0: b13c febb 1025 6abc b210 f5bc a899 c2bc
000001e0: e830 9fbc 7854 873c b4af 90bc 061e d1bb
000001f0: 4d1e f43b 2e98 163c fcd2 03bd 87e3 8e3c
00000200: 3577 58bd 86f7 f6bc 61c7 90bc 92fe 78bd
00000210: f36b 16bd 5036 2bbd 47d5 2ebc 6e60 493d
00000220: 8ca4 12bd 7a5b 51bd e005 3bbd ea67 47bd
00000230: 07a6 453d 543a 3ebd c873 5bbd d064 27bd
00000240: 07e7 22bd 348c c63b bfcd a2bc ebc8 0cbd
00000250: 9680 663d b56c 30bd fce9 1b3d 6e02 5dbd
00000260: 9d5e 5c3c aad3 96bc 72ce 433d e5eb bf3c
00000270: 8a1d 7a3c b19d 723d 4cff 553d 255c 1abd
00000280: 0b31 63bc 382e 383d 6b08 103d 6fa3 5cbd
00000290: 6eb0 1b3d aff0 293d 26f0 6bbd 0910 9d3d
000002a0: 94b4 31bd 070b 80bd 4d59 e0bc 5998 26bd
000002b0: fe91 6b3d f3aa efbc b0cb b9bc 9209 84bd
000002c0: 2e6e fc3c 71a5 28bd f723 273d e932 323d
000002d0: 88cb 0ebd e884 0b3d 9626 813d 2558 17bd
000002e0: 2abe a63b 40cb 603d 5acc 113d 3b46 8cbc
000002f0: 4921 8abd 491b 41bd dbe4 29bd c71d f63c
00000300: e499 e63c a257 57bd 13df 8cbd ddaa 463d
00000310: c25a 41bd 7fd3 9b3c 5fb4 663d 6f32 88bd
00000320: 3546 643d 54a1 023d ac4f ec3c 2caa 24bd
00000330: fc9f 37bd 41eb 1bbd 0045 5c3d a45f c53c
00000340: f61a 46bd 0926 4c3d a191 823d 40a1 2abd
00000350: 47f8 14bd 5a87 daba 5d8e 7e3d c1e4 213d
00000360: be55 30bd 342b 2bbc e437 9ebb a4ee 0dbd
00000370: 3c74 783c 5a32 93bc 250b 27bd 2132 3ebd
00000380: 3627 1dbd 7ba6 1c3d 2e39 bcbc a8c2 4e3d
00000390: 0af4 233d 9532 94bc bdb0 f7bb 3479 41bd
000003a0: dd32 efbc 8507 48bd 0563 013c 9457 e1bc
000003b0: c960 58bd 42e4 8cba d7b1 1e3d 57ff 89bd
000003c0: 78ac 493d 5083 4b3d b3d9 2abd e556 273d
000003d0: af61 62bd 8d5a 65bd b8bf 67bd 253a 7abd
000003e0: cb35 15bd 3ffa 713d 9cbd febc 3a62 f5bc
000003f0: 6069 fcbb e015 443d 6e46 33bd b043 473d
-0.007849298 -0.0011122703 -0.0070849424 -0.004906536 -0.0064581325 -0.012280663 -0.014169228 0.023407482
-0.03510811 -0.021997113 -0.020770852 -0.024388878 0.032657053 -0.01836639 -0.015735673 -0.0063742083
-0.01351567 -0.018723335 -0.025086023 -0.012932871 0.001880357 -0.00771649 0.0076396596 -0.0105202235
0.009525767 0.00027851854 0.015522337 0.032203004 -0.021177078 0.003709856 0.014855987 -0.00782491
-0.015078913 0.008566479 0.00859522 -0.0018975481 0.040953375 0.019302024 -0.017673377 -0.008231111
0.008753383 -0.022401888 -0.0068043964 -0.021206692 0.023842989 -0.010156052 -0.023470446 -0.019536475
0.008620466 -0.0077397646 0.008942669 0.0075488174 -0.021534508 0.029417222 0.03570574 -0.028543461
0.010473186 0.013916532 -0.0027941994 -0.01736546 -0.043487564 -0.0038959447 -0.006561942 0.005397625
0.022041589 0.0026829387 -0.01788397 0.013636692 -0.0035775756 0.009582704 0.013898219 -0.02233435
0.001921323 -0.005422189 0.028530613 -0.009662126 -0.008351711 -0.0001407761 0.028409615 0.020836897
-0.011146424 0.021742221 0.035665523 -0.010215827 -0.018886484 0.012486332 0.012022103 0.0084165335
-0.0019182212 0.0046122833 -0.009314352 -0.00850744 0.013972766 0.0050875135 0.0028451248 -0.010902498
0.009553429 0.014417957 -0.022005448 0.009475291 0.005552483 0.005046153 -8.299044e-05 -0.00789017
-0.009409546 -0.008721358 -0.00394292 -0.012933213 -0.008644384 -0.010836166 0.013521567 -0.011737972
0.024593778 0.029465742 -0.042032525 -0.015430971 -0.0077587 -0.014291063 -0.029915188 -0.02375491
-0.0194325 0.01651977 -0.017661907 -0.006381753 0.007449901 0.009191556 -0.032183632 0.017442478
-0.05284806 -0.030147325 -0.017673196 -0.060789652 -0.036724042 -0.041799843 -0.0106709665 0.04916423
-0.035801455 -0.05111263 -0.0456599 -0.048683085 0.04825404 -0.046442345 -0.053577214 -0.040867627
-0.039771106 0.006059194 -0.019873498 -0.034371298 0.056274973 -0.04307242 0.03806494 -0.053957395
0.013450292 -0.018411476 0.047804303 0.023427913 0.015265832 0.059232417 0.052245423 -0.037685532
-0.013866673 0.044965953 0.035164278 -0.0538668 0.038010053 0.0414893 -0.05760207 0.07669074
-0.043385103 -0.06252103 -0.027386332 -0.040672634 0.057512276 -0.02925632 -0.022680134 -0.06447138
0.030814257 -0.041173402 0.040805783 0.043505583 -0.03486207 0.034062296 0.06306188 -0.036949296
0.0050885873 0.054881334 0.035595275 -0.017123332 -0.0674463 -0.04714516 -0.04147802 0.030043496
0.028149553 -0.052573808 -0.068784855 0.04850279 -0.047205694 0.019021748 0.05632436 -0.066502444
0.055731017 0.031892136 0.028846584 -0.04020135 -0.044830307 -0.038066152 0.05377674 0.024093457
-0.048365556 0.04984096 0.06375433 -0.041657686 -0.03636959 -0.0016672418 0.062147487 0.039524797
-0.04305052 -0.010447312 -0.00482844 -0.034651414 0.015164431 -0.017968345 -0.040782113 -0.046434525
-0.038367473 0.038244706 -0.022976484 0.050478607 0.040027656 -0.018090526 -0.0075589106 -0.04723473
-0.029199058 -0.048835296 0.007897143 -0.02750758 -0.052826677 -0.0010749178 0.03874382 -0.06738155
0.049236745 0.049685776 -0.04171152 0.040854353 -0.05526894 -0.05599456 -0.05657932 -0.061090607
-0.036428254 0.059076544 -0.031096272 -0.029954065 -0.0077029914 0.047872424 -0.04376834 0.048648536

action_model._discrete_distribution.branches.0.bias f4 [3]
00000000: 1ddc a8bc 9ea1 35bd 7f9c 373d
-0.02061277 -0.044343583 0.04482698

action_model._discrete_distribution.branches.1.weight f4 [2, 128]
00000000: 1ff2 8a3a 9649 8cbb 1baa 0c3d 7506 1e3c
00000010: 2a42 0ebb 4c93 10bc ad58 85bc c091 06bc
00000020: 44ea 6fbb cfbc 003d 69e7 323b 4396 a43c
00000030: dae1 d3bc 7e6a a0b9 c13e 923a cdff 123c
00000040: cd0b 97bb f2c2 16bc 0c6f 07bc e0ec 3cbc
00000050: ddbe 80bc 7f7a bd39 83c6 f0bb 7f30 643c
00000060: cd82 b8bc 940c 683c 1fbe f1bc 1c9a 503b
00000070: 8ec5 bbbb cba7 67bb 603e 24bb 712c 8c39
00000080: b092 0abc d6b0 38bc d6f6 74bc 756f ec3b
00000090: 32e9 c1bc c226 cfbc 835a 32ba b6d6 f2bb
000000a0: 8f8a cfba 2de5 063d 56d8 0dbc 8374 223b
000000b0: 3b72 b3bc 8e65 8ebb 6c77 4bbc 2f8d c03c
000000c0: df16 dbbb 957d 1b3b 0e75 5c39 72c1 0dbc
000000d0: f0d0 b73c ba35 07bc c74e e8bc 37cb af3c
000000e0: bdae 7a3c f34e aebc 45c3 06bc 42c9 233c
000000f0: 5c96 c73c 2153 c43b 2694 75bc 0ced fcbc
00000100: d930 023c 787d 5cbb 78d2 bb3c 4098 57bc
00000110: 1b0f abbb bae7 b0bc 4b2d 5bbb 471f 343c
00000120: b1c4 9dbc 64f5 393c ffb9 99bc 69c2 84bb
00000130: f81b a83b 5b9e d93c 28c8 02bc 223f b4bc
00000140: 1aa0 8dbc b242 c7bc a48d 64bc bcd4 053c
00000150: d9ea aebc daf5 12bb a669 aebb a1c1 2b3c
00000160: 856c 213c 0550 8abc 0b1b debb 23bb d33b
00000170: 7f4b aa3c 6a52 af3b f6b3 3d3a 434b 3d3c
00000180: 02fa 2bbc 3312 61bc 9fa0 21bb f3ff 06bb
00000190: f7aa 5b3c c33d ab3b 51aa 12bc e739 683c
000001a0: e796 c1bb 9001 623c e108 61bb 0f5c 41bc
000001b0: 19c1 d939 e0bb d6b9 5d92 433c 3813 343c
000001c0: d949 40bd a828 81bc 80e2 613c fbf3 3f3c
000001d0: 2e8d 943b 246e 013b 2cbd 9b3c b7bb 053c
000001e0: 9e6b 39bc a541 8abc ad84 55bb b8f6 86bc
000001f0: 62ba 42bc 75c3 03bd 7712 013b 7ea3 15bc
00000200: 9b49 213b a243 4ebb b907 c3bc b7b8 20bc
00000210: 7bfc 3cbc 32e4 3dbc d107 f83b e0b5 ea3b
00000220: 6828 173c 1acc 1bbd d67e 8fbc 12f8 efbc
00000230: 3d05 4b3b 985a 9f3b 9190 29bc 5fa8 b5bc
00000240: 9feb 0cbc c457 b83b 3593 5abc 0771 2abc
00000250: 3e36 693c 4668 92bb d38f 40bc b4ee 05bd
00000260: 12f0 043d 9d96 c43a d4ca 803c e734 e33c
00000270: b5d5 3a3c 636e 5c3b 2271 1d3c 2248 333c
00000280: e933 debb 4383 833c 741a 583c ab47 a4bc
00000290: 4440 c63c 8360 1a3c 1832 12bc 3b42 b53c
000002a0: c341 3ebc 4c3c 7cbc d0e6 02bb 2ca5 023c
000002b0: 1c93 f13c 0af7 473b 0195 9a3b 2650 dbbc
000002c0: 31f1 893c 27ef 98bb 44d5 6d3c cbdb 4e3c
000002d0: 105b cbbc bfe7 0f3c 3aa2 593c c238 e0bc
000002e0: 24b6 4abc 7fd9 7c3c 39cb 19bb a020 06bc
000002f0: ea72 10bd 79c3 34bc 40d8 a93a f0a6 ce3c
00000300: 9e3e 6cbb 9e53 e9ba 1610 0fbc 6813 693c
00000310: 6be0 f33b 1479 f83c b16f 5e3c de72 66bc
00000320: d174 4e3c 3775 713b 7a80 ba3c 79c4 02bc
00000330: 7782 85bc d675 5cbc d8a9 af3c 7a90 843c
00000340: 621d 133b 03d5 d63b f629 9f3c 42cc 243b
00000350: 29e6 593a 9aa5 813c c03d e03c 385e be3b
00000360: 98bf 673c fecb 293c 8fa6 c43b 5b01 b4bc
00000370: 125d 51bb 4211 77bb 6620 48bc eafc 133c
00000380: da1e 8a3c 0cfb 8b3c 4590 23bc a43f 7f3c
00000390: bf2a 8d3b e799 2e3b 28a0 c83c 048e c4ba
000003a0: 0910 0a3c 9059 123b e137 623c 94e5 acbb
000003b0: b564 4abc 6c34 10bc 968f 793c 4ecd 26bc
000003c0: d439 353c 01b3 4c3c b8ae e1bc 04b4 2dbc
000003d0: c134 27bc da16 82bc 1720 aabc 0dd8 86bc
000003e0: 2dfe 4ebc 1f78 573c 3aa2 f2bb c92f 9c3b
000003f0: 1ddb 663c a436 c13c 2f92 5abc 61cc 9e3c
0.0010600722 -0.004281233 0.034341913 0.009645094 -0.0021706917 -0.008824181 -0.016277635 -0.00821346
-0.003660814 0.031430062 0.0027298576 0.020091182 -0.02586453 -0.0003059692 0.0011157618 0.0089721205
-0.004609561 -0.009201752 -0.008266222 -0.011531085 -0.01571601 0.00036140156 -0.007347883 0.013927578
-0.022523308 0.014163155 -0.029509602 0.0031830138 -0.0057303375 -0.0035347815 -0.0025061592 0.00026735992
-0.008457825 -0.01127263 -0.014951428 0.007215435 -0.023670767 -0.025287036 -0.00068036484 -0.0074108494
-0.001583414 0.032933403 -0.008657536 0.0024788685 -0.021905055 -0.0043456024 -0.012418609 0.023504822
-0.006686076 0.0023725976 0.00021024441 -0.008652078 0.022438496 -0.0082525555 -0.028357876 0.021459205
0.01530045 -0.02127788 -0.008225267 0.009996714 0.02436369 0.005991355 -0.014988935 -0.030874752
0.0079462165 -0.003364412 0.022927508 -0.013158858 -0.0052203066 -0.02159487 -0.0033443745 0.010993785
-0.019258829 0.01135001 -0.018765448 -0.004051496 0.0051302873 0.026564768 -0.007982291 -0.02200276
-0.017288256 -0.024323795 -0.013949785 0.008168396 -0.021352218 -0.002242437 -0.005322653 0.010483176
0.009852533 -0.01688386 -0.006778126 0.0064615174 0.020787952 0.0053504007 0.0007236594 0.011553588
-0.010496618 -0.013737249 -0.0024662388 -0.0020599335 0.01340746 0.0052258684 -0.008951739 0.014173961
-0.0059078815 0.013794318 -0.0034337568 -0.011801734 0.00041533334 -0.00040957239 0.011936751 0.01099091
-0.046945427 -0.015766457 0.013786912 0.011715884 0.0045334315 0.0019749487 0.019011103 0.0081624305
-0.011317162 -0.016877005 -0.0032580302 -0.016475067 -0.011885257 -0.032168824 0.0019694844 -0.009133218
0.0024610523 -0.0031473418 -0.023807393 -0.009809664 -0.011534805 -0.0115900505 0.007569291 0.0071627945
0.009225942 -0.038036443 -0.017516535 -0.029293094 0.0030978464 0.0048630945 -0.010349409 -0.022175012
-0.008601098 0.005625697 -0.013340761 -0.010402924 0.014234124 -0.004467997 -0.01175304 -0.03269835
0.03245551 0.00149985 0.015721716 0.027735187 0.011403491 0.0033635132 0.0096094925 0.010942491
-0.0067810905 0.016053801 0.013189901 -0.020053705 0.024200566 0.009422424 -0.008923076 0.022126308
-0.0116123585 -0.015395235 -0.0019974 0.00797395 0.029489093 0.0030512237 0.0047174697 -0.026771616
0.016838642 -0.004667181 0.0145161785 0.012625645 -0.024823695 0.00878328 0.013283307 -0.027370814
-0.012372527 0.0154327145 -0.0023467077 -0.008186489 -0.03526584 -0.011032932 0.0012958124 0.025226086
-0.0036048065 -0.0017801409 -0.0087318625 0.014225818 0.007442524 0.030331172 0.013576434 -0.014065472
0.012601093 0.0036843547 0.02276634 -0.007981413 -0.016297562 -0.013455829 0.021443292 0.016182173
0.0022447933 0.0065561547 0.019429188 0.0025146161 0.00083121896 0.015826035 0.027373195 0.0058095716
0.014144801 0.010363577 0.0060013006 -0.021973303 -0.0031946343 -0.0037699495 -0.012214756 0.009032467
0.016860414 0.017087482 -0.009983127 0.015579138 0.0043080742 0.0026642026 0.024490431 -0.0014995937
0.008426675 0.0022331215 0.013807268 -0.0052763913 -0.012353112 -0.008801561 0.015231987 -0.010180784
0.011061151 0.01249385 -0.027549133 -0.010602001 -0.010205449 -0.015880037 -0.020767255 -0.016460443
-0.012633842 0.013151198 -0.007404593 0.0047664386 0.014090327 0.023585625 -0.013340517 0.019384565

action_model._discrete_distribution.branches.1.bias f4 [2]
00000000: 6dd5 a83c 6cd5 a8bc
0.020609582 -0.02060958

exp_avg f4 [128, 7]
00000000: 01e5 13b7 3839 9b35 d342 03b4 e2ef 1d36
00000010: 6cfe f736 980e 28b6 19aa 71b6 7025 94b6
00000020: 231e afb7 1a9c 2cb6 a4ca 06b6 30ef 05b8
00000030: 7a37 cb35 4c65 3338 effe 1737 f64e 5138
00000040: c16d 8037 fcfe a0b6 abf3 56b8 fc08 80b6
00000050: f9bb 2938 d10b 4337 9523 95b6 2a16 e0b6
00000060: 4ba1 7837 517b 9737 3351 30b6 1e9f 62b8
00000070: d054 a438 e56f 9537 5882 ba36 0fa7 58b7
00000080: 3550 cab8 26bc 9db7 7c92 58b8 07af 0b37
00000090: bc4d eeb3 99fc 3d33 3332 0f36 18bb 86b7
000000a0: 2f10 3c35 80db b4b7 5606 0638 0434 80b6
000000b0: 39a1 dfb6 3e31 d836 94c7 4738 7cfd 2a36
000000c0: a44d 07b8 0737 7cb7 bc85 58b8 7e9c 0bb7
000000d0: 6b50 2035 d81b 9fb8 44bf 88b7 97d6 5cb9
000000e0: a8d8 3838 8a24 c137 5c20 4637 9bf7 b7b5
000000f0: 1226 0438 6a51 31b8 74c4 1c38 5fb6 9bb7
00000100: 8c33 de36 3ab6 6536 81e6 e4b6 695a 55b7
00000110: eda2 dcb6 de39 3db7 c911 1ab8 640e acb8
00000120: 2890 a7b7 418e b336 7346 f537 7b24 42b6
00000130: ea77 2a36 6964 8a38 54fc 8837 8bcd 46b7
00000140: fa40 2f38 7650 fa38 e7b1 d436 fa0d a4b8
00000150: 4693 7e38 38b7 b337 d4ed aa35 2ba4 2c38
00000160: b87f fd37 95ef 70b7 a37c 3e34 9965 78b8
00000170: 543e fa37 a40d 1438 5cad b5b8 558e dbb8
00000180: 9eba ca37 1a4e 1139 a413 e0b7 5c23 11b8
00000190: d286 7cb6 b2ba 68b7 cc61 c0b7 e7d0 82b5
000001a0: 5af0 5738 890d 1234 08e2 edb7 a17e a6b6
000001b0: 48f0 bfb7 95b8 15b8 882e d035 42e5 edb7
000001c0: 2b67 9936 b8b1 8537 9616 b436 d8b9 a937
000001d0: f934 96b6 a22b 7d35 0800 1037 1c74 2eb4
000001e0: 957a 8936 067d 5335 0662 6834 02f7 9035
000001f0: 9072 2835 5dd4 2135 d767 85b8 10ef 77b8
00000200: 142a 0137 a2d8 b1b8 d767 04b9 1c3e c234
00000210: cd5e 1739 ee46 8737 caf8 4bb8 95a9 22b7
00000220: 2449 f736 dafe dcb8 a86b 00b8 d9ae ea37
00000230: 01ac 6d37 f6dd cb37 8df5 8836 4994 4337
00000240: c13e 0137 5cfe 8f36 d367 2b37 90c1 a138
00000250: 84cc d438 e1e4 0e38 6d7a 02b7 960f efb8
00000260: 9b2e 32b5 07a6 f037 77df 2d39 194a 8638
00000270: 51ef 66b7 98aa f338 8066 0b39 78d3 ebb7
00000280: 92fc 9cb9 f7e4 bfb6 c3f0 fdb6 b5fe 2eb6
00000290: a853 24b5 9f0b 1f36 60e6 9bb6 fd2e eab5
000002a0: 7e71 5038 083a 9138 e627 2637 d41b a3b7
000002b0: b19c 7e37 bce2 8037 19d8 1837 caa2 6eb8
000002c0: b783 24b8 19ec 5537 b118 b0b8 e6c3 5eb8
000002d0: 2798 18b7 dada 7d38 175d 25b8 56d4 27b8
000002e0: 9bc9 8cb6 b063 1eb6 483a ee36 9a02 db37
000002f0: 6659 c5b5 d7e1 8036 5f35 77b7 1847 cdb6
00000300: a1c4 b2b6 ed8a 96b6 891b dfb4 93c7 5bb8
00000310: 7e47 5438 6407 76b6 86eb 6eb7 c087 5ab6
00000320: 80a9 db38 99f8 5236 8adc d6b6 0f02 e838
00000330: 9bf3 9238 aa55 c136 aaaf 2137 c6b3 ae38
00000340: c218 9db5 afc2 85b8 8e03 02b7 616d 72b7
00000350: cbea 0bb6 7179 db35 bf18 5cb7 5267 72b5
00000360: 9286 15b6 e263 1e38 2150 a237 f9c5 edb6
00000370: 1228 c134 b1cb b638 f42f 6336 2201 60b8
00000380: c23d 8538 5afa 0fb8 afbd 96b7 e198 d935
00000390: a5ed b038 5f14 25b7 dcf0 8b37 fe8b cb38
000003a0: 59a4 e336 ac45 33b7 9bb3 d737 5d84 1338
000003b0: efa4 0937 229d 8eb8 d561 e3b7 6e5c a2b8
000003c0: f9fb b4b6 de04 f2b8 d227 7437 aba1 6436
000003d0: 20f8 08b6 952d 3b38 a7fd 9238 6c0d 6e37
000003e0: 92e7 9437 2cf9 4237 c1ca 3bb5 16a6 57b7
000003f0: dc40 2a38 9d12 b637 d885 4136 96e5 36b6
-8.815202e-06 1.1565053e-06 -1.2224636e-07 2.3534453e-06 7.3907922e-06 -2.5042445e-06 -3.6010808e-06 -4.415102e-06
-2.087566e-05 -2.572086e-06 -2.0085508e-06 -3.193243e-05 1.5140824e-06 4.2771266e-05 9.059658e-06 4.990302e-05
1.5309897e-05 -4.7980557e-06 -5.124851e-05 -3.815743e-06 4.0467803e-05 1.1625657e-05 -4.4446883e-06 -6.6783005e-06
1.4819506e-05 1.8058026e-05 -2.6273308e-06 -5.403079e-05 7.835927e-05 1.781429e-05 5.558406e-06 -1.29135e-05
-9.64705e-05 -1.8803472e-05 -5.1634837e-05 8.325797e-06 -1.10968784e-07 4.4234728e-08 2.133788e-06 -1.6061167e-05
7.005901e-07 -2.1559885e-05 3.195399e-05 -3.8207527e-06 -6.6646867e-06 6.443034e-06 4.763117e-05 2.5479521e-06
-3.2258817e-05 -1.50331825e-05 -5.1622963e-05 -8.321482e-06 5.972167e-07 -7.586897e-05 -1.6301528e-05 -0.00021060776
4.4070795e-05 2.3024408e-05 1.1809254e-05 -1.3706625e-06 3.150671e-05 -4.227591e-05 3.737626e-05 -1.8562363e-05
6.6221164e-06 3.422973e-06 -6.8217637e-06 -1.271684e-05 -6.575478e-06 -1.1278751e-05 -3.6733025e-05 -8.2042796e-05
-1.997508e-05 5.3511762e-06 2.9239081e-05 -2.8929487e-06 2.5401773e-06 6.5990556e-05 1.6329963e-05 -1.1849576e-05
4.1783765e-05 0.00011935916 6.338803e-06 -7.822733e-05 6.0695478e-05 2.142378e-05 1.2735204e-06 4.116089e-05
3.0219424e-05 -1.4360897e-05 1.7740471e-07 -5.9222428e-05 2.9831346e-05 3.5298654e-05 -8.663043e-05 -0.00010469245
2.4167177e-05 0.00013857373 -2.6712027e-05 -3.4603625e-05 -3.7629402e-06 -1.3871746e-05 -2.2933724e-05 -9.746553e-07
5.148384e-05 1.3602234e-07 -2.8357856e-05 -4.961927e-06 -2.2880864e-05 -3.5696274e-05 1.551075e-06 -2.8359358e-05
4.5717657e-06 1.5937592e-05 5.3670474e-06 2.023291e-05 -4.476515e-06 9.431334e-07 8.583076e-06 -1.6247253e-07
4.0971886e-06 7.878556e-07 2.1642344e-07 1.0800725e-06 6.275159e-07 6.0286203e-07 -6.361276e-05 -5.9112033e-05
7.698796e-06 -8.480369e-05 -0.00012627184 3.6180506e-07 0.00014435798 1.6126283e-05 -4.8630674e-05 -9.695436e-06
7.3696883e-06 -0.00010537887 -3.061784e-05 2.7976394e-05 1.4166349e-05 2.4302844e-05 4.0817017e-06 1.1657431e-05
7.70361e-06 4.2913434e-06 1.0216568e-05 7.713132e-05 0.00010147042 3.40686e-05 -7.777108e-06 -0.00011399311
-6.637799e-07 2.8687542e-05 0.00016581813 6.40342e-05 -1.37647885e-05 0.000116189185 0.00013294257 -2.8112656e-05
-0.00029942818 -5.7188986e-06 -7.568016e-06 -2.607628e-06 -6.1216497e-07 2.369961e-06 -4.646179e-06 -1.7448034e-06
4.9696762e-05 6.924948e-05 9.903661e-06 -1.9444073e-05 1.5176062e-05 1.536437e-05 9.11022e-06 -5.689523e-05
-3.9223316e-05 1.275076e-05 -8.396933e-05 -5.311137e-05 -9.095332e-06 6.0523722e-05 -3.9425762e-05 -4.0013656e-05
-4.195795e-06 -2.360186e-06 7.0997376e-06 2.6108046e-05 -1.4703662e-06 3.8409885e-06 -1.4734774e-05 -6.1177525e-06
-5.327704e-06 -4.4865214e-06 -4.155702e-07 -5.2399537e-05 5.061132e-05 -3.6661158e-06 -1.42407425e-05 -3.2563548e-06
0.000104743056 3.1437141e-06 -6.403371e-06 0.000110630055 7.0071976e-05 5.761821e-06 9.637248e-06 8.330452e-05
-1.1704617e-06 -6.378197e-05 -7.7494315e-06 -1.4449791e-05 -2.0849282e-06 1.6352116e-06 -1.31187835e-05 -9.0302376e-07
-2.228106e-06 3.776316e-05 1.9349218e-05 -7.0861975e-06 3.5978206e-07 8.716377e-05 3.3853548e-06 -5.3406817e-05
6.3534375e-05 -3.4327015e-05 -1.7969722e-05 1.6212254e-06 8.436599e-05 -9.839509e-06 1.668225e-05 9.70587e-05
6.7842598e-06 -1.0685453e-05 2.5713633e-05 3.5170804e-05 8.204238e-06 -6.800356e-05 -2.7106065e-05 -7.741978e-05
-5.3937515e-06 -0.00011540366 1.4552805e-05 3.406875e-06 -2.0410007e-06 4.4626726e-05 7.009069e-05 1.41890305e-05
1.7750808e-05 1.1621316e-05 -6.9957974e-07 -1.28536685e-05 4.0591563e-05 2.1704758e-05 2.8837148e-06 -2.725375e-06

exp_avg_sq f4 [128, 7]
00000000: 979b 3331 e07f 1032 4a5a f331 033a 432b
00000010: 9cd2 1231 8405 292f 492f fd31 208b ec30
00000020: 7807 4d32 f96c d431 aad2 932b a3d8 8331
00000030: e6f8 9b2f 19a0 1632 c871 8332 8fa4 e431
00000040: 52c2 e931 baa6 2b2c 0111 7632 509b 9c2f
00000050: ca50 4531 571f c630 0b2d a731 9e48 0a31
00000060: 8d16 a82e 1fa1 b931 8174 9930 db83 5d31
00000070: 09d5 1f34 cbfc 0a34 48c0 b933 5886 f72d
00000080: 0eff ab33 7e65 9831 f9b8 0a33 950f a132
00000090: 17b4 0b33 bf78 0033 f769 da2b 28ff a232
000000a0: 0de1 3730 e2dc be32 5ec5 f432 6ae6 2f32
000000b0: 61c3 b632 f538 b62c 7b27 1633 3f6f d72f
000000c0: 99d4 7f31 53e7 3733 0850 5d34 9ea2 fa33
000000d0: 7d52 c62d 913c 9033 1658 4d31 7ac4 b733
000000e0: 4c7f 2233 4c7a 9232 d4af 8232 e5f2 c02b
000000f0: 2cf6 8832 4692 a531 9b11 ca30 3c40 b031
00000100: 0465 6d31 6696 8a31 cc5b 102d adec a131
00000110: 6160 8a2f e09f 8d2f 990d 2c32 ef44 6232
00000120: a771 6432 8946 cc2c b776 b532 6551 de2f
00000130: 2f5f 1c31 fdbd 1432 87ce 1532 e927 3332
00000140: ded9 a62f e6b6 1033 eb0a f12e 4041 1232
00000150: 5b05 ce32 4786 fc32 9b4d b932 808e a22f
00000160: 3354 c932 2fa9 b230 f076 ac30 4ec2 1233
00000170: 4782 4533 ad46 2033 d592 e730 5565 0734
00000180: 7be3 0a31 f1c9 3932 f1ca 1931 0879 a931
00000190: f176 7431 85ef 692e 546a 7530 bee1 452e
000001a0: d92e fb31 45ad be31 907f 8232 f25c 1632
000001b0: 835b 7c2e e77c 0f32 215f e12f bdc6 5132
000001c0: d269 6331 dbd0 5a31 b1d5 d731 0421 842f
000001d0: da2f f531 55f9 0230 3619 8630 a840 b52f
000001e0: 498d 2231 2e4b 0931 80a4 132a 5806 8c30
000001f0: 4d22 162f 3dd2 902e d43b 5531 41fa c131
00000200: f8fe 2131 d6a2 bc30 2e70 3232 ac27 eb2e
00000210: b259 2832 5712 d332 7dbe 3333 ae42 6a32
00000220: 0f14 b12d 6324 6333 e25e 2931 e114 a230
00000230: 99b5 9e31 ec57 3431 9d93 9331 ce48 8e2e
00000240: da0e fb30 fe22 f32e 5a59 522f ad75 4634
00000250: f3f1 0034 041b 2834 e787 572d 5167 8233
00000260: b9b8 9e31 c5e3 d831 0606 f133 dbb5 2234
00000270: 785e 9033 aeea 4031 2b91 0a34 5775 b531
00000280: e0dc a633 df4a cc2f ed2c 9032 4d29 1d32
00000290: 2e6f 152b dc09 4c30 5c88 402f d4f7 cf31
000002a0: 18aa 1634 02f6 5a33 8d04 1934 bcdf 882e
000002b0: 2ca9 b633 ffd4 0531 f74e 5e31 33df ac32
000002c0: a4dc 0133 a6af d832 b1e6 e130 0b2a 1933
000002d0: 50b4 d52f 747a 4432 9ff1 1732 a781 6632
000002e0: dd15 6d32 a83a 152c 11b6 3132 4c42 2931
000002f0: 187e af30 7fec 1931 6e43 c731 05fd 5631
00000300: edd7 802c c17c be31 b2f5 202f 4624 a431
00000310: c65f ae31 cab8 8931 cadc ad31 3ddd 6c2b
00000320: 4edf 7432 39b1 fa2e 8d12 5a2f 9afd 9933
00000330: 6373 2f33 10af 5033 c345 652d ec5a 5133
00000340: cf93 d830 b0c7 2e32 7b82 f831 ba91 b032
00000350: a3fb ba32 8715 642a 1474 9232 7ddd 2430
00000360: 46a4 8331 c46f 0131 5b4d 1d31 68f5 5e31
00000370: 826e 072b 1674 d931 339b 062e c641 f530
00000380: 5669 6f32 fe32 1632 f5f6 7332 f7e5 1b2c
00000390: 7174 2e33 4007 3b30 7827 0130 e5cd 6e33
000003a0: 3954 8933 ebc3 4933 7717 b02f 15e6 9a33
000003b0: dc94 9f30 ae6a 3732 6fd7 d532 e7cd 5033
000003c0: efb6 ca32 281e 8231 08c9 5933 ffa9 a630
000003d0: cd28 a332 66bc 0e32 6da3 9f31 d919 2231
000003e0: 876a a62e fdae 7d31 4507 9c2f b4ac e32f
000003f0: 2f17 7131 29a7 3231 803f db30 afbc 5a2b
2.613637e-09 8.410979e-09 7.0824955e-09 6.9358424e-13 2.1365514e-09 1.537242e-10 7.368645e-09 1.7210802e-09
1.1934269e-08 6.182401e-09 1.0503449e-12 3.8372305e-09 2.837119e-10 8.767551e-09 1.5302149e-08 6.6543815e-09
6.803284e-09 2.4393113e-12 1.4322951e-08 2.848659e-10 2.8713196e-09 1.4415303e-09 4.8654605e-09 2.012292e-09
7.643761e-11 5.402526e-09 1.1165328e-09 3.2234684e-09 1.488553e-07 1.2944217e-07 8.6497096e-08 2.814031e-11
8.009202e-08 4.4353206e-09 3.229886e-08 1.8749953e-08 3.252725e-08 2.991214e-08 1.5519243e-12 1.8975314e-08
6.689483e-10 2.2219357e-08 2.849509e-08 1.0238731e-08 2.1276437e-08 5.1790746e-12 3.4960504e-08 3.9187317e-10
3.7228232e-09 4.2818396e-08 2.0611344e-07 1.1671112e-07 2.2546626e-11 6.7165395e-08 2.9881497e-09 8.5573404e-08
3.783434e-08 1.7052251e-08 1.521395e-08 1.3709837e-12 1.594443e-08 4.8187614e-09 1.4702438e-09 5.1295768e-09
3.454546e-09 4.033427e-09 8.205835e-12 4.7126236e-09 2.5170535e-10 2.5761349e-10 1.0014809e-08 1.3170605e-08
1.3297188e-08 5.8058597e-12 2.1125159e-08 4.04394e-10 2.2755093e-09 8.657932e-09 8.7199e-09 1.0428246e-08
3.0350028e-10 3.3693958e-08 1.09613506e-10 8.513155e-09 2.3983992e-08 2.9397723e-08 2.1572125e-08 2.956888e-10
2.3437769e-08 1.2999289e-09 1.2548451e-09 3.4169993e-08 4.5986123e-08 3.7317182e-08 1.6849194e-09 1.2609719e-07
2.021095e-09 1.0814333e-08 2.237979e-09 4.932307e-09 3.5574284e-09 5.3190802e-11 8.928158e-10 4.4993113e-11
7.3103874e-09 5.5494263e-09 1.5192e-08 8.7522825e-09 5.7379445e-11 8.352095e-09 4.0994855e-10 1.2210589e-08
3.3093e-09 3.1841896e-09 6.2816174e-09 2.403412e-10 7.1358786e-09 4.7648047e-10 9.756949e-10 3.296965e-10
2.3654414e-09 1.9978859e-09 1.3113295e-13 1.0188144e-09 1.3654607e-10 6.585708e-11 3.1029588e-09 5.64549e-09
2.3573516e-09 1.3725081e-09 1.038647e-08 1.069361e-10 9.799281e-09 2.4571973e-08 4.1849933e-08 1.3635754e-08
2.0131478e-11 5.288565e-08 2.4646671e-09 1.1792985e-09 4.6190505e-09 2.6243425e-09 4.2950448e-09 6.470345e-11
1.8266875e-09 1.10565765e-10 1.9131133e-10 1.8482997e-07 1.200895e-07 1.5656047e-07 1.22515114e-11 6.07239e-08
4.6194057e-09 6.3123218e-09 1.1223533e-07 1.5153584e-07 6.722706e-08 2.8073077e-09 1.2905063e-07 5.2811333e-09
7.770154e-08 3.7160583e-10 1.6784236e-08 9.1479935e-09 5.3089727e-13 7.422878e-10 1.7510743e-10 6.0526677e-09
1.4031718e-07 5.0980823e-08 1.4250891e-07 6.224307e-11 8.5058076e-08 1.9475122e-09 3.2350138e-09 2.0124935e-08
3.0235825e-08 2.5225585e-08 1.6436471e-09 3.5661326e-08 3.8872594e-10 1.1436544e-08 8.844295e-09 1.34172415e-08
1.3800187e-08 2.1206734e-12 1.0344153e-08 2.4630422e-09 1.2768764e-09 2.2398863e-09 5.799328e-09 3.1284924e-09
3.6619514e-12 5.5439107e-09 1.4639204e-10 4.777152e-09 5.0749547e-09 4.008233e-09 5.0600635e-09 8.415107e-13
1.4253443e-08 1.1400165e-10 1.9833575e-10 7.1707476e-08 4.0850306e-08 4.8587992e-08 1.3032633e-11 4.8744297e-08
1.5758078e-09 1.0173537e-08 7.232584e-09 2.0555365e-08 2.1767681e-08 2.0257937e-13 1.7049423e-08 5.9977606e-10
3.8312775e-09 1.8835502e-09 2.2890478e-09 3.244475e-09 4.8114995e-13 6.3287287e-09 3.0605917e-11 1.784479e-09
1.3935582e-08 8.742743e-09 1.4200613e-08 2.215448e-12 4.0618435e-08 6.8040507e-10 4.6986015e-10 5.5600953e-08
6.39488e-08 4.6977146e-08 3.2030886e-10 7.2130355e-08 1.1611081e-09 1.0676258e-08 2.4894431e-08 4.861604e-08
2.3599084e-08 3.7869263e-09 5.0707087e-08 1.2126405e-09 1.8994252e-08 8.308325e-09 4.6460884e-09 2.3588795e-09
7.567729e-11 3.6915815e-09 2.83814e-10 4.1413772e-10 3.5083294e-09 2.5997429e-09 1.5952395e-09 7.771101e-13

exp_avg f4 [128]
00000000: f15e 15b7 7e93 93b6 93f0 1937 52f1 4437
00000010: c73d a638 af01 0d37 698b 0638 24cb 7cb7
00000020: 90f2 3a38 2f1e 9db7 7d43 1bb8 bf03 8b38
00000030: 20b6 7f38 2393 7ab8 d353 e1b7 893a 5b34
00000040: bc97 9b36 3054 1fb4 8c1b 86b8 76c4 8937
00000050: 71a2 7037 bf86 a338 c407 2f39 4010 c0b6
00000060: f385 5238 02cc 70b8 b1d2 26b8 6914 8336
00000070: 77a5 5538 bb0f e938 f4bc 02b7 c73c 1f38
00000080: ddd3 8538 77d6 cc38 6c49 e8b7 1b9f 3c38
00000090: e368 2b38 fc92 1e38 83d7 54b7 6df6 e9b7
000000a0: 1318 ab36 eb1d edb8 c163 99b8 270b 3338
000000b0: 83ec 84b8 7c59 1338 da13 1338 b245 6239
000000c0: 1ef8 6238 41a5 9138 c686 64b8 a76c 2f37
000000d0: 1802 0a39 38c1 0739 d097 3439 c4ba fa34
000000e0: 85e7 1638 aa67 0a39 669e 7139 843d a5b7
000000f0: 4834 b235 4ce3 a938 a258 8e38 a8f4 3fb7
00000100: 49ea f938 05c5 e738 411e 08b8 b9af eab7
00000110: b726 a638 5b3d f2b8 6ab9 26b8 60dc c638
00000120: 8032 9e37 8644 08b7 3ab4 33b8 d836 3737
00000130: 5415 1539 f1fd 0139 6071 3f37 15a9 3138
00000140: 9681 2839 d97d 6f37 5bf6 3538 db92 8037
00000150: dd8e 0f38 5f52 54b8 a3d6 ddb7 337a 4a38
00000160: 2481 40b7 1cd0 2d38 afad 9438 84e6 dbb6
00000170: b12a 1738 9c93 27b8 68b7 c036 c390 6936
00000180: c00a a938 12cd 49b7 17c0 7237 20dd 9b34
00000190: 9dbf ee37 6163 8638 789e c8b8 9174 9338
000001a0: 3528 0f39 b57c 81b7 07b7 6339 98dc 4bb7
000001b0: 6543 f838 200b 31b8 ae9d 5f38 3664 a3b6
000001c0: a39a 9638 3fa0 5838 f4eb f738 9ee4 b538
000001d0: 81f2 4836 47c5 0f39 87b7 65b5 9fc4 5e38
000001e0: ec65 4537 fc90 fb35 81d3 af37 ea13 0539
000001f0: 0945 fdb7 8fdd c8b6 2cda 4938 d874 0138
-8.903197e-06 -4.3981117e-06 9.175524e-06 1.1738697e-05 7.927004e-05 8.404647e-06 3.2077925e-05 -1.5067668e-05
4.457176e-05 -1.8729914e-05 -3.7017733e-05 6.628734e-05 6.0966355e-05 -5.9741677e-05 -2.6861124e-05 2.041726e-07
4.637024e-06 -1.4838656e-07 -6.394749e-05 1.6423157e-05 1.4342936e-05 7.797544e-05 0.00016692193 -5.7239376e-06
5.019265e-05 -5.7410456e-05 -3.9773706e-05 3.9064803e-06 5.093726e-05 0.00011113236 -7.792598e-06 3.7965157e-05
6.381397e-05 9.767425e-05 -2.7690745e-05 4.497087e-05 4.086726e-05 3.7807025e-05 -1.2686362e-05 -2.7890515e-05
5.0989997e-06 -0.00011306613 -7.314189e-05 4.2687312e-05 -6.338304e-05 3.513087e-05 3.506602e-05 0.00021579003
5.4113676e-05 6.94492e-05 -5.4484954e-05 1.045611e-05 0.00013161486 0.00012946583 0.00017222692 4.670202e-07
3.5978406e-05 0.00013199323 0.00023042559 -1.9698178e-05 1.3277249e-06 8.100885e-05 6.787597e-05 -1.1441451e-05
0.00011916884 0.00011051636 -3.2453103e-05 -2.7976801e-05 7.922708e-05 -0.000115508876 -3.9750164e-05 9.482424e-05
1.8858584e-05 -8.122186e-06 -4.2844775e-05 1.0920419e-05 0.00014217693 0.00012396999 1.1410884e-05 4.235756e-05
0.00016070003 1.4274811e-05 4.33832e-05 1.5327174e-05 3.422691e-05 -5.0621453e-05 -2.6445201e-05 4.827436e-05
-1.147416e-05 4.144023e-05 7.089541e-05 -6.553544e-06 3.6040965e-05 -3.9953375e-05 5.743397e-06 3.4803968e-06
8.06055e-05 -1.202828e-05 1.4469048e-05 2.903189e-07 2.8461038e-05 6.408129e-05 -9.56626e-05 7.0312184e-05
0.00013652521 -1.543607e-05 0.0002171659 -1.2151104e-05 0.00011838115 -4.221045e-05 5.3314194e-05 -4.8694446e-06
7.181361e-05 5.1647654e-05 0.000118218275 8.673336e-05 2.9943478e-06 0.00013711034 -8.5576215e-07 5.3112042e-05
1.1765846e-05 1.8743153e-06 2.0960115e-05 0.00012691287 -3.0192097e-05 -5.9862573e-06 4.8125323e-05 3.0864816e-05
