results/phase1.3/PlayerAgent/PlayerAgent-5341.pt (torch, 156188 bytes, 22 tensors)

discrete_act_size_vector f4 [1, 2]
0	0x40400000	3.0
1	0x40000000	2.0

network_body.observation_encoder.processors.0.normalizer.running_mean f4 [7]
0	0x3ea89f09	0.32933834
1	0xbf8f2cb2	-1.1185515
2	0xbeaf0295	-0.34181657
3	0x00000000	0.0
4	0x3e031d6f	0.12804197
5	0xbcb928ff	-0.022602556
6	0x3f7fc2a9	0.999064

network_body.observation_encoder.processors.0.normalizer.running_variance f4 [7]
0	0x3f8de2d5	1.1084849
1	0x442fc454	703.0676
2	0x42dd5aec	110.67758
3	0x3f800000	1.0
4	0x44155ad7	597.4194
5	0x45e31489	7266.567
6	0x411fecd6	9.995321

network_body.processors.0.normalizer.running_mean f4 [7]
0	0x3ea89f09	0.32933834
1	0xbf8f2cb2	-1.1185515
2	0xbeaf0295	-0.34181657
3	0x00000000	0.0
4	0x3e031d6f	0.12804197
5	0xbcb928ff	-0.022602556
6	0x3f7fc2a9	0.999064

network_body.processors.0.normalizer.running_variance f4 [7]
0	0x3f8de2d5	1.1084849
1	0x442fc454	703.0676
2	0x42dd5aec	110.67758
3	0x3f800000	1.0
4	0x44155ad7	597.4194
5	0x45e31489	7266.567
6	0x411fecd6	9.995321

network_body._body_endoder.seq_layers.0.weight f4 [128, 7]
0	0x3ca8cfa5	0.020606825
1	0xbe074449	-0.13209642
2	0xbe594da5	-0.21221025
3	0xbe87e2f1	-0.2654033
4	0xbd636003	-0.055511486
5	0xbe6ed732	-0.23324278
6	0xbe9c055e	-0.30472845
7	0xbecbfdff	-0.3984222
8	0x3eb7a178	0.35865378
9	0xbe4b042d	-0.19825812
10	0x3e836f4a	0.25670844
11	0xbe4fcd27	-0.20293103
12	0x3ec11b48	0.37716126
13	0x3e976a53	0.29573306
14	0xbe420a71	-0.18949296
15	0x3f18f286	0.5974506
16	0xbed4633a	-0.41481954
17	0xbee4227f	-0.44557568
18	0xbf107de5	-0.564421
19	0x3eabd05a	0.33557397
20	0x3c8a6593	0.016894137
21	0x3e8144f2	0.25247914
22	0x3e65841b	0.22413675
23	0x3dd08b48	0.10182816
24	0xbf0df9e1	-0.5545941
25	0x3f4db8dc	0.803602
26	0xbf08b32d	-0.533984
27	0xbf0c2b54	-0.54753613
28	0xbd9e2b97	-0.07723158
29	0xbf7658b8	-0.96229124
30	0xbef314de	-0.47476858
31	0x3d1ad872	0.037804075
32	0xbd4107f1	-0.047126714
33	0x3dc71180	0.09720135
34	0x3f0f6941	0.5601998
35	0x3ee2b0a4	0.4427539
36	0x3dd13a87	0.10216241
37	0xbe43cea1	-0.19121791
38	0x3e1c0ba2	0.15238813
39	0x3ebea762	0.37237078
40	0x3e3b39bc	0.18283743
41	0xbeb4df9d	-0.35326853
42	0xbefce2a2	-0.49391657
43	0xbeb198d0	-0.346869
44	0xba80cf4c	-0.0009827404
45	0xbe97f142	-0.29676253
46	0x3d30bdb8	0.04314968
47	0x3f2071e1	0.62673765
48	0xbe2ac5b2	-0.16676977
49	0x3edd84ef	0.43265483
50	0xbe484281	-0.19556619
51	0x3e8d49a2	0.2759524
52	0xbd60c082	-0.05487109
53	0x3d423e54	0.047422722
54	0x3e9836ad	0.29729214
55	0x3ee66ab8	0.45003295
56	0xbf29e42f	-0.66363806
57	0x3d0b4bf2	0.034007974
58	0xbead5195	-0.33851305
59	0xbda1d41d	-0.079017855
60	0x3e9010ee	0.28137916
61	0x3e1a6c2e	0.1508033
62	0x3f162a74	0.5865853
63	0x3d5f38f9	0.054497693
64	0xbebccf86	-0.36877078
65	0xbdbef572	-0.09324159
66	0x3f1968e0	0.5992565
67	0xbf151d59	-0.58247906
68	0xbf03dcba	-0.51508677
69	0x3eb1c5df	0.34721276
70	0x3e5225fe	0.20522305
71	0xbd0e795d	-0.03478371
72	0x3f1b2690	0.60605717
73	0xbf48538e	-0.78252494
74	0xbeeafc86	-0.45895785
75	0x3ea11fd9	0.3146961
76	0xbe88db2f	-0.26729724
77	0x3e25791d	0.16159482
78	0x3eb6d3dc	0.3570851
79	0x3ca27632	0.01983175
80	0xbf146e0e	-0.5798043
81	0xbed2fa4a	-0.4120658
82	0xbe8d5a97	-0.27608177
83	0xbef61cc3	-0.48068818
84	0xbe2be4c1	-0.16786481
85	0xbe5c779c	-0.21530002
86	0x3dfd4dad	0.12368331
87	0xbe2738b1	-0.1633022
88	0xbe9c1836	-0.3048722
89	0x3e242179	0.16028394
90	0x3f007fe4	0.50195146
91	0x3d633450	0.05546981
92	0xbef66b8a	-0.4812892
93	0xbdae21aa	-0.08502515
94	0x3ea9844b	0.33108744
95	0x3eb5c8fa	0.35504895
96	0x3f0ddf5b	0.5541894
97	0xbc830b0f	-0.015996484
98	0xbf50cceb	-0.8156268
99	0x3d840003	0.06445315
100	0xbe4c5fa5	-0.1995836
101	0xbe0a3e9d	-0.13500448
102	0x3f2ab888	0.6668782
103	0xbeb8883a	-0.36041433
104	0x3f03b84b	0.51453084
105	0xbeb9f4b1	-0.36319497
106	0x3e89c56e	0.2690844
107	0xbefe3689	-0.49650982
108	0xbf079246	-0.5295757
109	0x3d92a17c	0.07159707
110	0x3ebc21b8	0.36744475
111	0x3ec53b46	0.38521785
112	0x3dae1485	0.085000075
113	0xbed6acbb	-0.41928658
114	0x3eff969f	0.49919602
115	0x3ee5aa31	0.44856408
116	0xbbaa5ae1	-0.005198822
117	0x3f830e50	1.0238743
118	0x3ed695ce	0.41911167
119	0xbeb93810	-0.36175585
120	0xbf7f564c	-0.99741054
121	0x3e1e461b	0.1545643
122	0x3d527213	0.05137832
123	0x3e257025	0.16156061
124	0xbf534c0b	-0.8253791
125	0xbe3971ed	-0.18109865
126	0xbef41070	-0.4766879
127	0x3e9a3ebc	0.30125988
128	0x3e2fe5f3	0.17177562
129	0x3f14ace7	0.5807633
130	0x3e6c264a	0.23061481
131	0x3f13ae53	0.5768787
132	0x3e55e619	0.20888557
133	0x3df7ae28	0.120937645
134	0xbe84064f	-0.25786063
135	0xbef9d159	-0.48792532
136	0x3e8adafb	0.27120194
137	0xbe7f9caa	-0.24962106
138	0x3f1c4ec4	0.61057687
139	0x3d0d5812	0.03450782
140	0x3d16d696	0.03682574
141	0x3dde61dd	0.1085851
142	0xbf5f9b32	-0.87346184
143	0x3e2e3af4	0.17014676
144	0x3e054f2e	0.13018486
145	0xbd8d080e	-0.06886302
146	0x3ecbf9f5	0.3983914
147	0x3e547949	0.20749392
148	0x3ef062ab	0.46950278
149	0xbf4349ae	-0.762843
150	0xbe723af5	-0.23655303
151	0xbf083128	-0.53200006
152	0xbf1573e1	-0.5837994
153	0xbe8b98f4	-0.2726513
154	0x3d553010	0.05204779
155	0xbd812ac1	-0.06306983
156	0x3dd05b87	0.101737075
157	0xbdb57a17	-0.088611774
158	0xbd813f3f	-0.06310891
159	0x3e86d25c	0.26332366
160	0xbd0b6096	-0.03402766
161	0x3f1c3508	0.6101842
162	0xbead3810	-0.33831835
163	0x3ee9acd3	0.45639667
164	0xbd19aadf	-0.03751647
165	0x3e3ded4c	0.18547553
166	0xbebd9505	-0.37027755
167	0x3e80dd32	0.2516876
168	0x3e3fd82a	0.18734804
169	0xbd2d6c8c	-0.042339846
170	0xbe6d3113	-0.23163252
171	0xbe569fd1	-0.20959403
172	0xbce3670d	-0.0277591
173	0x3e0a689b	0.13516466
174	0xbe198211	-0.14991023
175	0xbe0ac2b1	-0.13550831
176	0x3de9b97d	0.11412332
177	0xbf059dda	-0.5219399
178	0x3d3f7ef0	0.046751916
179	0xbe788da8	-0.24272788
180	0x3f2da0cf	0.678235
181	0x3e653393	0.22382955
182	0x3ead6e70	0.3387332
183	0xbe89f2f0	-0.2694316
184	0x3e67b750	0.22628522
185	0xbf254229	-0.6455408
186	0x3eb590a7	0.35461923
187	0xbec2520e	-0.37953228
188	0x3ec56813	0.38555965
189	0xbc32b2b1	-0.010906861
190	0x3e8670e9	0.2625802
191	0xbd386201	-0.04501534
192	0xbead038d	-0.33791772
193	0xbe9ebf67	-0.31005403
194	0xbe914884	-0.28375638
195	0xbeadd09f	-0.33948228
196	0xbe5153ba	-0.20442095
197	0x3ead999b	0.33906254
198	0xbe9884b1	-0.29788736
199	0x3ec58122	0.38575083
200	0xbc638815	-0.013887425
201	0xbf03fbf7	-0.5155634
202	0xbe4f565c	-0.20247787
203	0xbe895763	-0.26824483
204	0x3c5cfa49	0.013487407
205	0xbf206c12	-0.626649
206	0x3e88e89d	0.2673997
207	0xbed95178	-0.42444968
208	0x3f067ba6	0.5253242
209	0xbdd717cb	-0.10502585
210	0xbec6fbe8	-0.38864064
211	0xbf599136	-0.849872
212	0x3e319084	0.17340285
213	0x3eea8066	0.45801085
214	0x3d891274	0.06692973
215	0xbdd8e58a	-0.10590656
216	0xbd050b0f	-0.03248125
217	0xbe0abe33	-0.13549118
218	0x3f0b8645	0.54501754
219	0xbe2aad65	-0.16667707
220	0xbe03297f	-0.12808798
221	0x3afcd7a2	0.0019290338
222	0xbefb39a1	-0.49067405
223	0x3eae6072	0.34057957
224	0x3f06dcb0	0.5268049
225	0xbe075a44	-0.13218027
226	0xbe78fcc0	-0.24315166
227	0x3d8fe5b7	0.070262365
228	0xbed52e38	-0.41636825
229	0xbef104a6	-0.4707386
230	0x3c97fa27	0.0185519
231	0x3e3595ee	0.17732975
232	0xbe3f8010	-0.18701196
233	0xbeea009c	-0.4570359
234	0xbde1cdcf	-0.11025583
235	0x3e836d62	0.2566939
236	0x3d3172d9	0.043322418
237	0x3e9a47c8	0.3013289
238	0xbc968255	-0.018372694
239	0xbecf5be6	-0.404998
240	0xbe450ca6	-0.19243106
241	0xbe9d8017	-0.30761787
242	0x3ed6899c	0.41901863
243	0xbe7e859f	-0.2485566
244	0x3e706f99	0.23480071
245	0x3d360d61	0.044446353
246	0xbe111fd4	-0.14172298
247	0x3eb35567	0.35026094
248	0xbf1e566e	-0.6185063
249	0x3f4b704d	0.7946823
250	0x3e999255	0.29994455
251	0xbede7529	-0.4344876
252	0xbe26eefb	-0.16302101
253	0xbed75537	-0.420572
254	0xbdc6e980	-0.09712505
255	0x3e70a2c8	0.23499596

network_body._body_endoder.seq_layers.0.bias f4 [128]
0	0x00000000	0.0
1	0x00000000	0.0
2	0x00000000	0.0
3	0x00000000	0.0
4	0x00000000	0.0
5	0x00000000	0.0
6	0x00000000	0.0
7	0x00000000	0.0
8	0x00000000	0.0
9	0x00000000	0.0
10	0x00000000	0.0
11	0x00000000	0.0
12	0x00000000	0.0
13	0x00000000	0.0
14	0x00000000	0.0
15	0x00000000	0.0
16	0x00000000	0.0
17	0x00000000	0.0
18	0x00000000	0.0
19	0x00000000	0.0
20	0x00000000	0.0
21	0x00000000	0.0
22	0x00000000	0.0
23	0x00000000	0.0
24	0x00000000	0.0
25	0x00000000	0.0
26	0x00000000	0.0
27	0x00000000	0.0
28	0x00000000	0.0
29	0x00000000	0.0
30	0x00000000	0.0
31	0x00000000	0.0
32	0x00000000	0.0
33	0x00000000	0.0
34	0x00000000	0.0
35	0x00000000	0.0
36	0x00000000	0.0
37	0x00000000	0.0
38	0x00000000	0.0
39	0x00000000	0.0
40	0x00000000	0.0
41	0x00000000	0.0
42	0x00000000	0.0
43	0x00000000	0.0
44	0x00000000	0.0
45	0x00000000	0.0
46	0x00000000	0.0
47	0x00000000	0.0
48	0x00000000	0.0
49	0x00000000	0.0
50	0x00000000	0.0
51	0x00000000	0.0
52	0x00000000	0.0
53	0x00000000	0.0
54	0x00000000	0.0
55	0x00000000	0.0
56	0x00000000	0.0
57	0x00000000	0.0
58	0x00000000	0.0
59	0x00000000	0.0
60	0x00000000	0.0
61	0x00000000	0.0
62	0x00000000	0.0
63	0x00000000	0.0
64	0x00000000	0.0
65	0x00000000	0.0
66	0x00000000	0.0
67	0x00000000	0.0
68	0x00000000	0.0
69	0x00000000	0.0
70	0x00000000	0.0
71	0x00000000	0.0
72	0x00000000	0.0
73	0x00000000	0.0
74	0x00000000	0.0
75	0x00000000	0.0
76	0x00000000	0.0
77	0x00000000	0.0
78	0x00000000	0.0
79	0x00000000	0.0
80	0x00000000	0.0
81	0x00000000	0.0
82	0x00000000	0.0
83	0x00000000	0.0
84	0x00000000	0.0
85	0x00000000	0.0
86	0x00000000	0.0
87	0x00000000	0.0
88	0x00000000	0.0
89	0x00000000	0.0
90	0x00000000	0.0
91	0x00000000	0.0
92	0x00000000	0.0
93	0x00000000	0.0
94	0x00000000	0.0
95	0x00000000	0.0
96	0x00000000	0.0
97	0x00000000	0.0
98	0x00000000	0.0
99	0x00000000	0.0
100	0x00000000	0.0
101	0x00000000	0.0
102	0x00000000	0.0
103	0x00000000	0.0
104	0x00000000	0.0
105	0x00000000	0.0
106	0x00000000	0.0
107	0x00000000	0.0
108	0x00000000	0.0
109	0x00000000	0.0
110	0x00000000	0.0
111	0x00000000	0.0
112	0x00000000	0.0
113	0x00000000	0.0
114	0x00000000	0.0
115	0x00000000	0.0
116	0x00000000	0.0
117	0x00000000	0.0
118	0x00000000	0.0
119	0x00000000	0.0
120	0x00000000	0.0
121	0x00000000	0.0
122	0x00000000	0.0
123	0x00000000	0.0
124	0x00000000	0.0
125	0x00000000	0.0
126	0x00000000	0.0
127	0x00000000	0.0

network_body._body_endoder.seq_layers.2.weight f4 [128, 128]
0	0xbdac1c1c	-0.08403799
1	0x3d924f8a	0.07144077
2	0x3cf11410	0.029428512
3	0x3d2b1390	0.041766703
4	0x3e2c09de	0.16800639
5	0xbc2efda6	-0.010680592
6	0x3c385b3d	0.011252222
7	0xbb7278a2	-0.0036998172
8	0xbd8dcb23	-0.06923511
9	0xbc9b3f73	-0.018951153
10	0x3da9d1d5	0.082919754
11	0x3c9dee66	0.019278716
12	0xbdbd102a	-0.09231599
13	0xbd1395aa	-0.036031403
14	0xbb920471	-0.004456096
15	0x3e35c84c	0.17752188
16	0x398f29ab	0.0002730613
17	0x3da9eeb0	0.08297479
18	0x3d0f5296	0.03499087
19	0x3e03a08f	0.12854217
20	0x3dcab791	0.09898294
21	0x3cd852a7	0.0264066
22	0xbc14af98	-0.009075068
23	0xbc39aabd	-0.011332211
24	0x3d4e97b1	0.050437633
25	0x3d932d22	0.07186343
26	0x3e0680c0	0.13135052
27	0xbd01c7fd	-0.031684864
28	0xbcd4a535	-0.025957683
29	0x3da8c0fa	0.08239932
30	0xbdbf8cf1	-0.09353054
31	0x3ddc3a26	0.107532784
32	0xbdbe43dd	-0.09290288
33	0x3d65b3bc	0.05607961
34	0x3d94450e	0.07239734
35	0x3e317a59	0.17331828
36	0xbcb6fde8	-0.022337869
37	0xbd3954ad	-0.04524677
38	0x3b5ff973	0.0034175783
39	0x3c19150e	0.009343399
40	0xbd2bbeea	-0.041930117
41	0xbd63099d	-0.05542909
42	0x3e1058f0	0.14096427
43	0xbe012801	-0.12612917
44	0xbe0e0bdc	-0.13871711
45	0x3d595789	0.053061996
46	0x3de6944d	0.11258755
47	0x3d5f7d16	0.05456265
48	0x3c57774e	0.013151003
49	0xbda0536c	-0.078284115
50	0x3dac5757	0.08415096
51	0xbcd21190	-0.02564314
52	0xbd47ee1a	-0.048811056
53	0xbd9ff428	-0.07810241
54	0x3e0ccb4c	0.13749427
55	0x3dd24fb6	0.1026911
56	0xbc7bbf3f	-0.015365421
57	0x3e3d551f	0.18489502
58	0xbd9db895	-0.07701222
59	0xbe145b7a	-0.1448802
60	0x3b029e35	0.0019930725
61	0x3c890738	0.016727075
62	0x3d3e79a5	0.046502728
63	0x3d1361e0	0.035982013
64	0x3d305065	0.04304542
65	0xbdf799cf	-0.120898835
66	0xbd670c8c	-0.05640845
67	0xbdc73663	-0.0972717
68	0x3c445785	0.011983757
69	0xbe0dcd6e	-0.13847896
70	0xbd887e3c	-0.06664702
71	0xbced792b	-0.028988441
72	0x3df43b25	0.119253434
73	0xbd7664b2	-0.060154624
74	0x3da51e90	0.0806247
75	0x3dd2ab17	0.10286539
76	0xbb3b60e0	-0.0028591678
77	0xbe16067a	-0.14650908
78	0xbbf30704	-0.007416608
79	0x3d7b99d0	0.061425984
80	0xbcca5c9a	-0.024702359
81	0x3d5ad09e	0.05342161
82	0x3db86481	0.090035446
83	0x3c9c7b44	0.019101746
84	0x3e712fa0	0.23553324
85	0x3c258621	0.01010278
86	0xbe0d79b8	-0.13815963
87	0xbdb59e14	-0.08868042
88	0x3d6f10fe	0.058365814
89	0xbd7f00ff	-0.06225681
90	0xbe256468	-0.16151583
91	0x3e2e046c	0.16993874
92	0xbcb427f1	-0.021991702
93	0xbe4dbe05	-0.20092018
94	0x3c39e7f7	0.011346809
95	0x3c940a48	0.018071309
96	0xbde3b465	-0.11118392
97	0x3e117bd8	0.14207399
98	0xbe0ccc51	-0.13749816
99	0xbcc4570a	-0.023967285
100	0xbdcfe91d	-0.10151885
101	0x3d761605	0.060079593
102	0xbcb0cc13	-0.021581685
103	0xbe1bbcb4	-0.15208703
104	0x3d091af4	0.03347297
105	0x3d76ea73	0.060282182
106	0xbdb04a10	-0.08607876
107	0xbe227c0a	-0.1586763
108	0xbc5745cd	-0.0131392
109	0x3da22db1	0.07918871
110	0x3bb7f5e0	0.0056140274
111	0x3e19793a	0.1498765
112	0xbdf60e44	-0.1201444
113	0x3d561ccc	0.052273557
114	0x3d8eb46e	0.06968008
115	0x3e143746	0.1447421
116	0x3cad378d	0.021144653
117	0x3d97b252	0.07407059
118	0xbe89f71e	-0.26946348
119	0x3d833467	0.06406479
120	0xbcaf3009	-0.02138521
121	0x3d9b6578	0.07587713
122	0x3d69cee2	0.057082064
123	0xbe00fda1	-0.12596752
124	0x3ce2f21d	0.02770334
125	0x3d5e70d4	0.05430682
126	0xbd6fe495	-0.058567602
127	0x3dbc6a57	0.0919997
128	0xbd8adaad	-0.0677999
129	0xbda8a792	-0.082350865
130	0xbd97b7b8	-0.074080884
131	0x3d8203e2	0.06348397
132	0xbd87524a	-0.06607492
133	0xbd7be2c6	-0.061495565
134	0xbd636736	-0.05551835
135	0xbe191fa5	-0.14953478
136	0x3d0b0bf5	0.03394695
137	0xbd5afd89	-0.053464446
138	0xbc6db14d	-0.014507604
139	0x3c065e33	0.00820117
140	0x3cecbef0	0.02889964
141	0x3ca2b0d9	0.019859718
142	0xbc62bc65	-0.013838862
143	0xbe3a925f	-0.18219899
144	0x3e160118	0.14648855
145	0xbe304c5e	-0.17216632
146	0x3e08c35d	0.13355775
147	0xbd57d8d0	-0.052697003
148	0x3d99f94b	0.07518252
149	0x3d73c10c	0.059510276
150	0xbd856b12	-0.06514563
151	0xbdc1c979	-0.09462256
152	0xbbbe7456	-0.005812208
153	0xbdfdcd36	-0.123926565
154	0xbde667dc	-0.11250278
155	0x3d76af56	0.060225807
156	0x3df0c8e5	0.117570676
157	0xbcbae238	-0.022812948
158	0xbd70818f	-0.058717307
159	0x3dfb7d44	0.12279752
160	0xbdae6abf	-0.08516454
161	0x3c8aa96e	0.016926493
162	0x3d095d53	0.033536267
163	0x3da03e48	0.07824379
164	0x3df7f3c1	0.12107039
165	0xbdc77687	-0.09739404
166	0xbe0a053d	-0.13478561
167	0xbe15d859	-0.14633311
168	0xbcf50230	-0.02990827
169	0x3daa35a7	0.083110146
170	0x3db563ae	0.08856903
171	0xbbbf54bd	-0.005838959
172	0xbd5253f7	-0.051349606
173	0xbd82e4cb	-0.06391295
174	0x3d16d66f	0.036825594
175	0x3e280a5d	0.16410203
176	0x3b4a7db2	0.0030897674
177	0x3de0e6ea	0.10981543
178	0x3d869c27	0.065727524
179	0xbb878d31	-0.0041367044
180	0x3d335183	0.043778908
181	0xbe185de7	-0.14879571
182	0xbdca437b	-0.09876152
183	0xbd8fbcf5	-0.070184626
184	0xbd2cf158	-0.04222235
185	0xbdfc11c8	-0.12308079
186	0x3e0121ba	0.12610522
187	0x3db18012	0.086670056
188	0x3d8df607	0.069316916
189	0x3ca563f2	0.02018926
190	0x3d28b6b7	0.041189875
191	0x3e07700c	0.13226336
192	0x3daf08d5	0.085466065
193	0xbcaa455b	-0.020785024
194	0xbd7dc460	-0.061954856
195	0xbc862de4	-0.016379304
196	0xbd90534c	-0.070471376
197	0xbdec5f8c	-0.115416616
198	0x3db13319	0.08652324
199	0x3dd924bc	0.1060271
200	0x3d710965	0.05884685
201	0x3d4b709b	0.049667936
202	0x3c43839a	0.011933232
203	0xbdc354eb	-0.09537681
204	0xbdb0b483	-0.0862818
205	0x3d943aba	0.07237764
206	0x3a23f19d	0.000625396
207	0x3d20f129	0.03929249
208	0xbe4696dc	-0.19393486
209	0x3a7ffda6	0.00097652746
210	0xbd25b200	-0.040452957
211	0xbd558ba8	-0.05213514
212	0x3d70a837	0.058754172
213	0x3d20c319	0.03924856
214	0xbccf2425	-0.02528579
215	0xbb85b862	-0.004080818
216	0xbe747f05	-0.23876579
217	0x3c9b8799	0.018985556
218	0xbdf268ae	-0.11836372
219	0x3da6cac1	0.08144141
220	0x3dbaee8a	0.09127529
221	0x3e1ac471	0.15113999
222	0xbd91d722	-0.071211115
223	0x3d8c029c	0.06836435
224	0xbd460dac	-0.048352882
225	0x3cc0c12e	0.023529615
226	0x3b5717b7	0.0032820532
227	0x3d932f7b	0.071867906
228	0xbd88e4d1	-0.06684268
229	0xbcaac734	-0.02084694
230	0x3e4c9f7c	0.19982713
231	0xbe1abada	-0.1511034
232	0xbcc4d9c9	-0.02402963
233	0xbd857653	-0.06516709
234	0xbe2bf6fa	-0.16793433
235	0xbe0c45e0	-0.1369853
236	0xbdfb7de4	-0.12279871
237	0x3d9cf744	0.0766435
238	0x3c1b58e2	0.0094816405
239	0xbe06a514	-0.1314891
240	0xbe14c71c	-0.14529079
241	0x3d351cad	0.0442168
242	0x3c88d669	0.016703801
243	0x3cfc5c9c	0.030805878
244	0xbd1148cd	-0.03546982
245	0xbdc3996a	-0.09550746
246	0xbc1f0aac	-0.009707134
247	0xbc6d0cce	-0.014468385
248	0xbdeb9912	-0.11503805
249	0xbdb52569	-0.08845026
250	0xbcfe174b	-0.031016966
251	0x3d48838c	0.048953578
252	0xbd0764fc	-0.03305529
253	0x3d422d12	0.047406264
254	0xbd82593e	-0.06364678
255	0x3e065345	0.13117702

network_body._body_endoder.seq_layers.2.bias f4 [128]
0	0x00000000	0.0
1	0x00000000	0.0
2	0x00000000	0.0
3	0x00000000	0.0
4	0x00000000	0.0
5	0x00000000	0.0
6	0x00000000	0.0
7	0x00000000	0.0
8	0x00000000	0.0
9	0x00000000	0.0
10	0x00000000	0.0
11	0x00000000	0.0
12	0x00000000	0.0
13	0x00000000	0.0
14	0x00000000	0.0
15	0x00000000	0.0
16	0x00000000	0.0
17	0x00000000	0.0
18	0x00000000	0.0
19	0x00000000	0.0
20	0x00000000	0.0
21	0x00000000	0.0
22	0x00000000	0.0
23	0x00000000	0.0
24	0x00000000	0.0
25	0x00000000	0.0
26	0x00000000	0.0
27	0x00000000	0.0
28	0x00000000	0.0
29	0x00000000	0.0
30	0x00000000	0.0
31	0x00000000	0.0
32	0x00000000	0.0
33	0x00000000	0.0
34	0x00000000	0.0
35	0x00000000	0.0
36	0x00000000	0.0
37	0x00000000	0.0
38	0x00000000	0.0
39	0x00000000	0.0
40	0x00000000	0.0
41	0x00000000	0.0
42	0x00000000	0.0
43	0x00000000	0.0
44	0x00000000	0.0
45	0x00000000	0.0
46	0x00000000	0.0
47	0x00000000	0.0
48	0x00000000	0.0
49	0x00000000	0.0
50	0x00000000	0.0
51	0x00000000	0.0
52	0x00000000	0.0
53	0x00000000	0.0
54	0x00000000	0.0
55	0x00000000	0.0
56	0x00000000	0.0
57	0x00000000	0.0
58	0x00000000	0.0
59	0x00000000	0.0
60	0x00000000	0.0
61	0x00000000	0.0
62	0x00000000	0.0
63	0x00000000	0.0
64	0x00000000	0.0
65	0x00000000	0.0
66	0x00000000	0.0
67	0x00000000	0.0
68	0x00000000	0.0
69	0x00000000	0.0
70	0x00000000	0.0
71	0x00000000	0.0
72	0x00000000	0.0
73	0x00000000	0.0
74	0x00000000	0.0
75	0x00000000	0.0
76	0x00000000	0.0
77	0x00000000	0.0
78	0x00000000	0.0
79	0x00000000	0.0
80	0x00000000	0.0
81	0x00000000	0.0
82	0x00000000	0.0
83	0x00000000	0.0
84	0x00000000	0.0
85	0x00000000	0.0
86	0x00000000	0.0
87	0x00000000	0.0
88	0x00000000	0.0
89	0x00000000	0.0
90	0x00000000	0.0
91	0x00000000	0.0
92	0x00000000	0.0
93	0x00000000	0.0
94	0x00000000	0.0
95	0x00000000	0.0
96	0x00000000	0.0
97	0x00000000	0.0
98	0x00000000	0.0
99	0x00000000	0.0
100	0x00000000	0.0
101	0x00000000	0.0
102	0x00000000	0.0
103	0x00000000	0.0
104	0x00000000	0.0
105	0x00000000	0.0
106	0x00000000	0.0
107	0x00000000	0.0
108	0x00000000	0.0
109	0x00000000	0.0
110	0x00000000	0.0
111	0x00000000	0.0
112	0x00000000	0.0
113	0x00000000	0.0
114	0x00000000	0.0
115	0x00000000	0.0
116	0x00000000	0.0
117	0x00000000	0.0
118	0x00000000	0.0
119	0x00000000	0.0
120	0x00000000	0.0
121	0x00000000	0.0
122	0x00000000	0.0
123	0x00000000	0.0
124	0x00000000	0.0
125	0x00000000	0.0
126	0x00000000	0.0
127	0x00000000	0.0

action_model._discrete_distribution.branches.0.weight f4 [3, 128]
0	0xbc2da95f	-0.010599463
1	0x3c0fbbc9	0.008772799
2	0xbc226662	-0.009912105
3	0x3b5efb5a	0.003402433
4	0xbb86e18c	-0.0041162428
5	0xbc006f37	-0.007839016
6	0xbb205980	-0.0024467409
7	0xbb973f1d	-0.004615678
8	0xbb5a8207	-0.0033341662
9	0xbb0c4f0b	-0.0021409418
10	0xbbf1a0d5	-0.007373909
11	0xb9d13952	-0.00039906293
12	0xb91a64cf	-0.00014724139
13	0xbbde15e0	-0.00677751
14	0xbbd697e7	-0.00654887
15	0xbc6ebe95	-0.0145718055
16	0x3c84ebd0	0.016225725
17	0x38716637	5.7554073e-05
18	0xbc0fcc4b	-0.008776735
19	0xb7e0d34b	-2.6801272e-05
20	0xbc483cb7	-0.012221507
21	0x3c39e676	0.01134645
22	0x39ee037b	0.0004539749
23	0x3c93bda9	0.018034773
24	0xb809fe52	-3.29002e-05
25	0x3bd5f0c2	0.0065289447
26	0x3ae35f8d	0.0017347202
27	0x3b8a27df	0.004216179
28	0xbbc74d57	-0.0060822177
29	0xb9c5e6b5	-0.00037746658
30	0x3b5b0ecd	0.003342557
31	0x3adfe560	0.0017081909
32	0xbb428795	-0.0029682864
33	0x3b94a60c	0.004536396
34	0x3b60cc20	0.0034301355
35	0x3c8665d3	0.016405975
36	0x3b88f48a	0.004179542
37	0xbcb34211	-0.021882089
38	0xbb28c786	-0.002575369
39	0x3b97af85	0.004629078
40	0x3b908203	0.00441003
41	0xbc572dd3	-0.013133484
42	0xbb3b0d6c	-0.0028541936
43	0x3aacf5e7	0.0013195843
44	0x3af02152	0.0018320477
45	0x3ab6d629	0.0013949323
46	0x3bc2be07	0.005943063
47	0x3b52b74f	0.0032152717
48	0x3aae5aeb	0.0013302242
49	0xba9ee7df	-0.0012123546
50	0x3bf301c3	0.0074159815
51	0x3a31f892	0.0006789054
52	0x3c03ec3e	0.00805193
53	0x3c252c38	0.010081343
54	0x3c88fa3f	0.01672089
55	0x3902a357	0.00012458615
56	0xbc2a9557	-0.010411582
57	0xbc0fdaea	-0.0087802205
58	0xbb4436d5	-0.002993991
59	0xbc29baab	-0.0103594465
60	0xbbc4b52e	-0.0060030436
61	0x39c46352	0.00037458033
62	0x3bd9bf75	0.006645138
63	0xbc20f5f7	-0.009824268
64	0x3c6a32fd	0.014294383
65	0x3af92aeb	0.0019009983
66	0xbb1cbfbf	-0.0023918
67	0x3a1b89b9	0.0005933303
68	0xbc7346c7	-0.014848418
69	0x3aae4bb5	0.0013297709
70	0x3bb5f81f	0.00555326
71	0xbc23183a	-0.0099545065
72	0xbb2fb879	-0.0026812835
73	0x3a049750	0.0005057948
74	0xbacdcfba	-0.0015702166
75	0x3c07f832	0.0082989205
76	0xbc2e9efe	-0.010658024
77	0xbb308c0d	-0.0026938946
78	0x3bd7b170	0.0065824315
79	0x3c51c4b5	0.012803246
80	0xbaf142ff	-0.0018406807
81	0x39e87987	0.00044341033
82	0xbbda5822	-0.0066633383
83	0x3bb2e3bc	0.005459277
84	0x3b59db18	0.0033242162
85	0x3baf07da	0.005341512
86	0xbc7cb8ea	-0.015424946
87	0xbbc2837f	-0.0059360857
88	0xbc09f878	-0.008421056
89	0xbbcf3175	-0.0063230344
90	0x3c0003e3	0.007813427
91	0xb94e6523	-0.00019683367
92	0x3b207c86	0.0024488284
93	0xbbd5d5cd	-0.006525731
94	0xb9e64e3d	-0.0004392731
95	0xbc4c7ff5	-0.012481679
96	0xbb27614e	-0.0025540176
97	0xbc21e914	-0.00988223
98	0x3b2ec563	0.0026667945
99	0x3bc21fb8	0.0059241913
100	0x3b7d9e32	0.0038699028
101	0xbba7b37b	-0.0051178313
102	0x3c54a52a	0.012978831
103	0x3b313201	0.0027037861
104	0xbbbe7c87	-0.0058131847
105	0x3cca4b5c	0.024694137
106	0x3c97af25	0.018516133
107	0xba7e2fef	-0.0009696474
108	0x3b6106aa	0.0034336247
109	0x3b7d9397	0.0038692707
110	0xba31b593	-0.0006779071
111	0xba83d4b7	-0.0010057901
112	0xbbd88ba2	-0.0066084424
113	0xbc833ceb	-0.016020259
114	0x3c020d18	0.007937692
115	0xbbf26aa2	-0.0073979655
116	0xba47cf0f	-0.00076221017
117	0x3baa73f0	0.005201809
118	0x3c249a2a	0.010046521
119	0x3ba6ca65	0.0050900453
120	0xbb54a4a5	-0.0032446769
121	0x3c06d9eb	0.008230667
122	0x3c3947d8	0.011308633
123	0x3bae1897	0.00531299
124	0xbb6c1c7f	-0.0036027727
125	0x3c1705c5	0.009217684
126	0xbc3c64c3	-0.011498633
127	0x3ca7fe86	0.020507108
128	0xbb4ff3c3	-0.0031730987
129	0xbc526d25	-0.012843405
130	0x3bae2b0f	0.0053151916
131	0xba0acf0b	-0.0005295134
132	0xbb9589c1	-0.0045635407
133	0xbbb596a2	-0.0055416385
134	0x3ab1667f	0.0013534575
135	0xbb333431	-0.002734434
136	0xbbacd216	-0.0052740676
137	0x3bb41f17	0.0054968703
138	0xbbbf8d5b	-0.0058457083
139	0x3b8cb0d0	0.0042935386
140	0x3b837107	0.0040112766
141	0x3c3ab83d	0.011396465
142	0x3bff23cd	0.00778625
143	0xba1c6ac1	-0.00059668353
144	0xbc56d88f	-0.013113155
145	0xbc33fb77	-0.010985247
146	0x3aef82c3	0.0018273223
147	0x3c211e77	0.009833924
148	0x3c815f92	0.015792642
149	0xbb976cc3	-0.0046211197
150	0xbbb8cd41	-0.0056397025
151	0xba4cc07e	-0.0007810666
152	0xbb42538b	-0.0029651846
153	0x3c483483	0.012219551
154	0xbabcb84b	-0.0014398185
155	0xbad59a78	-0.0016296646
156	0x3b107b61	0.0022046196
157	0xbc7454d2	-0.014912801
158	0xbbf6ce5f	-0.0075319256
159	0x3bc3d70c	0.0059765633
160	0x3c318eee	0.0108373
161	0x3b59e2a7	0.0033246668
162	0xbbfced17	-0.007718693
163	0x3c29c54c	0.010361981
164	0xbac49d45	-0.0015000483
165	0xbace3523	-0.0015732389
166	0xbb3a3cc3	-0.0028417564
167	0xbc342331	-0.010994718
168	0x3aad2af1	0.001321165
169	0xbc705605	-0.014668946
170	0xbbd90e5b	-0.0066240258
171	0x3c28fd8e	0.010314358
172	0xbba22d5a	-0.004949254
173	0x3c614da3	0.01375142
174	0x3c2db13d	0.010601339
175	0x3c071145	0.0082438635
176	0xbbe6b95d	-0.00704114
177	0xbbae357c	-0.0053164344
178	0xbb9206b0	-0.0044563636
179	0x3b0df745	0.0021662277
180	0x3bcd03d5	0.0062565603
181	0xbc2e09e6	-0.010622477
182	0xbb98aca8	-0.004659254
183	0x3a440ef3	0.0007479034
184	0xbc0bced1	-0.008533196
185	0xbb5c4288	-0.0033608992
186	0xbc3f8081	-0.011688353
187	0xbac5e3bb	-0.0015097776
188	0x3c73dc73	0.014884102
189	0x3c237b0a	0.009978065
190	0xbc0494bd	-0.008092103
191	0xba1a4bc7	-0.00058859255
192	0x3bdf7ebd	0.0068205283
193	0xbbe07368	-0.006849695
194	0xbc0c63e7	-0.00856874
195	0xbc4df04a	-0.012569496
196	0xba3dd533	-0.0007241547
197	0xbb96b897	-0.0045996415
198	0xba4fea50	-0.00079313386
199	0x3b37d459	0.0028050153
200	0x3c29f039	0.010372215
201	0x3c63219d	0.0138629945
202	0x3b926c37	0.0044684666
203	0xbc1a5f89	-0.009422191
204	0x3c0b72b5	0.008511235
205	0xbc305047	-0.010761327
206	0x3b98f928	0.0046683736
207	0x38dc36b5	0.000105006075
208	0xbc19d031	-0.009388016
209	0xbc328924	-0.010896955
210	0x3c115e5b	0.008872594
211	0xbbe57d9f	-0.0070035006
212	0x3b55049d	0.003250397
213	0x3ba14b90	0.004922338
214	0x3b31a5b8	0.0027106833
215	0xb971febb	-0.00023078446
216	0x3c5aea4a	0.013361523
217	0xbb8fe03f	-0.004390746
218	0x3c384a6d	0.011248213
219	0xbb3e7a08	-0.0029064436
220	0x3ce68b5d	0.028142625
221	0xbaa27649	-0.0012394871
222	0x3c115fb5	0.008872916
223	0xbb835d25	-0.0040089064
224	0x3b8b2157	0.004245918
225	0xbb80082a	-0.003907223
226	0x3b26d58b	0.0025456871
227	0xbb1c7e93	-0.0023879155
228	0x3b19b406	0.002345325
229	0xbb59f80a	-0.0033259415
230	0xbac67b13	-0.001514288
231	0xbbc42f49	-0.005987082
232	0xbb37bcba	-0.0028036074
233	0x3c195cce	0.009360505
234	0xbc2628e0	-0.010141581
235	0x3b7d68a3	0.0038667105
236	0x3b88f837	0.00417998
237	0x3ad7f480	0.0016476065
238	0xbbc7e0bf	-0.00609979
239	0x3c1e663b	0.009667928
240	0x3b98ed3c	0.0046669524
241	0x3c10babe	0.008833585
242	0x3c2d1cc5	0.010565941
243	0xbc501c7f	-0.0127021065
244	0xbaa06b67	-0.001223904
245	0x3b4a7292	0.0030891043
246	0xbbc1be3b	-0.00591257
247	0xbb367acf	-0.0027844196
248	0xb830a77e	-4.211766e-05
249	0x3c00b2fb	0.007855172
250	0x3bf8fbd3	0.007598379
251	0x3c65af85	0.014018898
252	0xbcb43fe7	-0.022003127
253	0xbc062e45	-0.008189742
254	0xbc43c976	-0.0119498875
255	0xbb51f82f	-0.0032038798

action_model._discrete_distribution.branches.0.bias f4 [3]
0	0x00000000	0.0
1	0x00000000	0.0
2	0x00000000	0.0

action_model._discrete_distribution.branches.1.weight f4 [2, 128]
0	0xbb396814	-0.0028290795
1	0xbba2c83e	-0.0049677184
2	0xbb6c8d9f	-0.0036095155
3	0xbc3fa759	-0.011697614
4	0x3bf49f97	0.0074653137
5	0x3ae6b8b0	0.0017602649
6	0xba24d6a9	-0.00062880904
7	0xba41742d	-0.0007379677
8	0xbab5c6e1	-0.0013868475
9	0x3ac7ae76	0.0015234489
10	0xbbe1d615	-0.0068919756
11	0xbc03275b	-0.008004989
12	0xbbd18920	-0.0063945204
13	0x3ac4f976	0.0015027958
14	0xbc49369b	-0.012281085
15	0x3b9a13a8	0.0047020502
16	0xba8f0c7b	-0.0010913754
17	0xbbb83f1b	-0.005622757
18	0x3bfc4bed	0.0076994807
19	0xb7a8c0ff	-2.0117031e-05
20	0xbc329b1c	-0.010901239
21	0x3c431e7b	0.011909123
22	0x3b669c63	0.0035188429
23	0xbc9ad88c	-0.018902086
24	0x3b1864be	0.0023253406
25	0x3ba070a2	0.0048962394
26	0x3b12afb0	0.002238255
27	0xbc523c08	-0.012831695
28	0x3acb5273	0.0015512243
29	0x3b5db415	0.003382926
30	0xbc22c543	-0.009934726
31	0xbbca0396	-0.0061649783
32	0x3af27b9b	0.0018499972
33	0xbbc029ef	-0.005864374
34	0xbc2f472b	-0.01069812
35	0xba16b0cb	-0.000574839
36	0xbc1ee0e8	-0.0096971765
37	0xbc143631	-0.009046123
38	0xb9b4f443	-0.00034514265
39	0xbb5ea323	-0.0033971749
40	0xbc893418	-0.016748473
41	0x3b137a84	0.0022503445
42	0x3baecfab	0.0053348145
43	0xbb67b867	-0.0035357715
44	0x3b9a1f69	0.0047034514
45	0x3c20ffe3	0.009826633
46	0x3c08a582	0.008340241
47	0x3c0f8aff	0.008761167
48	0x3bd5dc9f	0.006526544
49	0x3ad3e7a2	0.0016167054
50	0xbbdfdc32	-0.0068316692
51	0x3b8eb48d	0.0043550194
52	0x3b21654f	0.0024627035
53	0x3b8c70ba	0.004285899
54	0x3a4e24e7	0.0007863775
55	0xbba749fa	-0.0051052542
56	0xbc9f3eed	-0.019439185
57	0x3c5f6020	0.013633758
58	0xbba15b28	-0.0049241967
59	0x3ba23fd4	0.0049514566
60	0x3b95ff93	0.004577586
61	0xbc791217	-0.015202067
62	0x3c810dc7	0.01575364
63	0xbc1b469a	-0.009477282
64	0x3b93607f	0.004497587
65	0xb9032410	-0.00012506568
66	0x3bf19e82	0.007373632
67	0x3ae46388	0.0017424682
68	0xbc64c4e2	-0.013962956
69	0x3b788233	0.0037919402
70	0xbce7db5d	-0.028302843
71	0xbb85213f	-0.004062801
72	0xbc53ed27	-0.0129349595
73	0x3b00c4d6	0.0019648573
74	0x3b4e3f80	0.0031470954
75	0xbc6ddebb	-0.014518435
76	0xbc213baf	-0.00984089
77	0xbc3387fb	-0.010957713
78	0x3c2d84de	0.01059076
79	0xbb26c8ad	-0.0025449202
80	0xbaa54924	-0.0012610299
81	0xb940ddc5	-0.00018393162
82	0xbbc74eb3	-0.0060823797
83	0x3b59d78a	0.0033240044
84	0x3ba7aad7	0.0051168012
85	0x3c0a3a0b	0.00843669
86	0xbc42626a	-0.011864284
87	0xbc1b00b8	-0.009460621
88	0x3b172dd7	0.0023068094
89	0xbc3506c7	-0.011048979
90	0x3c195e56	0.00936087
91	0xbc9503fc	-0.018190376
92	0x3c45ebce	0.012080146
93	0x3b486577	0.0030578056
94	0x3a3ff3f5	0.0007322424
95	0x3a37666e	0.0006996159
96	0x3bdc6980	0.006726444
97	0x3b0ec2d0	0.0021783598
98	0x3c2fe02b	0.010734598
99	0x3c1f608f	0.009727611
100	0xbb6d1cb5	-0.003618044
101	0x3c0ceb7b	0.008601065
102	0xbc04c1b6	-0.008102825
103	0xba56e91d	-0.0008198189
104	0x3c883f46	0.016631734
105	0x3baec557	0.0053335833
106	0xbb2e70af	-0.0026617458
107	0xbba28570	-0.0049597546
108	0xbb43876f	-0.0029835363
109	0xbadcd3d8	-0.0016847802
110	0x3c47e7a9	0.012201228
111	0x3b454a49	0.0030104092
112	0xbbc3f119	-0.005979669
113	0x3c295510	0.010335222
114	0xbba2b59f	-0.0049654986
115	0x3bbcd40d	0.005762583
116	0xbc4697f3	-0.012121188
117	0x3bffb7bb	0.007803885
118	0xbbb62a8d	-0.0055592717
119	0xbbce3f77	-0.0062941867
120	0x3b98c663	0.0046623214
121	0xbc3744ac	-0.011185806
122	0x3aaf30d7	0.0013365996
123	0x3c058f04	0.008151773
124	0xbb6c3607	-0.0036042945
125	0xba84a163	-0.0010118898
126	0x3947cce1	0.00019054442
127	0xbbf73492	-0.0075441087
128	0xbc1f5d0a	-0.009726772
129	0x3d06e053	0.032928776
130	0x3c1e6eaf	0.009669944
131	0x3b523c17	0.0032079273
132	0x3c706ed5	0.014674862
133	0xbaeef497	-0.0018230852
134	0xbac54b06	-0.0015052266
135	0x3c84d0fb	0.01621293
136	0xba7c258b	-0.00096186314
137	0xbb3ada13	-0.002851133
138	0xbbd17af7	-0.0063928324
139	0xbb2eb20a	-0.0026656413
140	0xbc50d8f2	-0.012747036
141	0x3b8a44d5	0.004219631
142	0xbbfb33a2	-0.007666067
143	0x3ad19655	0.0015990237
144	0xba325da7	-0.00068041164
145	0x3c88ccf1	0.016699286
146	0x3c99529b	0.018716147
147	0xb9e6700d	-0.00043952503
148	0x3ae176cb	0.0017201541
149	0x3a1365f7	0.0005622799
150	0xbc2f1dd5	-0.010688265
151	0x3c4b62b2	0.0124136675
152	0x3b8867c0	0.0041627586
153	0xbc145cc3	-0.009055319
154	0x3c43affb	0.0119438125
155	0x395a8a4f	0.00020841624
156	0x3acb58cb	0.0015514133
157	0xbc1b579b	-0.009481336
158	0xbbe2ae9d	-0.006917788
159	0x3b7c017b	0.003845303
160	0xbc408874	-0.011751283
161	0xbc2fcacc	-0.010729503
162	0xbc269c93	-0.010169166
163	0xbc400a8c	-0.011721265
164	0xbbd7e4ba	-0.0065885456
165	0x3c439324	0.0119369365
166	0xbc2ebd4c	-0.010665249
167	0x3b9470ab	0.0045300326
168	0x3c104e83	0.008807781
169	0x3b965fc5	0.0045890533
170	0x3b0becd9	0.002135089
171	0x3c2bed94	0.010493655
172	0xbb29911b	-0.0025873843
173	0x3b27bb83	0.0025593943
174	0x3c4ab3c6	0.012371963
175	0xbb41aa45	-0.0029550951
176	0x3be6eb63	0.0070471033
177	0xbb6856b3	-0.0035452067
178	0xbc0a7cb7	-0.008452586
179	0xbb7fca3b	-0.003903045
180	0x3be4667f	0.0069702263
181	0xba6e4e4d	-0.0009090647
182	0x3c596037	0.013267568
183	0x3bf73cf0	0.007545106
184	0xbc289834	-0.010290194
185	0x3af8b340	0.0018974319
186	0x3c1b82f7	0.009491674
187	0xbbb0805b	-0.005386395
188	0x3ce175fb	0.027522078
189	0xbbac4cf1	-0.0052581956
190	0xba258a98	-0.00063149026
191	0xbcf2955d	-0.029612238
192	0xbbb06096	-0.0053826077
193	0x3ad2c648	0.0016080821
194	0x3bd5c2ef	0.006523482
195	0xbbe3b1fb	-0.006948707
196	0x3aff2153	0.0019464887
197	0xba865f5d	-0.0010251809
198	0xbc3a6ad7	-0.011378012
199	0x3c33ca73	0.010973561
200	0xbc8ce09b	-0.017196944
201	0x3c2dadd8	0.01060053
202	0xbaaef9ac	-0.0013349555
203	0xbc06e8cb	-0.008234213
204	0xbc114d59	-0.008868539
205	0xba3d3e2b	-0.00072190416
206	0x3bf419ff	0.007449388
207	0x3a97004d	0.0011520475
208	0xbc4d3ffd	-0.012527463
209	0xbb47ab66	-0.0030467152
210	0x3923693f	0.00015584099
211	0x3c28b163	0.010296199
212	0xbb46d6b3	-0.0030340373
213	0x3c25ec0d	0.01012708
214	0x3ba1ce6f	0.004937939
215	0xbc09909f	-0.008396297
216	0xbc9af1c7	-0.018914117
217	0x3b94c7b0	0.004540406
218	0xbb5eee1d	-0.0034016438
219	0x3bcd82f7	0.0062717157
220	0xbaef3f2f	-0.0018253083
221	0xbc76b52f	-0.015057846
222	0x3cab84dc	0.020937376
223	0xbbf33cad	-0.0074230046
224	0x3be653cd	0.007029033
225	0xbb7360df	-0.0037136597
226	0x3a2d8a94	0.0006620076
227	0xbc915658	-0.017741367
228	0x399635e3	0.00028650378
229	0x3b070972	0.0020604995
230	0xbb02d6dc	-0.0019964492
231	0xbc158ebd	-0.00912827
232	0x3b9c2ad5	0.004765848
233	0xbb848043	-0.0040436103
234	0xbb97e48f	-0.0046354006
235	0x3c4f96f3	0.012670266
236	0xbb87a3b5	-0.0041393884
237	0x3bee9550	0.007280983
238	0x3b1b29f1	0.0023676122
239	0x3850179f	4.9613063e-05
240	0x3b8cb49f	0.0042939926
241	0xb9c6427f	-0.00037815046
242	0x3c0cfe8f	0.008605613
243	0xbc1bc450	-0.009507254
244	0xbbd56a23	-0.0065128966
245	0x392b5aef	0.00016341706
246	0xbbffd5f8	-0.0078074895
247	0xbbaec0c3	-0.0053330376
248	0x3c089638	0.008336596
249	0x3aa86b5f	0.0012849382
250	0x3af8aeaa	0.0018972952
251	0xbbdfd18a	-0.006830399
252	0xb91c7b9d	-0.00014923369
253	0xbb8830ea	-0.0041562216
254	0x3c41bab8	0.011824302
255	0xb8c5146b	-9.397495e-05

action_model._discrete_distribution.branches.1.bias f4 [2]
0	0x00000000	0.0
1	0x00000000	0.0

network_body.observation_encoder.processors.0.normalizer.running_mean f4 [7]
0	0x3ea89f09	0.32933834
1	0xbf8f2cb2	-1.1185515
2	0xbeaf0295	-0.34181657
3	0x00000000	0.0
4	0x3e031d6f	0.12804197
5	0xbcb928ff	-0.022602556
6	0x3f7fc2a9	0.999064

network_body.observation_encoder.processors.0.normalizer.running_variance f4 [7]
0	0x3f8de2d5	1.1084849
1	0x442fc454	703.0676
2	0x42dd5aec	110.67758
3	0x3f800000	1.0
4	0x44155ad7	597.4194
5	0x45e31489	7266.567
6	0x411fecd6	9.995321

network_body.processors.0.normalizer.running_mean f4 [7]
0	0x3ea89f09	0.32933834
1	0xbf8f2cb2	-1.1185515
2	0xbeaf0295	-0.34181657
3	0x00000000	0.0
4	0x3e031d6f	0.12804197
5	0xbcb928ff	-0.022602556
6	0x3f7fc2a9	0.999064

network_body.processors.0.normalizer.running_variance f4 [7]
0	0x3f8de2d5	1.1084849
1	0x442fc454	703.0676
2	0x42dd5aec	110.67758
3	0x3f800000	1.0
4	0x44155ad7	597.4194
5	0x45e31489	7266.567
6	0x411fecd6	9.995321

network_body._body_endoder.seq_layers.0.weight f4 [128, 7]
0	0x3ee64c61	0.44980147
1	0x3dd78384	0.105231315
2	0xbee2f319	-0.44326094
3	0x3ebc238e	0.36745876
4	0x3f802ed2	1.0014288
5	0xbecd91fa	-0.40150434
6	0xbded8061	-0.11596752
7	0x3f22b0ef	0.6355123
8	0xbedccc7e	-0.43124765
9	0xbe89a421	-0.26883033
10	0xbcbc8f6c	-0.023017608
11	0x3e817808	0.2528689
12	0xbc611946	-0.013738936
13	0xbee09c06	-0.43869036
14	0x3e8593db	0.26089367
15	0x3ddc661b	0.107616626
16	0x3e973161	0.2952986
17	0x3ebedab9	0.37276247
18	0xbef18adb	-0.4717625
19	0xbdfc500c	-0.12319955
20	0x3eb7ea32	0.35920864
21	0xbeb3cddc	-0.35117996
22	0x3c8624ee	0.016375031
23	0x3e1d3bb2	0.15354803
24	0xbe055bb8	-0.13023269
25	0x3f29cb1d	0.6632555
26	0xbed72c74	-0.42026103
27	0x3eeea414	0.46609557
28	0x3e95e64c	0.29277265
29	0xbefd7603	-0.49504098
30	0xbec691ee	-0.3878321
31	0xbecbbb84	-0.397915
32	0xbea31431	-0.31851342
33	0x3e8459b9	0.25849703
34	0xbef0f6bc	-0.47063243
35	0x3f3d5850	0.7396288
36	0xbb0ba7f7	-0.0021309832
37	0xbdd0f744	-0.10203412
38	0xbe020992	-0.12698963
39	0xbd8355a2	-0.064128175
40	0xbe9c49b6	-0.30524987
41	0x3d0d62c0	0.034518003
42	0xbe1d827d	-0.15381809
43	0xbeed90cb	-0.4639953
44	0x3f028623	0.50985926
45	0xbe9d9fff	-0.3078613
46	0x3d453e0d	0.04815488
47	0x3ed0c195	0.4077269
48	0x3d188fcd	0.037246514
49	0x3f152912	0.58265793
50	0x3e372209	0.17884077
51	0xbf1b4df9	-0.6066585
52	0x3e083fd6	0.13305601
53	0x3f23086c	0.63684726
54	0xbebecf45	-0.3726751
55	0x3dd06bb4	0.10176793
56	0xbed53fb5	-0.41650167
57	0x3d854d3b	0.06508871
58	0xbee6bc6e	-0.45065635
59	0xbe9de577	-0.3083913
60	0x3dd2a912	0.10286154
61	0x3d637cc4	0.055538908
62	0xbf4110ee	-0.7541646
63	0x3ea454a3	0.32095823
64	0xbe08d0b6	-0.13360867
65	0xbefeb4c2	-0.49747282
66	0xbf182887	-0.5943684
67	0xbf080b61	-0.5314236
68	0x3df3e0e9	0.119081326
69	0xbe8834fe	-0.2660293
70	0x3dcb229a	0.09918709
71	0x3ead8f89	0.3389857
72	0xbe9b4d35	-0.30332342
73	0xbeccb764	-0.39983666
74	0x3e04e8c7	0.12979423
75	0x3ed4c3ee	0.41555732
76	0xbe23d5ca	-0.15999523
77	0xbe4c56a6	-0.19954929
78	0xbf184d69	-0.5949312
79	0x3caea52a	0.02131899
80	0xbe6672ff	-0.22504805
81	0x3f049832	0.5179473
82	0xbebc1f7f	-0.3674278
83	0xbce796bc	-0.028270118
84	0xbed5086b	-0.41607985
85	0x3d77c80f	0.060493525
86	0xbd804660	-0.06263423
87	0xbe3e43d0	-0.18580556
88	0x3d0a6bc9	0.0337942
89	0x3e9600de	0.29297537
90	0x3f40c832	0.75305474
91	0x3f048917	0.5177168
92	0x3e1184da	0.14210835
93	0x3d8c1c77	0.06841367
94	0xbedd7c08	-0.4325869
95	0x3dd79617	0.10526674
96	0xbe0a240b	-0.13490312
97	0x3ecafeb0	0.39647436
98	0x3f2c34cd	0.6726807
99	0x3e35da7d	0.17759128
100	0xbc8ee8ed	-0.017445052
101	0xbea59d24	-0.3234645
102	0xbb75684c	-0.00374462
103	0xbde46e84	-0.11153892
104	0x3e10ebd3	0.1415246
105	0x3f171755	0.59019977
106	0xbf16e79d	-0.58947164
107	0x3dbd0d73	0.09231081
108	0xbe5b362b	-0.21407382
109	0x3daa6460	0.08319926
110	0x3ea0d33c	0.3141116
111	0xbe78ea0f	-0.24308036
112	0xbedfc6ec	-0.43706453
113	0x3ee09329	0.43862274
114	0xbedecfa2	-0.43517786
115	0x3f1b2579	0.60604054
116	0x3b9c872a	0.004776855
117	0xbe6f6e99	-0.23382033
118	0x3df7d0db	0.12100383
119	0x3f22fd72	0.63667977
120	0xbf210255	-0.62894183
121	0x3dfbd2ce	0.12296067
122	0xbd64e2ed	-0.055880476
123	0xbe9a2b12	-0.30110985
124	0x3eca25c7	0.39481947
125	0x3ec161d2	0.37769943
126	0xbc9e5ace	-0.019330408
127	0x3da0c1c0	0.07849455
128	0xbd9daa66	-0.076985165
129	0x3f1aeb15	0.60514957
130	0x3e34a02f	0.1763923
131	0x3eebd166	0.46058196
132	0xbf0ac980	-0.54213715
133	0x3ec60724	0.38677323
134	0xbe2dc196	-0.16968378
135	0xbed74f29	-0.42052582
136	0x3ec8d6fe	0.39226526
137	0x3cd38ae9	0.025823073
138	0x3debd8a8	0.11515933
139	0x3e615816	0.22006258
140	0x3e5f33af	0.2179706
141	0xbe1d2460	-0.15345907
142	0x3ddf4f8f	0.109038465
143	0xbe3c479d	-0.18386693
144	0x3e11e97a	0.1424922
145	0xbed1c1d5	-0.40968195
146	0x3e2dca98	0.16971815
147	0x3ed799a5	0.4210941
148	0xbe6bd4d2	-0.23030403
149	0x3e2a8275	0.16651328
150	0xbe83bd63	-0.25730428
151	0x3ecb143c	0.39663875
152	0xbeadd6fc	-0.33953083
153	0x3d83d5fa	0.06437297
154	0xbe8e6fba	-0.27819616
155	0x3bd34d62	0.0064484337
156	0xbcee9ead	-0.029128397
157	0x3eca217e	0.39478678
158	0x3ef0c0b6	0.47022027
159	0x3eb40b41	0.35164836
160	0xbd9e9c69	-0.077446766
161	0x3e06bfb6	0.1315907
162	0xbf13320d	-0.57498246
163	0x3f0401a5	0.5156501
164	0x3edf8f2e	0.43663925
165	0xbe47ee9a	-0.19524613
166	0x3f1da4e7	0.61579746
167	0x3e8887c8	0.26666093
168	0x3ef78e47	0.48350736
169	0xbdaf2ed1	-0.085538514
170	0xbebeaa34	-0.3723923
171	0xbf0ddf39	-0.55418736
172	0x3f369748	0.71324587
173	0x3f24b83c	0.6434362
174	0xbe840f81	-0.2579308
175	0x3e36190c	0.17782992
176	0x3ef673fa	0.48135358
177	0x3d1b81cc	0.03796558
178	0xbea51f0b	-0.32250246
179	0x3e0a85bf	0.13527583
180	0xbdab7f53	-0.083738945
181	0x3ecceb0a	0.4002307
182	0xbef460f0	-0.47730207
183	0xbee945c7	-0.45561048
184	0x3e9dd946	0.3082983
185	0x3c8d29ab	0.017231783
186	0xbc96fd07	-0.0184312
187	0x3f3066d0	0.6890688
188	0x3ebca472	0.36844212
189	0xbebba2e5	-0.36647716
190	0xbe6b3386	-0.22968873
191	0x3e8875c5	0.2665235
192	0x3ea20ac4	0.3164884
193	0xbc178fcc	-0.009250592
194	0xbe1932e1	-0.14960815
195	0xbed1aa19	-0.40950087
196	0x3ee952a8	0.45570874
197	0xbead3e27	-0.3383648
198	0xbd95be12	-0.07311644
199	0xbf499ce5	-0.7875503
200	0x3ec260d1	0.3796449
201	0xbeaad1f8	-0.33363318
202	0xbf1b4466	-0.6065124
203	0x3ee54363	0.44777974
204	0x3f05f7f4	0.5233147
205	0x3f00e9ef	0.50356954
206	0x3bcd48f6	0.006264801
207	0x3eaa70f7	0.3328931
208	0x3ec02c34	0.37533724
209	0x3dba4922	0.0909598
210	0x3f2c9806	0.6741947
211	0x3ee63f31	0.44970086
212	0xbe2b6a7d	-0.16739841
213	0xbd85a3b7	-0.06525367
214	0x3e6be5c3	0.23036866
215	0x3eb2d296	0.3492629
216	0xbd7869e0	-0.060647845
217	0xbe974279	-0.29542902
218	0x3ead10cb	0.33801875
219	0xbf052347	-0.52006954
220	0x3e69520a	0.22785202
221	0x3e89aea7	0.26891062
222	0xbe844de2	-0.2584067
223	0xbf4a1d27	-0.7895073
224	0x3f226a8f	0.63443846
225	0x3f1b5b4a	0.6068617
226	0xbe33cada	-0.1755785
227	0x3e0ce4c9	0.1375915
228	0xbd8cb96d	-0.06871305
229	0xbe5bc044	-0.21460062
230	0x3ed0c696	0.4077651
231	0x3f785fba	0.9702107
232	0xbe65be9f	-0.22435997
233	0xbedaa249	-0.4270194
234	0x3f1363e9	0.57574326
235	0xbd5272b8	-0.051378936
236	0x3f3191e4	0.69363236
237	0xbe90a29e	-0.28249067
238	0x3c634fee	0.013874037
239	0xbed231a0	-0.41053486
240	0xbd423d3b	-0.047421675
241	0xbe313a40	-0.17307377
242	0xbe175f80	-0.14782524
243	0xbe943e16	-0.28953618
244	0xbea2f808	-0.31829858
245	0xbd896af0	-0.0670985
246	0x3f4df777	0.80455726
247	0x3e7aca0b	0.24491136
248	0x3ed05919	0.40692976
249	0xbd41cff2	-0.047317453
250	0x3e60c528	0.21950209
251	0xbeb2c788	-0.34917855
252	0xbe96c40c	-0.29446447
253	0xbde708c6	-0.1128097
254	0x3f018359	0.50591046
255	0x3b32c8c5	0.0027280312

network_body._body_endoder.seq_layers.0.bias f4 [128]
0	0x00000000	0.0
1	0x00000000	0.0
2	0x00000000	0.0
3	0x00000000	0.0
4	0x00000000	0.0
5	0x00000000	0.0
6	0x00000000	0.0
7	0x00000000	0.0
8	0x00000000	0.0
9	0x00000000	0.0
10	0x00000000	0.0
11	0x00000000	0.0
12	0x00000000	0.0
13	0x00000000	0.0
14	0x00000000	0.0
15	0x00000000	0.0
16	0x00000000	0.0
17	0x00000000	0.0
18	0x00000000	0.0
19	0x00000000	0.0
20	0x00000000	0.0
21	0x00000000	0.0
22	0x00000000	0.0
23	0x00000000	0.0
24	0x00000000	0.0
25	0x00000000	0.0
26	0x00000000	0.0
27	0x00000000	0.0
28	0x00000000	0.0
29	0x00000000	0.0
30	0x00000000	0.0
31	0x00000000	0.0
32	0x00000000	0.0
33	0x00000000	0.0
34	0x00000000	0.0
35	0x00000000	0.0
36	0x00000000	0.0
37	0x00000000	0.0
38	0x00000000	0.0
39	0x00000000	0.0
40	0x00000000	0.0
41	0x00000000	0.0
42	0x00000000	0.0
43	0x00000000	0.0
44	0x00000000	0.0
45	0x00000000	0.0
46	0x00000000	0.0
47	0x00000000	0.0
48	0x00000000	0.0
49	0x00000000	0.0
50	0x00000000	0.0
51	0x00000000	0.0
52	0x00000000	0.0
53	0x00000000	0.0
54	0x00000000	0.0
55	0x00000000	0.0
56	0x00000000	0.0
57	0x00000000	0.0
58	0x00000000	0.0
59	0x00000000	0.0
60	0x00000000	0.0
61	0x00000000	0.0
62	0x00000000	0.0
63	0x00000000	0.0
64	0x00000000	0.0
65	0x00000000	0.0
66	0x00000000	0.0
67	0x00000000	0.0
68	0x00000000	0.0
69	0x00000000	0.0
70	0x00000000	0.0
71	0x00000000	0.0
72	0x00000000	0.0
73	0x00000000	0.0
74	0x00000000	0.0
75	0x00000000	0.0
76	0x00000000	0.0
77	0x00000000	0.0
78	0x00000000	0.0
79	0x00000000	0.0
80	0x00000000	0.0
81	0x00000000	0.0
82	0x00000000	0.0
83	0x00000000	0.0
84	0x00000000	0.0
85	0x00000000	0.0
86	0x00000000	0.0
87	0x00000000	0.0
88	0x00000000	0.0
89	0x00000000	0.0
90	0x00000000	0.0
91	0x00000000	0.0
92	0x00000000	0.0
93	0x00000000	0.0
94	0x00000000	0.0
95	0x00000000	0.0
96	0x00000000	0.0
97	0x00000000	0.0
98	0x00000000	0.0
99	0x00000000	0.0
100	0x00000000	0.0
101	0x00000000	0.0
102	0x00000000	0.0
103	0x00000000	0.0
104	0x00000000	0.0
105	0x00000000	0.0
106	0x00000000	0.0
107	0x00000000	0.0
108	0x00000000	0.0
109	0x00000000	0.0
110	0x00000000	0.0
111	0x00000000	0.0
112	0x00000000	0.0
113	0x00000000	0.0
114	0x00000000	0.0
115	0x00000000	0.0
116	0x00000000	0.0
117	0x00000000	0.0
118	0x00000000	0.0
119	0x00000000	0.0
120	0x00000000	0.0
121	0x00000000	0.0
122	0x00000000	0.0
123	0x00000000	0.0
124	0x00000000	0.0
125	0x00000000	0.0
126	0x00000000	0.0
127	0x00000000	0.0

network_body._body_endoder.seq_layers.2.weight f4 [128, 128]
0	0xbb3740b9	-0.0027962162
1	0x3cd19c7b	0.025587311
2	0xbc69ca17	-0.014269373
3	0x3de35c64	0.111016065
4	0x3dccd2bf	0.10001134
5	0xbbbcfe47	-0.005767617
6	0xbd26f031	-0.040756408
7	0xbd57c150	-0.05267459
8	0xbb3ad176	-0.0028506196
9	0x3dadfdc3	0.08495667
10	0xbdb4df79	-0.088316865
11	0xbd826ced	-0.06368432
12	0xbdeeaa77	-0.11653607
13	0x3c2b8903	0.010469678
14	0x3da20759	0.07911558
15	0xbd38192f	-0.044945892
16	0x3d44a46b	0.048008364
17	0xbdfabde5	-0.12243251
18	0xbdd332d9	-0.10312433
19	0xbdd3fe09	-0.10351188
20	0x3da52d74	0.0806531
21	0xbdb5add4	-0.08871046
22	0xbd720663	-0.059088122
23	0x3c546e6d	0.012965781
24	0xbd01e3eb	-0.0317115
25	0x3c04178b	0.008062254
26	0xbb8c545c	-0.0042825174
27	0x3c920faa	0.017829735
28	0x3d90c724	0.07069233
29	0xbdcc081e	-0.09962486
30	0x3d6b2007	0.05740359
31	0xbcda3683	-0.026637321
32	0xbda18648	-0.0788694
33	0x3d19ba40	0.037531137
34	0xbd72da00	-0.059289932
35	0x3df0213c	0.11725089
36	0x3cbca14b	0.02302613
37	0x3cc2597c	0.02372431
38	0x3db8bae6	0.09020023
39	0xbd383596	-0.04497298
40	0xbc97653f	-0.018480895
41	0x3de070d5	0.10959021
42	0x3b0f8791	0.0021900872
43	0xbd42926c	-0.04750292
44	0x3cc85776	0.024455767
45	0xbccc9709	-0.024974363
46	0xbdd5afae	-0.10433899
47	0xbd2491ba	-0.04017804
48	0x3dccd80b	0.100021444
49	0xbd34362f	-0.043996986
50	0x3e499d25	0.19688852
51	0x3d7d1ec7	0.06179693
52	0x3df0d619	0.11759586
53	0x3cc43dd1	0.023955258
54	0xbb6cb817	-0.0036120468
55	0x3b87fd26	0.0041500507
56	0x3cc76e79	0.02434467
57	0x39e65ce0	0.00043938216
58	0xbde7f901	-0.113267906
59	0x3bc10e99	0.0058916328
60	0xbdb77ffd	-0.08959959
61	0x3dae86e4	0.08521822
62	0xbcb256d4	-0.021769919
63	0x3ccef397	0.025262637
64	0x3df0ff66	0.117674634
65	0xbdcd66ff	-0.100294106
66	0xbd9b5412	-0.075843945
67	0xbd343a66	-0.044001006
68	0xbc2da386	-0.010598069
69	0x3d9b7224	0.0759013
70	0x3e04c566	0.12965927
71	0xbd975ee2	-0.07391144
72	0xbd936ac0	-0.07198095
73	0xbe20b71e	-0.15694854
74	0x3bcb8121	0.0062104617
75	0xbd3449a5	-0.044015545
76	0x3d7a8bc0	0.061168432
77	0xbd91772f	-0.071028106
78	0x3df1b317	0.11801737
79	0x3daba640	0.08381319
80	0xbe022bd6	-0.12712035
81	0x3dd43614	0.10361877
82	0xbd480dce	-0.04884129
83	0xbce9bd86	-0.028532755
84	0xbd86c39b	-0.065802775
85	0x3e0966e8	0.13418162
86	0xbdb04bc6	-0.08608203
87	0x3e3efe0b	0.18651597
88	0xbe47dd23	-0.1951795
89	0x3cabcd1c	0.020971827
90	0xbd998a9c	-0.07497141
91	0xbd8b1393	-0.06790843
92	0xbd17cf16	-0.037062727
93	0x3dd6afc9	0.10482747
94	0x3d2d3c2c	0.042293712
95	0xbd78d0b0	-0.060745895
96	0xbc316a2b	-0.010828535
97	0xbdbf56fa	-0.09342761
98	0x3df7a782	0.120924965
99	0x3d1068be	0.03525614
100	0xbdc965ca	-0.09833868
101	0xbdd919ad	-0.106006004
102	0x3d16c893	0.036812376
103	0x3d94a09a	0.07257195
104	0x3d9722c8	0.07379681
105	0xbe223dab	-0.15843837
106	0xbd3890ed	-0.045060087
107	0xbda400b6	-0.08007948
108	0x3c9f8b6e	0.019475665
109	0xbcd87312	-0.026422057
110	0x3de95cbd	0.113946415
111	0xba9b5ad8	-0.0011852635
112	0x3d16a3cf	0.036777314
113	0x3da20184	0.07910445
114	0x3dafc37a	0.08582206
115	0xbdd6acf5	-0.10482208
116	0x3cb01245	0.021493087
117	0xbc8273f3	-0.01592443
118	0xbe01703c	-0.1264047
119	0xbd86eb92	-0.065879
120	0xbddb37a1	-0.1070397
121	0xbde7aab2	-0.113118544
122	0x3ddec3a7	0.108771615
123	0x3c21ee38	0.009883456
124	0x3d9ed5ca	0.07755621
125	0x3e17c38c	0.14820689
126	0xbcee062d	-0.02905568
127	0xbc763962	-0.01502833
128	0x3c89a96f	0.016804425
129	0xbb41b9b8	-0.002956016
130	0xbdb17996	-0.08665769
131	0xbd303faf	-0.043029483
132	0xbda75cc4	-0.081719905
133	0xbca4638f	-0.020067004
134	0xbd9b685f	-0.075882666
135	0x3c0b340c	0.008496296
136	0xbd4c1657	-0.049825992
137	0x3deccd07	0.11562543
138	0xbd2f3dd7	-0.042783584
139	0x3d5c876a	0.05384008
140	0x3d6d8f55	0.05799802
141	0xbd963805	-0.07334904
142	0x3d91cee5	0.0711954
143	0x3d48b558	0.049001068
144	0x3d25f7c4	0.04051949
145	0xbd0bd18c	-0.034135386
146	0x3e374e38	0.17900932
147	0x3dc8e345	0.09808973
148	0xbc07a381	-0.008278728
149	0x3dccb42d	0.09995303
150	0x3d385a92	0.04500825
151	0x3d9422b0	0.072331786
152	0x3e6d85a1	0.23195507
153	0xbe051cf0	-0.1299932
154	0x3d9c77b4	0.07640019
155	0xbd953133	-0.07284775
156	0xbc55fb82	-0.013060452
157	0xbc94356f	-0.018091885
158	0xbd611837	-0.054954734
159	0xbdebb2bb	-0.115086995
160	0x3dcb1548	0.099161685
161	0x3e5bf290	0.21479249
162	0x3d18377a	0.03716228
163	0xbe11c694	-0.14235908
164	0x3e4a7e35	0.19774707
165	0xbddfca62	-0.10927273
166	0xbc13a0d9	-0.009010517
167	0x3be4b064	0.006979035
168	0x3dc2ac47	0.095055155
169	0xbbe8775c	-0.007094307
170	0xbd9aaf9d	-0.07553027
171	0xbd569c56	-0.052395187
172	0x3dfaa041	0.12237597
173	0x3e0c9aa2	0.13730863
174	0xbe2592cb	-0.16169278
175	0x3d1002ee	0.035159044
176	0xbe1b4509	-0.15163054
177	0x3ad8d0d8	0.0016541732
178	0x3cf38a2e	0.029728975
179	0xbd3fa41d	-0.04678737
180	0xbe3d5635	-0.18489917
181	0xbd9e7a5e	-0.077381834
182	0x3b61789f	0.0034404171
183	0xbd5808c2	-0.052742727
184	0xbdb9f5e4	-0.09080103
185	0xbcd340dd	-0.025787765
186	0xbda53bcb	-0.08068045
187	0xbc5a34ec	-0.013318282
188	0xbc5d62fd	-0.01351237
189	0xbd58b94b	-0.052911084
190	0x3dcf5b7e	0.101248726
191	0xbdb1c7b0	-0.086806655
192	0x3e1b74e0	0.15181303
193	0xbdb4265a	-0.087963775
194	0xbd4884a2	-0.048954614
195	0xbda3764b	-0.07981547
196	0x3c66a776	0.014078012
197	0xbe65d958	-0.22446191
198	0x3c7bbece	0.015365316
199	0x3dc08fc4	0.09402421
200	0x3cef4013	0.029205358
201	0xbe74f0b7	-0.2391995
202	0xbd82227d	-0.06354234
203	0xbdfa4cfd	-0.122217156
204	0x3d9af9a2	0.07567145
205	0xbc614886	-0.013750201
206	0x3d44d21f	0.04805195
207	0xbdcdbf8a	-0.10046299
208	0x3b5a03b6	0.0033266372
209	0xbd781e84	-0.060575977
210	0x3db53fef	0.08850085
211	0xbd6feb24	-0.058573857
212	0x3d702f48	0.05863884
213	0xbd9c68b9	-0.07637162
214	0x3e21eb9a	0.15812531
215	0x3e10b4f4	0.14131528
216	0x3b3d8d71	0.0028923417
217	0x3e096b76	0.134199
218	0x3be1ac9d	0.006887032
219	0x3dd8c1bc	0.10583827
220	0xbd82198a	-0.063525274
221	0xbe296051	-0.16540648
222	0x3daf1309	0.085485525
223	0xbd8c8ea8	-0.06863147
224	0xbd6612f3	-0.056170415
225	0xbc96557b	-0.018351307
226	0xbd3097db	-0.04311357
227	0xbdda36fd	-0.106550194
228	0x3c08689a	0.00832572
229	0x3c9133ef	0.01772496
230	0xbdbfb71b	-0.093610965
231	0x3d75feb7	0.060057368
232	0x3dbafd25	0.09130315
233	0xbd009535	-0.031392295
234	0x3c8bf684	0.017085321
235	0xbd851df1	-0.064998515
236	0xbd96047e	-0.073250756
237	0xbdca1ce7	-0.09868794
238	0x3cd58e8a	0.026068944
239	0x3d9f8596	0.07789151
240	0x3d4a31f2	0.049364038
241	0xbe0c916b	-0.13727348
242	0x3d8f3f5c	0.06994507
243	0xbd9d38d4	-0.07676855
244	0x3a89fe44	0.0010528048
245	0x3c0426a5	0.008065854
246	0x3dde08c7	0.10841518
247	0xbd945c4a	-0.07244165
248	0xbda0a26e	-0.07843481
249	0x3d788f5d	0.060683597
250	0x3e1f0784	0.1553021
251	0x3e01fdd7	0.12694488
252	0x3e517e8a	0.20458427
253	0xbd8f7e18	-0.07006472
254	0x3dba3b44	0.09093335
255	0xbe71771a	-0.2358059
