results/updatedreward/PlayerAgent/PlayerAgent-1035.onnx (onnx, 546771 bytes, 11 tensors)

discrete_act_size_vector f4 [1, 2]
00000000: 0000 4040 0000 0040
3.0 2.0

network_body._body_endoder.seq_layers.0.weight f4 [256, 6]
00000000: 465b c7be 4249 55be 3a45 0d3f 73df ad3e
00000010: b45d d13d 172a c0be 67d5 5e3e eb86 323e
00000020: 1d77 6bbb 5de7 25bd 511f 193e c32c 293e
00000030: 5a76 dbbe 5911 b83e ef1d 92be 62e7 633e
00000040: de57 3f3f 168b ba3e dc9d 10bd 539b 0cbf
00000050: 19ca b53e 4da2 0d3f 7cc6 90be 286d 2abe
00000060: 40b8 dd3e 6499 e73d ccf3 063c 5cfe 45be
00000070: 76cd 42be 3eda 063f 2df8 4bbe 801a d0bd
00000080: ddf5 f33c cfc0 7d3e 82c0 4b3e 4d02 a2bf
00000090: 5bfd b13d c439 85be fd4f 86be 04a9 90bd
000000a0: 688c ef3e 246e a73e 4b9b ccbe 6c40 0b3f
000000b0: cb63 5cbd 795f edbe e1eb bc3d 6cce 43bf
000000c0: 9bdb dabe aa9d cb3e 7c5e 4b3e d6db 463e
000000d0: 6691 25bf 0c48 ac3e 463b 39bf 9832 0fbf
000000e0: 1a96 df3e bdff 88be 1870 683e 06ff ed3e
000000f0: bc4f 82bd c92e a7bd cecc 1bbf c094 66be
00000100: fc2a 2abf 4222 573d 3a48 aa3e e988 adbe
00000110: bf38 0d3f 9ea5 a4be b335 eebe a1de 88be
00000120: 5308 b43d 530b 8ebe c297 7c3e d973 71bf
00000130: c103 c8be e260 00bf bfbd 41be d72c 4b3e
00000140: 3df9 653d eacd fabe 3827 11bf 603f b0be
00000150: 12df eabd 74c9 66bd d341 2b3e fbfb b33e
00000160: c303 d83d 2bd8 d03e 1757 023f 7587 bfbd
00000170: 301f 943e 6eb1 343d b033 253d 4964 b93e
00000180: 50cf 1abf d5fb 2d3f 796d 7bbc b09e d0be
00000190: 7849 693f 48a3 debe 8c61 383f 19cb e03c
000001a0: 2f95 163e b774 583e df47 e93a 891f a93e
000001b0: 6b88 58bf 270f dbbe 7f0b 71bc 1e75 c3be
000001c0: 7a5c 3abd f915 e73d 665b c73e 4f91 38be
000001d0: a4b7 9ebe 9015 413f 22f8 a3be f495 56bf
000001e0: 8817 9a3f 810c e8bb 872e 0ebf 92a3 2d3d
000001f0: 5c07 06bf 3860 a03c c743 6b3e e17d 213f
00000200: 8841 b2be f6fd 3bbe ab91 56be 15b4 303f
00000210: 9e89 acbe c054 7c3d 860b c5bd 79ea 18bd
00000220: 33d7 24bf ac52 4bbf 9861 3f3e ba43 19be
00000230: 1985 a93c 1af4 aebd 745d c73e 46ca 7cbe
00000240: 260d cf3c 6a0d df3c bbf6 4dbe a911 053f
00000250: b441 ab3e 601b 2ebe 6c0a 6dbf a752 a7be
00000260: cf98 c9be e51e 01bf bce9 ccbe 6350 b8be
00000270: 849b b93e 63c5 4d3e 0a89 223f 75ac 47be
00000280: f5bb be3d cbb4 073f 5d2c dabe 3654 bcbe
00000290: 37c5 643e 54b0 06bf 808b abbc 9c04 0f3d
000002a0: e20f e1be 3a58 c7bd da68 45bf 4f7a b7bd
000002b0: 49ce dd3e a729 8abe 23c5 023f 5f77 13bd
000002c0: eae9 5fbf f63b bebe 44c7 99be 0fd0 ce3c
000002d0: c38f f03e 6cc4 afbe d4d9 533f e856 1ebf
000002e0: 3da0 223f ad12 573f d9fa a4bf 1293 bcbe
000002f0: 7e41 52bf ff4a 123f 0cff 8abd 221c 07be
00000300: 021c a33d 26c7 01be 45a4 003f 5dcc f1bd
00000310: 9271 283f d0fb d03e bbc7 84be db80 5c3f
00000320: 02f5 003e ed3a 1fbf 9f26 963e d8c9 fb3d
00000330: db69 4abe 60e5 0fbd e10e 02bf 835d bcbd
00000340: 182a f2bc 9ac6 d3be 5af9 2abe 5356 0cbf
00000350: 0058 c43d bcc6 943d b4f0 cc3e fc9c 873e
00000360: a91b 0c3d cc74 103d bab2 97bc 0974 8c38
00000370: 4cac 61bf 015e 86bd 2f20 2f3f eb30 3c3f
00000380: 5ca8 2cbf 75c4 053f cdac 0ebf 01a5 5abe
00000390: d3f0 d2be 411d 803e eec1 0cbe aa55 04be
000003a0: 34a8 51bd e457 c5be 1fe1 8e3e ca80 5b3e
000003b0: 651a bebd 9427 c9be 665b bcbc 6314 4a3f
000003c0: d6c0 b23e 9457 adbe 1377 e9be cc44 913e
000003d0: 7515 443f c4af 7c3f aafc 363f 2e61 86be
000003e0: f0c2 b4be a6b1 93bd eb39 0a3f e9c5 d6be
000003f0: 7681 b1be 5303 9dbc 3d78 7abe 7361 483f
-0.38936824 -0.20828727 0.55183756 0.3395954 0.102229506 -0.37532112 0.21761094 0.1743428
-0.0035929151 -0.04050385 0.14953353 0.16520981 -0.42863733 0.35950735 -0.28538463 0.22256234
0.7474345 0.3643424 -0.035306796 -0.54924506 0.3550575 0.55325776 -0.28276432 -0.16643202
0.43304634 0.11308554 0.008236837 -0.19335312 -0.1902369 0.5267676 -0.1991889 -0.101613045
0.029780323 0.24780582 0.19897655 -1.2656952 0.08690902 -0.26020634 -0.262329 -0.07063487
0.4678681 0.32701218 -0.3996223 0.54395175 -0.053806107 -0.46361902 0.09224678 -0.7648685
-0.4274567 0.39768726 0.19860262 0.19419798 -0.64674985 0.33648717 -0.7235607 -0.55936575
0.43669206 -0.26757613 0.2269901 0.4648363 -0.063628644 -0.081632204 -0.6085938 -0.22517681
-0.6647184 0.052522905 0.3325823 -0.33893517 0.5516471 -0.32157606 -0.46525344 -0.26732352
0.0879065 -0.27743015 0.24667266 -0.94317394 -0.39065364 -0.5014783 -0.18920039 0.19841324
0.056145895 -0.48985225 -0.5670047 -0.3442335 -0.114683285 -0.056344464 0.16724329 0.35153183
0.105475925 0.40789923 0.5091414 -0.09352008 0.28930044 0.044114523 0.040332496 0.36209324
-0.60472584 0.6796239 -0.0153459245 -0.4074607 0.9112773 -0.4348395 0.72023845 0.027440595
0.14705347 0.21138273 0.0017797909 0.33031872 -0.8458316 -0.42784998 -0.014712214 -0.3817529
-0.04549835 0.11283488 0.3893692 -0.18024181 -0.30999482 0.75423527 -0.32025248 -0.8382256
1.2038431 -0.0070815687 -0.55539745 0.04239232 -0.5235498 0.01957713 0.22975074 0.630827
-0.3481562 -0.18358597 -0.20954005 0.69024783 -0.33698744 0.06160426 -0.096213385 -0.037332986
-0.6439087 -0.7942302 0.18689573 -0.14967242 0.020693349 -0.085426524 0.38938487 -0.24686536
0.025274824 0.027228076 -0.20113651 0.5198007 0.33448565 -0.1700263 -0.9259403 -0.32680246
-0.39374396 -0.50437766 -0.40022075 -0.3599883 0.36251462 0.20094828 0.63490355 -0.19499381
0.09313194 0.53010243 -0.42611971 -0.36782998 0.22340856 -0.52612805 -0.020940542 0.034916505
-0.4395743 -0.09733625 -0.77113116 -0.089588754 0.43321446 -0.26984903 0.51082057 -0.036002513
-0.874663 -0.37155122 -0.3003484 0.025245694 0.4698468 -0.34329545 0.82754254 -0.6185136
0.63525754 0.8401287 -1.2889053 -0.36830956 -0.82131183 0.57145685 -0.067869276 -0.13194326
0.079643264 -0.12673625 0.50250655 -0.11806557 0.65798295 0.40817118 -0.25933632 0.8613412
0.12593463 -0.6219929 0.2932634 0.12294358 -0.19766943 -0.03513086 -0.50803953 -0.091975234
-0.029561087 -0.41362458 -0.16696683 -0.5481922 0.09587097 0.07264468 0.40027392 0.26486957
0.034206066 0.035267636 -0.01851784 6.6973334e-05 -0.8815353 -0.065608986 0.68408483 0.7351214
-0.67444396 0.52252895 -0.55732423 -0.21352006 -0.4119936 0.2502232 -0.13745853 -0.12923303
-0.0511858 -0.38543618 0.2790613 0.21435848 -0.09282378 -0.39288008 -0.0229928 0.7893736
0.34912747 -0.3385588 -0.4559866 0.283728 0.7659524 0.987057 0.71479285 -0.26246017
-0.35304976 -0.07211618 0.53994626 -0.41947868 -0.34669083 -0.019166624 -0.2445993 0.78273696

network_body._body_endoder.seq_layers.0.bias f4 [256]
00000000: 5fa8 aebc 26f6 8b3c 7ba9 973c 5fc5 8dbc
00000010: 5ffc ab3c a5fd a2bc bec4 643c fb70 abbc
00000020: 3026 ae3c 716a 913c a6bd 663b 0cd6 80bc
00000030: 5083 86bc 4c9e aebc 50d2 a53c cadd a53c
00000040: e9ee 9fbc 8bc0 ab3c 422c 463c 98f6 6ebc
00000050: 71f3 893c fce3 873c 95e0 85bc 92d6 dcbb
00000060: 3b09 47bc d683 8abc 1db1 aa3c 8146 e13b
00000070: 21d1 93bc b9e9 973c 160b 2e3c 80cd 12bc
00000080: 2098 a33c 4248 afbc 079e 94bc 35ec 9f3c
00000090: 01dd a7bc ca95 adbc c37e 90bc 4755 aa3c
000000a0: e87e 953c bdea 9dbc 267e 86bc 2c26 a73c
000000b0: a05f 9d3c b16d a63c 91a5 a7bc c896 a93c
000000c0: 51d0 cf3b b5aa 9d3c 1487 8abc 3aef 90bc
000000d0: 401d 95bc 1705 9ebc d70a 1f3c 7279 49bb
000000e0: c4e6 aabc 88cc 7fbc 3b94 533c 0882 9dbc
000000f0: aa61 9fbc 5c3d 34bb 2921 a03c 90ab 9abc
00000100: e5f9 18bc 1768 1cbb c133 ad3c 326c a53c
00000110: 3213 8e3c 4160 5e3c dfb0 76bc 0599 56bc
00000120: 29a5 3fbc f703 203c c261 5d3c 0f3b a7bc
00000130: e700 41bc 2f07 253c 6a3c 07ba 5353 9ebc
00000140: 44ad 903c b4c3 adbc fccc 8b3c 5c56 9ebc
00000150: 80d1 b13c 9630 6d3c 0f25 14bc 3dc4 ae3c
00000160: bdbb 9f3c 7776 a83c 674c 9d3c ebae 87bc
00000170: ccb0 83bc f395 96bc 302c e73b 64e8 993c
00000180: b46e a1bc aa5a ae3c f2c8 993c 9110 443c
00000190: 0e12 903c c644 acbc 087e 863c d330 a43c
000001a0: 7d65 a63c 36d3 7bbc e04e 5abc f866 a33c
000001b0: cc83 a1bc c4c9 933c ef50 273c 0535 abbc
000001c0: 925e 923c 0198 a5bc 41c0 96bc a5bf aabc
000001d0: e85a a03c c9cf 623c 1490 81bc af75 a33c
000001e0: 6932 243c 1c7d 81bc 8403 8a3c 9f20 ae3c
000001f0: 4c10 92bc 5127 fcbb b476 08bc 19e1 89bc
00000200: 90c7 a9bc 585a 83bc 3baf 87bc 52aa 2ebc
00000210: 9cbb 8ebc 66b5 24bc f350 9fbc 1025 acbc
00000220: f7e5 463c 438f 9f3c 33bf 953c 5b88 b03c
00000230: 5744 83bc 8fa8 2c3c 2c01 4b3c 3f8d 193b
00000240: 64bf 80bc a201 9b3c 19bc 193c 8ba4 65bc
00000250: d570 413c 883a 8dbc 47a2 21bc bbab a33c
00000260: 6bd5 9bbc 4727 ac3c 9fb1 89bc 4f70 85bc
00000270: 4cdc 9bbc 45c2 5b3c 2771 1a3c 27d7 99bc
00000280: 365b 0bbc 32f5 94bc f4be 4fbc 047c 15bc
00000290: 39a0 a23c 33b6 3b3b 65ce ae3c 12d4 96bc
000002a0: 5883 9fbc 5654 b2bc e726 82bc 1e15 9d3c
000002b0: 90af ddbb 86bd 923c 8611 3d3b 8095 813c
000002c0: f928 5bbc 83ae adbc 6426 5c3a d0cd aebc
000002d0: b38a a53c 2d5a 753c e5a0 ad3c d775 9fbc
000002e0: 7f96 6b3c d485 633a 397d a73c e854 963c
000002f0: 798f af3c b909 a93c 6dcc 82bc ea24 2a3c
00000300: ed47 ab3c 9991 f53b 179c 89bb 870c 93bc
00000310: 4d31 84bc 3a1a b83b 3b15 9f3c c0d2 493c
00000320: 5e15 45bc b9c7 6ebc 4953 993c 0aae a7bc
00000330: e7bb a8bc 5ec8 66bc bc0d 6fb9 bebe 933c
00000340: 9529 1a3c 9af7 4abb 2857 cebb 0a14 6fbc
00000350: 387c 643c 0c20 953c 4b4e 89bc 3fc3 96bc
00000360: 8b81 aabc 951f ab3c 32a7 683c 6c42 263c
00000370: 3255 583c 2af7 9d3c 9d4a 983c 674c a93c
00000380: ffc3 e6ba eeef 8dbc 8f82 d2bb e546 8d3c
00000390: ff62 a53c 57d0 9bbc a56f ab3c 60e3 6f3c
000003a0: 5520 75bc e7fe 873c 31dd 77bc 9ff8 9cbc
000003b0: 609f 64bc df8e 943c f56d aabc 0176 903c
000003c0: 412a 083c f827 8c3c 8198 973c c892 81bc
000003d0: 5f82 8ebc 775c 243c dbed 32bc f9d7 80bc
000003e0: a717 9a3c 0114 9b3c 5ccf a5bc 4e14 a2bc
000003f0: a50d a03c ac15 41bc 2f87 6abc 43cd a93c
-0.02132052 0.017085146 0.018513432 -0.017306028 0.020994363 -0.019896338 0.013962923 -0.020927897
0.021258444 0.01775095 0.0035208254 -0.015727066 -0.016420037 -0.021315716 0.020241886 0.020247359
-0.0195231 0.020965835 0.012095513 -0.01458516 0.016839715 0.016588204 -0.01634244 -0.006739446
-0.012148197 -0.016908567 0.020836407 0.00687486 -0.018044056 0.018544065 0.01062276 -0.008960128
0.01997 -0.02139676 -0.01814176 0.019521812 -0.020491125 -0.021189589 -0.01763857 0.020792617
0.01824899 -0.019276971 -0.016417574 0.020403944 0.019210637 0.020315977 -0.02046469 0.02070178
0.006341972 0.019246439 -0.016910113 -0.017692197 -0.018202424 -0.019289536 0.009707174 -0.0030742553
-0.02086199 -0.015612729 0.012913759 -0.019227043 -0.01945575 -0.0027502393 0.019547062 -0.018880635
-0.009336923 -0.0023865753 0.021142842 0.020193193 0.017343137 0.013572753 -0.015056818 -0.013098006
-0.011697092 0.00976657 0.013512077 -0.020413904 -0.01178 0.0100725135 -0.00051588437 -0.019326841
0.017660744 -0.021211483 0.017065518 -0.019328289 0.021706343 0.014476916 -0.009042039 0.021333808
0.0194987 0.020564301 0.01920147 -0.0165629 -0.016075514 -0.018382048 0.007054828 0.01878757
-0.019706108 0.021283466 0.018772576 0.01196684 0.017586734 -0.021028887 0.016417518 0.020042812
0.020312065 -0.015370181 -0.013324469 0.01994656 -0.019716166 0.018040545 0.010212167 -0.020899305
0.01786736 -0.020214083 -0.01840222 -0.020843336 0.019574597 0.013843485 -0.015815772 0.019953577
0.010021784 -0.015806727 0.01684738 0.02125579 -0.017830037 -0.0076951166 -0.008329082 -0.016830968
-0.020725042 -0.01603429 -0.016563049 -0.010660725 -0.017423443 -0.010053014 -0.01944778 -0.021013767
0.012139789 0.019477492 0.018279647 0.021549394 -0.016023798 0.010538234 0.012390416 0.0023430136
-0.015716262 0.018921677 0.009383225 -0.014016281 0.011806686 -0.017239824 -0.00986535 0.019979348
-0.019022664 0.021014823 -0.01680833 -0.016288904 -0.019025944 0.013413017 0.009426392 -0.01877935
-0.008505633 -0.018183324 -0.012679804 -0.009123806 0.01985179 0.0028642535 0.021338651 -0.01841167
-0.01947181 -0.02176873 -0.01588769 0.019175109 -0.0067653134 0.017912637 0.0028849556 0.015818357
-0.013376468 -0.021201378 0.00083980546 -0.021338373 0.020207739 0.014975113 0.021194885 -0.01946537
0.014379143 0.0008679305 0.020445453 0.018351033 0.021430718 0.020634519 -0.015966618 0.010384778
0.02090832 0.0074941632 -0.0041995156 -0.01795031 -0.01613679 0.005618361 0.019419303 0.012318313
-0.01202902 -0.014573985 0.018716471 -0.02046873 -0.020597411 -0.014085857 -0.00022797933 0.018035289
0.009409328 -0.0030970336 -0.006297011 -0.01459218 0.013945632 0.018203758 -0.016760966 -0.018403647
-0.020813724 0.020889083 0.014200019 0.010147672 0.013203906 0.019282896 0.018590266 0.020666314
-0.0017606019 -0.017326321 -0.006424255 0.01724572 0.020188807 -0.019020243 0.02092726 0.014641613
-0.014961322 0.01660104 -0.01512842 -0.01916152 -0.013954014 0.018134532 -0.020804385 0.017634394
0.008310855 0.017108902 0.018505337 -0.015817061 -0.01739615 0.010031811 -0.010920967 -0.015727984
0.018810106 0.018930437 -0.020240478 -0.019785073 0.019537756 -0.011784952 -0.014314457 0.02072776

network_body._body_endoder.seq_layers.2.weight f4 [256, 256]
00000000: 1a9f 8cbd 45ce 0b3e e596 2f3e 1f2b 72bd
00000010: 00fe 193d beb6 033e dd67 c93d 6095 6bbc
00000020: d985 d73c ee51 bb3d 1793 3ebd 0b59 9dbc
00000030: 147d 5abd 2b6d f2bc 861b 0cbd db2d a13d
00000040: 7f60 e9bc 9e40 22bd dd31 0abd 01b7 183d
00000050: 810a e1bc 0da9 ea3c 9711 893d 043b 21bd
00000060: 1d24 67bd e897 80bc eb7c 6ebd 15e4 8dbd
00000070: be3b 25bd 0960 133d e9b4 873d 875f b33d
00000080: a337 30bd a67b 5ebd d375 2f3c 1e2b edbc
00000090: 4864 c4bd 5bb5 11bc a934 673d d41f 983d
000000a0: bd7b 1fbd cee5 49bd b2f4 83bd 7f10 813d
000000b0: cdc6 a73b 4c70 1c3d 2e75 90bd 3423 d03c
000000c0: 11f7 763d b810 643c e1f6 0dbd 21b3 b33d
000000d0: 07f9 553c 552c debd d18e 3d3d b5c6 28bd
000000e0: 1776 06bd bf5b 7a3d 6dc5 333d ff50 563d
000000f0: 4dda d23c c185 523d 0051 f93d 1751 ac3b
00000100: 089f 9dbb 1a3a 7b3d 9468 793d 275b 663d
00000110: d7c8 83bc 000a 35bd ff86 12bc dffe 89bc
00000120: 25d8 9ebd 0cae fcbb fd7c f1bc ed19 0abe
00000130: cedf 37bd 7305 043d 2fd8 d0bd ab44 863d
00000140: c1c2 2e3d 5da4 1cbb 7e23 9cbb cdae 08be
00000150: 8dbb 003e a571 0e3d 7991 8bbc a122 90bd
00000160: 8f26 823d 2c7d 4f3d 07d6 b6bb acaf bbbc
00000170: dfe8 033b 1b49 403d 6f49 d73b ac62 0dbe
00000180: 2812 f1b8 a647 4cbc 3983 a03d 883c 2ebd
00000190: a57b c33c 3020 f0bd c450 fcba 7d1f 26bd
000001a0: 6e89 b9bc 7ab3 b9bd 9178 f93c 9c91 853c
000001b0: 50b3 a43d 1d79 a8bd 5b2d d63c 7f81 8ebd
000001c0: 55ab 933d f897 b83c 44b9 61bd 204b 6cbd
000001d0: 9dc3 76bd 8909 003d ac56 98bc aaf9 c73d
000001e0: 5be5 e6bc 3f41 fe3a f318 bb3d 062a bebc
000001f0: 68cf 53bd 2491 a03d 02f4 c9bc 7d27 b83c
00000200: fe15 033e 9210 09be 2a5e 1ebd 6952 59bd
00000210: 2959 b43c 96a1 0abb 98c2 7bbd 8d30 383d
00000220: c2be f8bc de42 91bd 6cfd 4c3d 848f 2abd
00000230: ac2a 0a3a de44 13bd b773 c9bc 81be 0abe
00000240: ae4a 29be 5712 4b3c 5ead 56bd eedd 20bd
00000250: 1313 9fbb e508 d33c 8e29 62bd 835d 43bc
00000260: c00e 7ebd cbe9 bd3c 5ff7 7bbd acb1 b03c
00000270: 7fd6 86bd 86a5 903d a7b8 1e3d a3d2 23bb
00000280: e574 b2bd 1df3 59ba 73c9 18bd 64b2 383d
00000290: 421f 153d c6e3 ec3c c5eb 6d3d 4047 2a3c
000002a0: 86e9 c33c ebc4 833b d189 8c3b ba76 ab3c
000002b0: 0d63 c1bd 0866 1cbe cbed 8a3d 61e5 4f3d
000002c0: c8a8 23be 08d6 5d3d b459 833d 7fac 91bd
000002d0: 8995 963d 3644 00bd 9309 3a3d 7b06 8ebc
000002e0: 9f24 b03c d195 c83d e3df 8c3d cbab a83d
000002f0: 4f62 09bd 264d e0bb f9a8 34bc e496 d23c
00000300: 8ec6 62bc 1d0e d53d 8423 9d3d d00a 333c
00000310: 5327 97bd 0def 093d e0f8 8f3d cb89 8ab9
00000320: 0e0f 4a3d ef3a b4bd 58f8 bdbd 5a47 f9bc
00000330: 2f2d 423e a5ac a63d f2e0 4ebb e43e b53d
00000340: db1d ff3c 7c2e 3fbd 8a56 09be 4ffe 4f3d
00000350: 6529 643d 3b72 97bc e193 193b c5cb 3d3d
00000360: 7d73 c7bd a178 80bd 66dc 85bd 4265 0d3e
00000370: b7e9 843d a8be a33d ae3a 0bbd 4260 983d
00000380: bcc8 edbd 147d ca3d 1a60 0abe 3ea5 08bc
00000390: c28c ac3d 5079 aebd 2cab b73c 68fe 293d
000003a0: f1e9 4dbd 6b8b 2ebd 0b37 19bc 21ed 04bd
000003b0: 29b7 1fbd e784 8dbd 378f 113c 1ec2 bcbc
000003c0: 3de5 89bd b2a1 203c 8145 5c3d c515 98bd
000003d0: b799 0cbe fc23 9f3c 4fa0 d73d a9f6 1e39
000003e0: 71a3 ed3c 7a47 6abc f45f 983c d8ba 4a3d
000003f0: 3d41 5e3d b6e6 8dbd e867 d8bc 9d3b 993d
-0.06866284 0.13652904 0.17147405 -0.059123155 0.03759575 0.1286268 0.098342635 -0.0143788755
0.02630894 0.09146486 -0.046526995 -0.019207498 -0.05334194 -0.029593071 -0.034205936 0.07870074
-0.028488396 -0.039612405 -0.03373896 0.0372839 -0.027470829 0.028645063 0.06692808 -0.039362922
-0.056430925 -0.015697435 -0.0582246 -0.06928269 -0.040340178 0.035980258 0.06626303 0.08758455
-0.04302181 -0.05431714 0.010709244 -0.028951224 -0.0958944 -0.008893336 0.056446705 0.07427946
-0.038936365 -0.049291424 -0.06443156 0.063019745 0.0051201344 0.038193032 -0.070536 0.025407411
0.060294215 0.013920002 -0.03465927 0.087744005 0.013059861 -0.108482994 0.04627878 -0.041205127
-0.032827463 0.061122652 0.04388945 0.052323338 0.02573886 0.05139709 0.12173653 0.00525869
-0.004810218 0.061334707 0.06089075 0.056239273 -0.016086979 -0.04419899 -0.008943318 -0.016845165
-0.0775607 -0.0077111777 -0.029478544 -0.13486452 -0.04489117 0.03223176 -0.10197484 0.06556066
0.0426662 -0.002390168 -0.004764973 -0.13347931 0.12571545 0.03477635 -0.01703714 -0.07037855
0.06355011 0.050656483 -0.0055797133 -0.022910915 0.0020127816 0.04694472 0.0065700333 -0.13807172
-0.000114951574 -0.012468254 0.07837529 -0.042538196 0.02386267 -0.11724889 -0.0019250144 -0.040557373
-0.02264854 -0.090674356 0.030452998 0.016304784 0.08042014 -0.082262255 0.026144674 -0.06958293
0.07210413 0.022533402 -0.055108324 -0.057688832 -0.060245145 0.031259093 -0.018596016 0.097644165
-0.028185537 0.0019398107 0.09135618 -0.023213398 -0.05171147 0.078401834 -0.024652485 0.022479767
0.12801358 -0.13385227 -0.03866402 -0.053057108 0.022015171 -0.0021153442 -0.061464876 0.044968177
-0.030364398 -0.07092832 0.05004637 -0.041640773 0.0005270641 -0.03595435 -0.02459131 -0.13549234
-0.16532394 0.012394509 -0.05241143 -0.03927415 -0.0048545687 0.025761077 -0.05521541 -0.01192415
-0.062025785 0.02318277 -0.06151521 0.021569096 -0.06583881 0.07062821 0.038750317 -0.0024997375
-0.08713702 -0.000831412 -0.037301492 0.045092 0.036406763 0.028917205 0.058086175 0.010392964
0.023915064 0.004021277 0.00428889 0.020930637 -0.094427206 -0.15273297 0.06783637 0.050755862
-0.15982354 0.054159194 0.06413594 -0.07112979 0.0735274 -0.03131505 0.045419287 -0.017337075
0.021501837 0.097942 0.068786405 0.08235892 -0.03354102 -0.0068451343 -0.011026614 0.025706716
-0.013841284 0.104030825 0.0767279 0.010927871 -0.073805474 0.033675242 0.07029891 -0.00026424075
0.049330764 -0.08800303 -0.092758834 -0.03042953 0.18962549 0.08138398 -0.0031567183 0.08849886
0.031142166 -0.04667519 -0.13411918 0.050779637 0.05570354 -0.018487087 0.002343409 0.046336908
-0.097388245 -0.06273008 -0.06536178 0.13808158 0.0648989 0.07995349 -0.03399151 0.07440235
-0.11610553 0.09887138 -0.13513222 -0.008340178 0.08425285 -0.08519232 0.022420488 0.041502386
-0.050271932 -0.042613428 -0.009351502 -0.032452706 -0.038993035 -0.06910115 0.008884243 -0.023041781
-0.06733177 0.009804176 0.05377722 -0.07426027 -0.13730513 0.019426338 0.10528623 0.00015159942
0.029008599 -0.014299268 0.018600442 0.049494594 0.054261435 -0.0692877 -0.026416734 0.074820735

network_body._body_endoder.seq_layers.2.bias f4 [256]
00000000: 8e5f 893c 9178 8f3c aa6e 8abc e9e1 8dbc
00000010: facd 3c3c 65a7 c93b 004e 8e3c 244b 9b3c
00000020: d08f a4bc 53c1 89bc b5ca 9dbc c570 88bc
00000030: 4898 a73c e684 8a3c 7a23 36bc 74bc 283c
00000040: 01a3 963c 7058 9ebc df4a a23c 2f0e 883c
00000050: a905 3f3c ff6f 9e3c 2905 ab3c 3fcb 973c
00000060: 5aee 92bc fa65 98bc e715 a4bc be93 95bc
00000070: 7c9b 93bc a748 9ebc 230b 193c 6675 ab3c
00000080: 6246 80bc 03a3 a63c 47e1 6bbc 399c 9ebc
00000090: e652 a73c 5576 96bc c453 a93c f6b5 983c
000000a0: d2ff a5bc 315c 9c3c afe6 8bbc dcdf 9fbc
000000b0: 922e a83c 51fd 673c 492b 99bc fd08 a93c
000000c0: 7db3 973c b134 893c 3b1f 91bc 5572 89bc
000000d0: 3cf0 a83c 6388 963c f73e a73c 74f1 93bc
000000e0: 0cd1 7dbc 330a 7a3c 184f a43c 511f 8e3c
000000f0: 5c15 82bc aed2 13bc 210e b43c 4ada 99bc
00000100: 582a 49bc b70f 5b3c f80e 9b3c 370b 91bc
00000110: 57c7 84bc 067c 95bc 2db1 69bc 68b6 86bc
00000120: b70e 923c 0734 9a3c 63dd 813c 5f9e a13c
00000130: c703 873c 2230 93bc 66dd a03c d20d ac3c
00000140: e89e 7b3c 07bb 9fbc e0a4 8cbc 5645 d7bb
00000150: 9736 87bc 06c8 2cbc cc8c 96bc b7a0 94bc
00000160: c368 a0bc 0139 6f3c 3454 9f3c 4b27 a8bc
00000170: a7f2 a9bc 2963 85bc 2007 4fbc abc3 a53c
00000180: ce12 a73c cf54 8ebc 5991 7abc 00c9 303c
00000190: e646 8ebc 3981 ab3c 9e16 a43c 33e2 a4bc
000001a0: 926b ac3c 64c4 8bbc 0331 8d3c d79f 1f3b
000001b0: f227 ac3c 88d2 ad3c 1dfc 9dbc d829 a4bc
000001c0: 4949 3c3c 3a33 a23c 2cea 9cbc 09da 94bc
000001d0: 50be 973c 8670 94bc 0d5d a3bc 096f 48bc
000001e0: 2bfe 623c 1623 8d3c 84ba 9b3c 5455 9c3c
000001f0: 5939 90bc 86b2 a2bc 5742 a8bc ac09 953c
00000200: 0612 9e3c c81c ffbb 1545 95bc 019e 9abc
00000210: 871b a23c 4a9c 8cbc 6a16 87bc 7e01 92bc
00000220: 3446 a03c 0d3e 9b3c b7d2 e23b 3a9b 3abc
00000230: af22 80bc dab6 86bc 4b68 a2bc aa82 a2bc
00000240: e05a a33c a988 8bbc 5525 71bc 6e19 8bbc
00000250: 247a a93c fdcc a83c 5fca a93c 551a a2bc
00000260: aa77 9abc be07 983c 5297 94bc 6f74 84bc
00000270: 34e7 9a3c 4218 543c 90bc 8dbc 09c6 80bc
00000280: 2930 943c 3b1c 9f3c 77c3 88bc 26d5 96bc
00000290: efe8 98bc 4433 933c 2188 75bc a1e4 9d3c
000002a0: f23d c23b 583e 8f3c e808 9d3c 3f54 913c
000002b0: d31a 82bc 44d9 a13c f7d2 893c b7ec 86bc
000002c0: 5cc3 a93c f748 05bc 82ac 6a3c 2cdd a33c
000002d0: 10ac 9e3c 0c36 dcbb 30b4 82bc 4cd7 8abc
000002e0: ebbd 90bc 6a6b 9e3c 8ec2 a3bc ffc6 933c
000002f0: 54f3 8ebc 3525 b03c 7b9e 7fbc 86ca 893c
00000300: 8620 a53c 9969 9c3c 2703 a4bc bd23 953c
00000310: d77a 2abc 9737 8cbc de84 d3bb 9b6e 9a3c
00000320: dce6 90bc 8f86 8e3c e8ed 90bc 19e4 963c
00000330: b788 90bc ac19 96bc 63ab a7bc 41db 9fbc
00000340: 59a1 a53c 6aee 8abc 8e69 a43c d743 77bc
00000350: acc7 8dbc 4842 86bc cbd1 2f3c 8ada aa3c
00000360: 3364 93bc e9f4 7abc da6f 8fbc 8802 ae3c
00000370: 13ce a0bc 5994 3c3c 6190 ab3c b75a 8abc
00000380: 9b9c 8f3c fe3b 9dbc 8f0f fa3b f430 99bc
00000390: e717 a13c 3985 99bc ad99 a0bc 341a a73c
000003a0: 65f7 76bc 922d 8e3c 9824 96bc 0b6f a13c
000003b0: 8263 a2bc 9cae 76bc aa8f 86bc f4b0 82bc
000003c0: 50f8 8abc 8596 ad3c 489f 613c fe5d 8d3c
000003d0: 51f4 8dbc e6f4 a2bc bae7 ad3c 0e90 a5bc
000003e0: 7597 f7bb 0719 93bc 0aec 8dbc 79f2 ac3c
000003f0: ad32 92bc 9b1a b1bb 515f 86bc 423f 97bc
0.016769197 0.017513545 -0.016898472 -0.017319636 0.011523718 0.006153988 0.017371178 0.018956728
-0.020088106 -0.016815817 -0.019261697 -0.016655335 0.020458356 0.016909074 -0.011116857 0.010298837
0.018388273 -0.01932928 0.019811092 0.016608326 0.011659064 0.019340513 0.020876484 0.018529532
-0.01793592 -0.018603314 -0.020029975 -0.018258926 -0.018018477 -0.019321753 0.009341034 0.020930003
-0.015658561 0.020341402 -0.014396972 -0.019361602 0.020425271 -0.018366972 0.020669825 0.018641453
-0.020263586 0.019086929 -0.017077772 -0.019515924 0.020530019 0.014159516 -0.018697398 0.020634169
0.018518204 0.016748758 -0.017715087 -0.01677815 0.020622365 0.018375581 0.020415766 -0.01805947
-0.015491735 0.015261221 0.020057246 0.017348917 -0.015879326 -0.009022398 0.021979393 -0.018780846
-0.012278162 0.013370446 0.018928036 -0.017705543 -0.016208334 -0.018247616 -0.014263433 -0.0164444
0.017829282 0.018823637 0.015852636 0.019728838 0.016481293 -0.017967287 0.019636821 0.021002684
0.01535771 -0.019498361 -0.017168462 -0.006569545 -0.016505523 -0.010545736 -0.018377684 -0.018143041
-0.019581204 0.014600993 0.01944933 -0.020526549 -0.020745588 -0.016282635 -0.012635976 0.020234903
0.020394709 -0.017374424 -0.015293443 0.01079011 -0.017367791 0.020935642 0.020030316 -0.020127391
0.021047387 -0.01706142 0.017235285 0.0024356747 0.021015141 0.021218553 -0.019285256 -0.020039484
0.011492082 0.019799817 -0.01915463 -0.018170374 0.018523365 -0.018120062 -0.019941831 -0.012233504
0.013854544 0.017228644 0.019009836 0.019083656 -0.01760547 -0.019860517 -0.020539446 0.018193088
0.019295704 -0.0077854134 -0.018221417 -0.01887417 0.019788517 -0.017164368 -0.01649018 -0.017822977
0.019564725 0.018950487 0.006922092 -0.011389548 -0.015641538 -0.016444612 -0.019825121 -0.019837696
0.019940794 -0.017032938 -0.014718373 -0.0169799 0.020688124 0.020605559 0.02072638 -0.019787947
-0.018855888 0.01855838 -0.018138561 -0.016168801 0.018909074 0.012945237 -0.017301828 -0.01571943
0.01808937 0.019422641 -0.016694767 -0.018412184 -0.018665759 0.017968781 -0.014986069 0.019274058
0.0059277946 0.017485783 0.019169286 0.017740367 -0.015881931 0.01975692 0.016824229 -0.016470296
0.020723037 -0.008135072 0.014323356 0.020002924 0.019369155 -0.00672031 -0.01595506 -0.016948365
-0.017668685 0.019338328 -0.019990232 0.018039225 -0.017450012 0.021502117 -0.0156017495 0.016820204
0.02015711 0.019093322 -0.020021034 0.018205518 -0.010405264 -0.017116351 -0.006455048 0.018851569
-0.017688207 0.017398147 -0.017691568 0.018419312 -0.017643316 -0.018322788 -0.020467466 -0.019513728
0.020218538 -0.016959388 0.020069864 -0.015091858 -0.017307125 -0.016389027 0.010731171 0.02085616
-0.017992115 -0.01531718 -0.01750939 0.021241441 -0.019629514 0.011509978 0.020942869 -0.01688896
0.01753073 -0.019193646 0.0076312493 -0.0187001 0.019664718 -0.018740283 -0.019604528 0.020398237
-0.015073632 0.017355714 -0.018327996 0.01970627 -0.01982284 -0.015056279 -0.016425926 -0.015953518
-0.016964108 0.021189937 0.013770886 0.017256733 -0.017328413 -0.019892167 0.02122866 -0.020210292
-0.007555897 -0.01795627 -0.017324466 0.021111714 -0.01784643 -0.005404783 -0.016402872 -0.01846278

network_body._body_endoder.seq_layers.4.weight f4 [256, 256]
00000000: 8456 3abd 2c65 05bd 2d69 0d3d 6d8d d1bb
00000010: 072a 8d3d 5031 dbbd da1e 213e 8724 07bd
00000020: cd37 8f3b b300 8ebc 0f28 00be 9664 74bd
00000030: 5c07 c8bc 2918 13bd 10d8 66bc 6dac 953c
00000040: 6cb7 723d 6560 eebd 7132 b13c eff7 c3bc
00000050: be8b 223c 3399 22bd 2565 aebc bfd7 933d
00000060: 9d3f 983c 32e1 a73d b95b 9cbb 8f38 843d
00000070: 2f14 87bb e96e febc 6a3f dd3c 4757 d23d
00000080: 06a5 0abd 4190 073d dffb b5bd 10e4 b2bb
00000090: 1f61 59bd 2322 663c 741f a03d bc82 983d
000000a0: c19f 05bd 3515 2a3d c413 bd3d 00b8 c2bc
000000b0: 0620 edbd 5754 14bd 9ab0 463d ece3 3c3d
000000c0: 402b f1bc 36ac 6ebd a7fb 8f3c 4863 30bd
000000d0: fda0 bc3d 2713 853d a134 943d 4914 673d
000000e0: 6ae4 f9bd 6dcf 2abc 55c6 99bc 2f7e 1f3d
000000f0: 82af 32bd 98fe 883d 01af 5abb 78b5 313c
00000100: d890 2e3d ec3e 3d3e 2531 f43d b681 55bb
00000110: 8f23 c03d 67f9 cbbc 0663 0ebc acb1 203d
00000120: dc9d 713d a756 293d 5996 90bd 013e 8d3d
00000130: 2139 473d 8e31 99bd 3275 57ba 9640 b1bc
00000140: 1ea4 a2bd 50a1 c93c e721 0abe 1a21 09be
00000150: ade8 0bbd a26a f03c 453a 463d 4d20 56bd
00000160: 3611 b73c cdfb 07bd f6fa c2bd 95df 8bbd
00000170: f91a 96bd 0de9 3a3c 06ec 3dbc 9314 213e
00000180: 058c 49bd cf4b 73bd ba54 07bb d22b 2c39
00000190: 90b5 81bd c95e 99bd 6c3e d93d a7ac 41bd
000001a0: a323 5f3d dc0d ddbc 25ce 33bc e68f a9bd
000001b0: dffa d8bc b41c 1e3b a9c5 5abc 4e0c 54bd
000001c0: f35f 0e3e 8528 023e 518b 16bd a35c 223d
000001d0: 0c7b 243d 760c 043d a535 bbbd f1af 7ebd
000001e0: 24aa 4e3c 91fc 413d d7da 2a3d 58d3 aebc
000001f0: f913 19bd c0d4 8e3d 1114 7b3c f1cf d9bc
00000200: d76f acbb a61e 83bd 02b1 fb3d b497 463c
00000210: a8d8 d4bd 8efc 68bd a2de a5bd d9af 9cbd
00000220: 4336 ee3d a909 8e3d b8b6 b33d b89e 42bd
00000230: 801d 173e ca38 fc3c a89e 0abe 8c80 893c
00000240: c8b9 623d 2bae c0bd cc95 d6bd 52e9 1bbe
00000250: 462b ad3d 6fc5 c03d 33a8 893d 800f f3bd
00000260: 4512 b93d ac7f de3d 1415 3f3d f040 cabb
00000270: 1306 b43d 8ecd 4cbd 22bb fb3b 3fd5 a9bd
00000280: 8ab1 0e3d 13eb 1c3e 0512 b8bc 0bb1 0b3c
00000290: d76d b2bc 0e7b 0f3d d4a1 9eba d580 c43d
000002a0: fd5c c7bc a707 003d bde0 d7bb 24b8 d03d
000002b0: ceb4 e4bd 9f3a 463c 0c16 0c3d 2ea6 733c
000002c0: 3adc 4fbc f983 b1bd d023 b43c 67a3 2d3d
000002d0: 6797 80ba bdb8 eebc 549b 0f3d 848e 02bd
000002e0: 4f39 10bd 7418 873a 4dea 32bd 8148 923d
000002f0: bf34 833d 9dba 0b3c 0c83 0dbc 42af b23c
00000300: f7a3 883d 9d41 cc3d 52fe d4bb 0880 183e
00000310: 563f 8d3d 0cbd c83b 3c86 5fbd 2643 6bbc
00000320: 105e 273d 9d35 343d 5d71 5fbc 0830 6ebd
00000330: 9ca7 a73d 44aa 8bbb a2a2 c13c a2e1 d0bd
00000340: ec62 46bd 890e d3bd 0024 503a 6106 b3bd
00000350: ef1c 5d3c 0e59 8d3d dc85 a93d bc5b 1c3d
00000360: 9473 873d 388c cdbc 7065 a93c e2ad 673d
00000370: 832b afbc 0731 103c dd1e 093e e605 153d
00000380: 8023 6c3b d98c 1c3d 3da6 1d3d 8459 ad3b
00000390: ecf9 8a3c da34 0abd b567 4fbc 7dce 003e
000003a0: af0a ad3c 09fe 66bc d906 a4bd 2ca4 dd3b
000003b0: ce58 473d a5fd 54bd 7a36 70bd 16df 8f3d
000003c0: e2b5 0cbd 208c ab3d e755 113d 6cdf fbbc
000003d0: e57c 72bc eb9a 57bd b944 f43d 05a7 29bd
000003e0: 8cae 16bd cd02 053e a1b1 133c e88b 1dbd
000003f0: cbe8 2bbb 23f0 87bd 2c82 a6bd 27f4 e0bd
-0.045492664 -0.03256719 0.03452413 -0.006395033 0.06892782 -0.10702765 0.15734425 -0.03299382
0.0043706656 -0.017334318 -0.12515281 -0.05966624 -0.024417572 -0.035911713 -0.014089599 0.018270696
0.059256956 -0.116394795 0.021630498 -0.023921935 0.009921012 -0.039696883 -0.021288464 0.07218885
0.01858502 0.081972495 -0.0047716764 0.064561 -0.004122279 -0.031058745 0.027007777 0.10270553
-0.033848785 0.033096556 -0.08885931 -0.005459316 -0.053071138 0.014046225 0.07818499 0.074468106
-0.032623056 0.04152413 0.092322856 -0.023769379 -0.115783736 -0.036213245 0.048508264 0.0461158
-0.029439569 -0.058269702 0.017576052 -0.043063432 0.092103936 0.06497794 0.07236601 0.05641583
-0.1220177 -0.010425431 -0.01877133 0.038938697 -0.04362441 0.06689185 -0.003336847 0.010846488
0.042618603 0.18481034 0.11923436 -0.0032578534 0.09381782 -0.024899198 -0.008690601 0.03923194
0.058988437 0.041342404 -0.070599265 0.06896592 0.048638467 -0.07480155 -0.00082190626 -0.021637242
-0.07941459 0.024613053 -0.13489495 -0.13391533 -0.034157444 0.029347721 0.048395414 -0.0522769
0.022347074 -0.03319912 -0.09520523 -0.06829754 -0.073293634 0.011408103 -0.011591917 0.15730505
-0.0492058 -0.05939847 -0.0020649866 0.00016419523 -0.063334584 -0.07488782 0.10607609 -0.047283795
0.054477345 -0.026984148 -0.010974442 -0.082793996 -0.026486812 0.0024125995 -0.01335279 -0.051769547
0.13903789 0.1271077 -0.036753956 0.039639127 0.04015641 0.032238446 -0.09141091 -0.06217951
0.012613807 0.047360007 0.04171261 -0.02134101 -0.037372563 0.069741726 0.015324608 -0.026588412
-0.005262356 -0.0640233 0.12289621 0.01212113 -0.103928864 -0.05688148 -0.080991045 -0.07650728
0.11631443 0.06935436 0.08775085 -0.047514647 0.14757347 0.030788798 -0.13537085 0.016784929
0.055352956 -0.0940822 -0.1047779 -0.15225723 0.084555194 0.094126575 0.067215346 -0.11868191
0.09036688 0.10864195 0.04665096 -0.006172292 0.08790221 -0.05000072 0.00768222 -0.082926266
0.034837283 0.15324049 -0.02246953 0.008526097 -0.021780891 0.035029463 -0.0012102672 0.09594885
-0.024336332 0.031257298 -0.00658807 0.10191372 -0.11167298 0.012098937 0.034200713 0.014871163
-0.012686783 -0.0866775 0.021989733 0.04239216 -0.0009810746 -0.029140824 0.03506024 -0.031874195
-0.035210904 0.001030697 -0.043680478 0.07142735 0.06406545 0.008528379 -0.008637201 0.021812085
0.06671899 0.09973452 -0.006500044 0.1489259 0.06896846 0.006126052 -0.054571375 -0.014359271
0.04086119 0.043996442 -0.013637868 -0.058151275 0.08186266 -0.0042622406 0.02363712 -0.10199286
-0.048434183 -0.10305507 0.0007939935 -0.08741451 0.013495668 0.069017515 0.08277485 0.038173422
0.06613842 -0.025091276 0.020678252 0.056562312 -0.021383053 0.0088007515 0.1339068 0.03638258
0.0036031902 0.03822026 0.038488615 0.005290212 0.016964875 -0.03374181 -0.012659003 0.12578769
0.021123258 -0.014098653 -0.080091186 0.0067639556 0.048668675 -0.051999707 -0.058645703 0.07024972
-0.034353144 0.08376336 0.035482313 -0.030746184 -0.014800285 -0.052637976 0.1192717 -0.041419048
-0.036787555 0.1298935 0.009014518 -0.038463503 -0.0026231285 -0.06637599 -0.08130297 -0.10984068

network_body._body_endoder.seq_layers.4.bias f4 [256]
00000000: 02b9 993c 6c03 aebb c6cf 8dbc d6c3 71bc
00000010: a6d5 99bc 757e 75bc f92f 41bc 4498 a2bc
00000020: ac2c 9c3c 31a1 8bbc c8f7 953c 43b4 a53c
00000030: cfcb 70bc 84fc 99bc 9017 a3bc 9ffd 9a3c
00000040: 793b 87bc f64b 8f3c f38c a53c bd31 70bc
00000050: 3508 81bc c5de 98bc 29c7 57bc dd54 4bbc
00000060: 9a20 993c d7b3 93bc cca4 4d3c 4793 8d3c
00000070: e488 6bbc 7867 8e3c d943 3c3c 9944 a83c
00000080: 3507 a63c 32bc 62bc c72f 80bc 02be 59bc
00000090: f577 a13c c76a 59bc 7ac2 a63c bb11 47bc
000000a0: aaf7 963c f6fc 89bc aed1 62bc 8e84 9f3c
000000b0: 7658 983c d3cb 69bc 6f8f a73c 4c74 393c
000000c0: 5411 84bc e2ab 77bc f4d6 9c3c 7c01 813c
000000d0: ac73 a63c 968f a73c 5b50 6e3c ccc5 77bc
000000e0: f751 79bc 13d4 6dbc 5d99 8fbc 16f9 a73c
000000f0: 1aad 10bc 75b6 9d3c 281e ab3c 8f21 933c
00000100: 29d6 943c 590d 96bc 1f51 873c 0b5d 82bc
00000110: ad6c 96bc f0fa a53c ba27 08bc 6b45 dfbb
00000120: e22f 4ebc 5770 86bc 2772 2bbc 3f05 9f3c
00000130: 086b a33c ba16 88bc 1c54 72bc 49e0 9b3c
00000140: 0f40 42bc ee1c 71bc 1ea9 89bc 716b a93c
00000150: fc78 8fbc 71a3 88bc e527 9a3c 8485 5abc
00000160: 8827 85bc 695a 1fbc b6d0 90bc 0c72 a53c
00000170: 5e46 28bc 4bc9 9a3c 9750 8fbc 7c6f 873c
00000180: c923 75bc 576d 87bc fa5f 71bc 093b 79bc
00000190: 9892 a43c 259d 88bc ee17 8cbc a3d3 59bc
000001a0: 9814 6dbc 5636 c83b cf73 6bbc b0e1 77bc
000001b0: fa5f 68bc 2f71 5fbc 375c 9bbc 9209 8fbc
000001c0: 2ff2 95bc 7363 78bc 35e0 5c3c f2f6 a33c
000001d0: ee69 8d3c 8e70 833c 4a45 8dbc 697b 973c
000001e0: a995 7ebc 52dc 9f3c 6d49 83bc 90fe 83bc
000001f0: 7939 973c b5bc 90bc 8a79 3cbc 64cb a73c
00000200: 49b1 5ebc 97b8 a83c 670a 71bc cde6 903c
00000210: 7c97 7ebc ab06 aa3c 1cbf 55bc 710a 6a3b
00000220: 6ebb 8abc a2f8 973c 2355 a53c 1f16 6fbc
00000230: 230f 9a3c 2b2f 7a3c a9ef 97bc ac56 d3bb
00000240: 91c4 8b3c fe62 943c 0ab5 a43c c46a 53bc
00000250: be25 993c 335d a73c f28b 9e3c 144d 9f3c
00000260: 5e67 72bc 9392 823a 016a 79bc db5d 5fbc
00000270: 4f5e 12bc a07d 2cbc 6e72 983c 61bd 993c
00000280: 700d 83bc 0991 9a3c 1e38 83bc db7d 6abc
00000290: 0d07 8a3c c77d 8abc a4cc 77bc 8a7d 9f3c
000002a0: 9607 a83c be96 843c 76a2 a63c 9fd0 6dbc
000002b0: cd96 853c f009 7fbc 6a90 50bc 6fdf a3bc
000002c0: 5120 8abc 29ea 91bc 4d5b 993c afc4 9b3c
000002d0: ab2e 61bc 6edc 83bc 164f 86bc e2a4 933c
000002e0: 941a 923c 5875 81bc d93a a83c 328b 67bc
000002f0: f705 93bc 87f2 a83c 961d 85bc 3576 80bc
00000300: ad9f 8a3c 445f ac3c b21f 7dbc 6117 98bc
00000310: 79d8 a43c 1bde a63c 2683 a43c 0a1c 78bc
00000320: 857a 71bc 3ca4 9b3c 0812 71bc 7dc4 783c
00000330: 86ff 963c f8da 5ebc a5e0 87bc b009 933c
00000340: ebc9 3fbc aa19 9f3c 0aa6 4abc 9d91 63bc
00000350: 3084 a63c a256 54bc 36ea 7ebc e0c9 8dbc
00000360: 0879 61bc 0b78 98bc dd65 84bc 4e05 953c
00000370: c341 24bc 9fb2 88bc b305 96bc ed07 a73c
00000380: 8877 973c 2247 75bc 5262 5e3c 2b6a 933c
00000390: a88d 60bc e37b 8c3c edb1 91bc 6df8 8bbc
000003a0: 395c 933c 4a92 7fbc ded0 2cbc 72fc 9d3c
000003b0: 148e 60bc 8b5c 193c 6daa 5abc 425b 8d3c
000003c0: 3987 a73c 4872 83bc d352 983c 2161 9b3c
000003d0: 76bf 983c 5197 173c d6a9 75bc 4dc9 8dbc
000003e0: 5c86 3e3c d198 913c 05db 923c 28b1 a73c
000003f0: 32c5 93bc 97ca 8fbc 9cf0 8ebc 9c82 77bc
0.018764976 -0.0053104665 -0.017310988 -0.014756164 -0.018778633 -0.014983763 -0.011791223 -0.019847997
0.01906427 -0.017044635 0.018306628 0.020227557 -0.014697029 -0.018797167 -0.019908696 0.018919764
-0.016507851 0.017492276 0.020208811 -0.014660296 -0.015750984 -0.018660912 -0.013170042 -0.01241037
0.018692303 -0.01803009 0.012551498 0.017282141 -0.014375899 0.017383322 0.0114907855 0.020540522
0.020267108 -0.013838815 -0.015647782 -0.01328993 0.01971052 -0.013270087 0.020356406 -0.012150223
0.018428642 -0.016844254 -0.013843937 0.019472387 0.018596869 -0.014269787 0.020454137 0.011319231
-0.016121544 -0.015116664 0.019145466 0.015747778 0.020318829 0.02045421 0.014545525 -0.015122842
-0.015217296 -0.014515894 -0.017529184 0.020504516 -0.008830333 0.019252041 0.020888403 0.017960338
0.018168526 -0.018316912 0.016518174 -0.015913507 -0.018362368 0.020261258 -0.008310253 -0.006813695
-0.012584658 -0.01641099 -0.010464228 0.019411681 0.019948497 -0.0166124 -0.014790561 0.019027846
-0.011856093 -0.01471637 -0.016804274 0.020681115 -0.017513745 -0.016679497 0.018817851 -0.013337497
-0.016254202 -0.009726145 -0.017677646 0.020195983 -0.010270683 0.018894812 -0.017494483 0.016532652
-0.014962145 -0.01653163 -0.014732355 -0.015211829 0.020089433 -0.016676495 -0.017101254 -0.013295087
-0.014470242 0.006109993 -0.014370873 -0.015129492 -0.014183039 -0.013637825 -0.01896487 -0.017460618
-0.018303959 -0.015160429 0.0134811895 0.020015214 0.017262425 0.016044881 -0.017244954 0.018491464
-0.015538611 0.019514237 -0.016026223 -0.016112596 0.018460022 -0.017668108 -0.011503587 0.020482726
-0.013592073 0.020595832 -0.014711953 0.01768818 -0.015539046 0.020755133 -0.013046052 0.003571179
-0.016935077 0.018551175 0.020182198 -0.014592676 0.018806046 0.015270035 -0.018546896 -0.006449541
0.017061504 0.01811361 0.020105857 -0.012903873 0.018694755 0.020430183 0.01935384 0.019445933
-0.0147951525 0.0009961895 -0.015223027 -0.013633217 -0.008933618 -0.010527998 0.018609252 0.01876706
-0.015997618 0.018867986 -0.01601797 -0.014312233 0.016849065 -0.016905678 -0.015124474 0.019469041
0.02051143 0.01618516 0.02034114 -0.014515071 0.016307259 -0.015566334 -0.0127297435 -0.020004002
-0.016861113 -0.017811852 0.018720293 0.019014684 -0.013744037 -0.01609632 -0.016395133 0.018022958
0.017834939 -0.015803024 0.020535873 -0.014132308 -0.01794718 0.020623459 -0.01624946 -0.015681366
0.016921842 0.02104152 -0.015449451 -0.018565835 0.020122753 0.02036958 0.020082068 -0.015143404
-0.014738684 0.018999211 -0.014713772 0.015183565 0.01843239 -0.013602011 -0.016586611 0.017948955
-0.011705856 0.019421417 -0.012368688 -0.013889697 0.020326704 -0.012960108 -0.01555877 -0.017308176
-0.013761766 -0.018611928 -0.016161853 0.018191006 -0.010025444 -0.016686736 -0.018313264 0.020389521
0.018489614 -0.014970573 0.013573246 0.01799496 -0.0137056485 0.017148918 -0.017785037 -0.017086232
0.017988311 -0.015598843 -0.010547845 0.019285414 -0.013705749 0.009360443 -0.013346297 0.01725543
0.020450221 -0.016045704 0.018594181 0.018967213 0.018645983 0.009252385 -0.014994105 -0.017307902
0.011628713 0.017773064 0.017926702 0.020470217 -0.018038366 -0.017552657 -0.017448716 -0.015106823

action_model._discrete_distribution.branches.0.weight f4 [3, 256]
00000000: 0a00 ccbc 461a 533c 103d 4f3c e580 3c3c
00000010: 6f61 473c 993f 7b3c d8ef 62bb aba4 853c
00000020: 11ad 3bbc 8c80 8a3c 25b9 80bb 2f04 f7bc
00000030: 0be6 1c3a 32b6 d33b e029 253c 0c9d 95bc
00000040: 3c0b ca3c 2905 d2bc 6c97 8ebc c002 8d3c
00000050: 690d 253c 6ae3 383c 68d4 fc3b 8608 e43b
00000060: 001b cabc 2b21 5f3c 9fd4 75bb 7515 66bc
00000070: 5a58 c33c 4a41 64bc 3bd9 c3bc c3c3 d9bc
00000080: 794c 38bc 9e7e a43c 858d 993c 63dd 9f3c
00000090: 0b80 afbc bfb5 12bb 476a ffbc 7745 6f3b
000000a0: 2c65 92bc 2e8b 023c b7ec 3a3c 0e2c a1bc
000000b0: f3e3 42bc e3b4 613b a1ed 9dbc 6702 97bc
000000c0: c171 da3c a8c5 9e3c ee25 94bc 8629 52bb
000000d0: 00ae dabc 096d e9bc 865c 93bc b8f2 893c
000000e0: 572d 8b3a dc40 8f3c c6eb 3a3c f4e6 e9bc
000000f0: 4329 803c b3a7 c7bc f694 90bc ce08 f6bb
00000100: 6fc4 6bbc 7f9b d73c 41d4 44bb 4a0c 843c
00000110: 4450 883c 391e c2bc b048 be3a aff8 003d
00000120: 6a69 40bb 1db9 b83c 69b9 8f3c e249 43bc
00000130: c4e3 cabc 9ba5 573c 5aed 573c f5fe 91bc
00000140: 2ce1 513c 0817 593c 6ff6 623c 1e9a babc
00000150: b66c cc3c e0c4 ec3c a473 debc 40b0 8d3a
00000160: b6c2 d73c 2380 5a3b 3d20 4f3c 9142 c5bc
00000170: 2a8e 5c3c 1a06 e2bc b2b0 bb3c 848a 6dbc
00000180: 9980 363c 4511 8f3c 73b3 033c 1383 023d
00000190: 7ab9 d6bc 847e 413c 445d 5b3c 50b6 243c
000001a0: 7904 da3b ce65 883c 0689 3ebb 07fb 433c
000001b0: 708e 7b3c 2b42 6b3c e8e7 e63b 09b9 6d3c
000001c0: 1f56 ca3c 5b8a ad3b 7b65 f9bc ab55 c3bc
000001d0: 3bce 26bc 9dbd 5bbc bce6 a03c e1d6 92bc
000001e0: a38f 243c 9549 b8bc a689 133c ecb6 383c
000001f0: 5803 9bbc c206 0e3c 531a 173c 5abc aebc
00000200: f354 243c 689d e6bc 3bc3 8b3c 36cb cbbc
00000210: 311b 553c 00e9 adbc 06fa 863c 4b24 8fbc
00000220: 3e0a f43b b4de afbb 4151 8ebc e6a1 463c
00000230: 2622 05bd 935e 53bc 4c3f 7f3c b842 053d
00000240: 35ce a0ba e839 b9bc 60cd 8abc 3cf4 0d3c
00000250: 9dde 94bc 5448 41bc ec35 8cbb 41ac aabc
00000260: d649 053c 5e8a d43b 17f3 f93b acba 113c
00000270: f090 a43c 065d 6e3c d90a 15bc 5d32 82bc
00000280: 0619 033d 386c c4bc a2d2 ad3c 26fd 033b
00000290: 2225 9cbb c7be c33c fbac 173b 9b5a 5bbc
000002a0: a5bb a1bc 04d4 62bc 577c 9fbc a282 8a3c
000002b0: 59e3 a9bc b6b0 d53b 573a b33c b80e 673c
000002c0: b694 283c f2ed 5b3c eabe 28bc f191 1bbd
000002d0: 89fa bc3b e10c c23b 9b6c 393b df14 d7bc
000002e0: 3e89 ffbb 06dc 7d3c 9efd e7bc 76d8 f239
000002f0: eb8e 9f3c 7e96 d8bc ba5e c03c 0988 ba3c
00000300: ddd9 c6bb 1fce 98bc 139e c23c 629d 133c
00000310: 0e43 56bc 6d1a a9bc b38f a2bc 1c03 553c
00000320: 5728 b63c d134 97bc 8cff 5c3c ac1a 2bbc
00000330: e7d3 97bc 843c 1d3c b8b8 003d a7a7 8c3a
00000340: 96dc 9f3c e31f a2bc 4b69 c53c 7dc9 a93a
00000350: 9cf6 c0bc 56c0 123d 18a3 223c 8348 613c
00000360: e060 253c 616e 923c 55c7 7f3c 8884 6cbc
00000370: a486 df3c 29f2 573b d196 cf3b 07bb 02bd
00000380: 47f4 7abc 0b48 b2b7 1735 68bc 9c75 2fbb
00000390: 7cce 063d 0a37 64ba 4e94 283c db8f cb3c
000003a0: 223d e9bb 5dee ac3c 87ee cb3c fec6 e4bc
000003b0: 9a9a ac3c f327 b9bc e062 bb3c 48af 5bbb
000003c0: 82a6 d8bc fdd6 9a3c 3a84 45bc b131 90bc
000003d0: 3aba a9bc 4eed 68bc ab46 3b3c 38c1 d93c
000003e0: 0c01 84bc d927 98bc 0559 94bc ff5d bdbc
000003f0: 7233 193c 2881 d23c 1acc 463c 1e0e a03c
-0.024902362 0.012884682 0.012648836 0.01150534 0.012169226 0.015334987 -0.0034627821 0.016313871
-0.011454836 0.016906999 -0.003928321 -0.030153362 0.0005985207 0.0064609284 0.010080785 -0.018263362
0.02466356 -0.025637226 -0.017406188 0.017213225 0.010073998 0.0112846885 0.0077157505 0.006959024
-0.024671078 0.013618748 -0.0037510765 -0.014043202 0.02384584 -0.013931582 -0.023907294 -0.026582604
-0.011248701 0.020079907 0.01874424 0.019514745 -0.02142336 -0.002238616 -0.031178607 0.003650991
-0.017870508 0.007967753 0.011408976 -0.019674327 -0.011895168 0.0034440092 -0.01927835 -0.018433763
0.02666557 0.01938136 -0.018084493 -0.0032068207 -0.026694298 -0.028494375 -0.017988455 0.01683937
0.0010618371 0.017486982 0.011408752 -0.02855251 0.015644675 -0.024371957 -0.017649155 -0.007508374
-0.014390095 0.026319264 -0.003003374 0.016119141 0.016639836 -0.023696052 0.0014517512 0.031487163
-0.0029359707 0.022549206 0.017544465 -0.0119194705 -0.02476681 0.013162042 0.013179148 -0.017821768
0.012810033 0.01325012 0.0138527 -0.022778567 0.024954181 0.028902471 -0.027154751 0.0010809973
0.026337963 0.0033340536 0.012641964 -0.024079593 0.013461629 -0.0275908 0.022911403 -0.014498357
0.0111390585 0.01746429 0.0080383895 0.031863283 -0.026211489 0.011809949 0.0133889355 0.010053232
0.006653365 0.016650107 -0.0029073372 0.011961705 0.015353784 0.014359037 0.0070466883 0.014509448
0.024699269 0.0052960343 -0.030443897 -0.02384456 -0.010181005 -0.013411907 0.019641273 -0.017924728
0.010044011 -0.022496024 0.009004986 0.011274081 -0.018922493 0.008668603 0.009222585 -0.021330047
0.010030019 -0.028151229 0.017060867 -0.024877172 0.013006971 -0.021229267 0.016476642 -0.01747336
0.00744751 -0.0053671245 -0.01737273 0.0121235605 -0.03250327 -0.012900966 0.015579056 0.03253433
-0.0012268486 -0.02261062 -0.016943634 0.008664187 -0.018172557 -0.0117970295 -0.004278889 -0.02083409
0.00813528 0.006486221 0.0076278555 0.008894604 0.020088643 0.014548546 -0.009096825 -0.015893156
0.032006286 -0.023977384 0.021218602 0.0020139902 -0.0047651688 0.02389468 0.0023143876 -0.013388301
-0.019742796 -0.013844494 -0.01946847 0.016907994 -0.02073829 0.0065213097 0.021878405 0.01410263
0.010289362 0.01342343 -0.010299424 -0.037980977 0.005767171 0.0059219454 0.0028293494 -0.02625507
-0.007798343 0.015494352 -0.028319176 0.00046319113 0.019477328 -0.026438948 0.02348267 0.022769945
-0.006068452 -0.018652974 0.023757016 0.009009691 -0.0130775105 -0.020642484 -0.019843912 0.01300123
0.022236032 -0.018457802 0.0134886615 -0.010443371 -0.01853366 0.009596948 0.03142616 0.0010731117
0.019514363 -0.019790595 0.02409806 0.0012953725 -0.023555093 0.035827957 0.00992658 0.013750198
0.010093898 0.017874898 0.015611489 -0.014435895 0.027285881 0.0032950735 0.0063351174 -0.031916644
-0.015317029 -2.1252801e-05 -0.014172814 -0.0026772982 0.032911763 -0.0008705711 0.010289265 0.02484887
-0.0071178833 0.021109754 0.024894012 -0.027926918 0.021069814 -0.022602057 0.022874296 -0.0033521224
-0.026446585 0.018901343 -0.012055451 -0.01760182 -0.020718683 -0.014216734 0.011430423 0.026581392
-0.01611378 -0.018573688 -0.018108854 -0.02311611 0.009350644 0.025696352 0.012133623 0.019537982

action_model._discrete_distribution.branches.0.bias f4 [3]
00000000: c485 a2bc 57c9 82bc 8df0 903c
-0.019839175 -0.015965147 0.017692829
