results/raytraining1/PlayerAgent/PlayerAgent-6928.onnx (onnx, 546771 bytes, 11 tensors)

discrete_act_size_vector f4 [1, 2]
00000000: 0000 4040 0000 0040
3.0 2.0

network_body._body_endoder.seq_layers.0.weight f4 [256, 6]
00000000: b132 91be 0589 01bf fcbf 46bd 9d9b 49bf
00000010: 5554 963c e0fb c5be cf8c 7d3e f2d6 9d3d
00000020: 023b 093f 13a3 be3e 15c8 f6be c354 253e
00000030: e030 0fbf 8490 ab3e 1bd8 8cbe 2739 033f
00000040: 2284 9f3e 7e7e 6abf a07b 4e3f 6203 f63e
00000050: 5e4d cd3e 120f 47bf 2e3a 0abf 93cf ab3d
00000060: f337 abbe 8506 493f f1c9 263e 06d8 2b3e
00000070: 3e04 eebe 254c df3d 3188 aebe 7948 453e
00000080: c742 373c 87d1 31bb 720a 453e c462 483d
00000090: 3ed4 353f 13ee 83be 8e67 56bf 337f 303f
000000a0: 9d83 0abf b92a 37bd 4e4b 8d3e 4105 30bf
000000b0: 7c02 e53d a148 873d b484 09be bb7e 273f
000000c0: 4ba5 d5be a6bc d23d aac2 d43e 4520 5ebe
000000d0: 6978 88bd 51fa ba3e 9bfe c0be dedd 71bc
000000e0: 3a26 73be e195 b6be 0210 313c 3ba8 c0be
000000f0: 78e6 eebd 9a85 0b3e 6bc9 2cbd f5af 2d3f
00000100: b465 83be ce89 bdbe b995 653d 8c54 c1be
00000110: d764 a6bd 4fde 503e f415 a4bd 589f fa3d
00000120: 8158 653d f5f7 863f 6d71 063e 6abd 643e
00000130: c09c 17bf f57f cf3e 9ef0 a03d fdc9 19bf
00000140: 6cd9 2cbf cda2 98be c52a 16be c07a a0bd
00000150: 13d9 c2be bce7 853e 6ffb 88bc 6e00 7e3f
00000160: cd5c ba3d 109f 01bd 6913 6d3e 0d6d 4bbf
00000170: 7bf8 593f 2059 9fbf b6c1 c13e 1cc9 5c3f
00000180: 9370 34bf 1cc6 9cbe 68ec 06be 6e83 b0bd
00000190: 5c3c 20bf 7f18 dfbe 9ccb 33bd 091e 5b3e
000001a0: 433e 3a3f 397f ffbe 97d1 8d3e 4c47 15be
000001b0: 1a0b 8a3e 09ba 1e3f 5a24 04be a679 4b3e
000001c0: 550a 913e 742e ea3e b654 15bf 7a8a aebe
000001d0: e522 16be 3a86 66bf e0e2 ee3e a3a9 c3be
000001e0: 465a 07be dec7 76be abdf fb3d 5c00 9abd
000001f0: b340 17be df6e 363f ca83 d83c 45e7 bfbd
00000200: e17e 1bbd 7dc9 f5be f6da 613f 3086 2c3d
00000210: 2a44 d5bc a82f 0cbf 0e78 0c3e bcb7 a0be
00000220: caae a8be 273e 023f f429 89be a8fa 7dbd
00000230: 4766 c9bc fe89 21bf b716 563e 124e 973e
00000240: e41e 92be 8c34 ba3e 45a3 2d3e 227d 93bd
00000250: 6257 6b3d 572d fdbd 9e9b c6be a349 47be
00000260: 58ff a9be b71c 6abd c4c5 893f 141b 1b3e
00000270: 37e5 8b3e 1574 de3e 2027 a73d 73f0 9dbe
00000280: 923c a8be f43c 353f 035b d9be 51be 243f
00000290: d1f9 a43e 7f6c c93e f952 f8be fd2e c8be
000002a0: d682 fdbe 9e41 5dbf 54e4 183b 350d 2dbe
000002b0: c3bf 953d 5d8e c8be 170f e2be 31f0 873e
000002c0: 6f8e a2bd 57f3 22be a27a e6be 6bb6 863e
000002d0: 5fd8 cc3e 7b55 673e e8ff 08bf 7d77 e23d
000002e0: 9563 303e 0292 34bf ca98 323e dc4d 193f
000002f0: 4805 38bf 07a4 3abf beef dd3d 1282 f03e
00000300: ff89 3f3f 746b 1bbe 92a8 e6be 2510 833e
00000310: 5253 873d e771 613f de55 593f 2548 5fbe
00000320: 0ecb e3be 0eb4 ebbe b8e5 d93b 7b88 ddbe
00000330: 2a14 20be b520 53be eb58 c7be d056 9abe
00000340: 1db4 26bf 8eea ccbd 4dde be3e 555c a3bb
00000350: ca3b 053c 9391 fdbe 4123 123e 531b a53e
00000360: bf1f 25bf 2f33 ee3d e97f fabe 0718 b63c
00000370: a67c 03bf 23f8 dd3e cc5a 023f deb4 753f
00000380: cdd3 0e3f 6181 ac3e 3e49 35be 3cb6 98be
00000390: 6a90 59bf ef08 0cbf 6db7 ed3d b129 dd3e
000003a0: 6acc 96bd 2ea8 8ebb 7b8e fdbe 140b 95bd
000003b0: 7860 97bf bced 2c3f a6e9 36be 7132 143e
000003c0: d29f dc3c 1d21 a93e 503a 97be b372 513e
000003d0: 8677 57bd 740f 5c3e 3895 803f 3a0a 03bf
000003e0: 47f3 00bf 1453 69bf b684 61bf 8112 c0be
000003f0: fbd4 953e cfe7 653e a5fc 163f 5147 a9bd
-0.28358987 -0.505997 -0.048522934 -0.7875307 0.01835076 -0.38668728 0.24760745 0.07707013
0.53605664 0.3723379 -0.48199525 0.16145615 -0.5593395 0.33508694 -0.27508625 0.5125908
0.31155497 -0.9159926 0.80657387 0.48049456 0.4009809 -0.7775737 -0.53995025 0.08389201
-0.33441123 0.78525573 0.16287972 0.16781625 -0.46487612 0.10903195 -0.3408828 0.19265927
0.011185355 -0.0027132945 0.19242266 0.048922315 0.7102698 -0.25767574 -0.8375176 0.6894409
-0.54107076 -0.044718478 0.27596515 -0.68758017 0.111821145 0.0660565 -0.13429528 0.6542775
-0.4172767 0.10289888 0.41554767 -0.21691997 -0.066635914 0.365191 -0.3769425 -0.01476237
-0.23745051 -0.35661224 0.010807039 -0.3762835 -0.11665052 0.13625184 -0.042184275 0.67846614
-0.2566353 -0.370192 0.05605099 -0.37759817 -0.081247024 0.20397304 -0.08012 0.12237424
0.055992607 1.054442 0.13129206 0.2233788 -0.59223557 0.4052731 0.07858394 -0.60073835
-0.6751926 -0.29811707 -0.14664753 -0.07835913 -0.3805624 0.26153362 -0.016721455 0.99219406
0.090997316 -0.031645834 0.23151936 -0.79463273 0.85144776 -1.2449074 0.37843102 0.8624437
-0.70484275 -0.30619895 -0.1317612 -0.08618818 -0.625921 -0.43573377 -0.04389535 0.21398176
0.72751254 -0.4990175 0.27698967 -0.14577979 0.26961595 0.6200262 -0.12904492 0.19870624
0.28328195 0.45738566 -0.58332384 -0.34090024 -0.14661749 -0.90048563 0.46657467 -0.3821536
-0.1321803 -0.24099681 0.12298521 -0.075196 -0.14770775 0.71262926 0.02643003 -0.09370283
-0.037962798 -0.48005286 0.8822473 0.04212016 -0.02603348 -0.5476022 0.13717672 -0.31390178
-0.32945853 0.50876087 -0.2678982 -0.062006623 -0.024584902 -0.63101184 0.20907103 0.2955175
-0.28539193 0.36368215 0.16956814 -0.072016016 0.05745638 -0.123621635 -0.38790601 -0.19461684
-0.33202624 -0.05715629 1.0763478 0.15147048 0.27323315 0.4344794 0.081617594 -0.3084751
-0.3285871 0.7079613 -0.4245225 0.643529 0.32221845 0.39340588 -0.48500803 -0.3909835
-0.49513882 -0.8642825 0.0023329454 -0.1689957 0.07311966 -0.39171115 -0.44152138 0.2655044
-0.07937323 -0.1591314 -0.45015436 0.2631105 0.40008828 0.22591202 -0.5351548 0.11057947
0.17225488 -0.7053529 0.17441097 0.5988443 -0.7188306 -0.72906536 0.10836743 0.46974236
0.7481994 -0.15177709 -0.45050484 0.25598255 0.06607689 0.88064426 0.8489665 -0.21804865
-0.44490856 -0.46035808 0.006649699 -0.4326819 -0.15632692 -0.20617945 -0.38935027 -0.30144358
-0.6511858 -0.10005675 0.37278977 -0.004985372 0.008131931 -0.49525127 0.14271261 0.3224741
-0.64501566 0.11630856 -0.48925713 0.022228254 -0.51362073 0.43353376 0.50919795 0.95979106
0.5579193 0.33692458 -0.17703721 -0.29826534 -0.84985983 -0.5470113 0.11607251 0.4319587
-0.07363208 -0.0043535447 -0.49522766 -0.072775036 -1.1826315 0.67550254 -0.17862567 0.14472367
0.026931677 0.33033076 -0.29536676 0.2045391 -0.05260422 0.2149027 1.0045538 -0.5118748
-0.5037121 -0.9114239 -0.88093126 -0.37514117 0.29264054 0.22451709 0.58979255 -0.08265556

network_body._body_endoder.seq_layers.0.bias f4 [256]
00000000: 0407 383c 3cd3 523b f495 4f3c e36c 0b3c
00000010: af0b ca3b 802c 473c d750 47bc 3066 af3b
00000020: d3f0 a53b be12 0d3c 8298 63bb bcf1 51bc
00000030: 20cf 82ba 1c0b 2c3c 6162 f9ba 908a b1b8
00000040: b72b 423b 6d17 bc3b aee3 e03b 3e54 903c
00000050: 18a5 713a 2a70 91bc 38ff 9b3a 1b4d 443b
00000060: 652c c03a f4bf 753b e8a3 e9b8 2743 ee3c
00000070: 800d 683c 3b1e 11bc 6fb1 6a3a 3be3 bd3b
00000080: abcd 5fbb 1f4d 6d3a ffd4 1b3c 2ff4 edb7
00000090: 0af3 1dbc af36 563c 12f8 b63b fdb2 803b
000000a0: 712d d43b a507 073c 70a6 8bbb 1c0b c2bb
000000b0: 4a34 053d fe77 733a 3fcf cd3b 6c62 5fbc
000000c0: 9f70 8e3b b2e0 23bc 0181 c53a 0a77 9dbb
000000d0: 0f8c 9b3a ba66 933b 15ad 843c 61da c53c
000000e0: 561b ad3b b106 fa3b fcf5 1c3b 6ecc 0c3c
000000f0: b645 4bba d97a 8e3a eef5 44bc 178e 69bc
00000100: e238 1d3d 12ce 35bc bfd5 8fba 9a97 c2bb
00000110: f387 a73c 779c 0bbc 5f37 283b df6e 1abc
00000120: bf3d 9a3a 8582 993c cf14 ac3b efd6 b0bb
00000130: 6e27 5aba 1649 713b ad39 433c b47c 3b3a
00000140: 47c7 83bb fb82 b63b c145 28bb cc9c b1ba
00000150: 70c6 cbb8 abba dd3b 16cc 6fba 90c4 2e3b
00000160: 6a75 803c 8c28 84ba 8e14 28b9 15d8 a139
00000170: 2f25 323c 29c8 153c 996a 25bb 30d2 b13b
00000180: 6099 b5bc 36dc e03a a11b fc3b 7758 c6ba
00000190: 680c a73b 4239 373c ce7c 973c fe87 8f3c
000001a0: ca90 123d 3e1b 2abc cfd2 f43b 85e6 4f3b
000001b0: 8263 d03a 3b2d 2dbc 3971 b03b ec87 c83b
000001c0: c68b c5b9 353f 0dbb 2032 283b 0f88 8d3b
000001d0: 427a 473c ed32 da3b bc86 cd3b d8ba 47bc
000001e0: be96 d73c 7dd2 acba 7419 e7b8 969f d03b
000001f0: 13d5 cb3b 175e 21bc 15b9 053c c2f4 073c
00000200: 7bad 773a c4dd 5cbb 6928 63bc 6711 c93b
00000210: 51cf 7b3b df62 843a f630 683b 3ca4 d83b
00000220: 29b9 16ba 47fb efbb 6c42 dc3b c39b 1ebc
00000230: f911 d93b 6399 463b 7d52 87bc d5d5 1f3b
00000240: fa7f 4bbb 62ae c53b df10 4d3c be9d 8d3b
00000250: be55 2ebc 6e57 9bba 080e 113c 1374 adbc
00000260: 48ca cf3a 0ebe 82bc c205 5fbc 083b 123b
00000270: 8569 873c f161 3e3c fb13 7c3b 4b7b 9fba
00000280: 64b8 39ba 78ad 8c3b 0c48 173b 4c5c b33b
00000290: 4a1d b2ba 015a 46ba da0b 483b 2f89 9e3b
000002a0: f9af 8bbb 5781 fd3b 064c 1d3b 069c 883b
000002b0: c738 11b9 190c ac3c a304 70bc 1b33 743b
000002c0: 28c9 a63c 5a36 c5ba 833b 0dbc 2f14 623c
000002d0: a603 643c c6ef aa3b 47e2 c23b 7e03 483b
000002e0: e3c9 42bb 0142 4bba b49d 05bc 25eb d03a
000002f0: f3c7 a23c 5bc4 bb3a a3cc abba 3432 f93a
00000300: a0ee 3439 2feb 6b3b 4258 e8bb 001b 8fbb
00000310: f776 063d 79f6 98bc 3f44 a83b 1e70 a53c
00000320: b3de 043d 57b0 1d3c 3c07 c0bb e671 61ba
00000330: 1908 73bc c093 95bc 81a6 b93b ce3b 123c
00000340: 8add e1ba 4576 8f3b c952 c43b 41f9 023b
00000350: 0692 6fbc 1ad3 5b3c fe66 8bbb 5580 123c
00000360: 4875 383c a736 85bc 4fe8 ab3c 150c 953b
00000370: 6eb2 873b 3dc0 25bc 3a20 c33b 04d9 c2ba
00000380: 5fb6 14bb 5eb9 493b a36d be38 1b38 353b
00000390: e21e be3b 97e0 743b 15b1 393c 089a cd3b
000003a0: ad7b 06ba 58e4 613b a8b8 223b adca c53a
000003b0: 9c30 5539 2bc1 9d3b d385 983c b6a1 863a
000003c0: b0c5 bbb9 0d81 1fba 4177 c6bc 9e21 bbba
000003d0: 7f41 3a3b 0d0d 7e3b 78be a3bb 140f a63c
000003e0: b3e2 7b3b 9842 debb 0cb4 803a e0bb acba
000003f0: 203a 0e3c ba57 b5b9 b16d 16bb f48a 7ebc
0.011232141 0.0032169363 0.012670029 0.008509847 0.0061659436 0.012156606 -0.01216527 0.005352758
0.005064109 0.0086104255 -0.0034728353 -0.012813982 -0.0009979941 0.010500696 -0.0019026512 -8.465827e-05
0.0029628107 0.0057400973 0.006863079 0.017618295 0.00092180213 -0.01775368 0.0011901623 0.0029953185
0.0014661668 0.0037498446 -0.00011140836 0.029084755 0.014163375 -0.008857305 0.0008952831 0.0057949102
-0.0034149687 0.00090523245 0.009511231 -2.8366308e-05 -0.009640465 0.013074561 0.0055837715 0.003927587
0.0064751436 0.008241569 -0.0042617843 -0.0059217345 0.03252057 0.00092875946 0.006280809 -0.013634305
0.0043469216 -0.010002302 0.0015068353 -0.0048054503 0.0011867302 0.00449833 0.016195813 0.024151983
0.0052827997 0.007630192 0.002395033 0.008593662 -0.0007754223 0.0010870352 -0.012021525 -0.014255068
0.038384326 -0.011096494 -0.0010973735 -0.0059384825 0.020450568 -0.008521191 0.002566777 -0.009425848
0.0011767669 0.018738994 0.005251504 -0.005396716 -0.00083219155 0.0036817244 0.011915606 0.0007152066
-0.0040215584 0.0055698133 -0.0025676342 -0.0013550757 -9.716756e-05 0.0067666373 -0.00091475376 0.0026667453
0.015680987 -0.0010082885 -0.00016029386 0.00030869307 0.010873123 0.00914196 -0.002524054 0.0054266676
-0.022167861 0.0017155472 0.0076937233 -0.0015132566 0.0050979145 0.011183085 0.018492129 0.0175209
0.035782613 -0.010382472 0.0074714194 0.0031723094 0.0015898796 -0.010569866 0.005384591 0.006119719
-0.00037678907 -0.0021552567 0.0025664642 0.004319198 0.012175145 0.006658903 0.006272165 -0.012190543
0.026316997 -0.0013185289 -0.000110196794 0.0063666804 0.006220469 -0.009849093 0.008161803 0.008298101
0.0009448153 -0.0033701519 -0.013864615 0.0061361077 0.003842313 0.0010100267 0.0035429574 0.006611375
-0.0005749637 -0.0073236558 0.0067217853 -0.009680691 0.006624457 0.0030303828 -0.016518826 0.0024388928
-0.0031051622 0.006032751 0.012516229 0.004321783 -0.01064056 -0.0011851618 0.008853443 -0.021173513
0.0015853131 -0.015959766 -0.013612213 0.0022313017 0.016529808 0.011620031 0.0038464058 -0.0012167481
-0.0007084666 0.00429314 0.0023083715 0.005473649 -0.0013589051 -0.0007566512 0.0030524642 0.004838131
-0.004262921 0.007736366 0.0024001612 0.00416899 -0.00013849429 0.021001862 -0.014649543 0.0037261907
0.02035959 -0.0015046105 -0.008620146 0.013798757 0.0139168855 0.0052165715 0.0059473845 0.003051966
-0.0029722385 -0.0007753671 -0.008155275 0.0015939219 0.019870734 0.0014325486 -0.0013107251 0.0019012154
0.00017255032 0.0035998335 -0.0070905993 -0.0043672323 0.032828297 -0.018672215 0.0051350887 0.020195063
0.032438945 0.009624562 -0.0058602374 -0.0008600041 -0.014833474 -0.01825893 0.0056656008 0.008925391
-0.0017232161 0.0043781125 0.005991314 0.0019984993 -0.014622217 0.01341703 -0.004254221 0.00894173
0.011258431 -0.016261412 0.020984797 0.0045485594 0.0041411435 -0.010116634 0.0059547694 -0.0014865701
-0.002269171 0.0030780653 9.0803274e-05 0.002765185 0.0058020214 0.0037365311 0.011333724 0.0062744655
-0.00051301235 0.003446838 0.0024829302 0.0015090309 0.00020331371 0.004814287 0.0186185 0.0010271582
-0.00035814708 -0.0006084599 -0.024226787 -0.0014276986 0.0028420386 0.0038765103 -0.004997071 0.020270862
0.0038434684 -0.006782841 0.0009819283 -0.001317855 0.00868085 -0.00034588372 -0.0022953565 -0.015536059

network_body._body_endoder.seq_layers.2.weight f4 [256, 256]
00000000: 59f6 f4bc 8635 83bc 847a 48bd 0dd3 f43c
00000010: 13ae 0c3e 03a8 c2bd 63ba fabd a407 f8bc
00000020: f6d4 763c 42cf 10bd 7737 763d 268f 553d
00000030: 0b4a 9a3c 0b12 1f3d 0b93 0b3c beaf d03d
00000040: 88f3 20be 59af c73c 3b9b 37bd b28d dcbb
00000050: 799c c43c 9d5d debb 6058 b9bd 5475 a63c
00000060: ccc8 b63d ab5b ab3d 1a6a 6d3d 21f1 693d
00000070: 56dc 813d 45a2 4b3d 43bb 44bd bfe0 983b
00000080: b566 7f3c d40c 273d 3336 833d 85a5 473c
00000090: 71a2 0dbd 79db e2bd 33e6 a0bb b7ab fdbc
000000a0: 84e0 0f3e 585f 6dbc 4bcb 57bc d130 1bbe
000000b0: 69a6 d0bc 19eb 88bd dd5f cfbd b78c 043e
000000c0: 2492 953c 7133 90bc d644 653c 956c a6bd
000000d0: 3e5b 12bd 532b 8eba 5b91 a4bc 9284 2abd
000000e0: b530 c23b 7d39 853c 10e0 3cbd cd3a 053d
000000f0: d2fb bdbc a06e c9bc a991 663c 14c4 b13d
00000100: c96c ac3d 6c13 aabd a76d ac3d 7e88 013a
00000110: 82c2 063d 4445 40bd 2f9a cebb a222 cebc
00000120: 0e09 a3bd 3d64 873c 88a9 4b3d 4e60 58bd
00000130: e912 95bc a86e 34bd 833d 11bd 81f6 02bd
00000140: d60c 0c3e e225 1c3e 6090 90bd a226 53bd
00000150: f199 64bd e1c5 093c ec88 943a bd17 efbd
00000160: 686f 9b3d 565c b9bc eb34 1f3d d8f9 9f3d
00000170: 570d e3bc 6f7e 2bbd a719 b9bd f1e0 ee3d
00000180: ae3c a73d b8e4 42bd 206e 933d f6e4 813c
00000190: 5b0a 4bbd 2e33 113d e2bc 9f3c 6d95 05be
000001a0: 2a8f 283d f131 0d3d ed0c f23c d273 0fbe
000001b0: 3f40 743d 0553 38bd a304 f23c 9691 1a3e
000001c0: 1d17 d73d bfa0 013d 59c2 0dbc 7c09 1c3d
000001d0: d662 00be f84c 393c 67c6 4abd e7b3 86bd
000001e0: 4256 593d 4102 97bd a1b0 27bd 5813 843d
000001f0: 6e44 b5bc 310e 1e3c 1c89 ddbc f1cf d63c
00000200: fd37 b5bc c01a 7bbd fc47 fcbc 8906 f9bd
00000210: fc23 99bd ad22 ddbd 207f c73c 3f7f e4bc
00000220: 3fa3 ffbd f839 24be 60fa 47bd 929d b1bd
00000230: cbfa aabd 25e8 11bd d2bc e5bb cb3f 4e3d
00000240: 54ca e73d 8720 e43b ddd1 20bd 4ae6 173e
00000250: 2bb1 f53c 13fe d53c fd7c fdbc cd26 48bd
00000260: 03b8 1b3a df50 a43d 1fd1 c1bd c041 8abd
00000270: cfff 36bd 49ce 473c e9fe 503b 504b 103d
00000280: 661e 79bd 1843 0cbc 155c 893d 0c5a 623d
00000290: a4c3 eabd c919 00bd 05f3 263d 3032 3c3d
000002a0: bec5 ebbd 7254 05bd 4b42 143c b860 d0bd
000002b0: 72a5 70bc 8d40 313d 200c 913b 53c8 9b3d
000002c0: ac10 583d 52b0 80bd 9960 063e acfc 813c
000002d0: b7e5 013d 7b53 f03d 3de5 073d 3657 c93c
000002e0: 91d1 1e3c b97b 20be 7e92 033e b174 a939
000002f0: fe5d 76bd 4587 8fbd f8a2 c83a 6d9f b43a
00000300: 5bfa ae3d 2962 d9bc e6d1 743d e4bd 2a3d
00000310: 935a 7fbc 7571 51bc 18d4 93bc 77af 4b3c
00000320: 937b d43b 0a3a 58bc 39e7 45bd 0e57 99bb
00000330: 07d9 0bbd 4a2d dc3d 3af0 21bd 7cd4 fcbc
00000340: 6488 ce3c 69cb 403d 18e5 fbbd 32f3 bbbc
00000350: 0ec0 7fbd 6d34 c3bc 1703 9d3d ac33 9fbd
00000360: 0ce7 a53c e451 c13d 5409 afbc 360b 94bd
00000370: e633 223d ab6b a53d c459 43bd 2f0f bfbd
00000380: e93d ccbd 7850 913d eb5c 5dbc b199 1a3d
00000390: e182 b1bc ee35 b13b 35e3 a33d 2932 afbd
000003a0: cdb9 88bd fdbc 98ba 3b32 423d bcb9 963d
000003b0: 3c6f fa3a 9bac 003d a6d8 1a3d 83b7 f8bc
000003c0: 1e53 a0bb 2c62 b13d 880b ce3c df7e 8f3d
000003d0: d97c 4ebb 58f9 a3bb a9bb 6abd a590 bdbd
000003e0: f17a be3d 832d c23b 1586 95bc 5b42 e1bd
000003f0: 7c46 3d3b 6ed6 b9bc 8ed1 523d 1451 5c3d
-0.029902624 -0.016016733 -0.048944965 0.029885793 0.13738279 -0.09504702 -0.12242582 -0.03027708
0.015065422 -0.035353906 0.06011149 0.05213847 0.018834135 0.038835566 0.0085189445 0.1018977
-0.157179 0.024375604 -0.044825774 -0.0067307586 0.024000393 -0.006786062 -0.09050059 0.020319618
0.08925018 0.08367094 0.057962514 0.057114724 0.06340854 0.0497153 -0.04803015 0.0046654637
0.015588452 0.04078372 0.06406822 0.012185459 -0.034578744 -0.11077017 -0.0049102544 -0.03096567
0.1405049 -0.014488064 -0.013171027 -0.1515534 -0.025469976 -0.06685466 -0.10125706 0.12944303
0.018258162 -0.017602654 0.013993463 -0.08126179 -0.035731547 -0.0010846652 -0.020088842 -0.041630335
0.0059262165 0.016262764 -0.04611212 0.03252678 -0.023191366 -0.024588883 0.014072814 0.08679977
0.084191866 -0.08304486 0.08419352 0.00049412984 0.03290034 -0.046941057 -0.006305001 -0.025162999
-0.079607114 0.01652729 0.049722224 -0.05282622 -0.018197494 -0.044050843 -0.035459053 -0.031973366
0.13676772 0.15248826 -0.07058787 -0.051550515 -0.055810872 0.008408994 0.001133231 -0.116744496
0.075896084 -0.022627037 0.038868826 0.07811326 -0.027716322 -0.041868623 -0.09038096 0.11663998
0.081658706 -0.047581404 0.07198739 0.015856247 -0.049570423 0.0354492 0.019499246 -0.13045283
0.041152157 0.034471456 0.02954718 -0.14009026 0.059631582 -0.04500105 0.029543227 0.15094599
0.105024554 0.03164744 -0.008652293 0.038094983 -0.12537703 0.011309855 -0.049505617 -0.065772824
0.053060777 -0.07373477 -0.04093993 0.06449002 -0.022127356 0.009646938 -0.027042918 0.026222201
-0.022121424 -0.061304808 -0.030796044 -0.121594496 -0.074775666 -0.107976295 0.02435261 -0.027892707
-0.124823086 -0.16037738 -0.04882276 -0.08672632 -0.08348616 -0.03562178 -0.0070110345 0.050353806
0.11317888 0.0069618854 -0.03926264 0.14833942 0.029991707 0.026122129 -0.030943388 -0.04886513
0.00059402006 0.080232374 -0.09463715 -0.06750822 -0.04467755 0.012195178 0.003189022 0.035228074
-0.060820006 -0.008560918 0.067070164 0.055261657 -0.11463097 -0.03127459 0.040759105 0.0459463
-0.11512326 -0.032551236 0.009049009 -0.10174698 -0.014687883 0.04327445 0.0044264942 0.07606568
0.052750275 -0.062836304 0.13122787 0.015867554 0.031713214 0.11734673 0.033177603 0.024577718
0.009693519 -0.15672196 0.12848851 0.00032321134 -0.06014823 -0.070082225 0.0015307358 0.0013780423
0.08543845 -0.026536064 0.059770487 0.041685 -0.015585559 -0.012783398 -0.01804547 0.012431971
0.0064844578 -0.013197431 -0.048316214 -0.004679567 -0.03414252 0.10750826 -0.03953574 -0.03086304
0.02521152 0.047068987 -0.122995555 -0.022943113 -0.062439017 -0.02382871 0.07666605 -0.077735275
0.020251773 0.094394475 -0.021366753 -0.07228701 0.039600275 0.08077177 -0.04769303 -0.09329068
-0.09972746 0.07095426 -0.013510923 0.037744228 -0.021668853 0.0054080402 0.08002321 -0.08554489
-0.06676064 -0.0011653003 0.047411185 0.07359645 0.0019106637 0.03141461 0.03780427 -0.030360943
-0.004892721 0.08661303 0.025151983 0.070066206 -0.003150752 -0.0050040893 -0.057307873 -0.092561044
0.09300793 0.0059258356 -0.018252412 -0.109989844 0.0028881123 -0.022685256 0.05146938 0.05378826

network_body._body_endoder.seq_layers.2.bias f4 [256]
00000000: fb69 62bb e45a 0c3c b705 97ba 6848 083c
00000010: 31e4 ac3b f1be 2c3c 8312 c8bb 3cfc 033c
00000020: 8232 fcba dbeb 8cbb 77c6 a939 82e6 253c
00000030: 5dfe a6bb 13a4 dbbb 8620 9cbb 5852 50bc
00000040: 07d6 ed3b 9b72 9e3b 2d77 b63b 2379 7abc
00000050: 306f 153c 2616 93bc 015b 093c a67b 20bc
00000060: 52df d73b fefe beba 5fe0 523b f9f2 56bc
00000070: 5e74 293c 1e4e 27bb e471 183c c1f1 46bc
00000080: 9de1 d1bb 1e9f 50bb 2e80 a93a 3d09 a7bb
00000090: f4d6 da3b c076 dd3b 2e1d f0bb 1f56 babb
000000a0: 5473 f3ba 8402 75bc a323 103c a16f ce3b
000000b0: 620b 093c 2d22 14bc 79d9 93bb 9b3d e73b
000000c0: ea58 873b 995f a4bb 31fa fd3b dd41 43bc
000000d0: 62ba fe3a 3e4b 213b eb00 f2bb b66c 51bc
000000e0: 5958 a7bb 7c5a 6bbc b85c dcbb 56e7 0fbc
000000f0: cf3b dabb 3651 bfb7 b67f 3dbc d51a 79ba
00000100: 9d1a 9d3a 259a e03b 259b 80ba fb3f c9bb
00000110: f965 2c3c b745 8d3a 34ee 43bc 2fd7 5d3c
00000120: 1b9e 153c 9e19 a2b9 5ec7 02bb c657 143b
00000130: c4a7 48bb f227 e63b b181 69bc 11a7 c83b
00000140: 4f70 133c 30c2 203c 0a89 64bc 39dc bb3b
00000150: c87f e93b 2457 57bb 4c3b 5fbb 894a be3b
00000160: 77f9 b6bb 7a14 87bb 8586 983b 49b5 0fbb
00000170: 476b 1cbc 9408 2dbc 42d6 c6bb 380e 3b38
00000180: ac62 e43b 7c63 a0bb 8195 c6bb b821 1dbc
00000190: 0e41 afb9 2f48 e03b 11b9 2a3c 10a2 d03b
000001a0: e5b9 9dbb 6a73 f5bb f7c6 c53b e8a6 0abc
000001b0: ea10 c7bb aa5a 98bb bbca 153b ef14 b63b
000001c0: 69af 15bc e928 a0bb b0f7 02bc 867d 043b
000001d0: a7bc 2e3c c38a 3abc 3d9b 69bc e256 7abc
000001e0: 86da 2dbc 5d76 81bb 65c7 60bc 9379 f8bb
000001f0: 06fa 3a3c e7e1 2a3c e7a7 15bc 9cd5 63bc
00000200: 8f65 6bb8 f1a9 76ba c420 d0bb 24a0 77bc
00000210: 67a6 1f3b 6773 b03a c473 5f3b 4572 65bc
00000220: 56c9 103c 6a4c 253c be1f 2cba a107 683b
00000230: 21d5 0b3c 863d b23b 9ac9 c139 925f 32bc
00000240: dcb6 273c 059a 953a 8320 44bc f06c 34bc
00000250: 842f ccbb e79c b13b b085 6d3b 4e5e 49bc
00000260: 90ea 5b3b ff03 d53b 6c02 46b9 d34c 0d3c
00000270: 28a1 3dbc ba36 80bb 6fdf 033c d253 1ebc
00000280: 66ad a5bb 20ed 3a3c 0cc3 9d3b d9e5 27bc
00000290: fed0 c93b 9924 333c 3ea6 48bb 7014 173c
000002a0: a81e 3d3c 617f 23bc 14f4 013c 28ac d13b
000002b0: e837 41bc e9ab a9bb 4687 28ba 2e58 d2bb
000002c0: bb6b 4cbc 6340 3dbc 167c 183c 564c 00bc
000002d0: 45ba 34bb d136 d0bb 3191 fbbb e622 8f3b
000002e0: 53e4 523a 2ebb 52bc 055c 88ba e5b5 d3bb
000002f0: 7096 f33b 0c27 0abc a9ea d5bb 2c2e 2dbc
00000300: 46b9 eab9 6094 043c 626c 37bc 8eca 093b
00000310: 3f2a 86bb bd6f ecbb 3f3d b0bb f1b3 be3b
00000320: c02f 093c d26a 61ba 77bf c43b a136 e1ba
00000330: dbff b13b 7c89 103a d20b 75bc 7a2b 44ba
00000340: b42f bf3b cfca 16bc f4c5 be3b b531 a9bb
00000350: 64ce 653a b86f 24bc 2d56 1f3c 02c0 f6bb
00000360: 6584 96ba 15e9 223c 46e4 0c3c 9aa1 943a
00000370: 406a 913b 2741 0dba 8b73 f2bb 0ad1 45bc
00000380: 8f9b 103c bb11 16bc 42fd 343b bd81 233c
00000390: fe43 5c3b e9b9 363c c45c 95bb 32b0 4abc
000003a0: add4 d23b cda4 12bc f837 85bb 7714 9c3b
000003b0: bc09 c5bb 8081 debb 267d 80ba 449b d0bb
000003c0: fff4 36bb b19d 643c 55d0 22bc 38a5 37bc
000003d0: 9c0f eabb e9b4 41bb 36f7 193c 2747 04bc
000003e0: 0e89 55bc a7bb f4bb bcd6 d63b 9ef7 3dbc
000003f0: 6f6d 3cbc 9ba9 b83b 207b 3b3c 2976 7c3b
-0.0034548033 0.008566592 -0.0011522089 0.008318044 0.005276226 0.010543571 -0.0061057224 0.008055743
-0.0019241127 -0.004300577 0.0003238206 0.010125758 -0.0050962404 -0.006702909 -0.0047646193 -0.012714945
0.00725818 0.0048354394 0.005568406 -0.01528767 0.009120747 -0.017954897 0.008383513 -0.009795105
0.006587901 -0.0014571843 0.0032177193 -0.013119453 0.0103426855 -0.002552874 0.009304497 -0.0121426
-0.006405069 -0.0031833122 0.0012931877 -0.005097537 0.0066784564 0.006758541 -0.0073276972 -0.005686536
-0.0018573799 -0.014954213 0.008797559 0.0062999283 0.00836453 -0.009041351 -0.0045120087 0.0070569045
0.0041304724 -0.005016279 0.0077507724 -0.0119175585 0.0019434209 0.0024611498 -0.0073853633 -0.012782266
-0.0051069674 -0.014364835 -0.00672492 -0.008783182 -0.006659962 -2.2806791e-05 -0.011566093 -0.00095025945
0.0011986081 0.006854313 -0.0009811862 -0.0061416603 0.010522359 0.0010778223 -0.0119586475 0.013540073
0.009131934 -0.00030918134 -0.0019955258 0.0022635325 -0.0030617574 0.007023805 -0.014252112 0.0061234315
0.008998944 0.009811923 -0.013948688 0.0057330397 0.0071258284 -0.0032858336 -0.0034062443 0.005807225
-0.0055839377 -0.004122314 0.004654708 -0.0021928123 -0.009547061 -0.010561127 -0.006068022 4.4597517e-05
0.0069697704 -0.004894672 -0.0060603027 -0.009590559 -0.0003342707 0.0068445425 0.0104201 0.0063669756
-0.00481342 -0.007490565 0.0060356813 -0.008462645 -0.0060750144 -0.00464948 0.0022856432 0.0055566947
-0.009136059 -0.0048876894 -0.007993624 0.002021642 0.010665095 -0.011385622 -0.014258203 -0.015279504
-0.010611182 -0.0039508776 -0.013719414 -0.007582852 0.011412149 0.010429836 -0.009134269 -0.013905909
-5.612295e-05 -0.00094094785 -0.006351562 -0.015113864 0.0024360658 0.0013462127 0.0034096101 -0.014004295
0.008837065 0.010089019 -0.0006566009 0.0035404938 0.008534701 0.005439463 0.00036962033 -0.010887044
0.010236468 0.0011413699 -0.011970642 -0.011012301 -0.0062312502 0.0054203155 0.0036243014 -0.01229055
0.0033556558 0.0065007205 -0.00018883654 0.008624273 -0.011574067 -0.003912774 0.008048876 -0.009663539
-0.005056071 0.011409074 0.004814511 -0.010247671 0.006158947 0.0109340185 -0.0030616666 0.009221181
0.011542954 -0.0099791 0.007931728 0.0063986965 -0.011793114 -0.005177964 -0.0006428849 -0.0064192032
-0.012476857 -0.0115509955 0.009306928 -0.0078307 -0.0027576846 -0.006354191 -0.0076772203 0.004368174
0.0008044887 -0.01286201 -0.00104034 -0.0064608925 0.007433705 -0.008432161 -0.006528218 -0.01057009
-0.00044769997 0.008092016 -0.011195274 0.0021025273 -0.0040943916 -0.0072154687 -0.005378395 0.0058197905
0.008373201 -0.00085989863 0.0060042697 -0.0017182418 0.0054321117 0.0005513651 -0.014956431 -0.0007483285
0.005834544 -0.009203627 0.0058219377 -0.0051633962 0.00087664113 -0.010036401 0.009725136 -0.0075302133
-0.0011483548 0.009943266 0.0085993465 0.0011339665 0.004437715 -0.00053884316 -0.0073990277 -0.012073765
0.008826151 -0.009159501 0.0027616774 0.0099796625 0.0033609862 0.011152723 -0.0045581777 -0.01237111
0.0064340443 -0.008950424 -0.00406551 0.004763182 -0.0060131233 -0.00679034 -0.0009802922 -0.0063661654
-0.0027917025 0.013953612 -0.009937366 -0.011208825 -0.007142974 -0.0029557294 0.009397319 -0.008073605
-0.013033165 -0.007468659 0.00655636 -0.011594681 -0.0115007 0.005635453 0.0114429295 0.0038522577

network_body._body_endoder.seq_layers.4.weight f4 [256, 256]
00000000: ecbd 88bd ac12 853d 8b9d e83c 72bc e2bb
00000010: fba2 db3c beb9 493d 971c 9a3d 287b 893d
00000020: 0706 e73b 978c c83d 7fe9 40bd d104 e83d
00000030: cccb ebbd 338d 483b 3431 873d 13b4 22bd
00000040: 3485 0fbc 1f24 b3bc c4d2 5d3d 3bb0 773c
00000050: d294 9e3d 86c2 67bd 1c55 b83d f983 5d3d
00000060: 0dc3 11bd 3542 aabc 5e81 1e3d 941a 11bd
00000070: d25c 56bd e087 1b3d 3cbd 84ba 2228 c23d
00000080: e207 ffbd a760 4abd 74c4 c53c 1b0c a33d
00000090: e382 a2bd bfd0 0e3c 7242 e0bc 3375 1abd
000000a0: ca56 db3d e8b6 44bd cc60 2c3d 46b0 463d
000000b0: 3950 8c3d 77d3 82bc 2d06 aabd c016 0ebd
000000c0: fb4d 653d 1d4a 263c 7db7 963d d047 bc3c
000000d0: cb44 113d 1a11 98ba b10e a13c e3a2 0dbd
000000e0: d2ea 1a3c d7d2 0d3d d1cb 833d 48df d73b
000000f0: 6988 9e3d fd59 293d 8cd2 0bbb 2442 c53d
00000100: 219a 8ebc d33b 9cbd 6411 1c3c b267 933d
00000110: 05c4 f6bd 2071 233b a048 903a 5957 0abd
00000120: f81a 06be 84de d83c 315a 38bc cca2 debc
00000130: 5996 d2bd dcba fdbb c758 d13c 37fd 1ebe
00000140: e0e4 64bd 3bfc 95bc 16e5 383d caf8 6fbd
00000150: 9af0 163c ec23 8abd 6b65 96bc accd 413d
00000160: aa4e 5cbc d343 e03d 9f36 a93b 6a80 a6bc
00000170: f7cd 40bd 8db1 853c 36e5 88b9 e3cb 9abd
00000180: 93b7 cebc 33ab 9d3b c16d d4bd bc43 80bd
00000190: 0e80 a83c 2ee2 003d 7bdc ac3c 1c19 39bd
000001a0: f8df 723d 8327 91bd 7ea1 a2bd 6ea8 b83d
000001b0: 54fb bf3d 63e0 c1bb 9596 b03c 4adc f8bd
000001c0: 343a 85bd 0ab6 e23c 18ea f03c bba7 3e3c
000001d0: ad0d 8ebd 337f 2abc c510 493c 4abb 343d
000001e0: 5486 f7bc 3adc cd3c 38a9 1d3d 8929 e73c
000001f0: d112 d0bd 0682 68bd 411f efbd 0baa 833d
00000200: 4c26 923c 8e49 b3bd 1b6a 3dbd dc11 9bbc
00000210: b680 ce3d b425 613c 3dc0 833b ebf3 993d
00000220: b3d4 c23d c636 bb3d eccd eb3b 71fe 7bbd
00000230: 64e5 533d 211e 173e b66a 21bd 8c1f 333d
00000240: 390a 93bd 4536 89bd 3aeb 10bd 7639 533d
00000250: 1784 54bd 2771 1dbc 4d82 c03c 8cfe 123e
00000260: df10 493d bcd3 e2bb 014a e3bc c2b1 463d
00000270: f435 56bc 84d6 ecbb 5c0a 71bd 5c3b 5e3d
00000280: e5d7 8d3d 6523 003d e8c3 7fbd 0d24 bb3d
00000290: bfff 4a3d cbfb ed3c f685 40bb 3187 ecbb
000002a0: 68c4 9dbd 7eab 013e 7fb9 6f3d 944a 40bd
000002b0: abda 16bd 483a c83d 049f b43c 8d2e 673d
000002c0: 0752 83bd 168d 09be 0deb 8ebd d1bf f7bc
000002d0: e24c 4dbd 8928 153d 9279 953c ef2e e33c
000002e0: 6db7 91bd 2331 21bc 8538 fdbc 5700 a4bd
000002f0: cb11 a83d 2ec1 2dbd f513 f0bd d830 70bc
00000300: f43d 1ebe 0a90 01bd e5c0 d2bc 5205 033e
00000310: aa40 b1b9 968b d23d a94b 973c 2d8f aebb
00000320: 86b2 ab3d 2e09 40bd 2f8f 8bbd 9eaf 8b3d
00000330: 019b 3e3d b658 97bd d180 0c3d a598 283d
00000340: 91ca 9c3d 2c68 b53d 8408 83bd 85b6 d63c
00000350: 616e 843d fe13 ddbc 1735 423d ecc2 a7bb
00000360: af13 fdbc da61 003d 3323 38bc f256 bb3c
00000370: 34e9 683d af74 d73c ec8b 0b3d 53cf 573d
00000380: b1b0 9e3d d74e 8b3d eed0 9c3b 434d 1cbc
00000390: c88a 65bc abcb 39bd 08e6 953c 37f1 5fbd
000003a0: 9619 813d 60bc 6fbc deea 933d 2e2a 833c
000003b0: d4a0 91bc 1ef2 46be b6d9 73bd 8bb8 2f3a
000003c0: 8ccd d23c 01aa dfbd 544d c2bd 4e4b d4bd
000003d0: 0aed e0bc b6cd 773d 2eec bcbd a80b 72bb
000003e0: 769c c7bd e9fb c73d c5e5 bb3c 8c70 fdbb
000003f0: 55f1 cebc 812e 5abc cb2c be39 bde2 7fbd
-0.0667685 0.06497702 0.028395435 -0.006919437 0.026811114 0.049249403 0.07524984 0.06712943
0.007050279 0.097924404 -0.04709768 0.11329044 -0.115134805 0.003060174 0.066011816 -0.039722513
-0.008759785 -0.02186781 0.05415608 0.0151177 0.07743229 -0.056581996 0.09000608 0.054080937
-0.035586406 -0.020783523 0.038697593 -0.035425738 -0.052334614 0.037971377 -0.0010127197 0.09480311
-0.124526754 -0.04940858 0.024141528 0.07961293 -0.07935121 0.008716761 -0.027375434 -0.037709426
0.10709913 -0.048025995 0.0420845 0.04850795 0.06851239 -0.015969975 -0.08301959 -0.034689665
0.05598257 0.010149506 0.07359216 0.022983462 0.035465997 -0.0011601776 0.019660326 -0.03457917
0.0094554 0.0346249 0.06435359 0.0065878965 0.07740862 0.041345585 -0.0021335213 0.09631756
-0.017407479 -0.07628598 0.009525631 0.07197513 -0.120491065 0.0024939254 0.0011007972 -0.033774707
-0.13096225 0.026473291 -0.011251972 -0.027177237 -0.10282583 -0.0077432226 0.025555028 -0.15526281
-0.055882335 -0.01830875 0.04514035 -0.058586873 0.009212637 -0.06745133 -0.018358907 0.047315285
-0.013446489 0.109504364 0.005163982 -0.020324904 -0.047071423 0.016320014 -0.00026110717 -0.075584196
-0.02523402 0.0048116683 -0.103724964 -0.06262919 0.020568874 0.0314657 0.021101227 -0.04518996
0.059295624 -0.070876144 -0.079409584 0.090165004 0.09374109 -0.0059166416 0.021556178 -0.12151392
-0.06505242 0.027674694 0.0294085 0.01163667 -0.06936202 -0.010406303 0.012272065 0.044123925
-0.03021542 0.025129426 0.038491458 0.028218048 -0.10159839 -0.056764625 -0.11675883 0.064289175
0.017840527 -0.08754264 -0.04624377 -0.018929414 0.100831434 0.013741899 0.0040207193 0.07517227
0.095132254 0.091413066 0.0071961787 -0.06152195 0.051732436 0.14757587 -0.039408408 0.043731257
-0.07179684 -0.06699804 -0.03538058 0.05156847 -0.051883783 -0.009609497 0.023499632 0.14354914
0.049088355 -0.0069222134 -0.027745249 0.048509367 -0.013074387 -0.0072277207 -0.05884777 0.05425583
0.06925944 0.031283755 -0.06244269 0.091377355 0.049560305 0.029050728 -0.0029376722 -0.0072182645
-0.07703477 0.12663075 0.058526512 -0.046946123 -0.03682963 0.09776741 0.02204848 0.05644088
-0.0641213 -0.13432726 -0.06978426 -0.030242832 -0.05012215 0.03641561 0.018246446 0.02773234
-0.07115064 -0.009838375 -0.03091074 -0.08007877 0.08206519 -0.04242056 -0.117225565 -0.014660083
-0.1545332 -0.031631507 -0.025726745 0.12794998 -0.0003380825 0.1028053 0.018468695 -0.0053271265
0.0838366 -0.046883754 -0.068144195 0.06820606 0.046534542 -0.07389967 0.034302536 0.0411612
0.07655824 0.0885776 -0.063981086 0.026210079 0.064663656 -0.026987072 0.04741391 -0.005119672
-0.030893175 0.03134332 -0.011238861 0.022868607 0.056863025 0.026300756 0.034068987 0.052687954
0.07748545 0.06802147 0.0047856485 -0.009539905 -0.014010139 -0.04536025 0.018298164 -0.0546734
0.06303708 -0.014632314 0.07222532 0.016011324 -0.017776884 -0.19428298 -0.059533797 0.0006703219
0.025732778 -0.109210975 -0.094874054 -0.10365926 -0.027456779 0.060498916 -0.09224735 -0.0036933217
-0.097466394 0.09764845 0.022936711 -0.007734364 -0.02526156 -0.013316751 0.00036272997 -0.062472094

network_body._body_endoder.seq_layers.4.bias f4 [256]
00000000: 4cd6 83b8 3817 f7ba f79d 97bc 6800 38bc
00000010: 5405 463c 8561 20bc 270d 33bc c10b 3d3c
00000020: 53f3 123c 034c 83bc 5d27 8abc 6dce 543c
00000030: 19c2 673c 09ca 2dba 20ba afbc b1e5 86bc
00000040: b098 85bc 3920 b9bb 02eb d13a ee9b 16bc
00000050: c998 0b3c bd38 4f3c 3d10 663c ace2 003c
00000060: bf12 0e3c 3fbc 9abb 3e00 c6bb 3f0b f63b
00000070: 26ac 96bc 5622 8c3b 2929 19bc 6acd 703c
00000080: 8633 f83a 355b 4bbc f01e 303c 3983 7dba
00000090: e6c1 76bc fe2a 4f3b cf86 27bc ce14 8dba
000000a0: 1ab9 16bc f53f c23b d4c4 25bc 5aef 193c
000000b0: b85d 613c 2f1f 33bc 94cf cc3b 211a 2bbc
000000c0: 2d3e 1d3c e103 35bc 965a c93b 0f82 183c
000000d0: 89d1 513c fbf6 553c 2759 0fbc 83d6 5abc
000000e0: 9a43 84bc 6fc2 73bc 3152 593c e25f a03b
000000f0: cee1 c4bb fd23 bfbb 65d4 33bc 9f58 77bb
00000100: 416e 2ebb 36f4 36bc fb82 81bc bcd9 733c
00000110: 7d86 293c c034 07bc 4f5a 54bc b456 363c
00000120: 30eb 403c 4707 85bb 2670 c7b9 6f49 95bb
00000130: d463 983b 591f ab3b f12a 86bc e72c 54bb
00000140: f57a a7ba 1777 d83b c78c 80bc 0812 bfbc
00000150: 948a 93b9 f3b7 433c 4012 9cbc 8714 cfbb
00000160: 6431 2dbc 1cbb a13a 2cf7 6ebc 87ad 4ebc
00000170: 3cfe c53b d599 f8bb 8b7b 53bc 45f0 213a
00000180: 31aa c53b 2945 19bc f348 d83b 9620 99bc
00000190: 97a9 3abb c8e9 bd3b 7595 46bc b21c 783c
000001a0: ff19 8d3a 7211 16bc 4140 233c 4cb1 993b
000001b0: 1be8 523b 5bef babb 1dec 75ba 386c 313c
000001c0: b16d aabc a415 20bc 2571 d1bb 4e0b 193c
000001d0: 5009 323c 3ffb a53b 3b4c 86bc 2b0a 2dbc
000001e0: 9bd1 ee3b 826a 8fba be59 ba3b 2ae8 ee3b
000001f0: a737 ee3b 68ba c9bb ad4e 283c 4e88 33ba
00000200: b16e 39bc f2a7 b1bc 8d8a 673c c2ec 1bbc
00000210: 8074 99bc 5027 16bc 710f 10bc 6161 2cbc
00000220: 612d 18bc 0285 a0bc 9cdf 6fbc bffd 043c
00000230: cdff 86bc 305f 413c cbd8 1bbc bec8 8c3b
00000240: 71de 30bc 8c98 583c b7fc 663b aa2c 88bc
00000250: d180 3d3c e3e4 4c3c 4445 96bb 05e1 e03b
00000260: 0ce2 42bc 72e4 80bc 0747 14bb bd08 473c
00000270: d208 ccbc c625 85bc eb72 ccbb 2d22 13bc
00000280: e3af 22bc fa68 3bbc de84 143c 5d87 a1bc
00000290: 1e30 123b 2550 71bc e5a8 693b b61c a2bc
000002a0: 9598 98bc 70f9 3f3c c45e ddbb 71c8 e53b
000002b0: a3b3 3fbc 29e9 433c 8bb5 12bc ba44 643c
000002c0: 3cb6 8ebc 395e b33b c788 77bc f741 8bbc
000002d0: 2c42 80bc 3279 edbb b3fd 86bc 8a6e 693c
000002e0: eb3d 60bc 7715 6b3c 38ee f8bb 5224 62bc
000002f0: c8de c13a 3646 5a3c b75e 3d3c 6d44 36bc
00000300: bc4d 86bc d6ec e3bb d057 36bc 5df6 7b3b
00000310: 68bd 3b3c b1cb 97bc 1246 253c b2a4 1e3c
00000320: 065e 563c eeb5 72bc c1d3 1e3c a185 b9bb
00000330: 1a1d 73bc 684e d43b 9776 2c3c f42e 233c
00000340: 3807 50bc 1152 113b a981 64bc 3028 e33b
00000350: b5f8 6bbc 065a 21bb 1b3f 623b 17e9 2f3c
00000360: 7907 8f3a 9a3a 603c 639a 96bc dc38 98bc
00000370: f01d 223c 5139 9fbc c208 c6ba bb56 3d3c
00000380: 9345 0ebc 94cf 3bbc 4cbf 95bb 100f 473c
00000390: a3f8 bcbb 2efc 0a3c 486f 2d3c adba f3bb
000003a0: 794c 483c df0c edbb df61 e7bb a2a5 21bc
000003b0: e693 3d3c 82fc 343c d2af 1fbc 7ab3 9ebc
000003c0: 215e 52bc 225b 0bbc bdce bf3b 8c8e fc3b
000003d0: 3567 64bb efdd 3c3c 54d9 b03b 0ee3 6abc
000003e0: d0bd b5bc 3af6 83bc a6f3 953b 19f5 c93b
000003f0: 6c9b 013c 51b7 27bc 28eb 533c e3ac 4b3c
-6.286483e-05 -0.0018851524 -0.01850794 -0.011230566 0.012086231 -0.0097888755 -0.010928429 0.011538447
0.008969146 -0.016027456 -0.016864473 0.012988669 0.014145398 -0.0006629532 -0.021451056 -0.016466947
-0.016308159 -0.005649593 0.0016015472 -0.00919245 0.008520314 0.012647805 0.014041957 0.007866543
0.008671462 -0.0047221477 -0.0060425093 0.007508665 -0.018392634 0.004276554 -0.009348192 0.014697412
0.0018936254 -0.012411882 0.010749564 -0.0009670738 -0.015060877 0.0031611319 -0.010225012 -0.0010763647
-0.009199405 0.0059280344 -0.010117728 0.009395445 0.013755254 -0.010932728 0.006250331 -0.010443241
0.009597343 -0.011048288 0.006144832 0.009308352 0.012806305 0.013059373 -0.008749283 -0.013356808
-0.016145516 -0.0148779 0.013264225 0.0048942426 -0.0060083633 -0.0058331476 -0.010975932 -0.0037742031
-0.002661601 -0.011166623 -0.015809527 0.014883455 0.010347006 -0.008252323 -0.012960984 0.01112907
0.011774823 -0.0040597054 -0.00038039795 -0.004555873 0.0046505723 0.005222243 -0.016377898 -0.0032375397
-0.0012777733 0.0066059935 -0.015692128 -0.023324028 -0.00028141274 0.011945712 -0.019051671 -0.0063195857
-0.010570858 0.0012339088 -0.014585298 -0.012614614 0.00604227 -0.0075866976 -0.012907873 0.00061774655
0.0060322513 -0.009354868 0.006600493 -0.018692296 -0.002848243 0.005795691 -0.012120594 0.01514356
0.0010765194 -0.009159433 0.00996405 0.004690325 0.0032181803 -0.005704803 -0.0009381192 0.010829024
-0.020804258 -0.0097707845 -0.0063916617 0.009341074 0.010866478 0.0050653513 -0.016393771 -0.010561506
0.0072881705 -0.0010941776 0.0056869676 0.0072908597 0.007269818 -0.0061562546 0.010272664 -0.0006848619
-0.011317895 -0.021686528 0.014132154 -0.009516897 -0.01873231 -0.009164646 -0.008792744 -0.010521264
-0.009288163 -0.019594673 -0.014640715 0.008117138 -0.016479397 0.01180248 -0.009512137 0.0042963913
-0.010795222 0.013219964 0.0035245845 -0.01662286 0.011566357 0.012505743 -0.004585894 0.006862762
-0.011894714 -0.015733931 -0.0022625343 0.012148079 -0.02490655 -0.016253363 -0.006239285 -0.008980316
-0.00992963 -0.011438603 0.009064881 -0.019717867 0.0022306512 -0.014728581 0.0035653648 -0.019789081
-0.018627444 0.011717185 -0.0067556817 0.00701242 -0.011700544 0.011957445 -0.008954416 0.013932401
-0.01742088 0.0054738787 -0.015108294 -0.016999228 -0.015656553 -0.0072471136 -0.016478395 0.014247546
-0.013686637 0.014348379 -0.0075967573 -0.013802605 0.0014791125 0.013322404 0.011558226 -0.011124712
-0.016394489 -0.0069557233 -0.011129335 0.0038446405 0.011458732 -0.018529745 0.010087507 0.009682821
0.01308394 -0.014813883 0.009694041 -0.0056616818 -0.014838481 0.0064790733 0.010526321 0.009959925
-0.012697034 0.002217416 -0.013946929 0.006932281 -0.014402558 -0.0024620309 0.0034522477 0.010736725
0.0010912261 0.013685847 -0.018384164 -0.0185818 0.009894833 -0.01943651 -0.0015108811 0.011556323
-0.00868358 -0.011463065 -0.0045699235 0.012149587 -0.0057669445 0.008482976 0.010585614 -0.007438025
0.012225264 -0.0072342004 -0.0070612277 -0.00986615 0.011570906 0.011046531 -0.009746509 -0.01937269
-0.012839825 -0.0085056145 0.0058535025 0.0077074226 -0.0034851555 0.0115275225 0.0053970013 -0.014336361
-0.022185236 -0.01610862 0.0045761643 0.006163251 0.007910591 -0.010236577 0.012934484 0.012431356

action_model._discrete_distribution.branches.0.weight f4 [3, 256]
00000000: d4ce 20bb c859 ca3b b64c b5bb ce42 bcb9
00000010: 0af0 10bc 7537 84bb 1d0d 1f3a 891d 2ebc
00000020: 049b 4b3b 36f9 a23a 7df1 b7bb 493d 2f3c
00000030: 85ff 87bb d07d 39ba 9d68 10bc 1ab1 fdba
00000040: 53f6 703b ae19 c3bb 15f4 0c39 c611 2dbc
00000050: 5b1c 993b 9d22 1cbc d687 ba3b 1cc4 2f3c
00000060: e5f2 a7bb b2f5 84bc 648d 12bc 2902 843b
00000070: 7f29 21bb 09d1 9eba 36eb 54bc 0705 8fbb
00000080: d281 ca3c c012 fb3b 8e38 23bb 153a ce3b
00000090: 940c 7c3c b803 2d3c d2f3 bdbb 40d8 1fbc
000000a0: a4ef ef3a 448d 8c3a 5725 04bc ff46 c73b
000000b0: dc8a 3f3a b193 2ab9 21c6 08bd 93d6 f9ba
000000c0: ca4f b63b f4c8 48bc 4801 993b 2b54 b6ba
000000d0: 3413 7f3b 13aa 0cbc 319a e73b da00 ca3b
000000e0: d768 3a3c 4c3a 893b 5352 d2bb 8eb0 f9bb
000000f0: 3071 683b 91d8 c6bb 89c1 01bc f90f dc3b
00000100: b292 673c a144 643b f6d9 2bbc 78c3 f63a
00000110: b185 173c 6181 5bbc bcf2 0fbb 40ba 4d3a
00000120: cf38 23bb 7564 2dbc 9e36 563b 0520 153b
00000130: 7279 fa3b 4f4e 0d3b 272f d4b8 c77a 9cbc
00000140: ba20 70ba 1d0a 903b 1da3 22bb 2fd8 7dbb
00000150: fc47 d03a 2022 28bc fe66 f53a 5d17 c6bb
00000160: 64d2 00bc 14e5 fb3a 302d b237 f9cc 5fbb
00000170: 4034 da3a 44e7 bc3b 9360 69bc 6e91 61bb
00000180: 72ff adbb 9155 25bc 6fab 243b 0f41 b93a
00000190: 575b 0f3a 70e4 653a 9b3e 6cba 3336 83ba
000001a0: 2b4f 29bc 943f 23bc f7d9 bfbb fad6 ce3b
000001b0: 4f4e 50ba 53b3 a7bb bfdf c33a 7da2 daba
000001c0: d8cf 343b 534d 113c 27ff 9cbb b868 a8bb
000001d0: 2437 9e3b 1315 a53c d0aa 80bc 3cf2 d5ba
000001e0: 4bf5 02bc a9e5 093d 7c0a 183b d248 4b3c
000001f0: 6364 183b 9889 f0bb 8859 6f3b fb18 903b
00000200: 4ab0 5d3b 1523 debb 5a77 27bb b1f7 13bc
00000210: d281 51bb f14f 51bb 1d28 30bc e064 28bc
00000220: 2a2d 28bc 4b33 893b 6b4b 9abb 445d 193c
00000230: 5e78 a4bb b10e 1d3b 4fc6 73bb 4a94 8f3b
00000240: 6c69 0bbc dba2 0dba 3a7b 39bc aeda c6bb
00000250: d032 a5bc 833e d1ba 0dcd fbb9 17d9 cebb
00000260: ad09 5f3a ef15 2e3b cd83 3ebc 1071 543b
00000270: 6c18 9e3b a50b 9e3a 83c2 03bc 6a3f d2bb
00000280: 1336 48bb 2bad 06bc 1a9b ab3a bfb4 9fbb
00000290: 6e73 033c 9d41 18bc b3ea 5b3b 2f29 b23b
000002a0: 1a9f 093b c8dc 323a b716 60bc 031e fbbb
000002b0: 1adc 75bb 0cd9 103c 9e32 ae3a 2460 a7ba
000002c0: 3032 d9bb bc3d ae3b a99e 973a 9051 02bb
000002d0: 69b6 f43a 4821 9bba 5826 943b d99e 513b
000002e0: 66ea 00bc d4e0 893b 1be7 11bc 109d a3bb
000002f0: dadf 1a3c 42b2 06bb 8c42 86ba 2d0f 89bb
00000300: ff43 373b 5645 0dbc c260 aabb a15c be3a
00000310: 58ff a0bb 41e0 143c ca43 afbb 940c 9ebb
00000320: 357d c73a 9b05 e7bb 66ec 1d3c b8a7 38bc
00000330: ae2e 0f3c 3a0b 3a3c 9479 2b3a 5612 afba
00000340: b8ac 6aba f634 7c3a 1cb5 1ebb d018 253b
00000350: 2251 88bb 413c d039 c3ab db3a a256 263b
00000360: 79d3 e33a 2ea1 743b 44b9 85bb cd74 aa3b
00000370: 9866 a3bb fad8 93bb 62e1 9a3b 326b beb8
00000380: 00ba 82bc 1444 8ebb 9a96 88bc fc55 583b
00000390: 0c5a e53a 867d 3d3b c7c3 4a3c 46b7 bc3b
000003a0: c2af 0f3c 86b3 953a 963e 7dbc 1925 3dbc
000003b0: cff9 2b3c 50db 39bb ad21 c3b9 c249 ef3a
000003c0: dd23 00bb c952 3abc 0fd4 853b 1829 473c
000003d0: 0842 1f3c febe 0abc 5992 c43a 6462 2dbc
000003e0: 7fd0 86bb 11f2 943c 3557 493c 6ed1 4f3b
000003f0: c6ca 5b3b 699e 1dba 30c4 b6ba 5dcb 2d3c
-0.0024537342 0.0061752535 -0.0055328263 -0.00035907928 -0.008846292 -0.0040349313 0.00060673227 -0.010627159
0.0031067738 0.001243389 -0.0056135044 0.010695764 -0.0041503333 -0.00070759375 -0.008814004 -0.0019355149
0.0036767914 -0.005953989 0.00013442368 -0.01056332 0.0046725697 -0.009529737 0.0056924624 0.010727908
-0.005125391 -0.016230438 -0.008944843 0.004028578 -0.0024591384 -0.0012116741 -0.012995532 -0.004364613
0.024720106 0.0076621473 -0.0024905535 0.006293545 0.015383858 0.010559969 -0.005796888 -0.009756148
0.0018305671 0.0010723253 -0.008065543 0.0060814614 0.00073067634 -0.00016267483 -0.033392075 -0.001906114
0.005563711 -0.012254942 0.004669342 -0.0013910582 0.0038921358 -0.008585471 0.0070679416 0.0061646523
0.011377535 0.0041878577 -0.006418505 -0.007619924 0.0035467856 -0.006068297 -0.0079196775 0.0067157713
0.014134096 0.0034830945 -0.010488978 0.0018826565 0.009248183 -0.013397546 -0.002196475 0.0007847883
-0.0024905687 -0.010583033 0.0032686363 0.002275468 0.007643872 0.0021561568 -0.000101177306 -0.019101514
-0.000916015 0.004395737 -0.0024816461 -0.0038733592 0.0015890594 -0.010262042 0.0018722711 -0.0060452656
-0.007862661 0.0019218051 2.1240296e-05 -0.0034149273 0.0016647652 0.0057648737 -0.0142442165 -0.0034418958
-0.0053099925 -0.010091201 0.0025126596 0.0014133769 0.0005468628 0.00087696966 -0.00090120145 -0.001001066
-0.0103338165 -0.009963889 -0.005854841 0.0063122483 -0.0007946239 -0.0051178127 0.0014944001 -0.0016680505
0.0027589705 0.008868533 -0.0047911587 -0.0051394366 0.0048283506 0.02015165 -0.01570645 -0.0016322802
-0.007993053 0.033666287 0.0023199609 0.012407498 0.0023253195 -0.007340621 0.003652187 0.004397509
0.0033827 -0.0067790844 -0.0025553317 -0.009031222 -0.0031968248 -0.0031938518 -0.010751751 -0.010277957
-0.010264674 0.004187023 -0.0047086976 0.009360615 -0.0050192317 0.0023965056 -0.0037197059 0.004381691
-0.008509021 -0.00054029905 -0.011320883 -0.006068549 -0.02016583 -0.0015964065 -0.00048027225 -0.0063125
0.00085082167 0.0026563366 -0.011628103 0.0032416023 0.0048246887 0.0012057914 -0.008041981 -0.006416251
-0.003054981 -0.008219997 0.0013092489 -0.0048738415 0.008023126 -0.009292987 0.003355664 0.0054370384
0.0020999373 0.000682306 -0.013677291 -0.00766349 -0.0037515224 0.0088408105 0.0013290232 -0.0012769741
-0.0066282973 0.005317418 0.001156767 -0.001988504 0.0018670085 -0.001183548 0.0045211725 0.003198555
-0.007868385 0.00420771 -0.0089051975 -0.0049930885 0.009452784 -0.0020553027 -0.0010243221 -0.0041827173
0.0027964113 -0.008622488 -0.0051995227 0.0014523455 -0.004913252 0.009086669 -0.0053486573 -0.004823277
0.001521981 -0.007050229 0.009638881 -0.011270456 0.008739157 0.011355216 0.0006541249 -0.0013356905
-0.00089521287 0.0009620929 -0.0024216836 0.0025191791 -0.0041600624 0.00039717744 0.0016759563 0.0025381227
0.0017381749 0.0037327516 -0.0040809233 0.005201912 -0.0049865954 -0.0045119496 0.0047265748 -9.079873e-05
-0.015957832 -0.0043416116 -0.016673375 0.0033010235 0.001749815 0.002891393 0.0123757785 0.0057591526
0.008769931 0.00114213 -0.015456816 -0.011544489 0.010496571 -0.002835948 -0.0003721839 0.0018256234
-0.0019552626 -0.011372277 0.0040841172 0.012155794 0.009720333 -0.008468388 0.0014997228 -0.01058254
-0.00411421 0.018181833 0.012288858 0.0031710523 0.003353761 -0.00060126797 -0.0013943966 0.010607568

action_model._discrete_distribution.branches.0.bias f4 [3]
00000000: a473 253a fdb8 3ebb 14b0 ec3a
0.0006311482 -0.002910196 0.0018057846
