results/playeragent1/PlayerAgent/PlayerAgent-7576.pt (torch, 145004 bytes, 10 tensors)

network_body._body_endoder.seq_layers.0.weight f4 [128, 2]
0	0x3f10fe1b	0.56637734
1	0xbe08aa22	-0.1334615
2	0x3ec7f121	0.39051154
3	0x3ec4ba4e	0.3842339
4	0xbf78fdcf	-0.9726228
5	0x3f541a60	0.82852745
6	0xbee9f5a9	-0.45695236
7	0x3e8c4a8b	0.27400622
8	0xbe83f865	-0.25775447
9	0x3f6ad525	0.9173148
10	0xbeccb757	-0.39983627
11	0xbdc3ffde	-0.09570287
12	0xbfa20b36	-1.2659671
13	0xbecddf5a	-0.40209466
14	0xbf05dcba	-0.52289927
15	0x3f3cea23	0.73794764
16	0x400b9b06	2.1813369
17	0x3f247f8b	0.64257115
18	0xbe8b4f63	-0.27209005
19	0xbe82fdb3	-0.25584182
20	0xbf006bc2	-0.50164425
21	0xbe8f5c81	-0.28000262
22	0x3f435244	0.762974
23	0x3d68a867	0.056801226
24	0x3ecbdf6e	0.398189
25	0xbd81d8f8	-0.06340212
26	0xbf01c1cf	-0.50686353
27	0x3f389387	0.7210011
28	0xbf5a662e	-0.85312164
29	0x3e71f3e4	0.23628193
30	0xbed13176	-0.40858048
31	0x3ec8bb4e	0.39205402
32	0x3f36c36a	0.7139193
33	0x3d44c715	0.048041422
34	0xbd286d9c	-0.041120157
35	0xbfa6bb5f	-1.3025931
36	0xbeb3bfe1	-0.3510733
37	0xbf0af185	-0.5427478
38	0xbe9549b0	-0.29157782
39	0x3cebdd8c	0.028792165
40	0xbe90bbe2	-0.28268343
41	0x3e8178c5	0.25287452
42	0x3f4da96a	0.8033663
43	0xbf8e8900	-1.1135559
44	0x3e9453ad	0.2897009
45	0x3ddfb932	0.10923995
46	0x3d903ee3	0.07043245
47	0xbf655a4a	-0.89590895
48	0xbee7ee0e	-0.4529881
49	0xbeba7e18	-0.36424327
50	0x3ef48636	0.47758645
51	0xbee44e4b	-0.44590983
52	0x3f3ca559	0.736898
53	0xbfe9852d	-1.8243767
54	0x3ee11ccf	0.43967292
55	0x3e8de32d	0.27712384
56	0x3f771f16	0.9653181
57	0xbf236cf3	-0.6383812
58	0x3f8d897b	1.1057581
59	0xbf2c423b	-0.6728856
60	0x3e9b5ee0	0.3034582
61	0xbdea80a1	-0.11450315
62	0xbfb2d052	-1.3969824
63	0xbec895e2	-0.39176852
64	0x3ed93f70	0.4243121
65	0xbf1b4b54	-0.60661817
66	0x3f2836f2	0.6570884
67	0xbf22587c	-0.63416266
68	0x3f152967	0.582663
69	0x3ee334f8	0.4437635
70	0x3d8833f1	0.06650532
71	0x3f1f43b1	0.62212664
72	0x3f0bf3d3	0.5466892
73	0x3dd2e8db	0.1029832
74	0x3ef857f4	0.48504603
75	0xbe9081f2	-0.2822414
76	0xbf7f47c2	-0.9971887
77	0xbf9ddc3d	-1.2332836
78	0x3c8ddb37	0.017316444
79	0x3e953832	0.29144436
80	0x3f80a2f4	1.0049729
81	0x3ee5c8dd	0.4487981
82	0x3f9b7511	1.2145101
83	0xbf4ad72c	-0.79234576
84	0xbf4826cd	-0.78184205
85	0x3e98ac17	0.29818794
86	0x3f2b645d	0.6695002
87	0x3ed7e13a	0.42164022
88	0xbf50b523	-0.8152639
89	0x3c1aad6c	0.009440761
90	0xbede2ba0	-0.43392658
91	0x3fddcfe2	1.7329066
92	0x3f4631b5	0.77419597
93	0xbec9f796	-0.39446706
94	0x3d615a9d	0.055018056
95	0x3f2c6bb1	0.67351824
96	0xbf1bf09e	-0.6091403
97	0xbe17f551	-0.14839675
98	0x3f2cc235	0.67483836
99	0xbdad29d8	-0.08455247
100	0x3f4ca783	0.799431
101	0x3d98f7e7	0.074691586
102	0x3c9f9b84	0.019483335
103	0xbecbba46	-0.39790553
104	0xbd1c7e2e	-0.03820627
105	0x3fba93eb	1.4576391
106	0x3ee99f7c	0.4562949
107	0xbeac900d	-0.33703652
108	0x3e9c6d3c	0.3055209
109	0xbda48c57	-0.0803458
110	0x3f9e696d	1.2375923
111	0x3eff7936	0.49897164
112	0x3f5da208	0.86575365
113	0xbeefb5f1	-0.46818498
114	0x3f144dcd	0.57931215
115	0xbe870f20	-0.26378727
116	0x3eaaf4c3	0.33389863
117	0x3ee43cae	0.44577545
118	0xbf7129b1	-0.9420424
119	0xbc3f7934	-0.011686612
120	0xbe8744bf	-0.26419637
121	0x3f29df48	0.66356325
122	0x3f23a9cc	0.63930964
123	0x3e40c123	0.18823676
124	0xbfc60be6	-1.5472381
125	0xbdf45ed2	-0.11932148
126	0xbf02248c	-0.50837016
127	0x3f1d309d	0.61402303
128	0x3e771689	0.2412969
129	0xbea25620	-0.31706333
130	0x3f9381fe	1.1524045
131	0xbee0c996	-0.43903798
132	0xbee99aa3	-0.4562579
133	0xbe973aff	-0.29537198
134	0xbdb8f79b	-0.09031602
135	0xbea08b56	-0.31356305
136	0xbec29971	-0.38007692
137	0xbfab34ea	-1.3375523
138	0x3f640673	0.8907234
139	0x3e8a40fa	0.27002698
140	0xbcc462db	-0.02397292
141	0x3e3000ff	0.1718788
142	0xbf890298	-1.0703917
143	0x3c851464	0.016245075
144	0x3f8375be	1.0270307
145	0x3ee3edfd	0.44517508
146	0x3f61769d	0.88071615
147	0x3ada484a	0.0016653624
148	0x3ed979e4	0.42475808
149	0xbb6632ee	-0.0035125571
150	0x3f8f44a2	1.119282
151	0x3e1a26fb	0.15053932
152	0x3d868db6	0.06569998
153	0xbf081f02	-0.53172314
154	0x3e44bfc0	0.19213772
155	0x3ec800d5	0.39063135
156	0x3e236931	0.15958096
157	0x3e5d83b3	0.2163227
158	0x3ea9bfde	0.33154196
159	0x3e2b8d45	0.16753109
160	0x3e52b1fa	0.20575705
161	0xc00b84ca	-2.1799798
162	0xbf8037ca	-1.0017025
163	0x3ec2cea3	0.38048276
164	0xbf0e0344	-0.5547373
165	0x3d8aa167	0.06769066
166	0x3e8fc907	0.2808306
167	0x3ff0f988	1.8826151
168	0x3dee1735	0.1162552
169	0xbf0a85ec	-0.541106
170	0x3dc4319e	0.09579776
171	0x3f0c8d5a	0.54903185
172	0xbf96f59a	-1.1793702
173	0x3f5267ad	0.82189447
174	0xbebc0b1e	-0.36727232
175	0xbecd7e86	-0.40135592
176	0x3eb1f6ab	0.34758505
177	0x3f421169	0.75807816
178	0xbf5bcbdc	-0.8585794
179	0x3ff545a1	1.9161874
180	0x3fa8f3c0	1.3199387
181	0x3e3cf6a8	0.18453467
182	0xbf803cb0	-1.001852
183	0x3fba4158	1.4551191
184	0xbe92b3d6	-0.2865283
185	0xbf0b9ca3	-0.54535884
186	0xbf1e94b3	-0.61945647
187	0xbf05f883	-0.52332324
188	0x3f5ec715	0.87022525
189	0xbe9f0c1f	-0.31063935
190	0x3ea60a58	0.32429767
191	0xbe905be0	-0.28195095
192	0xbefd8418	-0.49514842
193	0xbeed6b38	-0.46370864
194	0xbe07b6fd	-0.13253398
195	0x3f91d91b	1.139438
196	0xbd13bdcb	-0.036069673
197	0x3fa7e879	1.311782
198	0x3ec08670	0.37602568
199	0x3f4cf0fb	0.80055207
200	0x3e66b64b	0.22530477
201	0xbd24fd91	-0.040280882
202	0x3f98e968	1.194623
203	0xbe6154a8	-0.2200495
204	0xbf352952	-0.70766175
205	0x3e6314ef	0.22175954
206	0x3fafe9b6	1.3743198
207	0x3d99283f	0.074783795
208	0xbecd0604	-0.40043652
209	0x3f5c37e8	0.86022806
210	0x3ed7c9c8	0.42146134
211	0x3e894668	0.26811528
212	0xbec2ca7d	-0.3804511
213	0x3f5d95bb	0.86556596
214	0x3f1f28fa	0.621719
215	0x3f95ce49	1.1703578
216	0xbea7fa9c	-0.32808387
217	0x3f2118fe	0.6292876
218	0x3f53e93f	0.8277778
219	0xbe11219b	-0.14172976
220	0xbf593dba	-0.8485981
221	0xbf001b51	-0.5004168
222	0x3ebea3da	0.37234384
223	0xbf3262d3	-0.69682044
224	0xbfa6611b	-1.2998384
225	0x3ec828e4	0.39093697
226	0xbf159cd9	-0.58442456
227	0xbe2db605	-0.16963966
228	0x3f356aa4	0.70865846
229	0xbf0b4284	-0.5439837
230	0x3e2fdbec	0.17173737
231	0x3e902b4e	0.2815804
232	0xbe5d3fbd	-0.21606345
233	0xbefa094f	-0.48835227
234	0xbe8f7ce5	-0.28024974
235	0x3ec95a10	0.39326525
236	0xbfa6d3ce	-1.3033388
237	0x3f835b37	1.0262212
238	0x3e93032b	0.28713354
239	0x3f62541a	0.8840958
240	0xbf9da289	-1.2315227
241	0x3ec3385e	0.38128942
242	0xbd3554f8	-0.044270486
243	0xbf72ec9c	-0.9489229
244	0xbd6072ce	-0.054796986
245	0x3f002f90	0.50072575
246	0x3f1d6140	0.61476517
247	0x3f9e976f	1.2389964
248	0x3f12ead3	0.57389563
249	0x3f603099	0.87574154
250	0xbf7e4bd0	-0.9933443
251	0xbed36f17	-0.41295692
252	0xbe3ff679	-0.18746366
253	0xbeb4ebef	-0.35336253
254	0x3eddb6f2	0.4330364
255	0x3e2f150c	0.17097872

network_body._body_endoder.seq_layers.0.bias f4 [128]
0	0x00000000	0.0
1	0x00000000	0.0
2	0x00000000	0.0
3	0x00000000	0.0
4	0x00000000	0.0
5	0x00000000	0.0
6	0x00000000	0.0
7	0x00000000	0.0
8	0x00000000	0.0
9	0x00000000	0.0
10	0x00000000	0.0
11	0x00000000	0.0
12	0x00000000	0.0
13	0x00000000	0.0
14	0x00000000	0.0
15	0x00000000	0.0
16	0x00000000	0.0
17	0x00000000	0.0
18	0x00000000	0.0
19	0x00000000	0.0
20	0x00000000	0.0
21	0x00000000	0.0
22	0x00000000	0.0
23	0x00000000	0.0
24	0x00000000	0.0
25	0x00000000	0.0
26	0x00000000	0.0
27	0x00000000	0.0
28	0x00000000	0.0
29	0x00000000	0.0
30	0x00000000	0.0
31	0x00000000	0.0
32	0x00000000	0.0
33	0x00000000	0.0
34	0x00000000	0.0
35	0x00000000	0.0
36	0x00000000	0.0
37	0x00000000	0.0
38	0x00000000	0.0
39	0x00000000	0.0
40	0x00000000	0.0
41	0x00000000	0.0
42	0x00000000	0.0
43	0x00000000	0.0
44	0x00000000	0.0
45	0x00000000	0.0
46	0x00000000	0.0
47	0x00000000	0.0
48	0x00000000	0.0
49	0x00000000	0.0
50	0x00000000	0.0
51	0x00000000	0.0
52	0x00000000	0.0
53	0x00000000	0.0
54	0x00000000	0.0
55	0x00000000	0.0
56	0x00000000	0.0
57	0x00000000	0.0
58	0x00000000	0.0
59	0x00000000	0.0
60	0x00000000	0.0
61	0x00000000	0.0
62	0x00000000	0.0
63	0x00000000	0.0
64	0x00000000	0.0
65	0x00000000	0.0
66	0x00000000	0.0
67	0x00000000	0.0
68	0x00000000	0.0
69	0x00000000	0.0
70	0x00000000	0.0
71	0x00000000	0.0
72	0x00000000	0.0
73	0x00000000	0.0
74	0x00000000	0.0
75	0x00000000	0.0
76	0x00000000	0.0
77	0x00000000	0.0
78	0x00000000	0.0
79	0x00000000	0.0
80	0x00000000	0.0
81	0x00000000	0.0
82	0x00000000	0.0
83	0x00000000	0.0
84	0x00000000	0.0
85	0x00000000	0.0
86	0x00000000	0.0
87	0x00000000	0.0
88	0x00000000	0.0
89	0x00000000	0.0
90	0x00000000	0.0
91	0x00000000	0.0
92	0x00000000	0.0
93	0x00000000	0.0
94	0x00000000	0.0
95	0x00000000	0.0
96	0x00000000	0.0
97	0x00000000	0.0
98	0x00000000	0.0
99	0x00000000	0.0
100	0x00000000	0.0
101	0x00000000	0.0
102	0x00000000	0.0
103	0x00000000	0.0
104	0x00000000	0.0
105	0x00000000	0.0
106	0x00000000	0.0
107	0x00000000	0.0
108	0x00000000	0.0
109	0x00000000	0.0
110	0x00000000	0.0
111	0x00000000	0.0
112	0x00000000	0.0
113	0x00000000	0.0
114	0x00000000	0.0
115	0x00000000	0.0
116	0x00000000	0.0
117	0x00000000	0.0
118	0x00000000	0.0
119	0x00000000	0.0
120	0x00000000	0.0
121	0x00000000	0.0
122	0x00000000	0.0
123	0x00000000	0.0
124	0x00000000	0.0
125	0x00000000	0.0
126	0x00000000	0.0
127	0x00000000	0.0

network_body._body_endoder.seq_layers.2.weight f4 [128, 128]
0	0x3d89a71c	0.06721327
1	0xbe4c5c9d	-0.19957204
2	0x3be963e7	0.007122505
3	0xbe17e1c5	-0.14832218
4	0x3e2af21b	0.16693918
5	0x3d96b375	0.073584475
6	0x3b9e2990	0.004826732
7	0xbd9935da	-0.074809745
8	0xbd529988	-0.05141595
9	0x3ddcf07d	0.10788057
10	0xbdb6cf9d	-0.08926318
11	0x3dbcb3c0	0.09213972
12	0xbcfb3143	-0.030663138
13	0xbc9a31d6	-0.018822592
14	0xbbe8abbb	-0.00710055
15	0xbdb4f795	-0.08836285
16	0xbd65117e	-0.055924885
17	0x3d80b1af	0.062838905
18	0x3df8123e	0.121128544
19	0x3da62672	0.081128016
20	0xbd5b6aab	-0.053568523
21	0x3d0bf714	0.03417118
22	0x3daa7273	0.08322611
23	0xbc23f37b	-0.010006781
24	0x3ca2cac5	0.019872079
25	0xbdd3b427	-0.10337096
26	0xbe04f726	-0.12984905
27	0xbdc2c7ec	-0.09510788
28	0x3d0385cb	0.032110017
29	0xbda5779d	-0.08079455
30	0xbd576022	-0.052581914
31	0x3de48ff8	0.11160272
32	0x3ba4207e	0.005008756
33	0x3dc565f0	0.09638584
34	0xbdc2205d	-0.09478829
35	0xbd6c5bac	-0.057704613
36	0x3df2ae68	0.118496716
37	0x3d5329b2	0.051553436
38	0x3e19516c	0.14972466
39	0xbd50c951	-0.05097324
40	0xbdb29d36	-0.08721392
41	0xbde193cb	-0.110145174
42	0xbd0a833a	-0.033816554
43	0x3e15d3fb	0.14631645
44	0x3c1ac1a9	0.009445586
45	0xbd8a4adc	-0.067525595
46	0x3df50c50	0.11965239
47	0xbce635d9	-0.028101848
48	0x3e04993d	0.12949081
49	0x3d1ad160	0.03779733
50	0xbd4805b2	-0.048833556
51	0xbd53cb8f	-0.0517078
52	0x3cb6b783	0.022304302
53	0xbd918ba4	-0.071067125
54	0x3cdaf706	0.026729118
55	0x3e453bbd	0.1926107
56	0x3e2cd13b	0.1687669
57	0xbd74073d	-0.059577215
58	0x3daaa151	0.0833155
59	0x3d9380e3	0.072023176
60	0xbd9938d3	-0.074815415
61	0x3e4788a6	0.19485721
62	0x3b4ec50f	0.0031550562
63	0xbe31feef	-0.17382406
64	0x3dc45737	0.095869474
65	0x3e2e14d4	0.17000133
66	0x3d01be88	0.031675845
67	0xbe2a8de2	-0.16655686
68	0xb9f68861	-0.00047022387
69	0xbd990681	-0.07471944
70	0xbd47cf55	-0.04878171
71	0x3dc0738c	0.09397039
72	0x3c0ea624	0.008706603
73	0x3cbd7794	0.023128308
74	0xbd576bf0	-0.05259317
75	0xbc3a25b8	-0.011361532
76	0xbdd841b0	-0.10559404
77	0xbdba77b2	-0.09104861
78	0x3d98a771	0.07453812
79	0xbc708821	-0.014680893
80	0x3dd1e63b	0.10248991
81	0xbd72195b	-0.059106212
82	0xbe1eae63	-0.15496211
83	0xbdd826c3	-0.10554268
84	0x3af91349	0.001900294
85	0xbd9b936a	-0.075964764
86	0x3d80d572	0.062907115
87	0x3d4c3243	0.04985262
88	0xbd42c126	-0.047547482
89	0x3d9204e9	0.07129843
90	0x3ddedc9d	0.108819224
91	0x3d5d77a1	0.054069165
92	0x3d8e5002	0.06948854
93	0xbdcc127d	-0.09964464
94	0x3c077f75	0.008270134
95	0xbe42704b	-0.18988149
96	0xbd87f8a0	-0.06639218
97	0x3d91ace3	0.07113054
98	0xbd194468	-0.037418753
99	0x3d279a0a	0.040918387
100	0x3d11d6c9	0.035605226
101	0xbd757a5b	-0.05993114
102	0xbccab6a7	-0.024745299
103	0x3e1e7cba	0.15477267
104	0xbe1c2b57	-0.15250908
105	0xbd4c4a12	-0.049875326
106	0x3d09a9ae	0.033609085
107	0xbdbccd57	-0.09218853
108	0xbc80e2f7	-0.015733225
109	0xbce05e82	-0.027388815
110	0x3d8fdf1d	0.07024977
111	0x3dcfeed2	0.10152973
112	0xbb794574	-0.0038035782
113	0x3ca1500c	0.01969149
114	0x3d7be7bd	0.0615003
115	0xbc59e56f	-0.01329933
116	0xbc8b4262	-0.016999427
117	0x3cdc5689	0.026896732
118	0x3e3caae4	0.18424565
119	0x3dd4176b	0.10356029
120	0xbdcf6151	-0.101259835
121	0xbdb28290	-0.08716309
122	0xbd6c9934	-0.057763293
123	0xbd64407b	-0.055725556
124	0x3d009775	0.03139444
125	0xbd718095	-0.058960516
126	0xbc0c6e29	-0.008571186
127	0x3e57db74	0.21079808
128	0xbd2900fb	-0.0412607
129	0xbb02b4c8	-0.001994418
130	0x3d201e19	0.039091203
131	0xbdb2f5dd	-0.08738301
132	0x3d2f04e7	0.042729285
133	0x3db6b575	0.08921329
134	0xbd183c2f	-0.03716677
135	0xbd3e13db	-0.046405654
136	0x3b47ebb0	0.003050547
137	0xbdc05363	-0.09390905
138	0x3ce1d69d	0.027568156
139	0xbc401911	-0.011724726
140	0xbcc8a686	-0.024493467
141	0xbd644878	-0.055733174
142	0x3df3a3f7	0.11896508
143	0xbd74cd34	-0.05976601
144	0xbd4963da	-0.04916749
145	0xbdcb5f78	-0.099303186
146	0x3e798222	0.24366048
147	0x3dc0e01f	0.09417748
148	0xbb085aff	-0.002080619
149	0x3bae1d7a	0.0053135725
150	0xbe455b55	-0.19273122
151	0x3dcde07c	0.100525826
152	0x3e1312d3	0.1436265
153	0xbded1157	-0.11575573
154	0x3c5aabaa	0.013346592
155	0xbd83e2e1	-0.06439758
156	0xbd693b06	-0.056941055
157	0x3e0d93a8	0.13825858
158	0x3ce45a6c	0.027875148
159	0xbe2b982b	-0.16757266
160	0x3becb760	0.0072240084
161	0xbbf49f78	-0.007465299
162	0xbe1a4472	-0.15065172
163	0x3d4d2084	0.050079837
164	0x3dffcda3	0.12490394
165	0xbd331931	-0.043725196
166	0x3d0cb850	0.03435546
167	0x3de10771	0.109877475
168	0xbe483029	-0.19549622
169	0xbd183dbf	-0.03716826
170	0x3d834f77	0.06411641
171	0x3d51fc9c	0.051266298
172	0xbbf14dc5	-0.007364007
173	0xbd33b1f0	-0.043870866
174	0x3c419a81	0.011816622
175	0xbd87fb83	-0.06639769
176	0x3e5c480d	0.2151186
177	0xbce43af8	-0.02786015
178	0xbe2cd4f6	-0.16878113
179	0xbe11e9ac	-0.14249295
180	0xbc57d064	-0.013172243
181	0xbdc737bd	-0.09727428
182	0x3db6d8a2	0.08928038
183	0x3d7929bb	0.060830813
184	0xbdf26e4f	-0.11837446
185	0x3cdcc4eb	0.026949367
186	0xbba7e394	-0.005123565
187	0xbd01d207	-0.03169444
188	0xbacd5e36	-0.0015668336
189	0x3d99f2b7	0.07516997
190	0xbc56ad70	-0.013102874
191	0xbdefd5b7	-0.11710685
192	0x3d871560	0.06595874
193	0x3d1e3e86	0.038633846
194	0xbd65a71b	-0.056067567
195	0xbde51690	-0.11185944
196	0x3db949c4	0.09047273
197	0x3e0512a4	0.12995392
198	0x3d5d2237	0.053987708
199	0x3cefd33a	0.029275525
200	0x3dc54896	0.09632985
201	0x3d1d41da	0.03839288
202	0x3d135da7	0.035977986
203	0xbd517ddf	-0.05114543
204	0x3d1f0dd3	0.038831543
205	0x3d31a6f8	0.043372124
206	0x3d0435b4	0.032277778
207	0xbd847055	-0.06466738
208	0x3ddaf02c	0.106903404
209	0xbcc0d0f7	-0.023537142
210	0xbc990e74	-0.01868365
211	0x3d45d10c	0.048295066
212	0xbe3d0203	-0.18457799
213	0x3dd1382f	0.10215794
214	0x3ca120b8	0.019668922
215	0xbdb7355a	-0.08945723
216	0xbb9cdf29	-0.004787345
217	0x3cc614eb	0.024179896
218	0xbcc36659	-0.023852514
219	0xbd40108f	-0.04689079
220	0xbd9d2cf9	-0.076745935
221	0x3bb15af1	0.0054124524
222	0x3d21d70d	0.03951173
223	0x3ce15d72	0.027510379
224	0xbd931e98	-0.0718357
225	0xbd827222	-0.06369425
226	0x3e20c45b	0.15699904
227	0x3da41c56	0.08013217
228	0xbb31ec56	-0.0027148924
229	0xbcf3b58f	-0.02974966
230	0x3d147572	0.036244817
231	0x3d9afacc	0.07567367
232	0xbd397e80	-0.045286655
233	0x3dd9dc5a	0.10637732
234	0xbd5eee9d	-0.054426778
235	0xbd304aa4	-0.043039933
236	0xbd2a6a68	-0.041605383
237	0xbda6a73b	-0.081373654
238	0x3d6bf58a	0.05760721
239	0x3b8b978a	0.004260008
240	0x3dbbabfa	0.09163661
241	0x3cee5e8c	0.029097818
242	0xbdbe7d23	-0.09301212
243	0xbca5896b	-0.020207128
244	0xbd9b7b51	-0.0759188
245	0xbbeb7202	-0.0071852216
246	0x3ca8ac8f	0.020590095
247	0x3d6445fa	0.055730797
248	0xbdd217ab	-0.102584206
249	0xbe237ce5	-0.15965612
250	0x3c83f4a2	0.016107861
251	0x3e5df65b	0.21676008
252	0xbd259f70	-0.040435255
253	0x3d2a2759	0.04154143
254	0x3da00f12	0.078153744
255	0x3cf7b650	0.0302383

network_body._body_endoder.seq_layers.2.bias f4 [128]
0	0x00000000	0.0
1	0x00000000	0.0
2	0x00000000	0.0
3	0x00000000	0.0
4	0x00000000	0.0
5	0x00000000	0.0
6	0x00000000	0.0
7	0x00000000	0.0
8	0x00000000	0.0
9	0x00000000	0.0
10	0x00000000	0.0
11	0x00000000	0.0
12	0x00000000	0.0
13	0x00000000	0.0
14	0x00000000	0.0
15	0x00000000	0.0
16	0x00000000	0.0
17	0x00000000	0.0
18	0x00000000	0.0
19	0x00000000	0.0
20	0x00000000	0.0
21	0x00000000	0.0
22	0x00000000	0.0
23	0x00000000	0.0
24	0x00000000	0.0
25	0x00000000	0.0
26	0x00000000	0.0
27	0x00000000	0.0
28	0x00000000	0.0
29	0x00000000	0.0
30	0x00000000	0.0
31	0x00000000	0.0
32	0x00000000	0.0
33	0x00000000	0.0
34	0x00000000	0.0
35	0x00000000	0.0
36	0x00000000	0.0
37	0x00000000	0.0
38	0x00000000	0.0
39	0x00000000	0.0
40	0x00000000	0.0
41	0x00000000	0.0
42	0x00000000	0.0
43	0x00000000	0.0
44	0x00000000	0.0
45	0x00000000	0.0
46	0x00000000	0.0
47	0x00000000	0.0
48	0x00000000	0.0
49	0x00000000	0.0
50	0x00000000	0.0
51	0x00000000	0.0
52	0x00000000	0.0
53	0x00000000	0.0
54	0x00000000	0.0
55	0x00000000	0.0
56	0x00000000	0.0
57	0x00000000	0.0
58	0x00000000	0.0
59	0x00000000	0.0
60	0x00000000	0.0
61	0x00000000	0.0
62	0x00000000	0.0
63	0x00000000	0.0
64	0x00000000	0.0
65	0x00000000	0.0
66	0x00000000	0.0
67	0x00000000	0.0
68	0x00000000	0.0
69	0x00000000	0.0
70	0x00000000	0.0
71	0x00000000	0.0
72	0x00000000	0.0
73	0x00000000	0.0
74	0x00000000	0.0
75	0x00000000	0.0
76	0x00000000	0.0
77	0x00000000	0.0
78	0x00000000	0.0
79	0x00000000	0.0
80	0x00000000	0.0
81	0x00000000	0.0
82	0x00000000	0.0
83	0x00000000	0.0
84	0x00000000	0.0
85	0x00000000	0.0
86	0x00000000	0.0
87	0x00000000	0.0
88	0x00000000	0.0
89	0x00000000	0.0
90	0x00000000	0.0
91	0x00000000	0.0
92	0x00000000	0.0
93	0x00000000	0.0
94	0x00000000	0.0
95	0x00000000	0.0
96	0x00000000	0.0
97	0x00000000	0.0
98	0x00000000	0.0
99	0x00000000	0.0
100	0x00000000	0.0
101	0x00000000	0.0
102	0x00000000	0.0
103	0x00000000	0.0
104	0x00000000	0.0
105	0x00000000	0.0
106	0x00000000	0.0
107	0x00000000	0.0
108	0x00000000	0.0
109	0x00000000	0.0
110	0x00000000	0.0
111	0x00000000	0.0
112	0x00000000	0.0
113	0x00000000	0.0
114	0x00000000	0.0
115	0x00000000	0.0
116	0x00000000	0.0
117	0x00000000	0.0
118	0x00000000	0.0
119	0x00000000	0.0
120	0x00000000	0.0
121	0x00000000	0.0
122	0x00000000	0.0
123	0x00000000	0.0
124	0x00000000	0.0
125	0x00000000	0.0
126	0x00000000	0.0
127	0x00000000	0.0

action_model._discrete_distribution.branches.0.weight f4 [1, 128]
0	0xbbf45b12	-0.0074571455
1	0x3bd4db1f	0.006495848
2	0x3bd8e91b	0.006619585
3	0x3a92d26b	0.0011201625
4	0x3c518e73	0.01279031
5	0xbc7e985d	-0.015539256
6	0xbb762cbb	-0.0037563283
7	0xb9899c1c	-0.00026246987
8	0x3c1face0	0.009745806
9	0x3c04874f	0.008088901
10	0x3bca8b53	0.0061811595
11	0xbbff574b	-0.0077923886
12	0xbc677635	-0.014127304
13	0xbc5e8c98	-0.013583325
14	0xba964799	-0.001146543
15	0x3ca72db4	0.020407535
16	0xbafe6f8f	-0.0019411909
17	0x3c8e86f7	0.01739834
18	0xb97ffb13	-0.00024412228
19	0x3b081284	0.002076299
20	0xbc84f9f6	-0.016232472
21	0xba8abcf3	-0.0010584876
22	0xbbdf81da	-0.0068208994
23	0x3aa1ea1a	0.0012353093
24	0xbc0f067a	-0.0087295715
25	0x3b9ae05c	0.0047264528
26	0x3c2eb77d	0.010663864
27	0x3c3da779	0.011575573
28	0x3c30f734	0.010801125
29	0xbc751db0	-0.014960691
30	0xbc67b2fd	-0.014141795
31	0xbcaa2bc1	-0.020772817
32	0xbb8b1a17	-0.0042450535
33	0x39264d06	0.00015859687
34	0xbb4b3cb6	-0.0031011528
35	0x3b81e865	0.003964471
36	0xbbe0684d	-0.006848371
37	0x3b83c480	0.0040212274
38	0xbb156736	-0.0022797114
39	0xbb245eb1	-0.0025080855
40	0x3b8c06c6	0.0042732684
41	0x3c043f05	0.008071666
42	0xbc12c127	-0.008957184
43	0x3c2a30a1	0.010387571
44	0xbc1e6990	-0.009668723
45	0xbc11dc18	-0.008902572
46	0xbab97f30	-0.0014152285
47	0xbb67c0f2	-0.0035362807
48	0x3b28791e	0.0025706957
49	0xbc8dc1cc	-0.017304324
50	0x3c4c4b6b	0.012469153
51	0x3c99db19	0.018781232
52	0x3c4c8c45	0.012484615
53	0x3c2aaa74	0.010416616
54	0xbc2efc9c	-0.010680344
55	0x3b4f84c0	0.0031664819
56	0x3948bb83	0.0001914334
57	0x3bc69e8e	0.0060613817
58	0x3c834e2a	0.016028482
59	0x3c05b786	0.008161431
60	0x3c12764a	0.008939335
61	0x3aee1c68	0.0018166425
62	0x3b8aeed4	0.0042398963
63	0xbc17683c	-0.00924116
64	0xbc0c064e	-0.008546425
65	0xb808c645	-3.260958e-05
66	0x3b150f2d	0.0022744641
67	0xbb88c2dd	-0.00417362
68	0xbb95ea60	-0.004575059
69	0x3ba15dfd	0.0049245344
70	0x3ad3202a	0.0016107608
71	0xbc0640aa	-0.008194128
72	0x3c1badd3	0.009501892
73	0x3c01532b	0.007893364
74	0xbc5476b0	-0.01296775
75	0x3c3bcca8	0.011462368
76	0xbbc5f5d6	-0.006041269
77	0xbb18f100	-0.0023337007
78	0x3c2bf060	0.010494322
79	0x3bc24274	0.005928332
80	0x3b6f65aa	0.0036529102
81	0x3b87698d	0.0041324557
82	0x3c06b3ef	0.00822161
83	0xbc29a031	-0.010353134
84	0x3b2f07c2	0.0026707505
85	0x3bbb4553	0.005715051
86	0xbb3d223d	-0.002885952
87	0x3ad74f30	0.0016426798
88	0xbc44b207	-0.012005336
89	0x3b98c8a2	0.004662589
90	0xbb9cd609	-0.004786257
91	0xbc0a9f03	-0.008460763
92	0xbbbb4bcb	-0.0057158223
93	0x3c2ecb58	0.010668598
94	0x3b6f9f65	0.0036563512
95	0x3b62c2f2	0.003460106
96	0xbb9b2737	-0.0047348994
97	0x3bc998d5	0.006152252
98	0x39b464e7	0.00034407453
99	0xbbc8b768	-0.0061253794
100	0xbc170033	-0.009216356
101	0x3b3bea0f	0.0028673445
102	0xbbaab97e	-0.0052101007
103	0x3c6bf697	0.014402053
104	0xbbe4ecc2	-0.0069862315
105	0x3998059f	0.00028995887
106	0xbb5e177a	-0.0033888505
107	0xbb63afaa	-0.0034742155
108	0x3c2914c8	0.010319896
109	0x3b3652c2	0.0027820324
110	0x3b5fae22	0.003413089
111	0xbc76781b	-0.015043284
112	0xbb6dca0a	-0.0036283755
113	0xbaa5c6bb	-0.0012647727
114	0xbc0fc1e7	-0.008774257
115	0x3c1a7d69	0.009429314
116	0x3c8830da	0.016624857
117	0x3bb25838	0.0054426454
118	0xba91d193	-0.001112508
119	0xbbab100a	-0.005220418
120	0xbbf4f85b	-0.0074758953
121	0xbb37df51	-0.002805669
122	0xbb9e49b6	-0.0048305644
123	0x3c525468	0.012837507
124	0x3c1337fb	0.008985515
125	0xbb8d4c4b	-0.0043120733
126	0xbc77e733	-0.015130806
127	0xbc3cdd3f	-0.011527359

network_body._body_endoder.seq_layers.0.weight f4 [128, 2]
0	0xbe3db144	-0.18524653
1	0xbe189b73	-0.14903049
2	0x3ebe7af9	0.37203196
3	0xbd600dd1	-0.054700676
4	0x3f363aa2	0.71183217
5	0xbdd6b96d	-0.10484586
6	0xbf21ccfa	-0.63203394
7	0x3d799cc3	0.060940515
8	0x3e942b58	0.2893932
9	0x3ec962aa	0.39333087
10	0x3e8e00dd	0.27735034
11	0xbe2635bf	-0.1623144
12	0xbeee1fc6	-0.46508616
13	0xbf55ce20	-0.83517647
14	0xbf6143ec	-0.87994266
15	0xbf768104	-0.9629061
16	0x3c0d2d66	0.008616781
17	0x3eb6c813	0.3569952
18	0xbd6de8fb	-0.058083516
19	0xbe81dfd6	-0.25366086
20	0x3ee7c1ba	0.4526499
21	0x3e1a5fe5	0.15075643
22	0x3f068b87	0.5255665
23	0xbf3af651	-0.730321
24	0xbf1b70fc	-0.60719275
25	0x3e2fa974	0.17154485
26	0xbe09fca9	-0.13475288
27	0xbf84b7b6	-1.0368564
28	0xbe8d0667	-0.27543947
29	0x3f041cbd	0.5160635
30	0x3d966147	0.07342773
31	0x3e0a071d	0.13479276
32	0x3fa31c62	1.2743037
33	0xbe3297cc	-0.17440718
34	0xbd434803	-0.047676098
35	0xbf42a210	-0.7602854
36	0xbf146791	-0.5797053
37	0xbe0e1338	-0.13874519
38	0x3e39af19	0.181332
39	0xbf05a961	-0.52211577
40	0xbf2a84a6	-0.66608655
41	0x3f2f3cab	0.68451947
42	0xbf7d7f00	-0.9902191
43	0xbf77209b	-0.96534127
44	0x3ef4fa22	0.47847086
45	0xbf6f641c	-0.9351213
46	0xc011a2e3	-2.2755668
47	0x3f9bb236	1.2163761
48	0xbe3f13a8	-0.18659842
49	0x3f0385be	0.5137595
50	0x3f1bd5d2	0.6087314
51	0x3e3796c8	0.17928612
52	0xbe2cac0d	-0.16862507
53	0xbf0c510b	-0.5481116
54	0x3ed68a9a	0.4190262
55	0xbfb5af3c	-1.4194102
56	0x3f9d4fa1	1.2289926
57	0x3e3626d3	0.17788248
58	0x3f2a24ca	0.66462386
59	0xbd36d019	-0.04463205
60	0xbf0d3980	-0.55165863
61	0xbf1549fe	-0.5831603
62	0x3df96006	0.12176518
63	0x3e6af8d2	0.2294648
64	0x3f5a3a6f	0.8524541
65	0x3f308567	0.68953556
66	0x3edfed4c	0.4373573
67	0x3f48d826	0.78454816
68	0xbf049482	-0.51789105
69	0xbf858d15	-1.043368
70	0xbeb54778	-0.3540609
71	0x3f182db1	0.5944472
72	0xbf024128	-0.5088067
73	0x3e5e57b1	0.21713139
74	0x3df8c436	0.12146799
75	0x3edb9d08	0.42893243
76	0x3eec3edf	0.46141717
77	0xbd067e4d	-0.032835294
78	0xbe3b2050	-0.18274045
79	0xbf4cb310	-0.7996073
80	0x3fb991c5	1.449761
81	0xbd36f0d3	-0.04466326
82	0x3fee3cf4	1.8612351
83	0x3db5ebee	0.08882891
84	0xbf9d03ad	-1.2266747
85	0x3f6a296e	0.91469467
86	0xbebf0a3a	-0.3731249
87	0xbf8c7af3	-1.0975021
88	0xbee36e7e	-0.44420236
89	0x3f5f3937	0.8719668
90	0x3f8c4c55	1.0960795
91	0xbf2e9027	-0.6818871
92	0x3f8d00c1	1.1015855
93	0x3f811ca4	1.0086865
94	0xbe2e3ace	-0.1701462
95	0xbf265712	-0.6497661
96	0xbea5752f	-0.32315966
97	0xbc74e908	-0.014948137
98	0x3fc3e51e	1.5304296
99	0xbf858b52	-1.0433142
100	0xbc8907e8	-0.016727403
101	0xbf423764	-0.7586577
102	0x3f360d37	0.71113914
103	0xbfdb1433	-1.7115539
104	0xbf9b34b4	-1.2125459
105	0xbf2985c4	-0.66219735
106	0x3da7b332	0.08188476
107	0xbf35b97d	-0.7098616
108	0xbe477ed2	-0.19481972
109	0x3f4b52d2	0.7942325
110	0x3f4b0bfd	0.7931517
111	0x3e3be902	0.18350604
112	0xbf3aa240	-0.72903824
113	0x3f466e76	0.775123
114	0xbf935c37	-1.1512517
115	0x3f7704e4	0.9649184
116	0x3d69b21b	0.05705462
117	0xbf53d0ae	-0.82740295
118	0xbe1e074b	-0.1543247
119	0x3ee1a511	0.44071248
120	0x3fad5fa8	1.3544817
121	0xbf314a0c	-0.6925361
122	0x3f11e268	0.56986094
123	0xbe7039db	-0.2345957
124	0xbf4c2e15	-0.79757816
125	0xbe0a6101	-0.13513567
126	0xbe75a06d	-0.23986979
127	0x3eabf7f1	0.33587602
128	0x3f8e6573	1.112471
129	0xbf10c211	-0.5654612
130	0xbb8f88d8	-0.0043803267
131	0xbf4b51ee	-0.7942189
132	0x3edc9355	0.43081155
133	0x3e03c8da	0.12869588
134	0xbe9fa902	-0.3118363
135	0xbc538c9f	-0.012911945
136	0xbf85638f	-1.0421008
137	0xbf388747	-0.72081417
138	0x3d975bb7	0.0739054
139	0xbf5e1bf2	-0.8676139
140	0x3f9b2a50	1.2122288
141	0xbd566e7a	-0.052351452
142	0x3cdc5988	0.02689816
143	0xbf004006	-0.5009769
144	0xbef8c592	-0.48588234
145	0xbe991ab2	-0.2990318
146	0x3d539283	0.051653396
147	0x3f15d0de	0.5852183
148	0x3c3cb18a	0.011516938
149	0x3f10083d	0.5626257
150	0xbe59054d	-0.21193428
151	0xbe39bb94	-0.18137962
152	0xbe97850a	-0.29593688
153	0xbee18215	-0.44044557
154	0x3db6d5ba	0.08927484
155	0x3e75d12f	0.24005578
156	0x3fa3d407	1.2799081
157	0x3e038a3f	0.12845705
158	0x3fd5ce16	1.6703517
159	0xbf234b60	-0.6378689
160	0x3f1526c9	0.58262306
161	0x3f9f6d96	1.2455318
162	0xbf60cad3	-0.87809485
163	0xbf303894	-0.6883633
164	0xbe5a6aa6	-0.21329746
165	0x3eefcb11	0.46834615
166	0xbeaa0780	-0.33208847
167	0x3f5c3071	0.86011416
168	0x3f445cc2	0.7670404
169	0xbdd1e1d5	-0.10248152
170	0xbf99f672	-1.2028334
171	0x3e4625e8	0.19350398
172	0xbf5db60c	-0.86605906
173	0xbed5dacb	-0.41768488
174	0x3e9ef5b9	0.31046847
175	0xbf237028	-0.6384301
176	0xbdc08037	-0.09399455
177	0x3f9e4523	1.2364849
178	0xbf0cf6e3	-0.5506422
179	0xbebec68b	-0.3726085
180	0xbe7b149e	-0.24519584
181	0x3d4b14ec	0.0495805
182	0x3ed3b352	0.41347748
183	0x3f8bd75b	1.0925096
184	0x3f09d279	0.5383678
185	0x3e2b50ec	0.16730088
186	0x3f177489	0.59162194
187	0xbe833b5d	-0.25631228
188	0x3fa28a90	1.2698536
189	0x3f317278	0.6931529
190	0xba275e58	-0.0006384603
191	0xbf7719f4	-0.96523976
192	0x3f39541c	0.72393966
193	0xbec87873	-0.39154395
194	0x3e7f046c	0.2490403
195	0xbf0c8fa1	-0.5490666
196	0xbed1f431	-0.41006616
197	0x3ec55f3d	0.38549224
198	0xbecb0f02	-0.39659888
199	0xbf226cbc	-0.63447165
200	0xbed8bed3	-0.42333087
201	0xbde9ef6f	-0.114226215
202	0xbe82bf93	-0.25536785
203	0xbf510ac0	-0.8165703
204	0xbe836796	-0.25664967
205	0x3e01dbc7	0.12681495
206	0x3f285624	0.6575644
207	0xbf03c8d1	-0.51478297
208	0x3dafea9f	0.08589672
209	0xbfb2a86e	-1.3957651
210	0x3ee13137	0.4398286
211	0xbda11588	-0.07865435
212	0x3ec460f0	0.38355207
213	0x3f213413	0.62970084
214	0xbf1f77e0	-0.6229229
215	0x3ec2ed83	0.38071832
216	0xbf0b2ddd	-0.54366857
217	0xbf6c0421	-0.921938
218	0x3d4977a2	0.049186356
219	0x3e5e7208	0.21723187
220	0x3ef4d101	0.47815707
221	0xbe90a833	-0.28253326
222	0xbe3db715	-0.18526872
223	0x3da62896	0.0811321
224	0xbe998831	-0.29986718
225	0x3d839d95	0.06426541
226	0x3f4fc9e1	0.8116742
227	0xbf93e333	-1.1553711
228	0xbef79efc	-0.48363483
229	0x3e2f02f5	0.17090972
230	0x3e1c780e	0.15280172
231	0x3ed6c653	0.41948184
232	0x3db14f63	0.0865772
233	0x3f94c1c2	1.162163
234	0xbf18fbe6	-0.59759367
235	0x3f799ceb	0.9750506
236	0xbf4ecbd0	-0.80779743
237	0xbf9af4de	-1.2105978
238	0x3e93b0ef	0.28845927
239	0x3f486a98	0.7828765
240	0xbe30c3cc	-0.1726219
241	0xbe29caa0	-0.16581202
242	0xbe81fedf	-0.25389764
243	0xbdd23e71	-0.10265816
244	0x3f3b8fd8	0.73266363
245	0xbe9f79ee	-0.31147712
246	0x3f08e671	0.53476626
247	0x3e2855d1	0.16438986
248	0xbfbb77a5	-1.4645888
249	0x3eeb992e	0.46015304
250	0x3e542805	0.20718391
251	0x400cebcb	2.2018917
252	0xbe595e2c	-0.2122733
253	0xbf70bb0c	-0.9403541
254	0xbf5e497d	-0.86830884
255	0xbec1c23e	-0.37843508

network_body._body_endoder.seq_layers.0.bias f4 [128]
0	0x00000000	0.0
1	0x00000000	0.0
2	0x00000000	0.0
3	0x00000000	0.0
4	0x00000000	0.0
5	0x00000000	0.0
6	0x00000000	0.0
7	0x00000000	0.0
8	0x00000000	0.0
9	0x00000000	0.0
10	0x00000000	0.0
11	0x00000000	0.0
12	0x00000000	0.0
13	0x00000000	0.0
14	0x00000000	0.0
15	0x00000000	0.0
16	0x00000000	0.0
17	0x00000000	0.0
18	0x00000000	0.0
19	0x00000000	0.0
20	0x00000000	0.0
21	0x00000000	0.0
22	0x00000000	0.0
23	0x00000000	0.0
24	0x00000000	0.0
25	0x00000000	0.0
26	0x00000000	0.0
27	0x00000000	0.0
28	0x00000000	0.0
29	0x00000000	0.0
30	0x00000000	0.0
31	0x00000000	0.0
32	0x00000000	0.0
33	0x00000000	0.0
34	0x00000000	0.0
35	0x00000000	0.0
36	0x00000000	0.0
37	0x00000000	0.0
38	0x00000000	0.0
39	0x00000000	0.0
40	0x00000000	0.0
41	0x00000000	0.0
42	0x00000000	0.0
43	0x00000000	0.0
44	0x00000000	0.0
45	0x00000000	0.0
46	0x00000000	0.0
47	0x00000000	0.0
48	0x00000000	0.0
49	0x00000000	0.0
50	0x00000000	0.0
51	0x00000000	0.0
52	0x00000000	0.0
53	0x00000000	0.0
54	0x00000000	0.0
55	0x00000000	0.0
56	0x00000000	0.0
57	0x00000000	0.0
58	0x00000000	0.0
59	0x00000000	0.0
60	0x00000000	0.0
61	0x00000000	0.0
62	0x00000000	0.0
63	0x00000000	0.0
64	0x00000000	0.0
65	0x00000000	0.0
66	0x00000000	0.0
67	0x00000000	0.0
68	0x00000000	0.0
69	0x00000000	0.0
70	0x00000000	0.0
71	0x00000000	0.0
72	0x00000000	0.0
73	0x00000000	0.0
74	0x00000000	0.0
75	0x00000000	0.0
76	0x00000000	0.0
77	0x00000000	0.0
78	0x00000000	0.0
79	0x00000000	0.0
80	0x00000000	0.0
81	0x00000000	0.0
82	0x00000000	0.0
83	0x00000000	0.0
84	0x00000000	0.0
85	0x00000000	0.0
86	0x00000000	0.0
87	0x00000000	0.0
88	0x00000000	0.0
89	0x00000000	0.0
90	0x00000000	0.0
91	0x00000000	0.0
92	0x00000000	0.0
93	0x00000000	0.0
94	0x00000000	0.0
95	0x00000000	0.0
96	0x00000000	0.0
97	0x00000000	0.0
98	0x00000000	0.0
99	0x00000000	0.0
100	0x00000000	0.0
101	0x00000000	0.0
102	0x00000000	0.0
103	0x00000000	0.0
104	0x00000000	0.0
105	0x00000000	0.0
106	0x00000000	0.0
107	0x00000000	0.0
108	0x00000000	0.0
109	0x00000000	0.0
110	0x00000000	0.0
111	0x00000000	0.0
112	0x00000000	0.0
113	0x00000000	0.0
114	0x00000000	0.0
115	0x00000000	0.0
116	0x00000000	0.0
117	0x00000000	0.0
118	0x00000000	0.0
119	0x00000000	0.0
120	0x00000000	0.0
121	0x00000000	0.0
122	0x00000000	0.0
123	0x00000000	0.0
124	0x00000000	0.0
125	0x00000000	0.0
126	0x00000000	0.0
127	0x00000000	0.0

network_body._body_endoder.seq_layers.2.weight f4 [128, 128]
0	0x3e73649a	0.23768845
1	0x3cbee5fc	0.023303024
2	0xbd7a1a0e	-0.061060004
3	0x3d7ec5b2	0.062200256
4	0xbda1b15f	-0.07895159
5	0x3de90614	0.113781124
6	0x3d3efacc	0.046625897
7	0x3df5a358	0.11994046
8	0xbe02d73c	-0.12777418
9	0x3ce5aec0	0.028037429
10	0xbe0bc1d4	-0.13648158
11	0x3d3ecc87	0.04658177
12	0x3be66dd3	0.007032135
13	0xbd77f9da	-0.06054101
14	0x3da9eedf	0.08297514
15	0x3dd06e17	0.10177248
16	0x3da92c6f	0.08260428
17	0xbde6571d	-0.11247084
18	0xbd205200	-0.0391407
19	0x3dd7ba9a	0.10533638
20	0x3d76d9a8	0.060266167
21	0xbdf20a35	-0.11818353
22	0x3bfc601c	0.007701887
23	0xbd98714f	-0.07443487
24	0x3d9fe3b9	0.078071065
25	0xbe13594f	-0.14389537
26	0x3d11d4fb	0.035603505
27	0xbd2f76df	-0.042837974
28	0xbd18ef77	-0.037337746
29	0x3d465d53	0.048428845
30	0xbd1417bb	-0.036155444
31	0xbd787cd5	-0.060665924
32	0xbce7bd87	-0.028288616
33	0xbd63f5cb	-0.05565433
34	0xbcb2f02a	-0.021843035
35	0xbbbc4f5e	-0.005746766
36	0x3dceb76c	0.10093579
37	0x3cbd57f1	0.023113223
38	0xbcf21ba6	-0.0295542
39	0x3de9a6cf	0.11408769
40	0xbd160635	-0.036627013
41	0xbd8a980a	-0.067672804
42	0xbd2c9669	-0.04213563
43	0xbd39399d	-0.04522096
44	0xbceeb014	-0.029136695
45	0x3dc91908	0.098192275
46	0x3e4f4def	0.20244573
47	0xbe241fa5	-0.16027696
48	0x3e0d8dcb	0.13823621
49	0xbdde4ba6	-0.108542725
50	0xbe0e1ce0	-0.13878202
51	0xbd9c8bf6	-0.07643883
52	0x3e2b5c9c	0.16734546
53	0x3df111ad	0.117709495
54	0x3d0a45ac	0.03375785
55	0xbd4e3296	-0.05034121
56	0x3dac97b3	0.08427372
57	0x3e0e9256	0.1392301
58	0x3d90a323	0.07062366
59	0xbd11b419	-0.035572145
60	0x3dd38737	0.103285246
61	0xbdd0d424	-0.101967126
62	0xbd4ed1d4	-0.050493076
63	0xbce1465d	-0.027499372
64	0x3e2a3bbf	0.16624354
65	0x3dda300c	0.106536955
66	0x3e0e9b64	0.13926464
67	0xbd57fc9a	-0.052731134
68	0x3e041379	0.12898053
69	0xbd2565f8	-0.040380448
70	0xbc8b4d6b	-0.01700469
71	0xbd8722b5	-0.06598417
72	0x3c7777ac	0.015104216
73	0x3c801d82	0.01563907
74	0xbd08972e	-0.0333473
75	0xbd016da4	-0.031598702
76	0x3d6c17b9	0.05763981
77	0x3de4c627	0.11170607
78	0x3d57aee7	0.052657034
79	0xbc062625	-0.008187805
80	0x3dc58751	0.0964495
81	0x3ccef0f1	0.025261374
82	0xbd9bb618	-0.07603091
83	0xbba661f4	-0.005077595
84	0x3d297886	0.041374706
85	0xbe66fdd8	-0.22557771
86	0xbbad14a6	-0.0052820025
87	0xbca1fc8d	-0.019773746
88	0x3bdd19e7	0.0067474726
89	0xbd8b8a78	-0.0681352
90	0x3dd0f52e	0.10203014
91	0xbc37d3df	-0.011219948
92	0x3d12effa	0.03587339
93	0xbd946f39	-0.072477765
94	0x3d2b85a9	0.041875515
95	0xbb70f3e0	-0.0036766455
96	0x3c7b36cb	0.015332888
97	0xba329364	-0.0006812124
98	0x3da081e6	0.07837276
99	0xbdb4a59e	-0.088206515
100	0xbdb583aa	-0.088630036
101	0xbcebd06c	-0.028785907
102	0x3b99cbd9	0.00469349
103	0xbe1cafda	-0.15301457
104	0xbe04775e	-0.1293616
105	0x3e09a9ca	0.13443676
106	0xbd892937	-0.06697314
107	0x3d060c1b	0.03272639
108	0x3d160c7b	0.036632996
109	0xbcf6a1ca	-0.030106444
110	0xbcedd89f	-0.029033957
111	0xbd4d63ad	-0.050143886
112	0xbdeef494	-0.11667743
113	0xbcaf4d53	-0.021399176
114	0x3da8d8ae	0.08244453
115	0xbdf834b1	-0.12119425
116	0x3d297154	0.041367844
117	0x3d3402f3	0.043948125
118	0xbe2d8dd1	-0.1694863
119	0x3daeb61a	0.08530827
120	0xbd7524ac	-0.059849426
121	0x3d07d4ef	0.033162054
122	0xbdbc835e	-0.09204744
123	0xbc88331a	-0.01662593
124	0x3d86b565	0.06577567
125	0xbdeb1cfd	-0.114801385
126	0x3cfd4b70	0.03091976
127	0xbbdf013a	-0.006805566
128	0xbbbc8044	-0.005752595
129	0xbd967b6c	-0.073477596
130	0x3c4a4b69	0.012347081
131	0xbe2b25c2	-0.16713622
132	0xbd3241bf	-0.04351973
133	0x3dbfa728	0.093580544
134	0xbe182cc0	-0.14860821
135	0x3c80cef2	0.01572368
136	0xbcd6dfda	-0.026229788
137	0x3ded3da9	0.11584026
138	0xbd28a638	-0.041174144
139	0x3e8272f4	0.25478327
140	0x3d287588	0.04112771
141	0xbbe40b7e	-0.006959378
142	0x3d24d949	0.04024628
143	0xbd193033	-0.037399482
144	0x3e3ffab7	0.18747984
145	0xbd613429	-0.054981384
146	0xbe002ab4	-0.1251629
147	0xbd4dffda	-0.050292827
148	0xbcc00fbb	-0.023445
149	0x3d5ef1a2	0.054429658
150	0x3e09d2b7	0.13459288
151	0x3db505ab	0.08838972
152	0xbd20dc7b	-0.039272767
153	0xbe2990a8	-0.16559088
154	0xbdd35783	-0.10319426
155	0xbdc838d8	-0.09776467
156	0x3dbcf612	0.09226622
157	0xbda2faa1	-0.0795796
158	0xbdde1ed6	-0.10845725
159	0x3c931977	0.017956479
160	0x3e6be556	0.23036703
161	0x3e2207cc	0.15823287
162	0xbe16d39b	-0.14729159
163	0x3da6919a	0.0813324
164	0xbdc20246	-0.0947309
165	0xbe10efc3	-0.14153962
166	0xbc097c6e	-0.008391483
167	0xbd781479	-0.0605664
168	0x3d40ad6a	0.04704038
169	0x3e1a0bae	0.15043518
170	0x3d73f6fb	0.05956171
171	0xbdbb94bf	-0.091592304
172	0xbc1510c7	-0.009098238
173	0xbd0f458f	-0.034978446
174	0x3c39e034	0.011344958
175	0xbda053b8	-0.07828468
176	0x3cea9a65	0.028638074
177	0x3e0fb38e	0.14033338
178	0x3d45a0ed	0.048249174
179	0xbe130fa5	-0.14361437
180	0x3d8f1886	0.06987099
181	0xbdb23cf6	-0.087030336
182	0xbd695348	-0.05696419
183	0x3de8a869	0.11360247
184	0x3d89bc92	0.0672542
185	0x3c9a0a03	0.018803602
186	0x3da071c9	0.07834203
187	0x3daf139a	0.085486606
188	0xbca4042f	-0.020021526
189	0xbca71c24	-0.02039916
190	0xbe3cbb7c	-0.18430895
191	0x3e26cd65	0.1628929
192	0x3e282e96	0.16424021
193	0x3dddf2ea	0.10837348
194	0x3da644a4	0.08118561
195	0xbdb49253	-0.08816972
196	0xbcf0366b	-0.029322824
197	0xbd5198ae	-0.051170997
198	0xbd9aea80	-0.075642586
199	0xbce50529	-0.027956562
200	0x3c6c5bc3	0.014426175
201	0x3db91b6f	0.09038436
202	0xbe016e33	-0.12639694
203	0xbe0071ea	-0.12543455
204	0x3df0108d	0.11721907
205	0xbd855dde	-0.06512044
206	0xbd87dcc7	-0.06633907
207	0x3d8ceaca	0.0688072
208	0xbbe3ce43	-0.0069520785
209	0xbe14b23e	-0.14521119
210	0x3de24a3c	0.11049315
211	0xbd95ae56	-0.073086426
212	0x3e7cfba9	0.24705376
213	0x3d94a1d5	0.072574295
214	0x3ddc3cf1	0.10753811
215	0xbdbdc2dc	-0.09265682
216	0xbdfcca9e	-0.12343334
217	0xbc8d9ed9	-0.017287659
218	0x3bfc1b0f	0.0076936553
219	0x3e1ab2aa	0.15107217
220	0x3d5030e1	0.050827865
221	0xbdc4f290	-0.096165776
222	0x3cb063eb	0.02153202
223	0xbc8a7e24	-0.016905852
224	0x3c05c0b3	0.008163619
225	0x3cd545d7	0.026034279
226	0x3de0063d	0.1093869
227	0xbc8aefa9	-0.016959982
228	0x3ccba19a	0.024857331
229	0xbda74de0	-0.0816915
230	0xbce635e4	-0.028101869
231	0x3dd3fc27	0.103508286
232	0x3e68a4da	0.22719136
233	0x3e486d7f	0.1957302
234	0xbdf5a27a	-0.119938806
235	0xbe291f53	-0.16515855
236	0xbdd8c32e	-0.105841026
237	0xbe2bf5f8	-0.16793048
238	0xbccd7822	-0.025081698
239	0x3dd0a093	0.10186877
240	0x3d9cf1ff	0.076633446
241	0xbdfa0d04	-0.12209514
242	0x3d3b548b	0.045734923
243	0x3d396bcd	0.045268822
244	0xbc5bf55d	-0.013425198
245	0x3e04345e	0.12910601
246	0xbd94d8ed	-0.07267938
247	0xbc0cdf90	-0.008598223
248	0xbd0556f5	-0.03255363
249	0x3d16caa5	0.03681435
250	0x3d1d5640	0.038412333
251	0x3d8b7908	0.06810194
252	0x3d41947f	0.047260758
253	0xbdf92ac0	-0.12166357
254	0xbacd98d4	-0.0015685805
255	0xbdbd4107	-0.092409186

network_body._body_endoder.seq_layers.2.bias f4 [128]
0	0x00000000	0.0
1	0x00000000	0.0
2	0x00000000	0.0
3	0x00000000	0.0
4	0x00000000	0.0
5	0x00000000	0.0
6	0x00000000	0.0
7	0x00000000	0.0
8	0x00000000	0.0
9	0x00000000	0.0
10	0x00000000	0.0
11	0x00000000	0.0
12	0x00000000	0.0
13	0x00000000	0.0
14	0x00000000	0.0
15	0x00000000	0.0
16	0x00000000	0.0
17	0x00000000	0.0
18	0x00000000	0.0
19	0x00000000	0.0
20	0x00000000	0.0
21	0x00000000	0.0
22	0x00000000	0.0
23	0x00000000	0.0
24	0x00000000	0.0
25	0x00000000	0.0
26	0x00000000	0.0
27	0x00000000	0.0
28	0x00000000	0.0
29	0x00000000	0.0
30	0x00000000	0.0
31	0x00000000	0.0
32	0x00000000	0.0
33	0x00000000	0.0
34	0x00000000	0.0
35	0x00000000	0.0
36	0x00000000	0.0
37	0x00000000	0.0
38	0x00000000	0.0
39	0x00000000	0.0
40	0x00000000	0.0
41	0x00000000	0.0
42	0x00000000	0.0
43	0x00000000	0.0
44	0x00000000	0.0
45	0x00000000	0.0
46	0x00000000	0.0
47	0x00000000	0.0
48	0x00000000	0.0
49	0x00000000	0.0
50	0x00000000	0.0
51	0x00000000	0.0
52	0x00000000	0.0
53	0x00000000	0.0
54	0x00000000	0.0
55	0x00000000	0.0
56	0x00000000	0.0
57	0x00000000	0.0
58	0x00000000	0.0
59	0x00000000	0.0
60	0x00000000	0.0
61	0x00000000	0.0
62	0x00000000	0.0
63	0x00000000	0.0
64	0x00000000	0.0
65	0x00000000	0.0
66	0x00000000	0.0
67	0x00000000	0.0
68	0x00000000	0.0
69	0x00000000	0.0
70	0x00000000	0.0
71	0x00000000	0.0
72	0x00000000	0.0
73	0x00000000	0.0
74	0x00000000	0.0
75	0x00000000	0.0
76	0x00000000	0.0
77	0x00000000	0.0
78	0x00000000	0.0
79	0x00000000	0.0
80	0x00000000	0.0
81	0x00000000	0.0
82	0x00000000	0.0
83	0x00000000	0.0
84	0x00000000	0.0
85	0x00000000	0.0
86	0x00000000	0.0
87	0x00000000	0.0
88	0x00000000	0.0
89	0x00000000	0.0
90	0x00000000	0.0
91	0x00000000	0.0
92	0x00000000	0.0
93	0x00000000	0.0
94	0x00000000	0.0
95	0x00000000	0.0
96	0x00000000	0.0
97	0x00000000	0.0
98	0x00000000	0.0
99	0x00000000	0.0
100	0x00000000	0.0
101	0x00000000	0.0
102	0x00000000	0.0
103	0x00000000	0.0
104	0x00000000	0.0
105	0x00000000	0.0
106	0x00000000	0.0
107	0x00000000	0.0
108	0x00000000	0.0
109	0x00000000	0.0
110	0x00000000	0.0
111	0x00000000	0.0
112	0x00000000	0.0
113	0x00000000	0.0
114	0x00000000	0.0
115	0x00000000	0.0
116	0x00000000	0.0
117	0x00000000	0.0
118	0x00000000	0.0
119	0x00000000	0.0
120	0x00000000	0.0
121	0x00000000	0.0
122	0x00000000	0.0
123	0x00000000	0.0
124	0x00000000	0.0
125	0x00000000	0.0
126	0x00000000	0.0
127	0x00000000	0.0

value_heads.value_heads.extrinsic.weight f4 [1, 128]
0	0x3d09c423	0.033634316
1	0x3c44ef61	0.012019963
2	0x3df7d905	0.1210194
3	0x3e228a0e	0.15872976
4	0xbddb4099	-0.107056804
5	0x3daceb11	0.08443273
6	0xbd80ee21	-0.062954195
7	0xbcb6fe32	-0.022338007
8	0xbe07867d	-0.13234897
9	0xbe262a6b	-0.16227119
10	0xbe24f25c	-0.16108078
11	0xbe458e69	-0.19292606
12	0xbd79a9cb	-0.060952943
13	0x3e054464	0.1301437
14	0xbda96e26	-0.08272962
15	0xbdf5bb32	-0.11998595
16	0xbdda1265	-0.1064804
17	0xbd137b19	-0.036006067
18	0x3e3d4dde	0.18486735
19	0x3d42cd0c	0.04755883
20	0xbd96297d	-0.07332132
21	0xbe1b1893	-0.15146093
22	0x3d584793	0.052802633
23	0x3dd297e3	0.10282876
24	0xbc118d2f	-0.008883758
25	0x3e548301	0.20753099
26	0xbdb99097	-0.090607814
27	0x3e4de361	0.2010627
28	0x3d6a5a76	0.057215177
29	0xbe4984aa	-0.19679514
30	0xba72d7c0	-0.00092637166
31	0x3e51e3e4	0.2049709
32	0x3e19b3a4	0.15009934
33	0x3e05d0b3	0.13067894
34	0xbb1bae59	-0.0023755042
35	0x3d4db621	0.05022252
36	0xbc74220b	-0.014900695
37	0xbceeea7b	-0.029164543
38	0x3d9c606b	0.07635578
39	0xbe11e07a	-0.14245787
40	0x3e101dca	0.14073864
41	0xbdc9c15d	-0.09851334
42	0x3e261725	0.16219766
43	0x3caf56e7	0.021403743
44	0xbd8b4423	-0.068001054
45	0x3e085eb1	0.13317372
46	0x3dbfb2f7	0.09360307
47	0x3cd1feca	0.025634188
48	0xbd92c9b3	-0.07167377
49	0x3e11e452	0.14247254
50	0x3e268cc0	0.1626463
51	0x3dcd5048	0.10025078
52	0xbd0824a5	-0.033238072
53	0xbe18e23a	-0.14930049
54	0x3e12438b	0.14283578
55	0xbdfa4812	-0.122207776
56	0xbe57d8f6	-0.21078858
57	0xbc247336	-0.010037234
58	0x3df85030	0.121246696
59	0x3cf895ac	0.030344807
60	0x3deb34b0	0.11484659
61	0x3e44e9b5	0.19229777
62	0xbbea08dc	-0.0071421694
63	0x3e4357ef	0.19076513
64	0xbe242ca8	-0.1603266
65	0xbd0e01a3	-0.03466953
66	0x3e381cb7	0.17979704
67	0x3da737d2	0.08164944
68	0xbe1bc699	-0.15212478
69	0xbcc515b0	-0.024058193
70	0xbda649d8	-0.08119553
71	0x3e11ba6a	0.14231268
72	0x3bf2de01	0.007411719
73	0x3d2af8b4	0.041741088
74	0xbd340803	-0.043952953
75	0xbd0553c5	-0.032550592
76	0x3e30123f	0.1719446
77	0x3cca06b4	0.0246614
78	0x3e5acc99	0.2136711
79	0x3e23419e	0.15943
80	0xbe0d9ad3	-0.13828592
81	0xbe003f7c	-0.12524217
82	0x3e03ce8a	0.12871757
83	0x3e23a04a	0.15979114
84	0xbdc4820b	-0.09595116
85	0xbd47e6f4	-0.04880424
86	0x3e0a4621	0.13503315
87	0xbd1f723d	-0.038927305
88	0x3dafe63d	0.08588836
89	0xba553130	-0.00081326347
90	0xbe3344b5	-0.17506678
91	0xbd94067b	-0.072277986
92	0x3d0cf819	0.034416292
93	0xbe517fc0	-0.20458889
94	0xbd6181cd	-0.05505543
95	0xbdbe1e45	-0.09283117
96	0xbbaf9b60	-0.0053590983
97	0xbe04d7ee	-0.12972996
98	0xbdd35698	-0.10319251
99	0xbdd17731	-0.10227812
100	0x3d82b7cd	0.063827135
101	0xbcad7f60	-0.021178901
102	0xbd740bae	-0.05958145
103	0x3c4d236d	0.012520653
104	0x3e2082d5	0.15674908
105	0xbd772168	-0.060334593
106	0xbd018843	-0.03162409
107	0xb9a6faa3	-0.00031848726
108	0x3e24126c	0.16022652
109	0xbe145f18	-0.144894
110	0x3cd511b3	0.026009416
111	0xbe25d275	-0.16193564
112	0xbdd5c4e6	-0.10437946
113	0xbe0d38c8	-0.13791192
114	0x3d6b2d39	0.057416175
115	0x3d54b4e2	0.051930316
116	0x3d36b23a	0.044603564
117	0x3e0e6a29	0.13907684
118	0xbcfa7ec0	-0.030578017
119	0x3ba6e20d	0.0050928653
120	0xbced2dd5	-0.028952518
121	0x3e326dd6	0.17424712
122	0xbd94f8a0	-0.07273984
123	0x3e0733d5	0.13203366
124	0xbe4beb81	-0.19914056
125	0xbe237248	-0.15961564
126	0xbe28f2bc	-0.16498846
127	0x3dd311d5	0.103061356
