results/playeragent1/PlayerAgent/PlayerAgent-7576.onnx (onnx, 72614 bytes, 4 tensors)

network_body._body_endoder.seq_layers.0.weight f4 [128, 2]
0	0x3f10fe1b	0.56637734
1	0xbe08aa22	-0.1334615
2	0x3ec7f121	0.39051154
3	0x3ec4ba4e	0.3842339
4	0xbf78fdcf	-0.9726228
5	0x3f541a60	0.82852745
6	0xbee9f5a9	-0.45695236
7	0x3e8c4a8b	0.27400622
8	0xbe83f865	-0.25775447
9	0x3f6ad525	0.9173148
10	0xbeccb757	-0.39983627
11	0xbdc3ffde	-0.09570287
12	0xbfa20b36	-1.2659671
13	0xbecddf5a	-0.40209466
14	0xbf05dcba	-0.52289927
15	0x3f3cea23	0.73794764
16	0x400b9b06	2.1813369
17	0x3f247f8b	0.64257115
18	0xbe8b4f63	-0.27209005
19	0xbe82fdb3	-0.25584182
20	0xbf006bc2	-0.50164425
21	0xbe8f5c81	-0.28000262
22	0x3f435244	0.762974
23	0x3d68a867	0.056801226
24	0x3ecbdf6e	0.398189
25	0xbd81d8f8	-0.06340212
26	0xbf01c1cf	-0.50686353
27	0x3f389387	0.7210011
28	0xbf5a662e	-0.85312164
29	0x3e71f3e4	0.23628193
30	0xbed13176	-0.40858048
31	0x3ec8bb4e	0.39205402
32	0x3f36c36a	0.7139193
33	0x3d44c715	0.048041422
34	0xbd286d9c	-0.041120157
35	0xbfa6bb5f	-1.3025931
36	0xbeb3bfe1	-0.3510733
37	0xbf0af185	-0.5427478
38	0xbe9549b0	-0.29157782
39	0x3cebdd8c	0.028792165
40	0xbe90bbe2	-0.28268343
41	0x3e8178c5	0.25287452
42	0x3f4da96a	0.8033663
43	0xbf8e8900	-1.1135559
44	0x3e9453ad	0.2897009
45	0x3ddfb932	0.10923995
46	0x3d903ee3	0.07043245
47	0xbf655a4a	-0.89590895
48	0xbee7ee0e	-0.4529881
49	0xbeba7e18	-0.36424327
50	0x3ef48636	0.47758645
51	0xbee44e4b	-0.44590983
52	0x3f3ca559	0.736898
53	0xbfe9852d	-1.8243767
54	0x3ee11ccf	0.43967292
55	0x3e8de32d	0.27712384
56	0x3f771f16	0.9653181
57	0xbf236cf3	-0.6383812
58	0x3f8d897b	1.1057581
59	0xbf2c423b	-0.6728856
60	0x3e9b5ee0	0.3034582
61	0xbdea80a1	-0.11450315
62	0xbfb2d052	-1.3969824
63	0xbec895e2	-0.39176852
64	0x3ed93f70	0.4243121
65	0xbf1b4b54	-0.60661817
66	0x3f2836f2	0.6570884
67	0xbf22587c	-0.63416266
68	0x3f152967	0.582663
69	0x3ee334f8	0.4437635
70	0x3d8833f1	0.06650532
71	0x3f1f43b1	0.62212664
72	0x3f0bf3d3	0.5466892
73	0x3dd2e8db	0.1029832
74	0x3ef857f4	0.48504603
75	0xbe9081f2	-0.2822414
76	0xbf7f47c2	-0.9971887
77	0xbf9ddc3d	-1.2332836
78	0x3c8ddb37	0.017316444
79	0x3e953832	0.29144436
80	0x3f80a2f4	1.0049729
81	0x3ee5c8dd	0.4487981
82	0x3f9b7511	1.2145101
83	0xbf4ad72c	-0.79234576
84	0xbf4826cd	-0.78184205
85	0x3e98ac17	0.29818794
86	0x3f2b645d	0.6695002
87	0x3ed7e13a	0.42164022
88	0xbf50b523	-0.8152639
89	0x3c1aad6c	0.009440761
90	0xbede2ba0	-0.43392658
91	0x3fddcfe2	1.7329066
92	0x3f4631b5	0.77419597
93	0xbec9f796	-0.39446706
94	0x3d615a9d	0.055018056
95	0x3f2c6bb1	0.67351824
96	0xbf1bf09e	-0.6091403
97	0xbe17f551	-0.14839675
98	0x3f2cc235	0.67483836
99	0xbdad29d8	-0.08455247
100	0x3f4ca783	0.799431
101	0x3d98f7e7	0.074691586
102	0x3c9f9b84	0.019483335
103	0xbecbba46	-0.39790553
104	0xbd1c7e2e	-0.03820627
105	0x3fba93eb	1.4576391
106	0x3ee99f7c	0.4562949
107	0xbeac900d	-0.33703652
108	0x3e9c6d3c	0.3055209
109	0xbda48c57	-0.0803458
110	0x3f9e696d	1.2375923
111	0x3eff7936	0.49897164
112	0x3f5da208	0.86575365
113	0xbeefb5f1	-0.46818498
114	0x3f144dcd	0.57931215
115	0xbe870f20	-0.26378727
116	0x3eaaf4c3	0.33389863
117	0x3ee43cae	0.44577545
118	0xbf7129b1	-0.9420424
119	0xbc3f7934	-0.011686612
120	0xbe8744bf	-0.26419637
121	0x3f29df48	0.66356325
122	0x3f23a9cc	0.63930964
123	0x3e40c123	0.18823676
124	0xbfc60be6	-1.5472381
125	0xbdf45ed2	-0.11932148
126	0xbf02248c	-0.50837016
127	0x3f1d309d	0.61402303
128	0x3e771689	0.2412969
129	0xbea25620	-0.31706333
130	0x3f9381fe	1.1524045
131	0xbee0c996	-0.43903798
132	0xbee99aa3	-0.4562579
133	0xbe973aff	-0.29537198
134	0xbdb8f79b	-0.09031602
135	0xbea08b56	-0.31356305
136	0xbec29971	-0.38007692
137	0xbfab34ea	-1.3375523
138	0x3f640673	0.8907234
139	0x3e8a40fa	0.27002698
140	0xbcc462db	-0.02397292
141	0x3e3000ff	0.1718788
142	0xbf890298	-1.0703917
143	0x3c851464	0.016245075
144	0x3f8375be	1.0270307
145	0x3ee3edfd	0.44517508
146	0x3f61769d	0.88071615
147	0x3ada484a	0.0016653624
148	0x3ed979e4	0.42475808
149	0xbb6632ee	-0.0035125571
150	0x3f8f44a2	1.119282
151	0x3e1a26fb	0.15053932
152	0x3d868db6	0.06569998
153	0xbf081f02	-0.53172314
154	0x3e44bfc0	0.19213772
155	0x3ec800d5	0.39063135
156	0x3e236931	0.15958096
157	0x3e5d83b3	0.2163227
158	0x3ea9bfde	0.33154196
159	0x3e2b8d45	0.16753109
160	0x3e52b1fa	0.20575705
161	0xc00b84ca	-2.1799798
162	0xbf8037ca	-1.0017025
163	0x3ec2cea3	0.38048276
164	0xbf0e0344	-0.5547373
165	0x3d8aa167	0.06769066
166	0x3e8fc907	0.2808306
167	0x3ff0f988	1.8826151
168	0x3dee1735	0.1162552
169	0xbf0a85ec	-0.541106
170	0x3dc4319e	0.09579776
171	0x3f0c8d5a	0.54903185
172	0xbf96f59a	-1.1793702
173	0x3f5267ad	0.82189447
174	0xbebc0b1e	-0.36727232
175	0xbecd7e86	-0.40135592
176	0x3eb1f6ab	0.34758505
177	0x3f421169	0.75807816
178	0xbf5bcbdc	-0.8585794
179	0x3ff545a1	1.9161874
180	0x3fa8f3c0	1.3199387
181	0x3e3cf6a8	0.18453467
182	0xbf803cb0	-1.001852
183	0x3fba4158	1.4551191
184	0xbe92b3d6	-0.2865283
185	0xbf0b9ca3	-0.54535884
186	0xbf1e94b3	-0.61945647
187	0xbf05f883	-0.52332324
188	0x3f5ec715	0.87022525
189	0xbe9f0c1f	-0.31063935
190	0x3ea60a58	0.32429767
191	0xbe905be0	-0.28195095
192	0xbefd8418	-0.49514842
193	0xbeed6b38	-0.46370864
194	0xbe07b6fd	-0.13253398
195	0x3f91d91b	1.139438
196	0xbd13bdcb	-0.036069673
197	0x3fa7e879	1.311782
198	0x3ec08670	0.37602568
199	0x3f4cf0fb	0.80055207
200	0x3e66b64b	0.22530477
201	0xbd24fd91	-0.040280882
202	0x3f98e968	1.194623
203	0xbe6154a8	-0.2200495
204	0xbf352952	-0.70766175
205	0x3e6314ef	0.22175954
206	0x3fafe9b6	1.3743198
207	0x3d99283f	0.074783795
208	0xbecd0604	-0.40043652
209	0x3f5c37e8	0.86022806
210	0x3ed7c9c8	0.42146134
211	0x3e894668	0.26811528
212	0xbec2ca7d	-0.3804511
213	0x3f5d95bb	0.86556596
214	0x3f1f28fa	0.621719
215	0x3f95ce49	1.1703578
216	0xbea7fa9c	-0.32808387
217	0x3f2118fe	0.6292876
218	0x3f53e93f	0.8277778
219	0xbe11219b	-0.14172976
220	0xbf593dba	-0.8485981
221	0xbf001b51	-0.5004168
222	0x3ebea3da	0.37234384
223	0xbf3262d3	-0.69682044
224	0xbfa6611b	-1.2998384
225	0x3ec828e4	0.39093697
226	0xbf159cd9	-0.58442456
227	0xbe2db605	-0.16963966
228	0x3f356aa4	0.70865846
229	0xbf0b4284	-0.5439837
230	0x3e2fdbec	0.17173737
231	0x3e902b4e	0.2815804
232	0xbe5d3fbd	-0.21606345
233	0xbefa094f	-0.48835227
234	0xbe8f7ce5	-0.28024974
235	0x3ec95a10	0.39326525
236	0xbfa6d3ce	-1.3033388
237	0x3f835b37	1.0262212
238	0x3e93032b	0.28713354
239	0x3f62541a	0.8840958
240	0xbf9da289	-1.2315227
241	0x3ec3385e	0.38128942
242	0xbd3554f8	-0.044270486
243	0xbf72ec9c	-0.9489229
244	0xbd6072ce	-0.054796986
245	0x3f002f90	0.50072575
246	0x3f1d6140	0.61476517
247	0x3f9e976f	1.2389964
248	0x3f12ead3	0.57389563
249	0x3f603099	0.87574154
250	0xbf7e4bd0	-0.9933443
251	0xbed36f17	-0.41295692
252	0xbe3ff679	-0.18746366
253	0xbeb4ebef	-0.35336253
254	0x3eddb6f2	0.4330364
255	0x3e2f150c	0.17097872

network_body._body_endoder.seq_layers.0.bias f4 [128]
0	0x00000000	0.0
1	0x00000000	0.0
2	0x00000000	0.0
3	0x00000000	0.0
4	0x00000000	0.0
5	0x00000000	0.0
6	0x00000000	0.0
7	0x00000000	0.0
8	0x00000000	0.0
9	0x00000000	0.0
10	0x00000000	0.0
11	0x00000000	0.0
12	0x00000000	0.0
13	0x00000000	0.0
14	0x00000000	0.0
15	0x00000000	0.0
16	0x00000000	0.0
17	0x00000000	0.0
18	0x00000000	0.0
19	0x00000000	0.0
20	0x00000000	0.0
21	0x00000000	0.0
22	0x00000000	0.0
23	0x00000000	0.0
24	0x00000000	0.0
25	0x00000000	0.0
26	0x00000000	0.0
27	0x00000000	0.0
28	0x00000000	0.0
29	0x00000000	0.0
30	0x00000000	0.0
31	0x00000000	0.0
32	0x00000000	0.0
33	0x00000000	0.0
34	0x00000000	0.0
35	0x00000000	0.0
36	0x00000000	0.0
37	0x00000000	0.0
38	0x00000000	0.0
39	0x00000000	0.0
40	0x00000000	0.0
41	0x00000000	0.0
42	0x00000000	0.0
43	0x00000000	0.0
44	0x00000000	0.0
45	0x00000000	0.0
46	0x00000000	0.0
47	0x00000000	0.0
48	0x00000000	0.0
49	0x00000000	0.0
50	0x00000000	0.0
51	0x00000000	0.0
52	0x00000000	0.0
53	0x00000000	0.0
54	0x00000000	0.0
55	0x00000000	0.0
56	0x00000000	0.0
57	0x00000000	0.0
58	0x00000000	0.0
59	0x00000000	0.0
60	0x00000000	0.0
61	0x00000000	0.0
62	0x00000000	0.0
63	0x00000000	0.0
64	0x00000000	0.0
65	0x00000000	0.0
66	0x00000000	0.0
67	0x00000000	0.0
68	0x00000000	0.0
69	0x00000000	0.0
70	0x00000000	0.0
71	0x00000000	0.0
72	0x00000000	0.0
73	0x00000000	0.0
74	0x00000000	0.0
75	0x00000000	0.0
76	0x00000000	0.0
77	0x00000000	0.0
78	0x00000000	0.0
79	0x00000000	0.0
80	0x00000000	0.0
81	0x00000000	0.0
82	0x00000000	0.0
83	0x00000000	0.0
84	0x00000000	0.0
85	0x00000000	0.0
86	0x00000000	0.0
87	0x00000000	0.0
88	0x00000000	0.0
89	0x00000000	0.0
90	0x00000000	0.0
91	0x00000000	0.0
92	0x00000000	0.0
93	0x00000000	0.0
94	0x00000000	0.0
95	0x00000000	0.0
96	0x00000000	0.0
97	0x00000000	0.0
98	0x00000000	0.0
99	0x00000000	0.0
100	0x00000000	0.0
101	0x00000000	0.0
102	0x00000000	0.0
103	0x00000000	0.0
104	0x00000000	0.0
105	0x00000000	0.0
106	0x00000000	0.0
107	0x00000000	0.0
108	0x00000000	0.0
109	0x00000000	0.0
110	0x00000000	0.0
111	0x00000000	0.0
112	0x00000000	0.0
113	0x00000000	0.0
114	0x00000000	0.0
115	0x00000000	0.0
116	0x00000000	0.0
117	0x00000000	0.0
118	0x00000000	0.0
119	0x00000000	0.0
120	0x00000000	0.0
121	0x00000000	0.0
122	0x00000000	0.0
123	0x00000000	0.0
124	0x00000000	0.0
125	0x00000000	0.0
126	0x00000000	0.0
127	0x00000000	0.0

network_body._body_endoder.seq_layers.2.weight f4 [128, 128]
0	0x3d89a71c	0.06721327
1	0xbe4c5c9d	-0.19957204
2	0x3be963e7	0.007122505
3	0xbe17e1c5	-0.14832218
4	0x3e2af21b	0.16693918
5	0x3d96b375	0.073584475
6	0x3b9e2990	0.004826732
7	0xbd9935da	-0.074809745
8	0xbd529988	-0.05141595
9	0x3ddcf07d	0.10788057
10	0xbdb6cf9d	-0.08926318
11	0x3dbcb3c0	0.09213972
12	0xbcfb3143	-0.030663138
13	0xbc9a31d6	-0.018822592
14	0xbbe8abbb	-0.00710055
15	0xbdb4f795	-0.08836285
16	0xbd65117e	-0.055924885
17	0x3d80b1af	0.062838905
18	0x3df8123e	0.121128544
19	0x3da62672	0.081128016
20	0xbd5b6aab	-0.053568523
21	0x3d0bf714	0.03417118
22	0x3daa7273	0.08322611
23	0xbc23f37b	-0.010006781
24	0x3ca2cac5	0.019872079
25	0xbdd3b427	-0.10337096
26	0xbe04f726	-0.12984905
27	0xbdc2c7ec	-0.09510788
28	0x3d0385cb	0.032110017
29	0xbda5779d	-0.08079455
30	0xbd576022	-0.052581914
31	0x3de48ff8	0.11160272
32	0x3ba4207e	0.005008756
33	0x3dc565f0	0.09638584
34	0xbdc2205d	-0.09478829
35	0xbd6c5bac	-0.057704613
36	0x3df2ae68	0.118496716
37	0x3d5329b2	0.051553436
38	0x3e19516c	0.14972466
39	0xbd50c951	-0.05097324
40	0xbdb29d36	-0.08721392
41	0xbde193cb	-0.110145174
42	0xbd0a833a	-0.033816554
43	0x3e15d3fb	0.14631645
44	0x3c1ac1a9	0.009445586
45	0xbd8a4adc	-0.067525595
46	0x3df50c50	0.11965239
47	0xbce635d9	-0.028101848
48	0x3e04993d	0.12949081
49	0x3d1ad160	0.03779733
50	0xbd4805b2	-0.048833556
51	0xbd53cb8f	-0.0517078
52	0x3cb6b783	0.022304302
53	0xbd918ba4	-0.071067125
54	0x3cdaf706	0.026729118
55	0x3e453bbd	0.1926107
56	0x3e2cd13b	0.1687669
57	0xbd74073d	-0.059577215
58	0x3daaa151	0.0833155
59	0x3d9380e3	0.072023176
60	0xbd9938d3	-0.074815415
61	0x3e4788a6	0.19485721
62	0x3b4ec50f	0.0031550562
63	0xbe31feef	-0.17382406
64	0x3dc45737	0.095869474
65	0x3e2e14d4	0.17000133
66	0x3d01be88	0.031675845
67	0xbe2a8de2	-0.16655686
68	0xb9f68861	-0.00047022387
69	0xbd990681	-0.07471944
70	0xbd47cf55	-0.04878171
71	0x3dc0738c	0.09397039
72	0x3c0ea624	0.008706603
73	0x3cbd7794	0.023128308
74	0xbd576bf0	-0.05259317
75	0xbc3a25b8	-0.011361532
76	0xbdd841b0	-0.10559404
77	0xbdba77b2	-0.09104861
78	0x3d98a771	0.07453812
79	0xbc708821	-0.014680893
80	0x3dd1e63b	0.10248991
81	0xbd72195b	-0.059106212
82	0xbe1eae63	-0.15496211
83	0xbdd826c3	-0.10554268
84	0x3af91349	0.001900294
85	0xbd9b936a	-0.075964764
86	0x3d80d572	0.062907115
87	0x3d4c3243	0.04985262
88	0xbd42c126	-0.047547482
89	0x3d9204e9	0.07129843
90	0x3ddedc9d	0.108819224
91	0x3d5d77a1	0.054069165
92	0x3d8e5002	0.06948854
93	0xbdcc127d	-0.09964464
94	0x3c077f75	0.008270134
95	0xbe42704b	-0.18988149
96	0xbd87f8a0	-0.06639218
97	0x3d91ace3	0.07113054
98	0xbd194468	-0.037418753
99	0x3d279a0a	0.040918387
100	0x3d11d6c9	0.035605226
101	0xbd757a5b	-0.05993114
102	0xbccab6a7	-0.024745299
103	0x3e1e7cba	0.15477267
104	0xbe1c2b57	-0.15250908
105	0xbd4c4a12	-0.049875326
106	0x3d09a9ae	0.033609085
107	0xbdbccd57	-0.09218853
108	0xbc80e2f7	-0.015733225
109	0xbce05e82	-0.027388815
110	0x3d8fdf1d	0.07024977
111	0x3dcfeed2	0.10152973
112	0xbb794574	-0.0038035782
113	0x3ca1500c	0.01969149
114	0x3d7be7bd	0.0615003
115	0xbc59e56f	-0.01329933
116	0xbc8b4262	-0.016999427
117	0x3cdc5689	0.026896732
118	0x3e3caae4	0.18424565
119	0x3dd4176b	0.10356029
120	0xbdcf6151	-0.101259835
121	0xbdb28290	-0.08716309
122	0xbd6c9934	-0.057763293
123	0xbd64407b	-0.055725556
124	0x3d009775	0.03139444
125	0xbd718095	-0.058960516
126	0xbc0c6e29	-0.008571186
127	0x3e57db74	0.21079808
128	0xbd2900fb	-0.0412607
129	0xbb02b4c8	-0.001994418
130	0x3d201e19	0.039091203
131	0xbdb2f5dd	-0.08738301
132	0x3d2f04e7	0.042729285
133	0x3db6b575	0.08921329
134	0xbd183c2f	-0.03716677
135	0xbd3e13db	-0.046405654
136	0x3b47ebb0	0.003050547
137	0xbdc05363	-0.09390905
138	0x3ce1d69d	0.027568156
139	0xbc401911	-0.011724726
140	0xbcc8a686	-0.024493467
141	0xbd644878	-0.055733174
142	0x3df3a3f7	0.11896508
143	0xbd74cd34	-0.05976601
144	0xbd4963da	-0.04916749
145	0xbdcb5f78	-0.099303186
146	0x3e798222	0.24366048
147	0x3dc0e01f	0.09417748
148	0xbb085aff	-0.002080619
149	0x3bae1d7a	0.0053135725
150	0xbe455b55	-0.19273122
151	0x3dcde07c	0.100525826
152	0x3e1312d3	0.1436265
153	0xbded1157	-0.11575573
154	0x3c5aabaa	0.013346592
155	0xbd83e2e1	-0.06439758
156	0xbd693b06	-0.056941055
157	0x3e0d93a8	0.13825858
158	0x3ce45a6c	0.027875148
159	0xbe2b982b	-0.16757266
160	0x3becb760	0.0072240084
161	0xbbf49f78	-0.007465299
162	0xbe1a4472	-0.15065172
163	0x3d4d2084	0.050079837
164	0x3dffcda3	0.12490394
165	0xbd331931	-0.043725196
166	0x3d0cb850	0.03435546
167	0x3de10771	0.109877475
168	0xbe483029	-0.19549622
169	0xbd183dbf	-0.03716826
170	0x3d834f77	0.06411641
171	0x3d51fc9c	0.051266298
172	0xbbf14dc5	-0.007364007
173	0xbd33b1f0	-0.043870866
174	0x3c419a81	0.011816622
175	0xbd87fb83	-0.06639769
176	0x3e5c480d	0.2151186
177	0xbce43af8	-0.02786015
178	0xbe2cd4f6	-0.16878113
179	0xbe11e9ac	-0.14249295
180	0xbc57d064	-0.013172243
181	0xbdc737bd	-0.09727428
182	0x3db6d8a2	0.08928038
183	0x3d7929bb	0.060830813
184	0xbdf26e4f	-0.11837446
185	0x3cdcc4eb	0.026949367
186	0xbba7e394	-0.005123565
187	0xbd01d207	-0.03169444
188	0xbacd5e36	-0.0015668336
189	0x3d99f2b7	0.07516997
190	0xbc56ad70	-0.013102874
191	0xbdefd5b7	-0.11710685
192	0x3d871560	0.06595874
193	0x3d1e3e86	0.038633846
194	0xbd65a71b	-0.056067567
195	0xbde51690	-0.11185944
196	0x3db949c4	0.09047273
197	0x3e0512a4	0.12995392
198	0x3d5d2237	0.053987708
199	0x3cefd33a	0.029275525
200	0x3dc54896	0.09632985
201	0x3d1d41da	0.03839288
202	0x3d135da7	0.035977986
203	0xbd517ddf	-0.05114543
204	0x3d1f0dd3	0.038831543
205	0x3d31a6f8	0.043372124
206	0x3d0435b4	0.032277778
207	0xbd847055	-0.06466738
208	0x3ddaf02c	0.106903404
209	0xbcc0d0f7	-0.023537142
210	0xbc990e74	-0.01868365
211	0x3d45d10c	0.048295066
212	0xbe3d0203	-0.18457799
213	0x3dd1382f	0.10215794
214	0x3ca120b8	0.019668922
215	0xbdb7355a	-0.08945723
216	0xbb9cdf29	-0.004787345
217	0x3cc614eb	0.024179896
218	0xbcc36659	-0.023852514
219	0xbd40108f	-0.04689079
220	0xbd9d2cf9	-0.076745935
221	0x3bb15af1	0.0054124524
222	0x3d21d70d	0.03951173
223	0x3ce15d72	0.027510379
224	0xbd931e98	-0.0718357
225	0xbd827222	-0.06369425
226	0x3e20c45b	0.15699904
227	0x3da41c56	0.08013217
228	0xbb31ec56	-0.0027148924
229	0xbcf3b58f	-0.02974966
230	0x3d147572	0.036244817
231	0x3d9afacc	0.07567367
232	0xbd397e80	-0.045286655
233	0x3dd9dc5a	0.10637732
234	0xbd5eee9d	-0.054426778
235	0xbd304aa4	-0.043039933
236	0xbd2a6a68	-0.041605383
237	0xbda6a73b	-0.081373654
238	0x3d6bf58a	0.05760721
239	0x3b8b978a	0.004260008
240	0x3dbbabfa	0.09163661
241	0x3cee5e8c	0.029097818
242	0xbdbe7d23	-0.09301212
243	0xbca5896b	-0.020207128
244	0xbd9b7b51	-0.0759188
245	0xbbeb7202	-0.0071852216
246	0x3ca8ac8f	0.020590095
247	0x3d6445fa	0.055730797
248	0xbdd217ab	-0.102584206
249	0xbe237ce5	-0.15965612
250	0x3c83f4a2	0.016107861
251	0x3e5df65b	0.21676008
252	0xbd259f70	-0.040435255
253	0x3d2a2759	0.04154143
254	0x3da00f12	0.078153744
255	0x3cf7b650	0.0302383

action_model._discrete_distribution.branches.0.weight f4 [1, 128]
0	0xbbf45b12	-0.0074571455
1	0x3bd4db1f	0.006495848
2	0x3bd8e91b	0.006619585
3	0x3a92d26b	0.0011201625
4	0x3c518e73	0.01279031
5	0xbc7e985d	-0.015539256
6	0xbb762cbb	-0.0037563283
7	0xb9899c1c	-0.00026246987
8	0x3c1face0	0.009745806
9	0x3c04874f	0.008088901
10	0x3bca8b53	0.0061811595
11	0xbbff574b	-0.0077923886
12	0xbc677635	-0.014127304
13	0xbc5e8c98	-0.013583325
14	0xba964799	-0.001146543
15	0x3ca72db4	0.020407535
16	0xbafe6f8f	-0.0019411909
17	0x3c8e86f7	0.01739834
18	0xb97ffb13	-0.00024412228
19	0x3b081284	0.002076299
20	0xbc84f9f6	-0.016232472
21	0xba8abcf3	-0.0010584876
22	0xbbdf81da	-0.0068208994
23	0x3aa1ea1a	0.0012353093
24	0xbc0f067a	-0.0087295715
25	0x3b9ae05c	0.0047264528
26	0x3c2eb77d	0.010663864
27	0x3c3da779	0.011575573
28	0x3c30f734	0.010801125
29	0xbc751db0	-0.014960691
30	0xbc67b2fd	-0.014141795
31	0xbcaa2bc1	-0.020772817
32	0xbb8b1a17	-0.0042450535
33	0x39264d06	0.00015859687
34	0xbb4b3cb6	-0.0031011528
35	0x3b81e865	0.003964471
36	0xbbe0684d	-0.006848371
37	0x3b83c480	0.0040212274
38	0xbb156736	-0.0022797114
39	0xbb245eb1	-0.0025080855
40	0x3b8c06c6	0.0042732684
41	0x3c043f05	0.008071666
42	0xbc12c127	-0.008957184
43	0x3c2a30a1	0.010387571
44	0xbc1e6990	-0.009668723
45	0xbc11dc18	-0.008902572
46	0xbab97f30	-0.0014152285
47	0xbb67c0f2	-0.0035362807
48	0x3b28791e	0.0025706957
49	0xbc8dc1cc	-0.017304324
50	0x3c4c4b6b	0.012469153
51	0x3c99db19	0.018781232
52	0x3c4c8c45	0.012484615
53	0x3c2aaa74	0.010416616
54	0xbc2efc9c	-0.010680344
55	0x3b4f84c0	0.0031664819
56	0x3948bb83	0.0001914334
57	0x3bc69e8e	0.0060613817
58	0x3c834e2a	0.016028482
59	0x3c05b786	0.008161431
60	0x3c12764a	0.008939335
61	0x3aee1c68	0.0018166425
62	0x3b8aeed4	0.0042398963
63	0xbc17683c	-0.00924116
64	0xbc0c064e	-0.008546425
65	0xb808c645	-3.260958e-05
66	0x3b150f2d	0.0022744641
67	0xbb88c2dd	-0.00417362
68	0xbb95ea60	-0.004575059
69	0x3ba15dfd	0.0049245344
70	0x3ad3202a	0.0016107608
71	0xbc0640aa	-0.008194128
72	0x3c1badd3	0.009501892
73	0x3c01532b	0.007893364
74	0xbc5476b0	-0.01296775
75	0x3c3bcca8	0.011462368
76	0xbbc5f5d6	-0.006041269
77	0xbb18f100	-0.0023337007
78	0x3c2bf060	0.010494322
79	0x3bc24274	0.005928332
80	0x3b6f65aa	0.0036529102
81	0x3b87698d	0.0041324557
82	0x3c06b3ef	0.00822161
83	0xbc29a031	-0.010353134
84	0x3b2f07c2	0.0026707505
85	0x3bbb4553	0.005715051
86	0xbb3d223d	-0.002885952
87	0x3ad74f30	0.0016426798
88	0xbc44b207	-0.012005336
89	0x3b98c8a2	0.004662589
90	0xbb9cd609	-0.004786257
91	0xbc0a9f03	-0.008460763
92	0xbbbb4bcb	-0.0057158223
93	0x3c2ecb58	0.010668598
94	0x3b6f9f65	0.0036563512
95	0x3b62c2f2	0.003460106
96	0xbb9b2737	-0.0047348994
97	0x3bc998d5	0.006152252
98	0x39b464e7	0.00034407453
99	0xbbc8b768	-0.0061253794
100	0xbc170033	-0.009216356
101	0x3b3bea0f	0.0028673445
102	0xbbaab97e	-0.0052101007
103	0x3c6bf697	0.014402053
104	0xbbe4ecc2	-0.0069862315
105	0x3998059f	0.00028995887
106	0xbb5e177a	-0.0033888505
107	0xbb63afaa	-0.0034742155
108	0x3c2914c8	0.010319896
109	0x3b3652c2	0.0027820324
110	0x3b5fae22	0.003413089
111	0xbc76781b	-0.015043284
112	0xbb6dca0a	-0.0036283755
113	0xbaa5c6bb	-0.0012647727
114	0xbc0fc1e7	-0.008774257
115	0x3c1a7d69	0.009429314
116	0x3c8830da	0.016624857
117	0x3bb25838	0.0054426454
118	0xba91d193	-0.001112508
119	0xbbab100a	-0.005220418
120	0xbbf4f85b	-0.0074758953
121	0xbb37df51	-0.002805669
122	0xbb9e49b6	-0.0048305644
123	0x3c525468	0.012837507
124	0x3c1337fb	0.008985515
125	0xbb8d4c4b	-0.0043120733
126	0xbc77e733	-0.015130806
127	0xbc3cdd3f	-0.011527359
