results/playeragent1/PlayerAgent/PlayerAgent-8288.onnx (onnx, 542675 bytes, 11 tensors)

discrete_act_size_vector f4 [1, 2]
3.0 2.0
00000000: 0000 4040 0000 0040

network_body._body_endoder.seq_layers.0.weight f4 [256, 2]
0.99127537 -0.20395827 0.9006408 0.8894489 0.705749 -0.52257985 -0.615056 -0.64266366
0.58856916 0.35336745 -0.5220641 0.85673803 0.60300463 0.0641794 -1.4587396 0.38392925
-0.71541226 0.18792182 0.23126271 0.2560068 -0.8359884 -0.25082374 -0.73745906 0.21801563
-0.19080234 0.9226998 -0.080641784 0.25487226 -0.54670906 0.24705833 -0.5321377 1.7954246
-0.42874333 -0.07183884 -0.44754925 0.5742078 0.43935 0.95928013 1.0034698 2.1860807
0.7392763 0.08798348 -0.052367564 -0.61789113 -1.2763234 0.47646895 0.06579701 0.17778562
0.82222015 -0.54977417 0.48555067 -0.5112084 -1.0535424 0.10602045 -0.7403964 0.43901363
0.011841576 0.82195646 -0.56217694 0.60060245 0.08247449 0.74710244 0.42529345 0.47377527
0.8404123 0.07584427 -0.516106 0.73469114 0.26300555 -0.5813983 1.3055762 0.106160976
0.54450816 0.20228295 0.33760116 0.31984183 -1.3576057 1.1827676 0.5789032 -0.03392042
-0.01892106 -0.6376818 0.3193764 -0.51860386 0.3541624 -0.54371774 0.5859313 0.09849303
-0.22084641 -0.48603335 1.0623047 -0.2318788 0.30595297 -1.0883411 -0.0101702055 -0.038905777
-0.79955864 0.24194632 0.17044123 0.20783843 0.5034485 -1.2265016 -0.9595421 1.0295106
0.82147735 0.1949058 1.2120142 -0.15281455 0.7784889 -0.06410582 -0.7040047 0.31893462
0.09832873 0.29321644 -0.26286238 0.3913388 0.13285223 -0.021489002 -0.4862918 0.14981925
0.30165458 -0.3846623 0.7516191 0.87329954 -1.2835113 -2.230906 0.12724438 -0.27055252
0.34559417 0.285459 0.12780257 0.801646 -0.7498475 -1.1321609 0.26993302 -0.71108675
0.7894268 -0.67417306 1.0321574 0.44459888 -0.74222887 0.3998928 -0.12949905 -0.55221516
0.5905851 -0.73250496 -0.17233628 -0.5068747 0.9445821 0.4132876 0.36747137 -0.19971316
-0.0414171 0.17006919 -0.4337953 1.307249 -0.15976053 -1.8017037 0.7578505 -1.960734
0.75695753 0.69434613 -0.36392 1.6460721 0.24166806 -0.9116188 -0.15091598 1.0005314
1.5614537 -0.18116115 1.2572961 0.6676586 -1.5253167 1.088197 0.20767269 -0.10844115
-0.9874983 0.65529925 -1.1799492 -0.6116376 -1.6834668 0.7640038 -0.44001254 -0.5778751
-0.7581328 -0.06966692 -0.8235092 -0.6844495 -0.13644189 -1.1070915 1.3993188 0.65659547
0.033545546 -0.16150364 -0.13713917 0.6719141 -0.27100703 0.40079573 0.4584969 0.21461035
0.73261476 -0.4706419 0.15685458 0.47755945 -0.59444636 -0.1896728 -0.34207636 -0.60279584
0.83198684 -0.53958774 0.94077027 0.17824554 -0.22496521 -1.4416329 -0.60110766 0.82928586
-0.7439127 0.14903033 1.3875791 0.38283598 -0.4045786 -1.2355058 0.058142457 0.0063162926
0.8294562 0.32037908 0.62431806 0.5807548 0.024996396 0.39447296 0.063208446 0.28495353
1.1852188 -0.41223267 0.6533778 0.12776385 0.70195556 -0.047533914 -0.009007025 -0.53906935
-0.8486437 -0.11896762 -1.2495399 0.6356248 -0.13153476 -0.35490775 -0.21803574 0.91992474
-0.44168472 0.3574377 -0.1441143 -0.09379155 -0.83650595 -0.19213915 0.9872071 -0.26794815
00000000: 39c4 7d3f 70da 50be 6590 663f ecb2 633f
00000010: f7ab 343f cbc7 05bf 4f74 1dbf 9b85 24bf
00000020: 78ac 163f 94ec b43e fea5 05bf 2f53 5b3f
00000030: 835e 1a3f 7d70 833d fbb7 babf 6092 c43e
00000040: 4225 37bf 946e 403e 22d0 6c3e 5313 833e
00000050: 5603 56bf f86b 80be 1eca 3cbf 7d3f 5f3e
00000060: b061 43be 0e36 6c3f 8527 a5bd 9e7e 823e
00000070: 20f5 0bbf dcfc 7c3e 2d3a 08bf 79d0 e53f
00000080: 3f84 dbbe 3e20 93bd 2d25 e5be 48ff 123f
00000090: 7cf2 e03e 6293 753f b371 803f bfe8 0b40
000000a0: 3641 3d3f af30 b43d 5f7f 56bd 1d2e 1ebf
000000b0: 915e a3bf bdf3 f33e 95c0 863d 6f0d 363e
000000c0: 057d 523f 00be 0cbf 199a f83e 8ede 02bf
000000d0: 7ada 86bf 4021 d93d 9e8a 3dbf 65c6 e03e
000000e0: 2b03 423c bd6b 523f d4ea 0fbf 15c1 193f
000000f0: 63e8 a83d 1b42 3f3f 10c0 d93e ac92 f23e
00000100: 4325 573f 3e54 9b3d 861f 04bf b814 3c3f
00000110: aaa8 863e 85d6 14bf 1f1d a73f ed6a d93d
00000120: e364 0b3f 4323 4f3e 0fda ac3e 4fc2 a33e
00000130: 06c6 adbf ee64 973f 0033 143f 23f0 0abd
00000140: 5700 9bbc 1d3f 23bf 4e85 a33e 39c3 04bf
00000150: c654 b53e 1631 0bbf 98ff 153f b7b6 c93d
00000160: 9025 62be 5dd9 f8be 9af9 873f a371 6dbe
00000170: dea5 9c3e c34e 8bbf efa0 26bc aa5b 1fbd
00000180: e0af 4cbf c7c0 773e 2588 2e3e 99d3 543e
00000190: 00e2 003f 01fe 9cbf 8da4 75bf 01c7 833f
000001a0: 574c 523f 6395 473e 4823 9b3f 6b7b 1cbe
000001b0: 0c4b 473f ea49 83bd a739 34bf 664b a33e
000001c0: 9360 c93d 7720 963e e695 86be 8f5d c83e
000001d0: 6a0a 083e b409 b0bc 3dfb f8be 386a 193e
000001e0: 7872 9a3e 75f2 c4be 1c6a 403f 8f90 5f3f
000001f0: 194a a4bf 2ac7 0ec0 5a4c 023e dc85 8abe
00000200: b8f1 b03e af27 923e adde 023e ac38 4d3f
00000210: 01f6 3fbf a6ea 90bf a934 8a3e c809 36bf
00000220: e017 4a3f 9b96 2cbf bc1d 843f 77a2 e33e
00000230: b602 3ebf c0be cc3e 669b 04be f95d 0dbf
00000240: 9630 173f 7285 3bbf ec78 30be 8ac2 01bf
00000250: 22d0 713f 6f9a d33e 3525 bc3e 9b81 4cbe
00000260: faa4 29bd 9e26 2e3e 6b1a debe ef53 a73f
00000270: 4498 23be 3a9e e6bf 7e02 423f 55f9 fabf
00000280: f8c7 413f abc0 313f b953 babe 7eb2 d23f
00000290: d577 773e da5f 69bf b889 1abe 6a11 803f
000002a0: b7dd c73f 4f82 39be 14ef a03f adeb 2a3f
000002b0: 943d c3bf 0a4a 8b3f 26a8 543e 6516 debd
000002c0: b0cc 7cbf b1c1 273f 9308 97bf 4894 1cbf
000002d0: d77b d7bf c195 433f 5349 e1be 9fef 13bf
000002e0: fe14 42bf 88ad 8ebd 80d1 52bf 1538 2fbf
000002f0: 6cb7 0bbe 2db5 8dbf e11c b33f a416 283f
00000300: 0e67 093d 3661 25be 366e 0cbe 9002 2c3f
00000310: 6fc1 8abe 1935 cd3e 1bc0 ea3e d1c2 5b3e
00000320: a48c 3b3f faf7 f0be 7d9e 203e ac82 f43e
00000330: a32d 18bf 9639 42be a224 afbe d450 1abf
00000340: 17fd 543f 6c22 0abf 52d6 703f 0086 363e
00000350: 485d 66be 6d87 b8bf 31e2 19bf 144c 543f
00000360: 1071 3ebf 689b 183e 319c b13f 1403 c43e
00000370: ed24 cfbe 0e25 9ebf c926 6e3d e7f8 ce3b
00000380: 3e57 543f ba08 a43e 4fd3 1f3f 59ac 143f
00000390: 3ec5 cc3c 5cf8 c93e 6e73 813d 6ee5 913e
000003a0: 40b5 973f 2910 d3be c443 273f 87d4 023e
000003b0: 5cb3 333f ecb2 42bd 3392 13bc 7300 0abf
000003c0: b740 59bf 4ca5 f3bd ecf0 9fbf 4fb8 223f
000003d0: 0cb1 06be 78b6 b5be c344 5fbe 3080 6b3f
000003e0: 8024 e2be 1302 b73e b392 13be c915 c0bd
000003f0: 4125 56bf 20c0 44be 9bb9 7c3f 8030 89be

network_body._body_endoder.seq_layers.0.bias f4 [256]
-0.0026239336 0.0041454346 -0.0036341187 0.0010010632 -0.0068276483 0.0013637628 0.001768861 0.0031290548
-0.0036701302 0.010069149 -0.0027725643 -0.0024656225 0.014464736 -0.010636252 0.0040383055 0.000106215
-0.0007716258 -0.013959564 0.020985994 0.019104807 -0.0016470887 -0.008875038 0.0014845975 0.0053009177
-0.009263398 -0.00295338 -0.00019556134 -0.0035951887 -0.0069732233 -0.0006660412 0.005901363 0.014946064
-0.0024856927 0.0019557066 -0.009206126 -0.00953488 0.0010283829 0.0069058146 -0.000925217 -0.0023461713
-0.0031624401 -0.001446104 -0.005595558 -0.0025965853 0.0032314486 -0.0023967416 -0.00027091888 -0.0022405656
-0.0022386054 0.010174821 -0.0057629705 0.005091517 -0.0032883913 -0.008032028 -0.002498127 -0.005309552
0.0060964325 0.0030728208 -0.00038885273 0.0064880257 -0.001308513 0.02789892 0.0017922929 -0.0025066826
-0.0018608257 0.00013600287 0.0058165505 0.0014945406 -0.0057853106 0.0018499956 -0.0011798508 -0.0019949335
-0.0008313608 0.00089899893 0.0003432906 -0.007402199 0.0013297292 -0.0011096084 -0.003959516 -0.0041508195
0.0008424895 0.0069991965 -0.005952077 -0.0015652911 -0.005642154 0.0018659096 -0.0007626633 -0.0033364205
0.004727933 0.043292664 0.0017839179 0.0048216395 0.0027348425 0.00349131 -0.002233106 0.007927344
0.0015712985 -0.0019804311 0.006167563 -0.002446349 -0.0021288043 0.0013617693 -0.000831256 -0.005178568
-0.0043952405 -0.002836195 7.6395954e-05 -0.00092770025 -0.008181253 -0.0023788663 -0.008097335 0.0026339768
0.0007920507 0.004037841 -0.0008803951 0.000887389 -0.0030225492 -0.0056777857 -0.009405105 -0.00025695056
0.0015426283 -0.00359794 -0.002763287 -0.00476036 0.022962635 -0.0030974357 8.628498e-05 -0.0031648865
-0.0027405545 -0.0028860304 -0.0048483703 -0.0046597533 0.0026391183 0.002276698 -0.0051768394 -0.0012725394
0.0074360818 -0.0028182666 0.0019480722 -0.000532253 0.008885332 -0.0031485432 -0.0005060327 -0.003594471
-0.01464081 0.00306921 -0.0042490424 -0.009693243 0.011802911 -0.0027226906 -0.002936515 -0.010398277
-0.010653696 0.0026702534 -0.007264495 -0.0028078454 0.0002581121 -0.0021638821 0.003098729 0.023877604
-0.0066340575 0.0027558946 -0.0029884975 0.0031035414 -0.008128061 -0.0016534425 -0.010081838 -0.0070315716
-0.0057030926 0.0018813758 0.007845885 -0.004539474 -0.004832449 0.005999714 0.0016780229 -0.0012911803
-0.0056768623 0.0010761475 -0.005822379 0.0009898803 0.00067573844 -0.022601362 0.0010704425 -0.0015175634
-0.0063490737 -0.002542602 -0.0029850684 -0.00039878895 -0.0035139907 0.0005510282 -0.006173006 -0.0033757114
0.0028860222 -0.004176323 -8.377437e-05 -0.0024746545 -0.01781816 -0.0035408735 -0.0024868306 -0.0022705202
-0.006539871 -0.001194234 0.0035652455 0.008195904 0.018268162 0.0020034022 -0.0038188938 -0.0023859888
-0.005182323 -0.003851197 -0.0022330529 0.008127091 0.005091464 -0.005044397 0.0025247028 -0.004528579
0.0010445277 -0.00281025 -0.0018755873 0.0028090635 0.005997158 -0.003405969 0.019936914 0.004384619
0.0013962812 -0.004184236 -0.009477076 -0.002532713 -0.0007941922 -0.0033514719 0.0022967234 -0.0008420838
-0.0026659644 -0.0068448195 -0.0042145904 0.0076662395 -0.0033625646 -0.0020054094 -0.0023584857 0.002449138
0.016476097 0.008879688 -0.000115431554 -0.0030593215 -0.005462731 0.002524427 0.0006702947 -0.0037879006
0.03852051 -0.005250013 -0.0062695453 -0.0029147214 -0.005295524 -0.020374319 -0.00044188532 0.0041953935
00000000: 4df6 2bbb 6dd6 873b 652a 6ebb 1b36 833a
00000010: 77ba dfbb 49c0 b23a 20d9 e73a d410 4d3b
00000020: 9186 70bb 12f9 243c e9b3 35bb 4896 21bb
00000030: 80fd 6c3c ad43 2ebc c353 843b bebf de38
00000040: ee46 4aba a8b6 64bc d2ea ab3c af81 9c3c
00000050: 20e3 d7ba 9b68 11bc d396 c23a 52b3 ad3b
00000060: 82c5 17bc 7f8d 41bb 990f 4db9 429d 6bbb
00000070: a37f e4bb 4599 2eba 3960 c13b 56e0 743c
00000080: 01e7 22bb 502b 003b 4bd5 16bc 2f38 1cbc
00000090: ceca 863a 2c4a e23b 438a 72ba 39c2 19bb
000000a0: f140 4fbb 338b bdba f15a b7bb 792b 2abb
000000b0: b6c6 533b a712 1dbb 1e0a 8eb9 74d6 12bb
000000c0: 91b5 12bb 4bb4 263c 4dd7 bcbb bed6 a63b
000000d0: 0d82 57bb c498 03bc 9eb7 23bb c0fb adbb
000000e0: 95c4 c73b 6161 493b eede cbb9 8199 d43b
000000f0: 6982 abba 478c e43c 5feb ea3a 2847 24bb
00000100: f3e6 f3ba fe9b 0e39 c398 be3b 76e4 c33a
00000110: b492 bdbb 8d7b f23a 39a5 9aba 6ebd 02bb
00000120: aeef 59ba ccaa 6b3a affb b339 258e f2bb
00000130: 4f4a ae3a 4870 91ba d4be 81bb 9903 88bb
00000140: 83da 5c3a 8459 e53b a409 c3bb 742a cdba
00000150: d1e1 b8bb 8991 f43a 78ed 47ba d9a7 5abb
00000160: c7ec 9a3b a653 313d 5ad2 e93a d8fe 9d3b
00000170: 0b3b 333b 76ce 643b 4d59 12bb b1e1 013c
00000180: 07f4 cd3a 1fca 01bb 4519 ca3b ed52 20bb
00000190: 6983 0bbb 657d b23a a5e8 59ba fab0 a9bb
000001a0: f305 90bb 75df 39bb c436 a038 e930 73ba
000001b0: aa0a 06bc c1e6 1bbb afaa 04bc cc9e 2c3b
000001c0: 9fa1 4f3a de4f 843b 51ca 66ba ab9f 683a
000001d0: f615 46bb b80c babb df17 1abc 52b7 86b9
000001e0: 0432 ca3a 6bcb 6bbb 4318 35bb cbfc 9bbb
000001f0: 231c bc3c 59fe 4abb e5f3 b438 fc69 4fbb
00000200: e09a 33bb 8e23 3dbb 14df 9ebb d8b0 98bb
00000210: 0ff5 2c3b a734 153b 7aa2 a9bb 56cb a6ba
00000220: 60aa f33b abb2 38bb 7556 ff3a e586 0bba
00000230: c993 113c ca57 4ebb 48a7 04ba 3791 6bbb
00000240: 02e0 6fbc cd24 493b 8d3b 8bbb 68d0 1ebc
00000250: ff60 413c 2b6f 32bb 8c72 40bb 895d 2abc
00000260: d78c 2ebc 6bff 2e3b 000b eebb d403 38bb
00000270: 3853 8739 ebcf 0dbb 0c14 4b3b f79a c33c
00000280: 8262 d9bb 3d9c 343b abda 43bb c964 4b3b
00000290: 8f2b 05bc 53b8 d8ba 4b2e 25bc 1969 e6bb
000002a0: 02e1 babb 7f98 f63a 078c 003c debf 94bb
000002b0: 8559 9ebb 4099 c43b 1bf1 db3a d23c a9ba
000002c0: f904 babb 850d 8d3a a8c9 bebb dfbe 813a
000002d0: 0a24 313a 7e26 b9bc 174e 8c3a fae8 c6ba
000002e0: e40b d0bb c8a1 26bb 23a1 43bb 8c14 d1b9
000002f0: fb4a 66bb e072 103a ed46 cabb 0a3b 5dbb
00000300: 6b23 3d3b 89d9 88bb 06b0 afb8 d02d 22bb
00000310: 64f7 91bc 000e 68bb 18fa 22bb 02cd 14bb
00000320: 6a4c d6bb d887 9cba e5a6 693b 1d48 063c
00000330: 1da7 953c 834b 033b 6846 7abb 405e 1cbb
00000340: 7ad0 a9bb 5d64 7cbb 6958 12bb 7e27 053c
00000350: 4cd6 a63b 784b a5bb 7c75 253b 7964 94bb
00000360: 89e8 883a 2c2c 38bb 44d6 f5ba 4418 383b
00000370: cf83 c43b ad36 5fbb bd52 a33c daac 8f3b
00000380: 6c03 b73a ea1b 89bb bd45 1bbc e0fb 25bb
00000390: 5631 50ba 5ea4 5bbb a084 163b 4abf 5cba
000003a0: 76b7 2ebb 824a e0bb 8c1a 8abb 1435 fb3b
000003b0: 795e 5cbb 306d 03bb d390 1abb b881 203b
000003c0: e1f8 863c 1c7c 113c d813 f2b8 e67e 48bb
000003d0: b500 b3bb db70 253b b7b6 2f3a 6d3e 78bb
000003e0: afc7 1d3d 4d08 acbb c270 cdbb e904 3fbb
000003f0: 1386 adbb 0be8 a6bc d8ac e7b9 8379 893b

network_body._body_endoder.seq_layers.2.weight f4 [256, 256]
0.05022364 -0.020453947 -0.05145131 -0.099410504 -0.09656316 0.021878118 -0.036032572 0.005095479
0.018060932 -0.16192918 0.07724687 -0.01554978 -0.08689138 -0.013903216 0.06733552 -0.09620918
0.00918536 -0.0072202557 -0.004482753 0.0677732 0.014537221 -0.028471874 -0.01009938 0.025042797
-0.06576018 0.062052086 0.025643531 -0.041658603 0.059476122 -0.043978803 0.032319885 -0.07931109
0.004340174 0.08526715 -0.09018925 -0.0061317864 -0.07300626 -0.043431055 -0.08532638 0.070892006
0.13308322 0.019168274 0.123441674 -0.07242214 -0.14056839 0.025823988 -0.062298268 -0.030334065
-0.0220781 -0.08351641 -0.05396623 -0.13251649 0.006430152 -0.028137526 -0.011042994 -0.04166061
-0.026483128 0.015406248 -0.046590768 -0.020642195 0.03496791 -0.043815613 0.11780771 -0.053005844
0.009212016 -0.11289502 0.015108481 0.0015525979 -0.056734018 0.028091174 0.018642575 0.09119731
-0.005884946 -0.07501068 -0.019290231 0.09980475 0.0022204749 -0.03155954 -0.030400518 -0.03177503
-0.009418257 0.061962593 0.019866608 -0.035315685 -0.066792026 0.0030691095 -0.048899677 0.033847973
0.0026683032 0.023609774 -0.015780117 0.06505127 -0.07766884 -0.062830456 -0.10863754 0.09726698
0.068028785 0.0015879961 0.1147354 -0.012354999 0.04420214 -0.039588124 0.03720381 -0.16215856
-0.020950709 0.1368932 -0.034790244 0.08056964 -0.038214073 0.045935772 0.093122795 -0.09872858
-0.036561966 -0.11466462 0.0084048435 -0.056670718 0.014628459 0.067818016 -0.0038247958 -0.022281239
-0.0160664 -0.045915037 -0.046553344 0.026822606 -0.04837258 -0.021122254 -0.118858725 0.11250797
0.028992577 -0.013283567 -0.0679747 -0.021429531 -0.07912799 -0.09620572 -0.08507586 -0.14678933
0.022247858 0.036224216 -0.091404535 0.0150430575 0.018148284 0.035389595 -0.06595496 0.1232265
0.008537657 -0.08560095 0.12174145 -0.09696771 -0.021371707 0.09777123 -0.07174116 0.007619523
0.03724351 0.048342567 -0.008438837 0.0971621 0.002093986 -0.047059786 -0.058567338 -0.047509328
-0.07322009 -0.03256504 0.020531714 0.033898797 -0.0206787 -0.06766172 0.045734394 -0.0627889
0.028342662 -0.03665752 0.07370378 -0.018996183 -0.04649531 0.038401425 0.007231469 0.0011181143
0.05329542 -0.04694951 -0.14857066 0.039928183 -0.03294553 0.0683362 0.14501515 0.015676856
0.00028525517 -0.017742988 0.06682675 0.092000894 -0.059593663 0.15463778 0.009033266 -0.04881319
-0.12468495 0.0039947783 -0.03153715 0.12937379 0.02916324 0.045387715 -0.005949974 -0.034843177
-0.004916848 0.030614253 -0.13649221 0.12256151 0.005028891 0.002564023 0.04846673 -0.07909362
-0.15444277 0.030367056 -0.05427558 -0.03517335 0.041053094 -0.058607377 -0.03475647 0.12010226
-0.001491559 -0.023158565 0.08664289 0.07631881 0.12317157 -0.10251401 0.05110331 0.007283857
-0.03033295 0.08764656 -0.020351417 -0.02679658 -0.056838423 -0.069150575 -0.055399355 -0.08742365
-0.06352423 0.0048998035 0.029554939 -0.043352433 -0.0134776635 -0.012787238 -0.023056088 -0.012164962
-0.023361856 -0.00996652 -0.027801614 -0.025543181 0.10419993 -0.037902277 0.070780754 -0.049271382
-0.02244893 0.035184804 0.10076947 -0.028988253 -0.012776301 0.035530385 0.12477009 -0.0028317426
00000000: 4eb7 4d3d 098f a7bc 9cbe 52bd bc97 cbbd
00000010: e8c2 c5bd bd39 b33c e496 13bd faf7 a63b
00000020: 85f4 933c c3d0 25be 9b33 9e3d 81c4 7ebc
00000030: 1cf4 b1bd 51ca 63bc 35e7 893d 5209 c5bd
00000040: 317e 163c e597 ecbb 0fe4 92bb adcc 8a3d
00000050: 862d 6e3c d93d e9bc df77 25bc 8d26 cd3c
00000060: 46ad 86bd 542a 7e3d 6212 d23c 36a2 2abd
00000070: 3c9d 733d 1e23 34bd db61 043d da6d a2bd
00000080: 0538 8e3b 8ba0 ae3d 24b5 b8bd 27ed c8bb
00000090: 4e84 95bd c3e4 31bd 99bf aebd d42f 913d
000000a0: f846 083e c906 9d3c fdce fc3d 0f52 94bd
000000b0: 29f1 0fbe d48c d33c 782c 7fbd 257f f8bc
000000c0: 22dd b4bc a70a abbd b20b 5dbd 67b2 07be
000000d0: 06b4 d23b ab80 e6bc aded 34bc 51a4 2abd
000000e0: 25f3 d8bc 7d6a 7c3c f6d5 3ebd d219 a9bc
000000f0: 833a 0f3d 0078 33bd 2b45 f13d a81c 59bd
00000100: ffed 163c 8135 e7bd 9089 773c 8a80 cb3a
00000110: ee61 68bd 761f e63c 50b8 983c a8c5 ba3d
00000120: 81d6 c0bb 339f 99bd 8c06 9ebc 6f66 cc3d
00000130: 6385 113b 9444 01bd 820a f9bc 8926 02bd
00000140: 084f 1abc 7dcc 7d3d 4cbf a23c 2ea7 10bd
00000150: 42ca 88bd 1d23 493b 074b 48bd 2ca4 0a3d
00000160: b3de 2e3b 4969 c13c 4e45 81bc 9a39 853d
00000170: d710 9fbd 41ad 80bd 5c7d debd e933 c73d
00000180: ad52 8b3d 4f24 d03a 65fa ea3d 9f6c 4abc
00000190: 4e0d 353d 2827 22bd 0663 183d e50c 26be
000001a0: d2a0 abbc bb2d 0c3e 3780 0ebd b201 a53d
000001b0: 5c86 1cbd 2627 3c3d 2ab7 be3d 3632 cabd
000001c0: 00c2 15bd 49d5 eabd 78b4 093c 8e1f 68bd
000001d0: 34ac 6f3c 2ce4 8a3d 6da9 7abb 2587 b6bc
000001e0: af9d 83bc 6811 3cbd b8ae 3ebd 15bb db3c
000001f0: 5422 46bd 9408 adbc 346c f3bd 946a e63d
00000200: d781 ed3c 51a3 59bc 5236 8bbd fc8c afbc
00000210: db0d a2bd 8107 c5bd 413c aebd f14f 16be
00000220: 2441 b63c d85f 143d 4d32 bbbd 2877 763c
00000230: b6ab 943c aef4 103d 6513 87bd 2d5e fc3d
00000240: 87e1 0b3c 8d4f afbd 9553 f93d 0297 c6bd
00000250: b813 afbc 483c c83d 07ed 92bd 31ad f93b
00000260: a78c 183d db02 463d 0c43 0abc ecfc c63d
00000270: 413b 093b c3c1 40bd 4ee4 6fbd 2499 42bd
00000280: 6af4 95bd eb62 05bd 2032 a83c 77d9 0a3d
00000290: 6166 a9bc 3a92 8abd fd53 3b3d 7897 80bd
000002a0: df2e e83c 3226 16bd 02f2 963d e29d 9bbc
000002b0: de71 3ebd d04a 1d3d f5f5 ec3b b18d 923a
000002c0: 4c4c 5a3d 214e 40bd e822 18be bc8b 233d
000002d0: e4f1 06bd daf3 8b3d da7e 143e c06c 803c
000002e0: 4d8e 9539 be59 91bc 77dc 883d f76a bc3d
000002f0: 7c18 74bd 5e59 1e3e 4400 143c 57f0 47bd
00000300: d35a ffbd a1e6 823b 192d 01bd 907a 043e
00000310: bfe7 ee3c 78e8 393d 00f8 c2bb b8b7 0ebd
00000320: 831d a1bb beca fa3c 9dc4 0bbe 8701 fb3d
00000330: 65c9 a43b 2b09 283b 0d85 463d d6fb a1bd
00000340: 3f26 1ebe 55c4 f83c 1250 5ebd ee11 10bd
00000350: 4a27 283d 4a0e 70bd cd5c 0ebd 2cf8 f53d
00000360: 6a80 c3ba 08b7 bdbc d471 b13d 094d 9c3d
00000370: 6041 fc3d def2 d1bd b451 513d 6cad ee3b
00000380: cf7c f8bc 0a80 b33d 04b8 a6bc 8084 dbbc
00000390: 68cf 68bd d19e 8dbd 6fea 62bd 2c0b b3bd
000003a0: fe18 82bd 888e a03b 331d f23c 5292 31bd
000003b0: 6bd1 5cbc 9081 51bc 1fe0 bcbc 8c4f 47bc
000003c0: 5d61 bfbc 9d4a 23bc 36c0 e3bc ef3f d1bc
000003d0: c666 d53d 6b3f 1bbd 80f5 903d cad0 49bd
000003e0: d2e6 b7bc f11d 103d 3960 ce3d c678 edbc
000003f0: b153 51bc 4f88 113d 7687 ff3d c294 39bb

network_body._body_endoder.seq_layers.2.bias f4 [256]
-0.0023393508 0.001397476 0.0014608282 -0.0038875418 -0.0036493794 -0.0018170992 -0.008692162 -0.0025973523
-0.003286344 -0.004837698 -0.0021301352 0.003190721 0.0037060191 -0.0021112158 0.0039256946 0.01288624
-0.0022841657 -0.0038925903 -0.0017683342 0.0013248824 -0.00014435488 -0.0054193325 -0.00076294405 -0.0021200073
-0.0051921187 -0.003666582 -0.0033908386 -0.0014844906 0.0015528922 -0.0013403692 -0.0039402107 -0.0017772204
0.0037770108 0.0053378413 -0.0017210274 0.0084903035 -0.0010539461 -0.007128894 -0.0038799227 -0.001217992
-0.0035883891 0.002251919 -0.0012216603 -0.0057587926 -0.000954744 -0.0019379338 0.0019862212 0.0016145231
-0.00037127073 -0.0017784927 -0.0033531508 0.0023149662 0.004670049 0.003021994 -0.0031343391 -0.0024626248
-0.0026280307 -0.003541422 -0.008435826 -0.0020656432 -0.005304518 -0.0035434088 0.00056370365 -0.0036935853
-0.0033047306 0.0011535502 -0.0044448543 -0.0077820336 -0.0021615685 0.00088577205 -0.001840074 0.005870695
-0.001414337 0.0036037536 -0.004503238 -0.0009084414 -0.005011636 0.0026817592 -0.005827383 -0.0037342752
0.001570936 0.0006470604 0.010176566 -0.0007162101 -0.0023466535 -0.0011486367 0.015443474 0.0005795075
-0.0015842031 -0.00536044 -0.0017895264 -0.0023220696 0.00061593275 -0.0024289878 -0.002192352 -0.0010424063
-0.0057752826 0.0012010967 0.0052302675 -0.0016731184 0.0026997905 -0.001978963 -0.0083776405 0.0022603031
-0.0018817891 -0.005447856 -0.0020181837 -0.0025006058 0.0019417012 -0.0018102797 -0.0026412585 0.0014312794
-0.008090991 -0.0014074023 -0.0050665936 0.0074408315 -0.0042511704 -0.0018851259 -0.0027468293 -0.0028961871
-0.0065935715 -0.0024701667 0.00024233824 -0.0021255119 -0.001409733 -0.0010165796 0.0007987899 -0.0011415828
0.0009561844 -0.0021018516 -0.0033401353 0.005479593 -0.0023384765 -0.003339282 0.0055903266 0.004330646
-0.0014161015 0.0008123479 -0.0019623968 -0.0028294558 0.013073602 -0.0026946357 -0.0038972148 -0.0017592857
-0.003405846 -0.0033539191 0.0008840283 -0.0030099482 -0.0017178521 0.00144882 -0.00032001347 0.0050617303
0.00013995357 0.0013342508 0.00062758115 -0.0017401193 -0.0058810594 -0.001418617 -0.0049423003 0.0052239876
-0.0024191923 -0.002610043 -0.0016118952 0.0008064887 -0.0029103116 -0.0019356098 -0.00036875723 0.0019441021
0.00046044437 -0.004004196 -0.0029100454 0.0007431765 -0.0013893141 -0.0030461631 -0.005934157 -0.004934321
-0.0011278312 -0.0023500926 -0.0002696471 -0.00025229677 -0.0005685048 0.0013139547 -0.003008013 0.0028087404
0.00075865467 -0.00228043 -0.0042275577 -0.0018513341 -0.005238867 -0.0033690073 -0.0014952052 -0.00065379206
-0.00496575 -0.0028991764 5.728535e-05 -0.00075088325 0.0010497743 0.015464957 -0.0048063947 0.007657001
-2.0859791e-07 -0.0060433936 0.0013645639 0.0020416235 -0.0054392973 0.0012700093 -0.0044393353 -0.0031289754
-0.0005261104 -0.0009867676 0.00032472395 -0.002364691 -0.0017137078 -0.0011502409 -0.0020268357 -0.0026694979
0.00014469762 0.0063141733 0.008984576 -0.002090384 -2.1547732e-05 0.0037110052 0.008498281 -0.0029024761
0.0045923796 -0.002978801 -0.0004375731 -0.0027242699 0.006452203 0.004675661 0.00612424 -0.001971381
-0.002166776 -0.0055250707 0.003930379 0.003975573 -0.00327513 0.0046365364 -0.0055770595 0.0011010374
0.0010292936 -0.0005920612 0.013087158 -0.007741373 -0.0059727267 -0.002592578 -0.0007207766 0.012021196
0.0029360994 0.0011233435 -0.0017715944 -8.932041e-05 -0.0010445642 -0.0019211529 -0.0045521795 0.037708137
00000000: cb4f 19bb 832b b73a 4379 bf3a 21c6 7ebb
00000010: 6d2a 6fbb bb2b eeba 9269 0ebc 5738 2abb
00000020: b45f 57bb 8d85 9ebb bd99 0bbb 6a1b 513b
00000030: afe0 723b 535c 0abb 1da3 803b cf20 533c
00000040: f1b1 15bb d41a 7fbb 73c7 e7ba ada7 ad3a
00000050: f85d 17b9 a894 b1bb 4f00 48ba d2ef 0abb
00000060: a622 aabb 0a4b 70bb d538 5ebb 3d93 c2ba
00000070: 6a8a cb3a 54af afba e21c 81bb 9ff1 e8ba
00000080: ba87 773b 0fe9 ae3b 1994 e1ba ea1a 0b3c
00000090: 9024 8aba 7f99 e9bb 4d46 7ebb 08a5 9fba
000000a0: 2e2b 6bbb ee94 133b 1e20 a0ba 41b4 bcbb
000000b0: c947 7aba 4502 feba 432b 023b 689e d33a
000000c0: 1da7 c2b9 501c e9ba 89c0 5bbb b0b6 173b
000000d0: 3607 993b a50c 463b 7c69 4dbb fd63 21bb
000000e0: 0a3b 2cbb 3417 68bb 6b36 0abc be5f 07bb
000000f0: 86d1 adbb 8938 68bb 83c5 133a 1410 72bb
00000100: 2e94 58bb b932 973a 24a6 91bb 6e00 ffbb
00000110: 1aa9 0dbb 2833 683a a32e f1ba f65e c03b
00000120: 4661 b9ba f42c 6c3b e68f 93bb 7824 6eba
00000130: a638 a4bb 74c0 2f3b a2f3 bebb beba 74bb
00000140: dde7 cd3a 7d9f 293a 9dbb 263c 0cc0 3bba
00000150: 50ca 19bb da8d 96ba a006 7d3c 17ea 173a
00000160: 09a5 cfba a1a6 afbb 8b8e eaba dd2d 18bb
00000170: 8c76 213a a72f 1fbb 90ad 0fbb 5aa1 88ba
00000180: 953e bdbb 1e6e 9d3a aa62 ab3b 8a4c dbba
00000190: f8ee 303b 7db1 01bb 5f42 09bc 9821 143b
000001a0: 5da6 f6ba ee83 b2bb 8143 04bb 34e1 23bb
000001b0: ae80 fe3a e846 edba f718 2dbb c499 bb3a
000001c0: 1390 04bc 9678 b8ba ab05 a6bb 38d2 f33b
000001d0: 674d 8bbb 5416 f7ba 2604 34bb f5cd 3dbb
000001e0: e30e d8bb 85e2 21bb 2d1c 7e39 2c4c 0bbb
000001f0: cac6 b8ba c03e 85ba e265 513a 2aa1 95ba
00000200: 73a8 7a3a 38bf 09bb 2ce6 5abb 288e b33b
00000210: 2041 19bb dbd7 5abb 0f2f b73b 17e8 8d3b
00000220: 7b9c b9ba bff3 543a 8e9b 00bb 646e 39bb
00000230: a932 563c 7c98 30bb 6a68 7fbb d597 e6ba
00000240: 9d34 5fbb 6dcd 5bbb 23be 673a 8d42 45bb
00000250: 8d29 e1ba 55e6 bd3a 7bc7 a7b9 dfdc a53b
00000260: 80c0 1239 07e2 ae3a 4284 243a b714 e4ba
00000270: e7b5 c0bb e3f0 b9ba 05f3 a1bb fc2d ab3b
00000280: 508b 1ebb 410d 2bbb 3a46 d3ba 8a6a 533a
00000290: edba 3ebb 4ab4 fdba c255 c1b9 3ed1 fe3a
000002a0: cc67 f139 a135 83bb 76b6 3ebb bbd1 423a
000002b0: a519 b6ba 23a2 47bb 5173 c2bb 16b0 a1bb
000002c0: bcd3 93ba 0304 1abb 6c5f 8db9 b346 84b9
000002d0: b607 15ba 0139 ac3a 1522 45bb d812 383b
000002e0: 74e0 463a 4473 15bb 5387 8abb 77a8 f2ba
000002f0: cdaa abbb 90ca 5cbb c3fa c3ba 3e63 2bba
00000300: bbb7 a2bb 1c00 3ebb ad45 7038 ecd6 44ba
00000310: 9598 893a bb60 7d3c f67e 9dbb 94e7 fa3b
00000320: f5fa 5fb4 a907 c6bb 2bdb b23a c2cc 053b
00000330: 223c b2bb 7176 a63a d877 91bb 7f0f 4dbb
00000340: acea 09ba 6d56 81ba b63f aa39 eff8 1abb
00000350: 7e9e e0ba aec3 96ba a9d4 04bb bef2 2ebb
00000360: f9b9 1739 20e7 ce3b 0b34 133c d3fe 08bb
00000370: 67c1 b4b7 5634 733b 603c 0b3c 7837 3ebb
00000380: ac7b 963b fd37 43bb 116a e5b9 aa89 32bb
00000390: 006d d33b 4a36 993b d9ad c83b 4932 01bb
000003a0: 7800 0ebb a70b b5bb 69ca 803b 8645 823b
000003b0: 90a3 56bb 16ee 973b c4bf b6bb af50 903a
000003c0: 5de9 863a 8e34 1bba 856b 563c 58ab fdbb
000003d0: ddb6 c3bb 3ee8 29bb 80f2 3cba 8df4 443c
000003e0: 936b 403b 273d 933a d834 e8ba 8851 bbb8
000003f0: c2e9 88ba 32cf fbba 732a 95bb d973 1a3d

network_body._body_endoder.seq_layers.4.weight f4 [256, 256]
0.01706658 -0.010624773 0.11451483 -0.005408895 0.072081596 -0.10096852 -0.09575689 -0.014752792
-0.073706195 -0.014271007 0.013897287 -0.055496376 0.086939275 0.032410793 0.0072203954 0.04927143
0.041013096 0.03687412 -0.02642911 -0.02460876 0.029677566 0.022972431 0.082547 0.059252053
0.018942134 0.03301207 0.11609686 -0.113523535 0.043003708 -0.021326678 0.010915557 -0.024020292
-0.09270349 0.048557244 -0.016457567 -0.023107937 -0.06526927 -0.08013411 0.07068707 -0.0016143932
-0.013144825 -0.0831547 0.056183286 -0.001008137 -0.055021685 -0.09623513 -0.1282097 0.004046189
-0.07686596 -0.06366829 0.01946872 0.0008211314 0.09658166 -0.00981406 0.0350038 -0.030245705
-0.12900376 -0.019570883 0.082345665 -0.03697676 -0.044057157 0.12608042 -0.10088417 0.056712814
0.028833484 0.0075576846 -0.050981782 -0.0926748 -0.057113823 -0.023623599 0.0033209734 -0.01564437
-0.028100425 -0.050769676 0.040345535 -0.010653325 -0.06407454 0.030436516 -0.14206892 -0.10497353
-0.027994404 0.040624607 -0.026883991 0.053447194 -0.06155011 -0.021940976 0.033571858 -0.052912608
0.02738001 0.05850372 0.04362487 -0.034354847 -0.016065964 -0.041212756 0.21317284 0.07063848
-0.018346917 0.0509379 -0.00039230197 -0.061330054 -0.04272246 -0.07639594 0.066902116 0.032439593
0.100112654 -0.008349108 -0.06690447 -0.14574344 -0.037231863 -0.012107075 -0.02435871 -0.07929829
0.019759933 -0.020240422 -0.12996599 -0.0064038187 0.02922605 -0.03787109 0.02659422 -0.026953071
0.11220345 0.10573234 0.062447917 0.03214193 -0.013077471 -0.018360483 -0.034397177 0.07645166
-0.0031452305 -0.11958873 -0.014994131 0.03558533 0.026722843 0.043877713 -0.10523619 0.028972676
0.11593991 -0.05174921 -0.012089905 0.062452063 0.0036915997 -0.14314252 -0.018100422 0.045873147
-0.030186756 0.03254888 0.054973297 -0.081121534 0.0056775957 0.003970915 -0.043582253 0.14721265
0.0075120614 0.03649002 -0.009862293 0.04928035 0.09445204 0.0792402 -0.117312245 0.0847231
-0.05473935 -0.05467839 -0.022997512 0.021583255 0.03654699 0.001082832 -0.03218617 0.037932124
-0.018610174 -0.13579339 0.04332159 0.07502598 -0.060499277 -0.03593351 -0.043782108 -0.053986028
0.019120999 -0.01425783 0.00874259 0.0019283798 -0.06556927 -0.005416225 0.018983811 -0.084571004
-0.08229175 0.00041099414 -0.071206935 0.020038396 -0.08508953 0.049683094 0.047748618 -0.006200796
-0.04461792 -0.05318692 0.019332094 -0.1208923 0.07982281 -0.03430458 -0.08677954 0.024419783
-0.0842481 0.04073277 0.03217961 0.020623485 -0.0013855823 0.01701169 -0.00904113 -0.03233919
-0.04352978 -0.054040696 -0.11438678 0.015963139 -0.0030315584 0.04278833 0.06828549 0.08399494
0.13341567 -0.015598609 -0.039062604 0.101373635 0.03378421 -0.10122424 0.0006096365 0.05556927
0.15396139 0.005999738 -0.04463386 -0.06761512 0.020361733 0.011374632 -0.111882076 -0.0030928145
0.00848666 0.035294387 -0.07405305 0.044674307 0.11960065 -0.015492624 -0.018955955 0.10489779
0.041980684 0.046269625 -0.025919635 -0.046875402 0.04257427 0.05131796 0.03785134 0.13224033
-0.06811298 -0.012001052 0.074714586 -0.05735136 0.021165881 0.026994152 -0.052462243 -0.039114606
00000000: 36cf 8b3c 8713 2ebc c086 ea3d 1a3d b1bb
00000010: 849f 933d 95c8 cebd 301c c4bd b2b5 71bc
00000020: 46f3 96bd f1d0 69bc 72b1 633c 2b50 63bd
00000030: 380d b23d 2ec1 043d 1199 ec3b d7d0 493d
00000040: 59fd 273d 5109 173d dc81 d8bc 4f98 c9bc
00000050: 5e1e f33c ae30 bc3c 670e a93d 48b2 723d
00000060: 892c 9b3c aa37 073d 31c4 ed3d 077f e8bd
00000070: a824 303d 49b5 aebc 2ad7 323c 34c6 c4bc
00000080: 54db bdbd f6e3 463d 05d2 86bc db4c bdbc
00000090: e5ab 85bd 5a1d a4bd 62c4 903d 0c9a d3ba
000000a0: 645d 57bc 034d aabd 7220 663d 7723 84ba
000000b0: 6b5e 61bd ed16 c5bd 6749 03be e595 843b
000000c0: e76b 9dbd 8564 82bd dd7c 9f3c 3241 573a
000000d0: 9bcc c53d 27cb 20bc 2560 0f3d d7c5 f7bc
000000e0: 9019 04be 1e53 a0bc d8a4 a83d f174 17bd
000000f0: 4775 34bd 3a1b 013e 5c9c cebd b24b 683d
00000100: 3334 ec3c 74a6 f73b 46d2 50bd 49cc bdbd
00000110: 2ff0 69bd 4786 c1bc b0a4 593b 9f28 80bc
00000120: dd32 e6bc ddf3 4fbd 5c41 253d 498b 2ebc
00000130: 8339 83bd 0056 f93c 847a 11be 5dfc d6bd
00000140: 8554 e5bc fd65 263d d13b dcbc 72eb 5a3d
00000150: f81b 7cbd 90bd b3bc a582 093d e4ba 58bd
00000160: 0b4c e03c 99a1 6f3d feaf 323d abb7 0cbd
00000170: c59c 83bc b5ce 28bd fb49 5a3e e8aa 903d
00000180: 464c 96bc 42a4 503d e1ad cdb9 3935 7bbd
00000190: bffd 2ebd 7975 9cbd fa03 893d 61df 043d
000001a0: dd07 cd3d b2ca 08bc 3605 89bd c53d 15be
000001b0: 7080 18bd c15c 46bc eb8b c7bc 2467 a2bd
000001c0: 95df a13c 3ecf a5bc ce15 05be 20d7 d1bb
000001d0: 786b ef3c b71e 1bbd 1fdc d93c b0cc dcbc
000001e0: ecca e53d 328a d83d 63c9 7f3d 42a7 033d
000001f0: e442 56bc b968 96bc 0ee4 0cbd b092 9c3d
00000200: 3620 4ebb f0ea f4bd f2a9 75bc ecc1 113d
00000210: dde9 da3c 1eb9 333d 1286 d7bd 1b58 ed3c
00000220: e771 ed3d fbf6 53bd bd14 46bc bccd 7f3d
00000230: c4ee 713b f493 12be 5647 94bc 7be5 3b3d
00000240: 374a f7bc f951 053d ae2b 613d 0c23 a6bd
00000250: 200b ba3b 731e 823b 4e83 32bd eabe 163e
00000260: bd27 f63b 8f76 153d 7495 21bc 31da 493d
00000270: 1270 c13d b048 a23d 6741 f0bd 4e83 ad3d
00000280: 5e36 60bd 73f6 5fbd 4765 bcbc 5ecf b03c
00000290: 4cb2 153d d0ed 8d3a a5d5 03bd b75e 1b3d
000002a0: 5d74 98bc 6c0d 0bbe fb71 313d 39a7 993d
000002b0: 17ce 77bd 042f 13bd de54 33bd 7420 5dbd
000002c0: a4a3 9c3c ac99 69bc 153d 0f3c b0c1 fc3a
000002d0: 2e49 86bd 977a b1bb f083 9b3c 9033 adbd
000002e0: 9488 a8bd b37a d739 f1d4 91bd 9027 a43c
000002f0: 6b43 aebd 8080 4b3d 0e94 433d 0c30 cbbb
00000300: 48c1 36bd 87da 59bd 575e 9e3c 6296 f7bd
00000310: 247a a33d f682 0cbd 79b9 b1bd ff0b c83c
00000320: 458a acbd 68d7 263d c4ce 033d 95f2 a83c
00000330: 6d9c b5ba 1a5c 8b3c 3f21 14bc 1976 04bd
00000340: 484c 32bd c759 5dbd 9e43 eabd 21c5 823c
00000350: 1cad 46bb d142 2f3d 43d9 8b3d 8a05 ac3d
00000360: 1e9e 083e 4f91 7fbc 1c00 20bd fb9c cf3d
00000370: 5061 0a3d a84e cfbd 03d0 1f3a 9a9c 633d
00000380: 0ea8 1d3e 7399 c43b ffd1 36bd cc79 8abd
00000390: a6cd a63c aa5c 3a3c 6e22 e5bd d1b0 4abb
000003a0: a20b 0b3c d990 103d 20a9 97bd 68fc 363d
000003b0: 30f1 f43d c6d4 7dbc 8549 9bbc a7d4 d63d
000003c0: f0f3 2b3d 3885 3d3d 6a55 d4bc 6c00 40bd
000003d0: 5c62 2e3d c832 523d 020a 1b3d 026a 073e
000003e0: d17e 8bbd 0fa0 44bc f603 993d 42e9 6abd
000003f0: 1264 ad3c d722 dd3c a6e2 56bd a336 20bd

network_body._body_endoder.seq_layers.4.bias f4 [256]
-0.0011394783 -0.0028742044 -0.0003689248 -0.0018725074 0.0028699317 -0.0012204952 -0.0008136735 -0.0018723836
0.0015824148 -0.0010512293 0.00020414803 0.001110206 -0.0012262252 -0.002533939 -0.0054505807 -0.001219433
-0.0019038662 -0.0046920036 -0.004993703 -0.00073374365 -0.0014284705 -0.0019778276 -0.004824276 6.199811e-05
-0.0019500641 0.0033366703 0.0009390733 -0.002805112 0.003029915 0.001777497 2.7948608e-05 -0.0020674022
-0.0041647963 -0.0036784133 -0.0017680428 -0.0022155659 0.0069677066 -0.0010270983 0.0015358513 -0.00033882877
-1.7785233e-05 -0.0022725374 0.0021623976 -0.0053113406 0.000290852 0.0014745563 -0.005870297 -0.0060482174
-0.0014749978 -0.00069035584 -0.003852704 0.0035273256 0.0006536269 -0.0012234328 -0.008660921 0.004348445
0.0015525302 0.0019629141 -0.0023081668 -0.0021611294 0.0006531424 -0.0014682172 -0.0018128101 -0.0022050855
0.0036123258 -0.00061209523 -0.0013692668 0.0036202965 -0.0014287358 -0.0014332363 -0.00038215815 -0.0030500365
-0.0020394162 -0.0007155948 0.004139253 -0.0024830913 0.0021842457 0.0017831366 -0.0012044179 -0.0017633205
-0.00035335528 0.0007945886 -0.002221897 0.006709921 -0.0025082945 -0.0021902393 -0.0033227964 -0.001480673
-0.003975802 -0.00062335236 0.000976428 -0.00049108313 0.002667637 -0.001559317 0.0043923957 -0.0019295377
-0.002944067 0.0004688313 -0.0022258193 0.00078278733 -0.0021516057 -0.0013543245 0.002344539 -0.0017925173
0.00060714665 -0.0024988214 -0.0025365278 -0.0023230053 -0.0021144645 -0.0032397818 -0.0036611971 0.0023216952
0.0002103015 9.8120974e-05 -0.0012262347 0.0026060063 -0.0019613574 -0.0023830263 -0.003980954 -0.0014307792
0.0009537501 -0.0014033291 0.0013283098 -0.00064298476 0.008246879 -0.00046446882 -0.0014684647 -0.001126019
-0.006308819 0.0025097653 -7.749608e-05 -0.0009606337 0.0025076685 -0.002690983 -0.0001516801 0.0011075418
0.0020894113 -0.0017969751 0.00010923866 0.0011975423 -0.00082706637 -0.0022952901 0.0015415059 -0.0022580384
0.0022474085 -0.0020755357 -0.002374845 -0.00036119585 -0.0017590827 -0.0006026353 -0.0019007692 -0.0026646024
-0.0027257937 0.0020389142 -0.0025180879 -0.0049202046 0.004332828 -0.0017457095 0.0013618843 -0.0026458227
0.0020745802 -3.5201858e-05 -0.0032097793 -0.002435867 -0.0054452457 0.001281326 0.0062462906 0.00036589496
0.0016810136 3.0716463e-05 -0.00088048656 -0.0017907114 -0.0019067543 -0.002325082 0.00039337805 0.001579897
0.0020800089 0.001483702 0.00031631067 -0.002290937 -0.0021559212 -0.0021976244 0.0003052632 -0.0025364761
0.0007477675 0.0026612252 0.0032988186 0.0022443954 -0.0039371415 -0.0032215812 0.0032297801 -0.0017634088
-0.0013891121 -0.0064974343 -0.002001239 0.0006587291 0.0013655908 -0.00049172813 -0.0007227256 -0.0008534432
0.0017193849 -0.0007758923 0.0003202785 -0.0019853807 0.0024634434 -0.0008823965 0.0018587087 0.000546663
0.005678683 -0.0015712309 -0.0020986232 0.005063617 0.0019576584 -0.0039933035 -0.0016882303 -0.0024035154
-0.0005098046 0.0027405503 0.00096644403 -0.0019053199 -0.0036817237 -0.0034195085 -0.0055984836 -0.0008304198
0.001242462 -0.00039822323 0.0019307925 -0.0026716464 -0.0019715317 -0.0020913868 -0.006049565 -0.00169822
-0.0015505673 0.0042165075 -0.0009873023 -0.0012125828 -0.002656743 -0.00015677014 -0.0009667485 -0.0027745382
-0.0006555984 -0.0053731687 -0.0022388261 0.004797209 0.0036634214 0.0030915423 -0.0027657961 -0.0012216435
-0.00012253708 0.006003525 -0.006301809 0.0010457599 -0.00022770769 0.0010042326 0.0013781192 -0.002306542
00000000: 8c5a 95ba 265d 3cbb 406c c1b9 ec6e f5ba
00000010: 7715 3c3b 06f9 9fba b44c 55ba c56a f5ba
00000020: 0869 cf3a 67c9 89ba 9210 5639 5584 913a
00000030: 4ab9 a0ba 7110 26bb c99a b2bb 62d5 9fba
00000040: 268b f9ba 61bf 99bb 38a2 a3bb b458 40ba
00000050: 843b bbba 719e 01bb f614 9ebb fb04 8238
00000060: 4b99 ffba 0aac 5a3b 242c 763a f8d5 37bb
00000070: 8a91 463b e7fa e83a 2e73 ea37 417d 07bb
00000080: d878 88bb 8911 71bb acbd e7ba 0733 11bb
00000090: 5c51 e43b b39f 86ba 9e4e c93a d4a4 b1b9
000000a0: 7f31 95b7 daee 14bb 03b7 0d3b c10a aebb
000000b0: 7f7d 9839 e645 c13a 9f5b c0bb 2030 c6bb
000000c0: b754 c1ba fff8 34ba a67d 7cbb b42a 673b
000000d0: 2958 2b3a 985b a0ba 89e6 0dbc 677d 8e3b
000000e0: 457e cb3a 3ca4 003b 9d44 17bb bca1 0dbb
000000f0: a537 2b3a 3271 c0ba d09b edba 3283 10bb
00000100: c5bc 6c3b 0475 20ba f878 b3ba 7f42 6d3b
00000110: 6b44 bbba 6edb bbba 665c c8b9 1fe3 47bb
00000120: baa7 05bb c196 3bba 92a2 873b 5cbb 22bb
00000130: 9025 0f3b 23b8 e93a 8fdd 9dba 381f e7ba
00000140: 8b42 b9b9 f04b 503a 3f9d 11bb e6de db3b
00000150: 3362 24bb 1e8a 0fbb 46c3 59bb 2413 c2ba
00000160: 7247 82bb 7868 23ba f9f6 7f3a 08bc 00ba
00000170: 86d3 2e3b ff61 ccba 16ee 8f3b 8be8 fcba
00000180: 3ff1 40bb 79cd f539 0ddf 11bb f833 4d3a
00000190: f401 0dbb 9783 b1ba d6a6 193b e6f2 eaba
000001a0: ec28 1f3a 44c3 23bb e03b 26bb 903d 18bb
000001b0: d492 0abb 8552 54bb b2f0 6fbb 9527 183b
000001c0: 6184 5c39 4cc6 cd38 9cb9 a0ba 88c9 2a3b
000001d0: 1e8a 00bb 8c2c 1cbb aa72 82bb fc88 bbba
000001e0: 1605 7a3a e9ef b7ba ae1a ae3a fa8d 28ba
000001f0: eb1d 073c f383 f3b9 8079 c0ba ee96 93ba
00000200: 36ba cebb e07a 243b 6485 a2b8 09d3 7bba
00000210: b257 243b 345b 30bb 510c 1fb9 f02a 913a
00000220: 81ee 083b 7b88 ebba 0f17 e538 daf6 9c3a
00000230: 7ccf 58ba 946c 16bb 5b0c ca3a 99fb 13bb
00000240: 4249 133b b605 08bb 4aa3 1bbb e35e bdb9
00000250: 0591 e6ba 2cfa 1dba 3b23 f9ba 9ca0 2ebb
00000260: 3ba3 32bb 4e9f 053b 8106 25bb ab39 a1bb
00000270: 65fa 8d3b 4ad0 e4ba 4181 b23a 8a65 2dbb
00000280: aef5 073b b5a5 13b8 295b 52bb 11a3 1fbb
00000290: 086e b2bb 2bf2 a73a afad cc3b 97d5 bf39
000002a0: 7555 dc3a 8dd5 0038 74d0 66ba 4eb6 eaba
000002b0: 0fec f9ba 6760 18bb 4f3e ce39 8c14 cf3a
000002c0: c250 083b c778 c23a 80d6 a539 8b23 16bb
000002d0: 5b4a 0dbb 0506 10bb bc0b a039 023b 26bb
000002e0: d405 443a f367 2e3b fe30 583b b516 133b
000002f0: 2303 81bb 2a21 53bb b8aa 533b 2e22 e7ba
00000300: de12 b6ba 6ee8 d4bb 3827 03bb 90ae 2c3a
00000310: a0fd b23a 51e7 00ba 4b75 3dba 9bb9 5fba
00000320: fc5c e13a 4065 4bba 0deb a739 291d 02bb
00000330: b971 213b a050 67ba ea9f f33a ef4d 0f3a
00000340: 3f14 ba3b c3f1 cdba 0e89 09bb b3ec a53b
00000350: 0f4c 003b 42da 82bb 9c47 ddba 4c84 1dbb
00000360: 68a4 05ba ce9a 333b f658 7d3a edbb f9ba
00000370: 1349 71bb d519 60bb 7c73 b7bb 88b0 59ba
00000380: 1bda a23a 9ec8 d0b9 a512 fd3a ca16 2fbb
00000390: d034 01bb a60f 09bb 6e3b c6bb cf96 deba
000003a0: 683c cbba a12a 8a3b 5e68 81ba 87ef 9eba
000003b0: c01c 2ebb aa62 24b9 656d 7dba 07d5 35bb
000003c0: 77dc 2bba 6811 b0bb 45b9 12bb e831 9d3b
000003d0: 0316 703b 799b 4a3b 5c42 35bb 8e1f a0ba
000003e0: 4c7d 00b9 38b9 c43b 687f cebb e111 893a
000003f0: d1c4 6eb9 74a0 833a 02a2 b43a 5a29 17bb

action_model._discrete_distribution.branches.0.weight f4 [3, 256]
-0.008317876 0.003089992 -0.0016730498 -0.005281653 -0.010392753 -0.007271508 -0.0034168721 0.010233571
-0.0019066117 -0.0068202 0.0017528367 0.0049807266 0.00033375146 0.0022754206 -0.0046299356 -0.0109904595
-0.000120903554 0.008766052 -0.006927456 -0.0011287633 -0.002101674 -0.0060638604 0.0014722118 -0.0073105665
-0.0007248472 -0.0020879314 0.0027878967 0.009090985 -0.0015603857 -0.01358738 -0.0031186217 0.009145712
-0.0035693338 0.0063093696 -0.01068633 -0.008479696 -0.003805896 0.0062932 -0.006395103 -0.004299347
0.0038564305 0.0016488342 0.011426325 -0.01004887 0.0064481087 0.006491171 0.0019359979 0.00040627221
0.0026590512 0.0039575 0.0073083695 -0.0076607955 0.0011988087 -0.0153764505 -0.0061412 -0.0024120198
-0.0017548696 0.0014915465 -0.00012191172 0.00088573503 0.004185058 -0.0044204392 -0.0042143157 0.0017674405
0.0053124097 0.0040399637 -0.0064426754 -0.0063691973 0.0056284517 0.003558105 0.0027503297 -0.0030159429
-0.0062479074 0.0008168318 0.0047558732 -0.00076487794 -0.0014164409 -0.013336222 -0.005839433 0.0038228787
0.00911815 -0.015912015 -0.004717717 -0.00411267 0.0006271108 -0.004381671 -8.303888e-05 0.011084166
0.0058963737 -0.00034035425 0.0052770246 -0.006074479 -0.012243245 -0.008174039 -0.005427787 -0.00766798
0.0022280484 0.0040547983 -0.006051245 0.0028951576 0.024584655 -0.0076748077 0.0047260295 0.00716416
0.0041462057 0.00711887 -0.0062875543 -0.005342753 -0.002534425 0.004949575 0.0058733285 -0.0070699668
-0.0011056636 -0.0009586696 -0.013396331 -0.014246105 -0.008099622 0.005371101 0.009350528 -0.0050540064
0.0036182497 -0.0034722008 0.00067038304 -0.0022856316 -0.010854922 0.0023347004 0.001635843 -0.005906394
0.00220275 0.01025123 0.0028621645 0.0023867316 -0.001219845 0.009107747 0.0053653144 0.0006943867
-0.011576205 -0.0018830788 -0.00875241 0.010060828 0.017037991 0.007298849 0.0085006645 0.00043664157
-0.0014772579 -0.0003343149 -0.0050958097 0.0045512533 0.0019321691 0.005114436 -0.005744691 0.0043620644
-0.00017006569 -0.008157508 -0.008038309 0.003003629 0.00018886283 -0.002489335 -0.0033066634 0.0085671125
0.001964976 0.0026266815 0.005423976 0.0104436325 -0.0033217436 0.016215347 -0.003872495 0.0036983883
-0.0005995646 0.005381306 0.0026675116 0.003977153 -0.005994537 -0.003857272 0.0032841393 -0.0068676756
0.0048162285 0.0034018776 0.00038885337 0.0020564646 -0.0034459755 -0.0021097707 -0.000638117 0.0030036815
-0.009723965 0.00013339843 -0.00023776136 -0.00047385728 0.00028118645 0.006813709 -0.013738489 -0.011409777
-0.012598673 0.0037148995 -0.0058062417 0.0013476075 0.0062140226 0.006709282 0.0032759162 -0.006628972
0.005788519 -0.0048303343 0.0044339728 0.0016163432 0.005652502 0.00067298283 0.001796837 0.003025216
-0.0015868765 0.0014388646 7.648789e-05 0.0029723009 -0.0025509503 -0.003560435 0.0051102825 0.00055934425
0.0054162364 -0.0029946316 0.0001328102 0.0020799483 0.0006909195 0.008725188 -0.0032802117 -0.001952443
0.009812044 -0.004980978 -0.0013691975 0.0048619895 0.0016221531 0.0032810979 0.0057930523 -0.0018436594
-0.007598665 -0.0031249258 -0.0019497476 0.0043278113 0.006178298 -0.0043967986 0.011107796 -0.0053413296
0.0026752814 0.0115387365 -0.0017243886 -0.001703477 -0.0014158172 -0.004066199 0.005137447 -0.010239899
-0.00047752145 -0.0018786317 -0.004096445 0.0028414999 0.0015299737 -0.00227992 0.0044791945 0.012890935
00000000: b347 08bc 7781 4a3b 3c4a dbba b711 adbb
00000010: 5e46 2abc d545 eebb 9aed 5fbb b5aa 273c
00000020: 46e7 f9ba fc7b dfbb 71bf e53a 5d35 a33b
00000030: 5dfb ae39 391f 153b b7b6 97bb 5411 34bc
00000040: 9a8d fdb8 7d9f 0f3c b6ff e2bb 03f3 93ba
00000050: 3dbc 09bb 59b3 c6bb 3bf7 c03a 7a8d efbb
00000060: ac03 3eba add5 08bb 25b5 363b 5bf2 143c
00000070: db85 ccba 9a9d 5ebc ca61 4cbb e5d7 153c
00000080: 7ceb 69bb d4be ce3b b715 2fbc 6cee 0abc
00000090: 576c 79bb 3037 ce3b 038e d1bb 89e1 8cbb
000000a0: 2bbc 7c3b b21d d83a 7b35 3b3c 04a4 24bc
000000b0: a84a d33b e4b3 d43b 4fc1 fd3a ef00 d539
000000c0: 7a43 2e3b ebad 813b 0c7b ef3b 6907 fbbb
000000d0: 5821 9d3a 82ed 7bbc 1f3c c9bb fa12 1ebb
000000e0: a703 e6ba ff7f c33a dbaa ffb8 ac30 683a
000000f0: d022 893b 55d9 90bb 3e18 8abb 76a9 e73a
00000100: b913 ae3b ac61 843b 141d d3bb b3b4 d0bb
00000110: e06e b83b 192f 693b e03e 343b 20a7 45bb
00000120: 3fbb ccbb a720 563a 28d7 9b3b 1782 48ba
00000130: dfa7 b9ba 2b80 5abc b758 bfbb 4389 7a3b
00000140: 4b64 153c ea59 82bc 1497 9abb 94c3 86bb
00000150: b264 243a 1f94 8fbb 2925 aeb8 5d9a 353c
00000160: 5e36 c13b 9371 b2b9 e4ea ac3b 6c0c c7bb
00000170: e497 48bc 68ec 05bc 94db b1bb ae43 fbbb
00000180: 7304 123b 1dde 843b 8649 c6bb afbc 3d3b
00000190: c265 c93c f47c fbbb cfdc 9a3b 54c1 ea3b
000001a0: e5dc 873b 6945 e93b d407 cebb 4312 afbb
000001b0: 9818 26bb 0b30 a23b 0d75 c03b 2eab e7bb
000001c0: eaeb 90ba 3a4f 7bba 497c 5bbc 7f68 69bc
000001d0: 47b4 04bc 1000 b03b f532 193c 149c a5bb
000001e0: 2820 6d3b dd8d 63bb a5bc 2f3a 89ca 15bb
000001f0: d8d8 31bc c601 193b c869 d63a 6d8a c1bb
00000200: 035c 103b c6f4 273c 2793 3b3b b66a 1c3b
00000210: 35e3 9fba a938 153c 85cf af3b 8107 363a
00000220: 1faa 3dbc a4d1 f6ba 4566 0fbc 2cd6 243c
00000230: 4293 8b3c 2f2b ef3b 5f46 0b3c 0aed e439
00000240: 8da0 c1ba fc46 afb9 c0fa a6bb ae22 953b
00000250: d640 fd3a 0097 a73b f63d bcbb a6ef 8e3b
00000260: a953 32b9 12a7 05bc 1db3 03bc 88d8 443b
00000270: 7b09 4639 1c24 23bb 9bb4 58bb 135d 0c3c
00000280: d4c6 003b 6724 2c3b 9cbb b13b c51b 2b3c
00000290: 9cb1 59bb 0cd6 843c afc9 7dbb a960 723b
000002a0: 192c 1dba ab55 b03b 6bd1 2e3b c752 823b
000002b0: d26d c4bb 49ca 7cbb b73a 573b 3d0a e1bb
000002c0: 74d1 9d3b 09f2 5e3b 04df cb39 c0c5 063b
000002d0: e0d5 61bb 1444 0abb 4f47 27ba 6ad9 443b
000002e0: 4451 1fbc dee0 0b39 944f 79b9 0c70 f8b9
000002f0: 356c 9339 8945 df3b 6617 61bc 13f0 3abc
00000300: aa6a 4ebc ac75 733b 4942 bebb 34a2 b03a
00000310: 009f cb3b 89d9 db3b c1b0 563b d937 d9bb
00000320: 9ead bd3b c847 9ebb dc4a 913b 7adb d33a
00000330: a038 b93b 1d6b 303a d883 eb3a b442 463b
00000340: bdfe cfba 4998 bc3a 2068 a038 efca 423b
00000350: d82d 27bb 3056 69bb 2874 a73b f5a0 123a
00000360: af7a b13b 9541 44bb f742 0b39 be4f 083b
00000370: d31e 353a 17f4 0e3c d2f8 56bb 1ee9 ffba
00000380: b2c2 203c 7937 a3bb a576 b3ba 5351 9f3b
00000390: 6d9e d43a b007 573b a5d3 bd3b f2a6 f1ba
000003a0: 39fe f8bb 8ecb 4cbb ac8e ffba 50d0 8d3b
000003b0: 5273 ca3b 0513 90bb 79fd 353c 5206 afbb
000003c0: c653 2f3b f80c 3d3c e104 e2ba 3447 dfba
000003d0: f192 b9ba c03d 85bb 0758 a83b 40c5 27bc
000003e0: d85b fab9 6b3c f6ba 793b 86bb 7538 3a3b
000003f0: 6689 c83a b66a 15bb 35c6 923b 8034 533c

action_model._discrete_distribution.branches.0.bias f4 [3]
0.0010050572 0.0033002305 -0.0022439715
00000000: 20bc 833a ae48 583b 980f 13bb
