results/playeragent1/PlayerAgent/PlayerAgent-5991.onnx (onnx, 74130 bytes, 5 tensors)

network_body._body_endoder.seq_layers.0.weight f4 [128, 2]
0.4696968 0.32069984 0.37657028 -0.25981545 0.7083689 0.494506 -0.99118155 -0.43146393
0.1794185 0.0047793332 -0.34233695 0.06208444 -0.37521252 0.5898435 -0.09044749 0.3211776
1.1179 -0.05600009 -0.5546949 0.13051406 -0.17254265 0.10049425 -0.7898269 -0.7206531
0.18606798 1.2427793 0.005954389 -0.68124056 -0.95604116 -0.09629606 -0.6797617 0.06988429
-0.22864357 0.36773798 0.07048994 -0.59794635 2.0586798 -0.453802 -0.032689188 0.5208499
0.10910838 -0.7459139 -1.7563386 1.1978865 0.4303881 -0.06786868 -0.34770033 0.94095695
0.17506652 0.07980229 -0.9806883 0.75650465 -0.36964732 -1.012891 -0.5570591 0.01280235
-0.331386 1.3062465 -1.1579877 0.303037 1.2188329 0.36828962 -0.042899784 -0.24695185
-0.7120149 -0.62813556 -0.40363294 0.5135893 -0.60882807 1.0969057 0.61909187 0.7064609
-0.35159445 0.2302088 -0.95480734 0.2007322 0.6034652 -0.7974396 0.3820737 -0.19689865
-0.47174296 0.21621868 0.78620976 -0.121552385 -1.0512316 -0.048916027 -0.35424456 0.59488034
0.5570311 0.07214725 1.0496808 -0.06523479 1.3249892 -0.6529054 -0.19651678 -0.4748139
-1.277412 -0.16721472 0.027329624 0.21355852 -0.46465042 -0.02481936 -0.6792748 0.7825004
1.9615448 0.4862245 -0.36487997 0.4563608 0.816097 -0.18114755 0.666071 0.22023177
0.075007476 -0.33769396 0.5280614 -0.58799165 0.57054085 0.75045496 -0.6770483 0.4954008
-0.46457896 -0.1882585 -0.9079813 -0.70039296 0.41158545 -1.641596 0.58878785 1.0968202
0.27221102 -1.0464675 0.6127903 -1.6037949 0.27484635 -1.512442 0.18730107 -0.8402404
1.1692636 0.54294354 0.95952857 -0.27507615 -0.4010768 -1.3134778 1.2405818 -0.73788077
0.8712738 0.0057138857 1.017572 0.5128927 0.4702473 -0.17636076 -0.5032171 1.1691475
2.2873218 0.3864704 -1.3974046 0.054696076 1.3060538 0.5483304 -0.47975272 0.3300817
-0.9434843 0.7166624 -0.29996094 0.32974198 0.4053391 -0.5936253 -0.35997358 0.7784339
-1.7933611 -0.59905165 -0.68161154 0.961434 -1.3030587 -0.27496254 -0.41010138 -0.58393055
-1.5289145 0.15515456 1.4701173 0.08402231 0.17625082 -0.28242204 -1.4314455 -0.2170312
1.2887516 -0.22313167 -0.14490792 0.22971277 -1.0147402 0.39913523 -0.63516104 0.46163902
-0.55509776 -0.89405626 0.2686089 -0.24511717 0.63990605 0.64681053 -0.08245847 -0.8122616
-1.0750219 -0.31308147 -0.4636711 -1.0227844 -0.3936975 0.26334786 -0.06814298 -0.74529636
-0.28038573 -1.2402902 -1.4423248 0.29270458 -0.24877469 0.15715444 -0.63085157 -0.9346451
0.88685256 0.9184202 0.6347293 0.881241 1.234166 0.49792692 -0.57015467 0.018316759
-0.26873276 -0.9668814 0.6259316 1.1363719 0.3303812 0.8561005 -0.091215745 0.18129726
0.34490192 -0.3750827 0.53330344 1.4379506 -0.02894226 0.52790105 0.19979887 0.37129617
-0.54967356 -0.50527257 0.3328781 0.0041841595 -0.8586568 1.073277 -0.25252596 0.5630138
0.655057 0.27852273 -0.48883483 1.7965349 0.15589511 -0.11022432 0.6114872 0.18471684
00000000: 197c f03e c532 a43e d2cd c03e 8806 85be
00000010: aa57 353f e42f fd3e 13be 7dbf d7e8 dcbe
00000020: 7cb9 373e f49b 9c3b ca46 afbe 414c 7e3d
00000030: db1b c0be fcff 163f 893c b9bd 6471 a43e
00000040: 5917 8f3f 5a60 65bd 7c00 0ebf 7aa5 053e
00000050: 05af 30be eecf cd3d 1932 4abf b97c 38bf
00000060: 9b88 3e3e 6413 9f3f 091d c33b c865 2ebf
00000070: 1dbf 74bf de36 c5bd dd04 2ebf 7f1f 8f3d
00000080: 8a21 6abe 2748 bc3e 085d 903d 0313 19bf
00000090: 69c1 0340 bc58 e8be 19e5 05bd 6b56 053f
000000a0: 3774 df3d 37f4 3ebf b4cf e0bf 5854 993f
000000b0: d45b dc3e bcfe 8abd c705 b2be 8ee2 703f
000000c0: a344 333e 626f a33d 630e 7bbf 4aaa 413f
000000d0: 6a42 bdbe 6aa6 81bf 6d9b 0ebf f3c0 513c
000000e0: 6dab a9be 1633 a73f f138 94bf aa27 9b3e
000000f0: b702 9c3f 7590 bc3e afb7 2fbd f2e0 7cbe
00000100: 9c46 36bf 7ecd 20bf faa8 cebe 977a 033f
00000110: 28dc 1bbf 6867 8c3f ce7c 1e3f 9fda 343f
00000120: 3004 b4be dbbb 6b3e 416e 74bf be8c 4d3e
00000130: b27c 1a3f 0025 4cbf 2a9f c33e cd9f 49be
00000140: 4b88 f1be 6e68 5d3e 0b45 493f 75f0 f8bd
00000150: c28e 86bf 2c5c 48bd 8b5f b5be 144a 183f
00000160: 9799 0e3f f0c1 933d f15b 863f d199 85bd
00000170: 3f99 a93f cf24 27bf b23b 49be cf1a f3be
00000180: 3d82 a3bf 563a 2bbe 60e2 df3c 16af 5a3e
00000190: a9e6 edbe f851 cbbc f4e4 2dbf f251 483f
000001a0: e613 fb3f 6bf2 f83e 8cd1 babe 1fa8 e93e
000001b0: bceb 503f be7e 39be a183 2a3f 7084 613e
000001c0: 859d 993d 39e6 acbe 082f 073f 9f86 16bf
000001d0: f70e 123f d11d 403f 0a53 2dbf 2ca5 fd3e
000001e0: 4bdd edbe d6c6 40be 7671 68bf f44c 33bf
000001f0: 54bb d23e d11f d2bf cdba 163f 9b64 8c3f
00000200: 3e5f 8b3e a6f2 85bf d3df 1c3f 2749 cdbf
00000210: a9b8 8c3e b397 c1bf dacb 3f3e ff19 57bf
00000220: 6eaa 953f 59fe 0a3f aaa3 753f c8d6 8cbe
00000230: f059 cdbe 0a20 a8bf 62cb 9e3f c1e5 3cbf
00000240: cd0b 5f3f 8c3b bb3b cd3f 823f f04c 033f
00000250: 41c4 f03e ea97 34be d6d2 00bf a0a6 953f
00000260: 7b63 1240 73df c53e 27de b2bf fe08 603d
00000270: c52c a73f 625f 0c3f 26a2 f5be 7800 a93e
00000280: 3088 71bf 3077 373f 7b94 99be f1d3 a83e
00000290: 9b88 cf3e d4f7 17bf 754e b8be 7247 473f
000002a0: db8c e5bf 735b 19bf 187e 2ebf 8a20 763f
000002b0: a1ca a6bf e4c7 8cbe cff8 d1be 797c 15bf
000002c0: 78b3 c3bf d6e0 1e3e ce2c bc3f e413 ac3d
000002d0: 187b 343e 9f99 90be 9b39 b7bf 6d3d 5ebe
000002e0: d0f5 a43f a17c 64be be62 14be d339 6b3e
000002f0: 02e3 81bf 745b cc3e ea99 22bf f35b ec3e
00000300: e31a 0ebf dfe0 64bf 1b87 893e ffff 7abe
00000310: e2d0 233f 6095 253f fcdf a8bd 60f0 4fbf
00000320: 519a 89bf 374c a0be 4c66 edbe 99ea 82bf
00000330: b892 c9be 88d5 863e 8c8e 8bbd becb 3ebf
00000340: b88e 8fbe d4c1 9ebf 199e b8bf 60dd 953e
00000350: cbbe 7ebe 18ed 203e 7d7f 21bf e744 6fbf
00000360: c508 633f 961d 6b3f 9f7d 223f 0399 613f
00000370: 27f9 9d3f 47f0 fe3e a8f5 11bf 070d 963c
00000380: 5797 89be 8a85 77bf 0e3d 203f a274 913f
00000390: ba27 a93e 6729 5b3f 52cf babd fda5 393e
000003a0: fc96 b03e d70a c0be 9386 083f c40e b83f
000003b0: 5218 edbc 8624 073f 1398 4c3e 881a be3e
000003c0: 68b7 0cbf 8b59 01bf 006f aa3e 461b 893b
000003d0: efd0 5bbf 2461 893f 154b 81be ac21 103f
000003e0: d1b1 273f 889a 8e3e 8f48 fabe dbf4 e53f
000003f0: f8a2 1f3e 4abd e1bd 6d8a 1c3f 6926 3d3e

network_body._body_endoder.seq_layers.0.bias f4 [128]
0.0 0.0 0.0 0.0 0.0 0.0 0.0 0.0
0.0 0.0 0.0 0.0 0.0 0.0 0.0 0.0
0.0 0.0 0.0 0.0 0.0 0.0 0.0 0.0
0.0 0.0 0.0 0.0 0.0 0.0 0.0 0.0
0.0 0.0 0.0 0.0 0.0 0.0 0.0 0.0
0.0 0.0 0.0 0.0 0.0 0.0 0.0 0.0
0.0 0.0 0.0 0.0 0.0 0.0 0.0 0.0
0.0 0.0 0.0 0.0 0.0 0.0 0.0 0.0
0.0 0.0 0.0 0.0 0.0 0.0 0.0 0.0
0.0 0.0 0.0 0.0 0.0 0.0 0.0 0.0
0.0 0.0 0.0 0.0 0.0 0.0 0.0 0.0
0.0 0.0 0.0 0.0 0.0 0.0 0.0 0.0
0.0 0.0 0.0 0.0 0.0 0.0 0.0 0.0
0.0 0.0 0.0 0.0 0.0 0.0 0.0 0.0
0.0 0.0 0.0 0.0 0.0 0.0 0.0 0.0
0.0 0.0 0.0 0.0 0.0 0.0 0.0 0.0
00000000: 0000 0000 0000 0000 0000 0000 0000 0000
00000010: 0000 0000 0000 0000 0000 0000 0000 0000
00000020: 0000 0000 0000 0000 0000 0000 0000 0000
00000030: 0000 0000 0000 0000 0000 0000 0000 0000
00000040: 0000 0000 0000 0000 0000 0000 0000 0000
00000050: 0000 0000 0000 0000 0000 0000 0000 0000
00000060: 0000 0000 0000 0000 0000 0000 0000 0000
00000070: 0000 0000 0000 0000 0000 0000 0000 0000
00000080: 0000 0000 0000 0000 0000 0000 0000 0000
00000090: 0000 0000 0000 0000 0000 0000 0000 0000
000000a0: 0000 0000 0000 0000 0000 0000 0000 0000
000000b0: 0000 0000 0000 0000 0000 0000 0000 0000
000000c0: 0000 0000 0000 0000 0000 0000 0000 0000
000000d0: 0000 0000 0000 0000 0000 0000 0000 0000
000000e0: 0000 0000 0000 0000 0000 0000 0000 0000
000000f0: 0000 0000 0000 0000 0000 0000 0000 0000
00000100: 0000 0000 0000 0000 0000 0000 0000 0000
00000110: 0000 0000 0000 0000 0000 0000 0000 0000
00000120: 0000 0000 0000 0000 0000 0000 0000 0000
00000130: 0000 0000 0000 0000 0000 0000 0000 0000
00000140: 0000 0000 0000 0000 0000 0000 0000 0000
00000150: 0000 0000 0000 0000 0000 0000 0000 0000
00000160: 0000 0000 0000 0000 0000 0000 0000 0000
00000170: 0000 0000 0000 0000 0000 0000 0000 0000
00000180: 0000 0000 0000 0000 0000 0000 0000 0000
00000190: 0000 0000 0000 0000 0000 0000 0000 0000
000001a0: 0000 0000 0000 0000 0000 0000 0000 0000
000001b0: 0000 0000 0000 0000 0000 0000 0000 0000
000001c0: 0000 0000 0000 0000 0000 0000 0000 0000
000001d0: 0000 0000 0000 0000 0000 0000 0000 0000
000001e0: 0000 0000 0000 0000 0000 0000 0000 0000
000001f0: 0000 0000 0000 0000 0000 0000 0000 0000

network_body._body_endoder.seq_layers.2.weight f4 [128, 128]
0.1201035 0.10656094 -0.2092427 0.018279605 0.14744973 -0.09995896 -0.06643837 0.06681024
-0.14892988 0.12486028 0.042843625 0.17698812 -0.021143895 -0.06650729 0.05034178 0.010549831
0.021142792 0.077276066 -0.045252327 -0.041655183 -0.008056894 -0.008617505 0.004110684 -0.21396677
0.14069252 -0.015669588 0.03365808 0.33368382 0.10372573 0.015091684 0.12727612 0.04444717
0.19326495 0.11508285 0.022519711 -0.0714176 0.07111063 0.08936101 -0.17322154 0.12337035
0.115919165 -0.0776307 0.06972059 -0.17480344 -0.07348965 0.003547946 0.05070838 -0.012477357
0.006165851 0.01795613 0.095555894 -0.04994743 0.011849631 0.06401209 0.068502 -0.21633558
-0.10505433 0.047782533 -0.026979143 -0.015299598 -0.11035589 -0.1262952 0.020480378 -0.028893786
0.03240946 0.15344268 0.007448295 0.044838436 0.049444474 0.11715774 0.022846531 -0.068483375
-0.071602315 -0.047633182 0.008648287 0.048980907 0.115495525 0.13787527 -0.1432445 0.038270872
-0.005494622 -0.069326185 -0.1963142 -0.05360227 0.00022875951 0.016449763 -0.06220655 0.26854032
0.07283041 -0.04787821 -0.00258536 0.035012778 0.21333799 0.050440647 -0.002200178 -0.14681575
0.07314617 -0.03904099 0.011943507 0.06425158 0.09367668 0.0051624742 -0.054648492 0.072342314
0.052687697 0.23254283 0.0002619546 -0.10925273 0.12857412 -0.085629664 0.060685933 -0.06750763
0.07854621 -0.055539023 0.1068322 -0.12588274 0.07989787 -0.051554047 -0.10847943 0.038753506
0.13870175 0.012423302 0.16726679 -0.03499148 0.007522439 -0.025811104 -0.045998026 -0.1731505
0.08865812 -0.10938874 0.11323304 0.047416367 -0.10043243 0.12539993 -0.04510241 -0.12460445
-0.048553623 -0.030725231 0.012994325 0.096345015 -0.071779296 0.055918626 -0.042639643 0.073451474
-0.052392367 0.05132686 0.10168452 -0.05920539 -0.2156077 -0.04811414 0.06229124 -0.029402977
-0.06286147 0.06364003 -0.057216685 -0.0785131 0.035432447 -0.0388528 -0.17218287 0.053878322
-0.22401787 0.10093102 -0.094431974 0.006950661 0.030611403 0.15656494 0.037617654 -0.08260965
-0.15747733 -0.10851126 0.06194938 0.018345831 0.11903079 -0.10956229 -0.007248154 0.050130457
0.061206523 -0.05568735 -0.077040546 -0.07182941 -0.008400786 -0.10338628 -0.07288535 0.0622845
0.059947554 -0.07317243 0.08531746 -0.06007185 -0.05219923 0.028010178 -0.109285556 0.027329646
0.063650325 -0.019121153 -0.08786764 0.18064009 -0.08972394 -0.05857245 -0.06784315 0.00056643743
-0.008386994 0.12934276 0.053756703 -0.0585471 -0.022768378 -0.084692135 -0.0849224 0.04873805
0.060887795 -0.18185653 -0.056893405 0.014900054 -0.09097047 0.024071382 0.092164375 0.050040547
-0.09669073 -0.19054854 0.067211956 0.0070305327 -0.24795252 0.021898432 -0.0925411 -0.046543118
0.111682974 -0.09328641 -0.023883639 0.103308775 0.07943675 -0.15712318 -0.04712032 -0.050854128
0.08454577 -0.14691947 -0.068435736 0.10377585 0.03246763 0.0010926585 0.11994499 -0.13763967
-0.04404493 -0.08182342 -0.046361294 -0.0065260967 -0.17698228 0.075094186 -0.044792436 0.18824226
0.07046712 0.15972334 0.10741799 0.0038971768 -0.06926561 -0.06620495 -0.11314112 0.048654795
00000000: d3f8 f53d 9f3c da3d b843 56be 1cbf 953c
00000010: 10fd 163e 49b7 ccbd d710 88bd cfd3 883d
00000020: 1381 18be bfb6 ff3d cc7c 2f3d 603c 353e
00000030: f635 adbc f934 88bd 2f33 4e3d 33d9 2c3c
00000040: a633 ad3c ea42 9e3d 815a 39bd a09e 2abd
00000050: 1001 04bc 7030 0dbc ebb2 863b 1b1a 5bbe
00000060: b311 103e 825d 80bc 0edd 093d 9bd8 aa3e
00000070: 286e d43d 1c43 773c ac54 023e 3c0e 363d
00000080: 3fe7 453e 8fb0 eb3d 427b b83c 6443 92bd
00000090: 73a2 913d e802 b73d fd60 31be 98a9 fc3d
000000a0: 0767 ed3d d8fc 9ebd abc9 8e3d acff 32be
000000b0: be81 96bd a884 683b 97b3 4f3d d46d 4cbc
000000c0: e80a ca3b bc18 933c cfb2 c33d ad95 4cbd
000000d0: f424 423c c518 833d c74a 8c3d 1387 5dbe
000000e0: b926 d7bd 9eb7 433d 5d03 ddbc 2aab 7abc
000000f0: 4502 e2bd 8753 01be 77c6 a73c a9b2 ecbc
00000100: c8bf 043d 1420 1d3e d410 f43b 82a8 373d
00000110: 4a86 4a3d 66f0 ef3d a628 bb3c 0341 8cbd
00000120: 3ca4 92bd 031b 43bd 8bb1 0d3c 34a0 483d
00000130: eb88 ec3d 2d2f 0d3e b0ae 12be ebc1 1c3d
00000140: 3b0c b4bb e3fa 8dbd 9706 49be 0e8e 5bbd
00000150: 2adf 6f39 a7c1 863c 4ccc 7ebd 1e7e 893e
00000160: 1c28 953d f11b 44bd 256f 29bb 8f69 0f3d
00000170: 4675 5a3e da9a 4e3d dd30 10bb de56 16be
00000180: a9cd 953d 72e9 1fbd b3ae 433c 5596 833d
00000190: 8fd9 bf3d f929 a93b 19d7 5fbd 3528 943d
000001a0: 0ecf 573d b51f 6e3e f456 8939 e5bf dfbd
000001b0: efa8 033e 9b5e afbd d091 783d 7141 8abd
000001c0: d6dc a03d e37c 63bd d7ca da3d 68e7 00be
000001d0: 7fa1 a33d 562a 53bd 772a debd ffbb 1e3d
000001e0: d507 0e3e 1b8b 4b3c fc47 2b3e 3a53 0fbd
000001f0: cb7e f63b cf71 d3bc 6d68 3cbd 5d4e 31be
00000200: 6392 b53d 3407 e0bd b9e6 e73d aa37 423d
00000210: 85af cdbd d768 003e 4ebd 38bd 9e30 ffbd
00000220: 2ae0 46bd 7bb3 fbbc 26e6 543c 8950 c53d
00000230: 0601 93bd ee0a 653d e8a6 2ebd ba6d 963d
00000240: 6199 56bd 1d3c 523d f93f d03d 5a81 72bd
00000250: 44c8 5cbe 5513 45bd 1925 7f3d 83de f0bc
00000260: 84bd 80bd b455 823d 0b5c 6abd 7acb a0bd
00000270: 9d21 113d 1d24 1fbd b550 30be 84af 5c3d
00000280: f164 65be ecb4 ce3d 8d65 c1bd 5fc2 e33b
00000290: c4c4 fa3c 8f52 203e f814 1a3d 402f a9bd
000002a0: bd41 21be 273b debd a2be 7d3d ff49 963c
000002b0: 6ac6 f33d 3262 e0bd ec81 edbb 9855 4d3d
000002c0: b1b3 7a3d 6b18 64bd 6fc7 9dbd 4c1b 93bd
000002d0: 73a3 09bc 30bc d3bd ea44 95bd 081e 7f3d
000002e0: 918b 753d 6ddb 95bd ecba ae3d e60d 76bd
000002f0: dcce 55bd 9a75 e53c 1bd1 dfbd 6ce2 df3c
00000300: 1a5b 823d f7a3 9cbc f3f3 b3bd b7f9 383e
00000310: 2fc1 b7bd aae9 6fbd 59f1 8abd f97c 143a
00000320: 9a69 09bc 6e72 043e fd2f 5c3d 15cf 6fbd
00000330: c084 babc 1273 adbd cceb adbd 8da1 473d
00000340: 7b65 793d 9938 3abe 0f09 69bd 5b1f 743c
00000350: ba4e babd 5931 c53c adc0 bc3d 51f7 4c3d
00000360: ca05 c6bd 281f 43be 6ca6 893d 6260 e63b
00000370: 44e7 7dbe 5764 b33c 3086 bdbd ffa3 3ebd
00000380: 0bba e43d f20c bfbd 9fa7 c3bc 8d93 d33d
00000390: bcaf a23d e6e4 20be 3d01 41bd 6b4c 50bd
000003a0: 5526 ad3d 0f72 16be 0928 8cbd 6f88 d43d
000003b0: c7fc 043d 8937 8f3a b8a5 f53d 6af1 0cbe
000003c0: 7568 34bd 0a93 a7bd 57e5 3dbd ded8 d5bb
000003d0: d83a 35be fbca 993d 4678 37bd 94c2 403e
000003e0: 1151 903d 848e 233e f7fd db3d c767 7f3b
000003f0: 21db 8dbd 7696 87bd 88b6 e7bd 404a 473d

action_model._discrete_distribution.branches.0.weight f4 [4, 128]
-0.0140740145 -0.0075553157 0.003801673 -0.009519364 -0.014179175 -0.0015987315 0.0055935658 0.0008714064
-8.804848e-05 -0.011723257 0.0014578999 0.0044519156 -0.0036786923 0.0067119375 0.002395673 0.0022501696
-0.017604982 -0.00093719637 -0.008306159 0.009183263 -0.011609808 0.00217306 0.005708165 0.0061131814
-0.002273098 -0.0023842896 -0.0046152906 0.0033131212 0.0018159583 -0.00059131114 -0.000976595 -0.0143026775
0.014470945 0.000394696 0.012042577 -0.008206519 -0.00075119163 0.009946152 0.0010237631 0.016708435
0.0005018338 0.016278977 0.0007234743 -0.0020543907 0.005510734 -0.016271435 -0.00513149 -0.008666976
0.0013470394 -0.004265701 0.0005472053 0.0032082747 0.00792944 -0.007417871 -0.003135093 -0.0019506362
-0.0029727959 0.005168377 0.0054087536 -0.0041375593 -0.0010188308 -0.00076825387 0.005971347 0.007154534
-0.013803204 0.00053246296 -0.0059356783 -0.0025520967 -0.017014889 0.0041902503 -0.017641528 0.0016624657
-0.01320549 -0.006531933 0.011352372 -0.007069137 0.008813927 -0.02024939 -0.0014860342 0.016165428
0.006535854 -0.008639435 0.0037683086 -0.0081169745 0.01916931 -0.0017289019 0.011161056 0.002485852
-0.002526753 -0.0067158393 -0.003559942 0.010748229 -0.000838256 0.0076253414 0.00079434033 0.0007817694
0.00028437338 1.0536626e-05 0.002184773 0.009943446 0.0039381715 0.009033048 0.0069372444 0.017541356
0.0059698955 -0.011332337 -0.013522326 0.0015625044 -0.0028725376 0.0069498145 -0.0044844854 -0.008008145
0.006839397 0.002180371 0.0019878852 0.004917019 -0.012960359 0.021875579 0.0019684148 -0.003853549
-0.011345225 -0.0024559924 -0.011225584 -0.008819054 -0.01520267 -0.008505504 -0.0060179206 -0.0033030212
0.004477741 -0.004516757 0.0018267765 0.016328456 0.0035947121 -0.0025008933 0.013305877 -0.0032117986
0.007545814 -0.015830502 0.010232866 0.00060439296 -0.0046677305 0.022280723 -0.0033892784 -0.013965066
-0.0039464673 0.0059030806 0.0016485554 0.009090452 0.006343855 0.005126051 0.011218937 0.00091721566
0.0012448572 0.0016120793 -0.004373995 0.002552591 0.0007660722 0.0031583463 0.0006233509 0.0024201674
0.00056884316 -0.0030345903 0.0043372638 0.006173709 -0.01920275 -0.0044457153 -0.014355826 -0.0060103494
0.0070082545 -0.0067855543 0.0033394124 -0.013591736 0.008583382 -0.0025749404 0.005324298 -0.008195101
0.000335171 0.013771238 0.0045961323 -0.007112658 0.014055266 -0.007682147 -0.009823329 0.0034761557
-0.01730937 -0.006821836 0.011025222 0.0060349978 0.0010392244 0.005438483 0.0044225925 0.006155349
0.00036472658 0.0045034937 -0.0024443064 0.0008882163 -0.0027292296 -0.014681292 0.013921267 -0.009001116
-0.008792468 -0.004819678 -0.004747655 -0.005311641 0.0019250425 0.0018737387 -0.0041976003 -0.0066529117
0.0038765192 -0.0073016 0.001371833 -0.0020820228 0.003579866 -0.0021960277 0.0005447699 -0.0014400609
0.008284298 -0.010842187 -0.008473659 -0.00024447037 -0.00735845 0.003973083 -0.012232996 -0.00022940198
0.00698403 -0.009867118 -0.015513869 -0.012962671 0.005662513 0.012488157 0.008307064 -0.004741165
0.0014330308 -0.002712123 -0.00034980543 -0.004182502 -0.0105102 -0.0054267216 0.002745057 0.0031292494
-0.008582236 -0.0050768503 -0.007884544 0.009874162 -0.014704572 -0.007459198 -0.0038437357 -0.0034109955
0.0147363385 -0.0058311257 -0.004666063 0.0051397216 0.0124859195 0.0077881175 -0.0056208405 0.006711319
00000000: b296 66bc 9592 f7bb 7d25 793b 1bf7 1bbc
00000010: c54f 68bc 878c d1ba 3b4a b73b 186f 643a
00000020: aba6 b8b8 e712 40bc 0117 bf3a 60e1 913b
00000030: 3716 71bb d0ef db3b b900 1d3b 9577 133b
00000040: 5338 90bc 2fae 75ba 8e16 08bc 6675 163c
00000050: 1037 3ebc e669 0e3b 8f0b bb3b 1551 c83b
00000060: 42f8 14bb be41 1cbb dd3b 97bb f320 593b
00000070: 7305 ee3a 3802 1bba 1701 80ba c755 6abc
00000080: 8b17 6d3c 33ef ce39 3b4e 453c a374 06bc
00000090: 9eeb 44ba 2ff5 223c ca2f 863a 21e0 883c
000000a0: 7f8d 033a 7d5b 853c 8aa7 3d3a f5a2 06bb
000000b0: 6393 b43b ac4b 85bc 0f26 a8bb efff 0dbc
000000c0: 248f b03a 4bc7 8bbb 5372 0f3a eb41 523b
000000d0: 7bea 013c 9d11 f3bb 2276 4dbb 7dac ffba
000000e0: 3dd3 42bb 7d5b a93b ea3b b13b 5d94 87bb
000000f0: 4a8a 85ba a564 49ba 4aab c33b 9570 ea3b
00000100: d526 62bc fc94 0b3a 1480 c2bb 1441 27bb
00000110: cf62 8bbc 5e4e 893b f784 90bc 18e7 d93a
00000120: d75b 58bc d309 d6bb 4dff 393c 38a4 e7bb
00000130: 4a68 103c 0ce2 a5bc 09c7 c2ba 5c6d 843c
00000140: b82a d63b 6b8c 0dbc baf5 763b 0ffd 04bc
00000150: f508 9d3c 529c e2ba dddc 363c ade9 223b
00000160: e297 25bb 8b10 dcbb ea4d 69bb 5719 303c
00000170: 68be 5bba 00de f93b 473b 503a a8ef 4c3a
00000180: f317 9539 77c6 3037 692e 0f3b d6e9 223c
00000190: c70b 813b 59ff 133c d351 e33b e4b2 8f3c
000001a0: 1d9f c33b 44ab 39bc bf8c 5dbc f3cc cc3a
000001b0: 2f41 3cbb 45bb e33b 97f2 92bb 9834 03bc
000001c0: 051d e03b 8ee4 0e3b 2e47 023b f21e a13b
000001d0: b057 54bc 6a34 b33c 8500 013b d38b 7cbb
000001e0: 53e1 39bc b7f4 20bb 83eb 37bc cb7d 10bc
000001f0: 9f14 79bc ab5a 0bbc fa31 c5bb 8077 58bb
00000200: 04ba 923b 4e01 94bb 7370 ef3a 41c3 853c
00000210: 4395 6b3b 07e6 23bb e500 5a3c 0a7d 52bb
00000220: e042 f73b f8ae 81bc c0a7 273c 2070 1e3a
00000230: c3f3 98bb 1086 b63c a81e 5ebb bbcd 64bc
00000240: 5e51 81bb a16e c13b 5714 d83a 1ff0 143c
00000250: 1de0 cf3b 6ff8 a73b a2cf 373c 4d71 703a
00000260: 7a2a a33a 684c d33a bb53 8fbb 5f49 273b
00000270: 3cd2 483a 42fc 4e3b 5f68 233a ac9b 1e3b
00000280: 6b1e 153a fadf 46bb 9b1f 8e3b d34c ca3b
00000290: 164f 9dbc 5dad 91bb b334 6bbc 77f2 c4bb
000002a0: 80a5 e53b 5b59 debb 0bda 5a3b dfaf 5ebc
000002b0: 50a1 0c3c 55c0 28bb 7377 ae3b bf44 06bc
000002c0: e4b9 af39 c2a0 613c 279b 963b 4d11 e9bb
000002d0: 0f48 663c 85ba fbbb 07f2 20bc 37d0 633b
000002e0: 61cc 8dbc b589 dfbb 22a3 343c 3bc1 c53b
000002f0: 9636 883a 4d35 b23b 65eb 903b cfb2 c93b
00000300: c638 bf39 0b92 933b a830 20bb 30d7 683a
00000310: e0dc 32bb cd89 70bc 0716 643c 6b79 13bc
00000320: 490e 10bc 64ee 9dbb 3792 9bbb 460d aebb
00000330: b551 fc3a 3d98 f53a 068c 89bb ab00 dabb
00000340: 330d 7e3b 4342 efbb 14cf b33a 8c72 08bb
00000350: 2f9c 6a3b 3beb 0fbb e4ce 0e3a 6dc0 bcba
00000360: ddba 073c 6ea3 31bc 1ad5 0abc 422c 80b9
00000370: 271f f1bb a330 823b e76c 48bc a08b 70b9
00000380: 4ada e43b b1a9 21bc e22d 7ebc 6261 54bc
00000390: 9a8c b93b 209b 4c3c 5a1a 083c c65b 9bbb
000003a0: 89d4 bb3a e0bd 31bb 1766 b7b9 5f0d 89bb
000003b0: f932 2cbc a4d2 b1bb 6ae6 333b 1814 4d3b
000003c0: 829c 0cbc b55b a6bb 2d2e 01bc 3dc7 213c
000003d0: 72eb 70bc 4a6c f4bb 2fe7 7bbb 028b 5fbb
000003e0: af70 713c 0713 bfbb c6e5 98bb 1c6b a83b
000003f0: be91 4c3c 7733 ff3b 072f b8bb a0ea db3b

action_model._discrete_distribution.branches.0.bias f4 [4]
0.0 0.0 0.0 0.0
00000000: 0000 0000 0000 0000 0000 0000 0000 0000
