results/playeragent1/PlayerAgent/PlayerAgent-192.onnx (onnx, 74130 bytes, 5 tensors)

network_body._body_endoder.seq_layers.0.weight f4 [128, 2]
1.382032 1.1897011 0.34763795 -0.8722899 0.41474402 -0.14931908 -1.2444966 -0.20576672
0.04374589 0.9929747 -0.6156051 0.60111886 -0.057098 0.012920516 -0.714427 0.57611054
1.396689 -0.28527576 -0.89711994 -0.06151435 0.31551582 -0.60387933 -1.1372591 -0.4958661
0.5326999 -0.020811537 0.20132418 0.3629532 -0.8925486 0.4646114 0.0803559 -0.11117684
0.6276845 -0.74294066 0.07754856 1.6078361 -0.1519345 0.34429398 -0.22909941 -0.12575689
0.54742545 -0.19959153 0.4972754 -0.5250225 -0.3741386 1.3877491 1.0301087 0.371957
-0.75903666 1.397988 -0.73772275 0.25975618 0.29602394 -0.4655942 0.82167816 0.30876124
-0.46107987 -0.6408709 -1.3838891 1.2680933 0.2400041 -0.004741367 -0.027861284 1.0541556
-0.82997704 -0.16515559 -0.7500021 0.24629842 1.1189693 0.11747262 -0.82409304 -1.1878456
0.3553324 0.15890627 0.7541304 -0.4917027 -0.975366 -0.09847429 -0.4495036 -0.89493656
-0.22645746 -0.28732485 -0.88790697 0.35051575 0.50849646 -0.42935064 0.5523937 -0.6286192
0.09668672 -0.024787683 -1.8277751 -0.94829935 0.016696773 -0.7506458 0.06277305 -0.054471914
1.0542094 -0.68870544 0.6213525 -0.68635166 -0.84772533 -0.47927773 0.5567022 -0.0696454
0.39442694 0.18543239 -0.2901497 0.38882405 -0.4296678 -1.0414976 0.9056428 0.88134986
0.03311933 -0.89139074 0.15587729 -0.38447976 0.1144439 -0.13687211 0.47880122 -0.13782038
1.3405765 0.13746653 -0.6207569 -0.29416126 1.1573104 -1.2300134 1.1790226 0.5768019
1.0479892 -1.3070678 0.46635547 -0.120992064 1.0812473 -0.3159836 0.2866232 -0.63713074
-0.26793045 0.7613014 -0.31176737 -1.2862232 0.43002623 0.51257277 -0.677331 0.20728132
-0.5621697 -0.26688388 -0.7092257 -0.17245209 0.33880255 -0.7122692 -0.2101001 -0.22935809
0.65947986 -0.31448507 -0.448079 0.5118791 0.41046593 -0.046977226 -0.86922485 -0.4294068
0.25221094 -0.29928806 -0.7860643 -0.095999785 1.262144 -0.24314255 -0.100714885 1.2262263
0.10127057 0.7296397 -0.10013077 -0.6641208 0.64545476 -0.34517372 0.9911 0.19288458
0.43428946 0.10913619 0.5674634 -0.3926618 0.09164618 -0.45682645 -0.5774398 -0.06865416
0.0032046055 -1.0194126 -0.6170887 -1.1555797 0.9519272 -0.5185195 0.15826723 -0.38940686
-0.24340081 2.1149707 0.015630659 -0.35733905 0.5405287 0.9738194 -0.6931488 -0.31408313
-0.039638296 1.1985952 -1.7736678 0.44722542 -0.5061153 -0.89103866 -0.86838925 -0.6493987
1.069273 -0.7769853 -1.5868044 0.5086924 0.40020835 -0.23145378 0.26447242 0.29137266
-0.0070983325 0.23224117 -0.37551135 0.3008901 -0.31048164 -1.1258696 -0.8454121 -1.2941147
0.10875839 0.17885858 0.38074446 -0.31261024 0.26902482 1.0452082 0.94909173 0.78707373
-0.9624776 -0.6745895 -0.38394713 -0.7733704 -0.54810464 -1.506818 -0.81606007 -0.23838253
0.8595395 -1.690592 -0.74129623 0.6628277 -0.7536662 -0.61570734 -0.9186509 -0.23910443
0.14467596 0.39033973 0.5961385 -0.14043637 0.10570144 0.054389063 0.3015779 -1.3376515
00000000: 6de6 b03f 2048 983f 9afd b13e 644e 5fbf
00000010: 5459 d43e 1ae7 18be aa4b 9fbf 83b4 52be
00000020: e42e 333d 9733 7e3f 4c98 1dbf ede2 193f
00000030: 98df 69bd 92b0 533c b0e4 36bf fb7b 133f
00000040: b5c6 b23f aa0f 92be a7a9 65bf 79f6 7bbd
00000050: 4a8b a13e d697 1abf b591 91bf 29e2 fdbe
00000060: 055f 083f f57c aabc ed27 4e3e 00d5 b93e
00000070: 117e 64bf 8ce1 ed3e a291 a43d afb0 e3bd
00000080: eeaf 203f 5c31 3ebf c8d1 9e3d 93cd cd3f
00000090: b894 1bbe 4d47 b03e 0999 6abe 6ac6 00be
000000a0: 1324 0c3f b961 4cbe e29a fe3e e067 06bf
000000b0: 188f bfbe c3a1 b13f 9ada 833f 2671 be3e
000000c0: 3a50 42bf 45f1 b23f 66db 3cbf c3fe 843e
000000d0: 7390 973e 5d62 eebe 8059 523f f415 9e3e
000000e0: a912 ecbe 1e10 24bf 4723 b1bf e250 a23f
000000f0: a3c3 753e 785d 9bbb 593d e4bc 92ee 863f
00000100: 6079 54bf 8c1e 29be 2300 40bf a735 7c3e
00000110: 633a 8f3f 7c95 f03d c3f7 52bf 530b 98bf
00000120: 21ee b53e 53b8 223e b10e 413f 75c0 fbbe
00000130: 96b1 79bf e3ac c9bd 5625 e6be 901a 65bf
00000140: 77e4 67be 3e1c 93be df4d 63bf cd76 b33e
00000150: d32c 023f d9d3 dbbe ac69 0d3f 30ed 20bf
00000160: b003 c63d 8a0f cbbc 89f4 e9bf bfc3 72bf
00000170: acc7 883c 532a 40bf 288f 803d f11d 5fbd
00000180: 55f0 863f 004f 30bf f510 1f3f beb4 2fbf
00000190: 8704 59bf e463 f5be 0984 0e3f 3fa2 8ebd
000001a0: 54f2 c93e fde1 3d3e 808e 94be f213 c73e
000001b0: 6bfd dbbe cb4f 85bf 35d8 673f 25a0 613f
000001c0: 22a8 073d 2f32 64bf 4c9e 1f3e 88da c4be
000001d0: 9061 ea3d 3428 0cbe 6f25 f53e c920 0dbe
000001e0: 0398 ab3f 07c4 0c3e ede9 1ebf 4e9c 96be
000001f0: bf22 943f 1471 9dbf 36ea 963f 4aa9 133f
00000200: 8324 863f ff4d a7bf 25c6 ee3e b0ca f7bd
00000210: 5066 8a3f 9ac8 a1be 47c0 923e 001b 23bf
00000220: 2e2e 89be a6e4 423f f99f 9fbe f6a2 a4bf
00000230: 662c dc3e f837 033f 9065 2dbf 8e41 543e
00000240: 5aea 0fbf 01a5 88be d18f 35bf 4897 30be
00000250: 8777 ad3e 4657 36bf 7b24 57be d9dc 6abe
00000260: acd3 283f 3004 a1be 9c6a e5be 820a 033f
00000270: 9728 d23e 316b 40bd 8585 5ebf 35db dbbe
00000280: cb21 813e 493c 99be 833b 49bf 899b c4bd
00000290: ef8d a13f 5cfa 78be 9b43 cebd fcf4 9c3f
000002a0: f266 cf3d abc9 3a3f 5c11 cdbd d203 2abf
000002b0: 863c 253f 9cba b0be bbb8 7d3f 8983 453e
000002c0: 305b de3e cb82 df3d 4845 113f f80a c9be
000002d0: feb0 bb3d 28e5 e9be 18d3 13bf 8d9a 8cbd
000002e0: 5c04 523b 1d7c 82bf 86f9 1dbf 09ea 93bf
000002f0: 80b1 733f b2bd 04bf ce10 223e 5660 c7be
00000300: 103e 79be ae5b 0740 de0b 803c 25f5 b6be
00000310: 1760 0a3f 3a4c 793f 3372 31bf 81cf a0be
00000320: c45b 22bd 916b 993f 8c07 e3bf bbfa e43e
00000330: c690 01bf 1c1b 64bf c24e 5ebf fe3e 26bf
00000340: f0dd 883f 82e8 46bf 681c cbbf aa39 023f
00000350: 1ce8 cc3e 3802 6dbe ee68 873e cc2e 953e
00000360: 2199 e8bb a1d0 6d3e 0643 c0be 440e 9a3e
00000370: 73f7 9ebe 7f1c 90bf ed6c 58bf 8da5 a5bf
00000380: b8bc de3d b426 373e f0f0 c23e 730e a0be
00000390: 9fbd 893e 62c9 853f adf7 723f aa7d 493f
000003a0: ef64 76bf e6b1 2cbf b894 c4be 9afb 45bf
000003b0: 9650 0cbf 6adf c0bf 50e9 50bf 8d1a 74be
000003c0: c80a 5c3f 5265 d8bf 97c5 3dbf 13af 293f
000003d0: 45f0 40bf ff9e 1dbf b52c 6bbf cbd7 74be
000003e0: ef25 143e 9cda c73e 889c 183f 8dce 0fbe
000003f0: ff79 d83d 11c7 5e3d 6b68 9a3e 2a38 abbf

network_body._body_endoder.seq_layers.0.bias f4 [128]
0.0 0.0 0.0 0.0 0.0 0.0 0.0 0.0
0.0 0.0 0.0 0.0 0.0 0.0 0.0 0.0
0.0 0.0 0.0 0.0 0.0 0.0 0.0 0.0
0.0 0.0 0.0 0.0 0.0 0.0 0.0 0.0
0.0 0.0 0.0 0.0 0.0 0.0 0.0 0.0
0.0 0.0 0.0 0.0 0.0 0.0 0.0 0.0
0.0 0.0 0.0 0.0 0.0 0.0 0.0 0.0
0.0 0.0 0.0 0.0 0.0 0.0 0.0 0.0
0.0 0.0 0.0 0.0 0.0 0.0 0.0 0.0
0.0 0.0 0.0 0.0 0.0 0.0 0.0 0.0
0.0 0.0 0.0 0.0 0.0 0.0 0.0 0.0
0.0 0.0 0.0 0.0 0.0 0.0 0.0 0.0
0.0 0.0 0.0 0.0 0.0 0.0 0.0 0.0
0.0 0.0 0.0 0.0 0.0 0.0 0.0 0.0
0.0 0.0 0.0 0.0 0.0 0.0 0.0 0.0
0.0 0.0 0.0 0.0 0.0 0.0 0.0 0.0
00000000: 0000 0000 0000 0000 0000 0000 0000 0000
00000010: 0000 0000 0000 0000 0000 0000 0000 0000
00000020: 0000 0000 0000 0000 0000 0000 0000 0000
00000030: 0000 0000 0000 0000 0000 0000 0000 0000
00000040: 0000 0000 0000 0000 0000 0000 0000 0000
00000050: 0000 0000 0000 0000 0000 0000 0000 0000
00000060: 0000 0000 0000 0000 0000 0000 0000 0000
00000070: 0000 0000 0000 0000 0000 0000 0000 0000
00000080: 0000 0000 0000 0000 0000 0000 0000 0000
00000090: 0000 0000 0000 0000 0000 0000 0000 0000
000000a0: 0000 0000 0000 0000 0000 0000 0000 0000
000000b0: 0000 0000 0000 0000 0000 0000 0000 0000
000000c0: 0000 0000 0000 0000 0000 0000 0000 0000
000000d0: 0000 0000 0000 0000 0000 0000 0000 0000
000000e0: 0000 0000 0000 0000 0000 0000 0000 0000
000000f0: 0000 0000 0000 0000 0000 0000 0000 0000
00000100: 0000 0000 0000 0000 0000 0000 0000 0000
00000110: 0000 0000 0000 0000 0000 0000 0000 0000
00000120: 0000 0000 0000 0000 0000 0000 0000 0000
00000130: 0000 0000 0000 0000 0000 0000 0000 0000
00000140: 0000 0000 0000 0000 0000 0000 0000 0000
00000150: 0000 0000 0000 0000 0000 0000 0000 0000
00000160: 0000 0000 0000 0000 0000 0000 0000 0000
00000170: 0000 0000 0000 0000 0000 0000 0000 0000
00000180: 0000 0000 0000 0000 0000 0000 0000 0000
00000190: 0000 0000 0000 0000 0000 0000 0000 0000
000001a0: 0000 0000 0000 0000 0000 0000 0000 0000
000001b0: 0000 0000 0000 0000 0000 0000 0000 0000
000001c0: 0000 0000 0000 0000 0000 0000 0000 0000
000001d0: 0000 0000 0000 0000 0000 0000 0000 0000
000001e0: 0000 0000 0000 0000 0000 0000 0000 0000
000001f0: 0000 0000 0000 0000 0000 0000 0000 0000

network_body._body_endoder.seq_layers.2.weight f4 [128, 128]
0.022502813 0.031380977 -0.0045314683 -0.039869312 0.04110797 -0.0352245 -0.0019404137 -0.0015682417
-0.021083128 -0.09710947 0.0017772198 -0.16634774 -0.06761889 -0.02115745 0.023152817 -0.061616804
0.16938832 0.00089031504 -0.12288949 0.14357267 -0.0920424 0.0023448612 -0.061191574 0.04040957
0.008117087 -0.11895668 0.08144123 0.21899022 -0.0091836145 -0.07372753 -0.102633074 -0.29030207
0.13208969 0.0026561036 -0.05313822 0.019743135 0.06383347 0.099787116 0.1073568 -0.052301988
0.047708962 -0.118407376 0.053677578 -0.11267691 -0.017742505 -0.027083265 0.030555999 -0.10581572
-0.067965575 0.15076047 0.00444872 0.013606205 -0.029422125 -0.22347711 -0.04236783 0.071141675
0.13549764 0.08332179 -0.066367105 0.05106526 -0.03372715 0.10172479 0.013596073 0.088997744
-0.07959236 0.045928188 0.06842108 -0.016375424 -0.20023923 0.120428994 0.024178088 0.008170511
-0.081765756 0.04148781 -0.03751243 0.013152746 0.09254867 0.17848949 -0.08505513 0.051635798
0.01348499 0.090711236 0.020788545 -0.018568998 -0.12556909 0.15393652 -0.044371273 -0.06837995
-0.05942674 0.10764354 -0.099914074 0.12973447 -0.002337787 -0.059384614 0.14950697 -0.055713106
0.07116282 -0.042599164 0.11387926 0.06947696 0.009161765 -0.004731597 0.11899268 0.13074802
0.07101229 -0.002288892 -0.021016246 0.027877672 0.15781125 -0.066215605 -0.09124702 -0.12597921
0.07928073 0.016173553 0.046040736 -0.15040518 0.04334652 -0.18542363 0.08998057 -0.1215099
0.08618998 0.09204194 0.06372436 -0.13330945 0.15440114 -0.012870607 -0.059029948 0.087116495
-0.16884148 -0.16898055 0.0468353 -0.023106221 -0.13419266 -0.1023947 0.0021896055 0.05834268
0.12222972 0.020301087 0.047217123 -0.06791654 -0.114514336 0.015996601 0.02298598 0.05462373
0.055396132 -0.09423629 -0.0040217224 -0.09367171 0.08024618 0.06333139 0.09187534 -0.0005854405
-0.11144648 -0.005059856 -0.004403291 0.049064543 -0.020109236 0.028362963 -0.028152917 -0.16237387
0.028765861 0.04127004 0.0540793 -0.036101315 -0.08483888 0.16414347 -0.110277556 -0.015798042
0.04197055 0.110896155 -0.0054228944 0.045462683 0.05070318 -0.027090937 0.0066326885 0.009964997
0.073200084 0.120473444 0.029122658 0.042427376 -0.064662136 0.018350808 0.04959999 -0.09085762
0.01865936 0.085498214 0.1631544 0.12247202 -0.0020512438 -0.09445119 -0.074559905 -0.15303652
-0.09989039 0.08524635 -0.0146868965 -0.034006607 -0.1040694 0.0670562 0.12168008 0.07828294
0.17713581 -0.21074806 0.030825038 0.06485206 -0.14027277 0.044885844 0.0062833447 0.012542207
0.050169084 -0.02068609 -0.08546155 -0.01613066 0.017174508 0.0027189616 -0.016325964 0.048178367
-0.16500947 0.037450932 0.0060984883 0.02389637 0.12896748 -0.053291377 -0.009572261 -0.021475017
0.05395474 0.10839893 -0.11560817 0.046858877 -0.12101952 0.09093248 0.030325476 0.07174048
-0.0483925 -0.15353616 0.032337192 0.052058853 0.029149475 -0.052627895 -0.04027652 0.03083749
0.07024554 -0.0027058206 0.04967815 -0.0346697 0.05659693 0.06997612 0.0067952555 0.023037653
-0.020721067 0.048428286 0.062129427 0.07317276 0.16155857 -0.0037445242 -0.028518109 -0.031583004
00000000: d257 b83c 5789 003d b67c 94bb 014e 23bd
00000010: d560 283d 9147 10bd 7b55 feba 768d cdba
00000020: 86b6 acbc 54e1 c6bd 9af1 e83a 1057 2abe
00000030: c67b 8abd 6352 adbc faaa bd3c e761 7cbd
00000040: 2274 2d3e 0864 693a 7cad fbbd b704 133e
00000050: ba80 bcbd 3eac 193b 04a4 7abd 8184 253d
00000060: 88fd 043c 8f9f f3bd a9ca a63d f93e 603e
00000070: df76 16bc 76fe 96bd 4a31 d2bd 79a2 94be
00000080: 8542 073e 0612 2e3b 76a7 59bd 5bbc a13c
00000090: 1fbb 823d 305d cc3d e2dd db3d 9c3a 56bd
000000a0: 796a 433d 917f f2bd 05dd 5b3d 27c3 e6bd
000000b0: bb58 91bc b9dd ddbc 9350 fa3c eab5 d8bd
000000c0: 8931 8bbd f460 1a3e 91c6 913b 8fec 5e3c
000000d0: ab06 f1bc 2fd7 64be e489 2dbd bab2 913d
000000e0: e5bf 0a3e 9da4 aa3d 7aeb 87bd ce29 513d
000000f0: 7b25 0abd 1655 d03d 10c2 5e3c 7344 b63d
00000100: 5201 a3bd 321f 3c3d 5a20 8c3d c125 86bc
00000110: 830b 4dbe 7aa3 f63d 2011 c63c 9bdd 053c
00000120: ce74 a7bd 1fef 293d a2a6 19bd 9d7e 573c
00000130: 288a bd3d f3c5 363e 6231 aebd 0f80 533d
00000140: 26f0 5c3c d0c6 b93d bd4c aa3c 031e 98bc
00000150: 2f95 00be 89a1 1d3e a7be 35bd ca0a 8cbd
00000160: 7469 73bd 3774 dc3d c09f ccbd 1dd9 043e
00000170: 8f35 19bb 483d 73bd 5b18 193e 6d33 64bd
00000180: d0bd 913d 767c 2ebd 8839 e93d f049 8e3d
00000190: 3a1b 163c 830b 9bbb 6fb2 f33d cfe2 053e
000001a0: e46e 913d 3c01 16bb 432a acbc b75f e43c
000001b0: 4699 213e 0c9c 87bd b8df babd b200 01be
000001c0: ef5d a23d 667e 843c 3695 3c3d d103 1abe
000001d0: 1f8c 313d b1df 3dbe bc47 b83d 2fda f8bd
000001e0: 5f84 b03d 7c80 bc3d eb81 823d 4682 08be
000001f0: 551b 1e3e 3ddf 52bc 63c9 71bd 226a b23d
00000200: c8e4 2cbe 3d09 2dbe 5fd6 3f3d 4249 bdbc
00000210: cd69 09be 50b4 d1bd 7c7f 0f3b bcf8 6e3d
00000220: 9353 fa3d 774e a63c be66 413d d417 8bbd
00000230: 7e86 eabd 4e0b 833c 184d bc3c 22bd 5f3d
00000240: 0ee7 623d f5fe c0bd a7c8 83bb f4d6 bfbd
00000250: 1c58 a43d e3b3 813d 2329 bc3d 3f78 19ba
00000260: 0d3e e4bd 26cd a5bb 7b49 90bb e7f7 483d
00000270: 20bc a4bc 7259 e83c f2a0 e6bc 5645 26be
00000280: 62a6 eb3c c60a 293d 4282 5d3d f9de 13bd
00000290: 02c0 adbd 3a15 283e 33d9 e1bd e56a 81bc
000002a0: 50e9 2b3d 861d e33d 89b2 b1bb 1437 3a3d
000002b0: 23ae 4f3d d0ed ddbc 0657 d93b 3a44 233c
000002c0: ede9 953d c8ba f63d a492 ee3c 54c8 2d3d
000002d0: 956d 84bd 6f54 963c 5c29 4b3d 8f13 babd
000002e0: 84db 983c b019 af3d f211 273e 9cd2 fa3d
000002f0: 296e 06bb a06f c1bd ddb2 98bd 9bb5 1cbe
00000300: 5593 ccbd a395 ae3d 4fa1 70bc 834a 0bbd
00000310: 5622 d5bd c354 893d 6833 f93d ce52 a03d
00000320: 1763 353e 57ce 57be ca84 fc3c 28d1 843d
00000330: aaa3 0fbe 38da 373d 84e4 cd3b d47d 4d3c
00000340: 197e 4d3d e075 a9bc 7706 afbd 7224 84bc
00000350: 8eb1 8c3c 9b30 323b 07be 85bc ae56 453d
00000360: 3ef8 28be 2666 193d d4d5 c73b 52c2 c33c
00000370: 0d10 043e 0f48 5abd f9d4 1cbc 60ec afbc
00000380: a5ff 5c3d 4200 de3d fac3 ecbd 18ef 3f3d
00000390: 15d9 f7bd cf3a ba3d 226d f83c acec 923d
000003a0: 3737 46bd 9538 1dbe 0174 043d aa3b 553d
000003b0: e1ca ee3c 5990 57bd fef8 24bd e79e fc3c
000003c0: e5dc 8f3d 2354 31bb 517b 4b3d d101 0ebd
000003d0: 2fd2 673d a44f 8f3d bcaa de3b 76b9 bc3c
000003e0: 3abf a9bc bd5c 463d 6d7b 7e3d 9adb 953d
000003f0: 9c6f 253e b166 75bb cf9e e9bc 2e5d 01bd

action_model._discrete_distribution.branches.0.weight f4 [4, 128]
-0.000849036 0.0074959393 -0.0050767525 0.0075238207 0.016186377 -0.008770739 -0.0040307217 -0.001266546
-0.00602451 -0.020901037 0.0057865107 0.006897325 -0.0073115663 -0.0047592395 0.0071460665 -0.004273487
-0.002571159 -0.007369462 0.0006773461 0.015085044 -0.0069664754 -0.003486871 -0.018256692 0.012384935
-0.022749495 -0.0088707125 0.0039586234 -0.004577407 0.0019195616 0.009205411 -0.0042091347 0.014426256
-0.010194189 -0.0036328614 0.005719181 -0.0006156168 -0.005491098 -0.014002933 0.00795847 0.0016187994
0.003513254 0.0037243322 -0.0064126835 -0.008739451 -0.00027168423 -0.024247205 0.010172692 -0.0075273514
0.029140284 0.0015877394 0.0099056605 0.008246636 0.0037272244 -0.003634937 -0.011489013 0.00020034872
0.006529603 -0.002336187 -0.00192496 0.0052510337 0.0070597143 0.00017495903 0.009703032 -0.0037944082
-0.013807158 0.010120069 0.0046108216 0.007972682 -0.012957789 0.0051807924 -0.0066434294 0.007420843
-0.0015149758 0.010610585 0.011109023 0.0006898289 0.017011756 0.019318953 0.022143623 0.0040754955
-0.00041677066 -0.0066155256 -0.0014958015 -0.022262527 0.0038182528 -0.0044350633 -0.0009045671 -0.0134967435
0.020514205 0.016494535 -0.008363671 -0.006914557 0.010027644 0.0058520003 0.01331899 0.004406091
0.015000786 -0.0072526494 0.004395134 0.0024376805 0.00797672 -0.014309838 -0.00026566765 -0.002853874
0.015092166 -0.018221175 0.013271654 0.0062866444 -0.003354668 0.00060199853 0.017498795 -0.0060703964
-0.0025676722 -0.003926779 -0.0047991835 -0.016090183 0.0047244853 -0.010249734 0.0028875824 -0.011973262
-0.0031685133 -0.005748241 -0.0026677658 -0.007190989 0.007712779 0.001423802 0.0031344157 0.02005293
-0.013044274 -0.00045759045 0.0062290407 0.0063003944 0.018311938 -0.006437988 -0.004061242 0.005457538
-0.006314095 0.0043491856 0.002349072 -0.005947967 0.0076169143 -0.00013210443 0.0061882553 0.0019520946
-0.0027226505 0.009318425 -0.0015827054 0.0001986597 0.00023867945 0.004455127 -0.0007449731 0.0025967748
0.012685696 -0.0057575754 0.0047228276 0.013139148 0.0030650203 -0.0027842282 -0.0013616051 0.0109504415
-0.0063812635 0.00016935874 -0.0077278777 -0.010576537 -0.000794027 -0.0035695154 -0.004401538 0.00032398503
0.007813584 -0.0155010065 -0.015137345 0.0014838998 0.02043466 0.010334013 0.010329416 0.00044651717
-0.0016498571 0.014463954 -0.0074011446 0.0048977192 0.0046394714 0.0081580505 0.0041031814 0.0052040895
0.007867175 0.005961122 -0.015310446 -0.010971959 -0.014790836 0.0004167745 -0.00468279 -0.0055443277
-0.0029964703 0.0016141351 0.005949923 0.0028718913 -0.0077046915 -0.0017080558 -0.008794402 -0.0017708596
0.015271393 0.013325915 0.0069292127 7.0302945e-06 0.029862339 0.008518357 -0.0014616 -0.00221886
-0.0012835602 -0.010852079 0.0008153212 -0.002593689 0.013697065 -0.01377369 0.014607854 0.0030851208
-0.009096308 -0.0029805736 0.015351871 -0.0077246143 -0.0039288774 0.0069597834 -0.0066314535 -0.021327358
0.015272059 0.016593128 0.006057096 -0.0039652498 0.006423039 0.0084833205 -0.0049193637 0.0052092928
0.001998997 0.003944531 0.008387227 0.009908425 -0.011204129 0.004600201 0.0073282816 0.0114340745
-0.012044211 -0.010695103 0.001579027 -0.021611845 0.0070162057 -0.011102742 0.0074918787 0.019880785
0.0064731846 0.01777187 0.004052236 0.00851823 0.014075632 0.0065592634 0.0040028947 0.010584092
00000000: d791 5eba 7fa0 f53b e35a a6bb 628a f63b
00000010: 4b99 843c 25b3 0fbc 2514 84bb 3b02 a6ba
00000020: 4169 c5bb a738 abbc c59c bd3b f502 e23b
00000030: dd95 efbb 65f3 9bbb 8d29 ea3b 9b08 8cbb
00000040: e480 28bb 877b f1bb ed8f 313a 4327 773c
00000050: 0847 e4bb fd83 64bb 0f8f 95bc 2fea 4a3c
00000060: 265d babc 7756 11bc 57b7 813b 13fe 95bb
00000070: cd99 fb3a 4bd2 163c c8ec 89bb 1a5c 6c3c
00000080: 8705 27bc 4d15 6ebb f867 bb3b 5861 21ba
00000090: abee b3bb 8f6c 65bc 3e64 023c e52d d43a
000000a0: 9f3e 663b ed13 743b 7d21 d2bb ea2f 0fbc
000000b0: d770 8eb9 13a2 c6bc 5dab 263c 00a8 f6bb
000000c0: 9bb7 ee3c b21b d03a 5a4b 223c e61c 073c
000000d0: 7344 743b 2038 6ebb 6a3c 3cbc b314 5239
000000e0: 48f6 d53b b71a 19bb f04e fcba dd10 ac3b
000000f0: 2d55 e73b 3575 3739 77f9 1e3c 9bab 78bb
00000100: 6b37 62bc a5ce 253c 6016 973b da9f 023c
00000110: e84c 54bc a3c3 a93b 20b1 d9bb 8b2a f33b
00000120: 2792 c6ba 05d8 2d3c 9f02 363c a2d5 343a
00000130: 3d5c 8b3c c842 9e3c 8b66 b53c bc8b 853b
00000140: 0382 dab9 0dc7 d8bb c50e c4ba e75f b6bc
00000150: a73b 7a3b 0254 91bb 7820 6dba 7221 5dbc
00000160: 680d a83c 8c1f 873c c707 09bc 8293 e2bb
00000170: fd4a 243c 23c2 bf3b e537 5a3c f860 903b
00000180: dbc5 753c a2a7 edbb 0e05 903b 7ec1 1f3b
00000190: cab0 023c d073 6abc 4f49 8bb9 0f08 3bbb
000001a0: 2245 773c 9344 95bc 5a71 593c 3200 ce3b
000001b0: fdd9 5bbb 70cf 1d3a a259 8f3c 2dea c6bb
000001c0: 6446 28bb 36ac 80bb 7842 9dbb 8fcf 83bc
000001d0: dbcf 9a3b 80ee 27bc 983d 3d3b 802b 44bc
000001e0: d5a6 4fbb be5b bcbb afd5 2ebb 63a2 ebbb
000001f0: 7bbb fc3b de9e ba3a c56a 4d3b 0b46 a43c
00000200: a7b7 55bc c0e8 efb9 fb1c cc3b 8a73 ce3b
00000210: eb02 963c c2f5 d2bb 2b14 85bb 26d5 b23b
00000220: 78e6 cebb 9d83 8e3b e3f2 193b 2ae7 c2bb
00000230: 4f97 f93b 8385 0ab9 d9c6 ca3b 6ddd ff3a
00000240: 7f6e 32bb 4fac 183c c872 cfba 4f4f 5039
00000250: 0746 7a39 50fc 913b 4c4a 43ba a72e 2a3b
00000260: aad7 4f3c 0baa bcbb f3c1 9a3b 9545 573c
00000270: 82de 483b 9977 36bb e377 b2ba 7b69 333c
00000280: eb19 d1bb e495 3139 233a fdbb 3649 2dbc
00000290: 4026 50ba 88ee 69bb c73a 90bb 89dc a939
000002a0: 8c04 003c eff7 7dbc a002 78bc 6a7f c23a
000002b0: 9766 a73c fe4f 293c b63c 293c 851a ea39
000002c0: 0540 d8ba 38fa 6c3c 4d85 f2bb 0c7d a03b
000002d0: b506 983b 58a9 053c fb73 863b 1187 aa3b
000002e0: 53e5 003c 8455 c33b aad8 7abc bbc3 33bc
000002f0: 4355 72bc 8782 da39 1772 99bb 31ad b5bb
00000300: 6e60 44bb 6391 d33a 92f7 c23b 5736 3c3b
00000310: a377 fcbb d8e0 dfba 6516 10bc 301c e8ba
00000320: dd34 7a3c f054 5a3c 730e e33b c5e5 eb36
00000330: dda1 f43c 9490 0b3c 2893 bfba 4b6a 11bb
00000340: 223d a8ba ebcc 31bc 48bb 553a e1fa 29bb
00000350: a869 603c 0bab 61bc c855 6f3c bd2f 4a3b
00000360: ae08 15bc ba55 43bb 6a86 7b3c c31e fdbb
00000370: d0bd 80bb e50e e43b aa4c d9bb b6b6 aebc
00000380: a837 7a3c 50ee 873c 9b7a c63b edee 81bb
00000390: 5b78 d23b a0fd 0a3c 9d32 a1bb b7b2 aa3b
000003a0: 9b01 033b 2041 813b 946a 093c f256 223c
000003b0: 8691 37bc 48bd 963b 1522 f03b fc55 3b3c
000003c0: 1555 45bc 833a 2fbc 5bf7 ce3a 530b b1bc
000003d0: 33e8 e53b 46e8 35bc 6f7e f53b 07dd a23c
000003e0: 021d d43b 5096 913c 9fc8 843b 0c90 0b3c
000003f0: 7b9d 663c 17ef d63b b72a 833b e668 2d3c

action_model._discrete_distribution.branches.0.bias f4 [4]
0.0 0.0 0.0 0.0
00000000: 0000 0000 0000 0000 0000 0000 0000 0000
