results/playeragent1/PlayerAgent/PlayerAgent-128343.onnx (onnx, 77350 bytes, 9 tensors)

discrete_act_size_vector f4 [1, 2]
3.0 2.0
00000000: 0000 4040 0000 0040

network_body._body_endoder.seq_layers.0.weight f4 [128, 2]
0.30818963 -0.35219973 1.4953576 -1.5133598 0.41519353 -0.54926765 -0.14177324 0.6621927
0.30012935 0.9563529 0.070061155 -0.5403972 1.496337 0.654305 0.7273574 0.5613435
-0.38080466 -0.08521741 -1.3261343 -0.8764679 0.038562346 -0.04464279 0.527313 0.47795886
-0.6197573 0.9079878 0.024522357 0.6816136 -0.22698529 0.59043825 1.2937107 -0.09959539
-0.29641947 -1.5088228 -0.48659873 0.49494573 -0.34787893 1.3037602 0.30384874 0.8949356
-0.37540203 0.48007885 0.71785337 1.0454689 -0.34644717 -0.54487383 -0.77615035 -0.9878747
-0.6559494 -1.5093524 0.0036319285 0.30348647 -0.73588383 -0.7410298 0.9259362 0.21889985
0.036297046 0.19506831 -0.30712596 0.22264473 -0.08261647 -1.3098804 0.2836107 0.5150445
-0.32361516 0.42067492 -0.05910598 -1.3353972 -0.045968268 -0.7573504 -0.18383235 0.41255376
-0.969808 -0.23909561 0.12614973 -0.98952544 -0.58190584 -1.9463886 -0.42683592 0.7799492
1.2394911 -1.2253875 1.4365319 -0.71506697 0.08664593 -0.51537776 1.2339339 0.012213924
0.039522048 0.42919135 0.6353512 0.06841936 -0.28908142 0.5323536 0.28598657 0.19102041
-0.9494473 0.7886086 1.2743601 0.59578115 -0.9308286 -0.590987 0.3877537 0.25906602
-0.8445026 -1.5048878 0.35331237 -0.3917652 -0.2138427 0.29510728 -1.5201101 -1.285802
0.028911317 -0.42289189 1.3381791 -0.09720639 -0.37806532 -0.9476595 -0.6725067 -0.79205775
-0.20677519 -0.1520184 -0.9934657 0.67085505 0.5798684 0.4673669 -0.044694453 0.31984192
-0.19844978 0.5056793 -1.6599572 1.0347407 0.43883726 0.36261278 0.5489389 -0.080054484
-0.6132217 0.43107575 -1.4133431 1.0763131 0.49392572 0.17421195 1.1555157 0.26233256
0.41967726 0.51763403 0.96818197 1.8562254 -0.23821804 -0.19618015 -0.69227165 -0.23932181
0.97977275 -0.22236538 0.039701674 0.2679923 0.8117833 1.3386871 -0.16092749 0.07142517
0.09661846 -0.9812708 0.61884475 0.61319876 0.44660679 -0.2164 0.34596595 0.5900547
-0.58160967 0.15711023 -0.024899315 0.22994758 -0.39935994 -0.07943863 0.45906517 -0.17206566
-0.0480142 -1.5814325 0.39233765 1.1839526 0.5605735 -0.43827206 -0.7227248 -1.298587
0.26091906 -0.3077972 -0.89314973 -0.25934982 -1.1100949 0.04697731 0.07536987 -1.1454855
-0.048331372 -0.5928259 0.49717924 -0.43638432 0.55121505 -0.29441014 0.55376285 -0.1072092
0.05329968 -1.5503713 0.4262527 0.33799297 1.2579207 0.014407957 -1.3320439 1.2656703
-0.28103018 -0.4994875 -0.6784028 -0.6939927 -0.91411775 0.17706917 1.6432716 0.1635452
-0.022178562 0.8832601 -0.5532033 -0.3825663 0.38006493 0.95367664 0.30662742 -0.59616935
0.08546403 0.71472067 0.90338874 0.17727633 -1.4258809 0.048492346 -0.66479003 -0.7561477
-0.5967831 1.4667968 -0.21965478 -0.45029595 -0.42981124 -0.37554604 -1.0773606 0.27940798
-0.54493725 -0.77212334 0.5706524 0.30265042 0.43558684 -0.2596024 0.4180307 -0.50490224
-0.23741108 -1.0480722 -0.09703368 -0.32949445 -0.21398143 -0.14050007 -0.06994499 -0.49207196
00000000: 08cb 9d3e 8653 b4be e167 bf3f c6b5 c1bf
00000010: 3f94 d43e ce9c 0cbf 012d 11be 7685 293f
00000020: 8eaa 993e 8bd3 743f 397c 8f3d 7957 0abf
00000030: f987 bf3f 8880 273f 1834 3a3f 35b4 0f3f
00000040: d4f8 c2be 7786 aebd c5be a9bf 3360 60bf
00000050: 8df3 1d3d 5cdb 36bd fcfd 063f 06b7 f43e
00000060: 6aa8 1ebf e371 683f 1ce3 c83c 3b7e 2e3f
00000070: d56e 68be f626 173f 5098 a53f abf8 cbbd
00000080: 4bc4 97be 1b21 c1bf 7823 f9be 8769 fd3e
00000090: 301d b2be 9de1 a63f 1092 9b3e 801a 653f
000000a0: b234 c0be e5cc f53e 3dc5 373f edd1 853f
000000b0: 8661 b1be da7c 0bbf cab1 46bf 5be5 7cbf
000000c0: 4dec 27bf 7632 c1bf a605 6e3b 9462 9b3e
000000d0: e262 3cbf 21b4 3dbf 280a 6d3f 4827 603e
000000e0: 36ac 143d fdbf 473e 9d3f 9dbe fbfc 633e
000000f0: d332 a9bd 29aa a7bf 6c35 913e f5d9 033f
00000100: e3b0 a5be b462 d73e 1d19 72bd 4cee aabf
00000110: 3949 3cbd b7e1 41bf 8c3e 3cbe 3f3a d33e
00000120: 5645 78bf 7bd5 74be 652d 013e 8a51 7dbf
00000130: c8f7 14bf 4323 f9bf 3d8a dabe c0aa 473f
00000140: a5a7 9e3f 7fd9 9cbf 47e0 b73f a10e 37bf
00000150: 6c73 b13d ccef 03bf 8cf1 9d3f e91c 483c
00000160: dfe1 213d f8be db3e 60a6 223f 731f 8c3d
00000170: 7b02 94be 5348 083f d56c 923e db9a 433e
00000180: fa0e 73bf 41e2 493f 3b1e a33f 1d85 183f
00000190: c84a 6ebf ed4a 17bf a787 c63e 4da4 843e
000001a0: 5331 58bf 2aa0 c0bf 5ce5 b43e 7395 c8be
000001b0: 95f9 5abe 4d18 973e f892 c2bf 2995 a4bf
000001c0: 6dd7 ec3c 4985 d8be 7449 ab3f 2514 c7bd
000001d0: c791 c1be d099 72bf 6629 2cbf 4cc4 4abf
000001e0: e0bc 53be b6aa 1bbe c553 7ebf 28bd 2b3f
000001f0: 4172 143f b74a ef3e 8811 37bd 52c2 a33e
00000200: 6b36 4bbe 3374 013f 7a79 d4bf 6272 843f
00000210: 47af e03e 62a8 b93e 4287 0c3f 9bf3 a3bd
00000220: 19fc 1cbf f6b5 dc3e 6de8 b4bf a1c4 893f
00000230: d5e3 fc3e 9e64 323e f0e7 933f 7450 863e
00000240: f0df d63e aa83 043f c6da 773f cb98 ed3f
00000250: 6eef 73be 73e3 48be b738 31bf c710 75be
00000260: 63d2 7a3f c0b3 63be 399e 223d 4936 893e
00000270: 08d1 4f3f 195a ab3f 2dca 24be 5c47 923d
00000280: e6df c53d 9034 7bbf 9c6c 1e3f 98fa 1c3f
00000290: a5a9 e43e f697 5dbe 7322 b13e d30d 173f
000002a0: 5fe4 14bf 81e1 203e a6f9 cbbc 6177 6b3e
000002b0: e878 ccbe b8b0 a2bd 970a eb3e fb31 30be
000002c0: 8aaa 44bd 616c cabf 7be0 c83e c28b 973f
000002d0: bf81 0f3f 3265 e0be 7e04 39bf 1938 a6bf
000002e0: 2f97 853e 9897 9dbe 76a5 64bf 80c9 84be
000002f0: 9717 8ebf 486b 403d 855b 9a3d 459f 92bf
00000300: 1ef7 45bd 70c3 17bf 478e fe3e c46d dfbe
00000310: 6e1c 0d3f edbc 96be 67c3 0d3f 7f90 dbbd
00000320: c450 5a3d 9172 c6bf cb3d da3e 6a0d ad3e
00000330: 8c03 a13f 5a0f 6c3c 6a80 aabf 7c01 a23f
00000340: 30e3 8fbe d3bc ffbe ceab 2dbf 81a9 31bf
00000350: 9f03 6abf 9f51 353e b956 d23f 6578 273e
00000360: d1af b5bc 551d 623f bb9e 0dbf bbdf c3be
00000370: df97 c23e 2724 743f 45fe 9c3e 8e9e 18bf
00000380: c407 af3d eff7 363f 7c44 673f ed87 353e
00000390: 4483 b6bf e99f 463d ae2f 2abf e592 41bf
000003a0: c7c6 18bf ffbf bb3f 2fed 60be 318d e6be
000003b0: 3810 dcbe 9247 c0be f4e6 89bf 900e 8f3e
000003c0: 0281 0bbf e0a9 45bf 4716 123f fff4 9a3e
000003d0: 3d05 df3e 9bea 84be 1f08 d63e 4641 01bf
000003e0: e41b 73be 3b27 86bf 98b9 c6bd 7fb3 a8be
000003f0: f31d 5bbe 40df 0fbe 523f 8fbd dbf0 fbbe

network_body._body_endoder.seq_layers.0.bias f4 [128]
0.028591186 0.008155445 0.0068507586 -0.006451133 0.006154578 0.02389599 -0.007863989 -0.014007868
-0.0013059133 0.04308788 0.017564358 0.010875787 0.007433019 -0.0037949085 -0.0027587016 -0.009743252
0.04893626 -0.002701711 -0.010708394 -0.00044059378 -0.0065163155 0.005850441 0.01577893 0.047785025
0.005706074 0.0012008614 0.039861854 -0.008391158 0.030462813 0.012816306 0.027009467 -0.012292697
-0.012819085 0.032766066 0.032366786 -0.013466872 0.03569821 0.03583066 0.03038758 4.4588014e-06
0.0026698 0.027145622 -0.026881345 0.010947906 0.016914977 0.012521415 -0.04500012 -0.0016818645
-0.008331382 0.002233208 0.009009329 0.0059445854 0.047427382 0.022118244 0.019440442 0.051520318
0.012410153 0.015542741 0.044439297 0.03769472 -0.0017266116 0.012733053 0.0029521456 0.028928302
-0.01647694 0.014823368 -0.016231716 -0.014708693 0.025504736 -0.01867561 -0.011007991 0.021036187
-0.009051028 0.029216344 0.017597185 0.033072762 -0.016239058 -0.016044263 0.009539998 -0.01658664
0.027783548 -0.011825367 0.020338664 -0.011220471 0.017962389 -0.021633603 -0.010973614 0.01577316
0.04224111 0.017200207 0.015537325 0.04001066 0.012175236 0.03774789 0.032726146 0.012931889
0.031786576 0.023239471 0.0076361857 0.020615807 0.025877677 0.012696232 0.018524688 0.0128257675
0.02902968 0.046207625 0.03722837 -0.011893885 -0.022960188 0.03212168 0.00055555307 0.024243278
0.0047439267 0.0064453147 0.010896666 -0.0030903884 -0.015577063 -0.009792488 0.0009719884 0.024968255
-0.0075024916 -0.027200637 -0.0021997949 0.025509367 -0.0029558612 0.005477544 0.0068487884 0.0255992
00000000: 1038 ea3c 6a9e 053c 547c e03b 0764 d3bb
00000010: 58ac c93b 86c1 c33c f6d7 00bc 4281 65bc
00000020: 2e2b abba eb7c 303d 21e3 8f3c 5b30 323c
00000030: af90 f33b 00b4 78bb 55cb 34bb 29a2 1fbc
00000040: 6371 483d 300f 31bb 4372 2fbc 7fff e6b9
00000050: d186 d5bb 0eb5 bf3b d142 813c 3bba 433d
00000060: 05fa ba3b 3966 9d3a 2f46 233d 117b 09bc
00000070: 268d f93c 7cfb 513c f542 dd3c 4f67 49bc
00000080: 2407 52bc b635 063d 0993 043d 28a4 5cbc
00000090: 4938 123d 2cc3 123d 60ef f83c d09c 9536
000000a0: d0f7 2e3b 7f60 de3c 4436 dcbc d95e 333c
000000b0: 4791 8a3c 9f26 4d3c 0c52 38bd 0272 dcba
000000c0: 5980 08bc 035b 123b dd9b 133c ccca c23b
000000d0: 3743 423d 5231 b53c 9041 9f3c f806 533d
000000e0: f453 4b3c fba6 7e3c fb05 363d c765 1a3d
000000f0: 794f e2ba 4c9e 503c c978 413b 0cfb ec3c
00000100: a6fa 86bc b6dd 723c 60f8 84bc bbfc 70bc
00000110: 4fef d03c 98fd 98bc dc5a 34bc 1554 ac3c
00000120: c34a 14bc 1d57 ef3c f927 903c 4e77 073d
00000130: c607 85bc 426f 83bc a74d 1c3c b5e0 87bc
00000140: 539a e33c 2fbf 41bc 459d a63c 11d6 37bc
00000150: dc25 933c f438 b1bc acca 33bc b736 813c
00000160: 0405 2d3d 73e7 8c3c 4490 7e3c 38e2 233d
00000170: a47a 473c 889d 1a3d da0b 063d 46e0 533c
00000180: a432 023d b460 be3c f838 fa3b 7be2 a83c
00000190: 6cfd d33c db03 503c 16c1 973c 2b23 523c
000001a0: a7cf ed3c 3544 3d3d c67c 183d 92de 42bc
000001b0: 0117 bcbc 0692 033d 89a2 113a d799 c63c
000001c0: f172 9b3b 3833 d33b ee87 323c 1d88 4abb
000001d0: f036 7fbc ac70 20bc 0acd 7e3a 3a8a cc3c
000001e0: 76d7 f5bb dfd3 debc 6f2a 10bb 05f9 d03c
000001f0: 1fb7 41bb f87c b33b cd6b e03b 6ab5 d13c

network_body._body_endoder.seq_layers.2.weight f4 [128, 128]
-0.08390343 0.09748474 0.031458687 -0.09051083 0.024691254 0.17291903 -0.0698917 -0.0047992654
0.033853192 0.17996766 0.07357622 -0.10726634 0.105961815 0.09860615 0.005860505 0.0018713633
-0.031748507 0.021308465 -0.03299697 -0.07006347 0.0006030105 -0.0014246895 0.06364385 -0.03597927
-0.041763134 -0.15418069 0.011114817 0.009663212 0.001784513 -0.2075082 0.107652776 -0.033988506
0.1541612 -0.082970455 -0.11182488 0.040903248 0.009601539 0.11339386 -0.05618055 -0.14150919
0.003824853 0.01293215 0.15589462 0.024581108 0.120320916 0.02612607 0.08687551 0.08577601
0.04436518 0.039439104 -0.14466515 0.023679651 0.14159702 -0.07204425 -0.009541487 -0.0049135215
-0.022340259 0.03550573 0.08890681 0.11302856 0.023882316 0.0048280726 -0.022523437 -0.07180084
0.06291581 0.034434084 -0.14030284 0.005559924 0.0053484463 -0.051962417 0.007903336 0.08530482
-0.16029485 0.025862029 0.09437637 0.04115452 -0.035423957 -0.08453857 -0.07147417 0.00857023
0.04138851 -0.13218534 0.051005896 -0.11133078 -0.099566534 0.049356636 0.07177028 0.02307563
-0.07525996 0.021813085 -0.0693311 0.09725227 0.063978955 -0.032903448 0.03802044 0.0035678414
-0.04394046 0.101982996 0.012922774 -0.0633042 0.149064 0.034403734 0.052729867 -0.042686086
0.066176884 0.03198097 -0.011936618 0.07549412 -0.14567348 0.13239118 -0.016525337 0.013647967
-0.047350675 0.109536745 -0.04863895 -0.049736068 0.022091499 0.055677723 0.02624922 -0.028677536
-0.1496241 -0.115837455 0.06338822 -0.23100898 0.08941485 0.11539014 0.12986319 -0.0023004517
-0.07387836 0.07258681 -0.009250301 -0.080643795 -0.023535999 -0.15284368 -0.11519461 -0.13443913
0.1089109 0.021900957 -0.14726949 -0.0323372 -0.0527039 -0.20974459 0.08425701 -0.0011584254
0.080382995 -0.053969815 -0.04068119 -0.055934027 0.06469991 -0.12647763 -0.06936671 0.027417624
0.010811513 -0.02267846 0.03744102 -0.016222429 -0.021351364 -0.009523081 0.06474568 -0.042712282
-0.0056753047 0.110657014 0.06607034 0.12850271 0.0875467 0.122322604 -0.00815258 0.08252181
0.05920514 0.12368031 -0.13807096 0.120334305 -0.07868402 -0.100449204 -0.11934163 0.09928713
-0.12774107 -0.080215946 -0.12827845 -0.035480324 0.025976064 0.016627902 -0.12299122 0.045752548
0.053032137 0.07912908 -0.113968685 0.01090624 0.05019074 -0.03029768 0.15812644 0.020817079
-0.09539467 0.00038264095 -0.2526879 -0.05851316 0.16368054 0.061382998 -0.08177263 0.101774834
0.16971877 -0.15767604 -0.07053494 0.054156065 -0.14510569 -0.021936916 -0.038939863 -0.018297171
-0.1407399 -0.10459958 0.18822771 -0.07342763 -0.047753118 -0.07957511 0.047809094 -0.008707208
0.15173441 -0.09511743 -0.1090919 0.059101142 -0.019582322 0.08153359 -0.022654746 -0.045042288
-0.0038853986 0.10016884 -0.030013453 -0.10747764 0.06866636 0.096099764 0.041486215 0.08393683
0.06668125 -0.11439816 0.09622602 0.0467317 -0.043428816 0.08098859 0.09749031 0.07591226
-0.12501885 -0.0021710915 0.025346283 0.097379 -0.016045826 -0.04407782 0.014399032 -0.04611078
-0.07827397 -0.16257611 -0.050633285 0.03037862 0.046936926 0.03012749 -0.09552475 0.060763724
00000000: 90d5 abbd 14a6 c73d d3da 003d be5d b9bd
00000010: 5045 ca3c b011 313e 6123 8fbd 2843 9dbb
00000020: a5a9 0a3d 7149 383e 21af 963d 74ae dbbd
00000030: 8202 d93d 05f2 c93d 7b09 c03b 8848 f53a
00000040: b90a 02bd 178f ae3c d527 07bd 707d 8fbd
00000050: 5a13 1e3a a6bc baba b557 823d 005f 13bd
00000060: d20f 2bbd 8be1 1dbe ec1a 363c 7352 1e3c
00000070: 52e6 e93a 087d 54be 0f79 dc3d 8837 0bbd
00000080: 6fdc 1d3e 6aec a9bd 7104 e5bd 2a8a 273d
00000090: c64f 1d3c 0a3b e83d 941d 66bd c9e7 10be
000000a0: 63aa 7a3b 5ee1 533c d7a2 1f3e 525e c93c
000000b0: d06a f63d 5706 d63c caeb b13d 55ab af3d
000000c0: 43b8 353d e68a 213d 1a23 14be d4fb c13c
000000d0: cffe 103e f08b 93bd e653 1cbc 9b01 a1bb
000000e0: eb02 b7bc 756e 113d c614 b63d 857b e73d
000000f0: d9a4 c33c cf34 9e3b 1283 b8bc 520c 93bd
00000100: 01da 803d c10a 0d3d 8cab 0fbe 0630 b63b
00000110: 0542 af3b 8bd6 54bd fe7c 013c 4bb4 ae3d
00000120: 5524 24be 9bdc d33c 6648 c13d a491 283d
00000130: b618 11bd 8f22 adbd 0d61 92bd 266a 0c3c
00000140: 0087 293d 985b 07be 8feb 503d 6401 e4bd
00000150: 8ae9 cbbd 2f2a 4a3d 4cfc 923d 1b09 bd3c
00000160: e521 9abd 5bb1 b23c 77fd 8dbd 332c c73d
00000170: 6607 833d c4c5 06bd 52bb 1b3d 72d2 693b
00000180: e9fa 33bd 76dc d03d 0bba 533c a2a5 81bd
00000190: 3ca4 183e eeea 0c3d 46fb 573d 9bd7 2ebd
000001a0: bf87 873d 7afe 023d ce91 43bc a99c 9a3d
000001b0: 6e2b 15be 8e91 073e 2560 87bc b99b 5f3c
000001c0: c8f2 41bd cd54 e03d a339 47bd 0cb8 4bbd
000001d0: 3bf9 b43c 530e 643d 9b08 d73c 27ed eabc
000001e0: 0f37 19be 303c edbd afd1 813d 9e8d 6cbe
000001f0: 221f b73d aa51 ec3d dbfa 043e 2dc3 16bb
00000200: 8a4d 97bd 65a8 943d 938e 17bc 9328 a5bd
00000210: 91ce c0bc 0e83 1cbe 27eb ebbd 69aa 09be
00000220: ae0c df3d a369 b33c d0cd 16be 0374 04bd
00000230: 0be0 57bd 49c7 56be f08e ac3d 4ed6 97ba
00000240: d79f a43d 740f 5dbd 52a1 26bd 141b 65bd
00000250: 6381 843d 5a83 01be 2210 8ebd ed9a e03c
00000260: c622 313c 2ec8 b9bc c15b 193d e6e4 84bc
00000270: 0ee9 aebc b206 1cbc 6299 843d 13f3 2ebd
00000280: e8f7 b9bb 25a0 e23d e34f 873d 3796 033e
00000290: af4b b33d 4684 fa3d 6692 05bc 3201 a93d
000002a0: 1781 723d 1a4c fd3d 7962 0dbe d571 f63d
000002b0: 1625 a1bd 50b8 cdbd 6269 f4bd 0d57 cb3d
000002c0: 8ece 02be 4248 a4bd 6d5b 03be d153 11bd
000002d0: c1cb d43c 3d37 883c d2e2 fbbd 0667 3b3d
000002e0: 3a38 593d 6d0e a23d 6a68 e9bd 16b0 323c
000002f0: ce94 4d3d d732 f8bc e6eb 213e 9488 aa3c
00000300: 485e c3bd 339d c839 4f60 81be 7fab 6fbd
00000310: df9b 273e bd6c 7b3d 6978 a7bd 536f d03d
00000320: c2ca 2d3e d475 21be 9f74 90bd c0d2 5d3d
00000330: 9696 14be 0cb5 b3bc 687f 1fbd f3e3 95bc
00000340: 1f1e 10be 4e38 d6bd c4be 403e 3a61 96bd
00000350: c698 43bd 46f8 a2bd 78d3 433d ada8 0ebc
00000360: 4460 1b3e edcc c2bd 936b dfbd 0a14 723d
00000370: 1b6b a0bc 15fb a63d 7296 b9bc 437e 38bd
00000380: 2ca2 7ebb 5225 cd3d c6de f5bc 3d1d dcbd
00000390: f3a0 8c3d f4cf c43d 73ed 293d 13e7 ab3d
000003a0: 2e90 883d 9549 eabd 2612 c53d bd69 3f3d
000003b0: 6ae2 31bd 59dd a53d 00a9 c73d e377 9b3d
000003c0: f104 00be df48 0ebb 02a3 cf3c a46e c73d
000003d0: 8972 83bc f28a 34bd ebe9 6b3c a8de 3cbd
000003e0: 1a4e a0bd 5a7a 26be d964 4fbd 95dc f83c
000003f0: ef40 403d edcd f63c 7ba2 c3bd 62e3 783d

network_body._body_endoder.seq_layers.2.bias f4 [128]
0.02146215 0.0347012 -0.009644696 0.0014054436 -0.0017219228 0.022405915 -0.006450156 0.0019938017
0.025871696 0.014415504 0.017250093 0.013125902 -0.007881955 0.0015540081 0.009855738 -0.019132169
0.0050440123 -0.014769769 0.011775503 0.027814677 -0.009074559 -0.010873916 0.035186484 0.039244343
-0.015131355 0.016632907 0.018645564 -0.014730651 0.0069792457 -0.014664869 -0.011155578 0.02604877
0.026329184 0.01790031 -0.01707864 -0.027858017 0.005843157 -0.008057747 0.013622145 -0.0013090388
0.02816224 -0.00053363555 0.016959924 0.022116462 -0.025598358 -0.012867668 0.009632787 -0.008791203
0.001027744 0.009916102 0.0319709 -0.00400217 0.025396802 0.0455093 0.027826691 0.00029114072
-0.025553718 0.005310252 0.02391095 -0.02393386 0.026041364 0.034014646 -0.013415622 0.013720711
0.034201805 -0.00033692803 -0.019867219 -0.014757201 0.00025032542 0.02303165 -0.01828993 -0.010609581
-0.008217029 0.028465807 -0.016653495 -0.028096244 -0.007742783 0.005091283 -0.0037760446 -0.0070906957
-0.005704233 0.030200778 -0.013358185 -0.0035597717 -0.021537436 0.01888315 -0.006431834 0.014009257
0.017684126 -0.015069843 -0.019168537 -0.012950949 -0.012900999 -0.0026918892 0.0058578076 0.026005592
0.012450215 -0.009136342 -0.0031278268 0.032115526 -0.011656243 -0.004291723 -0.010627336 0.012745322
0.0003182311 0.0086445 0.0034953787 -0.01306618 0.021042265 -0.0048898947 -0.0025673911 0.024552472
0.0087550115 -0.03804265 0.013160258 -0.0038135354 -0.0008681416 0.01573012 -0.015370301 0.024175456
0.025603129 -0.015314066 0.026053991 -0.034187615 -0.0055761286 0.012907771 -0.0130282175 0.029693525
00000000: 64d1 af3c d822 0e3d c904 1ebc dd36 b83a
00000010: 24b2 e1ba 9c8c b73c d55b d3bb 71aa 023b
00000020: e1f0 d33c 022f 6c3c 1150 8d3c 060e 573c
00000030: 5123 01bc dcaf cb3a f679 213c 11bb 9cbc
00000040: 3e48 a53b e7fc 71bc 0aee 403c 9bdb e33c
00000050: 76ad 14bc 8228 32bc b41f 103d adbe 203d
00000060: 81e9 77bc bc41 883c 95be 983c d458 71bc
00000070: 28b2 e43b eb44 70bc e3c5 36bc 3b64 d53c
00000080: 4db0 d73c aca3 923c 81e8 8bbc 7f36 e4bc
00000090: f477 bf3b a404 04bc 6b2f 5f3c 0e94 abba
000000a0: 7fb4 e63c ade3 0bba 8aef 8a3c 952d b53c
000000b0: a6b3 d1bc e9d2 52bc d6d2 1d3c fa08 10bc
000000c0: 5eb5 863a 2577 223c ebf3 023d a324 83bb
000000d0: f40c d03c f667 3a3d cdf4 e33c 3fa4 9839
000000e0: 0856 d1bc 9f01 ae3b e6e0 c33c f110 c4bc
000000f0: b354 d53c f152 0b3d 32cd 5bbc d5cc 603c
00000100: 3117 0c3d b7a5 b0b9 94c0 a2bc 30c8 71bc
00000110: 1c3e 8339 dfac bc3c c3d4 95bc cfd3 2dbc
00000120: b8a0 06bc 2031 e93c e96c 88bc 182a e6bc
00000130: 2cb7 fdbb c7d4 a63b 8477 77bb 1159 e8bb
00000140: 93ea babb 9f67 f73c 4adc 5abc 0f4b 69bb
00000150: 476f b0bc d6b0 9a3c 22c2 d2bb 1587 653c
00000160: 4dde 903c 81e7 76bc 5607 9dbc 3830 54bc
00000170: b65e 53bc 686a 30bb daf2 bf3b ae09 d53c
00000180: fdfb 4b3c 99b0 15bc 3afc 4cbb 928b 033d
00000190: d4f9 3ebc 95a1 8cbb 471e 2ebc c1d1 503c
000001a0: 41d8 a639 a9a1 0d3c b912 653b 8813 56bc
000001b0: d460 ac3c 693b a0bb ad41 28bb 4422 c93c
000001c0: 2e71 0f3c 9cd2 1bbd 1f9e 573c 82ec 79bb
000001d0: ff93 63ba 74dc 803c b7d3 7bbc 9b0b c63c
000001e0: a7bd d13c d9e7 7abc 2e6f d53c 5008 0cbd
000001f0: f5b7 b6bb 1e7b 533c 4e74 55bc d63f f33c

action_model._discrete_distribution.branches.0.weight f4 [3, 128]
-0.007855 -0.0009748541 0.008177122 -0.009038878 0.018732345 0.011789372 -0.0018838529 0.0016893987
0.00068272284 -0.014887059 0.0012359796 -0.013748044 0.019966226 -0.0020852524 0.001099335 0.018426264
0.007220094 -0.012966355 -0.0050324644 0.009112774 -0.003618534 -0.00018537376 -0.012991241 0.0024654958
0.0033551995 0.0010193997 -0.02075581 -0.014530414 0.010379025 0.0035381995 0.010254386 -0.005891777
-0.011507152 -0.0018227993 0.010165309 -0.01288368 -0.009708278 -0.006590856 0.0064698104 0.0064523704
-0.0040127686 0.009224127 -0.023739621 -0.0035430156 0.007947335 0.007872113 0.0037122185 -0.0010683896
-0.016965106 0.010040457 0.0051061427 0.024242628 -0.017957123 -0.004819481 -0.0049588773 0.020336766
-0.012725767 0.0037605483 0.008038264 -0.023711426 -0.008280984 0.019327486 0.006529748 0.009135275
0.0074853506 0.009691766 0.0031427678 0.010608196 0.0039683683 -0.00088743056 -0.0013879312 0.004825181
-0.0023141273 -0.007359047 -0.005514269 0.0002749666 -0.0008254529 -0.0064307475 0.014495339 -0.0066847443
-0.012150939 -0.011608639 -0.01271527 -0.011899304 -0.009332878 0.0018812336 0.017495172 -0.0047336607
-0.018597541 -0.0073047816 0.01443148 -0.013112584 -0.007701688 0.0078394 0.00899568 0.004692692
-0.011295345 0.008913734 0.0046868436 0.0046285666 0.0024630765 0.004848043 -0.0067166104 -0.0083486745
-0.008173907 -0.02691639 0.005940555 0.0052487426 -0.0017097752 -0.0107509475 0.010971996 0.013508955
0.0050970498 0.0060073147 -0.01378394 -0.016858412 -0.009032997 0.0017669809 -0.0134150935 0.008241077
-0.012374092 0.0019256658 -0.009154516 0.00039533497 0.012567516 -0.004603967 0.008218325 -0.013404217
-0.014114706 0.0009409785 0.020217385 0.029132847 0.013006621 -0.012331633 0.014976452 0.009943323
-0.030537272 -0.014627188 -0.0203158 -0.004123219 0.011029078 0.04226727 0.012034535 0.012654533
0.027338572 0.020337868 -0.020012623 -0.0014969284 0.022923883 0.019334031 -0.016072946 -0.032555003
0.009168197 -0.02563157 -0.014020941 0.00946084 0.022014583 0.01024557 0.01736364 0.0010497567
-0.005817131 -0.021682318 0.0075753517 -0.0062199463 0.0017150859 0.011197977 0.012340433 0.020596543
-0.019695798 0.027949784 -0.009889805 -0.019732164 0.005385386 -0.0030526023 -0.004920329 0.010420095
-0.011728451 0.009416988 -0.032300312 0.02243853 -0.0076791607 -0.02195847 -0.011626467 -0.015752627
0.011798385 -0.022879202 0.011750676 0.008985207 0.016813332 -0.017014898 0.014613107 0.006810532
-0.018052194 0.01551163 0.013711477 0.014059176 -0.011133359 -0.0059956214 0.011644502 -0.012249889
0.021799568 -0.014297784 0.0034294762 0.007425014 -0.00032908918 0.0039166664 0.03296191 0.026323764
0.027584592 -0.018240413 0.019662993 -0.018258011 0.008402598 -0.007926028 0.012831554 -0.026677512
-0.011443897 0.022644041 0.008144432 0.009382371 0.0148352 0.015434612 0.01233239 -0.0163159
-0.026765324 0.018589167 0.00890784 -0.012966304 0.004706644 0.023765504 0.012151334 -0.005597393
-0.0046528955 -0.023909591 0.018250236 0.01987455 -0.009225088 0.007477035 -0.0057475423 -0.020022342
0.012036404 -0.00052955933 0.012375317 -0.008109138 -0.012595309 -0.012028911 0.012823548 -0.010572132
-0.004878294 0.0109047685 -0.020065814 -0.0052598696 0.019600881 0.0019285331 0.017505912 -0.029690742
00000000: 42b2 00bc 5a8d 7fba 56f9 053c cd17 14bc
00000010: 9374 993c 3628 413c 9deb f6ba d06e dd3a
00000020: c1f8 323a dae8 73bc 9800 a23a 7a3f 61bc
00000030: 3690 a33c bba8 08bb 9017 903a adf2 963c
00000040: 8a96 ec3b d670 54bc 5fe7 a4bb bf4d 153c
00000050: ed24 6dbb e460 42b9 37d9 54bc 2894 213b
00000060: e8e2 5b3b 619d 853a 1708 aabc f910 6ebc
00000070: c90c 2a3c 23e1 673b 0302 283c cf0f c1bb
00000080: 7e88 3cbc ffea eeba 658c 263c 1216 53bc
00000090: 780f 1fbc 1bf8 d7bb b400 d43b 686e d33b
000000a0: 8b7d 83bb cb20 173c 9879 c2bc f031 68bb
000000b0: 8a35 023c 09fa 003c b148 733b 3509 8cba
000000c0: 68fa 8abc bb80 243c 6e51 a73b 7a98 c63c
000000d0: d11a 93bc bdec 9dbb 147e a2bb 4a99 a63c
000000e0: bc7f 50bc 8873 763b ecb2 033c 773e c2bc
000000f0: f7ac 07bc ad54 9e3c 7ff7 d53b 1fac 153c
00000100: ac47 f53b 37ca 1e3c e5f6 4d3b 00ce 2d3c
00000110: 1609 823b 75a2 68ba 3eeb b5ba 8d1c 9e3b
00000120: 9da8 17bb 2924 f1bb 0bb1 b4bb 6429 9039
00000130: 3563 58ba 05b9 d2bb dc7d 6d3c b30b dbbb
00000140: bb14 47bc 2932 3ebc b553 50bc 4cf5 42bc
00000150: ede8 18bc ba93 f63a 0952 8f3c d31c 9bbb
00000160: df59 98bc f35c efbb 0472 6c3c 2ad6 56bc
00000170: 715e fcbb d470 003c 9e62 133c 27c5 993b
00000180: 1c10 39bc e90a 123c 1894 993b 3bab 973b
00000190: 916b 213b 55dc 9e3b 0317 dcbb e1c8 08bc
000001a0: daeb 05bc c37f dcbc fda8 c23b a5fd ab3b
000001b0: 891a e0ba be24 30bc e3c3 333c aa54 5d3c
000001c0: 2705 a73b 02d9 c43b 09d6 61bc a71a 8abc
000001d0: 23ff 13bc 0a9a e73a fbca 5bbc 9505 073c
000001e0: b4bc 4abc 9f66 fc3a d3fc 15bc f644 cf39
000001f0: fce7 4d3c e0dc 96bb 27a6 063c 5c9d 5bbc
00000200: 5e41 67bc 00ac 763a ee9e a53c 02a8 ee3c
00000210: b919 553c 9e0a 4abc cb5f 753c 52e9 223c
00000220: 4d29 fabc e0a6 6fbc 526d a6bc 111c 87bb
00000230: 4eb3 343c 7220 2d3d 802c 453c f554 4f3c
00000240: 24f5 df3c 9a9b a63c 83f1 a3bc 9534 c4ba
00000250: deca bb3c 6762 9e3c 69ab 83bc 6558 05bd
00000260: 3536 163c 4cf9 d1bc 17b8 65bc a401 1b3c
00000270: ed57 b43c 09dd 273c 313e 8e3c fd97 893a
00000280: a29d bebb 1e9f b1bc a83a f83b b1d0 cbbb
00000290: bccc e03a b877 373c 872f 4a3c 15ba a83c
000002a0: 1559 a1bc f2f6 e43c d908 22bc 59a5 a1bc
000002b0: e477 b03b 2b0e 48bb b63a a1bb 0cb9 2a3c
000002c0: b028 40bc b649 1a3c 554d 04bd 02d1 b73c
000002d0: 78a1 fbbb 40e2 b3bc f07c 3ebc a70b 81bc
000002e0: 034e 413c 2a6d bbbc e885 403c b136 133c
000002f0: 1dbc 893c d462 8bbc d06b 6f3c e22a df3b
00000300: 32e2 93bc 7e24 7e3c 1aa6 603c 7558 663c
00000310: b168 36bc eb76 c4bb 95c8 3e3c c2b3 48bc
00000320: 0295 b23c 4141 6abc 10c1 603b 884d f33b
00000330: 9a89 acb9 6157 803b 1103 073d efa4 d73c
00000340: 15f9 e13c eb6c 95bc 4914 a13c d391 95bc
00000350: 0dab 093c 2cdc 01bc 703b 523c cc8a dabc
00000360: 2f7f 3bbc ff7f b93c 3970 053c 84b8 193c
00000370: 570f 733c 74e1 7c3c cb0d 4a3c eca8 85bc
00000380: f442 dbbc 4f48 983c 30f2 113c 9f70 54bc
00000390: 313a 9a3b e0af c23c 6416 473c 566a b7bb
000003a0: 5177 98bb 0cde c3bc 8581 953c f4cf a23c
000003b0: d324 17bc ea01 f53b e155 bcbb e505 a4bc
000003c0: 5634 453c 20d2 0aba d7c1 4a3c 31dc 04bc
000003d0: 8e5c 4ebc e914 45bc dc19 523c bc36 2dbc
000003e0: 19da 9fbb eaa9 323c 1061 a4bc fc5a acbb
000003f0: 0792 a03c d5c6 fc3a 8f68 8f3c 003a f3bc

action_model._discrete_distribution.branches.0.bias f4 [3]
0.004162717 0.0013924448 -0.005825761
00000000: 6767 883b b282 b63a 06e6 bebb

action_model._discrete_distribution.branches.1.weight f4 [2, 128]
0.0021708615 0.010824132 -0.003224862 0.0035987487 -0.005374847 -0.010976903 0.0060750907 -0.012818586
0.010844525 -0.019509565 0.0015284647 -0.0016749761 0.0055508767 -0.0021316495 -0.01009884 0.0067141065
0.010533646 -0.0062715844 0.0046180785 0.025662253 0.0074856807 -0.0058440682 0.01477201 0.00562413
-0.0033341886 0.00950494 0.000104034254 0.009932905 -0.003181633 -0.018554658 0.006578196 0.008068118
-0.0024923258 -0.0041296957 -0.014173447 0.015462876 0.017145853 0.011424829 0.0021951003 0.0050319806
0.010361787 0.005248371 -0.0038336003 0.007809243 -0.010630846 -0.00019571737 0.019492373 -0.00611375
-0.0110098645 0.0068864613 0.0016580613 0.004957075 0.0082302205 0.016877959 0.014766221 0.013310441
0.018791744 0.020728605 0.016289258 -0.0021423758 0.0042462926 0.014089275 -0.004908541 -0.00013896824
-0.006664507 -0.010076442 0.017465992 -0.02086584 0.0021281592 -0.0055292733 -0.0017023601 0.011833582
0.0010899841 0.0062031774 -0.011859544 0.011580387 -0.0022829357 0.009238288 -0.008080521 0.0049168044
-0.0026831967 0.0083931815 -0.020060934 0.016250702 0.0032598139 0.00866804 -0.008490109 0.011189349
0.0046905554 -0.010594506 -0.0010155451 -0.0022870798 -0.007359857 -0.0067184973 0.009797248 -0.0070702815
0.009062604 -0.015183162 0.023499837 0.010005589 -0.011328518 0.003043527 -0.008235005 0.004277642
0.0012398739 0.01389782 -0.0062087206 -0.006074422 -0.0097478535 -0.013050304 0.012678048 0.006115713
-0.010405202 0.0066593573 0.0011910099 0.0073246765 -0.002584896 0.014191365 -0.010188997 -0.011900888
-0.001106667 0.023384957 -0.0020990446 -0.008527279 -0.0035012956 0.0048363665 -0.011601463 0.0036412892
-0.014460027 -0.020327955 0.004176821 0.0037121985 0.010183643 -0.012120604 0.010865622 0.0018356618
-0.038720313 -0.0003699762 0.007827059 0.015311818 -0.007941613 0.006419975 -0.016313383 -0.0033362485
0.0003146 0.01410752 -0.0026099544 -0.007738125 0.0039827204 0.010107097 0.0038720423 -0.011762775
0.01284246 -0.006572779 0.004659739 0.0033344706 0.0036103108 0.009581385 -0.0022565227 -0.010046094
0.00855881 -0.01394904 0.004603221 -0.001168785 -0.0059930044 -0.015899355 0.00820067 0.0014327455
-0.019659858 -0.0036528644 -0.0009195979 0.0045419047 -0.0033179754 -0.0068912846 0.01679946 0.009011122
0.008872283 0.01299034 -0.02614353 -0.0023337465 7.7019875e-05 0.0071228393 0.0059324065 0.0084741805
-0.0009645307 -0.005326192 -0.026103543 0.0063703973 0.014825605 -0.008011346 -0.0070780152 -0.008307952
-0.0063677435 0.0037525455 0.010042037 0.008955875 0.017845042 -0.0070583257 -0.0014639508 0.0015889194
0.011012405 -0.020406218 0.004164685 0.009118853 -0.010149454 -0.012437966 -0.001162727 -0.0013203154
0.008881324 0.007909667 0.0039971545 -0.00163002 0.0045628897 0.0036525303 0.011096343 -0.011560721
0.007696687 0.00051459984 0.00052175304 0.0010447819 -0.0026828789 0.010473502 0.007814019 -0.005878883
-0.004060024 -0.0044786558 0.0042384947 -0.002605833 -0.021194972 0.011595695 0.004840651 -0.00035218705
0.004313858 -0.011962057 -0.005629174 -0.0019678234 0.003929165 -0.0023416865 0.0018742195 -0.0049771126
0.009001266 0.013197082 0.0018311319 -0.008006155 0.012051968 -0.02420225 0.008597574 -0.008546376
0.0017225617 0.004694261 -0.010348141 0.004634642 0.0038909612 -0.002764656 0.008694979 -0.01801592
00000000: 0345 0e3b b357 313c 3558 53bb fcd8 6b3b
00000010: 7c1f b0bb 78d8 33bc 8e11 c73b 0c05 52bc
00000020: 3cad 313c 86d2 9fbc c456 c83a df8a dbba
00000030: 21e4 b53b 25b3 0bbb 9b75 25bc 0202 dc3b
00000040: 5095 2c3c dd81 cdbb 4053 973b a539 d23c
00000050: 714a f53b 997f bfbb 4d06 723c 9f4a b83b
00000060: 6782 5abb 9cba 1b3c f72c da38 a0bd 223c
00000070: f282 50bb f0ff 97bc e88d d73b 2430 043c
00000080: 4a56 23bb 6652 87bb bf37 68bc 0158 7d3c
00000090: 7675 8c3c 352f 3b3c acdb 0f3b 50e3 a43b
000000a0: 7cc4 293c 87fa ab3b 243d 7bbb aee4 ff3b
000000b0: 002d 2ebc 7b39 4db9 78ae 9f3c da55 c8bb
000000c0: b862 34bc d3a7 e13b 4e53 d93a f66e a23b
000000d0: 0cd8 063c a543 8a3c 05ee 713c 0914 5a3c
000000e0: 25f1 993c 09cf a93c 0d71 853c 1a67 0cbb
000000f0: 7c24 8b3b b4d6 663c d4d7 a0bb 01b8 11b9
00000100: f061 dabb a917 25bc d714 8f3c d7ee aabc
00000110: 9678 0b3b e82e b5bb ba21 dfba a4e1 413c
00000120: ccdd 8e3a 0644 cb3b 884e 42bc aabb 3d3c
00000130: 4e9d 15bb 305c 173c 2964 04bc 251d a13b
00000140: 92d8 2fbb 8e83 093c d456 a4bc 3120 853c
00000150: 9aa2 553b 6504 0e3c 191a 0bbc 8853 373c
00000160: 3bb3 993b 9494 2dbc 0a1c 85ba d5e2 15bb
00000170: f52a f1bb d726 dcbb a384 203c d2ad e7bb
00000180: 517b 143c ccc2 78bc bb82 c03c 7bee 233c
00000190: 409b 39bc e975 473b 1dec 06bc 762b 8c3b
000001a0: 4483 a23a afb3 633c 8672 cbbb f20b c7bb
000001b0: 76b5 1fbc f1d0 55bc 96b7 4f3c 5266 c83b
000001c0: 957a 2abc bd36 da3b a91b 9c3a d703 f03b
000001d0: 5c67 29bb e682 683c c0ef 26bc f1fb 42bc
000001e0: 950d 91ba cf91 bf3c 2090 09bb 00b6 0bbc
000001f0: fe75 65bb 627a 9e3b 1014 3ebc b2a2 6e3b
00000200: c0e9 6cbc d086 a6bc b7dd 883b 5b48 733b
00000210: 4bd9 263c 7f95 46bc b905 323c 979a f03a
00000220: 3199 1ebd 5df9 c1b9 113d 003c 6bde 7a3c
00000230: 8a1d 02bc a75e d23b a5a3 85bc f6a4 5abb
00000240: e6f0 a439 3a23 673c c50b 2bbb 1990 fdbb
00000250: 7b81 823b 3d98 253c 17c2 7d3b a7b8 40bc
00000260: 2e69 523c 7760 d7bb b9b0 983b 2287 5a3b
00000270: f79a 6c3b 3efb 1c3c 2be2 13bb 5f98 24bc
00000280: 403a 0c3c 848a 64bc 9ed6 963b eb31 99ba
00000290: f760 c4bb 5d3f 82bc 1a5c 063c f6ca bb3a
000002a0: b60d a1bc e564 6fbb 2c11 71ba 42d4 943b
000002b0: 6472 59bb 49d0 e1bb 059f 893c 63a3 133c
000002c0: 0d5d 113c 6fd5 543c f52a d6bc c5f1 18bb
000002d0: bb85 a138 b566 e93b a264 c23b 4ad7 0a3c
000002e0: 8fd8 7cba 5687 aebb 19d7 d5bc c4be d03b
000002f0: 18e7 723c 0542 03bc b2ee e7bb 141e 08bc
00000300: 81a8 d0bb 44ed 753b 5b87 243c aabb 123c
00000310: c42f 923c 8749 e7bb 0ae2 bfba 4a43 d03a
00000320: 606d 343c f12a a7bc e977 883b 3e67 153c
00000330: e549 26bc 9cc8 4bbc a566 98ba 6f0e adba
00000340: f982 113c 8c97 013c 90fa 823b 65a6 d5ba
00000350: 4b84 953b 4a5f 6f3b 70cd 353c 2e69 3dbc
00000360: 7d34 fc3b 36e6 063a 41c6 083a 10f1 883a
00000370: 3dd3 2fbb 0d99 2b3c 5f06 003c a5a3 c0bb
00000380: f309 85bb b0c1 92bb 12e3 8a3b a0c6 2abb
00000390: 14a1 adbc dffb 3d3c 539e 9e3b bfa5 b8b9
000003a0: 445b 8d3b 81fc 43bc ef74 b8bb 99f6 00bb
000003b0: 3ac0 803b fb76 19bb 5fa8 f53a 0c17 a3bb
000003c0: 0c7a 133c 9338 583c 9702 f03a 3f2c 03bc
000003d0: 9e75 453c cc43 c6bc d7dc 0c3c 1906 0cbc
000003e0: 94c7 e13a 51d2 993b 408b 29bc 32de 973b
000003f0: 7fff 7e3b 3b2f 35bb 6375 0e3c 1f96 93bc

action_model._discrete_distribution.branches.1.bias f4 [2]
0.0013884536 -0.0013884541
00000000: c6fc b53a cafc b5ba
