results/playeragent1/PlayerAgent/PlayerAgent-5991.pt (torch, 146540 bytes, 11 tensors)

network_body._body_endoder.seq_layers.0.weight f4 [128, 2]
00000000: 197c f03e c532 a43e d2cd c03e 8806 85be
00000010: aa57 353f e42f fd3e 13be 7dbf d7e8 dcbe
00000020: 7cb9 373e f49b 9c3b ca46 afbe 414c 7e3d
00000030: db1b c0be fcff 163f 893c b9bd 6471 a43e
00000040: 5917 8f3f 5a60 65bd 7c00 0ebf 7aa5 053e
00000050: 05af 30be eecf cd3d 1932 4abf b97c 38bf
00000060: 9b88 3e3e 6413 9f3f 091d c33b c865 2ebf
00000070: 1dbf 74bf de36 c5bd dd04 2ebf 7f1f 8f3d
00000080: 8a21 6abe 2748 bc3e 085d 903d 0313 19bf
00000090: 69c1 0340 bc58 e8be 19e5 05bd 6b56 053f
000000a0: 3774 df3d 37f4 3ebf b4cf e0bf 5854 993f
000000b0: d45b dc3e bcfe 8abd c705 b2be 8ee2 703f
000000c0: a344 333e 626f a33d 630e 7bbf 4aaa 413f
000000d0: 6a42 bdbe 6aa6 81bf 6d9b 0ebf f3c0 513c
000000e0: 6dab a9be 1633 a73f f138 94bf aa27 9b3e
000000f0: b702 9c3f 7590 bc3e afb7 2fbd f2e0 7cbe
00000100: 9c46 36bf 7ecd 20bf faa8 cebe 977a 033f
00000110: 28dc 1bbf 6867 8c3f ce7c 1e3f 9fda 343f
00000120: 3004 b4be dbbb 6b3e 416e 74bf be8c 4d3e
00000130: b27c 1a3f 0025 4cbf 2a9f c33e cd9f 49be
00000140: 4b88 f1be 6e68 5d3e 0b45 493f 75f0 f8bd
00000150: c28e 86bf 2c5c 48bd 8b5f b5be 144a 183f
00000160: 9799 0e3f f0c1 933d f15b 863f d199 85bd
00000170: 3f99 a93f cf24 27bf b23b 49be cf1a f3be
00000180: 3d82 a3bf 563a 2bbe 60e2 df3c 16af 5a3e
00000190: a9e6 edbe f851 cbbc f4e4 2dbf f251 483f
000001a0: e613 fb3f 6bf2 f83e 8cd1 babe 1fa8 e93e
000001b0: bceb 503f be7e 39be a183 2a3f 7084 613e
000001c0: 859d 993d 39e6 acbe 082f 073f 9f86 16bf
000001d0: f70e 123f d11d 403f 0a53 2dbf 2ca5 fd3e
000001e0: 4bdd edbe d6c6 40be 7671 68bf f44c 33bf
000001f0: 54bb d23e d11f d2bf cdba 163f 9b64 8c3f
00000200: 3e5f 8b3e a6f2 85bf d3df 1c3f 2749 cdbf
00000210: a9b8 8c3e b397 c1bf dacb 3f3e ff19 57bf
00000220: 6eaa 953f 59fe 0a3f aaa3 753f c8d6 8cbe
00000230: f059 cdbe 0a20 a8bf 62cb 9e3f c1e5 3cbf
00000240: cd0b 5f3f 8c3b bb3b cd3f 823f f04c 033f
00000250: 41c4 f03e ea97 34be d6d2 00bf a0a6 953f
00000260: 7b63 1240 73df c53e 27de b2bf fe08 603d
00000270: c52c a73f 625f 0c3f 26a2 f5be 7800 a93e
00000280: 3088 71bf 3077 373f 7b94 99be f1d3 a83e
00000290: 9b88 cf3e d4f7 17bf 754e b8be 7247 473f
000002a0: db8c e5bf 735b 19bf 187e 2ebf 8a20 763f
000002b0: a1ca a6bf e4c7 8cbe cff8 d1be 797c 15bf
000002c0: 78b3 c3bf d6e0 1e3e ce2c bc3f e413 ac3d
000002d0: 187b 343e 9f99 90be 9b39 b7bf 6d3d 5ebe
000002e0: d0f5 a43f a17c 64be be62 14be d339 6b3e
000002f0: 02e3 81bf 745b cc3e ea99 22bf f35b ec3e
00000300: e31a 0ebf dfe0 64bf 1b87 893e ffff 7abe
00000310: e2d0 233f 6095 253f fcdf a8bd 60f0 4fbf
00000320: 519a 89bf 374c a0be 4c66 edbe 99ea 82bf
00000330: b892 c9be 88d5 863e 8c8e 8bbd becb 3ebf
00000340: b88e 8fbe d4c1 9ebf 199e b8bf 60dd 953e
00000350: cbbe 7ebe 18ed 203e 7d7f 21bf e744 6fbf
00000360: c508 633f 961d 6b3f 9f7d 223f 0399 613f
00000370: 27f9 9d3f 47f0 fe3e a8f5 11bf 070d 963c
00000380: 5797 89be 8a85 77bf 0e3d 203f a274 913f
00000390: ba27 a93e 6729 5b3f 52cf babd fda5 393e
000003a0: fc96 b03e d70a c0be 9386 083f c40e b83f
000003b0: 5218 edbc 8624 073f 1398 4c3e 881a be3e
000003c0: 68b7 0cbf 8b59 01bf 006f aa3e 461b 893b
000003d0: efd0 5bbf 2461 893f 154b 81be ac21 103f
000003e0: d1b1 273f 889a 8e3e 8f48 fabe dbf4 e53f
000003f0: f8a2 1f3e 4abd e1bd 6d8a 1c3f 6926 3d3e
0.4696968 0.32069984 0.37657028 -0.25981545 0.7083689 0.494506 -0.99118155 -0.43146393
0.1794185 0.0047793332 -0.34233695 0.06208444 -0.37521252 0.5898435 -0.09044749 0.3211776
1.1179 -0.05600009 -0.5546949 0.13051406 -0.17254265 0.10049425 -0.7898269 -0.7206531
0.18606798 1.2427793 0.005954389 -0.68124056 -0.95604116 -0.09629606 -0.6797617 0.06988429
-0.22864357 0.36773798 0.07048994 -0.59794635 2.0586798 -0.453802 -0.032689188 0.5208499
0.10910838 -0.7459139 -1.7563386 1.1978865 0.4303881 -0.06786868 -0.34770033 0.94095695
0.17506652 0.07980229 -0.9806883 0.75650465 -0.36964732 -1.012891 -0.5570591 0.01280235
-0.331386 1.3062465 -1.1579877 0.303037 1.2188329 0.36828962 -0.042899784 -0.24695185
-0.7120149 -0.62813556 -0.40363294 0.5135893 -0.60882807 1.0969057 0.61909187 0.7064609
-0.35159445 0.2302088 -0.95480734 0.2007322 0.6034652 -0.7974396 0.3820737 -0.19689865
-0.47174296 0.21621868 0.78620976 -0.121552385 -1.0512316 -0.048916027 -0.35424456 0.59488034
0.5570311 0.07214725 1.0496808 -0.06523479 1.3249892 -0.6529054 -0.19651678 -0.4748139
-1.277412 -0.16721472 0.027329624 0.21355852 -0.46465042 -0.02481936 -0.6792748 0.7825004
1.9615448 0.4862245 -0.36487997 0.4563608 0.816097 -0.18114755 0.666071 0.22023177
0.075007476 -0.33769396 0.5280614 -0.58799165 0.57054085 0.75045496 -0.6770483 0.4954008
-0.46457896 -0.1882585 -0.9079813 -0.70039296 0.41158545 -1.641596 0.58878785 1.0968202
0.27221102 -1.0464675 0.6127903 -1.6037949 0.27484635 -1.512442 0.18730107 -0.8402404
1.1692636 0.54294354 0.95952857 -0.27507615 -0.4010768 -1.3134778 1.2405818 -0.73788077
0.8712738 0.0057138857 1.017572 0.5128927 0.4702473 -0.17636076 -0.5032171 1.1691475
2.2873218 0.3864704 -1.3974046 0.054696076 1.3060538 0.5483304 -0.47975272 0.3300817
-0.9434843 0.7166624 -0.29996094 0.32974198 0.4053391 -0.5936253 -0.35997358 0.7784339
-1.7933611 -0.59905165 -0.68161154 0.961434 -1.3030587 -0.27496254 -0.41010138 -0.58393055
-1.5289145 0.15515456 1.4701173 0.08402231 0.17625082 -0.28242204 -1.4314455 -0.2170312
1.2887516 -0.22313167 -0.14490792 0.22971277 -1.0147402 0.39913523 -0.63516104 0.46163902
-0.55509776 -0.89405626 0.2686089 -0.24511717 0.63990605 0.64681053 -0.08245847 -0.8122616
-1.0750219 -0.31308147 -0.4636711 -1.0227844 -0.3936975 0.26334786 -0.06814298 -0.74529636
-0.28038573 -1.2402902 -1.4423248 0.29270458 -0.24877469 0.15715444 -0.63085157 -0.9346451
0.88685256 0.9184202 0.6347293 0.881241 1.234166 0.49792692 -0.57015467 0.018316759
-0.26873276 -0.9668814 0.6259316 1.1363719 0.3303812 0.8561005 -0.091215745 0.18129726
0.34490192 -0.3750827 0.53330344 1.4379506 -0.02894226 0.52790105 0.19979887 0.37129617
-0.54967356 -0.50527257 0.3328781 0.0041841595 -0.8586568 1.073277 -0.25252596 0.5630138
0.655057 0.27852273 -0.48883483 1.7965349 0.15589511 -0.11022432 0.6114872 0.18471684

network_body._body_endoder.seq_layers.0.bias f4 [128]
00000000: 0000 0000 0000 0000 0000 0000 0000 0000
00000010: 0000 0000 0000 0000 0000 0000 0000 0000
00000020: 0000 0000 0000 0000 0000 0000 0000 0000
00000030: 0000 0000 0000 0000 0000 0000 0000 0000
00000040: 0000 0000 0000 0000 0000 0000 0000 0000
00000050: 0000 0000 0000 0000 0000 0000 0000 0000
00000060: 0000 0000 0000 0000 0000 0000 0000 0000
00000070: 0000 0000 0000 0000 0000 0000 0000 0000
00000080: 0000 0000 0000 0000 0000 0000 0000 0000
00000090: 0000 0000 0000 0000 0000 0000 0000 0000
000000a0: 0000 0000 0000 0000 0000 0000 0000 0000
000000b0: 0000 0000 0000 0000 0000 0000 0000 0000
000000c0: 0000 0000 0000 0000 0000 0000 0000 0000
000000d0: 0000 0000 0000 0000 0000 0000 0000 0000
000000e0: 0000 0000 0000 0000 0000 0000 0000 0000
000000f0: 0000 0000 0000 0000 0000 0000 0000 0000
00000100: 0000 0000 0000 0000 0000 0000 0000 0000
00000110: 0000 0000 0000 0000 0000 0000 0000 0000
00000120: 0000 0000 0000 0000 0000 0000 0000 0000
00000130: 0000 0000 0000 0000 0000 0000 0000 0000
00000140: 0000 0000 0000 0000 0000 0000 0000 0000
00000150: 0000 0000 0000 0000 0000 0000 0000 0000
00000160: 0000 0000 0000 0000 0000 0000 0000 0000
00000170: 0000 0000 0000 0000 0000 0000 0000 0000
00000180: 0000 0000 0000 0000 0000 0000 0000 0000
00000190: 0000 0000 0000 0000 0000 0000 0000 0000
000001a0: 0000 0000 0000 0000 0000 0000 0000 0000
000001b0: 0000 0000 0000 0000 0000 0000 0000 0000
000001c0: 0000 0000 0000 0000 0000 0000 0000 0000
000001d0: 0000 0000 0000 0000 0000 0000 0000 0000
000001e0: 0000 0000 0000 0000 0000 0000 0000 0000
000001f0: 0000 0000 0000 0000 0000 0000 0000 0000
0.0 0.0 0.0 0.0 0.0 0.0 0.0 0.0
0.0 0.0 0.0 0.0 0.0 0.0 0.0 0.0
0.0 0.0 0.0 0.0 0.0 0.0 0.0 0.0
0.0 0.0 0.0 0.0 0.0 0.0 0.0 0.0
0.0 0.0 0.0 0.0 0.0 0.0 0.0 0.0
0.0 0.0 0.0 0.0 0.0 0.0 0.0 0.0
0.0 0.0 0.0 0.0 0.0 0.0 0.0 0.0
0.0 0.0 0.0 0.0 0.0 0.0 0.0 0.0
0.0 0.0 0.0 0.0 0.0 0.0 0.0 0.0
0.0 0.0 0.0 0.0 0.0 0.0 0.0 0.0
0.0 0.0 0.0 0.0 0.0 0.0 0.0 0.0
0.0 0.0 0.0 0.0 0.0 0.0 0.0 0.0
0.0 0.0 0.0 0.0 0.0 0.0 0.0 0.0
0.0 0.0 0.0 0.0 0.0 0.0 0.0 0.0
0.0 0.0 0.0 0.0 0.0 0.0 0.0 0.0
0.0 0.0 0.0 0.0 0.0 0.0 0.0 0.0

network_body._body_endoder.seq_layers.2.weight f4 [128, 128]
00000000: d3f8 f53d 9f3c da3d b843 56be 1cbf 953c
00000010: 10fd 163e 49b7 ccbd d710 88bd cfd3 883d
00000020: 1381 18be bfb6 ff3d cc7c 2f3d 603c 353e
00000030: f635 adbc f934 88bd 2f33 4e3d 33d9 2c3c
00000040: a633 ad3c ea42 9e3d 815a 39bd a09e 2abd
00000050: 1001 04bc 7030 0dbc ebb2 863b 1b1a 5bbe
00000060: b311 103e 825d 80bc 0edd 093d 9bd8 aa3e
00000070: 286e d43d 1c43 773c ac54 023e 3c0e 363d
00000080: 3fe7 453e 8fb0 eb3d 427b b83c 6443 92bd
00000090: 73a2 913d e802 b73d fd60 31be 98a9 fc3d
000000a0: 0767 ed3d d8fc 9ebd abc9 8e3d acff 32be
000000b0: be81 96bd a884 683b 97b3 4f3d d46d 4cbc
000000c0: e80a ca3b bc18 933c cfb2 c33d ad95 4cbd
000000d0: f424 423c c518 833d c74a 8c3d 1387 5dbe
000000e0: b926 d7bd 9eb7 433d 5d03 ddbc 2aab 7abc
000000f0: 4502 e2bd 8753 01be 77c6 a73c a9b2 ecbc
00000100: c8bf 043d 1420 1d3e d410 f43b 82a8 373d
00000110: 4a86 4a3d 66f0 ef3d a628 bb3c 0341 8cbd
00000120: 3ca4 92bd 031b 43bd 8bb1 0d3c 34a0 483d
00000130: eb88 ec3d 2d2f 0d3e b0ae 12be ebc1 1c3d
00000140: 3b0c b4bb e3fa 8dbd 9706 49be 0e8e 5bbd
00000150: 2adf 6f39 a7c1 863c 4ccc 7ebd 1e7e 893e
00000160: 1c28 953d f11b 44bd 256f 29bb 8f69 0f3d
00000170: 4675 5a3e da9a 4e3d dd30 10bb de56 16be
00000180: a9cd 953d 72e9 1fbd b3ae 433c 5596 833d
00000190: 8fd9 bf3d f929 a93b 19d7 5fbd 3528 943d
000001a0: 0ecf 573d b51f 6e3e f456 8939 e5bf dfbd
000001b0: efa8 033e 9b5e afbd d091 783d 7141 8abd
000001c0: d6dc a03d e37c 63bd d7ca da3d 68e7 00be
000001d0: 7fa1 a33d 562a 53bd 772a debd ffbb 1e3d
000001e0: d507 0e3e 1b8b 4b3c fc47 2b3e 3a53 0fbd
000001f0: cb7e f63b cf71 d3bc 6d68 3cbd 5d4e 31be
00000200: 6392 b53d 3407 e0bd b9e6 e73d aa37 423d
00000210: 85af cdbd d768 003e 4ebd 38bd 9e30 ffbd
00000220: 2ae0 46bd 7bb3 fbbc 26e6 543c 8950 c53d
00000230: 0601 93bd ee0a 653d e8a6 2ebd ba6d 963d
00000240: 6199 56bd 1d3c 523d f93f d03d 5a81 72bd
00000250: 44c8 5cbe 5513 45bd 1925 7f3d 83de f0bc
00000260: 84bd 80bd b455 823d 0b5c 6abd 7acb a0bd
00000270: 9d21 113d 1d24 1fbd b550 30be 84af 5c3d
00000280: f164 65be ecb4 ce3d 8d65 c1bd 5fc2 e33b
00000290: c4c4 fa3c 8f52 203e f814 1a3d 402f a9bd
000002a0: bd41 21be 273b debd a2be 7d3d ff49 963c
000002b0: 6ac6 f33d 3262 e0bd ec81 edbb 9855 4d3d
000002c0: b1b3 7a3d 6b18 64bd 6fc7 9dbd 4c1b 93bd
000002d0: 73a3 09bc 30bc d3bd ea44 95bd 081e 7f3d
000002e0: 918b 753d 6ddb 95bd ecba ae3d e60d 76bd
000002f0: dcce 55bd 9a75 e53c 1bd1 dfbd 6ce2 df3c
00000300: 1a5b 823d f7a3 9cbc f3f3 b3bd b7f9 383e
00000310: 2fc1 b7bd aae9 6fbd 59f1 8abd f97c 143a
00000320: 9a69 09bc 6e72 043e fd2f 5c3d 15cf 6fbd
00000330: c084 babc 1273 adbd cceb adbd 8da1 473d
00000340: 7b65 793d 9938 3abe 0f09 69bd 5b1f 743c
00000350: ba4e babd 5931 c53c adc0 bc3d 51f7 4c3d
00000360: ca05 c6bd 281f 43be 6ca6 893d 6260 e63b
00000370: 44e7 7dbe 5764 b33c 3086 bdbd ffa3 3ebd
00000380: 0bba e43d f20c bfbd 9fa7 c3bc 8d93 d33d
00000390: bcaf a23d e6e4 20be 3d01 41bd 6b4c 50bd
000003a0: 5526 ad3d 0f72 16be 0928 8cbd 6f88 d43d
000003b0: c7fc 043d 8937 8f3a b8a5 f53d 6af1 0cbe
000003c0: 7568 34bd 0a93 a7bd 57e5 3dbd ded8 d5bb
000003d0: d83a 35be fbca 993d 4678 37bd 94c2 403e
000003e0: 1151 903d 848e 233e f7fd db3d c767 7f3b
000003f0: 21db 8dbd 7696 87bd 88b6 e7bd 404a 473d
0.1201035 0.10656094 -0.2092427 0.018279605 0.14744973 -0.09995896 -0.06643837 0.06681024
-0.14892988 0.12486028 0.042843625 0.17698812 -0.021143895 -0.06650729 0.05034178 0.010549831
0.021142792 0.077276066 -0.045252327 -0.041655183 -0.008056894 -0.008617505 0.004110684 -0.21396677
0.14069252 -0.015669588 0.03365808 0.33368382 0.10372573 0.015091684 0.12727612 0.04444717
0.19326495 0.11508285 0.022519711 -0.0714176 0.07111063 0.08936101 -0.17322154 0.12337035
0.115919165 -0.0776307 0.06972059 -0.17480344 -0.07348965 0.003547946 0.05070838 -0.012477357
0.006165851 0.01795613 0.095555894 -0.04994743 0.011849631 0.06401209 0.068502 -0.21633558
-0.10505433 0.047782533 -0.026979143 -0.015299598 -0.11035589 -0.1262952 0.020480378 -0.028893786
0.03240946 0.15344268 0.007448295 0.044838436 0.049444474 0.11715774 0.022846531 -0.068483375
-0.071602315 -0.047633182 0.008648287 0.048980907 0.115495525 0.13787527 -0.1432445 0.038270872
-0.005494622 -0.069326185 -0.1963142 -0.05360227 0.00022875951 0.016449763 -0.06220655 0.26854032
0.07283041 -0.04787821 -0.00258536 0.035012778 0.21333799 0.050440647 -0.002200178 -0.14681575
0.07314617 -0.03904099 0.011943507 0.06425158 0.09367668 0.0051624742 -0.054648492 0.072342314
0.052687697 0.23254283 0.0002619546 -0.10925273 0.12857412 -0.085629664 0.060685933 -0.06750763
0.07854621 -0.055539023 0.1068322 -0.12588274 0.07989787 -0.051554047 -0.10847943 0.038753506
0.13870175 0.012423302 0.16726679 -0.03499148 0.007522439 -0.025811104 -0.045998026 -0.1731505
0.08865812 -0.10938874 0.11323304 0.047416367 -0.10043243 0.12539993 -0.04510241 -0.12460445
-0.048553623 -0.030725231 0.012994325 0.096345015 -0.071779296 0.055918626 -0.042639643 0.073451474
-0.052392367 0.05132686 0.10168452 -0.05920539 -0.2156077 -0.04811414 0.06229124 -0.029402977
-0.06286147 0.06364003 -0.057216685 -0.0785131 0.035432447 -0.0388528 -0.17218287 0.053878322
-0.22401787 0.10093102 -0.094431974 0.006950661 0.030611403 0.15656494 0.037617654 -0.08260965
-0.15747733 -0.10851126 0.06194938 0.018345831 0.11903079 -0.10956229 -0.007248154 0.050130457
0.061206523 -0.05568735 -0.077040546 -0.07182941 -0.008400786 -0.10338628 -0.07288535 0.0622845
0.059947554 -0.07317243 0.08531746 -0.06007185 -0.05219923 0.028010178 -0.109285556 0.027329646
0.063650325 -0.019121153 -0.08786764 0.18064009 -0.08972394 -0.05857245 -0.06784315 0.00056643743
-0.008386994 0.12934276 0.053756703 -0.0585471 -0.022768378 -0.084692135 -0.0849224 0.04873805
0.060887795 -0.18185653 -0.056893405 0.014900054 -0.09097047 0.024071382 0.092164375 0.050040547
-0.09669073 -0.19054854 0.067211956 0.0070305327 -0.24795252 0.021898432 -0.0925411 -0.046543118
0.111682974 -0.09328641 -0.023883639 0.103308775 0.07943675 -0.15712318 -0.04712032 -0.050854128
0.08454577 -0.14691947 -0.068435736 0.10377585 0.03246763 0.0010926585 0.11994499 -0.13763967
-0.04404493 -0.08182342 -0.046361294 -0.0065260967 -0.17698228 0.075094186 -0.044792436 0.18824226
0.07046712 0.15972334 0.10741799 0.0038971768 -0.06926561 -0.06620495 -0.11314112 0.048654795

network_body._body_endoder.seq_layers.2.bias f4 [128]
00000000: 0000 0000 0000 0000 0000 0000 0000 0000
00000010: 0000 0000 0000 0000 0000 0000 0000 0000
00000020: 0000 0000 0000 0000 0000 0000 0000 0000
00000030: 0000 0000 0000 0000 0000 0000 0000 0000
00000040: 0000 0000 0000 0000 0000 0000 0000 0000
00000050: 0000 0000 0000 0000 0000 0000 0000 0000
00000060: 0000 0000 0000 0000 0000 0000 0000 0000
00000070: 0000 0000 0000 0000 0000 0000 0000 0000
00000080: 0000 0000 0000 0000 0000 0000 0000 0000
00000090: 0000 0000 0000 0000 0000 0000 0000 0000
000000a0: 0000 0000 0000 0000 0000 0000 0000 0000
000000b0: 0000 0000 0000 0000 0000 0000 0000 0000
000000c0: 0000 0000 0000 0000 0000 0000 0000 0000
000000d0: 0000 0000 0000 0000 0000 0000 0000 0000
000000e0: 0000 0000 0000 0000 0000 0000 0000 0000
000000f0: 0000 0000 0000 0000 0000 0000 0000 0000
00000100: 0000 0000 0000 0000 0000 0000 0000 0000
00000110: 0000 0000 0000 0000 0000 0000 0000 0000
00000120: 0000 0000 0000 0000 0000 0000 0000 0000
00000130: 0000 0000 0000 0000 0000 0000 0000 0000
00000140: 0000 0000 0000 0000 0000 0000 0000 0000
00000150: 0000 0000 0000 0000 0000 0000 0000 0000
00000160: 0000 0000 0000 0000 0000 0000 0000 0000
00000170: 0000 0000 0000 0000 0000 0000 0000 0000
00000180: 0000 0000 0000 0000 0000 0000 0000 0000
00000190: 0000 0000 0000 0000 0000 0000 0000 0000
000001a0: 0000 0000 0000 0000 0000 0000 0000 0000
000001b0: 0000 0000 0000 0000 0000 0000 0000 0000
000001c0: 0000 0000 0000 0000 0000 0000 0000 0000
000001d0: 0000 0000 0000 0000 0000 0000 0000 0000
000001e0: 0000 0000 0000 0000 0000 0000 0000 0000
000001f0: 0000 0000 0000 0000 0000 0000 0000 0000
0.0 0.0 0.0 0.0 0.0 0.0 0.0 0.0
0.0 0.0 0.0 0.0 0.0 0.0 0.0 0.0
0.0 0.0 0.0 0.0 0.0 0.0 0.0 0.0
0.0 0.0 0.0 0.0 0.0 0.0 0.0 0.0
0.0 0.0 0.0 0.0 0.0 0.0 0.0 0.0
0.0 0.0 0.0 0.0 0.0 0.0 0.0 0.0
0.0 0.0 0.0 0.0 0.0 0.0 0.0 0.0
0.0 0.0 0.0 0.0 0.0 0.0 0.0 0.0
0.0 0.0 0.0 0.0 0.0 0.0 0.0 0.0
0.0 0.0 0.0 0.0 0.0 0.0 0.0 0.0
0.0 0.0 0.0 0.0 0.0 0.0 0.0 0.0
0.0 0.0 0.0 0.0 0.0 0.0 0.0 0.0
0.0 0.0 0.0 0.0 0.0 0.0 0.0 0.0
0.0 0.0 0.0 0.0 0.0 0.0 0.0 0.0
0.0 0.0 0.0 0.0 0.0 0.0 0.0 0.0
0.0 0.0 0.0 0.0 0.0 0.0 0.0 0.0

action_model._discrete_distribution.branches.0.weight f4 [4, 128]
00000000: b296 66bc 9592 f7bb 7d25 793b 1bf7 1bbc
00000010: c54f 68bc 878c d1ba 3b4a b73b 186f 643a
00000020: aba6 b8b8 e712 40bc 0117 bf3a 60e1 913b
00000030: 3716 71bb d0ef db3b b900 1d3b 9577 133b
00000040: 5338 90bc 2fae 75ba 8e16 08bc 6675 163c
00000050: 1037 3ebc e669 0e3b 8f0b bb3b 1551 c83b
00000060: 42f8 14bb be41 1cbb dd3b 97bb f320 593b
00000070: 7305 ee3a 3802 1bba 1701 80ba c755 6abc
00000080: 8b17 6d3c 33ef ce39 3b4e 453c a374 06bc
00000090: 9eeb 44ba 2ff5 223c ca2f 863a 21e0 883c
000000a0: 7f8d 033a 7d5b 853c 8aa7 3d3a f5a2 06bb
000000b0: 6393 b43b ac4b 85bc 0f26 a8bb efff 0dbc
000000c0: 248f b03a 4bc7 8bbb 5372 0f3a eb41 523b
000000d0: 7bea 013c 9d11 f3bb 2276 4dbb 7dac ffba
000000e0: 3dd3 42bb 7d5b a93b ea3b b13b 5d94 87bb
000000f0: 4a8a 85ba a564 49ba 4aab c33b 9570 ea3b
00000100: d526 62bc fc94 0b3a 1480 c2bb 1441 27bb
00000110: cf62 8bbc 5e4e 893b f784 90bc 18e7 d93a
00000120: d75b 58bc d309 d6bb 4dff 393c 38a4 e7bb
00000130: 4a68 103c 0ce2 a5bc 09c7 c2ba 5c6d 843c
00000140: b82a d63b 6b8c 0dbc baf5 763b 0ffd 04bc
00000150: f508 9d3c 529c e2ba dddc 363c ade9 223b
00000160: e297 25bb 8b10 dcbb ea4d 69bb 5719 303c
00000170: 68be 5bba 00de f93b 473b 503a a8ef 4c3a
00000180: f317 9539 77c6 3037 692e 0f3b d6e9 223c
00000190: c70b 813b 59ff 133c d351 e33b e4b2 8f3c
000001a0: 1d9f c33b 44ab 39bc bf8c 5dbc f3cc cc3a
000001b0: 2f41 3cbb 45bb e33b 97f2 92bb 9834 03bc
000001c0: 051d e03b 8ee4 0e3b 2e47 023b f21e a13b
000001d0: b057 54bc 6a34 b33c 8500 013b d38b 7cbb
000001e0: 53e1 39bc b7f4 20bb 83eb 37bc cb7d 10bc
000001f0: 9f14 79bc ab5a 0bbc fa31 c5bb 8077 58bb
00000200: 04ba 923b 4e01 94bb 7370 ef3a 41c3 853c
00000210: 4395 6b3b 07e6 23bb e500 5a3c 0a7d 52bb
00000220: e042 f73b f8ae 81bc c0a7 273c 2070 1e3a
00000230: c3f3 98bb 1086 b63c a81e 5ebb bbcd 64bc
00000240: 5e51 81bb a16e c13b 5714 d83a 1ff0 143c
00000250: 1de0 cf3b 6ff8 a73b a2cf 373c 4d71 703a
00000260: 7a2a a33a 684c d33a bb53 8fbb 5f49 273b
00000270: 3cd2 483a 42fc 4e3b 5f68 233a ac9b 1e3b
00000280: 6b1e 153a fadf 46bb 9b1f 8e3b d34c ca3b
00000290: 164f 9dbc 5dad 91bb b334 6bbc 77f2 c4bb
000002a0: 80a5 e53b 5b59 debb 0bda 5a3b dfaf 5ebc
000002b0: 50a1 0c3c 55c0 28bb 7377 ae3b bf44 06bc
000002c0: e4b9 af39 c2a0 613c 279b 963b 4d11 e9bb
000002d0: 0f48 663c 85ba fbbb 07f2 20bc 37d0 633b
000002e0: 61cc 8dbc b589 dfbb 22a3 343c 3bc1 c53b
000002f0: 9636 883a 4d35 b23b 65eb 903b cfb2 c93b
00000300: c638 bf39 0b92 933b a830 20bb 30d7 683a
00000310: e0dc 32bb cd89 70bc 0716 643c 6b79 13bc
00000320: 490e 10bc 64ee 9dbb 3792 9bbb 460d aebb
00000330: b551 fc3a 3d98 f53a 068c 89bb ab00 dabb
00000340: 330d 7e3b 4342 efbb 14cf b33a 8c72 08bb
00000350: 2f9c 6a3b 3beb 0fbb e4ce 0e3a 6dc0 bcba
00000360: ddba 073c 6ea3 31bc 1ad5 0abc 422c 80b9
00000370: 271f f1bb a330 823b e76c 48bc a08b 70b9
00000380: 4ada e43b b1a9 21bc e22d 7ebc 6261 54bc
00000390: 9a8c b93b 209b 4c3c 5a1a 083c c65b 9bbb
000003a0: 89d4 bb3a e0bd 31bb 1766 b7b9 5f0d 89bb
000003b0: f932 2cbc a4d2 b1bb 6ae6 333b 1814 4d3b
000003c0: 829c 0cbc b55b a6bb 2d2e 01bc 3dc7 213c
000003d0: 72eb 70bc 4a6c f4bb 2fe7 7bbb 028b 5fbb
000003e0: af70 713c 0713 bfbb c6e5 98bb 1c6b a83b
000003f0: be91 4c3c 7733 ff3b 072f b8bb a0ea db3b
-0.0140740145 -0.0075553157 0.003801673 -0.009519364 -0.014179175 -0.0015987315 0.0055935658 0.0008714064
-8.804848e-05 -0.011723257 0.0014578999 0.0044519156 -0.0036786923 0.0067119375 0.002395673 0.0022501696
-0.017604982 -0.00093719637 -0.008306159 0.009183263 -0.011609808 0.00217306 0.005708165 0.0061131814
-0.002273098 -0.0023842896 -0.0046152906 0.0033131212 0.0018159583 -0.00059131114 -0.000976595 -0.0143026775
0.014470945 0.000394696 0.012042577 -0.008206519 -0.00075119163 0.009946152 0.0010237631 0.016708435
0.0005018338 0.016278977 0.0007234743 -0.0020543907 0.005510734 -0.016271435 -0.00513149 -0.008666976
0.0013470394 -0.004265701 0.0005472053 0.0032082747 0.00792944 -0.007417871 -0.003135093 -0.0019506362
-0.0029727959 0.005168377 0.0054087536 -0.0041375593 -0.0010188308 -0.00076825387 0.005971347 0.007154534
-0.013803204 0.00053246296 -0.0059356783 -0.0025520967 -0.017014889 0.0041902503 -0.017641528 0.0016624657
-0.01320549 -0.006531933 0.011352372 -0.007069137 0.008813927 -0.02024939 -0.0014860342 0.016165428
0.006535854 -0.008639435 0.0037683086 -0.0081169745 0.01916931 -0.0017289019 0.011161056 0.002485852
-0.002526753 -0.0067158393 -0.003559942 0.010748229 -0.000838256 0.0076253414 0.00079434033 0.0007817694
0.00028437338 1.0536626e-05 0.002184773 0.009943446 0.0039381715 0.009033048 0.0069372444 0.017541356
0.0059698955 -0.011332337 -0.013522326 0.0015625044 -0.0028725376 0.0069498145 -0.0044844854 -0.008008145
0.006839397 0.002180371 0.0019878852 0.004917019 -0.012960359 0.021875579 0.0019684148 -0.003853549
-0.011345225 -0.0024559924 -0.011225584 -0.008819054 -0.01520267 -0.008505504 -0.0060179206 -0.0033030212
0.004477741 -0.004516757 0.0018267765 0.016328456 0.0035947121 -0.0025008933 0.013305877 -0.0032117986
0.007545814 -0.015830502 0.010232866 0.00060439296 -0.0046677305 0.022280723 -0.0033892784 -0.013965066
-0.0039464673 0.0059030806 0.0016485554 0.009090452 0.006343855 0.005126051 0.011218937 0.00091721566
0.0012448572 0.0016120793 -0.004373995 0.002552591 0.0007660722 0.0031583463 0.0006233509 0.0024201674
0.00056884316 -0.0030345903 0.0043372638 0.006173709 -0.01920275 -0.0044457153 -0.014355826 -0.0060103494
0.0070082545 -0.0067855543 0.0033394124 -0.013591736 0.008583382 -0.0025749404 0.005324298 -0.008195101
0.000335171 0.013771238 0.0045961323 -0.007112658 0.014055266 -0.007682147 -0.009823329 0.0034761557
-0.01730937 -0.006821836 0.011025222 0.0060349978 0.0010392244 0.005438483 0.0044225925 0.006155349
0.00036472658 0.0045034937 -0.0024443064 0.0008882163 -0.0027292296 -0.014681292 0.013921267 -0.009001116
-0.008792468 -0.004819678 -0.004747655 -0.005311641 0.0019250425 0.0018737387 -0.0041976003 -0.0066529117
0.0038765192 -0.0073016 0.001371833 -0.0020820228 0.003579866 -0.0021960277 0.0005447699 -0.0014400609
0.008284298 -0.010842187 -0.008473659 -0.00024447037 -0.00735845 0.003973083 -0.012232996 -0.00022940198
0.00698403 -0.009867118 -0.015513869 -0.012962671 0.005662513 0.012488157 0.008307064 -0.004741165
0.0014330308 -0.002712123 -0.00034980543 -0.004182502 -0.0105102 -0.0054267216 0.002745057 0.0031292494
-0.008582236 -0.0050768503 -0.007884544 0.009874162 -0.014704572 -0.007459198 -0.0038437357 -0.0034109955
0.0147363385 -0.0058311257 -0.004666063 0.0051397216 0.0124859195 0.0077881175 -0.0056208405 0.006711319

action_model._discrete_distribution.branches.0.bias f4 [4]
00000000: 0000 0000 0000 0000 0000 0000 0000 0000
0.0 0.0 0.0 0.0

network_body._body_endoder.seq_layers.0.weight f4 [128, 2]
00000000: 7e6c 4c3d 3f26 4f3f e533 6d3e 6ff4 babe
00000010: f222 133f 557d 7cbf a2d7 05bf d2c4 00bf
00000020: 2965 1dbe a06c e03f 333f 8dbf fb0a 803f
00000030: 79f0 fa3e b07a 5e3f f985 2f3f 9b55 7cbf
00000040: 984e b6bf 9975 ff3f a278 b63e b7c9 7b3e
00000050: f0b5 8dbe 5505 e5be e6cc 08bf d569 b63e
00000060: 9519 9bbd 1152 6bbe ade1 a3bd 0d3f 663e
00000070: c9b1 25bd 32dc a2bf 38fa 7ebf d5c2 ab3d
00000080: 7dfe 03bf 6bc0 9d3e 3f0b fe3d 1b05 2d3f
00000090: 9103 16bf f736 7d3e d382 3fbf 5fee 973f
000000a0: 95c7 0d3e cc37 64bf bc60 8e3e 14c0 4b3e
000000b0: 3a58 4c3e 36ee 383f c780 bcbd 4080 71bf
000000c0: 9eb5 d33e 81c8 8b3f 2a78 633f b270 2f3f
000000d0: b53c a93e 9531 1bbf 6982 c23d c411 ee3d
000000e0: 8fe9 de3c 101f 05bf 5bb5 59be 15bf 28bc
000000f0: ea33 51bf 843b dc3e 3f45 61be 8e99 b3bf
00000100: 8a3c 36bd c0f1 8d3e ba5a 3f3d ad99 043f
00000110: 6780 0ebe 0f7d 823e bd7d 153f 185b 823f
00000120: 0c69 a13f 779d 77bf 2602 aa3e 78b3 84bf
00000130: c292 1ebf 75bf 1c3f 74fa 99bf cff4 dc3b
00000140: 39f9 483f 964c 6fbf 653f 123f 47bf 34be
00000150: 2722 533f 513a 003f 3542 ad3e 7517 7d3f
00000160: 54fd 23bd cd74 d03b 6de9 c43e e802 3f3f
00000170: 500d b4be 58f2 5bbf f9e9 813f 795e 753f
00000180: b9f8 973f 5679 5e3f 04c4 b03e 951b 76bf
00000190: 158e c8bf 82f1 04bf 384e 763d 3170 1dbf
000001a0: 6047 533f 82de cebd e282 6abf 7b31 113e
000001b0: d2fa 57bf b922 16be 09d6 d7bd 62d1 10bf
000001c0: b93f 603f a873 5a3e e069 62be b787 3b3e
000001d0: 3650 81bf ffbe 083e fdae 97bf c4f2 833d
000001e0: 7ae2 fe3e 1de6 293f 6d5e d9be 9b01 86bf
000001f0: 81cc b53f 2923 953f 28eb f3be 0b31 e83d
00000200: e5b2 34be 92b9 0d3f 9659 413e 0586 e53d
00000210: d344 1cbf a458 353f 72ae b13e a089 c93e
00000220: b6a9 0740 1fc0 eebe 4f82 7dbf fff2 fa3e
00000230: 9891 1bbe f35b 33bf 33a6 b23e 9f0f 0d3f
00000240: 8361 873f cdb5 e73d ce78 32bf 757c 823f
00000250: 6bac b6bc 5448 2b3e 67ee bfbe 6910 2dbf
00000260: eed5 b13f 5beb 9dbf b9fa d4be 2327 413f
00000270: f306 4cbf 097c 7fbf 3483 ab3e ada2 d03e
00000280: 95d0 b4bf e4a0 fc3f acad d0be 9e24 ef3e
00000290: 0070 babe ceb1 b33f 31ed 3b3f f16d 833f
000002a0: dc54 8cbe 2f0f e9be 86ee 603e 9715 373f
000002b0: 414c 50bf 9bf5 ad3e b686 9d3d 7597 47bf
000002c0: fef8 643e 181f b53e fe39 ee3d 52fb b7be
000002d0: ed5b 94be d12e dcbf 9ee0 07bf 4eaa 293f
000002e0: 9046 c93e 46aa c13e 807e 13be 4397 69bf
000002f0: d2f0 383f 6cd7 883f 8e3c bdbe 8123 57be
00000300: 59e4 923f 0d47 013f ee6c 903f 6ade 373f
00000310: 74ea ec3d ecaa 1abc 3cbf cd3e 1ac6 2b3f
00000320: 88af 053f 4453 c0be 6a04 653e 5690 fcbe
00000330: dd3a a13e 9b77 a43d cf7e dbbe dacb a93f
00000340: 53c3 933e cac6 de3f b89a e3be 42ab 363f
00000350: 6a87 2b3f c0bd 98bf 18d7 00c0 6d19 0cbf
00000360: c67a a73e efac 623f 5a44 31be f91a 233f
00000370: 4e9d 3e3f 115c c9be d9c0 1fbe 5acc 89bf
00000380: be27 2ebe 425e 663f d9b9 abbe 065c 62be
00000390: 1f3f bb3e a517 e4bd e5d3 c5be b7db f1be
000003a0: 8c04 77bd 66e0 13bf 7ff5 08bf a36d d83f
000003b0: 8c62 243f 37f9 993e f645 8cbf c862 a73e
000003c0: dd1f 91bc a6ff 623d 0632 e4be 3ae8 6abf
000003d0: c855 b93e 3e77 23bf 83d0 2b3f 599f 9cbe
000003e0: 4673 eebd 6985 b83f 2df3 e5be e926 a5bf
000003f0: 613e c8bd a5ad 9e3f 0115 97be d863 9c3f
0.049908154 0.80917734 0.23164327 -0.36514613 0.574752 -0.9862874 -0.52282155 -0.50300324
-0.15370621 1.753315 -1.1034912 1.0003351 0.4901159 0.86905956 0.685638 -0.98568124
-1.4242735 1.9957763 0.3563891 0.24588667 -0.2767787 -0.4473063 -0.5343765 0.35627618
-0.07573239 -0.22980525 -0.080020286 0.2248499 -0.040452752 -1.2723448 -0.99600554 0.08386771
-0.51560193 0.30810866 0.12404489 0.67585915 -0.5859919 0.24727999 -0.74808997 1.186962
0.13845666 -0.8914764 0.27808177 0.1989749 0.19955531 0.7223848 -0.0920425 -0.9433632
0.413495 1.0920564 0.8885523 0.68531334 0.33054128 -0.6062253 0.0949753 0.11624482
0.027210979 -0.5200052 -0.21260588 -0.010299464 -0.8171984 0.43014157 -0.21999072 -1.4031236
-0.04449133 0.27723503 0.046717383 0.5179699 -0.13916169 0.25486037 0.58394986 1.018405
1.2610183 -0.9672465 0.33204764 -1.036727 -0.61942685 0.6122964 -1.2029557 0.0067430506
0.78505284 -0.93476236 0.5712798 -0.17651092 0.8247399 0.50088984 0.33839574 0.9886392
-0.040036514 0.00636158 0.3845934 0.7461381 -0.35166407 -0.8591666 1.0149528 0.9584728
1.1872779 0.86903894 0.34524548 -0.96135837 -1.566836 -0.5193101 0.06013319 -0.61499316
0.82530785 -0.10101034 -0.9160596 0.14179032 -0.84367096 -0.14661683 -0.10538871 -0.5656949
0.87597233 0.21333182 -0.221107 0.1831349 -1.0102603 0.13354109 -1.1850277 0.06442788
0.49782163 0.6636675 -0.42454854 -1.046924 1.4203035 1.1651355 -0.47640347 0.11337479
-0.17646368 0.5536128 0.1888183 0.11207203 -0.6104252 0.7083838 0.34703404 0.39362812
2.1197333 -0.46630952 -0.9902696 0.49013516 -0.15192258 -0.7006218 0.34892425 0.5510196
1.0576633 0.113139726 -0.69715583 1.0194231 -0.022299012 0.1672681 -0.37486574 -0.67603165
1.3893411 -1.233745 -0.41597536 0.7545034 -0.79698104 -0.9979864 0.33498538 0.40749112
-1.4126154 1.97366 -0.407575 0.46707624 -0.36413574 1.4038637 0.734088 1.0267926
-0.27408493 -0.45519397 0.2196599 0.7151732 -0.81366354 0.33976445 0.0769171 -0.7796548
0.22360608 0.35375285 0.11632155 -0.3593393 -0.28976384 -1.7201787 -0.53077114 0.6627549
0.39311647 0.3782522 -0.14403725 -0.9124643 0.7224246 1.0690742 -0.36960262 -0.21009637
1.1475936 0.5049904 1.1283243 0.7182375 0.11568156 -0.009440165 0.40184963 0.67099154
0.52220964 -0.37563527 0.22364965 -0.4932887 0.31490222 0.080306254 -0.42870185 1.3265336
0.28859958 1.7404416 -0.4445398 0.7135507 0.670035 -1.1932907 -2.0131283 -0.54726297
0.32710856 0.88545126 -0.1731123 0.6371303 0.7445878 -0.39328054 -0.1560091 -1.0765488
-0.17007348 0.89987576 -0.33540228 -0.22105417 0.36571595 -0.11137322 -0.38638225 -0.47237942
-0.06030707 -0.5776428 -0.534996 1.6908458 0.6421287 0.30072948 -1.095885 0.32692552
-0.017715389 0.055419587 -0.44569415 -0.917606 0.36198258 -0.63853824 0.6711504 -0.30590323
-0.116430804 1.4415714 -0.4491209 -1.29025 -0.09777523 1.2396742 -0.29508212 1.221797

network_body._body_endoder.seq_layers.0.bias f4 [128]
00000000: 0000 0000 0000 0000 0000 0000 0000 0000
00000010: 0000 0000 0000 0000 0000 0000 0000 0000
00000020: 0000 0000 0000 0000 0000 0000 0000 0000
00000030: 0000 0000 0000 0000 0000 0000 0000 0000
00000040: 0000 0000 0000 0000 0000 0000 0000 0000
00000050: 0000 0000 0000 0000 0000 0000 0000 0000
00000060: 0000 0000 0000 0000 0000 0000 0000 0000
00000070: 0000 0000 0000 0000 0000 0000 0000 0000
00000080: 0000 0000 0000 0000 0000 0000 0000 0000
00000090: 0000 0000 0000 0000 0000 0000 0000 0000
000000a0: 0000 0000 0000 0000 0000 0000 0000 0000
000000b0: 0000 0000 0000 0000 0000 0000 0000 0000
000000c0: 0000 0000 0000 0000 0000 0000 0000 0000
000000d0: 0000 0000 0000 0000 0000 0000 0000 0000
000000e0: 0000 0000 0000 0000 0000 0000 0000 0000
000000f0: 0000 0000 0000 0000 0000 0000 0000 0000
00000100: 0000 0000 0000 0000 0000 0000 0000 0000
00000110: 0000 0000 0000 0000 0000 0000 0000 0000
00000120: 0000 0000 0000 0000 0000 0000 0000 0000
00000130: 0000 0000 0000 0000 0000 0000 0000 0000
00000140: 0000 0000 0000 0000 0000 0000 0000 0000
00000150: 0000 0000 0000 0000 0000 0000 0000 0000
00000160: 0000 0000 0000 0000 0000 0000 0000 0000
00000170: 0000 0000 0000 0000 0000 0000 0000 0000
00000180: 0000 0000 0000 0000 0000 0000 0000 0000
00000190: 0000 0000 0000 0000 0000 0000 0000 0000
000001a0: 0000 0000 0000 0000 0000 0000 0000 0000
000001b0: 0000 0000 0000 0000 0000 0000 0000 0000
000001c0: 0000 0000 0000 0000 0000 0000 0000 0000
000001d0: 0000 0000 0000 0000 0000 0000 0000 0000
000001e0: 0000 0000 0000 0000 0000 0000 0000 0000
000001f0: 0000 0000 0000 0000 0000 0000 0000 0000
0.0 0.0 0.0 0.0 0.0 0.0 0.0 0.0
0.0 0.0 0.0 0.0 0.0 0.0 0.0 0.0
0.0 0.0 0.0 0.0 0.0 0.0 0.0 0.0
0.0 0.0 0.0 0.0 0.0 0.0 0.0 0.0
0.0 0.0 0.0 0.0 0.0 0.0 0.0 0.0
0.0 0.0 0.0 0.0 0.0 0.0 0.0 0.0
0.0 0.0 0.0 0.0 0.0 0.0 0.0 0.0
0.0 0.0 0.0 0.0 0.0 0.0 0.0 0.0
0.0 0.0 0.0 0.0 0.0 0.0 0.0 0.0
0.0 0.0 0.0 0.0 0.0 0.0 0.0 0.0
0.0 0.0 0.0 0.0 0.0 0.0 0.0 0.0
0.0 0.0 0.0 0.0 0.0 0.0 0.0 0.0
0.0 0.0 0.0 0.0 0.0 0.0 0.0 0.0
0.0 0.0 0.0 0.0 0.0 0.0 0.0 0.0
0.0 0.0 0.0 0.0 0.0 0.0 0.0 0.0
0.0 0.0 0.0 0.0 0.0 0.0 0.0 0.0

network_body._body_endoder.seq_layers.2.weight f4 [128, 128]
00000000: 8bf4 0bbe 7c84 2e3d b9b0 38bd 01d7 b13b
00000010: af00 8ebc 84c9 4cbd fa23 513c aeed a63c
00000020: 64d2 c93d 1388 133e 884a 203c 6779 31be
00000030: cab6 54bd 50f6 2d3d 8560 1b3d 61ea fcbb
00000040: 9bc8 28be 74ec 6c3d d83b f23d 229e 71bd
00000050: 3f7b 76bc 0180 403d b6c6 a73d e651 f73d
00000060: 2049 e53c e631 003c 34ee 2bbe 9c0e 69bc
00000070: 5abc 40bd d113 4c3d 61a5 113c 50b5 e23c
00000080: e18e 0fbe 319d 853b c552 9dbd c7b6 00be
00000090: 9e30 d3bd 8d64 d2bd f594 e33d ccf1 b0bd
000000a0: ed27 41be 0b39 71be ee0b 66bd 0adf ccbc
000000b0: faca 0d3d fcd6 86bd cc25 303e bd8b 0bbd
000000c0: 8725 50bd a3f2 783d 753a 39bd b93d b9bd
000000d0: 126a 05be 47fb 23bd 43ef 35bc 8243 e13d
000000e0: 6823 01be 9445 8c3d c84e b8bd 3ccc 07bd
000000f0: be2b 78bd bb66 b93d 08d2 e03d 5805 233d
00000100: 8a6e b6bd 07eb 5a3b 134a 193d 05f7 0d3e
00000110: 1062 73bd a3e2 d43d 14ee 7fbb f512 9d3c
00000120: af02 223d 4324 9ebd 10ca 20bd 5057 723d
00000130: cfa6 283d 8d79 29be 4bc7 71bd e538 4abd
00000140: 968e 073d 4f31 23be 5832 22be 7ecd 2a3e
00000150: 4275 073c 25ca 9a3d ed53 0b3d 4118 883d
00000160: e760 a53d 411b dcbd 3bf9 963d 2111 ad3d
00000170: 7746 3e3c 7b8e c4bd 463c 103e 1642 34be
00000180: 5925 803d c274 21bc 87d8 5dbd 0525 03be
00000190: dfc2 31bd 62ae fd3d c8d4 e9bd 7ca8 253e
000001a0: e5d4 d33c 165e f63d 5f99 2abd 3830 883d
000001b0: b59a bbbd 5228 1bbd 6dd8 1fbd ef59 2ebe
000001c0: 29b7 1c3b 0624 273e f5da ce3c c1a6 1ebe
000001d0: 1b46 0d3e 413f 843d f93b e43d 5fc2 1bbc
000001e0: d69e 453e a38f 4cbd b8db 883c 4be8 2cbe
000001f0: 929d 7a3d 4c94 6a3d c558 22be 0939 22bc
00000200: e8f6 2fbd 6014 23bc 8755 f6bd 741a e8bc
00000210: 6830 213e add5 153e 44c1 afbd 8416 103c
00000220: a8d1 613d 98a9 7fbd 365a 5e3d 6f01 7f3e
00000230: 5985 55bd 7d33 d73d f72c ecbc 98d0 efbc
00000240: 15ef 3abe 93b1 863d ae26 d7bd 6e39 603c
00000250: dbe5 f9bd 5d3f 73be f08f a4bd e853 a4bd
00000260: 43fc 363d b417 603d d062 373e 9e79 623e
00000270: c1d0 e33b b837 333d 2ea7 563e 8dab 8b3d
00000280: fd3f ddbd 17b9 f1bd 2998 91bd 6316 c4bd
00000290: 73fe 03be 9abb a73c 308f 2dbe aa99 383e
000002a0: 7b2d 8cbd 258a f5bb 33e6 94bb 9742 2abe
000002b0: d20a 2fbe acba 183e 7c71 b7bd 2620 e8bd
000002c0: ce64 0e3e 47bd 6a3d d75c dabb 42ab de3d
000002d0: 1e94 f0bd 7167 09be 2cd9 33bd b5af e63d
000002e0: f94a 99bd ba21 1ebe 916d 803d a245 0ebe
000002f0: fd11 31be 52fe c73d 69c4 14be 456c e03d
00000300: a412 2f3d b532 aebd d237 f03c a473 e3bc
00000310: eff7 d5bd a0ce 10be c6d0 3c3c 1c52 91bd
00000320: 8a50 babd 4630 913c fa09 313e 3b83 cfbc
00000330: 149b 5ebe 3921 8a3d e108 3c3d 8b96 3bbe
00000340: 992c a3bc ed95 51bd 242a 9c3d 167d b53d
00000350: a3c9 0b3d f5b7 d9bc eee6 c7bc a4d3 76bd
00000360: 3758 44bc e868 183d 45d6 6d3d 5c9b 46bd
00000370: a89b 15bd 4745 0b3e 9275 173c 7c0d 863e
00000380: 46f6 d2bc 78a7 f3bb 7539 813d dc65 6bbd
00000390: f9f5 c83d 3a28 b43d bbca e63c f55b 84bd
000003a0: 2f4f c43c 1f44 e43c 726e cabb d9c6 b9bc
000003b0: ea9f 6f3a 49c3 98be b8d0 8d3d 89a8 403e
000003c0: 3c72 4a3c b53e 3abe 4a9e 00be 9c5c b5bd
000003d0: 3e69 e43d 4074 2bbc e888 9abd 17c1 003e
000003e0: 0c10 393d de88 ddbb c652 aa3d fba6 033e
000003f0: 4c57 923c 07d6 dbbc 4f09 9bba 9354 013d
-0.13667504 0.042606816 -0.04509041 0.005427242 -0.01733431 -0.049996868 0.012764925 0.020377006
0.09854582 0.14407377 0.009783395 -0.17331468 -0.051932134 0.04247123 0.037933845 -0.00771837
-0.16482775 0.057842687 0.118278205 -0.058988698 -0.015044033 0.046997074 0.08192198 0.12076168
0.02798897 0.007824397 -0.16790086 -0.014224675 -0.047054626 0.049823586 0.008889527 0.027674347
-0.14019348 0.0040775766 -0.07681803 -0.12569724 -0.10312007 -0.10273085 0.11112396 -0.08639869
-0.18862887 -0.23556916 -0.05616372 -0.025008697 0.0346174 -0.06583974 0.17201918 -0.03406881
-0.05081704 0.06077827 -0.045221765 -0.09044976 -0.13028744 -0.04003456 -0.011104408 0.10999204
-0.12611163 0.068492085 -0.08999401 -0.033153757 -0.06058859 0.090527974 0.1097756 0.039800018
-0.089078024 0.0033404247 0.03742416 0.13863762 -0.05941969 0.1039479 -0.0039051818 0.019174078
0.03955334 -0.0772176 -0.0392552 0.0591653 0.041174706 -0.16550274 -0.05902795 -0.049370665
0.033094965 -0.15936778 -0.15839517 0.16679952 0.008267703 0.07558087 0.034015585 0.06645251
0.08075123 -0.10747386 0.07371756 0.08450533 0.01161348 -0.095974885 0.14085492 -0.17603335
0.062571235 -0.009854497 -0.054161575 -0.1280709 -0.043398734 0.123867765 -0.11417538 0.16177553
0.025858352 0.12029664 -0.041650172 0.06649822 -0.091603674 -0.03788025 -0.03902476 -0.17026494
0.0023912883 0.16322336 0.025250891 -0.15493299 0.13796274 0.06457377 0.111442514 -0.009506791
0.19298872 -0.04994167 0.016706333 -0.16885488 0.061185427 0.057270333 -0.15854175 -0.009901294
-0.042960078 -0.009953588 -0.12028032 -0.028332926 0.15741122 0.14632292 -0.08581784 0.008794431
0.055131584 -0.062417597 0.05428525 0.2490289 -0.052129123 0.105078675 -0.028830035 -0.02927427
-0.18255265 0.06576838 -0.105054244 0.013685567 -0.122020446 -0.2375464 -0.080352664 -0.08023816
0.04467417 0.054710105 0.17908788 0.22116706 0.0069523756 0.04375431 0.20962211 0.0681983
-0.108032204 -0.11802881 -0.071091 -0.095745824 -0.12890033 0.020475198 -0.16949153 0.18027368
-0.06844612 -0.0074932748 -0.0045440434 -0.16626965 -0.17093971 0.1491496 -0.08957192 -0.11334257
0.13905641 0.057309415 -0.0066638994 0.108725086 -0.11747001 -0.13418366 -0.043908283 0.11263982
-0.07485003 -0.15442553 0.06270898 -0.1389375 -0.17292018 0.097653046 -0.1452805 0.10958151
0.042742386 -0.08505765 0.029323492 -0.027765103 -0.1044768 -0.14141321 0.011524385 -0.07095739
-0.09097393 0.017723214 0.17288962 -0.02533113 -0.21738845 0.06744618 0.045906905 -0.18319146
-0.019918727 -0.05116837 0.07625225 0.08861749 0.034127843 -0.026576975 -0.024402108 -0.06026043
-0.011983923 0.03720942 0.05806567 -0.048488006 -0.0365254 0.13600646 0.00924434 0.26182163
-0.025752198 -0.0074357353 0.06309787 -0.057470188 0.098125406 0.08796735 0.028172841 -0.06462852
0.023963539 0.027864514 -0.006177717 -0.022677826 0.00091409555 -0.2983649 0.069245756 0.18814291
0.012356337 -0.18187983 -0.12560382 -0.088555545 0.11152886 -0.010464728 -0.07545644 0.12573658
0.04518132 -0.0067607006 0.08316569 0.12856667 0.017863892 -0.026835455 -0.0011828336 0.031574797

network_body._body_endoder.seq_layers.2.bias f4 [128]
00000000: 0000 0000 0000 0000 0000 0000 0000 0000
00000010: 0000 0000 0000 0000 0000 0000 0000 0000
00000020: 0000 0000 0000 0000 0000 0000 0000 0000
00000030: 0000 0000 0000 0000 0000 0000 0000 0000
00000040: 0000 0000 0000 0000 0000 0000 0000 0000
00000050: 0000 0000 0000 0000 0000 0000 0000 0000
00000060: 0000 0000 0000 0000 0000 0000 0000 0000
00000070: 0000 0000 0000 0000 0000 0000 0000 0000
00000080: 0000 0000 0000 0000 0000 0000 0000 0000
00000090: 0000 0000 0000 0000 0000 0000 0000 0000
000000a0: 0000 0000 0000 0000 0000 0000 0000 0000
000000b0: 0000 0000 0000 0000 0000 0000 0000 0000
000000c0: 0000 0000 0000 0000 0000 0000 0000 0000
000000d0: 0000 0000 0000 0000 0000 0000 0000 0000
000000e0: 0000 0000 0000 0000 0000 0000 0000 0000
000000f0: 0000 0000 0000 0000 0000 0000 0000 0000
00000100: 0000 0000 0000 0000 0000 0000 0000 0000
00000110: 0000 0000 0000 0000 0000 0000 0000 0000
00000120: 0000 0000 0000 0000 0000 0000 0000 0000
00000130: 0000 0000 0000 0000 0000 0000 0000 0000
00000140: 0000 0000 0000 0000 0000 0000 0000 0000
00000150: 0000 0000 0000 0000 0000 0000 0000 0000
00000160: 0000 0000 0000 0000 0000 0000 0000 0000
00000170: 0000 0000 0000 0000 0000 0000 0000 0000
00000180: 0000 0000 0000 0000 0000 0000 0000 0000
00000190: 0000 0000 0000 0000 0000 0000 0000 0000
000001a0: 0000 0000 0000 0000 0000 0000 0000 0000
000001b0: 0000 0000 0000 0000 0000 0000 0000 0000
000001c0: 0000 0000 0000 0000 0000 0000 0000 0000
000001d0: 0000 0000 0000 0000 0000 0000 0000 0000
000001e0: 0000 0000 0000 0000 0000 0000 0000 0000
000001f0: 0000 0000 0000 0000 0000 0000 0000 0000
0.0 0.0 0.0 0.0 0.0 0.0 0.0 0.0
0.0 0.0 0.0 0.0 0.0 0.0 0.0 0.0
0.0 0.0 0.0 0.0 0.0 0.0 0.0 0.0
0.0 0.0 0.0 0.0 0.0 0.0 0.0 0.0
0.0 0.0 0.0 0.0 0.0 0.0 0.0 0.0
0.0 0.0 0.0 0.0 0.0 0.0 0.0 0.0
0.0 0.0 0.0 0.0 0.0 0.0 0.0 0.0
0.0 0.0 0.0 0.0 0.0 0.0 0.0 0.0
0.0 0.0 0.0 0.0 0.0 0.0 0.0 0.0
0.0 0.0 0.0 0.0 0.0 0.0 0.0 0.0
0.0 0.0 0.0 0.0 0.0 0.0 0.0 0.0
0.0 0.0 0.0 0.0 0.0 0.0 0.0 0.0
0.0 0.0 0.0 0.0 0.0 0.0 0.0 0.0
0.0 0.0 0.0 0.0 0.0 0.0 0.0 0.0
0.0 0.0 0.0 0.0 0.0 0.0 0.0 0.0
0.0 0.0 0.0 0.0 0.0 0.0 0.0 0.0

value_heads.value_heads.extrinsic.weight f4 [1, 128]
00000000: fa81 1cbe 1264 fb3d 9af5 60bd 58ae 16be
00000010: 4dd6 333e dd13 a83a 50a7 d7bd 5d61 44bd
00000020: e5cf 0cbe 052f b7bd e32b a23c 8285 563b
00000030: 3c29 263e bf35 0bbd 9cd8 febc 6fc1 0dbe
00000040: 3504 5d3d c002 293e b749 443e c9e5 d43d
00000050: f9fc c2bd a182 383e 6f77 e13c 2eef 293e
00000060: 3e5b 23be b484 8bbd 141e 993b f172 b93d
00000070: 7342 283e 6317 073e d923 963d f915 e03d
00000080: 0f04 04be db4e a43d 0514 4f3d e54d f6bd
00000090: 2d47 a1bc 4f17 e9bd d1d7 653c 3b4d 8d3d
000000a0: 4120 f93d 8fe8 023e 00f8 f8bd 8b50 ef3d
000000b0: 287c 12be 63c3 e13d f494 3bbe 634c 393e
000000c0: e053 a33d 3ebe f2bd b656 0bbe 8b8c 89bd
000000d0: ef04 3a3e 8068 06be a12e 123e 2fd8 24be
000000e0: 6c65 20be d64e 8abd 4604 313e ab15 8ebd
000000f0: 731d 40bc 3d8f 4dbe 4fa4 3c3e 469e 53be
00000100: b412 33bd 089b 0bbe 91ab e7bd 7055 4c3d
00000110: fb34 0b3e 2985 253d 4df9 263e 5919 9abd
00000120: 1bac 6abd d7a5 033c 982e 7cbd 68a3 5abe
00000130: f10e 5c3d 50c4 4f3e 61d0 493e 652c 1a3e
00000140: 6cf5 1cbe ed56 8f3d 0fe3 af3d 1690 c93d
00000150: 9171 503e 983e a83d 6188 8d3d 2609 14be
00000160: 8aa8 573e 442d 1c3c 61a7 0fbe f5e3 58be
00000170: c6f8 8dbd 588f 38be 1117 f5bc 520c 65bd
00000180: 2dce 583d aba2 173d 77cf babd 95f7 f63d
00000190: b999 513e 7257 c0bd 846f 53be cb66 dfbd
000001a0: 0d78 dcbc 527c afbd f7dc cd3d c23f 423d
000001b0: fe95 45be 7154 6c3d 3cce 1d3e 2359 60bc
000001c0: c453 163e 5396 45be f081 22bc 07a6 b4bc
000001d0: a2dc ddbd 9533 3fbe 7525 b53d 0936 3fbe
000001e0: 9353 49be a7d3 463e e551 593e ec04 47bd
000001f0: 8431 2bbd c5d9 593e f370 4e3d 5b2a 1fbe
-0.15283957 0.12274946 -0.054921724 -0.14714944 0.17562218 0.0012823303 -0.10529959 -0.047944415
-0.1375118 -0.08944515 0.019796317 0.0032733385 0.16226667 -0.033986803 -0.031109147 -0.1384332
0.05395909 0.16504955 0.19168745 0.103953905 -0.09520907 0.18018581 0.02752277 0.16595146
-0.15952775 -0.068124205 0.004672775 0.090551265 0.16431598 0.13192515 0.07331056 0.10941691
-0.12892173 0.08022853 0.0505562 -0.12026576 -0.01968726 -0.11381399 0.014028505 0.06899496
0.12164355 0.12784027 -0.12156677 0.11685284 -0.14305174 0.11023595 -0.1831854 0.18095545
0.07974982 -0.11852692 -0.13607296 -0.067162596 0.18165945 -0.13125801 0.142756 -0.16098092
-0.1566369 -0.06753318 0.17286786 -0.069377266 -0.011725771 -0.20074172 0.18422054 -0.20665845
-0.04371901 -0.13633358 -0.113120206 0.049886167 0.13594429 0.040410195 0.16306038 -0.07524366
-0.05729304 0.008035145 -0.061567873 -0.21351397 0.053725187 0.20289731 0.19708396 0.15055998
-0.15327996 0.06999002 0.0858823 0.09841935 0.20355822 0.08215064 0.06910778 -0.14456615
0.21060386 0.009532277 -0.14028694 -0.21180709 -0.069322154 -0.18023431 -0.029918225 -0.055919953
0.052931 0.037020367 -0.09121602 0.12058941 0.20468797 -0.09391679 -0.20648009 -0.10908278
-0.026912713 -0.08568634 0.10051911 0.047424085 -0.19295499 0.057697717 0.15410703 -0.013693127
0.14680392 -0.19295625 -0.009918675 -0.022051824 -0.10833098 -0.1867202 0.08845035 -0.18672957
-0.19660787 0.19416676 0.21222647 -0.04858868 -0.04179527 0.21274479 0.050400686 -0.15543501
