results/updatedreward/PlayerAgent.onnx (onnx, 546771 bytes, 11 tensors)

discrete_act_size_vector f4 [1, 2]
3.0 2.0
00000000: 0000 4040 0000 0040

network_body._body_endoder.seq_layers.0.weight f4 [256, 6]
0.049425527 0.021396345 0.571529 0.03163803 0.24336416 0.684816 0.14195292 -0.18543974
0.16159159 0.16873349 -0.065515086 0.0069551803 -0.20100954 -0.7235477 0.2932929 0.33183232
-0.91914374 0.39432642 -0.24624443 -0.5642429 0.35111946 0.11039205 -0.43032 0.112631656
-0.19187063 -0.18746084 0.4312982 -0.21267572 0.051353183 -0.2158895 0.032145087 0.46002063
-0.7486421 -0.41844586 -0.18065539 0.6765743 0.68749136 -0.4194358 0.44575664 0.011312744
-0.29879698 -0.03415081 -0.08666704 0.30994055 0.07714864 0.06324567 0.46945173 -0.28014904
-0.68568885 -0.2799103 -0.2932433 -0.086458415 -0.07203911 0.48027918 0.2857212 0.5205274
-0.019102061 0.69788426 0.08645198 -0.13294105 0.0884659 0.12702893 -0.2919478 0.469832
0.105235495 0.7128847 0.05179181 -0.45811927 0.82933795 0.25041744 -0.099694006 0.17249061
-0.0027329207 -0.96838385 0.043102447 -0.11433307 0.40710023 0.014211862 0.29741168 -0.045286365
-0.035835624 -0.67364144 -0.74960816 0.056075346 0.27963293 0.6842111 -0.008388387 0.0817311
1.1671735 -0.10252798 -0.46523145 -0.6442575 0.80129015 -0.111473605 0.7139679 -0.09597495
0.26437327 0.2980484 -0.25971407 0.2852426 -0.60169464 0.42358312 0.052852303 0.116808824
0.73606485 -0.2666676 0.7509233 -0.33952093 0.7381277 0.9896359 0.8172677 0.09626239
-0.33963007 0.86982745 0.18865626 -0.7087771 0.614577 -0.43942943 0.4908981 -0.29870015
0.22166516 -1.0763894 -0.92071426 0.35384956 -0.250703 -0.44151077 -0.5937299 -0.23464814
0.7480465 0.37066886 0.38018575 0.26131845 0.7821682 -0.15048602 0.18199724 -0.29156506
0.083151415 0.3953192 -0.060145617 0.06627984 -0.25089982 0.20818152 -0.13359797 -0.15266466
0.59599084 -0.5558592 -0.9809484 -0.038644284 -0.19648398 -0.051448885 0.14995614 -0.56267685
-0.66828996 -0.020496698 0.7474492 -0.6808932 -0.35261798 0.0043761986 0.6903436 0.7701727
-0.09466779 0.56616414 0.13753857 0.32729343 0.064160086 0.25718588 -0.31344074 -0.38818976
-0.366324 -0.07168875 -0.115237035 -0.21599138 -0.09351945 0.063780636 0.3742916 -0.6465828
0.27596924 -0.03934002 0.23554695 0.46523362 -0.6789137 0.12198183 0.02937459 0.23865847
0.14758371 0.4940895 -0.114198394 -0.23453066 0.3833475 -0.09898484 0.2615437 -0.40433857
-0.25120857 -0.7211949 0.15639752 -0.36821306 -0.758212 -0.15800917 -0.19471903 0.104104616
-0.3040504 0.74523103 -0.15249713 0.2883132 0.3480427 0.26253885 -0.3957521 0.5484453
-0.0015033484 0.4118921 -0.4290565 0.44155377 0.077025905 0.42996547 0.2491462 -0.070913665
0.29473484 -0.6556706 0.44128639 0.70443076 0.18852863 -1.0182151 -0.56488824 -0.29376045
0.12806399 0.17400411 -0.06708477 -0.10792358 0.11663254 -1.0828261 0.02029152 -0.14112487
-0.020614952 0.16544896 0.020375185 -1.2564937 -0.3795894 1.0101503 -0.52783275 -0.107855976
0.11256278 0.62302935 -0.07794259 -0.64567983 0.24642393 -0.19057731 -0.29884157 0.77516955
0.10151601 0.0019306266 0.582125 0.41296884 -0.33742523 -0.18006144 0.30802137 -0.22469544
00000000: 6c72 4a3d 6347 af3c b94f 123f e196 013d
00000010: 7434 793e 1a50 2f3f 1b5c 113e eae3 3dbe
00000020: 4478 253e 79c8 2c3e c62c 86bd 48e8 e33b
00000030: 72d5 4dbe 6c3a 39bf 7d2a 963e ede5 a93e
00000040: 014d 6bbf 27e5 c93e 8027 7cbe 3972 10bf
00000050: eec5 b33e 3a15 e23d e752 dcbe 6dab e63d
00000060: bc79 44be bcf5 3fbe 1ed3 dc3e aac7 59be
00000070: b757 523d 2312 5dbe 91aa 033d d387 eb3e
00000080: 02a7 3fbf 893e d6be bafd 38be f933 2d3f
00000090: 6fff 2f3f 4ac0 d6be 373a e43e 1659 393c
000000a0: ebfb 98be b8e1 0bbd 7d7e b1bd 87b0 9e3e
000000b0: 1b00 9e3d f286 813d fa5b f03e b26f 8fbe
000000c0: 4e89 2fbf 6750 8fbe fc23 96be 1c11 b1bd
000000d0: 3e89 93bd 27e7 f53e 0d4a 923e 4941 053f
000000e0: ed7b 9cbc 8ba8 323f bc0d b13d b321 08be
000000f0: 9c2d b53d df13 023e 2f7a 95be d28d f03e
00000100: b585 d73d 9d7f 363f a623 543d 9c8e eabe
00000110: 7e4f 543f b736 803e 5f2c ccbd 61a1 303e
00000120: cd1a 33bb 01e8 77bf 318c 303d 7527 eabd
00000130: 716f d03e dfd8 683c 5846 983e 327e 39bd
00000140: 60c8 12bd c473 2cbf 52e6 3fbf 43af 653d
00000150: 0c2c 8f3e 7528 2f3f 726f 09bc a362 a73d
00000160: f165 953f 31fa d1bd d132 eebe 0fee 24bf
00000170: 5a21 4d3f 464c e4bd 9ac6 363f 848e c4bd
00000180: ef5b 873e cd99 983e 3ef9 84be 510b 923e
00000190: a908 1abf e3df d83e a87b 583d 7739 ef3d
000001a0: bf6e 3c3f a888 88be 823c 403f b0d5 adbe
000001b0: f0f5 3c3f c758 7d3f 7538 513f 3725 c53d
000001c0: fee3 adbe 03ad 5e3f 1b2f 413e 6b72 35bf
000001d0: eb54 1d3f e5fc e0be ff56 fb3e 3aef 98be
000001e0: 31fc 623e 21c7 89bf eeb3 6bbf c52b b53e
000001f0: 255c 80be b30d e2be affe 17bf 9a47 70be
00000200: fa7f 3f3f 4fc8 bd3e b5a7 c23e 88cb 853e
00000210: 2d3c 483f 0219 1abe 7c5d 3a3e 0448 95be
00000220: 4a4b aa3d 4767 ca3e 405b 76bd babd 873d
00000230: f175 80be 892d 553e e8cd 08be 2054 1cbe
00000240: db92 183f ca4c 0ebf 6f1f 7bbf 7849 1ebd
00000250: 1933 49be 11bc 52bd 1a8e 193e 970b 10bf
00000260: 0d15 2bbf b1e8 a7bc d558 3f3f 044f 2ebf
00000270: 588a b4be 3766 8f3b 5cba 303f 0a2a 453f
00000280: 30e1 c1bd 22f0 103f e9d6 0c3e 0193 a73e
00000290: 5d66 833d dead 833e 4e7b a0be cfc0 c6be
000002a0: d28e bbbe 8dd1 92bd 6501 ecbd d82c 5dbe
000002b0: 2087 bfbd 6c9f 823d 26a3 bf3e 7386 25bf
000002c0: d74b 8d3e 0023 21bd 3833 713e 1a33 ee3e
000002d0: 4acd 2dbf 9cd1 f93d fba2 f03c e362 743e
000002e0: 2f20 173e 4df9 fc3e d9e0 e9bd ce28 70be
000002f0: 2046 c43e 90b8 cabd 0ee9 853e 7705 cfbe
00000300: 699e 80be 3ba0 38bf ac26 203e 6c86 bcbe
00000310: 2e1a 42bf 28cd 21be 6d64 47be cd34 d53d
00000320: 7eac 9bbe 76c7 3e3f 3528 1cbe ca9d 933e
00000330: a732 b23e 7e6b 863e 05a0 cabe e966 0c3f
00000340: 000c c5ba 85e3 d23e 4bad dbbe 5613 e23e
00000350: c2bf 9d3d 6f24 dc3e 2e20 7f3e 2f3b 91bd
00000360: 7ce7 963e 07da 27bf 4af0 e13e 9355 343f
00000370: a60d 413e df54 82bf 849c 10bf c567 96be
00000380: 3523 033e 222e 323e bd63 89bd 0a07 ddbd
00000390: 0bdd ee3d 0c9a 8abf 673a a63c 0a83 10be
000003a0: b0e0 a8bc 746b 293e dce9 a63c c9d4 a0bf
000003b0: 8b59 c2be 9b4c 813f 0c20 07bf 98e3 dcbd
000003c0: 5187 e63d da7e 1f3f 5da0 9fbd 464b 25bf
000003d0: 8e56 7c3e b326 43be c301 99be 8371 463f
000003e0: a0e7 cf3d 140d fd3a 2506 153f a770 d33e
000003f0: 00c3 acbe 0762 38be fab4 9d3e 9016 66be

network_body._body_endoder.seq_layers.0.bias f4 [256]
-0.0037058266 0.0008606928 -0.0015712298 -0.00781351 0.00520107 0.002991773 0.0057765613 0.050541587
0.0029139682 0.028805185 -0.011545958 -0.0049330774 0.003155181 -0.034878362 0.04782176 0.012648323
-0.03396282 0.023883685 0.009834764 0.007695666 0.015578428 -0.0015955187 0.0040280204 0.012082913
0.0025725933 0.03154614 -0.005358676 0.008739573 -0.013879543 0.009338904 0.008989669 0.0112066455
0.0050798906 -0.002876926 0.0034927225 0.009859796 -0.0048800777 -0.014028322 -0.0005098003 0.0063537084
0.014430009 0.020862453 0.0024044234 -0.004818289 0.023249501 -0.0029613096 0.016287029 0.02091646
-0.008835164 -0.015740367 0.023984475 -0.01083443 0.0116601 -0.0078372 0.07175439 0.022477692
0.020901883 0.029029349 0.03388949 0.0405048 0.0058416263 -0.00438444 -0.0072585805 -0.015158408
0.01795041 -0.012021068 0.029474864 -0.048757687 0.014804381 -0.002775997 -0.012207584 -0.0044146893
-0.021503901 0.014911424 0.024810769 -0.0010526892 0.010607581 0.01907043 0.04304589 -0.0044365562
0.005135941 0.00013150579 0.02788537 0.015755141 -0.016410451 -0.012997682 -0.00026285998 -0.0037510577
0.004094754 0.0016703855 -0.01564407 0.012174227 0.004647361 -0.0035249211 0.030405728 0.012768604
-0.005873625 -0.007256294 0.0008790663 0.008673365 3.66591e-05 -0.0015629128 -0.0088905115 -0.0048370543
0.0067426004 -0.002004496 0.0067112455 -0.0048545194 0.0029653872 -0.010142054 0.012274691 -0.018056035
-0.0003827069 -0.027492292 0.008333318 0.0022862693 0.0052037654 0.0122806635 0.04524188 0.004522607
-0.025234573 0.008947279 0.007147686 0.012518962 0.0071709305 -0.0021857114 0.023986148 -0.0057273502
0.009746811 -0.004362483 -0.0085292095 0.009971253 0.001045764 -0.0019860168 0.039469395 -0.032182794
0.0034197245 0.012915501 0.011481709 -0.013240809 0.009149058 0.03465293 0.036762122 -0.0002613643
0.0058169398 0.026514828 -0.005425568 0.019594729 0.02508146 0.0021393634 -0.0016029114 0.019924376
0.005954612 -0.0028958784 -0.0009500554 0.0042020376 0.004415387 0.022906868 -0.0024042546 0.024145808
0.013050469 0.015759416 0.020314066 0.003814592 -0.004310613 0.016382882 -0.001011666 -0.0042205867
0.004120687 0.004865214 0.002493139 0.0042475313 -0.016381422 -0.0026998708 -0.0005238719 -0.0041093808
0.0099472795 0.015358897 -0.005117362 0.0016276459 0.031155558 0.023865003 -0.0055386852 -0.031559687
0.0018590256 0.013302066 0.010695929 0.004066107 0.0036464348 -0.01735288 -0.009158215 0.01602753
0.004501612 0.016169121 -0.0038190612 0.0082480805 0.014567314 0.03530355 0.017313918 -0.00161569
0.011635534 0.010729212 0.006624207 -0.00020343276 -0.004901806 -0.0033515454 -0.015023518 0.0010315012
-0.010892674 -1.5338008e-05 -0.039531477 -0.009062791 0.02946543 0.010109115 0.009815082 0.008454838
0.008711281 0.03839976 0.02564748 0.008570435 0.032111116 0.028057 0.025463382 0.007956711
0.0042401403 -0.0048427475 -0.015325036 -0.008450044 -0.0018815096 0.016169654 -0.009290439 0.013567448
0.008397814 0.003823648 9.575006e-05 -0.0030138646 -0.0050107646 0.014039497 0.024683332 0.0060157836
0.026122037 -0.0092978915 0.030898329 0.011846457 -0.031131227 0.0073942402 0.014345623 0.009320772
-0.00045720435 -0.002965167 0.017353302 0.005303445 0.0015893679 0.030106232 -0.008309238 0.011126417
00000000: 74dd 72bb 1ea0 613a b9f1 cdba 3c04 00bc
00000010: bd6d aa3b 9f11 443b 4f49 bd3b b204 4f3d
00000020: 46f8 3e3b daf8 eb3c 422b 3dbc a7a5 a1bb
00000030: 27c7 4e3b 9ddc 0ebd c0e0 433d e93a 4f3c
00000040: 991c 0bbd b8a7 c33c fd21 213c ed2b fc3b
00000050: aa3c 7f3c b920 d1ba 7cfd 833b 69f7 453c
00000060: f498 283b 8636 013d d597 afbb 6d30 0f3c
00000070: 0667 63bc 3402 193c 6849 133c 149c 373c
00000080: 3675 a63b cf8a 3cbb 29e6 643b fb8a 213c
00000090: 0fe9 9fbb 0cd7 65bc 1ea4 05ba c532 d03b
000000a0: d86b 6c3c bce7 aa3c 8893 1d3b bde2 9dbb
000000b0: bd75 be3c 8812 42bb 606c 853c ff58 ab3c
000000c0: 5dc1 10bc f1f1 80bc 177b c43c e582 31bc
000000d0: 010a 3f3c 9967 00bc f7f3 923d 2323 b83c
000000e0: 6d3a ab3c f5ce ed3c b5cf 0a3d 5ce8 253d
000000f0: 1d6b bf3b 59ab 8fbb 63d9 edbb f95a 78bc
00000100: bd0c 933c 03f4 44bc 4575 f13c 24b6 47bd
00000110: 138e 723c 80ed 35bb 5202 48bc 19a9 90bb
00000120: f328 b0bc 0c4f 743c f43f cb3c 63fa 89ba
00000130: 6bcb 2d3c 9739 9c3c e350 303d 8860 91bb
00000140: 654b a83b d1e4 0939 dc6f e43c ed10 813c
00000150: 366f 86bc 3bf4 54bc 78d0 89b9 4ed4 75bb
00000160: 492d 863b d6f0 da3a fe27 80bc 6976 473c
00000170: e448 983b 5d02 67bb 6f15 f93c 6833 513c
00000180: 8a77 c0bb 35c6 edbb 2471 663a bb1a 0e3c
00000190: 69c2 1938 a7da ccba 82a9 11bc 2780 9ebb
000001a0: 08f1 dc3b dd5d 03bb 02ea db3b a912 9fbb
000001b0: f156 423b dc2a 26bc c91b 493c 40ea 93bc
000001c0: 0da6 c8b9 8437 e1bc 7888 083c 3cd5 153b
000001d0: 5984 aa3b d634 493c 8d4f 393d 6132 943b
000001e0: bcb8 cebc 9c97 123c 2337 ea3b 551c 4d3c
000001f0: 20fa ea3b 273e 0fbb 997e c43c 7fac bbbb
00000200: 17b1 1f3c 29f3 8ebb 19be 0bbc 775e 233c
00000210: 0412 893a d527 02bb a9aa 213d 1bd2 03bd
00000220: 751d 603b 8a9b 533c c71d 3c3c faef 58bc
00000230: eee5 153c 3bf0 0d3d e193 163d b907 89b9
00000240: 079c be3b a035 d93c f7c8 b1bb 2085 a03c
00000250: a277 cd3c 9034 0c3b c818 d2ba 7238 a33c
00000260: e81e c33b c7c8 3dbb 230d 79ba 3fb1 893b
00000270: f3ae 903b 2fa7 bb3c b390 1dbb 6ecd c53c
00000280: a2d1 553c e419 813c af69 a63c 3cfe 793b
00000290: 0b40 8dbb 6535 863c e199 84ba d94c 8abb
000002a0: d406 873b 606c 9f3b ee63 233b e02e 8b3b
000002b0: 5532 86bc 51f0 30bb 7354 09ba fca7 86bb
000002c0: eaf9 223c e2a3 7b3c 8baf a7bb bc56 d53a
000002d0: f139 ff3c 8a80 c33c dc7d b5bb bb44 01bd
000002e0: 8caa f33a e9f0 593c fa3d 2f3c fa3c 853b
000002f0: 06f9 6e3b a127 8ebc 560c 16bc 2b4c 833c
00000300: 4282 933b 1b75 843c 3749 7abb f522 073c
00000310: beab 6e3c 759a 103d ebd5 8d3c 8fc5 d3ba
00000320: f8a2 3e3c 94c9 2f3c e00f d93b 9150 55b9
00000330: 549f a0bb 9aa5 5bbb 3425 76bc 7033 873a
00000340: 3077 32bc 1faa 80b7 c2eb 21bd 1a7c 14bc
00000350: 7c61 f13c b4a0 253c 70cf 203c 2986 0a3c
00000360: c3b9 0e3c 1149 1d3d aa1a d23c 036b 0c3c
00000370: f286 033d cbd7 e53c 9598 d03c dd5c 023c
00000380: e0f0 8a3b e9af 9ebb dc15 7bbc 0e72 0abc
00000390: fc9c f6ba 3976 843c ed36 18bc 004a 5e3c
000003a0: fc96 093c 2b96 7a3b 6ccd c838 4284 45bb
000003b0: 5731 a4bb eb05 663c b334 ca3c 0d20 c53b
000003c0: e2fd d53c 2f56 18bc 7e1e fd3c a417 423c
000003d0: ea06 ffbc 624b f23b e709 6b3c 27b6 183c
000003e0: eeb4 efb9 3f53 42bb 8328 8e3c 85c8 ad3b
000003f0: 5652 d03a 58a1 f63c 7823 08bc 934b 363c

network_body._body_endoder.seq_layers.2.weight f4 [256, 256]
0.1124979 0.024536705 0.08450546 -0.020670127 0.03571121 0.047972657 0.03353119 0.0060284366
-0.13893943 0.092571475 0.13513401 0.012706825 0.06235726 -0.03871316 0.0030255627 0.028124483
-0.056907743 -0.012271381 0.010424478 -0.08997345 0.07233508 -0.10183443 0.12068071 0.07536005
0.00014483697 -0.05159815 -0.015231141 0.061605535 -0.011226962 -0.09853647 -0.0061370498 -0.08365363
0.025445081 0.014134675 -0.03884778 -0.059086457 0.03561019 -0.008146657 -0.13649572 0.10273337
0.13863994 0.031360526 -0.0057331254 -0.12559873 0.15484393 0.04398798 -0.1514241 0.026879068
0.001750356 -0.04085893 0.029211888 0.009103404 -0.07684605 0.007041588 0.10643625 0.06242943
0.07637355 -0.01010505 0.024988275 0.001139574 -0.053935654 0.0010587815 0.034371227 -0.04697784
0.08813886 -0.09718428 -0.025669428 0.08974602 -0.024222983 -0.039240226 0.013674091 -0.14382173
-0.079822004 0.12070814 0.11189298 -0.03836426 0.092702955 0.036758125 0.020376079 0.13864748
0.042099286 0.09574995 0.10873832 0.09864065 -0.04200081 -0.003951955 0.014793867 -0.059069227
-0.13674821 -0.0057846503 -0.041616615 0.08601362 -0.03404544 0.06460023 0.11806575 0.035263136
-0.038791984 0.08093972 0.059829254 -0.06851166 0.09614189 -0.05169791 0.037829064 -0.022432873
0.01588118 -0.086197145 0.01874219 -0.0058681164 0.04409772 -0.04069149 -0.06388868 -0.029197412
-0.024005037 -0.058053154 -0.012922476 0.012143183 -0.10971084 -0.052625112 -0.030874461 0.07520965
-0.026412958 0.009818337 0.2050122 0.05138399 -0.042772982 0.0075874184 -0.052683216 -0.029081535
0.09311465 -0.0043175095 0.012285095 -0.10459581 -0.03886751 -0.056172673 0.014540339 0.0412963
0.013985034 0.021786338 0.11922438 0.019142719 0.041356333 0.008293106 -0.013396409 -0.092488095
0.037390485 0.00033474047 -0.14665593 -0.024239348 -0.060880415 -0.025739027 -0.03591936 -0.012274401
-0.11790932 0.05398925 -0.008812631 0.04823336 -0.08452608 -0.0018403834 -0.051450048 0.06762724
-0.01171287 -0.029851157 0.08116733 -0.062356036 -0.087928794 -0.023686582 0.058167502 0.002222802
-0.05443976 -0.040538836 -0.022866989 0.049432456 0.013971699 -0.09593387 -0.07945116 -0.015241618
0.18714069 0.0938057 -0.023667887 0.009268521 0.0145915365 -0.16948345 0.055280056 -0.011390491
0.059456617 0.031568963 0.034530133 0.009047258 0.066118486 -0.04118056 0.055128742 -0.025190046
0.095439926 0.06087571 0.12995188 0.052738067 0.0048075947 0.0343271 0.028296119 0.005648971
0.07775122 0.06971224 0.03659076 0.032710686 -0.021674952 -0.06768197 -0.058958262 -0.07185394
-0.0357968 -0.090453595 0.06694355 -0.0067446847 -0.0939713 0.0319202 -0.08230668 0.02254403
-0.0026398888 0.039071374 0.030691769 0.04238832 -0.022042975 0.0479684 0.024715308 0.059366286
0.0517011 0.02077347 0.050528657 0.089448005 0.00092237355 -0.12322348 0.073321626 0.076367974
0.0886122 -0.16969159 0.009685405 0.04255913 -0.03872865 0.071689375 0.009511548 0.10376755
0.0026580247 0.009166205 -0.07856779 -0.0015870316 0.035530817 0.009432253 -0.02419913 0.009980466
0.058078684 -0.030949004 -0.12568429 -0.038822625 0.04521986 0.06715616 -0.004211094 0.08116569
00000000: 4d65 e63d 3301 c93c 3311 ad3d 6654 a9bc
00000010: eb45 123d fa7e 443d 0058 093d 318a c53b
00000020: 2346 0ebe 1d96 bd3d 9260 0a3e 4930 503c
00000030: 546a 7f3d b191 1ebd 8548 463b 5165 e63c
00000040: 1818 69bd e70d 49bc 6ecb 2a3c 0044 b8bd
00000050: 6a24 943d 928e d0bd 7327 f73d 5f56 9a3d
00000060: 61df 1739 9558 53bd 098c 79bc 1656 7c3d
00000070: 4bf1 37bc 7dcd c9bd 4e19 c9bb 9852 abbd
00000080: 3472 d03c 2095 673c da1e 1fbd a404 72bd
00000090: fedb 113d 8e79 05bc 89c5 0bbe e065 d23d
000000a0: a1f7 0d3e e573 003d f1dc bbbb f49c 00be
000000b0: 688f 1e3e bd2c 343d eb0e 1bbe 7e31 dc3c
000000c0: 346c e53a b25b 27bd c54d ef3c 7226 153c
000000d0: 7661 9dbd 1fbd e63b 40fb d93d 01b6 7f3d
000000e0: bc69 9c3d a78f 25bc 36b4 cc3c c25d 953a
000000f0: a2eb 5cbd d0c6 8a3a d8c8 0c3d d66b 40bd
00000100: 2682 b43d 8d08 c7bd b148 d2bc c3cc b73d
00000110: 476f c6bc 5cba 20bd 4b09 603c 0146 13be
00000120: b879 a3bd d435 f73d 2628 e53d d823 1dbd
00000130: 0cdb bd3d b08f 163d bceb a63c 9bf9 0d3e
00000140: 4d70 2c3d 8d18 c43d 32b2 de3d 1c04 ca3d
00000150: 0b09 2cbd 677f 81bb fa61 723c 93f2 71bd
00000160: b907 0cbe 2a8d bdbb 2f76 2abd e927 b03d
00000170: 3b73 0bbd 204d 843d 75cc f13d 1470 103d
00000180: 58e4 1ebd b9c3 a53d 850f 753d d74f 8cbd
00000190: 0ae6 c43d 30c1 53bd a6f2 1a3d 25c5 b7bc
000001a0: 4019 823c 2188 b0bd 3989 993c 5449 c0bb
000001b0: d09f 343d 1fac 26bd 11d8 82bd 692f efbc
000001c0: 36a6 c4bc 25c9 6dbd cbb8 53bc 33f4 463c
000001d0: 14b0 e0bd 6e8d 57bd 70ec fcbc 8407 9a3d
000001e0: fd5f d8bc 17dd 203c b8ee 513e 0578 523d
000001f0: b932 2fbd e19f f83b 5bca 57bd 663c eebc
00000200: e5b2 be3d e579 8dbb 6c47 493c 5436 d6bd
00000210: 8a33 1fbd 5115 66bd 9a3a 6e3c 4f26 293d
00000220: 7c21 653c 4379 b23c e92b f43d 31d1 9c3c
00000230: 4265 293d cfdf 073c 9d7c 5bbc 666a bdbd
00000240: c426 193d 1b80 af39 f92c 16be 9991 c6bc
00000250: be5d 79bd a7da d2bc 2e20 13bd 921a 49bc
00000260: 717a f1bd d523 5d3d da62 10bc 5890 453d
00000270: 021c adbd 0539 f1ba 49bd 52bd 2780 8a3d
00000280: 56e7 3fbc 6a8a f4bc 0f3b a63d 0b69 7fbd
00000290: 0314 b4bd 5d0a c2bc 0c41 6e3d 6eac 113b
000002a0: 3afc 5ebd 0d0c 26bd 8d53 bbbc b079 4a3d
000002b0: 8ee9 643c fa78 c4bd 4ab7 a2bd fbb7 79bc
000002c0: cfa1 3f3e 341d c03d 28e3 c1bc ffda 173c
000002d0: 5711 6f3c 128d 2dbe 576d 623d 2f9f 3abc
000002e0: c888 733d 754e 013d 786f 0d3d f33a 143c
000002f0: 2169 873d f2ac 28bd adce 613d 5b5b cebc
00000300: 0276 c33d cf58 793d 1b12 053e df03 583d
00000310: 0789 9d3b 939a 0c3d 43cd e73c 011b b93b
00000320: 083c 9f3d 4ac5 8e3d 31e0 153d a4fb 053d
00000330: ab8f b1bc d89c 8abd 387e 71bd 2928 93bd
00000340: aa9f 12bd bc3f b9bd b319 893d 8402 ddbb
00000350: 0674 c0bd c1be 023d 6890 a8bd 42ae b83c
00000360: fc01 2dbb 4e09 203d 4e6d fb3c 609f 2d3d
00000370: 7893 b4bc 837a 443d c277 ca3c 102a 733d
00000380: 88c4 533d 202d aa3c 23f7 4e3d 8430 b73d
00000390: 71cb 713a 985c fcbd a629 963d d066 9c3d
000003a0: 507a b53d a2c3 2dbe 88af 1e3c 7b52 2e3d
000003b0: efa1 1ebd e1d1 923d 53d6 1b3c 1584 d43d
000003c0: 4132 2e3b da2d 163c 26e8 a0bd f203 d0ba
000003d0: c388 113d bd89 1a3c 413d c6bc 1c85 233c
000003e0: eae3 6d3d c488 fdbc 62b3 00be 7904 1fbd
000003f0: 7638 393d 2b89 893d 38fd 89bb 333a a63d

network_body._body_endoder.seq_layers.2.bias f4 [256]
-0.0041362355 -0.009439219 0.00500313 -0.012780337 -0.008382925 0.012061515 -0.010717454 0.0062110894
-0.003754911 -0.00506799 -0.011245008 -0.020713596 -0.0030039137 0.0055450825 -2.7792174e-05 -0.018461883
0.007524183 -0.0131132575 0.015197053 0.006745304 0.02466729 -0.0060957703 0.006397064 -0.012647633
-0.013258668 -0.0068280827 0.009132089 -0.0071962713 -0.0063168085 0.008385533 0.006790094 0.0045202156
0.004293923 0.0075235944 0.0076441127 0.019012874 0.0064684763 0.028376648 0.002139508 0.007653008
0.0061499127 -0.013181286 0.0066071665 0.019456374 0.0076689525 0.0049691782 0.0009135615 0.025199857
-0.01443262 -0.006149229 0.005209731 0.0053993645 -0.0067800065 0.00022861663 0.003253576 -0.0092809815
0.005747878 0.00767316 -0.011432799 0.024828525 0.009366776 0.0037834658 0.007988996 0.008267499
0.03703844 -0.013536698 -0.00838739 0.0005113766 -0.01625199 -0.0035630418 -0.0045847194 -0.0023622622
0.009170875 0.008301512 0.013862398 0.014213316 -0.0047383625 -0.0055612936 -0.0132071795 0.0088833
0.0015763842 0.009271546 0.0067648296 0.0075800633 0.005592318 0.0043065073 0.010352064 0.016959747
0.0035576972 -0.012499469 0.011353702 -0.0037665914 0.014740305 0.0040361155 0.0006120102 0.00094544876
-0.0001751665 0.010429118 0.026140742 0.010537171 0.0031447602 0.014955518 0.0059477435 -0.0022325316
-0.0016438083 0.0047741323 0.007223378 0.016592884 0.014288306 -0.00516748 0.004412793 -0.0027834892
0.0019970725 0.005102284 0.0079581505 0.005424484 -0.008376711 0.001844963 0.009394391 0.0069069783
0.0038015612 0.007746382 0.005256334 0.013917518 0.005304726 -0.004919563 -0.003893876 -0.003901652
0.0034569777 -0.016337115 -0.012382188 0.0069835866 -0.015635954 -0.0022881613 0.0032736368 -0.00884566
-9.6954296e-05 -0.0030700674 0.009812878 0.030055003 -0.0032342018 -0.0027847106 0.0037498728 0.010109589
0.004609168 -0.0019458873 0.019872453 -0.006199622 0.0041800127 0.020356083 0.014755731 -0.012514922
-0.012022022 -0.012270148 0.007378596 0.010871128 -0.0029370582 0.0010288851 0.012437834 -0.004844318
-0.003298051 0.0039490685 0.0154162 0.008362173 0.014778067 0.003731445 0.0059522856 -0.0072080647
-0.017088534 0.007460264 0.007723904 0.008611715 0.003358345 0.009998143 0.027900906 0.0026061323
-0.0068728942 -0.005378507 0.00043670405 0.0013580937 -0.011040978 0.00838513 0.009165328 0.0061655245
0.0052970503 -0.010242371 0.011925282 0.0048387884 0.017974483 -0.010485964 0.0064202915 0.0076188133
-0.0007872237 -0.009242694 0.0147037795 0.00048012641 0.0053506847 -0.0109693585 0.006362178 0.02914064
-0.006482593 0.0037829839 0.0021798639 0.01256048 0.005389173 -0.003234353 0.007375114 0.013059699
0.013813948 -0.005768266 0.006838898 0.016610792 -0.014637531 -0.010251547 -0.0063864314 0.010143539
0.00684294 -0.013811759 0.0058859237 -0.005185733 0.009890801 -0.018827107 0.0037803014 -0.008742226
0.009648459 -0.002272563 -0.015601725 2.3111781e-05 -0.012723081 -0.009565982 -0.016187893 -0.010068711
0.0047630076 -0.009698519 0.010435433 0.003815673 0.00010304111 0.009231258 0.013248088 -0.010975677
0.020921048 -0.0074179964 -0.0034938995 0.01788406 -0.0035492936 0.0034726732 0.016342077 0.00071118365
0.011245542 -0.014062977 0.0030804125 0.0069328183 -0.012053932 -0.0010803654 0.0102221705 -0.006534538
00000000: 4289 87bb f4a6 1abc 4cf1 a33b 9e64 51bc
00000010: 8958 09bc a99d 453c 4398 2fbc 6586 cb3b
00000020: f414 76bb 6211 a6bb fb3c 38bc 8faf a9bc
00000030: 4fdd 44bb 86b3 b53b 3d23 e9b7 603d 97bc
00000040: 6c8d f63b fdd8 56bc 0ffd 783c b607 dd3b
00000050: 0e13 ca3c 07bf c7bb 769e d13b 0538 4fbc
00000060: e23a 59bc 1cbe dfbb c29e 153c b3ce ebbb
00000070: 3bfd cebb 7963 093c 707f de3b 511e 943b
00000080: 09b4 8c3b 7c88 f63b 777b fa3b e3c0 9b3c
00000090: 83f5 d33b 2576 e83c fd36 0c3b 16c6 fa3b
000000a0: 3585 c93b 52f6 57bc ee80 d83b f962 9f3c
000000b0: d64b fb3b 7dd4 a23b 137c 6f3a ee6f ce3c
000000c0: cc76 6cbc 797f c9bb 64b6 aa3b 27ed b03b
000000d0: d12a debb cfb8 6f39 f339 553b 420f 18bc
000000e0: b258 bc3b 226f fb3b a250 3bbc 3165 cb3c
000000f0: 1b77 193c 06f4 773b 47e4 023c 6774 073c
00000100: 9fb5 173d 07c9 5dbc 436b 09bc e70d 063a
00000110: e522 85bc ec81 69bb 6a3b 96bb 2fd0 1abb
00000120: 7041 163c 1103 083c 1d1f 633c f8de 683c
00000130: 4444 9bbb 833b b6bb ed62 58bc 438b 113c
00000140: ad9e ce3a afe7 173c 81ab dd3b 2e62 f83b
00000150: c33f b73b 9a1d 8d3b b49b 293c 2bef 8a3c
00000160: 4128 693b 93ca 4cbc e104 3a3c ebd8 76bb
00000170: 5281 713c 6441 843b 4f6f 203a fed7 773a
00000180: e6ac 37b9 e4de 2a3c 1c25 d63c 19a4 2c3c
00000190: 5218 4e3b fd07 753c 4ae5 c23b aa4f 12bb
000001a0: 0e75 d7ba 5370 9c3b 16b2 ec3b cded 873c
000001b0: 8019 6a3c f753 a9bb 3199 903b 336b 36bb
000001c0: 51e1 023b 0f31 a73b e762 023c dfbf b13b
000001d0: 793e 09bc afd2 f13a efea 193c ef53 e23b
000001e0: 9d23 793b 5dd5 fd3b 533d ac3b 4d06 643c
000001f0: 44d3 ad3b 4934 a1bb 6630 7fbb dcb2 7fbb
00000200: 768e 623b 6ad5 85bc a9de 4abc 92d6 e43b
00000210: f916 80bc faf4 15bb 838a 563b 63ed 10bc
00000220: f153 cbb8 2f33 49bb 32c6 203c e935 f63c
00000230: e7f4 53bb b17f 36bb 6dc0 753b b1a2 253c
00000240: 8108 973b 250d ffba 8ecb a23c 3326 cbbb
00000250: 7df8 883b cdc1 a63c 06c2 713c 630b 4dbc
00000260: 04f8 44bc bb08 49bc 26c8 f13b d11c 323c
00000270: a97b 40bb a8db 863a 0fc8 4b3c 16bd 9ebb
00000280: 1d24 58bb 3067 813b 3b94 7c3c 7f01 093c
00000290: b51f 723c 428b 743b 640b c33b a131 ecbb
000002a0: 41fd 8bbc 3b75 f43b ce18 fd3b 2718 0d3c
000002b0: ae17 5c3b 40cf 233c 7190 e43c a5cb 2a3b
000002c0: 0436 e1bb 303e b0bb 6df5 e439 1002 b23a
000002d0: 38e5 34bc c961 093c 2c2a 163c 2b08 ca3b
000002e0: e192 ad3b 9ecf 27bc 4262 433c b38e 9e3b
000002f0: 393f 933c 52cd 2bbc 4f61 d23b 3da7 f93b
00000300: b05d 4eba ab6e 17bc 1fe8 703c 7ab9 fb39
00000310: cc54 af3b d3b8 33bc d179 d03b 5ab8 ee3c
00000320: ee6b d4bb f0eb 773b 0cdc 0e3b 79ca 4d3c
00000330: a997 b03b 70f7 53bb f1aa f13b 59f8 553c
00000340: e653 623c b903 bdbb d618 e03b 5b13 883c
00000350: 41d2 6fbc 1bf6 27bc 4545 d1bb 1631 263c
00000360: be3a e03b b74a 62bc b5de c03b 15ed a9bb
00000370: 070d 223c 4e3b 9abc efbe 773b 8e3b 0fbc
00000380: 9214 1e3c 48ef 14bb 619e 7fbc 2ce0 c137
00000390: 7874 50bc a3ba 1cbc 799c 84bc 3cf7 24bc
000003a0: 0113 9c3b 89e6 1ebc 61f9 2a3c 5f10 7a3b
000003b0: c617 d838 b43e 173c 820e 593c 53d3 33bc
000003c0: 9e62 ab3c aa12 f3bb e8f9 64bb 9881 923c
000003d0: 449b 68bb ca95 633b d2df 853c ba6e 3a3a
000003e0: 393f 383c 6768 66bc bfe0 493b b22c e33b
000003f0: db7d 45bc 0c9b 8dba e47a 273c ae1f d6bb

network_body._body_endoder.seq_layers.4.weight f4 [256, 256]
-0.05612413 0.010458934 0.015147749 0.095369056 0.0892447 0.055361878 -0.038379252 0.03261619
0.006060607 -0.028425658 0.05910666 0.024906531 -0.024316989 -0.0075328713 0.059963334 -0.0046846895
-0.1420131 0.01733502 -0.08426696 -0.037768763 -0.026388379 0.035045296 -0.0075148526 0.0026280559
-0.04790278 -0.024358911 -0.05867 0.07822755 -0.07031241 0.058646727 -0.11270807 -0.09799176
-0.16057819 0.00935126 -0.039031174 -0.0112929465 -0.12959503 -0.14820059 -0.039708618 0.09410628
-0.07343947 0.07430559 -0.01992263 -0.025109978 0.057479665 -0.025768828 -0.09907788 0.030633679
0.04552204 0.014356258 -0.013194947 0.09453976 0.03391939 0.019286634 -0.034738235 0.10367122
-0.045484383 -0.11291837 0.020635147 0.012416299 0.049655166 -0.0369428 -0.08956858 -0.046007693
0.06364898 -0.039181817 0.14194398 -0.006025072 0.0752285 0.052066106 0.117150836 -0.025760341
0.13820562 0.080205254 -0.07667949 0.020530405 0.07576681 0.034390558 0.040785618 -0.012450719
0.010799166 0.04594588 -0.037581317 0.081715226 -0.014314251 0.045330644 -0.010296188 0.080400184
-0.090436205 -0.05264607 0.07346436 -0.021168211 0.02071018 0.07367906 0.1340176 0.11848821
-0.017582612 -0.014728961 0.08949546 -0.043376535 -0.1424482 -0.009821361 -0.022984462 -0.0009353244
0.051777948 0.010840642 0.044886053 0.027353305 0.048042182 -0.023212593 -0.05734314 0.030467164
0.00013757328 -0.06377377 0.10631789 0.12053969 0.06849978 0.008313289 0.018764056 -0.069489695
0.031140247 -0.20535731 0.007489291 0.102825984 -0.09473739 -0.070569426 0.07752665 0.016450007
0.01087073 0.09746248 0.03262392 0.006955156 0.021867251 -0.012196158 0.05261937 0.062330753
0.026116865 0.07911164 0.10719147 -0.083638236 -0.07724803 0.071580015 -0.005086639 -0.022249805
-0.010632014 0.010521936 -0.019348083 0.07615628 0.0035597733 0.011076384 0.0726489 0.028038507
0.070083186 -0.07418119 0.016938793 -0.0032113497 -0.052632943 0.090878606 -0.08459451 -0.015482016
0.025143333 0.022812795 -0.017635455 -0.046971023 -0.0138671445 -0.03087287 -0.048945308 0.032826826
-0.009275421 -0.041735888 -0.045686632 -0.0066511966 -0.02979552 -0.10417491 0.059684224 0.0065509346
0.00054590317 -0.046690308 0.065491654 0.022189386 0.09687389 0.05515195 -0.0034124267 -0.07036213
-0.065524265 -0.021076284 -2.296921e-06 -0.086540036 -0.009202479 0.057066 -0.051109727 -0.12343776
0.01818948 0.037487112 -0.013506391 0.0017829596 0.057644855 0.1193635 -0.018384915 0.043463606
0.015717784 0.05740101 0.044558577 0.018573264 -0.11750878 0.024639927 0.08069907 -0.06696214
-0.081242956 -0.04236267 -0.06719933 0.05604678 -0.06346308 0.22813669 -0.025391556 0.05637086
-0.079411246 0.024013916 0.04966231 -0.08070612 -0.030695356 0.13230541 0.013341845 -0.04287163
0.023591042 -0.17702413 0.0044871387 0.09713018 0.018078923 0.0053305556 -0.045905218 0.010016747
0.025135167 -0.009091986 0.035662625 -0.06253324 -0.13815024 -0.14244352 -0.04924502 0.024086205
-0.10842976 0.031450953 -0.023321183 -0.014984744 0.07887975 -0.06357621 -0.0374888 -0.04499244
-0.055482194 0.02681496 -0.11115786 0.064361006 0.003942015 -0.046921566 -0.05104218 -0.07723386
00000000: 6ae2 65bd f35b 2b3c 442e 783c da50 c33d
00000010: edc5 b63d 23c3 623d 9033 1dbd 8e98 053d
00000020: 0e98 c63b eddc e8bc d319 723d c808 cc3c
00000030: 6c34 c7bc 4ed6 f6bb 1d9c 753d 0682 99bb
00000040: e26b 11be 2c02 8e3c 2894 acbd 6bb3 1abd
00000050: 712c d8bc a88b 0f3d 273f f6bb 763b 2c3b
00000060: b535 44bd 578c c7bc f44f 70bd c435 a03d
00000070: f4ff 8fbd 8d37 703d 7dd3 e6bd e7af c8bd
00000080: 9c6e 24be 0736 193c 27df 1fbd 0d06 39bc
00000090: 8fb4 04be e5c1 17be 81a5 22bd cbba c03d
000000a0: 6f67 96bd 872d 983d c934 a3bc 71b3 cdbc
000000b0: cc6f 6b3d 2619 d3bc 58e9 cabd 7bf3 fa3c
000000c0: 5275 3a3d 8336 6b3c 9e2f 58bc 109e c13d
000000d0: 0fef 0a3d 01ff 9d3c ae49 0ebd 9451 d43d
000000e0: d54d 3abd bf41 e7bd 0a0b a93c bc6d 4b3c
000000f0: 3763 4b3d 5551 17bd bb6f b7bd 9072 3cbd
00000100: 655a 823d 1d7d 20bd c359 113e f86d c5bb
00000110: 6611 9a3d 4543 553d c7ec ef3d 5a07 d3bc
00000120: c685 0d3e a742 a43d 230a 9dbd 612f a83c
00000130: a12b 9b3d 1ddd 0c3d d20e 273d 1afe 4bbc
00000140: fcee 303c bf31 3c3d deee 19bd 505a a73d
00000150: 5286 6abc a0ac 393d 58b1 28bc daa8 a43d
00000160: 9e36 b9bd 68a3 57bd 7b74 963d f568 adbc
00000170: 65a8 a93c 0ce5 963d e93b 093e f2a9 f23d
00000180: 6909 90bc bd51 71bc 6549 b73d 98ab 31bd
00000190: f1dd 11be c6e9 20bc e949 bcbc 8f30 75ba
000001a0: 1d15 543d f39c 313c 70da 373d 0a14 e03c
000001b0: e1c7 443d 5628 bebc a4e0 6abd 4696 f93c
000001c0: 8c41 1039 d39b 82bd 32bd d93d 83dd f63d
000001d0: 9d49 8c3d 7634 083c 14b7 993c 9d50 8ebd
000001e0: d519 ff3c 3049 52be ba68 f53b 6e96 d23d
000001f0: ad05 c2bd b486 90bd 4bc6 9e3d 2ac2 863c
00000200: 251b 323c 699a c73d a9a0 053d 14e8 e33b
00000210: f322 b33c 65d2 47bc 6987 573d 884e 7f3d
00000220: 09f3 d53c 4905 a23d 3487 db3d 864a abbd
00000230: 3734 9ebd 8b98 923d d2ad a6bb 3945 b6bc
00000240: e631 2ebc 3364 2c3c df7f 9ebc d3f7 9b3d
00000250: 164b 693b b979 353c f2c8 943d 03b1 e53c
00000260: c687 8f3d 4fec 97bd 39c3 8a3c 8275 52bb
00000270: a495 57bd 901e ba3d e33f adbd 48a8 7dbc
00000280: 64f9 cd3c e6e1 ba3c 3b78 90bc b064 40bd
00000290: 0533 63bc 1ae9 fcbc e07a 48bd 6c75 063d
000002a0: eff7 17bc 40f3 2abd e821 3bbd 48f2 d9bb
000002b0: bc15 f4bc a859 d5bd 7277 743d 39a9 d63b
000002c0: f11a 0f3a 563e 3fbd 7d20 863d 84c6 b53c
000002d0: d165 c63d 03e7 613d 05a3 5fbb 051a 90bd
000002e0: 9631 86bd 2ca8 acbc cd24 1ab6 e73b b1bd
000002f0: ffc5 16bc 0abe 693d 6f58 51bd f0cc fcbd
00000300: 1b02 953c 168c 193d e949 5dbc 32b2 e93a
00000310: 031d 6c3d da74 f43d f69b 96bc e506 323d
00000320: 95c2 803c 521d 6b3d 0e83 363d f526 983c
00000330: 71a8 f0bd acd9 c93c 8e45 a53d 7223 89bd
00000340: b562 a6bd 7b84 2dbd cd9f 89bd 4f91 653d
00000350: eef8 81bd aa9c 693e f401 d0bc 22e5 663d
00000360: 5da2 a2bd d5b8 c43c b56a 4b3d 4049 a5bd
00000370: d474 fbbc 127b 073e c197 5a3c 2a9a 2fbd
00000380: 0042 c13c d045 35be d908 933b 30ec c63d
00000390: 401a 943c f1ab ae3b 1c07 3cbd 481d 243c
000003a0: 44e8 cd3c 8ef6 14bc f912 123d 6d11 80bd
000003b0: 4277 0dbe b7dc 11be 25b5 49bd 6f50 c53c
000003c0: 6c10 debd b7d2 003d 110c bfbc 9282 75bc
000003d0: b58b a13d 3e34 82bd db8d 19bd fe49 38bd
000003e0: 4c41 63bd 0cab db3c bba6 e3bd b4cf 833d
000003f0: 052c 813b d430 40bd 9b11 51bd c92c 9ebd

network_body._body_endoder.seq_layers.4.bias f4 [256]
-0.0090869125 -0.005107896 0.011840395 0.0024261663 -0.011323312 -0.0125594735 -0.010976517 -0.011652225
-0.009390345 0.002047845 0.01988377 -0.012460136 -0.015830567 0.014209234 0.01096089 0.010205955
-0.018921642 0.008277134 0.011452121 -0.009202492 0.011083524 0.013019431 -0.011162922 0.010843079
0.008810799 0.011991847 -0.011824593 -0.00796025 0.008861871 0.023970854 -0.012645639 -0.010907282
0.01139584 -0.010293775 -0.011489057 -0.006716578 0.0075202654 0.010044486 -0.0056121424 0.008589573
0.03129932 0.0011516752 0.011012265 -0.023949299 0.013694508 0.006911361 0.009933588 0.010864893
-0.011375149 0.0099662375 0.02763413 -0.015240909 -0.014177662 -0.017286893 -0.011235003 -0.012641325
-0.009826377 -0.0127552105 -0.012721896 0.01333778 -0.011227789 -0.006073898 -0.013851292 0.0058789128
-0.012427938 0.007990388 -0.013625305 0.01306355 0.0075762984 -0.013316156 -0.005178292 -0.012717384
0.010307721 -0.012536532 -0.010786146 0.00986774 0.017785141 0.008989066 -0.004499512 -0.0056306547
-0.012547894 -0.017821396 0.0107369395 -0.018285131 -0.013569039 0.025786223 0.014993288 -0.008168957
0.010666603 -0.014338774 -0.0020197788 0.0026377907 -0.015665326 0.011134567 -0.01768321 -0.015693098
-0.007853764 0.007754203 -0.016483976 -0.00936907 0.008728418 0.01693657 -0.00041755714 0.019790603
-0.014388055 -0.0038730677 -0.0043516452 -0.011095515 0.0134231495 0.00732106 -0.013075077 -0.015535896
-0.011989319 1.9974901e-05 -0.014613258 -0.01907497 -0.0062719556 0.012704995 -0.010971029 -0.010581568
0.0019739638 0.0017786331 -0.013203501 -0.0025264053 0.0076071518 -0.008341661 -0.01267345 0.023230046
-0.0122726 0.010459425 0.009908593 0.028293444 -0.015759233 0.012643305 -0.013373477 0.015933895
-0.010154299 0.0077971388 0.011907173 0.009897081 0.0091714505 0.012095603 0.011352032 -0.011217092
0.001269739 0.0221158 0.0041652676 -0.01033071 0.015611039 -0.0115805995 0.011108125 0.027278762
-0.010610628 -0.009409187 -0.018104654 0.012631063 0.009144791 0.0066571617 -0.008684602 -0.014500867
-0.0061735515 -0.011722011 0.012338544 -0.002602343 -0.008273977 -0.014441196 0.0122698005 0.010966379
0.004001329 -0.015226323 -0.0126785 0.006671093 0.01532227 0.009240335 -0.0023139426 -0.0022087723
0.010304905 0.026425982 0.012225364 -0.0035097725 -0.0042466405 -0.015050338 0.0053665005 0.0072328285
-0.008560799 -0.00794088 -0.013351399 -0.006134414 -0.009618695 -0.016761387 -0.00018091532 0.004757506
-0.014650632 -0.015047311 0.0056403577 -0.0077179903 0.010860448 0.029915897 -0.02348335 -0.011448986
0.010998963 -0.010083916 -0.012963212 -0.019322325 0.00331252 -0.013307712 -0.012283025 0.0071441256
-0.0073548234 0.0073631257 -0.016424628 0.011673362 0.010816883 0.008866204 -0.016001847 -0.019555172
0.0041862465 0.012151617 -0.012735616 -0.01009649 -0.011159614 -0.006771306 0.025051817 0.0064517874
0.008993615 0.009607636 -0.014059273 -0.0076483143 -0.011976381 -0.005777389 0.009753153 0.020931508
0.0019974993 0.007578351 0.010191018 0.011525159 0.017686255 -0.009712147 0.025571464 -0.011199008
0.01970207 0.010289046 0.01126352 0.015168272 0.017486878 0.0101105 -0.01457377 -0.010444945
-0.017064808 -0.01069457 0.012407848 0.0151281115 0.010712153 -0.018113855 0.012163844 -0.016134763
00000000: 46e1 14bc 2360 a7bb 37fe 413c 5100 1f3b
00000010: 6a85 39bc 40c6 4dbc d9d6 33bc f9e8 3ebc
00000020: f6d9 19bc 2335 063b 4ae3 a23c 9925 4cbc
00000030: 1baf 81bc d9cd 683c 4e95 333c e136 273c
00000040: 8f01 9bbc d19c 073c ada1 3b3c 0dc6 16bc
00000050: ab97 353c 744f 553c b0e4 36bc 2ba7 313c
00000060: 2b5b 103c 7479 443c f0bb 41bc b56b 02bc
00000070: 6231 113c 865e c43c a72f 4fbc 75b4 32bc
00000080: 9eb5 3a3c 39a7 28bc 993c 3cbc bd16 dcbb
00000090: 8f6c f63b a191 243c 10e6 b7bb 48bb 0c3c
000000a0: b733 003d cff3 963a ca6c 343c 5231 c4bc
000000b0: ee5e 603c b378 e23b 7dc0 223c aa02 323c
000000c0: d55e 3abc 6e49 233c f960 e23c 01b5 79bc
000000d0: 6d49 68bc 3e9d 8dbc 0513 38bc 8f1d 4fbc
000000e0: d0fe 20bc 3bfb 50bc 806f 50bc b486 5a3c
000000f0: c3f4 37bc 8d07 c7bb 88f0 62bc e5a3 c03b
00000100: 8d9e 4bbc 1eea 023c ac3c 5fbc 8008 563c
00000110: 9942 f83b 022c 5abc a9ae a9bb 935c 50bc
00000120: b7e1 283c 0766 4dbc 60b8 30bc 4dac 213c
00000130: 25b2 913c e046 133c a470 93bb 5b81 b8bb
00000140: af95 4dbc 2dfe 91bc fde9 2f3c b3ca 95bc
00000150: ad50 5ebc a13d d33c 68a6 753c 17d7 05bc
00000160: fac2 2e3c 2ded 6abc 445e 04bb c9de 2c3b
00000170: 9254 80bc c26d 363c 61dc 90bc d08e 80bc
00000180: 13ad 00bc f816 fe3b 6709 87bc ba80 19bc
00000190: a301 0f3c 90be 8a3c 92eb dab9 e71f a23c
000001a0: e0bb 6bbc 4bd3 7dbb 3f98 8ebb f7c9 35bc
000001b0: c5ec 5b3c 81e5 ef3b d938 56bc 458a 7ebc
000001c0: d96e 44bc c68f a737 726c 6fbc 1d43 9cbc
000001d0: fa84 cdbb 9d28 503c d5bf 33bc 505e 2dbc
000001e0: 9e5d 013b 0621 e93a 7f53 58bc 0c92 25bb
000001f0: 6a45 f93b 76ab 08bc 4da4 4fbc f04c be3c
00000200: 0413 49bc 025e 2b3c a757 223c a7c7 e73c
00000210: 8219 81bc dd25 4f3c 6e1c 5bbc cd87 823c
00000220: 385e 26bc 247f ff3b 4e16 433c 5e27 223c
00000230: da43 163c a32c 463c e0fd 393c e5c7 37bc
00000240: 5f6d a63a 322c b53c cc7c 883b 2342 29bc
00000250: 71c5 7f3c 8ebc 3dbc dafe 353c b677 df3c
00000260: 33d8 2dbc fe28 1abc 3650 94bc 85f2 4e3c
00000270: 09d4 153c 5224 da3b dc49 0ebc 0b95 6dbc
00000280: 814b cabb ad0d 40bc 9b27 4a3c 128c 2abb
00000290: 938f 07bc c49a 6cbc 4607 493c 54ac 333c
000002a0: 951d 833b d477 79bc 7cb9 4fbc 2f99 da3b
000002b0: 420a 7b3c c664 173c 84a5 17bb 0dc1 10bb
000002c0: e7d5 283c 4d7b d83c e54c 483c 3604 66bb
000002d0: 6727 8bbb b195 76bc 78d9 af3b 5d01 ed3b
000002e0: 9842 0cbc 771a 02bc d4bf 5abc 3203 c9bb
000002f0: bb97 1dbc 2d4f 89bc 16b4 3db9 dae4 9b3b
00000300: 3409 70bc ff88 76bc c0d2 b83b 32e7 fcbb
00000310: 05f0 313c 2f12 f53c 2860 c0bc 8794 3bbc
00000320: ff34 343c 0237 25bc a763 54bc da49 9ebc
00000330: dd16 593b 9708 5abc be3e 49bc 4519 ea3b
00000340: bb00 f1bb 6046 f13b f18c 86bc a141 3f3c
00000350: 4c39 313c 8e43 113c 4e16 83bc 2b32 a0bc
00000360: c82c 893b 9317 473c 0ca9 50bc c06b 25bc
00000370: d0d6 36bc d5e1 ddbb 7839 cd3c 8469 d33b
00000380: f559 133c 5969 1d3c dd58 66bc b69e fabb
00000390: 9538 44bc 4050 bdbb b0cb 1f3c 8e78 ab3c
000003a0: 7ae8 023b d153 f83b 3af8 263c 05d4 3c3c
000003b0: c4e2 903c b21f 1fbc 3f7b d13c 0b7c 37bc
000003c0: 3c66 a13c 6393 283c a18a 383c 5884 783c
000003d0: a440 8f3c 83a6 253c d2c6 6ebc 4621 2bbc
000003e0: 7fcb 8bbc 4738 2fbc 494a 4b3c e6db 773c
000003f0: 0782 2f3c 8263 94bc dc4a 473c 0d2d 84bc

action_model._discrete_distribution.branches.0.weight f4 [3, 256]
-0.020874947 0.0011910636 0.008193201 0.006688515 -0.015469641 -0.02902962 0.0012053472 -0.01688714
-0.0020388584 -0.0028079404 0.02723885 -0.01049587 -0.030147875 0.008929519 0.00061405543 0.018376904
-0.018038394 -0.0037008894 -0.0005728121 0.0006867438 -0.0033258852 0.013116808 -0.012181806 0.02240221
-0.00921105 0.0076615275 -0.018979754 0.005835443 0.01172129 0.046612456 -0.01966354 0.00058818795
0.0045445138 -0.025182834 -0.024461497 -0.009891348 0.00864539 0.015297891 -0.00030242212 -0.0021895862
0.06230976 0.0020559374 0.0040394673 -0.018897047 0.021542246 0.038612623 0.029820336 0.01923419
-0.0029882318 0.0005230316 0.0401205 -0.0039779027 -0.031206457 -0.025775015 0.011532203 -0.008176691
0.026782066 -0.0040908474 -0.028367631 0.00360812 -0.0026592724 0.014080575 -0.009698902 0.030483807
-0.021888942 -0.0002617636 -0.0062798127 0.01142639 0.0027945885 -0.005051849 0.0039849766 -0.016209004
-0.0018498949 -0.011331749 0.0058888895 -0.0024963468 0.021183388 0.0014923083 -0.007742196 0.018951934
-0.007680654 -0.012012597 0.002931026 -0.005533791 -0.01854617 0.00667913 0.01127865 0.0068559144
-0.008163854 -0.0146011375 0.01854144 -0.017020885 -0.010738995 0.0038556918 -0.026591789 -0.00422281
0.0025771523 0.0012067591 -0.015533229 -0.002112262 0.018589677 0.012566481 -0.023174237 0.0043895766
-0.0041673942 -0.0007312089 0.012171362 -0.010777435 0.0068189115 -0.016938232 -0.035936218 -0.004822449
-0.014701369 -6.7918016e-05 -0.010808403 -0.031409502 -0.00086321577 0.008935218 -0.008160666 -0.017375084
0.007774275 0.008532573 0.0024572648 -0.010548497 -0.020551886 0.007168299 -0.023035983 0.02005583
-0.000495089 -0.0012951699 0.022980828 0.050649337 -0.0069850376 -0.029349172 -0.02331922 0.027471283
0.0028965245 -0.010463056 -0.0020496428 0.0056594354 0.002599137 0.003579625 0.005312735 -0.0077596945
-0.0040588947 0.023195894 -0.0037411782 -0.018146839 0.012563872 0.006075772 0.0025898712 0.045982514
0.004180112 -0.0013742024 -0.023356216 0.010277069 0.0032019832 -0.02501674 0.016314603 0.0008021477
0.016700057 -0.012683727 -0.0022470905 -0.041825484 0.020746583 -0.024550267 0.013991669 -0.0011650883
0.0057504876 0.005989034 -0.01293895 -0.00014005 0.016821437 0.006412801 -0.044985134 0.015319415
-0.012644787 0.08013408 -0.014766755 0.005626305 0.0060718833 -0.018647633 -0.006491172 0.005698205
0.005196201 0.009976289 -0.01963757 5.3882977e-05 0.00493665 -0.03326438 -0.012861474 0.00037968834
-0.01865646 -0.020797048 0.013495686 0.0039065517 0.01778454 0.041166928 -0.019382881 -0.0023865784
-0.0031927756 -0.017611165 0.0033647555 -0.018815497 0.016949553 -0.022142092 -0.007321315 0.0031960031
0.008456258 0.011425096 -0.0068122214 0.0023110972 0.0073277485 0.00049266376 -0.0147906225 -0.006548799
-0.008223862 -0.0020025396 -0.007332091 -0.012693731 -0.00538762 0.0030265157 0.024553953 -0.01555631
0.013295232 0.011881003 -0.033073667 -0.0010911153 0.010534643 0.009497836 -0.005740285 0.019301295
0.003401767 0.007446735 0.004436657 0.007616046 0.012849859 -0.0130966 0.04805546 0.0023455173
0.062019594 0.0067255422 0.0063675893 0.014036224 0.014248165 0.0033990277 0.0029093523 0.0012854473
-0.0061354684 -0.01703782 0.009189664 0.015950916 -0.008414938 -0.03200148 0.012546181 -0.0202249
00000000: f001 abbc 761d 9c3a c73c 063c 552b db3b
00000010: 6174 7dbc 87cf edbc befc 9d3a e656 8abc
00000020: 5e9e 05bb 6c05 38bb 0224 df3c dff6 2bbc
00000030: adf8 f6bc 1e4d 123c 90f8 203a 298b 963c
00000040: 41c5 93bc 9f8a 72bb c528 16ba 9906 343a
00000050: 18f7 59bb e1e7 563c 3396 47bc d784 b73c
00000060: f2e9 16bc 8d0d fb3b 6e7b 9bbc 3e37 bf3b
00000070: a70a 403c b4ec 3e3d 6f15 a1bc a030 1a3a
00000080: 25ea 943b 3b4c cebc 7a63 c8bc 520f 22bc
00000090: 65a5 0d3c 01a4 7a3c 698e 9eb9 297f 0fbb
000000a0: 8538 7f3d e8bc 063b 825d 843b fbcd 9abc
000000b0: 5d79 b03c 4528 1e3d c749 f43c 0591 9d3c
000000c0: 36d6 43bb 0e1c 093a 6555 243d 1159 82bb
000000d0: afa4 ffbc 2026 d3bc 91f1 3c3c 87f7 05bc
000000e0: 1066 db3c 840c 86bb 3c63 e8bc 3576 6c3b
000000f0: 3047 2ebb 36b2 663c 25e8 1ebc 2db9 f93c
00000100: 7050 b3bc 513d 89b9 e3c6 cdbb c135 3b3c
00000110: 6a25 373b fb89 a5bb 6894 823b bfc8 84bc
00000120: 2c78 f2ba cda8 39bc 96f7 c03b c099 23bb
00000130: c988 ad3c 8f99 c33a 3fb2 fdbb 1641 9b3c
00000140: ffad fbbb 7cd0 44bc 7516 403b ce54 b5bb
00000150: 23ee 97bc 9adc da3b 16ca 383c 94a7 e03b
00000160: afc1 05bc 9c39 6fbc 38e4 973c 626f 8bbc
00000170: 9cf2 2fbc c6af 7c3b 06d7 d9bc 7f5f 8abb
00000180: 71e5 283b 1e2c 9e3a 167f 7ebc e06d 0abb
00000190: 6149 983c a4e3 4d3c e6d7 bdbc 70d6 8f3b
000001a0: a38e 88bb 99ae 3fba 646a 473c d793 30bc
000001b0: 2d71 df3b 0cc2 8abc db31 13bd a205 9ebb
000001c0: 03de 70bc 356f 8eb8 ba15 31bc 40a7 00bd
000001d0: 6e49 62ba 0565 123c 50b4 05bc 3156 8ebc
000001e0: 58bf fe3b 34cc 0b3c 100a 213b 9ad3 2cbc
000001f0: 6e5c a8bc 0de4 ea3b f5b5 bcbc 204c a43c
00000200: dcc8 01ba b1c2 a9ba 4a42 bc3c ae75 4f3d
00000210: bee2 e4bb ad6d f0bc f307 bfbc 750b e13c
00000220: 9ed3 3d3b 3d6d 2bbc 4d53 06bb c972 b93b
00000230: 4856 2a3b 2498 6a3b 7416 ae3b 0945 febb
00000240: 7a00 85bb 5105 be3c 8e2e 75bb aea8 94bc
00000250: b3d8 4d3c 4517 c73b d4ba 293b 2958 3c3d
00000260: 52f9 883b 951e b4ba 8955 bfbc 2761 283c
00000270: 5dd8 513b e8ef ccbc 34a6 853c 3947 523a
00000280: 8fce 883c 68cf 4fbc ec43 13bb 3351 2bbd
00000290: bdf4 a93c a41d c9bc 503d 653c e0b5 98ba
000002a0: 966e bc3b a93f c43b e4fd 53bc 63da 12b9
000002b0: 1ccd 893c 7922 d23b 5542 38bd 49fe 7a3c
000002c0: 152c 4fbc 561d a43d 42f0 71bc de5c b83b
000002d0: a6f6 c63b ecc2 98bc e6b3 d4bb 02b8 ba3b
000002e0: e544 aa3b 9773 233c f8de a0bc 6800 6238
000002f0: 9fc3 a13b 3b40 08bd efb8 52bc e810 c739
00000300: 6fd5 98bc 925e aabc 031d 5d3c 8802 803b
00000310: e2b0 913c a79e 283d d9c8 9ebc 2468 1cbb
00000320: e33d 51bb 4a45 90bc 3b83 5c3b f522 9abc
00000330: cad9 8a3c 5563 b5bc a4e7 efbb 0974 513b
00000340: 1e8c 0a3c 5330 3b3c 0e39 dfbb c775 173b
00000350: 9c1d f03b 1b26 013a 5e54 72bc 4f97 d6bb
00000360: 61bd 06bc 0a3d 03bb 0a42 f0bb 5ef9 4fbc
00000370: a28a b0bb 8258 463b 5f25 c93c e5df 7ebc
00000380: 3fd4 593c 8aa8 423c 4178 07bd c103 8fba
00000390: 7f99 2c3c d09c 1b3c 0019 bcbb c01d 9e3c
000003a0: 2ef0 5e3b be03 f43b 6061 913b 0690 f93b
000003b0: 3788 523c 1f93 56bc cdd5 443d 40b7 193b
000003c0: 4208 7e3d f061 dc3b 36a7 d03b 31f8 653c
000003d0: 2371 693c 39c2 5e3b d5aa 3e3b 747c a83a
000003e0: 0a0c c9bb e692 8bbc 3f90 163c 7fab 823c
000003f0: cfde 09bc fc13 03bd 7f8e 4d3c b1ae a5bc

action_model._discrete_distribution.branches.0.bias f4 [3]
0.022118015 -0.009918304 0.0013869761
00000000: d730 b53c 6280 22bc 32cb b53a
