results/updatedreward2/PlayerAgent/PlayerAgent-3636.onnx (onnx, 546771 bytes, 11 tensors)

discrete_act_size_vector f4 [1, 2]
000000 00 00 40 40 00 00 00 40
       3.0 2.0

network_body._body_endoder.seq_layers.0.weight f4 [256, 6]
000000 f9 70 60 3f 3d 5c 69 3f 3a f4 40 be af b5 f2 bc
       0.8767238 0.9115637 -0.18843165 -0.02962765
000010 af dc 56 3e 0e 1a 47 3f 8a 0b 6e be 5f 81 6b bf
       0.20982622 0.7777413 -0.2324659 -0.9199428
000020 c8 1c 06 bf c6 ce 5d 3e bb fa 74 be f0 58 d4 bd
       -0.52387667 0.21660909 -0.23923771 -0.10368526
000030 17 5e cf 3e ca da 9a be 55 5f 2e 3f 8e 72 f8 3e
       0.40501472 -0.30245048 0.68114215 0.48524898
000040 49 15 86 be e2 38 05 bd 0c 34 2a bd dc 02 37 bd
       -0.26188114 -0.03252495 -0.041553542 -0.04468046
000050 45 ed ff 3e 8c ab b1 3e 46 d9 6e 3e 41 64 42 be
       0.4998571 0.34701192 0.2332507 -0.18983556
000060 9b f4 d1 be 8a f0 d1 3e b2 59 ce 3e 3c d5 0c 3e
       -0.41006932 0.4100383 0.40302807 0.13753217
000070 aa 5c 84 bc 68 5f 7b 3d 2e d0 99 3e 47 cd ce be
       -0.016157467 0.061370283 0.3004164 -0.4039099
000080 6b 6d 09 3f 8b ee 1b bf 22 68 61 be 38 31 d8 3e
       0.53682584 -0.6091086 -0.2201238 0.4222505
000090 e9 98 84 3e 6e 15 1b bf b0 2b 27 be 61 66 14 3f
       0.2589791 -0.60579574 -0.16325259 0.5796872
0000a0 25 9f 1b 3f b6 18 a3 3e a5 9f 02 be 14 51 b3 be
       0.6078971 0.3185479 -0.12756212 -0.35022795
0000b0 13 65 bc 3d af a7 bf be 10 8d 1e 3e ef 5b 66 3e
       0.09198966 -0.3743262 0.15483499 0.22496007
0000c0 31 e2 cf 3e b9 0b 9d 3e 23 c3 17 be ff 81 06 bf
       0.40602258 0.30673006 -0.14820533 -0.5254211
0000d0 60 f0 12 bf b8 de 55 bd 90 a5 08 3e a8 31 07 be
       -0.57398033 -0.052214354 0.13344407 -0.13202536
0000e0 34 88 10 bf 84 b4 87 bd 19 c3 17 be 1b be a0 3d
       -0.5645783 -0.066262275 -0.14820518 0.0784876
0000f0 56 b6 3e bf 58 a3 02 3f f2 2b eb be 19 94 0d bf
       -0.7449697 0.5103049 -0.45931965 -0.55304104
000100 51 5d db bd da 6b 85 3d 20 ea a0 3e 84 f1 67 3f
       -0.10711158 0.06514712 0.31428623 0.906029
000110 5b 75 58 3f 10 e0 99 be 0f b3 3a 3f 13 56 c5 bd
       0.8455407 -0.3005376 0.7292947 -0.09635558
000120 c4 69 00 bf f5 36 2c bd 5f 91 16 bf 9c b9 11 bd
       -0.50161386 -0.0420446 -0.5881557 -0.0355774
000130 06 84 79 bd 1b 52 87 3e 04 07 89 3e 30 60 1f 3f
       -0.060916923 0.2642983 0.26763165 0.62256145
000140 6b 44 19 be 9c 58 41 3e 70 ce 5c 3e 2c b0 f7 3e
       -0.14967506 0.18881458 0.21563125 0.48376596
000150 2e e0 ef 3a 0e 7e 35 3f 53 f3 cc 3d b8 04 3b 3e
       0.0018301064 0.7089547 0.10007348 0.18263519
000160 98 77 8a 3e af 9a 1d be 5d dc 3c 3e 83 cd 6a 3f
       0.27044368 -0.15391038 0.18443437 0.91719836
000170 27 e9 17 be f6 80 4c bf f4 07 35 be 45 53 ff 3e
       -0.14835034 -0.7988428 -0.17678815 0.49868217
000180 34 a7 8f 3e 5c ed 58 be da aa 1f 3f f9 f6 45 be
       0.28057253 -0.21184295 0.62370074 -0.19332494
000190 cd 8b 3f 3f 40 34 38 be d9 8f 44 bf 46 be 89 3e
       0.74822694 -0.17988682 -0.76781994 0.2690298
0001a0 47 37 99 3d f9 b2 a3 be 1e 33 82 3d 1b 79 64 bf
       0.074812464 -0.31972483 0.06357406 -0.8924729
0001b0 a7 c6 a1 be 4d 5f 2f bf ed 41 21 be f3 21 06 bd
       -0.31596872 -0.6850479 -0.15747805 -0.03274722
0001c0 1c 38 a7 be 47 79 e8 bc 30 ad 1f bd d1 a4 34 3e
       -0.32659996 -0.028378142 -0.038983524 0.17640997
0001d0 56 e0 6c 3c 0e 1f f1 be 44 15 2b bd 6e bd 87 be
       0.014457783 -0.47094005 -0.041768327 -0.2651171
0001e0 4d 2f c7 3e 52 e4 8b bf a6 9d 7a 3e ef 86 52 3f
       0.38903275 -1.0929053 0.244742 0.8223714
0001f0 cb ca 19 3e ab 46 c0 be 34 63 a0 be 9f eb 90 be
       0.15018766 -0.37553915 -0.31325686 -0.28304765
000200 b2 92 d6 3e 3e 55 00 3f c8 b9 2b bf 66 cd 2c 3e
       0.41908795 0.5013007 -0.67080355 0.16875228
000210 9c 12 08 bf f1 86 7f 3e 6f c0 ef be 3c 90 c6 be
       -0.53153396 0.2495382 -0.46826503 -0.38781917
000220 11 d9 a0 be 89 78 07 be d1 8f 01 bf ae aa 1e bf
       -0.3141561 -0.13229574 -0.5061007 -0.61979187
000230 1f ff 05 be d7 90 85 3e 07 e4 c3 3e 4d 4f 90 be
       -0.13085602 0.26087067 0.3825991 -0.28185502
000240 9e 5e 5a 3f 5e 5e 66 be a5 19 ab be 06 b0 bf bd
       0.85300624 -0.22496936 -0.33418003 -0.09359746
000250 e2 d5 87 be 27 61 24 3f cf f3 4e be 6f 82 2c 3e
       -0.26530367 0.6421074 -0.20210193 0.16846631
000260 76 55 1c 3f 0c ab 04 bf 55 a3 28 bf b5 0b 3c 3f
       0.61067903 -0.51823497 -0.65874225 0.73455364
000270 65 71 39 bf f8 c3 c5 be 3f c5 3b 3f 26 d6 3a 3d
       -0.7243865 -0.38626075 0.7334785 0.045614384
000280 d6 ef f2 be 75 4d a6 be d6 99 1b 3e 12 be 63 bd
       -0.47448605 -0.3248097 0.15195403 -0.055601187
000290 fd f5 1f 3c e1 ec a4 be 5e cb f1 3e a3 2c 70 3f
       0.009763238 -0.32211974 0.4722547 0.9381811
0002a0 ba f1 d3 bd 73 36 a0 3e 72 4d d7 be 8a 92 50 bf
       -0.1034884 0.3129154 -0.42051274 -0.814736
0002b0 a9 cd 8a 3e c2 2e 1a 3f 39 2d 48 bf 31 e5 20 3e
       0.2711003 0.60227597 -0.78194004 0.1571243
0002c0 87 0e b1 3e 3f 07 4f 3d 07 e3 ed 3e c2 be 32 3f
       0.34581396 0.05054402 0.4646227 0.69822323
0002d0 e2 5e c5 3e be 57 7c 3e 90 70 72 3e b4 aa 38 bf
       0.38548952 0.24642846 0.23675752 -0.7213547
0002e0 fb 6a aa bd 5d f1 db 3d 2f 8d 21 bd d0 00 54 3f
       -0.08321186 0.10739396 -0.039441284 0.8281374
0002f0 09 1f b1 be 62 ce 47 be 3f 14 bb be b5 60 3d 3e
       -0.3459399 -0.19512323 -0.36538884 0.18493922
000300 3c 38 98 bd 43 b6 bb bd e6 a4 35 be d1 ef 8c bd
       -0.07432601 -0.09165623 -0.17738685 -0.06881679
000310 6d 7c ec bd 4a 67 05 3e 2c fe 87 3e 42 91 1c be
       -0.1154717 0.13027683 0.26561105 -0.15289786
000320 e3 2f c0 3c 46 2e 16 3f 10 b8 18 bf f9 93 8a 3e
       0.023460334 0.5866436 -0.5965586 0.2706602
000330 3d 57 bf 3d da 9c 34 3f 22 b6 28 3f 2c 6e e3 be
       0.09342811 0.70551836 0.6590291 -0.44419992
000340 c4 65 05 3d 75 9a 46 bf ee c2 af be f1 3b b7 3d
       0.032567754 -0.7757943 -0.34328407 0.0894698
000350 0e 6e b2 3e ad 25 c4 bd ca 18 39 be ee a3 fb 3d
       0.3484959 -0.095774986 -0.18075863 0.122871265
000360 ba 11 07 3f 97 c5 a5 3e ab 5f 12 3e 14 26 33 3c
       0.52761424 0.32377312 0.14294307 0.0109343715
000370 b5 c3 70 3c 0f b4 18 3f 19 3b 46 3d 64 f0 88 3e
       0.014695098 0.5964975 0.048396204 0.26745903
000380 78 26 f0 bd b0 2b e5 3d 10 95 9e 3e 55 e8 0c be
       -0.11726087 0.11189973 0.309731 -0.13760503
000390 f0 5d 06 3f 9d b9 0a bc 65 7c 38 3f a6 19 a0 be
       0.5248709 -0.008467105 0.7206481 -0.31269568
0003a0 af 6b 3d be f5 77 6e bf 00 44 ec bd df d3 ae be
       -0.1849811 -0.9315179 -0.115364075 -0.3414602
0003b0 a6 e4 22 be d8 03 67 3f 9f f3 c5 3e dc 54 fc 3d
       -0.15907535 0.9024024 0.3866243 0.12320873
0003c0 9f 5c 4e be 93 d5 2c 3f 44 82 a0 3e 54 ed 73 3e
       -0.2015252 0.6751339 0.31349385 0.23821002
0003d0 02 a2 94 3e 30 d6 cc 3d be 5a 11 bd 47 68 f6 be
       0.29029852 0.100017905 -0.03548693 -0.48126432
0003e0 86 a5 65 3e 51 3a ed be 09 28 5f 3e 99 84 74 3f
       0.22426423 -0.46333554 0.21792616 0.9551483
0003f0 1e 11 b7 3d df a7 a2 3e a9 e7 11 bd 1f 32 65 be
       0.08938812 0.317687 -0.03562132 -0.22382401

network_body._body_endoder.seq_layers.0.bias f4 [256]
000000 c7 56 91 3b 2a f9 00 3d 44 70 a3 3c 10 2c 8a 3c
       0.0044353935 0.03148762 0.019950993 0.016866714
000010 30 7e 97 3c d4 01 d0 3a 4e a1 38 3b 62 7e 88 3b
       0.018492788 0.0015869685 0.0028172317 0.0041654566
000020 e3 fd 2f 3d 8c c5 da bb be d5 cb 3c ea 07 90 3c
       0.042966735 -0.0066763815 0.024882194 0.017581899
000030 92 44 62 bc 72 4a 37 3c f4 10 de 3c 05 d9 a8 3c
       -0.013810294 0.011187183 0.027107693 0.020611295
000040 c3 fa 38 3b 7c 07 20 b7 6b 02 b0 3b e4 6f 79 3c
       0.0028225638 -9.538486e-06 0.005371382 0.015224431
000050 05 21 5a 3d 50 92 5c 3c 3d 1c f9 3b 78 60 a8 3b
       0.053254146 0.013462618 0.007602243 0.005138453
000060 3f 78 af 3b a6 c4 65 bc 53 51 ff 3c 3c f8 47 3b
       0.0053549106 -0.014023935 0.031166708 0.003051295
000070 26 6b 49 bb 44 d7 0f 3b fd 54 32 3c 3f 93 0f 3d
       -0.0030734031 0.0021948377 0.010884521 0.035052534
000080 77 f0 cb bc bb 98 a9 3b 0a c1 c8 bc ed 77 fd bb
       -0.024894936 0.0051756776 -0.02450611 -0.0077352435
000090 bb 53 e7 3b e9 bd aa bb 2f 46 16 bc b8 6d 4f bb
       0.007059542 -0.0052106273 -0.0091720065 -0.003165109
0000a0 5e 17 2d 3c 09 a0 dd 3a 67 7a 84 bc ef 2b f7 3b
       0.010564653 0.0016908656 -0.016171647 0.007543079
0000b0 bc 6c 15 3c ca 1e 89 3c 13 5a a8 3c 3b 81 ed 3b
       0.009120163 0.016738314 0.020550763 0.0072480715
0000c0 d9 0d 19 bd 3f 25 c3 3b 09 b0 8c 3b d2 17 13 bb
       -0.03736672 0.005955368 0.004293446 -0.0022444618
0000d0 42 4d 16 ba 43 8c 90 bc 0b eb 9d b8 fb 06 31 3c
       -0.0005733558 -0.017645007 -7.5301235e-05 0.010804887
0000e0 2e ac 95 b9 a7 9a 86 3a 14 a8 e0 3b 2f 1d 80 3b
       -0.00028547778 0.0010269479 0.006855974 0.003909729
0000f0 30 14 a0 3b fe e3 0b 3c 10 37 fd 3b 63 f4 c2 3c
       0.004885219 0.008538244 0.007727511 0.023798173
000100 86 c6 cc bb a4 f6 22 3c 89 63 03 bc c8 87 1a 3c
       -0.006249252 0.009946499 -0.0080193365 0.009431787
000110 f0 af d6 3a 36 09 8d 3c e9 86 1e bc 8c 5b 54 3c
       0.0016379338 0.017216306 -0.00967572 0.01296128
000120 cc 27 27 3c c7 f2 32 bc d3 eb 9a bb fc a5 08 3c
       0.010202359 -0.01092214 -0.0047278195 0.008340355
000130 a8 29 ad 3b 25 34 4c 3c df 9e 33 3a 03 24 01 3d
       0.005284507 0.012463604 0.0006851982 0.031528484
000140 b8 86 e5 3b f3 29 a9 bc 3c c1 13 bc 97 22 ea 3b
       0.007004585 -0.020649886 -0.009018239 0.0071452367
000150 c1 95 c0 3b 8c 7f 90 bb fb ff 0b 38 8c f4 59 3c
       0.005877227 -0.004409736 3.3378583e-05 0.013302933
000160 61 11 ce 3a 06 5d c1 3c 45 4c be ba c1 c5 0b 3b
       0.0015721732 0.023603927 -0.001451858 0.0021327587
000170 5b 9f f4 3b 08 d9 bf 3c 89 17 26 bc 87 57 af 3b
       0.0074652857 0.023418918 -0.010137447 0.0053510102
000180 3a 53 90 3c 46 ae 51 3c d0 84 cf 3b 31 9e f8 bb
       0.01761781 0.012797898 0.006332971 -0.0075872173
000190 f6 a7 c3 3b 85 12 b5 3b e8 40 06 bb c5 da cd 3c
       0.0059709502 0.0055258893 -0.0020485464 0.025128732
0001a0 42 9f c5 39 89 b2 07 3b c0 7b 2a 3c d2 4c 7b 3c
       0.00037693424 0.002070578 0.010405481 0.01533814
0001b0 73 22 05 3d ce 13 80 3c 57 4b 8b bc 91 38 af bb
       0.032503556 0.015634444 -0.017003698 -0.0053473194
0001c0 68 30 94 3b b9 ac 04 3b 95 e2 b0 3c ba 22 80 3b
       0.004522372 0.0020244552 0.021592418 0.0039103897
0001d0 77 39 93 3b 33 29 fa bb 6d 38 8a 3b 44 12 e6 3c
       0.0044929343 -0.007634306 0.0042181523 0.028084882
0001e0 b3 7b 2f bc 30 a3 cf bb 15 17 e6 3b 80 c9 c8 3c
       -0.010710645 -0.006336592 0.0070217946 0.024510145
0001f0 1b 23 83 3b 45 d1 14 bc 52 97 65 3c 74 29 3b bb
       0.0040019876 -0.009083097 0.014013128 -0.0028558644
000200 15 fb 3b 3b ac b3 42 3c 3d ab 78 bb 01 06 99 ba
       0.0028683592 0.011883657 -0.0037943863 -0.0011674763
000210 60 ed 24 3c 81 33 11 3c 50 28 69 38 8c 6c 53 3b
       0.01006636 0.008862377 5.5589073e-05 0.0032260744
000220 60 98 01 3b c5 c8 57 3c 4c 16 e1 3b b5 dd 94 37
       0.001977466 0.013170426 0.006869113 1.7746215e-05
000230 68 3f b8 bb d3 82 99 bb 4b 99 bc 3c 17 43 e0 ba
       -0.005622793 -0.004684785 0.023022315 -0.0017109838
000240 b3 20 2f ba 85 f3 99 3c 3a 22 3a 3b 76 0a 39 bc
       -0.0006680593 0.018792877 0.0028401748 -0.011293998
000250 ac 06 69 3c 6a 51 6d 3c 3e 18 9a 3a be 35 01 bb
       0.014222782 0.014484743 0.0011756492 -0.001971587
000260 ba 32 11 3d 83 83 75 bb 0f 26 4a bb 7a fb dd bb
       0.035448767 -0.003746242 -0.0030845439 -0.006774363
000270 3e 00 c0 3c 48 f1 b7 3b 38 f5 33 ba e7 d4 0e bb
       0.023437615 0.0056134798 -0.00068648485 -0.002179438
000280 c2 79 17 3d 1e 86 1b 3c 81 46 78 3c b8 c9 f5 3b
       0.03698135 0.009492425 0.015153528 0.0075008534
000290 85 56 27 3b 29 fe 22 b8 23 19 32 3c 8d 6e b1 3c
       0.0025533747 -3.8860515e-05 0.010870251 0.02165916
0002a0 9c 47 54 3c 6a f9 06 bc 07 b5 22 3b ec d5 22 3a
       0.012956526 -0.008238176 0.002482714 0.00062116864
0002b0 2d d1 ab 3c 77 53 ce 3a ef f1 c2 ba 93 ae b5 3b
       0.020973766 0.0015741427 -0.0014873127 0.0055444925
0002c0 05 3e 12 3c aa b6 6b 3c 79 7c 8a bc 6a af 70 3b
       0.008925919 0.014386812 -0.016905056 0.0036725649
0002d0 f2 46 5d bc 68 3a 16 3c 73 a1 ca 3c 38 83 2b bb
       -0.013505684 0.009169199 0.024735188 -0.0026170742
0002e0 d7 c3 b1 3a 91 e8 5c 3b 67 d9 d9 3c ad 8a 80 38
       0.0013562393 0.0033707956 0.026592923 6.129346e-05
0002f0 3c c6 4b bc 50 c8 6a 3c 77 07 37 3d 48 c5 97 b9
       -0.0124373995 0.014329985 0.044684853 -0.0002894795
000300 fb c8 e6 bc bb 49 04 bb 6a fa 09 bc a3 b2 25 3a
       -0.028172007 -0.0020185548 -0.00842152 0.00063208694
000310 ea 53 96 3b ae c6 57 3b 57 60 c6 3a 02 77 07 3c
       0.00458764 0.0032924819 0.0015134913 0.00826812
000320 80 ca 9f 3c 1a 71 3a 3c 05 16 c5 3c 2c 68 b5 3b
       0.01950574 0.011379505 0.024058351 0.0055361
000330 8e a3 0c 3b 08 b1 20 bd 96 8e 8b bb 42 9f fa bb
       0.002145979 -0.03923133 -0.004258941 -0.0076483795
000340 38 c2 fa 3b 65 4b 13 3d c6 13 a3 bb c5 16 06 bb
       0.007652547 0.035960574 -0.0049767224 -0.002046035
000350 83 4b de 3c 03 be d9 bb 8f 63 c3 3b 5d 4c 0d 3c
       0.027135616 -0.0066449656 0.005962796 0.008624163
000360 ea 04 b9 3a cc 55 75 3b 1a 49 5a 3a 51 08 1e 3c
       0.0014115844 0.0037435172 0.0008326933 0.0096455375
000370 51 3d b5 3c e8 d8 8f 3c 76 08 02 3d 0e b0 9f bc
       0.022123965 0.017559484 0.03174635 -0.01949313
000380 5b 60 62 3b 13 15 29 bc 57 94 56 3c ce ae 89 ba
       0.0034542296 -0.010319966 0.01309689 -0.0010504366
000390 6b 29 7b bb 3c 2c 1b bb 72 7d ea 3c ec 6d c3 3c
       -0.0038324248 -0.0023677489 0.02862427 0.023856126
0003a0 8b 9f c6 bc 6a d2 6b 3c 4a 6c f1 3b 16 e7 84 bd
       -0.024245998 0.014393428 0.0073676454 -0.06489389
0003b0 95 07 36 bc 93 ff 36 bb 1e 9f 95 3a 35 3b 01 bc
       -0.011110206 -0.002792333 0.0011415218 -0.007887651
0003c0 42 b0 ed bb d8 d5 73 3b b9 62 90 3c 4a 18 90 3c
       -0.0072536776 0.0037206318 0.0176252 0.017589707
0003d0 3f 4d ae 3c 87 db 8c 3b 8b 23 69 3a 66 b3 2a bc
       0.021277068 0.0042986306 0.0008893541 -0.0104187485
0003e0 34 e9 68 3c 81 21 1d 3a 55 24 86 3a e2 c3 af 3b
       0.014215756 0.0005994067 0.0010234216 0.005363927
0003f0 f1 af 37 bc 0f cb ca ba 19 c9 f9 3b c6 e7 a0 3a
       -0.011211381 -0.0015471893 0.0076228497 0.0012276105

network_body._body_endoder.seq_layers.2.weight f4 [256, 256]
000000 98 8d 14 3d 74 73 cf bc b1 42 58 bd 60 55 d4 3d
       0.036267847 -0.025323607 -0.052797977 0.103678465
000010 81 d6 46 bd 6d ab bc bd 39 ba 60 bb d2 48 e5 3b
       -0.04854441 -0.092123844 -0.0034290685 0.0069972062
000020 67 b1 b1 bd 2c 1a aa bd fc d8 24 3d f6 71 46 3d
       -0.08676415 -0.08305773 0.040245995 0.048448525
000030 14 2d db 3d 8b 65 d6 bd 08 c1 ea bd 44 6a 41 bd
       0.10701957 -0.104685865 -0.11462599 -0.047220483
000040 67 59 51 bb 0d b9 49 3d 30 42 31 bd 95 89 a7 bc
       -0.0031944157 0.049248744 -0.043276012 -0.020451346
000050 4b 69 d2 3d fc a0 83 bd 84 87 bb 3c e9 37 93 bd
       0.10273989 -0.0642719 0.022891767 -0.071883984
000060 8c 5f b4 bd 43 21 fc 3d 98 bd e9 bc 87 36 50 3d
       -0.088072866 0.12311032 -0.028532788 0.05083325
000070 9e 6a 9e bd c4 74 36 3d 67 23 12 bd 7c c8 96 bc
       -0.07735179 0.04454495 -0.035678294 -0.018406145
000080 82 e8 5c 3d 07 93 d7 3d 7b d4 8f bc 1e c7 90 bd
       0.053932674 0.1052609 -0.017557373 -0.070692286
000090 19 85 1c 3d 96 77 b9 3d 7d f7 de 3d f8 4d d9 bd
       0.03821287 0.09056012 0.108870484 -0.106105745
0000a0 ed 9b 57 3d 90 0d 92 3d 8b 2c 55 3d 04 af 15 bc
       0.052638937 0.07131493 0.052044433 -0.009135965
0000b0 4b 69 13 3c 39 07 82 bb f4 ea 7a 3a d2 1c 3d 3d
       0.008997272 -0.003968146 0.0009571754 0.046170063
0000c0 82 c9 93 bd a6 68 03 bd ed 42 71 3c 1a 09 c0 3d
       -0.07216169 -0.032082222 0.014725429 0.09376736
0000d0 f0 a4 a1 bd 03 47 86 bd 48 21 50 3c 44 21 82 bd
       -0.078927875 -0.06556513 0.012703247 -0.06354001
0000e0 d7 53 d9 3b 62 a9 b9 3c 49 68 b2 bd 19 d5 cc 3d
       0.006632309 0.022663776 -0.08711297 0.10001583
0000f0 63 b4 9a bd c3 ba 91 bd cf d6 44 bd ad da f5 bc
       -0.07553937 -0.071157 -0.04805642 -0.0300115
000100 61 0c 1f bd 1c c1 3c 3d ef 01 97 bd 04 96 a9 3c
       -0.038830165 0.0460826 -0.07373416 0.020701416
000110 95 24 81 bd e5 91 30 bb 36 e6 4a 3d 2e 9f e1 bd
       -0.063058056 -0.0026942429 0.049535953 -0.11016689
000120 96 99 fd bc cd fe 09 3d ea 41 ee 3c 4e 58 6b 3a
       -0.030957025 0.033690263 0.029084165 0.0008977697
000130 e6 0e 2b bc fe 33 a6 3d c7 25 0b 3d 54 39 0b be
       -0.010440564 0.081153855 0.033971574 -0.13596088
000140 84 ff c3 bd 20 83 94 3a 01 0b 65 bd 74 53 89 3d
       -0.0957022 0.0011330582 -0.055918697 0.067053705
000150 9d d3 f2 3c 08 57 cb 3d fe a8 d8 3d fd 25 a3 3a
       0.02964192 0.09928709 0.10579108 0.0012447234
000160 05 db 06 3d d7 60 8b bd 46 87 4d bc 71 57 96 3c
       0.032923717 -0.0680558 -0.012544459 0.018352242
000170 28 d6 8c 3c 57 d7 c6 3d 63 4a e6 bc b4 b5 71 bd
       0.017191961 0.097090416 -0.028111642 -0.059011176
000180 68 6b de 3d f5 86 3d bd 31 d3 5c 3d 30 ff 47 3a
       0.1086033 -0.046271283 0.053912345 0.00076292735
000190 c2 ae 88 bd da c9 a5 bd c5 fb e3 3c 61 fd 49 bb
       -0.066739574 -0.08095141 0.027830014 -0.0030821192
0001a0 70 51 ab bb 57 f8 2b 3d 77 df 5c bd 69 07 0e 3e
       -0.005228214 0.041984882 -0.05392405 0.13870014
0001b0 6e 50 54 3c b4 33 a6 bc 28 20 f3 bc 9d 7e 9c 3d
       0.012958629 -0.020288326 -0.02967842 0.07641337
0001c0 2f 49 8d bc 30 cb bb bc 92 7c 01 be 58 93 f2 bc
       -0.01724681 -0.022924036 -0.12645176 -0.029611275
0001d0 86 46 87 3c 79 30 d5 ba 2c 94 95 bb 29 b0 8a 3d
       0.01651312 -0.0016265056 -0.0045647826 0.06771881
0001e0 12 ef 8c 3a 8b 1c 05 3c a3 49 c6 bd 72 55 45 3c
       0.0010752401 0.008124481 -0.09682014 0.0120442975
0001f0 38 e0 3b bd 5e 3d 0b bd d5 3b 0f 3b dd 8f d4 bd
       -0.04586813 -0.03399407 0.002185573 -0.10379002
000200 98 e4 19 3e 0d 64 e4 bb 96 38 d4 bd 42 9b b5 bc
       0.15028608 -0.006969935 -0.103623554 -0.02216876
000210 14 53 2b 39 34 df c0 3d 3d ba c0 bc d5 91 62 3c
       0.0001633878 0.094175726 -0.023526305 0.013828714
000220 56 fd d9 bd 84 ca a5 bc 47 db 7b bd 6d ae 85 3c
       -0.10644023 -0.020238169 -0.061488416 0.016318524
000230 19 94 0c 3d 9b 6b 5e 3d 58 36 e4 3b 2b e8 93 bd
       0.034320924 0.05430184 0.006964486 -0.07222017
000240 2d d8 f1 3d 33 b8 33 bd ec f5 12 bd c2 17 89 3d
       0.118088104 -0.043876838 -0.03587906 0.066939846
000250 9b c1 32 bd 31 d8 53 3d 67 c0 38 bd 50 69 ee bd
       -0.043641668 0.051719848 -0.045105364 -0.116411805
000260 cc a7 88 bd 40 e5 af bc 77 1a 1e 3d e9 f7 70 3d
       -0.0667263 -0.02147162 0.038599458 0.058830176
000270 24 a6 8f bb 52 09 ac 3c c6 7c 51 3d ca 8f 78 3d
       -0.004383819 0.021000538 0.051144384 0.060684003
000280 ca 0a cf 3c df 1b b7 bd 39 a8 55 3c e1 32 37 3d
       0.0252737 -0.08940863 0.013040596 0.044726256
000290 45 7e 69 3d dd 81 c2 bc de 86 c5 bc 07 7e 48 bb
       0.057005186 -0.023743564 -0.024112161 -0.0030592696
0002a0 c7 28 f0 3d 62 24 1f be c3 c9 b7 bc 10 2b 97 3d
       0.11726528 -0.15541223 -0.022435075 0.073812604
0002b0 48 a1 c4 3d 4b df 9a bc 49 ee 85 3d 04 90 cf 3c
       0.096010745 -0.018905303 0.0653959 0.025337227
0002c0 55 f2 a9 bc 7d 71 3f 3d 10 60 ca 3d c1 9f d2 3d
       -0.020745436 0.04673909 0.09881604 0.10284377
0002d0 58 10 98 bd c9 3b 25 bd d9 2a 9b bb 34 9d e3 3b
       -0.07424992 -0.04034022 -0.0047353324 0.0069462303
0002e0 0c 7f 9a 3d 2f 7e a8 3d f6 5d 91 3c 48 ff d2 3c
       0.075437635 0.082271926 0.017745 0.025756493
0002f0 ab d2 57 3c 56 e4 aa 3d 16 0d 04 3a 6f e3 ba bc
       0.013172786 0.08344333 0.00050373503 -0.022813527
000300 37 f1 0d 3d fe 35 97 bc 24 17 85 3b 69 d8 64 3c
       0.03465387 -0.018458363 0.0040615965 0.013967612
000310 6c 81 f4 bc 8b 9d 23 3d 30 1c 5f 3d 42 3c ca 3d
       -0.02984687 0.039945167 0.05447024 0.098747745
000320 4d 75 88 bd f2 b6 e2 3c 06 6e 91 bc 9b ab 87 3d
       -0.06662998 0.027675126 -0.017752659 0.06624528
000330 38 fd 76 bd a3 5e 07 3c 62 7f ea bc 21 f7 23 bd
       -0.060300082 0.008262309 -0.028625194 -0.040030602
000340 f3 be a6 bd 00 00 f3 bc 00 12 d6 3d 42 41 c8 3d
       -0.081418894 -0.029663086 0.10452652 0.09778072
000350 4e fe 50 3d d8 36 26 3e 67 7a 8c 3d 94 b6 30 bc
       0.051023774 0.16231859 0.06859284 -0.0107857175
000360 1f 0f 36 3c 6c 2f 9f 3d 09 47 22 3c 34 f5 c6 bc
       0.011112004 0.07772717 0.009904631 -0.024286844
000370 ce b9 10 3b 15 9a 7c bc 1b de d5 bc 23 38 88 3d
       0.0022083404 -0.015417595 -0.026106885 0.06651332
000380 9b 1b be bd 60 e9 e7 3c ed 1a 62 3c 0b 29 46 3d
       -0.09282609 0.028309524 0.013800365 0.048378985
000390 b5 7a 9f 3c 6e 04 eb 3d 9d 7a e3 3d 04 0b 13 bd
       0.019467691 0.11475454 0.11107371 -0.035899177
0003a0 ed 8f 29 3d 50 e2 fd 3c 61 e7 35 bc e7 a8 9e bd
       0.041397024 0.030991703 -0.011102528 -0.07747059
0003b0 81 29 5b bb c1 ce be bd e6 80 99 3d dc 56 57 3e
       -0.0033441486 -0.09316779 0.074952886 0.21029228
0003c0 19 4d 89 3c e9 79 6e 3d 57 66 33 bc ed 11 78 bd
       0.016760396 0.05822173 -0.010949693 -0.06056397
0003d0 c3 56 4e bd 40 cb 4f 3d f4 81 58 bd a6 8a c0 3d
       -0.05037571 0.050730944 -0.052858308 0.09401445
0003e0 0d fa 0a bd ad e6 e5 3c f1 0b ab bb e5 c4 be 3d
       -0.033929873 0.028064096 -0.0052199294 0.093148984
0003f0 d0 c9 e5 3b ff e6 ef 3d f2 8b 8f bd a1 ad 12 3e
       0.0070125833 0.11713981 -0.07009114 0.14324047

network_body._body_endoder.seq_layers.2.bias f4 [256]
000000 52 b8 43 bc be fc 41 bc a9 21 10 3c c8 a6 41 3c
       -0.011945801 -0.011840044 0.008797088 0.011819549
000010 3c 81 11 bc 2e f0 80 bc cb 17 75 3c 1d b1 ee 3a
       -0.0088809095 -0.015739527 0.014959286 0.0018210743
000020 ea 86 94 bc b5 d4 6b 3b d0 53 5f bc 4e 81 77 bc
       -0.018130738 0.0035984938 -0.013630822 -0.015106512
000030 a0 ff 3a 3c 3f 44 1b 3c cb 34 47 3c 69 96 04 3c
       0.011413485 0.00947672 0.012158583 0.008092501
000040 ed b5 15 3c c1 28 6a 3b 91 82 14 3c 74 37 77 bc
       0.009137613 0.0035729858 0.009064333 -0.015088905
000050 ff e3 f1 3c b3 00 09 bc 73 19 68 3c 6f 7e 53 bc
       0.029527662 -0.008361983 0.014166224 -0.012908562
000060 b9 78 3c 3c 7d 1b d2 3b 92 9e 41 3c 13 c6 2e 3c
       0.011503392 0.0064119683 0.011817591 0.010667342
000070 73 34 3d bb 32 fe 7d bc 78 0a e7 3b 33 24 30 3c
       -0.0028870373 -0.015502499 0.0070508085 0.010750818
000080 2a 43 3d 3c b4 b4 e9 bb f5 17 83 bb ad 7c c5 3a
       0.011551658 -0.007132137 -0.0040006586 0.0015067064
000090 53 f6 09 bc d1 86 ae 3b 13 3c 09 3c 40 79 59 3c
       -0.008420545 0.00532613 0.008376139 0.013273537
0000a0 3c 80 88 bc ba f9 5d 3c d3 1d 7e bc ed c7 9c bb
       -0.01666271 0.013548309 -0.01551004 -0.004784575
0000b0 f9 c3 50 3c 08 e4 3f bc 3a 83 c2 ba d9 7b 4b 3c
       0.012742036 -0.011712082 -0.0014840134 0.012419664
0000c0 91 ec 29 bc 47 22 41 bc 18 71 33 3c ae 78 5a 3b
       -0.010371343 -0.0117879575 0.010952257 0.003333609
0000d0 a1 06 6c bc 41 67 a1 3b 7f 70 20 bc 14 26 3a b9
       -0.014405877 0.004925639 -0.009792446 -0.00017752527
0000e0 5e 28 22 bc a1 94 e0 3b b0 81 0e 3c 88 cf 27 3b
       -0.00989732 0.0068536554 0.008697912 0.0025605876
0000f0 b6 5d 44 bc 83 68 cf bb e8 e9 5f bb ca d8 59 3c
       -0.011985233 -0.0063295974 -0.0034166519 0.013296315
000100 d6 6c 02 3c b9 be 17 bc 10 5f 5b 3c 4e a8 2a 3c
       0.007960519 -0.00926178 0.013389364 0.0104161035
000110 4e 80 31 3a 70 f4 07 3c ed 62 5a 3c c2 fc 45 bc
       0.0006771133 0.008298025 0.01332925 -0.012084188
000120 4e 62 6d 3c b3 93 04 bc 92 73 e0 3c 34 14 fa 3b
       0.01448877 -0.008091855 0.027398858 0.007631803
000130 a7 f6 8c bc 47 91 38 3c ef 98 13 bb 93 fe 58 3c
       -0.017207457 0.011265106 -0.0022521575 0.013244289
000140 39 68 00 3c 28 e4 10 3c 29 c7 9a 3b 37 f3 61 3c
       0.007837349 0.008843459 0.004723449 0.013790897
000150 1b 00 c9 3b 99 a5 55 3c eb 22 af b8 5f 8e 33 bc
       0.006134046 0.01303997 -8.351154e-05 -0.010959237
000160 cb 2f ca 3b 51 52 0b 3c f0 1a fe 3b 3e dd d3 b9
       0.006170248 0.0085035125 0.007754676 -0.00040409894
000170 91 06 30 3c ed b6 e0 3b 68 ae 36 3c 91 35 2a 3c
       0.010743753 0.006857744 0.01114998 0.010388748
000180 5d fa 0d bb 86 5f fb bb 26 8e d9 3b 52 4b 2b 3c
       -0.002166412 -0.0076712994 0.00663926 0.0104549695
000190 29 81 39 3c f2 9d 42 3c 2f e5 10 3c 16 fd 53 3c
       0.011322298 0.011878477 0.008843704 0.012938758
0001a0 cd 51 5e 3c f0 d6 10 3c 70 8b 49 bc 20 4d 0f bc
       0.0135693075 0.008840308 -0.012301311 -0.008746415
0001b0 af f2 50 3c 04 ae 05 bc df 31 ae bb 14 19 1c bc
       0.012753173 -0.008159164 -0.0053160037 -0.0095274635
0001c0 a5 eb 5c bc 18 04 3e 3c 04 a5 62 bc fa f0 1e bb
       -0.013483916 0.011597656 -0.013833288 -0.002425252
0001d0 39 66 82 3b 15 eb 2b bc 36 89 58 bc fe 1f 8d bc
       0.003979471 -0.01049306 -0.013216307 -0.01722717
0001e0 c2 92 62 3c 69 6c 4f bc a1 67 3f 3c c5 22 59 bc
       0.013828935 -0.012660124 0.011682422 -0.013252919
0001f0 f3 6a 16 bc e9 70 16 bc a0 67 3b 3c c8 fe 62 bc
       -0.009180772 -0.009182193 0.01143828 -0.01385469
000200 3e 7a 5e 3c 38 a6 27 3c 7a d5 fd bb 9a 5f b0 3b
       0.0135789495 0.010232501 -0.0077463957 0.0053824903
000210 a6 96 65 bb 0b 4a 54 bc a2 19 3c 3c 25 dc 43 3c
       -0.003503242 -0.012957106 0.011480721 0.011954342
000220 1d d3 80 bc 48 8d 38 3c 70 4b a3 3c d8 37 2d bc
       -0.015725667 0.011264153 0.019933432 -0.010572396
000230 21 2c 68 bc 28 a1 4f 3c 6d 0e 79 bc f3 15 93 ba
       -0.014170677 0.0126727 -0.015201193 -0.0011221751
000240 d3 c9 7d 3c ae ae 31 3c 2f 54 df 3b 95 34 ad bb
       0.015490013 0.01084487 0.0068154554 -0.0052858093
000250 18 d7 0a 3c 52 21 37 bc 84 af 74 bc 35 fe ee 3a
       0.008474134 -0.011177378 -0.014934424 0.0018233719
000260 29 a7 2f bc 88 40 8a 3c 50 cf 25 bc 49 0d d5 3b
       -0.010721006 0.016876474 -0.010120228 0.006501828
000270 70 69 49 3c 45 33 32 bc e5 19 00 ba 4d 58 54 bc
       0.012293205 -0.010876481 -0.0004886671 -0.012960506
000280 0c a2 35 3c b0 39 7b 3c 88 54 e8 ba 06 6d 0b 3c
       0.011085998 0.015333578 -0.0017725388 0.00850988
000290 a0 f7 fc ba e1 31 86 3c 0c 9e 13 3c 46 b2 2f bc
       -0.0019299872 0.016381206 0.009009849 -0.010723656
0002a0 fa 54 20 3c e1 ee 0c 3c 06 8a 3e bc 32 43 ed bb
       0.009785885 0.008601875 -0.011629587 -0.0072406763
0002b0 c4 35 45 3c 6f 7a 44 3c 4c a5 b5 3c 1a 32 1e 3c
       0.0120367445 0.011992081 0.022173546 0.0096555
0002c0 09 26 7d bc 4a 32 51 bc 66 4d 3e 3c e9 fc 0c 3c
       -0.015450963 -0.0127683375 0.011615133 0.00860522
0002d0 fe ba e8 bb 81 e8 81 bc e0 19 39 3c ad 4b dc 3b
       -0.0071023693 -0.015857937 0.011297673 0.0067228884
0002e0 24 18 a0 bc c7 20 1e bc d0 6c 35 3c e1 4e fb 3b
       -0.019542761 -0.009651369 0.011073306 0.007669315
0002f0 b4 13 87 3c 2e bd 77 bc 1a d9 3e 3c e9 e2 04 3c
       0.016488887 -0.015120788 0.011648441 0.00811074
000300 40 af 7e 3c b7 40 33 3c 1c 54 3d 3c 7c 32 3a bc
       0.015544713 0.010940722 0.011555698 -0.0113645755
000310 c1 9f 47 3c 01 63 b5 3c 73 52 42 bc ea 7c 96 bc
       0.012184084 0.022141935 -0.011860478 -0.01837011
000320 dd 5f 8b bb 94 e4 26 bc 26 4e 72 3c 6a d1 2c 3c
       -0.004253371 -0.010186333 0.01478914 0.010547975
000330 00 9c 52 3c f0 1b 13 3c ba 34 82 bb 85 7a da 3b
       0.012854576 0.008978829 -0.0039735707 0.0066674375
000340 9c fd 3f 3c 54 69 69 3c 02 c5 61 bc e0 c3 41 3c
       0.01171818 0.014246304 -0.0137798805 0.011826485
000350 7d b4 99 ba 12 51 35 3c 10 8c 18 3c be 7b 09 3c
       -0.0011726763 0.011066692 0.009310737 0.008391319
000360 83 6c 51 bc ff 09 83 bc 72 30 a5 bb da 71 86 ba
       -0.012782219 -0.015995977 -0.0050411755 -0.0010257319
000370 2b c2 23 bc ba 64 70 bc dd cc 36 bc 2c 1b 22 bc
       -0.009995024 -0.014672453 -0.011157242 -0.009894174
000380 79 e3 c8 3b 91 bf 48 bc 41 fe 6d 3c f9 41 4b bc
       0.0061306325 -0.012252704 0.014525951 -0.012405866
000390 bb 00 48 3c 7f e9 bf 3b c1 f9 51 bc fc 70 2d 3c
       0.012207205 0.0058566923 -0.012815894 0.01058602
0003a0 da 64 87 3c 73 5b 69 3c 39 21 3d bb 21 56 71 3b
       0.016527582 0.014242995 -0.0028858914 0.0036825018
0003b0 a5 b3 44 3c a7 82 64 3c 62 12 e9 3b b9 56 43 3c
       0.012005721 0.013947166 0.007112787 0.011922532
0003c0 fe 6e 36 3c c4 f6 47 3c 10 25 23 3c 52 68 32 3c
       0.011134861 0.01220483 0.009957567 0.01088913
0003d0 a9 e9 89 3c fe 54 3a 3c aa 25 1d 3c 79 52 2f 3c
       0.01683505 0.011372803 0.009591499 0.010700815
0003e0 06 78 13 3c b5 82 5e bc e4 cf 63 bc 8d 51 37 bc
       0.009000784 -0.013580968 -0.013904545 -0.011188877
0003f0 c0 d9 34 bc 0e 4f b7 3c 49 16 b1 3b 51 dd 7c bc
       -0.011038244 0.022376563 0.005404268 -0.015433625

network_body._body_endoder.seq_layers.4.weight f4 [256, 256]
000000 5e ca 80 3d 25 cf 25 3d 0f dc e7 bd d4 89 26 3d
       0.062885985 0.04048075 -0.1132127 0.040658787
000010 8c 24 d2 3d cd 25 d2 3d e2 c8 b4 3b 6f c3 9e 3c
       0.10260877 0.10261116 0.005517111 0.0193803
000020 0e 32 76 bc 91 d5 9e 3c 52 b3 c0 3b 69 59 3f 3d
       -0.015026582 0.019388946 0.0058807516 0.046716128
000030 42 4b ac bd 23 40 79 3b 85 ad ae 3d 79 a2 64 bd
       -0.08412792 0.0038032613 0.0852919 -0.05581901
000040 25 a9 cd 3d 85 6e 83 3d c5 ad 0f be 5d 55 19 39
       0.100420274 0.06417564 -0.14031132 0.00014623017
000050 d8 1d 64 be 98 61 a5 3b 73 ba 8d 3d e7 92 27 3e
       -0.2227701 0.0050470345 0.06920328 0.16364633
000060 f5 77 9e bd c7 c1 0a bd 0f 90 1d 3d 01 5f c5 bc
       -0.07737724 -0.033876207 0.038467463 -0.024093153
000070 dc 8d b5 3c 0f 86 d4 bb 49 f8 6a bc 8c ee 27 be
       0.02216237 -0.0064857076 -0.014341422 -0.16399592
000080 7a 4c 58 3c ff 15 6c 3d 4d 53 3c bd 69 4d 99 3d
       0.013201827 0.057638165 -0.04597788 0.07485468
000090 6b 47 dc 3c 64 c9 a4 bd 2d d1 d0 3d f5 3e 7e bd
       0.026889523 -0.08046225 0.10196147 -0.06207176
0000a0 28 de 84 bc 19 0b 7d 3c 5d 21 b8 3d 4a 49 b3 bc
       -0.016219214 0.01544454 0.089907385 -0.021885533
0000b0 ae df ac 3b ba dc e9 bd 65 bb e5 3b 69 92 9e 3c
       0.005275688 -0.114190534 0.0070108646 0.019356923
0000c0 da f7 a7 3d 89 79 f0 3c e7 8a 5d bc 5d ae 91 bd
       0.08201571 0.029354827 -0.013521886 -0.07113335
0000d0 ad 2b 75 3d f1 27 d0 3d 81 33 94 b9 b0 6a 0b bd
       0.059856106 0.10163868 -0.00028267133 -0.034037292
0000e0 c0 ca cf 3d 5a 78 34 3d 13 5b 30 bd 6f 74 62 3b
       0.10146093 0.04406009 -0.043055605 0.0034554263
0000f0 a1 75 6a bd 9d df 24 bd b4 26 9e bd 29 e0 fb 3d
       -0.057241086 -0.040252317 -0.07722226 0.122986145
000100 6c 35 b5 3d d4 e3 90 bd 78 5c d0 bd d9 8b 39 bc
       0.0884808 -0.07074705 -0.10173887 -0.011324846
000110 c5 2b c5 bb 0f e6 f2 bd 4b f2 3a 3d 74 3c a9 3c
       -0.0060171806 -0.118602864 0.045641225 0.02065871
000120 0f 0d b0 3d 54 60 84 3b 7a 22 4f 3d 6b c6 e4 bc
       0.08596241 0.0040398035 0.05056999 -0.027926644
000130 20 f1 bd bd 02 77 5e 3e bf 89 78 3d e7 e0 f7 bd
       -0.092745066 0.21725085 0.06067824 -0.121034436
000140 f9 bc 78 3d 52 2c b1 bc aa aa 39 bd fd 8a c3 3c
       0.060727093 -0.021627579 -0.045328774 0.023869986
000150 28 0d 91 3c 02 61 c0 3d 4d 01 c0 3d 44 a3 2a bc
       0.017706469 0.09393503 0.09375248 -0.010414902
000160 db 9e 1d 3d 4b 44 14 bd 7c 3b 59 bd 9b f2 86 3c
       0.038481575 -0.03619794 -0.053035244 0.016473105
000170 2d 8f 98 3d 64 a8 a4 3d 88 8c a8 3d f9 42 38 be
       0.074491836 0.080399305 0.08229929 -0.17994298
000180 9f 72 39 3d 8f 0c 11 3d 2e 5c 03 3d 2f be ed bd
       0.045275327 0.035412367 0.03207033 -0.1160854
000190 39 5a 94 bd 97 94 68 3d 92 75 c8 bd 4a a9 d1 bd
       -0.07243771 0.05678233 -0.0978805 -0.102373675
0001a0 cc 96 87 bd be ce f0 bd 38 8e 4b 3d 53 8d fa 3c
       -0.06620559 -0.11758183 0.049696177 0.030584967
0001b0 cd 86 31 bd da 2e 5e bc ee 7b 43 bc 9c a7 8f bd
       -0.043341447 -0.013560975 -0.011931403 -0.07014391
0001c0 a8 72 98 bc 86 5f 00 bd 0b eb 09 bc 25 60 c3 3a
       -0.01860936 -0.0313411 -0.008417855 0.0014905973
0001d0 90 d7 bb 3d 0f a3 06 3e ca 56 b1 3d 95 cc ec bd
       0.09171975 0.1314814 0.08659132 -0.115624584
0001e0 2b 98 e7 3d 04 89 e3 3d fa a5 8a bd 33 18 97 3d
       0.113083206 0.11110118 -0.06769939 0.073776625
0001f0 f8 78 85 bd 43 16 23 bd 9e e2 e3 bd 4e 60 4b 3c
       -0.065172136 -0.039816152 -0.11127208 0.012413098
000200 68 9b 66 3c e7 38 0d 3b d3 c3 c1 ba 09 79 90 bd
       0.014075138 0.002154881 -0.0014783092 -0.070543356
000210 63 0f 25 3d 00 1b f3 3d a9 a8 ee 3b d9 42 b7 bd
       0.040297877 0.11870384 0.0072832895 -0.08948297
000220 bc cd 50 3c 16 4d 4b 3d 1b 73 8d 3d 49 b6 2b 3d
       0.012744363 0.04963406 0.0690672 0.041921888
000230 79 67 07 be 14 d1 3a 3e e7 a3 e4 3d 8f 01 c4 3d
       -0.13223065 0.1824382 0.111640744 0.0957061
000240 1a 09 6e 3d 73 0e bf bd ab dc dc 3a ba 77 8b bc
       0.05811415 -0.09328928 0.0016850432 -0.017024864
000250 d9 e2 3b bd cd 3a fd bc 75 d2 7a 3d e5 97 ad 3c
       -0.045870636 -0.030911827 0.061235864 0.021190593
000260 70 79 6c bd 95 4e e8 3d 09 7d 9b bb 8a 2a 15 bd
       -0.057733 0.11343113 -0.00474513 -0.03641752
000270 63 08 5e 3b 89 fe 00 3e 1a fa d8 3d 89 cd e1 bd
       0.003387951 0.12597097 0.10594578 -0.11025531
000280 ba 52 c4 bd ff 04 2d 3c b9 66 82 bd ff 87 79 bd
       -0.09586091 0.010560273 -0.06367249 -0.06092071
000290 39 76 5c bb f1 01 5b 3d 31 a0 03 bd 69 d3 22 3d
       -0.0033639802 0.05346865 -0.032135192 0.039752398
0002a0 06 49 51 bd 5d 81 cf bc 22 6a c4 3d 88 6a 9d 3d
       -0.05109503 -0.02533024 0.09590556 0.07686335
0002b0 00 bc d9 bc 13 1d ea 3c 2b 49 98 3d c6 6b 0d 3e
       -0.026578903 0.028578317 0.07435831 0.13810644
0002c0 a1 da 30 bd b2 78 8e 3d 0e ad f5 bd 4b 4d 3c bd
       -0.04317725 0.069566146 -0.11995898 -0.04597215
0002d0 b7 dc 8a 3d 80 fe 74 3d 56 22 35 3d ad 62 94 bc
       0.06780379 0.059813023 0.0442222 -0.018113459
0002e0 cf 75 0e 3d e0 61 90 3d 33 74 23 3e 95 f6 42 bc
       0.03478032 0.07049918 0.15962295 -0.01189961
0002f0 9b 39 e8 3c a3 64 c0 3c 40 cc 4d bd 3e cb f0 3c
       0.02834778 0.023485487 -0.050243616 0.029393788
000300 1a d9 64 3d e7 ac ef 3c e7 d9 14 bd 54 90 c0 3d
       0.055871107 0.029257251 -0.03634062 0.094025284
000310 43 fa b6 3d 61 a3 eb 3d 27 5a d8 3b 35 33 da 3c
       0.089344524 0.115057714 0.006602544 0.026635746
000320 95 9f df 3d 8b 98 8f bd 83 2a 02 3d 62 8c 3d bc
       0.1091911 -0.07011517 0.031778824 -0.011569114
000330 e3 fe bf 3b 64 c6 e3 bd 51 03 05 bd 42 98 1b be
       0.0058592423 -0.111218244 -0.032473866 -0.151948
000340 2f 3b 28 bd ff d6 05 bd ca fb 48 bd dc 9d 54 bd
       -0.041072067 -0.03267574 -0.04906825 -0.05190836
000350 7c 82 08 3e 8b a0 fa bb ee ea 3a bd 44 5b 7f 3d
       0.13331026 -0.0076485327 -0.045634203 0.062342897
000360 e6 be 7a bd 69 55 18 bd 32 27 91 bb 41 f1 f1 3d
       -0.06121721 -0.03719083 -0.0044297213 0.11813594
000370 6d 15 d1 3d 2d 7a c0 3d 56 e6 04 bd 6d 23 05 bd
       0.10209165 0.09398303 -0.032446228 -0.032504488
000380 bf db 31 3c f9 26 13 bc 52 53 1a bd 62 c7 a0 3d
       0.010855614 -0.00898146 -0.037677117 0.07850529
000390 89 c8 7f bd 54 ac 97 bd cf 48 f8 bd 28 9a 01 bd
       -0.062447105 -0.07405916 -0.12123262 -0.031641155
0003a0 db 63 81 3d 05 68 89 bc a8 83 73 bd c4 8c 7a bd
       0.06317874 -0.016773233 -0.05945173 -0.0611694
0003b0 f1 f0 55 3c 58 20 9c 3d 8e 4b 06 be d0 ee c0 bd
       0.013057933 0.076233566 -0.1311476 -0.0942055
0003c0 49 50 9b bd 6a ed 99 bd 5c 80 8e bb d8 c3 03 3d
       -0.075836726 -0.07515986 -0.0043487977 0.032169193
0003d0 23 9c 24 3d 71 96 91 3c c6 95 1f bc c1 7a de bc
       0.040187966 0.017771931 -0.009740299 -0.027158143
0003e0 33 4e 58 3d ea ad 99 3d ad 10 80 3d ff 98 e1 bc
       0.05280895 0.075038746 0.06253181 -0.027538775
0003f0 d5 3e b6 3d b0 8d 61 3c 04 b6 a0 bd b6 41 dd bc
       0.08898703 0.013766691 -0.07847217 -0.027008872

network_body._body_endoder.seq_layers.4.bias f4 [256]
000000 ae 44 9d bc dc f9 8b 3c 8b 47 a4 3b 4c fb 86 bc
       -0.019197788 0.017086916 0.0050134114 -0.01647725
000010 67 0a 77 3c 17 19 60 bc f5 19 68 3c 5b e1 52 3c
       0.015078164 -0.013677857 0.014166345 0.012871112
000020 06 6b 8c 3c 31 7a 92 bc 1c dc 2f bc bc e4 5d 3c
       0.017140877 -0.017880531 -0.0107336305 0.013543304
000030 99 f3 48 bc 62 01 8a 3c 98 1a 55 bc 83 ad 6a 3c
       -0.012265109 0.016846363 -0.013006829 0.014323595
000040 a3 6b 18 3c 70 50 8e bc 1e 6f 7c bc d3 c8 ee 3b
       0.009303006 -0.01737234 -0.015407352 0.0072871237
000050 7b a1 63 3b 15 fb f5 3b 1b 99 4c 3c f4 40 77 bc
       0.00347337 0.007506738 0.012487675 -0.01509117
000060 13 20 3d 3c 30 bf 44 3c 0e 40 6f bc fa c8 c4 bb
       0.011543292 0.012008473 -0.014602674 -0.0060054036
000070 12 ca 56 3c 0a df 7b 3c b1 b3 44 bb 60 7e 87 bc
       0.013109701 0.015373001 -0.003001433 -0.016539752
000080 ce ca f2 3b 77 64 a3 3c 86 08 83 3c ec f6 39 bb
       0.00740943 0.019945366 0.015995275 -0.0028375937
000090 bc 4d 33 3c cf 72 89 3c 2a 07 98 3b 60 1d 86 3c
       0.010943826 0.016778378 0.004639526 0.016371429
0000a0 d0 85 66 3c 02 19 6e 3c 6a ab 13 3c d8 c6 30 3c
       0.014069989 0.0145323295 0.009013036 0.010789596
0000b0 59 28 85 bc 12 c9 45 3c c2 98 d1 bb 52 ba 98 3c
       -0.01625459 0.012071865 -0.006396384 0.018643532
0000c0 85 df 59 3a 3f 8a 82 3c a0 c0 33 bc e1 70 75 bc
       0.00083112 0.015935061 -0.010971218 -0.014980526
0000d0 cc a2 85 3c 25 f6 89 3c d5 99 87 3c ba 02 81 3c
       0.01631298 0.016841004 0.016552845 0.01574837
0000e0 8c de 50 3c 6c 56 41 3c 76 4c 8c bc 89 49 37 3c
       0.012748372 0.01180039 -0.017126303 0.011186966
0000f0 c8 91 3a 3c b8 29 77 3c 43 95 86 bc d8 b7 7a bc
       0.011387296 0.01508563 -0.016428595 -0.015302621
000100 41 fe 89 3c d8 8b 77 bc a5 85 95 bc 87 94 98 bc
       0.01684487 -0.015109025 -0.018252203 -0.01862551
000110 be a8 67 3c 9c 3b 84 bc 09 0a 6d bc 25 c8 8e bc
       0.014139352 -0.016141705 -0.014467725 -0.01742942
000120 2d 1d 8b 3c 91 5f 02 3a 2d 10 74 3c 94 2d 80 3c
       0.016981686 0.0004973347 0.014896435 0.015646733
000130 b7 a5 66 3c 80 f0 61 bc a1 46 7c 3c f7 4a da 39
       0.014077595 -0.01379025 0.015397699 0.00041636053
000140 26 b2 77 bc 35 e1 6c bc 2b 90 64 3c 2d f6 59 3c
       -0.0151181575 -0.01445799 0.013950388 0.013303322
000150 44 39 63 3c 24 d2 a6 bb c5 52 31 bc 67 96 78 3c
       0.013868634 -0.0050909687 -0.010822956 0.015172577
000160 a1 07 49 bb ab 22 80 3c cb f5 62 3c 29 96 c0 bc
       -0.0030674713 0.015641531 0.013852547 -0.023509102
000170 1f 53 87 3c 40 47 9e bc 96 6d 94 bb 84 a8 5d 3c
       0.016519127 -0.019321084 -0.004529665 0.013528947
000180 98 19 7f 3c 10 9f 38 3c 1e 50 00 3c c8 bc 4c 3c
       0.015570067 0.011268392 0.007831601 0.012496181
000190 6c 93 3f 3c 19 28 13 ba 80 97 ee bb de b3 0d bc
       0.011692863 -0.000561358 -0.007281244 -0.008648841
0001a0 62 92 13 bc fa fe 52 3c e8 2f 75 3c 6e 66 83 3c
       -0.009007068 0.012878174 0.014965035 0.016040053
0001b0 76 f1 54 bc 9a c8 90 3b 83 d2 df 3b 16 62 86 bc
       -0.012997022 0.004418445 0.006830515 -0.016404193
0001c0 57 0a 4f 3c ac 57 8f bc fe 3a 24 3c df 08 61 3c
       0.012636743 -0.01749786 0.01002383 0.013735025
0001d0 e5 2c 84 3c 92 00 71 3b a9 02 47 3c 39 b6 67 bc
       0.016134689 0.0036774022 0.01214663 -0.014142566
0001e0 59 72 62 3c f4 6e 85 3b da ac ba bc 1f 8e 81 3c
       0.013821208 0.0040720645 -0.0227875 0.015814839
0001f0 b8 15 9c 3a 1e d1 4c bc e8 03 84 bc ab a6 8e 3c
       0.0011908328 -0.012501029 -0.016115144 0.017413458
000200 3a 4b 37 3c 94 b8 4d 3c 0b c6 f8 bb dd aa 85 bc
       0.011187369 0.012556214 -0.007591968 -0.016316826
000210 70 ae 5a 3c 8a 00 e6 ba a3 c9 75 bc 48 04 ea 3b
       0.013347253 -0.0017547768 -0.015001687 0.0071416236
000220 34 4c 65 3c 6d ee 62 bc 0c 71 b8 bb fa 0c d5 3a
       0.013995219 -0.01385079 -0.0056287106 0.0016254478
000230 a5 9f 57 3c 9b 4d 5c 3c cf ef 1e bb 49 2b 3b bc
       0.013160621 0.013446237 -0.0024251824 -0.011423894
000240 dd 86 90 3b 8e 8a 39 3c c6 c5 65 3c d9 e4 f3 3b
       0.004410608 0.011324538 0.014024204 0.0074430523
000250 96 fb 5a 3c bc 40 82 bc 39 da ec bb 49 6f 86 bc
       0.013365647 -0.015900008 -0.0072281626 -0.016410487
000260 83 aa 8e bc 13 ef f3 3b d2 69 49 3c 86 66 43 3c
       -0.01741529 0.0074442714 0.012293296 0.011926299
000270 60 20 5e 3c a6 42 01 bc d7 67 7d bc 8a 66 68 3c
       0.0135575235 -0.007889425 -0.015466652 0.0141846035
000280 14 f4 89 bc 04 aa 67 bc 41 1b 6f bc 77 07 01 3a
       -0.016840018 -0.014139656 -0.0145939 0.0004922072
000290 48 e1 65 3c 6e 46 3f 3c 7a 1b 8b 3c 83 69 81 bc
       0.014030762 0.011674507 0.016980875 -0.015797382
0002a0 f5 c2 80 bc c0 71 59 bc 8b 6c 5b 3c fc 8f 8b bc
       -0.015717963 -0.013271749 0.013392578 -0.01703643
0002b0 08 22 52 3c d1 91 05 3c fe 3d 17 3c d3 62 96 bc
       0.0128254965 0.008152441 0.009231089 -0.01835767
0002c0 d4 06 d2 3b 1e c0 70 3c 55 a6 52 3c 15 2b 70 3c
       0.0064095054 0.014694242 0.012857039 0.014658709
0002d0 94 6d 81 3c 68 63 69 3c e2 5c 67 3c 9d 44 8a 3c
       0.015799321 0.014244892 0.014121266 0.01687842
0002e0 0a 9a 79 3c b7 c4 31 bc 0b fc 85 bc 5d 7f d9 bb
       0.01523448 -0.010850123 -0.016355535 -0.0066374973
0002f0 b8 31 79 3c 21 82 83 3c 26 2a c8 3b 31 e0 78 bc
       0.015209608 0.016053261 0.00610854 -0.01519017
000300 11 31 81 3b c7 b5 4a bb 34 d6 a3 bb 13 29 e0 bb
       0.0039426167 -0.0030931102 -0.0049999002 -0.006840834
000310 90 98 69 3c 58 4f 41 bc 12 2d 71 3c 17 40 59 bc
       0.014257565 -0.011798702 0.014720218 -0.013259909
000320 d3 a7 75 3c 9f 13 66 3c 1c 95 7a bc 4b a6 81 3c
       0.014993626 0.014042764 -0.0152943395 0.015826365
000330 6e 26 54 3c 08 22 21 bc 8c 60 1b 3c 57 35 b4 ba
       0.0129486155 -0.009834774 0.009483468 -0.0013748807
000340 97 6f 6f 3c e5 5c 48 3c 33 4b 15 3c 7f ce ea 3a
       0.014614007 0.012229179 0.009112167 0.0017914324
000350 d4 74 8d 3c de 54 51 3c ea 12 7d 3c 47 09 20 3c
       0.017267622 0.012776582 0.015446404 0.009767837
000360 00 42 8c 3c 68 68 d4 3b b6 15 71 bc 33 62 4d 3b
       0.017121315 0.0064821728 -0.014714649 0.003133905
000370 c7 97 6e 3c be d2 80 3b b7 26 55 3c 44 ec 3f bc
       0.014562554 0.0039313724 0.013009719 -0.011714045
000380 2c 96 08 3c 54 70 33 3c de 76 0c 3c 54 ee 5c 3c
       0.008336585 0.010952074 0.008573262 0.013484556
000390 87 06 4f 3c 17 a4 51 3c c3 8f 1d 3c 99 59 5f 3c
       0.012635834 0.01279547 0.009616795 0.013632202
0003a0 26 c1 45 3c 83 ec 9e 3c a6 61 27 3c 54 db 6e bc
       0.012069976 0.019399887 0.010216152 -0.014578659
0003b0 33 fa 8c bc bb d3 82 3c 57 e4 5f bc 4f 2b 13 3c
       -0.017209148 0.015970102 -0.01366528 0.008982494
0003c0 dd 21 4e bc 4b 69 75 3c a5 22 3c bc 82 7d 97 bb
       -0.012581316 0.014978717 -0.011482869 -0.004623116
0003d0 7b ef 78 bc 8d 31 82 3c 6e 6f 72 3c 70 7f 65 bc
       -0.015193815 0.015892768 0.014797075 -0.014007434
0003e0 e0 af 84 3c fd ea 6d 3c 66 a3 60 3c 21 6f 6d 3c
       0.016197145 0.014521358 0.013710832 0.014491827
0003f0 ea 43 89 3c 30 76 72 3c fe 96 2f bc 03 c8 5b bc
       0.016756017 0.014798686 -0.010717152 -0.013414386

action_model._discrete_distribution.branches.0.weight f4 [3, 256]
000000 56 39 b2 3b 0f 3d 85 3c 37 c1 73 bb 94 35 0e 3c
       0.005438964 0.016264467 -0.0037194022 0.008679766
000010 52 2e af bb b5 c0 f8 3a 32 95 0d bd cc ff 09 3d
       -0.005346098 0.001897833 -0.034566112 0.033691213
000020 34 5c a8 3c 98 d6 45 3b 78 a5 00 3b 1c 45 0f 3c
       0.020551778 0.0030187722 0.0019629877 0.008744504
000030 ee b1 ac 39 d3 29 bd bb 92 c2 70 bb 95 b1 16 bb
       0.00032938964 -0.005772808 -0.0036737067 -0.002299403
000040 e9 bb 33 bc 69 34 03 3b 62 39 16 3b 6d ef 41 bc
       -0.010970094 0.0020020253 0.0022922386 -0.011836869
000050 4f c7 13 bc 36 8e 0a 3c f6 00 8e bc 65 63 52 3b
       -0.009019687 0.008456757 -0.017334443 0.00321027
000060 f7 52 6f 3c c7 39 d0 bc c8 e4 f3 3b 8e ff a5 3a
       0.014607183 -0.025418175 0.0074430443 0.0012664662
000070 87 d1 d0 3b e9 51 3c 3c 3e b5 a8 39 80 69 b5 3b
       0.006372634 0.011494138 0.00032178493 0.005536258
000080 d4 fb f9 3b c2 65 1c 3d b0 11 33 b9 c1 8c 29 3c
       0.007628897 0.03818298 -0.0001707736 0.0103485
000090 b6 cd 65 bc 58 3d e7 3a 75 34 d3 bc 60 88 80 bc
       -0.014026096 0.0017642183 -0.02578185 -0.015690029
0000a0 49 e5 31 bc 87 cd b7 3c 49 bb 73 bc f7 29 44 bb
       -0.0108578885 0.02243687 -0.014876195 -0.002993224
0000b0 2b 81 b1 3b c9 27 ba 3c a0 2d 8e 3b a3 60 a5 3c
       0.0054170093 0.02272405 0.004338935 0.020187682
0000c0 f9 21 13 bc 2c 6e c0 3a 77 7e b9 bb 36 82 14 bc
       -0.008980268 0.0014681271 -0.0056608277 -0.009064248
0000d0 23 07 be 3c 46 70 b0 bc 61 cf b9 bb 81 a6 a1 bc
       0.023196762 -0.021537911 -0.0056704734 -0.019732716
0000e0 86 6d 4e bc 0a 1f d8 3a 0d f3 09 3c 62 d1 69 ba
       -0.012599355 0.0016488743 0.008419764 -0.0008919445
0000f0 ca 1c e2 3c ce 1e ad bc 4a df cf 39 4d c5 41 3a
       0.027601618 -0.021132853 0.0003964848 0.0007391766
000100 9b 1e 11 3c 8f 92 33 3c bf 9f 96 bb 37 66 b6 bb
       0.008857395 0.010960235 -0.00459668 -0.005566384
000110 1e 90 79 bc 4a 6d eb 3b 46 d7 35 ba ac 2a 81 bb
       -0.015232114 0.007184659 -0.00069366803 -0.0039418545
000120 08 30 1b bc 60 68 33 3b c0 35 7d 3b b0 0c 16 3c
       -0.009471901 0.0027375445 0.0038636774 0.009158298
000130 3f 6e af bb ea 05 07 3c 74 2b ee bb 40 df ff 38
       -0.0053537185 0.008241156 -0.0072683636 0.00012200931
000140 07 de 8d 3b 36 53 ab 3a 23 70 6b bb ad 13 9b bb
       0.0043294462 0.0013071063 -0.0035924993 -0.00473257
000150 ca ae 6e bc 81 dd 14 bd 72 4f 70 bb ad b6 a3 3b
       -0.01456804 -0.036344055 -0.0036668447 0.004996142
000160 5f ee 02 3b 33 5b 7e bb a4 44 5e 3c a3 9e 06 3b
       0.0019978506 -0.0038811683 0.01356617 0.0020541332
000170 63 f1 06 bc 13 3a 67 3c c2 b8 78 3b 40 fc cf 3c
       -0.008236262 0.014112967 0.003795192 0.025388837
000180 73 7a 07 bb 25 b0 a4 3c 72 77 8f bb ad d9 b0 ba
       -0.002067235 0.020103524 -0.0043782527 -0.0013492607
000190 c9 54 36 bb dc 4d 15 bd 32 ef 42 bb 61 1f 09 bb
       -0.0027821532 -0.036451206 -0.0029744622 -0.0020923244
0001a0 26 18 e4 39 8a ff b3 3b bf c0 f6 bb f4 78 b1 ba
       0.0004350554 0.005493109 -0.0075303013 -0.0013540075
0001b0 69 8a 4d bb 48 54 d5 bc 17 f2 dd bb b9 0f 29 3c
       -0.0031363016 -0.026041165 -0.006773244 0.01031869
0001c0 58 05 ce bb b5 34 96 3c 5c ed 11 bc 28 dd 87 bc
       -0.006287258 0.01833568 -0.008906689 -0.016584948
0001d0 94 64 76 3c 2f ed 2b bb 41 91 7a bb 1a 3e 93 ba
       0.015038628 -0.0026233902 -0.003823355 -0.0011233718
0001e0 96 b4 dd 39 a1 57 93 3b 87 45 65 ba 01 57 1e 3c
       0.00042286952 0.00449653 -0.0008746017 0.009664298
0001f0 f5 7d 34 3c 10 96 09 ba a2 c6 5f 3c 17 b2 7d 3c
       0.011016359 -0.00052484963 0.013658198 0.015484354
000200 de 21 dc 3c e1 52 9b 3b ee 16 f8 3b 1e 0f f8 3b
       0.026871618 0.0047401045 0.007571093 0.0075701615
000210 22 03 b5 bc bb 73 2f 3c d8 94 8d 3b 0d d6 62 bb
       -0.02209622 0.010708745 0.004320722 -0.0034612447
000220 f8 fe eb bc df 8d 07 3c b9 79 66 3c 0a 2b a2 ba
       -0.028808102 0.008273571 0.014067107 -0.0012372446
000230 83 29 8c ba 82 9a ed bc e8 8d 9b 38 6d 88 b6 3b
       -0.0010693524 -0.02900434 7.417408e-05 0.0055704624
000240 c7 c7 04 bc 6b c1 95 bb ca ac 43 bc 58 48 b0 bc
       -0.008104271 -0.0045701764 -0.011943052 -0.021518871
000250 41 2d 0b bd c3 d9 ca 3b f2 84 09 bd 4b f5 58 3c
       -0.033978704 0.00619051 -0.033574052 0.013242076
000260 ba 96 9c ba fc 9d 5d bb c3 ec 3e 3b b9 38 f8 3b
       -0.0011946775 -0.003381609 0.002913282 0.0075751212
000270 40 db 16 bc 2a bf bc 37 7a 81 4d 3c f7 8e e3 3a
       -0.009207547 2.2500364e-05 0.012543077 0.0017361332
000280 2f b2 a1 3a 1a cc 9b 3a 4b b1 1c 3c 6c 74 14 bc
       0.0012336428 0.0011886389 0.009563754 -0.00906096
000290 62 30 62 bc 6d 52 0a bc 78 64 2c 3c b1 ae 5d 3a
       -0.013805481 -0.008442503 0.0105220005 0.0008456512
0002a0 8d 80 5c ba e3 36 b2 3b 57 2d 09 bc 98 a8 f1 3b
       -0.00084114895 0.005438672 -0.008372626 0.0073748343
0002b0 c8 1f 98 3b b2 a7 65 bb 73 fa 21 bd 7e a2 0b 3c
       0.0046424605 -0.003504258 -0.039545488 0.008522628
0002c0 c8 2c 68 bd 24 91 9a ba ba d4 13 bc e5 e5 bd ba
       -0.05668333 -0.0011792523 -0.009022886 -0.001448807
0002d0 a6 e3 1e 3c 13 d2 af 3b af cc 8c bc 21 70 b5 bb
       0.00969783 0.005365619 -0.017187444 -0.0055370484
0002e0 9e 07 a1 bc 33 18 1c 3b 70 6f 08 3c b0 06 56 3b
       -0.019656952 0.0023818135 0.00832735 0.0032657795
0002f0 55 6d 8c bc b0 8b a8 bc 60 36 36 bc 39 4a 37 3b
       -0.017141977 -0.02057442 -0.011121362 0.0027967824
000300 2d 84 e2 bb 79 3b 33 3b f3 11 79 3b 74 c0 06 bc
       -0.0069127292 0.002734868 0.0038005083 -0.008224595
000310 47 97 44 bc 0b 31 d7 bb 0f 37 81 3c 4e 52 e5 3b
       -0.011998958 -0.0065671257 0.015773324 0.006998337
000320 9d df c9 bb 62 28 e7 3b 60 b6 81 3c b0 97 9c 3b
       -0.00616069 0.0070543746 0.015834033 0.0047788247
000330 a5 0d 8f bc 70 b7 06 3c 22 d3 28 3c 33 e0 ca ba
       -0.01746256 0.008222446 0.010304244 -0.0015478194
000340 84 00 55 3c 6c 4a 3e bc df c0 21 3c a8 53 36 bc
       0.013000611 -0.011614423 0.009872644 -0.011128344
000350 78 e4 52 3b bd ca e6 ba 2c 85 99 3b c3 a2 7a 3b
       0.0032179635 -0.0017608028 0.004685065 0.0038243986
000360 83 86 ab 3b f8 ce e6 3c c7 ee 1c 3c fe 5c 1c 3c
       0.005234541 0.028174862 0.009578413 0.009543655
000370 da a7 90 bc 8d 56 d4 ba 6d 36 7e 3a 11 fe 1d 3c
       -0.017658163 -0.001620011 0.0009697441 0.009643094
000380 ac 2a 65 bc 74 b0 89 bc 7e 1c 02 3c ad 4c d8 bb
       -0.013987225 -0.016807772 0.007941363 -0.0066009373
000390 b4 52 15 bc 8f 7f 9c bb 79 8c 12 bc e3 a7 20 bb
       -0.009113956 -0.0047759484 -0.008944624 -0.002451413
0003a0 97 ed 73 bc 18 b9 a7 3c 9b 98 3e 3c 30 60 76 3b
       -0.014888189 0.020474002 0.011633064 0.0037593953
0003b0 48 af 1c 3c 88 74 36 bc 75 e3 d1 3b 04 00 5b bb
       0.009563275 -0.011136182 0.006405289 -0.0033416757
0003c0 a2 55 6d bb 02 7a c0 bc c6 f6 9d 3c a8 fd 09 bc
       -0.0036214371 -0.023495678 0.01928271 -0.008422293
0003d0 29 0b e7 bb 52 4e 69 ba c8 39 e2 3b 84 52 63 3b
       -0.007050891 -0.0008899915 0.0069038607 0.0034686634
0003e0 8e 13 75 3c 4f ea 67 3a 90 43 72 bc f8 c7 65 bc
       0.0149582755 0.00088468654 -0.014786616 -0.014024727
0003f0 b5 5e 0e 3c f6 99 c9 3c bd 17 89 ba 5e 21 85 3c
       0.008689572 0.024609547 -0.0010459345 0.016251262

action_model._discrete_distribution.branches.0.bias f4 [3]
000000 12 05 35 bb 3e c8 7d bc d8 36 8b 3c
       -0.002762143 -0.015489636 0.016993925
