results/updatedreward2/PlayerAgent/PlayerAgent-584.onnx (onnx, 546771 bytes, 11 tensors)

discrete_act_size_vector f4 [1, 2]
00000000: 0000 4040 0000 0040
3.0 2.0

network_body._body_endoder.seq_layers.0.weight f4 [256, 6]
00000000: 98f3 5f3f 9325 4f3f 3af4 40be afb5 f2bc
00000010: b082 553e af9c 463f 0706 87be 1f56 43bf
00000020: c81c 06bf c6ce 5d3e b0bd 83be a066 0abe
00000030: 11d2 ca3e 8a1a 4cbe 555f 2e3f 8e72 f83e
00000040: b91a 8cbe 15af 29bd c5fa 7ebd 64ca 5cbc
00000050: 45ed ff3e 8cab b13e 9b66 423e eeaa 57be
00000060: 1818 d5be dcb1 953e b259 ce3e 3cd5 0c3e
00000070: 4033 bfbc eb2f 623d d9c0 9f3e ca26 d2be
00000080: 6b6d 093f 8bee 1bbf 9ca5 64be 7524 de3e
00000090: ee37 893e 3764 16bf b02b 27be 6166 143f
000000a0: b9fe 1f3f e3b8 a73e 7b2d f2bd 328b a9be
000000b0: 1365 bc3d afa7 bfbe 5805 2a3e ede8 6f3e
000000c0: d1f4 be3e ea09 bc3e 23c3 17be ff81 06bf
000000d0: 699b 13bf c54e afbd d978 1a3e 93e2 02be
000000e0: 3488 10bf 84b4 87bd 327b 20be 80a0 c43d
000000f0: 7331 43bf e86a d63e f22b ebbe 1994 0dbf
00000100: eb6d efbd f1d1 423d b25b 963e c2e9 513f
00000110: 5b75 583f 10e0 99be ce75 333f aca6 efbd
00000120: 21fa f6be fb5d cdbd 5f91 16bf 9cb9 11bd
00000130: 724d 6dbd e232 913e 9f01 8a3e 2e3d 0c3f
00000140: 6b44 19be 9c58 413e 4989 693e fdaa f83e
00000150: ea19 9abc 8505 213f 53f3 cc3d b804 3b3e
00000160: b025 713e dacf 32be 5319 353e dae7 543f
00000170: 27e9 17be f680 4cbf 3905 32be 8f70 fb3e
00000180: 6c3c 913e 4acb 77be daaa 1f3f f9f6 45be
00000190: 1e41 373f fc07 35be 62fb 47bf b103 8e3e
000001a0: 4737 993d f9b2 a3be da71 663d e2f2 67bf
000001b0: e7a6 abbe bd20 11bf ed41 21be f321 06bd
000001c0: 58c8 aebe c699 43bd 7ea3 63bd 7152 703e
000001d0: 56e0 6c3c 0e1f f1be 4280 13bd 5e49 90be
000001e0: 1836 b23e 48d1 72bf a69d 7a3e ef86 523f
000001f0: 3c04 f03d 5e50 d5be db41 a0be f531 7ebe
00000200: b292 d63e 3e55 003f 5e36 2ebf 1110 2d3e
00000210: 1b22 0dbf e845 8d3e 6fc0 efbe 3c90 c6be
00000220: 95a3 a0be c2da 1bbe 9534 06bf e2a7 06bf
00000230: 1fff 05be d790 853e 7351 b13e 3b9c 99be
00000240: 817f 5c3f 2aaa 6fbe a519 abbe 06b0 bfbd
00000250: d7f8 81be a282 263f 5b2d 49be 970f 753e
00000260: 7655 1c3f 0cab 04bf 58dd 29bf d17d 3d3f
00000270: 87f0 3dbf 4aa7 a4be 3fc5 3b3f 26d6 3a3d
00000280: 0600 00bf fe5f afbe 8d73 233e c5e7 dabd
00000290: fdf5 1f3c e1ec a4be 3ed1 fd3e 6d23 723f
000002a0: 337c bfbd ca8b 6f3e 724d d7be 8a92 50bf
000002b0: 685b 943e 6fbe 1c3f 5434 45bf 3272 ac3d
000002c0: 870e b13e 3f07 4f3d 6ec4 f53e 7db8 353f
000002d0: 01fd c63e 2016 303e 9070 723e b4aa 38bf
000002e0: a69b 9ebd 996c e23d 6ac3 7bbd 14d4 3d3f
000002f0: 091f b1be 62ce 47be a946 bebe 76c6 263e
00000300: 0973 5fbd 650a 99bd e6a4 35be d1ef 8cbd
00000310: 0d5d f0bd e4ca 193e a088 893e 92d7 b6bd
00000320: e32f c03c 462e 163f 7a95 18bf ff1e 8c3e
00000330: b0b7 d63d f284 3d3f 22b6 283f 2c6e e3be
00000340: 2a96 ef3c 34a1 43bf d194 aebe 2f49 213d
00000350: 0e6e b23e ad25 c4bd d788 35be a62a 003e
00000360: 3cb9 083f 6e10 863e ab5f 123e 1426 333c
00000370: 2ad7 1b3d 095c 1a3f e441 2e3d f76f 773e
00000380: 7826 f0bd b02b e53d 3598 993e 23e9 12be
00000390: 0978 053f 6f73 cd3c 657c 383f a619 a0be
000003a0: c65d 3bbe bd60 6fbf 3b30 cbbd b9e7 c0be
000003b0: a6e4 22be d803 673f 38dd ca3e f8bd 0e3e
000003c0: ffdb 59be 0c18 0f3f 4482 a03e 54ed 733e
000003d0: 5b11 853e cccc b53d aaa7 c0bc 2a11 fdbe
000003e0: 86a5 653e 513a edbe ed90 783e ad95 773f
000003f0: eafb bd3d 11a2 5d3e a9e7 11bd 1f32 65be
0.8748107 0.8091671 -0.18843165 -0.02962765 0.20850635 0.7758283 -0.26371786 -0.76303285
-0.52387667 0.21660909 -0.25730658 -0.13515711 0.39613393 -0.19931999 0.68114215 0.48524898
-0.27364138 -0.041426737 -0.06225087 -0.013475988 0.4998571 0.34701192 0.18984453 -0.21061298
-0.41619945 0.29237258 0.40302807 0.13753217 -0.023339868 0.05522148 0.3120182 -0.4104522
0.53682584 -0.6091086 -0.223288 0.4338719 0.26800483 -0.58746666 -0.16325259 0.5796872
0.6249805 0.32758245 -0.11825081 -0.3311401 0.09198966 -0.3743262 0.16603601 0.23428698
0.37296155 0.36726314 -0.14820533 -0.5254211 -0.5765901 -0.08559946 0.15085162 -0.12781744
-0.5645783 -0.066262275 -0.15671995 0.096009254 -0.7624733 0.41878438 -0.45931965 -0.55304104
-0.11690887 0.047563497 0.29366833 0.8199731 0.8455407 -0.3005376 0.7010163 -0.11701712
-0.48237708 -0.10027691 -0.5881557 -0.0355774 -0.057935186 0.28359133 0.26954362 0.5478085
-0.14967506 0.18881458 0.22806276 0.48567954 -0.018811185 0.6289905 0.10007348 0.18263519
0.23549533 -0.17462102 0.17685442 0.8316628 -0.14835034 -0.7988428 -0.17384805 0.49109313
0.2836641 -0.24198642 0.62370074 -0.19332494 0.71583736 -0.17678827 -0.78117955 0.2773719
0.074812464 -0.31972483 0.05626092 -0.90604985 -0.33525774 -0.5669058 -0.15747805 -0.03274722
-0.34137225 -0.04775407 -0.05557584 0.23468949 0.014457783 -0.47094005 -0.036010988 -0.28180975
0.34806895 -0.9485059 0.244742 0.8223714 0.11719558 -0.41662878 -0.31300244 -0.24823745
0.41908795 0.5013007 -0.6805171 0.1690066 -0.55130166 0.27592397 -0.46826503 -0.38781917
-0.31374803 -0.15220168 -0.52423984 -0.5259992 -0.13085602 0.26087067 0.34632453 -0.30002007
0.86132056 -0.23404756 -0.33418003 -0.09359746 -0.25385162 0.6504308 -0.19646208 0.23931728
0.61067903 -0.51823497 -0.6635337 0.74020106 -0.7419514 -0.3215888 0.7334785 0.045614384
-0.50000036 -0.34252924 0.15962048 -0.10688738 0.009763238 -0.32211974 0.49573702 0.94585305
-0.09349861 0.23393169 -0.42051274 -0.814736 0.28975987 0.6122808 -0.7703297 0.084202185
0.34581396 0.05054402 0.48001426 0.7098463 0.38864902 0.1719594 0.23675752 -0.7213547
-0.07744531 0.110558696 -0.06146566 0.7415173 -0.3459399 -0.19512323 -0.37163284 0.16286644
-0.054553065 -0.07472686 -0.17738685 -0.06881679 -0.11736498 0.15018803 0.2686205 -0.089278355
0.023460334 0.5866436 -0.59603083 0.27367398 0.10484254 0.74030983 0.6590291 -0.44419992
0.029246408 -0.7641785 -0.34097913 0.039376434 0.3484959 -0.095774986 -0.17727982 0.12516269
0.53407645 0.2618441 0.14294307 0.0109343715 0.038046993 0.60296685 0.042543307 0.24163805
-0.11726087 0.11189973 0.29998937 -0.14346747 0.52136284 0.025079457 0.7206481 -0.31269568
-0.1829749 -0.93506986 -0.099213086 -0.3767679 -0.15907535 0.9024024 0.39621902 0.13939655
-0.21275328 0.5589607 0.31349385 0.23821002 0.25989804 0.088769525 -0.023517448 -0.49427158
0.22426423 -0.46333554 0.24274035 0.9671276 0.092765644 0.21643855 -0.03562132 -0.22382401

network_body._body_endoder.seq_layers.0.bias f4 [256]
00000000: c440 253b 7990 8437 ed07 353c c424 80bb
00000010: 8b3e 4a3c 2e68 583c 172e 423c 870e 5d3c
00000020: 46fc 1c3c 1cb0 313c 8d28 ef3b 5fd3 49bb
00000030: 03ab b33b bca4 563c dc9d d13b 055a 553c
00000040: 9b05 c23b 3597 5ebc 6173 65bc e073 c0ba
00000050: 414d 473c 96bd 603c f295 49bc c56d 55bc
00000060: 2319 603c 3f41 09bc a652 5c3c 78ad 2f3c
00000070: b519 e33b 7863 623c db2e 663c fea7 543c
00000080: cc4d a3bb f82c 063c 5535 53bc ed62 b2bb
00000090: 32a8 5d3c f36b 35bc 8776 50bc f55c 553c
000000a0: 6f3d 33ba cbf9 5f3c 3581 51bc 3fff 5c3c
000000b0: 62dc 313c d49d 52bc 46f7 443c b007 e6bb
000000c0: 2fbd 8abb 8add 473c 3bea 44bc 4706 60bc
000000d0: fc35 593c 1ad6 04bc 2b80 28bc 9d90 0bbc
000000e0: 6cf4 29bc 0757 4cbc b087 5d3c baa2 313c
000000f0: ab67 423b f92f e7ba 6f9b 52bc 7a7a 41bc
00000100: 84e3 48bc f524 5f3c 7241 5ebc 2588 653c
00000110: d7ba 5a3c 316d 4b3c da44 a13b bb48 803b
00000120: 7872 a3bb 1b55 49bc bcd8 60bc 7f8d 18bc
00000130: eb25 0c3c c2b9 593c fc02 603c 288f a33b
00000140: 138b 68bc 7efa 1bbc b6d1 30bc d013 6c3c
00000150: 6bc0 01bc 360d 5dbc 5100 1b3c 222d 423c
00000160: bc9b 223c b046 5d3c a1be 633c 6299 593c
00000170: 2bc0 5e3c 841b 663b 11cb 5bbc 7d77 403c
00000180: 11a9 503c cb0c c4bb 07a7 edbb 041d 61bc
00000190: fc67 573c f12a 5b3c 8e21 093c f5cb 213c
000001a0: dc21 56bc 897f 583c a1ad 603c 2166 13bc
000001b0: 1ccf 413c 44c9 5e3c 5a80 d33b 0274 55bc
000001c0: bb14 453c a9f7 5c3c 34c4 5b3c 383f 4fbc
000001d0: 4d8a 56bc 3fa6 273c 8ff9 633c e04c 603c
000001e0: 241c 5ebc 1d58 52bc bd6f 133c 6f1c 473c
000001f0: bd09 c4bb e31f f4b8 3b58 453c 28a3 583c
00000200: bb78 e0bb 4b64 573c da5f 563c ead5 5fbc
00000210: 5dd6 1b3c 177f 66bc 1854 63bc c446 d3bb
00000220: 3fa4 fbbb 3166 3f3c c1b3 643c 1af7 23bc
00000230: 099b 32bc 5753 5dbc 9856 3a3c 57ab 19bc
00000240: e743 57bc fe52 713c 0137 36bc cd64 59bc
00000250: cf27 1d3c d6e4 503c 1982 a83b a1d1 de3b
00000260: 0014 3c3c f7a6 0e3c a384 55bc 20f7 4f3c
00000270: f78f bbb7 1616 67bc c8ae 5fbc c1a8 53bc
00000280: db3a 433c 3a1b 90bb 6b69 63bb 6f9e 5f3c
00000290: 15e7 573c dcbc 583c 486b 5d3c 4163 393c
000002a0: 548d 5abc 94fb 573c 4e6b 53bc 631d 603c
000002b0: e92d 6e3c cb43 61bc bd53 61bc daaf 4ebc
000002c0: d04c 62bc 4976 603c dcb1 f1bb 6134 043c
000002d0: 6260 24bc b598 603c c5db d03b c6df 4bbc
000002e0: ca30 633c d50a 42bc afa3 9f3b cbb2 4fba
000002f0: f587 27bc 2696 613c d8f3 263c 6798 5fbc
00000300: b7cf cbbb 8fea e03b 14d1 3dbc 4902 523c
00000310: ed2b 55bc d3e9 f8bb ebe0 5d3c 8d81 1bbc
00000320: 20dd b73b 025f 16bc 314d 5d3c b4b1 e6bb
00000330: e2bd 563c cabc 57bc e6f0 5ebc e0ee f8ba
00000340: 66be 573c 5be2 bb3b 0017 5dbc 7e73 56bc
00000350: 5f4d 8a3b 83d9 63bc e0af 45bc 2559 2b3c
00000360: 1a16 5d3c dacc 5cbc dc36 5e3c 910f 613c
00000370: 0012 b93b 4454 2d3c 0fcf 6b39 273f 7abc
00000380: 1aeb 5e3c 6e54 5cbc 1c44 d6bb 6fae 6abc
00000390: 8fbd 233c a6dc 5cbc dc46 603c 948e d9ba
000003a0: 669f 09bc a47d d0bb 95aa 00bc f8bb 0bbc
000003b0: f05c 0c3c c06b 47bc 4666 613c 3b63 56bc
000003c0: 8b23 64bc 0f49 44bc c6e6 943b 6a04 343c
000003d0: 0bc7 633c bd79 e6ba 31c6 253c aa49 54bc
000003e0: c06c 243c a309 f7bb e1f9 0ebc 743c 333c
000003f0: e6c8 763b b493 5abc bcfb 80b8 7614 583c
0.0025215605 1.5802902e-05 0.011049253 -0.003910633 0.012344013 0.013208432 0.011851809 0.013492233
0.009581631 0.01084521 0.007298535 -0.0030796153 0.0054830327 0.013100799 0.006396992 0.013021951
0.0059210784 -0.013585855 -0.014004559 -0.0014682971 0.012164415 0.013717076 -0.012303816 -0.013026659
0.013677868 -0.008377372 0.013447439 0.0107225105 0.0069305548 0.0138176605 0.014049257 0.012979506
-0.0049836393 0.008189432 -0.012891133 -0.005443922 0.01352887 -0.0110731 -0.012723572 0.013022651
-0.00068374624 0.013670395 -0.012787153 0.01348859 0.010855766 -0.012855012 0.012021845 -0.0070199594
-0.004233978 0.012198815 -0.0120187355 -0.013673372 0.0132575 -0.008107686 -0.010284464 -0.008518365
-0.010373216 -0.012471921 0.01352112 0.01084202 0.0029663842 -0.0017638198 -0.012854441 -0.011808986
-0.012261275 0.013619651 -0.013565408 0.01400951 0.01335021 0.01241617 0.004921538 0.00391492
-0.004988011 -0.012288357 -0.0137235485 -0.009311079 0.008553962 0.013288917 0.0136725865 0.004991431
-0.014193314 -0.009520171 -0.0107921865 0.014409021 -0.007919411 -0.013491919 0.009460525 0.011851581
0.009924825 0.013505623 0.01390043 0.013281198 0.013595621 0.0035111615 -0.013415114 0.011747238
0.012735621 -0.0059829704 -0.007252577 -0.013739828 0.01314735 0.013376937 0.0083698165 0.009875287
-0.013069596 0.0132140005 0.013713271 -0.008996517 0.011829164 0.01359779 0.0064545097 -0.013028147
0.012028868 0.013486781 0.013413478 -0.01264935 -0.013094497 0.010232507 0.01391448 0.013690203
-0.013556514 -0.012838391 0.008998808 0.012152775 -0.005982606 -0.00011640766 0.012044962 0.013222493
-0.0068503297 0.01314647 0.013084376 -0.013661841 0.009511557 -0.0140683865 -0.01387503 -0.006447645
-0.007679492 0.011682079 0.013958872 -0.010007644 -0.010901221 -0.013508639 0.011373185 -0.0093792295
-0.013138748 0.01472926 -0.011121512 -0.013268662 0.009592011 0.012749871 0.005142462 0.006799892
0.011479378 0.0087068 -0.013032111 0.012693197 -2.2359176e-05 -0.014104387 -0.013652511 -0.012918652
0.011915888 -0.004397777 -0.0034700285 0.013648613 0.013177653 0.013228621 0.013514347 0.011315168
-0.013339359 0.0131825395 -0.012904001 0.013678881 0.014537313 -0.013749073 -0.013752875 -0.0126151685
-0.013812259 0.013700076 -0.007375939 0.008069129 -0.010032745 0.013708283 0.006373855 -0.012443488
0.013866613 -0.011843403 0.0048718075 -0.00079230656 -0.010225286 0.013768708 0.010189973 -0.013647175
-0.00621983 0.006863899 -0.011585493 0.012817928 -0.013010961 -0.0075962334 0.013542394 -0.0094913365
0.005611077 -0.009177925 0.013507173 -0.007040227 0.013106795 -0.013167569 -0.013607239 -0.0018992089
0.013167953 0.005733771 -0.013494253 -0.013089059 0.004220649 -0.013906839 -0.012065858 0.010458265
0.013494039 -0.013476575 0.013562884 0.0137366215 0.0056478977 0.0105791725 0.00022488482 -0.015273846
0.013605857 -0.013447864 -0.006538881 -0.014323815 0.009993925 -0.013480341 0.013688769 -0.0016598278
-0.00839982 -0.006362634 -0.00785317 -0.008528702 0.00856708 -0.012171686 0.013757294 -0.013085182
-0.01392449 -0.011980309 0.004544112 0.0109873805 0.013902436 -0.0017583888 0.010118053 -0.012957016
0.010035694 -0.0075389906 -0.008726568 0.010939706 0.0037656366 -0.013340879 -6.150405e-05 0.013188472

network_body._body_endoder.seq_layers.2.weight f4 [256, 256]
00000000: 43bb f83c 00f5 b7bc 6f56 4ebd 1a99 d03d
00000010: 7211 59bd 4e72 b7bd b377 9ebb 96b0 a33b
00000020: d82c adbd 87a3 a5bd f8b2 283d 541f 143d
00000030: 166c de3d 6c50 e4bd c71f f5bd 52b9 3cbd
00000040: 4c39 65bc 60a5 463d 71bb 26bd c93c a6bc
00000050: a2b9 de3d 5a94 7dbd c3e5 cc3c 8857 8bbd
00000060: 235e afbd ed5e 003e 881b d7bc e88a 483d
00000070: 0c76 a5bd 1e5e 2a3d 9655 0dbd 4724 87bc
00000080: 1d41 643d 4960 dc3d ed05 99bc 947b 8cbd
00000090: 7418 143d 4d13 b03d 5bcb e13d 9259 ddbd
000000a0: dc40 bf3c 88d8 903d 36b2 ff3c 9845 d2bb
000000b0: c490 383c be7e d1ba d85c 943b 5526 253d
000000c0: e30a 9ebd ead8 f2bc 16f9 573c 561b c43d
000000d0: c338 a5bd 1089 82bd a482 483c 14d5 79bd
000000e0: 7148 d93b 6ce4 b53c a4ee bbbd b411 cf3d
000000f0: b871 96bd 3fec 8cbd 6dc3 3dbd 49dc dfbc
00000100: 7280 28bd 2190 403d 8b3f 9abd 3d17 bd3c
00000110: 7183 85bd 0cac 6bba 105c 3f3d 4751 ddbd
00000120: 2942 01bd 73f3 3e3c 5773 dc3c a6a0 553b
00000130: e32f 01bc ddaf 993d 76ee 083d 2b66 09be
00000140: 6e9d bfbd e0ee 6ebc b1f2 5abd 7833 393d
00000150: a5b9 f23c d6d6 8d3d 70db da3d 449f 5a3b
00000160: d8ea 063d da74 78bd d408 81bc 5831 a73c
00000170: 4f01 9c3c a599 cb3d 93fd d4bc e698 80bd
00000180: 13cc e23d 49b8 3fbd 500f 153d 65dc ccba
00000190: c02b 8fbd a3e0 b0bd 7dd7 e53c 043f 0bbb
000001a0: aeb5 6ebc 2453 1b3d 6369 52bd 1ad6 0f3e
000001b0: 39c2 793c ef83 6fbc b430 02bd 49de 9a3d
000001c0: 29e1 73bc bfae c4bc a798 f4bd dd09 e1bc
000001d0: 049c 873c 3636 67bb 4a7f 28bb e7fc 8e3d
000001e0: f7f4 f6bc ad2b 3bbc 776a c1bd b9ce b03b
000001f0: 77a3 3fbd 18f8 16bd b5bc 8a3b e4d9 d9bd
00000200: 7fd9 1b3e 6b82 88bc 5689 d7bd c0c1 b2bc
00000210: 517f 58bb e60f bf3d c6ca b2bc c96e 333c
00000220: 84fb d5bd 9d07 e7bc 17cb 71bd 5782 5c3c
00000230: 95e2 f13c 6875 413d b318 173c cb5e 8fbd
00000240: 43fd f23d dc73 93bd 8f57 09bd f12c 633d
00000250: 0c50 29bd ba78 5e3d b0d4 49bd 6f17 f6bd
00000260: a9fc 83bd bc84 1dbd a757 193d a5f8 793d
00000270: 9fc9 faba 8e07 c13c e787 5b3d bc2b 5a3d
00000280: 67bf e03c 3898 b5bd c7ce 433c cdd2 393d
00000290: 18d8 393d f93d d7bc 9e85 b4bc da66 6eba
000002a0: e538 f13d 5851 25be b86d babc 5838 853d
000002b0: 518d c93d 682c 8dbc 9778 8a3d ee9c ba3c
000002c0: 55e3 a9bc c53b 483d 9ef3 ce3d cc38 d73d
000002d0: b5d4 95bd e811 3bbd a505 3dbb edf2 153c
000002e0: 617c 933d 3ed2 a53d a881 a53c bff8 e53c
000002f0: dc42 9c3b 44a2 af3d b127 2c3b a814 bdbc
00000300: 947e ab3c 6541 a6bc bcce a83b a126 3dba
00000310: dde5 f6bc aec5 193d 12aa 063d f181 c63d
00000320: 32e9 83bd cdff e53c 8358 7ebc 65e1 803d
00000330: 247e 82bd 4959 523b 5578 e4bc 04fb 2cbd
00000340: 9a76 a1bd a6a7 e0bc e8d3 da3d 91cb c53d
00000350: 2519 5a3d 6d58 283e ab60 8f3d d912 07bc
00000360: 4845 013c 9d75 a43d 8b55 163c ba97 b0bc
00000370: 40d7 fb3a 08ff 57bc b555 c3bc 0f5a 8c3d
00000380: ef68 c0bd b607 de3c 177a e53b f932 503d
00000390: 1330 863c 3706 e83d a719 e83d a1c3 18bd
000003a0: 6dd2 323d 82d4 073d e6cc 41bc 8691 9dbd
000003b0: ae23 f8bb af63 c5bd 0e4c 9d3d dd62 4c3e
000003c0: ddb2 3d3c 80bb 773d 842e 4fbc 3c25 84bd
000003d0: 040e 45bd 2ffa 523d 0a07 59bd f51b 853d
000003e0: cbd8 00bd b015 cd3c 10a7 98bc 737b c33d
000003f0: 3692 33bc a375 f43d 66fb a4bd f3fd 103e
0.03036273 -0.022455692 -0.0503754 0.10185452 -0.052995153 -0.08957349 -0.0048360466 0.004995416
-0.08455819 -0.08087831 0.041186303 0.03616269 0.108604595 -0.11148152 -0.11968952 -0.046075173
-0.013990711 0.048497558 -0.0407061 -0.020292656 0.108752504 -0.061909057 0.025011903 -0.06803805
-0.08562877 0.12536211 -0.026258245 0.048960596 -0.08079156 0.041593663 -0.03450545 -0.01649679
0.05572616 0.107605524 -0.018679583 -0.06859508 0.036156133 0.08597431 0.11025115 -0.108081
0.023346357 0.0707255 0.031212907 -0.0064169876 0.011264984 -0.0015983207 0.0045276694 0.04031976
-0.0771692 -0.029644448 0.013181945 0.095755264 -0.08067467 -0.06373799 0.012238178 -0.060994223
0.00663095 0.022203647 -0.091763765 0.101107985 -0.07345909 -0.06880998 -0.04632895 -0.02732672
-0.04113812 0.047012452 -0.07531651 0.02308237 -0.06519211 -0.00089901756 0.046718657 -0.10806518
-0.031557236 0.0116547225 0.026910467 0.0032596975 -0.007884952 0.075042464 0.03343054 -0.1341788
-0.09356199 -0.014583319 -0.053454105 0.0452151 0.029629538 0.06925742 0.10686386 0.003335909
0.03293881 -0.060658313 -0.01575128 0.020409271 0.019043593 0.09941415 -0.02599982 -0.06279163
0.1107408 -0.046806607 0.036391556 -0.0015629648 -0.069907665 -0.08636596 0.028056854 -0.0021247277
-0.014569683 0.037921086 -0.051370036 0.14046517 0.01524406 -0.014618858 -0.03178473 0.07561929
-0.014885225 -0.024009107 -0.119431786 -0.027470523 0.016553886 -0.0035280115 -0.0025710636 0.06981831
-0.030146105 -0.011423987 -0.09444135 0.005395737 -0.04678675 -0.036857694 0.0042339214 -0.106372625
0.15219687 -0.01666375 -0.105242416 -0.021820903 -0.003303487 0.09329204 -0.021825206 0.010951706
-0.104483634 -0.028201872 -0.059031572 0.01345881 0.029526988 0.047231108 0.009222197 -0.07000502
0.11864712 -0.07199833 -0.033530768 0.05546278 -0.041336104 0.054314353 -0.0492751 -0.12016188
-0.064446755 -0.038456663 0.037437107 0.06102814 -0.0019133574 0.023563173 0.053596403 0.053264365
0.027435018 -0.08866924 0.011951155 0.04536705 0.0453721 -0.026274668 -0.02203637 -0.00090943056
0.1177843 -0.16144311 -0.022757396 0.06504887 0.09841407 -0.017233089 0.06761282 0.022779908
-0.020738283 0.048885126 0.1010506 0.1050888 -0.07315961 -0.045671374 -0.0028842476 0.009152156
0.07201458 0.08096741 0.020203426 0.028072713 0.0047687124 0.085758716 0.0026268775 -0.023081139
0.02093438 -0.020294854 0.005151598 -0.0007215534 -0.030138904 0.037542038 0.032877035 0.09692753
-0.06440963 0.028076077 -0.0155240325 0.062929906 -0.06371716 0.0032096675 -0.02788941 -0.042231575
-0.078839496 -0.027423691 0.10684949 0.09657968 0.053246636 0.16439982 0.0700086 -0.00824424
0.007890053 0.080302455 0.0091756685 -0.021556724 0.001921393 -0.013183363 -0.02384458 0.06853115
-0.093950145 0.027103286 0.0070030796 0.05082986 0.016380345 0.113293104 0.11333018 -0.03729594
0.04365771 0.033161648 -0.011828637 -0.07693772 -0.0075726127 -0.09638154 0.07680522 0.19959588
0.011578289 0.06048155 -0.0126453675 -0.064524144 -0.04810907 0.051508125 -0.05298523 0.06499473
-0.03145675 0.025034755 -0.01863435 0.095450304 -0.010960152 0.119365 -0.08055763 0.14159374

network_body._body_endoder.seq_layers.2.bias f4 [256]
00000000: 1cb2 3abc 34b8 05bc 3491 343c d1a4 5a3c
00000010: 44b3 37bc f40b 5fbc 18f5 6d3c 7a24 a6ba
00000020: 3180 39bc f1ed e73b 85b4 41bc cafb 5cbc
00000030: 0975 6f3c 74f4 683c 2ee2 f43b ec67 253c
00000040: ff9b 383c 5590 14bc d1db 2b3c 6299 60bc
00000050: 9e2c 143a a25f 64bc 13af 5e3c 9bb8 62bc
00000060: a268 683c 9240 613c 6012 5b3c b1d6 603c
00000070: c025 6cbc 1213 5abc 7275 2e3c 02c0 643c
00000080: c665 5b3c d428 65bc d9f1 2abc a828 da3b
00000090: 6780 2bbc d27e 1b3c e393 2f3c ab8a 5a3c
000000a0: 9f46 58bc f3d3 363c 7d1e 5bbc b117 bfbb
000000b0: 2fac 5f3c 78ab 61bc fed5 03bc 37fa 5b3c
000000c0: a783 2abc c1be 62bc fd57 6a3c de38 fa3b
000000d0: 4605 61bc 6ac0 c8bb 6613 5cbc f9e3 6c3b
000000e0: f9d3 fabb f173 0e3c 3d33 6a3c fbf7 8d3b
000000f0: c271 57bc 6e88 47bc ab60 62bc 6dc7 6a3c
00000100: d7f9 413c 6660 63bc 7eac 633c c7aa 193c
00000110: 9b37 103c d3ab 693c 347d 553c efb1 63bc
00000120: 710f 643c 7154 11bc f15f 54ba eb6b 163c
00000130: 227b 57bc 3a9e 723b c344 01bc 6538 583c
00000140: 44dd 343c 0143 1d3c 1619 1a3c 64af 5d3c
00000150: ed81 00bc 1e20 613c eb9b 9bbb b6d4 66bc
00000160: 7271 2e3c b994 0dbb 71ca 663c cc13 84bb
00000170: d59e 333c 5a11 433b ce17 683c 966d 3e3c
00000180: 1676 5dbc d067 5abc 243e ba3b 269a 463c
00000190: 5487 673c b313 623c 09e0 6a3c 223e 5c3c
000001a0: bbf3 4b3c 27f6 463c 63c1 3dbc ca5e 60bc
000001b0: ce45 673c 9de8 69bc aedd 67bc 6b54 5abc
000001c0: 2f03 52bc be54 653c 6083 5cbc ec63 8b3b
000001d0: 1e28 b538 d0de 2fbc 3cb1 53bc 8d01 66bc
000001e0: e603 713c 3449 54bc df44 5f3c e4ad 5dbc
000001f0: f0bb 66bc 3e6a 39bc f6a4 453c cc5c 62bc
00000200: a079 4f3c 1657 733c 4915 42bc 0aa3 313c
00000210: f21f 22bc ff57 5ebc ef81 183b 341a 663c
00000220: c77a 65bc 7a1e 593c 36d2 513c 9d51 12bc
00000230: 5a33 5ebc 8aac 2a3c a884 57bc 7260 e7bb
00000240: fbba 513c c56b 273c 46dd c23b 1c1b 54bc
00000250: abac 5d3c 51e1 64bc e8fe 62bc 2d44 663b
00000260: 1d88 44bc 38bf 3b3c b2fa 4ebc 3210 1d3c
00000270: c11e 613c ef52 68bc cdd8 983b ae86 58bc
00000280: e2b6 4a3c 198a 5e3c 52da ea3b 654c 603c
00000290: 39e7 63bc bb4a 503c 744a 573c c3d6 28bc
000002a0: b331 673c 9f0a f73b bed9 5dbc b7dc 66bc
000002b0: d12f 37bc 0efa 5f3c 17ae fa3b 51cc 4a3c
000002c0: 4e69 70bc 7927 34bc 2805 3d3c 8198 7d3b
000002d0: b297 07bc 1273 60bc 71d9 683c 3c67 df3b
000002e0: 52c3 1abc 49dc 64bc e9e1 3f3c aa75 263c
000002f0: 09fe ea3b f97d 63bc cb9d 603c c574 393c
00000300: fb5e 643c e8bc 643c 750e 5d3c d010 3bbc
00000310: 219f 5d3c de51 323c 62b1 5abc 24e4 5abc
00000320: 64eb 11bc 2227 50bc bb82 0f3c 2b63 573c
00000330: 8b6b 613c 05d1 4d3c 21f5 0cbc dc5b 5c3c
00000340: 42f2 543c 61fd 633c d97e 61bc 0d64 483c
00000350: 8be3 14bc 0d37 4a3c 3395 543c 8726 703c
00000360: b10c 41bc c840 5ebc ccb9 20bc 16cd 51bc
00000370: 5c3f 44bc df27 62bc a226 69bc 2d35 51bc
00000380: 7bd4 4a3c 4712 5fbc 1004 40bb 9b16 48bc
00000390: 3724 603c 5300 533b f41a 66bc 7a7c 5b3c
000003a0: bae9 233c 69ca 6b3c b914 38bc 0ce6 093c
000003b0: fdef 6c3c f9cb 3a3c f646 e93b 840f 653c
000003c0: 6454 233c deed 4a3c 6dc8 6b3c 4cd4 b33b
000003d0: af40 123c 0877 6f3c bbe8 5c3c cdf3 5c3c
000003e0: d820 763c 3a0a 59bc 1760 5ebc 950e 5bbc
000003f0: 51d4 53bc 020d 523b c553 f43b 4bee 57bc
-0.011395004 -0.008161593 0.011020947 0.013344959 -0.011212174 -0.01361369 0.014523767 -0.0012675666
-0.011322067 0.0070779254 -0.011822824 -0.013487766 0.014615306 0.014218438 0.007473252 0.010095578
0.011267661 -0.009067615 0.01048942 -0.013708444 0.00056524004 -0.013938816 0.013591546 -0.013837959
0.014185103 0.013748305 0.01337108 0.013723061 -0.014413297 -0.013310211 0.010648118 0.013961794
0.013390964 -0.013986785 -0.010433638 0.0066576786 -0.010467625 0.009490686 0.010716411 0.013338725
-0.013200431 0.011158931 -0.013373968 -0.0058316817 0.013651892 -0.0137737915 -0.008046625 0.013426355
-0.010407365 -0.013839425 0.014303205 0.0076361736 -0.013734167 -0.006126453 -0.013432359 0.0036146624
-0.0076546636 0.008694635 0.014294443 0.00433254 -0.013149681 -0.0121785235 -0.013816993 0.014329773
0.011839352 -0.013877964 0.013896106 0.009379095 0.00880232 0.0142621575 0.013030339 -0.013897403
0.013919697 -0.00887023 -0.00081014546 0.009181003 -0.013151916 0.003702058 -0.007889929 0.013197039
0.011039082 0.0095984945 0.009405395 0.013530586 -0.007843477 0.0137405675 -0.0047488115 -0.0140888
0.010647165 -0.0021603538 0.014086352 -0.0040306803 0.0109631615 0.002976498 0.014165832 0.011622807
-0.013516923 -0.013330415 0.0056836773 0.012121713 0.014131386 0.013798642 0.014335641 0.013442548
0.012448247 0.012143648 -0.0115817515 -0.0136944745 0.014115764 -0.014276651 -0.014151974 -0.013325791
-0.012818142 0.013997255 -0.013459057 0.004253855 8.638225e-05 -0.010734275 -0.012920674 -0.014038456
0.014710402 -0.012956906 0.01362726 -0.013530228 -0.014082894 -0.011316834 0.0120632555 -0.01381607
0.012663275 0.014852306 -0.011845895 0.010842094 -0.009895312 -0.013570785 0.0023270806 0.014044333
-0.014006323 0.013251895 0.012806466 -0.008930591 -0.013562048 0.010417113 -0.013154186 -0.0070610577
0.012800927 0.010218565 0.005946788 -0.0129459165 0.013529937 -0.013969735 -0.01385472 0.003513585
-0.011995343 0.011459164 -0.012633013 0.009586381 0.013740242 -0.014179929 0.0046645165 -0.013215704
0.012372704 0.01358273 0.007167139 0.013690089 -0.013910108 0.01271313 0.01314031 -0.010305109
0.01411097 0.007539108 -0.013540683 -0.014090708 -0.011180834 0.0136704575 0.0076501477 0.012377814
-0.014673544 -0.010995739 0.011536874 0.0038695636 -0.008275913 -0.01369931 0.014211998 0.0068177264
-0.009445982 -0.013968536 0.011711576 0.010159889 0.0071713966 -0.013885015 0.013709496 0.011319344
0.013938661 0.013961054 0.013492216 -0.011417583 0.013526709 0.0108837765 -0.013347955 -0.013360057
-0.008906219 -0.0127046425 0.008759196 0.013146202 0.01375855 0.012562041 -0.008603365 0.013449635
0.012997212 0.013915391 -0.013763153 0.012230885 -0.009087454 0.012342227 0.012975025 0.014657623
-0.011782811 -0.01356525 -0.009809922 -0.012805244 -0.011977997 -0.013803451 -0.014230402 -0.012769026
0.012379761 -0.0136151975 -0.0029299296 -0.012212421 0.013680509 0.0032196238 -0.014044512 0.013396377
0.010004455 0.01439152 -0.011235409 0.008416664 0.014461515 0.01140117 0.007119055 0.01398075
0.009968851 0.0123858135 0.014391047 0.0054879542 0.008926555 0.014615782 0.013483222 0.013485861
0.015022479 -0.013247067 -0.013572714 -0.013370176 -0.012929038 0.003205121 0.007456275 -0.013179372

network_body._body_endoder.seq_layers.4.weight f4 [256, 256]
00000000: 209f 543d f4a0 113d d4b2 dcbd fb3d c43c
00000010: 8a65 b73d e127 c53d face 133a a274 94ba
00000020: d4d9 bcbc ab72 a23c d846 d9ba 0b6f 0e3d
00000030: 0894 9dbd 372d 853a 86a1 8e3d e818 81bd
00000040: e085 b83d 9e59 5b3d 6d3a 05be fc43 febb
00000050: a537 16be c34f 7bbb 45cd 973d 500f 1f3e
00000060: 6302 a8bd 0ce4 ecbc 5c8b 253d ea41 0cbd
00000070: fc72 a63c 0319 05bc bf75 82bc 5279 21be
00000080: 3073 3b3c 8472 6f3d 9c49 4abd 0e63 993d
00000090: 03b2 9d3c 088d 9bbd 7e73 c63d 9134 93bd
000000a0: a443 d2bc 2bca ccbb e527 a73d 9a95 e0bc
000000b0: 3b72 143a 3285 f6bd f4df 543b 76ac aa3c
000000c0: ca04 993d ab75 a63c f462 a6bc c1d5 9fbd
000000d0: 0b21 2f3d c945 cc3d 6b2e 00bc 5691 32bd
000000e0: a99c c13d bae9 163d b206 19bd d71b 6ebc
000000f0: 1753 85bd 1906 0ebd 373c 96bd c647 db3d
00000100: bcf5 9c3d 78b3 b9bd ef7e c6bd 7876 75bc
00000110: 467e f5bc 4b8d 12be 8025 f83c 3e90 653c
00000120: 2a5a a13d ce61 fbbb 1ff1 893c cb89 b2bc
00000130: e1d1 babd 0b83 4e3e 90e7 5d3d 59ef efbd
00000140: d262 803d 8e98 92bc 5cc5 29bd a278 f43b
00000150: d4d0 6abc fe7b ad3d 09fe c03d 74d6 90bc
00000160: 03e5 213d 0ac4 1fbd 41eb 46bd 36e8 993a
00000170: a3a4 8c3d 72d1 a13d d222 8b3d 154b 42be
00000180: ecb5 3a3d 035e d73c ca75 983c 87b0 e2bd
00000190: 64f9 8abd 3ac6 863d 44de c1bd b01b d2bd
000001a0: 8fd4 a3bd 3c24 ffbd 662b 2d3d 06f7 cd3c
000001b0: 1368 1abd 2851 3abc de92 85bc 0851 9abd
000001c0: c886 d7bc 1348 cabc 519f 9dbc 2cd6 823b
000001d0: 37e5 ae3d 1913 fb3d 7e11 a03d 9dc0 ecbd
000001e0: 683c e03d ae0a d63d 5b5e 81bd eb81 893d
000001f0: be93 86bd b4dd 46bd fe84 e2bd 7fa7 183b
00000200: 8c45 ce3b 0b52 873b 4bd2 f9bb 5c05 92bd
00000210: 1a51 0b3d 4ba1 e33d 9cdf b6bc 8e62 cebd
00000220: f154 983b c6a9 3f3d 2efd 9c3d 611a 0e3d
00000230: efbc 0fbe 2b26 193e 90e6 d63d 9ecd a43d
00000240: 7f75 143d 6eb8 c9bd 04ed 07bc 2b18 a7bc
00000250: 9586 85bd 8230 29bd 4c76 513d 2806 963c
00000260: 4662 7ebd 89d2 d33d 3726 2dbc a0f9 02bd
00000270: 9c5a 8dbc fd05 f63d 1511 d73d 20a2 efbd
00000280: eb3e d5bd bbb9 00bb 9f5c 88bd 451a 68bd
00000290: 3277 e33b 006d 2a3d fdf1 27bd 7e7e f73c
000002a0: e226 47bd 8479 cabc 2648 b53d 8cdd 8c3d
000002b0: aff4 72bc bb12 023d f3f6 403d 58fd 0c3e
000002c0: 5d10 4bbd fe63 7e3d 6fda fabd eb94 8abd
000002d0: cd9d 763d bbc1 583d 651b 233d 2443 b7bc
000002e0: 2ff8 b83c 3d04 833d 94e1 183e 2488 85bc
000002f0: 8538 583d 70ec 463c 7a18 30bd 950a d73c
00000300: 6fc0 243d 8da1 913c e042 2fbd 541f af3d
00000310: d16d a43d 5f72 c83d c75f bfb9 8b20 923c
00000320: f8ad df3d 7472 9cbd ee0a 353a c4ac b1bc
00000330: 7363 a53b b698 e8bd 25e9 20bd 20be 1cbe
00000340: 64de 42bd 2998 34bd b78c 6cbd 0771 51bd
00000350: 4d62 e13d 41ed 03bc 32e2 8ebd 382d 833d
00000360: c3f2 8bbd 718f 35bd 79ea 20bc 7433 f63d
00000370: 8be6 c03d 3b7a ad3d af5a 23bd 7cfb fdbc
00000380: 0e2a 973c a420 80bc ea8a 35bd ea73 903d
00000390: 36de 99bd 0c31 a5bd d042 04be 9d71 0bbd
000003a0: 0e59 283d 0163 8bbc 381c a1bd 1ee8 9cbd
000003b0: 3a86 a53a 2cdf 593d 540c 00be 1e91 c5bd
000003c0: 2af0 aabd 0b03 adbd ca44 d2bb 6b7b 8ebb
000003d0: bad9 9c3c 3180 ba3b 9b61 43bc 98ec f7bc
000003e0: cb5e 5f3d 2cd0 843d 8d42 5a3d 8163 0abd
000003f0: 7e18 a33d 8888 98bc 8137 c3bd 333f 17bd
0.051909566 0.035553887 -0.10776296 0.023955336 0.08954914 0.09626747 0.0005638447 -0.0011326263
-0.023053087 0.019830069 -0.0016576899 0.034773868 -0.0769425 0.001016057 0.06964402 -0.063035786
0.0900991 0.053552262 -0.13010569 -0.007759569 -0.14669664 -0.0038347102 0.07412199 0.15533185
-0.0820358 -0.028917335 0.040416107 -0.034242548 0.0203185 -0.008123639 -0.015925286 -0.15768936
0.011441037 0.05845882 -0.049386606 0.07489596 0.019249922 -0.07595259 0.09689997 -0.071877606
-0.02566702 -0.0062496862 0.08161906 -0.027415086 0.00056627736 -0.12037124 0.003248212 0.020834189
0.074716166 0.02031978 -0.020310856 -0.07804442 0.04275612 0.09974248 -0.007823567 -0.043595634
0.09453709 0.036843993 -0.0373599 -0.014533005 -0.06509989 -0.034673784 -0.07335704 0.10707049
0.076640576 -0.09067434 -0.096921794 -0.014981858 -0.029967438 -0.14311711 0.030291319 0.014011441
0.078785256 -0.0076715713 0.016838608 -0.02179422 -0.091220625 0.20167176 0.054175913 -0.11715574
0.062688485 -0.01789501 -0.041447982 0.0074606696 -0.014332015 0.08470915 0.09423453 -0.017680384
0.039525043 -0.039005317 -0.0485642 0.0011742178 0.068673395 0.07901277 0.06793751 -0.18973954
0.04558365 0.026289945 0.018610854 -0.11068826 -0.06785849 0.065807775 -0.09466222 -0.10259187
-0.07999527 -0.12458083 0.042277716 0.025142204 -0.03769691 -0.011371888 -0.016305383 -0.07534987
-0.026309386 -0.02469257 -0.019241007 0.0039928164 0.08539813 0.12259502 0.07815836 -0.115601756
0.109490216 0.10451256 -0.06316825 0.06714233 -0.06571148 -0.048551276 -0.110605225 0.0023293195
0.0062949117 0.0041296533 -0.007623946 -0.071299285 0.03401289 0.111147486 -0.022323422 -0.100773916
0.0046487977 0.046792768 0.07665478 0.034693126 -0.14036916 0.14955966 0.10493195 0.08047031
0.036244866 -0.0984963 -0.008296255 -0.020397266 -0.0651981 -0.041306026 0.051138207 0.018313482
-0.06210544 0.10342891 -0.010568193 -0.031976342 -0.01725512 0.12012861 0.10501305 -0.11700845
-0.10412391 -0.0019641954 -0.06658291 -0.056665678 0.0069416994 0.041607857 -0.041002262 0.030211683
-0.048621066 -0.024716146 0.08851652 0.06878194 -0.014828845 0.031756144 0.04711051 0.13768518
-0.049576152 0.06210708 -0.12248694 -0.06766685 0.060209084 0.05291913 0.039821047 -0.022370882
0.02257928 0.06397293 0.14929801 -0.016300268 0.052788276 0.012141332 -0.042992093 0.026250163
0.04022258 0.017777229 -0.042788386 0.08550897 0.08028758 0.097874396 -0.0003650172 0.017837783
0.10921854 -0.07639018 0.00069062307 -0.021688826 0.0050472557 -0.11357252 -0.039284844 -0.15306902
-0.04757537 -0.044090424 -0.057751384 -0.051133182 0.110050775 -0.008052171 -0.06976737 0.06405109
-0.068334125 -0.04432625 -0.009821528 0.12021533 0.094189726 0.08470579 -0.039881404 -0.031003706
0.01845267 -0.015640564 -0.044321932 0.07053359 -0.075130865 -0.080659956 -0.12916112 -0.034043897
0.041100554 -0.017014982 -0.078667104 -0.0766146 0.0012628504 0.05319135 -0.12504703 -0.096468195
-0.08346589 -0.08447846 -0.0064168917 -0.0043482087 0.019146789 0.005691551 -0.011925126 -0.030264184
0.05453376 0.06485018 0.053286124 -0.0337863 0.07963656 -0.01861979 -0.09532071 -0.036925506

network_body._body_endoder.seq_layers.4.bias f4 [256]
00000000: 4d2b 4dbc 46b2 563c 6f22 233c fe27 47bc
00000010: d137 543c fbd7 35bc 0c99 583c 95f5 233c
00000020: e51a 523c 9a4e 4abc 4720 e2bb 5f90 623c
00000030: 4e6e 43bb b594 463c cbc5 26bc c1ae 653c
00000040: 9986 163c 8901 3cbc a2fc 4fbc 006d f63b
00000050: 3d87 d73a 31b7 f43a d1b1 543c e2fe 39bc
00000060: 9967 dd39 5cda 6e3c 9308 47bc f568 3ebc
00000070: 653e 5b3c 6df7 503c d881 c0bb 8cdd 55bc
00000080: 83f5 15bb 15a9 253c 2c96 5f3c 3eb5 ba3a
00000090: 6636 3d3c 5e7a 563c 55c3 a43b b8d0 693c
000000a0: 6d06 533c bd43 5a3c cf29 0c3c fae7 4a3c
000000b0: 3e68 01bc 48f3 0d3b d8bb 1abc 4922 313b
000000c0: 41e3 80b9 eff8 6e3c 9efc 2abc 7feb 38bc
000000d0: 827b 463c 26de 563c 982f 613c c828 6d3c
000000e0: 9419 563c b9a9 6b3c c27a 5abc 3f0a f23b
000000f0: 561e 0c3c 4cad 5f3c 531a 4ebc b32c 62bc
00000100: 8435 6c3c 026d 41bc c9c1 56bc 3979 5dbc
00000110: 4008 653c c603 54bc 3489 3ebc b0cb 36bc
00000120: d7df 6b3c 3c59 a93b 3efc 453c c2f7 683c
00000130: f7db 5a3c 76df f1bb 4005 613c a3f8 d9bb
00000140: 5bd7 44bc 0db5 38bc 0388 5a3c 62c2 4e3c
00000150: 8e96 5a3c 0dca 6ebb 87eb 3abc 6340 6b3c
00000160: cd18 20bc 869e 663c 31a8 563c 5367 5fbc
00000170: 9d1a 723c 931c 4cbc c864 38bc 5b98 a33b
00000180: aaa6 573c 7538 143c d6af ed3b 87fc 473c
00000190: b2f1 3e3c 6ab1 0cbc 67bc 0ebb fab3 25bc
000001a0: e1a5 60bc c4cc 2b3c a6d0 543c 6607 663c
000001b0: a9ef 43bc f8e9 003b e948 873b 16f4 2abc
000001c0: a981 6b3c 0e20 18bc 45de 313c 07dd 723c
000001d0: 929a 693c 0dbd 2f3c c22b 643c 57f1 43bc
000001e0: 3e29 6d3c 6fe6 05bc 2704 63bc 5e15 593c
000001f0: 3ab9 cb3b 579a 38bc 8b15 4bbc aedf 2a3c
00000200: cdf7 28bc bb49 5f3c ea0d 45bc 526c 5ebc
00000210: 74b6 7e3c 9a7d 3ebc 2900 25bc 47b9 b7bb
00000220: 53f2 533c 62eb 3fbc 5e18 37bc 0ebc 22bb
00000230: f879 563c d626 4e3c 9627 2ebc 5847 33bc
00000240: 401c 603b dfec 273c e965 643c 5f20 223c
00000250: bc4a 583c 2df9 26bc c584 49bc eaab 51bc
00000260: d7f6 45bc 3263 8139 f5e2 343c c46e 3c3c
00000270: 24a4 573c 6b82 13bc f797 42bc 4e9c 643c
00000280: 490c 49bc cca7 43bc 358b 51bc f719 203c
00000290: dfc8 503c f15d 493c c948 5b3c 8cfd 54bc
000002a0: fa8c 40bc 6596 42bc 84fe 563c 5833 3fbc
000002b0: f7d3 3f3c 1d07 0d3c 383a e13b 878f 64bc
000002c0: 3a06 983b 1396 773c fd42 633c ede6 533c
000002d0: 2024 633c 2553 70ba ea81 623c 064b 743c
000002e0: 7222 543c 0170 05bc 10a3 5bbc 125c 7abb
000002f0: 0341 6b3c 8b25 5a3c 8d27 0b3c ea48 57bc
00000300: b885 ba3b a809 26bb 2e5f 27bc 0cce 9fbb
00000310: 4dca 543c 3707 55bc 7ac4 503c ef70 41bc
00000320: a57f 5e3c 8621 4c3c 6152 54bc 77ee 693c
00000330: a594 703c 7cbe 48bc d1b3 cd3b 575e 18bb
00000340: aa80 573c aba1 3a3c 0863 47bc 12e0 49bc
00000350: e492 563c ebe4 563c c13a 6e3c 683b 2a3c
00000360: 01df 5c3c b528 91ba ad48 4abc 0380 61ba
00000370: 922e 5a3c cfac 4a3b d09f 613c 48b7 2dbc
00000380: 9f68 0e3c c260 573c c669 0a3c 154a 533c
00000390: f0fd 573c e5d0 433c 6ec1 403c 7aab 533c
000003a0: 2f2b 773c 0605 4b3c 81cf 423c 6ed7 3fbc
000003b0: 15fd 4ebc 278a 693c 180b 4ebc 9912 2d3c
000003c0: d08b 08bc ff91 6a3c 228b 2ebc 9f15 10bc
000003d0: baf6 34bc e3e8 553c d4d4 183c c8ba 41bc
000003e0: c1d0 543c 971e 2f3c e618 733c c1b9 4f3c
000003f0: 2b03 5e3c 5211 383c c410 25bc e36f 2ebc
-0.012522531 0.013104027 0.00995694 -0.012155531 0.012952761 -0.011098857 0.013220083 0.010007282
0.012823795 -0.012347842 -0.0069008204 0.013828366 -0.0029820385 0.012120415 -0.010178993 0.014018715
0.009187364 -0.011474975 -0.01269451 0.007520318 0.0016443502 0.0018670318 0.012981848 -0.011352273
0.0004222959 0.014578428 -0.01214804 -0.011621703 0.013381575 0.012754303 -0.0058748536 -0.013053309
-0.0022881932 0.010111113 0.013646644 0.0014244688 0.011548614 0.013090698 0.005028168 0.014270954
0.01287995 0.013321814 0.00855489 0.012384409 -0.007898388 0.00216599 -0.0094441995 0.0027028492
-0.0002458338 0.014585718 -0.010436205 -0.011286615 0.0121144075 0.013114488 0.013744257 0.014475055
0.013067622 0.014383727 -0.013334932 0.0073864753 0.0085521545 0.013652157 -0.012579518 -0.013804602
0.014417056 -0.011805775 -0.013107725 -0.013517671 0.013979018 -0.012940353 -0.011629391 -0.011156961
0.014396629 0.0051681083 0.012084065 0.014219226 0.013358108 -0.007381375 0.013734162 -0.0066519543
-0.012014235 -0.011273635 0.013338092 0.012619587 0.013341559 -0.003643635 -0.011408693 0.014358613
-0.009771538 0.014075881 0.013101623 -0.013635474 0.014776853 -0.0124579845 -0.011254497 0.0049925274
0.013162294 0.0090466635 0.0072536273 0.012206203 0.011654304 -0.008587221 -0.0021779777 -0.010113711
-0.013711424 0.010485832 0.012989199 0.01403985 -0.011958995 0.0019670706 0.0041285646 -0.010434171
0.014374175 -0.009284986 0.010856216 0.014823205 0.014258044 0.010726226 0.013926448 -0.011959395
0.014475165 -0.008172615 -0.01385597 0.013249723 0.006217149 -0.011267266 -0.012395273 0.010429306
-0.010312987 0.013628419 -0.012027243 -0.01357563 0.01554643 -0.011626625 -0.010070839 -0.0056068036
0.012936193 -0.0117138345 -0.011175243 -0.0024831328 0.013090603 0.012582501 -0.010629555 -0.010942303
0.0034196526 0.010249346 0.013940313 0.009895413 0.013201412 -0.010191244 -0.012299721 -0.012797335
-0.012082777 0.00024678704 0.011040439 0.011501018 0.013161693 -0.009003262 -0.011877052 0.013953282
-0.012270995 -0.011941861 -0.012789537 0.0097718155 0.012743204 0.012290464 0.013384053 -0.012999903
-0.011752361 -0.011876677 0.013122205 -0.011669956 0.011708251 0.008607653 0.0068733953 -0.013950235
0.004639414 0.015111464 0.013870952 0.012933475 0.013863593 -0.0009167663 0.013824919 0.014910465
0.0129476655 -0.00814438 -0.013405576 -0.003820185 0.014358762 0.013314615 0.008493316 -0.013139943
0.00569221 -0.0025335345 -0.010215564 -0.0048768576 0.012987685 -0.013002208 0.012742156 -0.011806711
0.0135802375 0.0124591645 -0.012959094 0.014278046 0.014683877 -0.012252446 0.0062775393 -0.002324959
0.0131532345 0.011391084 -0.012169607 -0.012321489 0.013096545 0.013116102 0.014540375 0.01039014
0.013480903 -0.0011074754 -0.012346429 -0.0008602144 0.013316767 0.0030925756 0.013771012 -0.01060278
0.008691936 0.013145627 0.00844807 0.0128960805 0.013183102 0.01195166 0.011764867 0.012919301
0.015085979 0.012391334 0.011890293 -0.011709077 -0.012633582 0.0142541295 -0.012575887 0.010563516
-0.008334115 0.014317035 -0.010653289 -0.008794217 -0.011045152 0.013056013 0.009328086 -0.011824317
0.012989224 0.0106884455 0.014837479 0.0126785645 0.01355056 0.011234598 -0.010074798 -0.010646793

action_model._discrete_distribution.branches.0.weight f4 [3, 256]
00000000: 7199 13bb a120 2d3c 4b5e 0f3b ca9e 463b
00000010: cf50 2cbb e32a 42bb df4e 75bc 0e5f 893c
00000020: 425a 4d3c 3d61 26bb 0a8b cebb 910f 833c
00000030: c443 88bb 99b1 adbb 19b4 e7bb c486 903a
00000040: 283d 6c3b 8598 7ebb 9bfd 5bbb 2387 0ebb
00000050: 7b10 fa3a c4ff fdbb 1646 fbbb c957 1abb
00000060: afc3 bfbb 37a0 08bc 5066 c53a 9376 d0bb
00000070: b50d 603b 6283 e63b 3e4e 93bb 6f67 413a
00000080: 8f18 a0bb ceb2 473c 70d1 893b f3df a13c
00000090: 268c 32bc 471f a6bb 6c19 b6bb 78e2 05bc
000000a0: 204b 963b 700b 913c 532b 7cbb ed2a 22bc
000000b0: 8977 df39 e668 26bc 184e b8b9 1438 6dbc
000000c0: 2e50 2abc be12 123c b505 2ebc a6a6 6ebc
000000d0: 7078 693c 68fe b0ba 98e0 86bb 009b 9dbb
000000e0: e84e aebb f582 093c b2d8 b03a 0072 7dbc
000000f0: b14c 663b 8b3d 98ba be6c a3bb d115 bdbb
00000100: b321 be3b a0b7 b83b 8492 26bc e6a1 a4bb
00000110: 5ecc 0bbc c5ca 953b a622 a1bb 2e5a 14bc
00000120: 760f c03b 05a8 bdbb c072 15ba 2f77 293c
00000130: 09db d5ba 4115 353b aebb 59bb d640 dabb
00000140: f771 e3ba 7291 27bb 690b 67bb 7c5d 0cbc
00000150: ae25 04bc e3d0 37bb ea47 3cbb eec6 3e3c
00000160: eb13 28bc 144b 3f3a 4d89 4a3c 447f 6cbb
00000170: 7aac 823c 92a8 323c 56b9 8aba 1db2 ff3b
00000180: 289d a7bb 0a58 093c dbfb cabb 8771 58bb
00000190: 5583 2bbb 0edb a4bb 1196 e2bb 85d5 7abc
000001a0: 752f 92bb e36e 9abb 302a 13bc 0dee cb3a
000001b0: a44d d9bb f335 7bbc f5c6 4bbc 6303 5b3b
000001c0: c81b 273b 34db 103c be8e 12bb 99ef 0ebc
000001d0: 9a76 383c 31e9 2f3b 8ce9 b73b 27e0 dbbb
000001e0: b101 603b badc 19bc 690f c5bb 3fa4 b03b
000001f0: 49a8 bb3c a21f 90bb 378c 003c 34ef e7bb
00000200: a580 a33b 9abd d63b 4b65 613b 0549 ce3b
00000210: 3582 26bc 70ba 443b aaa6 b5ba bf21 40bc
00000220: 8e2c 85bb e36d 483b 48c1 af3a a6d9 43bb
00000230: 88f9 853b 3a10 88bb 992f bbbb 227f 1cbb
00000240: f62c 643c 26fb 9f3b e320 d6bb 8303 17bc
00000250: 1302 e8bb 109e 843a cd4d b3bc 40e2 e93b
00000260: d86a 46bb dfbd 1ebc 5f76 923a 7c78 17ba
00000270: 98a8 74bb a8cd 2b3b 8e85 d13b 07ae e63b
00000280: be79 a1bb d6e5 68bb c9be b63b 34c4 5038
00000290: 84b0 c1bb e459 72bc ca53 883b d044 a0bb
000002a0: 2aa5 4fbb d6a3 ebb9 de91 12bc f34d 1a3b
000002b0: f69c 793b 7a47 48bb d0b2 d0bb c2cd 343b
000002c0: 5e52 32bc 87f4 503c a811 9039 7984 aabb
000002d0: 5bed 2d3c c9a4 76bb 80f7 4f3a ffac a93b
000002e0: 9eab 4dbc f587 4bbb f005 3d3b ac6c 43bb
000002f0: 34fc 5cbb aed6 52bc 7d7d 6ebb eb4d 44bb
00000300: f954 cabb 1777 943b f48b 0abb 0ffa 8c3c
00000310: 5f43 4abc d6e0 05bc 48c9 ab3b 68ee a83a
00000320: 7964 393b a639 973b ac05 0a3c 97fa 4d3c
00000330: 1447 07b9 4c88 403b 8ae6 3bbb 3509 e5ba
00000340: 376c eb3b 32fa f63a a8cd 033b c59f 95bc
00000350: 7fc4 1fbb ceef 0d3b 8926 8f3a cac4 8c3b
00000360: 6919 dc39 7108 15ba 0c68 a93b aafd be3b
00000370: f2ec 8cb8 a535 efba 4c09 f4bb d1e8 e03b
00000380: 3596 20bc c1aa 93bb 47fa 303b a90b debb
00000390: 7524 703b 78cf e4bb 5864 a7b9 3ba1 e9bb
000003a0: ed2c fbba 0477 4d3c d6ff c23b 7efb 8639
000003b0: 45c0 a73b cc1e 603c 0b9c 6c3a 857e eebb
000003c0: aca5 e1bb f35a 04bc dd0a 5a3c 7115 4ebc
000003d0: b366 3bbc 98c1 33bb 1b27 413a 3e1f b6ba
000003e0: 928b a13b 3670 14bc fc3d 8aba 24d8 c6bc
000003f0: 5b95 fa3b 33a9 743c 1345 b0bb 4141 253c
-0.0022521878 0.010566861 0.0021876271 0.0030307048 -0.0026293283 -0.0029627613 -0.014972418 0.016768958
0.012533726 -0.0025387548 -0.006303196 0.015998634 -0.004158469 -0.0053007123 -0.00707103 0.0011026491
0.0036047194 -0.0038848233 -0.0033567909 -0.0021748028 0.0019078398 -0.007751437 -0.007668267 -0.002355086
-0.0058521847 -0.008338979 0.0015060399 -0.0063617914 0.0034187858 0.007034705 -0.004495411 0.00073777785
-0.00488574 0.012188626 0.004205875 0.019760108 -0.010897672 -0.0050696465 -0.0055572297 -0.00817167
0.0045865923 0.01770565 -0.0038477972 -0.00989793 0.00042622935 -0.010156846 -0.000351534 -0.014478702
-0.010395093 0.008915601 -0.010621478 -0.014566099 0.014249906 -0.0013503553 -0.004116129 -0.004809737
-0.005319465 0.008393039 0.0013492315 -0.015469074 0.0035140926 -0.0011615021 -0.0049873283 -0.005770423
0.005802357 0.005637124 -0.010166768 -0.0050241826 -0.008532612 0.004571291 -0.0049174605 -0.009054704
0.005861218 -0.0057878518 -0.0005700998 0.010343357 -0.0016315888 0.0027631077 -0.0033223438 -0.006660561
-0.001735269 -0.002556887 -0.0035254604 -0.00856721 -0.008065624 -0.002804809 -0.0028729388 0.011644108
-0.010258655 0.0007297259 0.012361837 -0.0036086598 0.015951384 0.010904448 -0.0010583799 0.007803215
-0.00511517 0.008382807 -0.0061945743 -0.0033026652 -0.002617081 -0.005030996 -0.006914862 -0.015309696
-0.0044612237 -0.0047129258 -0.008982226 0.0015558616 -0.00663157 -0.015332687 -0.012437572 0.0033418767
0.0025498737 0.008841325 -0.0022362913 -0.008724117 0.011258746 0.0026841874 0.0056125578 -0.0067100707
0.0034180696 -0.009391004 -0.0060138 0.0053906734 0.022907393 -0.004398302 0.00784593 -0.007078076
0.004989701 0.006553364 0.003439265 0.0062953257 -0.01016288 0.0030018352 -0.0013858874 -0.011726796
-0.004064149 0.0030583076 0.0013409043 -0.0029884367 0.0040885843 -0.004152325 -0.005712461 -0.0023879488
0.013926735 0.004882234 -0.006534682 -0.009217146 -0.0070803254 0.0010117907 -0.021887684 0.007137567
-0.0030276086 -0.0096888235 0.0011174193 -0.00057781464 -0.0037331935 0.002621511 0.006394095 0.0070397886
-0.004927843 -0.0035537384 0.0055769426 4.9773793e-05 -0.005910935 -0.014791939 0.004160379 -0.0048910156
-0.0031684139 -0.0004494476 -0.00894591 0.0023544997 0.003808794 -0.0030560181 -0.0063689724 0.0027588462
-0.010883896 0.012753612 0.00027478975 -0.0052037803 0.010615672 -0.003763484 0.0007933304 0.0051780934
-0.012553124 -0.0031056379 0.002884265 -0.0029819412 -0.003371966 -0.012868566 -0.0036390715 -0.002995367
-0.0061746803 0.004530798 -0.0021140547 0.017209081 -0.012345164 -0.008171281 0.0052425005 0.0012888433
0.0028288646 0.0046150265 0.008424204 0.012571952 -0.00012901082 0.0029378114 -0.0028671348 -0.0017474057
0.007184531 0.0018842875 0.0020111594 -0.01826466 -0.0024378595 0.0021657827 0.0010921519 0.00429592
0.00041980602 -0.0005685157 0.005169874 0.005828579 -6.719855e-05 -0.001825024 -0.0074473973 0.0068636914
-0.009801437 -0.0045064394 0.0027004646 -0.0067762923 0.0036642824 -0.00698274 -0.00031927484 -0.007129816
-0.0019163169 0.012540583 0.005950908 0.00025745848 0.005119356 0.013679218 0.0009025938 -0.007278266
-0.0068862047 -0.008078325 0.013308254 -0.012578354 -0.01143806 -0.0027428623 0.0007368193 -0.0013894809
0.004929968 -0.009059956 -0.0010547037 -0.024272986 0.007647199 0.014932918 -0.005379328 0.0100863585

action_model._discrete_distribution.branches.0.bias f4 [3]
00000000: b3ad 163b 14a6 4fbc 2a69 543c
0.0022991716 -0.012673873 0.012964526
