results/raytrainingsmaller2/PlayerAgent.onnx (onnx, 546771 bytes, 11 tensors)

discrete_act_size_vector f4 [1, 2]
000000 00 00 40 40 00 00 00 40
       3.0 2.0

network_body._body_endoder.seq_layers.0.weight f4 [256, 6]
000000 eb df 02 3f e4 39 12 bf 60 82 2b 3e 23 45 68 3d
       0.5112292 -0.57119584 0.16748953 0.05670656
000010 8d 18 df bc b9 77 c5 3d ac f7 2e 3f 9e 16 c9 3d
       -0.027233386 0.09641976 0.6834667 0.09818767
000020 81 fa 5c 3f 5f e7 16 bf 51 71 f5 be 75 f4 1e be
       0.8631974 -0.58946794 -0.47938016 -0.1552294
000030 0f 88 90 3e e8 45 e3 3e 92 80 8c 3d bf b4 5d bd
       0.28228804 0.44389272 0.0686046 -0.05412745
000040 30 f5 94 3d 00 be 88 be 27 e7 76 be 69 5f b8 3d
       0.07273328 -0.26707458 -0.24111615 0.09002573
000050 7e a3 ad bb 52 5f 7b 3e 20 22 11 3e e3 97 90 be
       -0.005299031 0.2454808 0.14173174 -0.2824088
000060 8b 90 13 3f 6f 0e 38 bf d7 06 2e 3e b8 4c a6 be
       0.5764243 -0.71897024 0.16994797 -0.32480407
000070 ba 2c 85 3e 53 b0 aa be 69 5d 89 3d c5 5c e8 3d
       0.26010686 -0.3333765 0.0670727 0.113458194
000080 c3 b9 40 3e e2 47 7d 3e 06 a5 8e 3d 5d bb 68 bf
       0.18820862 0.24734452 0.069650695 -0.90910894
000090 95 74 94 be ee 37 52 bf b3 56 4e bf f8 62 81 3d
       -0.28995195 -0.8211659 -0.8060104 0.06317705
0000a0 47 68 4b 3e 35 25 35 3e c4 5e 1c bf b1 24 d2 3e
       0.19863997 0.17689975 -0.610821 0.41043618
0000b0 c6 1a 2a be 32 c0 66 be 01 c7 05 3e 3c ba 9b bd
       -0.16611776 -0.22534254 0.13064195 -0.07603881
0000c0 b5 9c bd 3d 18 e1 d9 3b 1e 97 50 3e 0b c7 87 3d
       0.09258405 0.0066491477 0.20370147 0.06629761
0000d0 74 3d 81 bd 30 9f b1 be 7a 36 ab be 04 11 77 3f
       -0.063105494 -0.34691763 -0.3344 0.9651034
0000e0 28 75 f5 3e 99 3c 93 be a3 d5 46 bf 0a 5d 35 3f
       0.47940946 -0.2875717 -0.77669734 0.7084509
0000f0 15 cf 58 3e bc 3a ac bd 98 fe 07 bf bf 16 13 3e
       0.21172746 -0.0840964 -0.53122854 0.14364146
000100 16 bc a0 be 03 e6 43 bf 99 fc 35 bf 3b 12 e0 3e
       -0.31393498 -0.76522845 -0.7108856 0.4376391
000110 7f cd 29 3f 04 f2 93 3e 52 a6 31 be 98 19 29 bf
       0.6632919 0.2889558 -0.17348602 -0.6605468
000120 2a 58 7f 3d 9e 63 55 bf 02 09 7b 3d 22 c8 fa 3e
       0.06233994 -0.8335513 0.061287887 0.48980814
000130 19 aa 12 bf df db 7f bd 86 0e a9 be 9c f6 12 bf
       -0.572908 -0.062465545 -0.33018893 -0.57407546
000140 1d 36 50 be 3b d6 0a be 78 dd fc 3e a9 5b 48 be
       -0.20333143 -0.13558285 0.49387717 -0.19566216
000150 a4 0b ac 3e 2f 11 0b 3f b8 4a c9 be dd 81 c3 3e
       0.3360263 0.54323095 -0.39314818 0.38185015
000160 ac 09 88 3f 2b 6b d2 be ca f1 07 3f 00 fd ed 3d
       1.0627952 -0.41097388 0.53103316 0.116205215
000170 29 0a 26 3f 80 27 cd bc 76 57 8f be d4 1e 9f be
       0.64859253 -0.02504325 -0.27996415 -0.31078207
000180 40 c8 b5 be 38 20 83 3e 62 af b4 bd 52 99 85 bf
       -0.3550434 0.25610518 -0.08822514 -1.0437415
000190 f3 54 d0 be 1f 4f b2 be 18 96 87 3e f5 43 24 bf
       -0.4068981 -0.3482599 0.264817 -0.64166194
0001a0 2a d7 32 3e b7 8d 04 bf fb e0 e4 bb 30 c8 2b 3f
       0.17464891 -0.5177874 -0.0069848276 0.67102337
0001b0 f9 9e 94 3d a2 64 3b 3f df b2 01 bf 5c 99 bd 3e
       0.07256884 0.7320043 -0.5066356 0.37031066
0001c0 0c de aa be 32 69 2c be 52 77 5b 3e eb 1b 40 be
       -0.33372533 -0.16837004 0.21432236 -0.1876065
0001d0 e4 05 2a 3f cb 84 26 3f 52 24 85 bf 67 d4 ec 3d
       0.6641524 0.65046376 -1.0401709 0.1156395
0001e0 67 4b f9 3d 2b b9 5c bd 21 9d 62 3f 01 71 68 be
       0.12172585 -0.053887527 0.8852101 -0.22699358
0001f0 96 4d 92 3f 12 63 34 bd 8f ea bc 3d e1 07 0a bf
       1.1429927 -0.044039793 0.09224426 -0.5391827
000200 72 05 4a be 0a 94 ca be ba ba 99 3c b9 e6 49 bd
       -0.1972864 -0.3956607 0.018765796 -0.0492923
000210 68 0e 7e be 6d 55 05 bf 5e 6d 81 be 24 43 df 3c
       -0.24810183 -0.52083474 -0.25278753 0.027253695
000220 f7 74 25 bf 9b d7 c8 be 1d b4 b8 3c d1 a0 65 3e
       -0.646316 -0.39226994 0.022546822 0.22424628
000230 68 fd 50 be 9d 85 b8 3e bd ea a7 be 61 3b 06 bf
       -0.20409167 0.3603944 -0.3279628 -0.52434355
000240 87 30 d1 be 14 f8 fe bd 70 c8 f4 3d 0c 68 8f be
       -0.40857336 -0.12449661 0.11952293 -0.2800907
000250 ff b0 08 3f d2 d2 c9 be eb cd 42 bf 0e df 18 3f
       0.53395075 -0.39418656 -0.76095456 0.59715354
000260 62 96 69 3e 00 fb 30 bf 1f f4 22 bf b1 79 43 3e
       0.22811273 -0.69132996 -0.6365375 0.1908939
000270 37 ff 2b 3e 80 88 86 be 30 4b 88 be b3 ab 22 3f
       0.16796575 -0.26276016 -0.26619864 0.6354324
000280 f4 a2 02 3f 48 80 1a bf ca 0f 94 bd 87 bf bc 3e
       0.51029897 -0.6035199 -0.07229574 0.36864874
000290 7f c9 3f bf a4 ca 2c 3e 7e 5b a7 be f5 63 1a bd
       -0.74916834 0.16874176 -0.3268699 -0.037692983
0002a0 50 ba 9a 3e 27 f9 0c bf a0 cc 0a bf 8d 43 dc be
       0.3022027 -0.55067676 -0.5421848 -0.43020287
0002b0 7e da 68 3e b1 42 95 3d 43 64 b4 3d 4a 85 0e 3e
       0.22739598 0.07288111 0.08808186 0.13918033
0002c0 89 ae e5 bd fc c3 06 3f 49 ff 0a bf f8 5e 79 3e
       -0.112149306 0.526428 -0.54295784 0.24352634
0002d0 de 9f 86 be 5c d5 c3 3b dc 81 0c 3e 57 e1 5d be
       -0.26293844 0.005976362 0.13721412 -0.21667992
0002e0 6d 96 03 3f 50 29 4a bf 3e 74 e2 3c 79 a1 b6 3e
       0.51401407 -0.7896929 0.02764332 0.3567007
0002f0 1f dc 55 3a 7f 15 ad 3d d9 7b 35 bf 57 b2 6a bf
       0.0008158106 0.08451366 -0.708921 -0.91678375
000300 d7 54 23 be 0c e8 62 3f fc be ef 3d 5c 25 85 3e
       -0.15950333 0.88635325 0.11706349 0.26005065
000310 9a 40 27 3f c6 a3 11 bd f1 ca ba be 7c 80 71 bf
       0.6533295 -0.035556577 -0.36482957 -0.94336677
000320 b4 d6 1f 3f e6 7e 3a 3e 41 c1 bc 3d 23 16 fb be
       0.62436986 0.1821247 0.09216548 -0.49040326
000330 19 f6 b1 bd bc fc 32 bf 79 e5 38 3f b0 1f 06 bf
       -0.086895175 -0.6991689 0.7222515 -0.523921
000340 0e 97 5e bf 9a a1 e4 3d 6b bd 8a bd 9f 3a 00 3f
       -0.8694924 0.111636356 -0.0677441 0.5008945
000350 3a 0c d2 bb b7 dd c4 be e8 02 2e 3e 46 7a 27 be
       -0.006410149 -0.38450405 0.16993296 -0.16355237
000360 0f fc 7d 3d e0 04 ad 3d ac f2 b9 bd 8f da 16 3f
       0.06200796 0.084481955 -0.09079489 0.58927244
000370 d6 7c c8 be fd 3b 8f 3e 86 cb 03 be 15 6e bf be
       -0.39157742 0.27975455 -0.12870607 -0.37388673
000380 27 58 af 3d 67 fa 30 3f 4f a4 83 be 9d dc 06 3f
       0.085617356 0.69132084 -0.25711295 0.5268038
000390 2c 93 24 3e 58 19 a5 3e 2e 35 cc 3e 60 54 9f be
       0.16071767 0.32245898 0.39884323 -0.3111906
0003a0 e7 85 87 3e 1b bf 73 3e 46 23 e7 bd ca 14 f2 be
       0.26469347 0.2380337 -0.11286025 -0.47281486
0003b0 33 2e 40 3c 5e 5d f4 bc 0b e2 2e 3e b7 6a 89 3d
       0.011729765 -0.029829677 0.17078416 0.06709807
0003c0 bb ac 26 3f cd f3 3d bf e5 ec 3c 3f ca 70 88 3d
       0.65107316 -0.74200135 0.7379897 0.06662138
0003d0 c4 fa f8 bd 4c 59 ad 3b 79 1d 4a be 11 c9 b0 3e
       -0.12157205 0.005290186 -0.19737805 0.34528401
0003e0 67 3d 4c 3f 01 9e 30 3e 68 f7 a5 bd 10 67 04 3e
       0.7978119 0.17247774 -0.081038296 0.1292994
0003f0 e7 12 ec 3e eb 92 1e 3e 25 ef 88 be 7c 9e f4 3d
       0.4610817 0.15485732 -0.26744953 0.11944291

network_body._body_endoder.seq_layers.0.bias f4 [256]
000000 67 18 a9 bb c0 09 52 3c 2f 20 86 3c 79 58 b0 3b
       -0.0051603797 0.012819707 0.016372768 0.0053816405
000010 0d d3 cd 3a 59 42 eb 3b 5e 4d 13 3c 3e 51 d9 3b
       0.0015703157 0.00717954 0.008990614 0.0066319993
000020 a8 1e a6 3b 25 a7 09 3c 33 36 94 3b 8a f9 d5 3c
       0.0050695725 0.008401667 0.0045230626 0.026119966
000030 e1 0b e4 3b 58 a4 d5 ba da b4 ff 3b 10 04 c5 b9
       0.006959424 -0.0016299589 0.0078035416 -0.00037577795
000040 75 53 15 3d be 76 b6 bb dd d9 36 3c bf 82 3c bd
       0.036456544 -0.0055683544 0.011160341 -0.046023127
000050 1d 65 18 3c f6 c6 41 3c e4 02 37 3c 2c 1a 26 3d
       0.009301451 0.011827221 0.011170123 0.040552303
000060 3d c1 c7 3c 93 4c 81 3c ac cc 13 3b 0f 63 19 3b
       0.024384135 0.015783584 0.0022552414 0.002340499
000070 41 33 8e 3b 4c f2 14 3c 37 41 26 3b a1 01 13 3c
       0.004339606 0.009090971 0.002536846 0.008972556
000080 71 3f be 3c 6b 23 80 3c 61 3c 91 bb aa e8 07 3d
       0.02322361 0.015641889 -0.0044322466 0.03318087
000090 71 7d 30 bd d1 e8 00 3a b6 09 5e 3b 72 6e 32 3b
       -0.04308838 0.0004917505 0.00338803 0.0027226475
0000a0 77 a2 70 bc fa 42 f1 3a b8 42 c2 3c 6d 11 ec 3c
       -0.014687172 0.0018406801 0.023713455 0.028816903
0000b0 43 1f 04 3c 3c 99 63 bc 03 0b 3e 3c e2 4f 61 3c
       0.008064094 -0.013891514 0.011599305 0.013751956
0000c0 24 7e 90 3c c3 1b 8a bc e4 78 d8 3b fc 3e 26 bc
       0.017638274 -0.016858941 0.006606208 -0.010146853
0000d0 9d 06 2a 3c b3 5c 92 bc da e1 a1 3b d2 9f 84 3c
       0.010377553 -0.017866468 0.0049402537 0.01618949
0000e0 9b 1e 00 3c e7 1c 54 3c 28 b7 88 bc 7e f5 f9 bc
       0.007819797 0.012946344 -0.016688898 -0.030512568
0000f0 74 a6 52 bc 3c 12 0f 3b ca b9 d6 3c 4b bd 73 3c
       -0.012857068 0.0021830937 0.026211638 0.014876674
000100 e2 f4 ba 3c f6 f8 c5 bb 7a a7 79 3c 93 b3 db 3c
       0.022821847 -0.0060416413 0.015237683 0.026819026
000110 49 e3 f7 3b 2c f8 53 39 49 f0 04 3c f6 23 94 3b
       0.0075649363 0.0002021498 0.008113929 0.0045208884
000120 05 54 80 bb 2a 4a b1 3b 6c c2 63 3c 30 fe da bc
       -0.003916266 0.0054104524 0.013901334 -0.026732534
000130 d9 6e 6e bb dc 2c 06 bc 9a c7 f9 3c af ad 60 3c
       -0.0036381988 -0.008189406 0.030490685 0.013713284
000140 24 ba 99 3c 20 f4 55 bd 1d 32 c5 3b 03 a6 0f 3d
       0.018765517 -0.05223477 0.006017937 0.03507043
000150 06 a8 e7 bb 3f 31 ca 3c c3 38 33 3a a8 ec b7 3b
       -0.0070695905 0.024681685 0.0006836766 0.0056129284
000160 71 de 7a bb d2 d2 bd 3b 26 be 63 3c 98 ba 3d bc
       -0.0038279558 0.005792954 0.013900315 -0.011580132
000170 11 91 5b 3c 19 ed 9a 3b 4f 95 50 bc e8 24 8c 3c
       0.013401286 0.0047279713 -0.01273091 0.017107442
000180 48 19 e6 3b c6 c7 f7 3b ca 82 31 3a 91 d7 8c bc
       0.0070220567 0.0075616566 0.0006771503 -0.017192634
000190 53 f3 e7 3c 8d 6b c7 3c 4e 53 de 3c b9 27 a4 3b
       0.028314268 0.024343276 0.027139332 0.005009618
0001a0 95 ad 24 3b aa 8b b8 bb 4f 6a c3 3c 9c 65 9d bc
       0.0025127877 -0.0056318836 0.023854403 -0.01921349
0001b0 46 10 46 3b 65 ee b1 bc c3 2a 71 3b 36 81 1c bd
       0.0030222102 -0.02172012 0.003679917 -0.038209163
0001c0 70 fc bc 3c ee 73 a6 bb 82 1d b1 3c b6 86 41 3c
       0.02306959 -0.005079738 0.021620516 0.011811903
0001d0 72 cf ff bb 4c 7b ac 3b 26 12 20 bb dd eb 25 3c
       -0.007806712 0.0052637216 -0.002442488 0.010127035
0001e0 23 b2 88 3b 10 8b f7 bc bf 4a 96 bd ef ec 4e ba
       0.004171626 -0.030217677 -0.073384754 -0.0007893582
0001f0 d4 58 08 bd c7 12 df 3b b9 ec 92 3d 7f 73 3d 3c
       -0.033287838 0.0068076584 0.071740575 0.011563181
000200 b7 0a f4 bb 21 c4 31 3b 2a be 03 bd 67 d3 ab 3b
       -0.0074475664 0.0027124959 -0.032163776 0.005243707
000210 a7 18 6b 3a f7 8f ea 3c a2 7d f3 3b f7 c3 91 3c
       0.0008968212 0.0286331 0.007430748 0.017793639
000220 b6 e6 be 3b 71 ac 76 3c ea e4 10 bc ae c9 7c 3c
       0.0058258427 0.015055762 -0.00884364 0.015428944
000230 98 f3 00 3c 1d b7 05 3c f4 69 2e bc 5f b3 0b 3d
       0.007870577 0.008161333 -0.010645378 0.03410661
000240 8f 69 c4 3c f1 74 a6 3c 2c 6f d7 bc 89 2a e4 bb
       0.023976116 0.020319434 -0.026298128 -0.0069630784
000250 db d7 11 3d 77 d6 dc 3c fb 8d 05 3c d4 5e d8 3b
       0.035606246 0.026957734 0.008151527 0.0066031013
000260 a9 4a 09 3c 1f dd 95 bc 4c f0 e4 3b 66 9f 5b 3a
       0.008379617 -0.018293915 0.0069866534 0.0008377939
000270 21 7d 34 bd a3 96 c5 bc 2c 35 5a bc 47 9c b3 bc
       -0.044064645 -0.02411968 -0.013318341 -0.021925105
000280 ea fc e1 bc 45 09 12 bc a7 35 dc 3c c1 6c 1c 3c
       -0.02758642 -0.008913343 0.026881052 0.009547413
000290 4d af 72 bb a3 cc 33 3c 94 e4 5f 3b 68 c8 84 3c
       -0.0037030757 0.010974082 0.0034163343 0.016208842
0002a0 b5 b3 2e 3c 24 f5 bb 3c 4f 74 9c 3a c9 57 09 3c
       0.010662963 0.02294404 0.0011936518 0.008382746
0002b0 9f 97 09 3d 4a 62 91 3d 9d 18 00 3d 8c f3 0e 3b
       0.033591863 0.07098825 0.031273473 0.0021812646
0002c0 17 1c a6 bb 43 91 b0 bc d2 49 22 3a 91 03 23 bc
       -0.0050692665 -0.021553641 0.00061908097 -0.009949581
0002d0 b6 b7 16 3d 5b 5c 46 3c b5 d2 52 3c 1d b3 a9 bb
       0.036796294 0.01210698 0.012867619 -0.0051788227
0002e0 79 6a 53 bc 09 88 87 3c c2 75 8e 3c bc 95 2d bc
       -0.012903803 0.016544359 0.017390136 -0.0105947815
0002f0 6c 24 a0 3c 37 ee 08 3d 23 b6 0d bd ff 6c 46 3c
       0.019548617 0.033430304 -0.034597527 0.012110948
000300 5a 40 23 3c 2b ec b3 bc 19 78 c0 3a 5d ae 7a 3c
       0.009964073 -0.0219632 0.0014684229 0.0153003605
000310 d3 ca 3c 3c b2 db 0d 3d ed fe ad 3c 4c 6e c9 3b
       0.011522966 0.034633346 0.021239722 0.0061471816
000320 5c a0 bd 3b 97 03 13 bc 42 2f c7 3c aa 81 0e bd
       0.0057869386 -0.008973024 0.024314526 -0.034791626
000330 52 c4 9b bb 7a 55 95 bc 49 db 9f 3c e7 25 e1 3b
       -0.004753628 -0.018229235 0.019513743 0.0068709734
000340 88 8d d6 3c b2 a0 05 3d 66 a5 15 3d 4f 64 ed bc
       0.026190534 0.032623954 0.03653469 -0.028978495
000350 4b 29 0f 3c 9d c9 31 3d 8e 47 8e bc 7f d5 36 ba
       0.008737872 0.043405164 -0.017368104 -0.00069745624
000360 18 f1 82 3c 95 61 38 3b 9e 60 90 bc a5 35 27 3b
       0.015984103 0.0028134335 -0.017624196 0.0025514152
000370 44 25 3f 3c ae 38 96 bc 9c 7d 1f 3c 14 93 bf 3c
       0.0116666 -0.018337574 0.009734537 0.023385562
000380 53 56 dd 3a 2d c0 94 3d a0 85 d1 3c 45 05 a4 3c
       0.0016886689 0.07263217 0.025576413 0.020022044
000390 ed b8 2e 3a e2 86 cb bb 48 31 6e bc 2b 72 d0 3c
       0.00066651293 -0.0062111476 -0.014538117 0.025445065
0003a0 0f 67 a2 3a d2 71 94 3c 20 88 f0 3b ad c5 22 3c
       0.0012390333 0.01812068 0.007340446 0.009934825
0003b0 f6 dc 0f bd eb b0 89 3c 82 13 94 3b 5b 39 78 3c
       -0.035122834 0.016807994 0.004518927 0.015150393
0003c0 f6 10 69 3c 49 3b 2c bc 0c 81 bb bb d7 45 02 3c
       0.014225235 -0.010512182 -0.0057221707 0.007951221
0003d0 23 58 4b 3b ef 85 c9 3c 2c e8 df 3c 8a 9b ab bb
       0.0031027875 0.024599997 0.027332388 -0.0052370476
0003e0 38 ee 09 bc f7 d5 37 bc d0 99 3b 3c 81 7a a8 ba
       -0.008418612 -0.011220447 0.011450246 -0.0012853892
0003f0 6f 1d 49 3c 48 39 07 bc 22 db 42 3d 87 4a e9 3a
       0.012275084 -0.008253403 0.047572263 0.00177987

network_body._body_endoder.seq_layers.2.weight f4 [256, 256]
000000 03 c9 cb 3b ce 51 6f bd ff 78 85 bd d7 62 25 be
       0.006219031 -0.058427624 -0.06517219 -0.16150986
000010 da e3 09 3d 60 28 a8 3d 06 8b c0 ba 8b 67 10 3d
       0.03366456 0.08210826 -0.001468987 0.035254996
000020 09 7d 70 3d 39 08 d6 3d 9d 40 03 bd b2 9e 05 3d
       0.058712993 0.10450787 -0.032044042 0.032622047
000030 17 d4 2c be 57 05 bc bd 98 aa e7 3d fb 49 f5 3c
       -0.16877781 -0.09180706 0.11311835 0.029942503
000040 52 a5 0c 3b 98 f1 07 3d 36 d3 b2 bc ec f4 23 3c
       0.0021460843 0.033189386 -0.021829229 0.010007124
000050 42 3d ee bc 91 bb bd bd 9a 75 7f bb 72 2c 94 bb
       -0.029081944 -0.09264291 -0.0038980008 -0.0045219
000060 a9 40 a6 bc 64 a8 60 bd c6 72 4e 3c 40 c1 74 3c
       -0.020294504 -0.05484809 0.012600606 0.0149386525
000070 24 c1 8a bb b3 cc a3 3d a5 76 fd 3c 53 2f 99 bd
       -0.00423445 0.07998028 0.030940363 -0.074797295
000080 4e 9f 06 3e e0 3f 14 3b 75 f5 d2 3d c4 1a a1 3d
       0.13146707 0.002262108 0.103007235 0.07866433
000090 3f cd b4 bc 4a 09 0b bd f1 03 4b bd 8a c3 8d bc
       -0.022070525 -0.033944406 -0.049564306 -0.017305154
0000a0 33 8b b7 bd 29 ba c8 3d 3f 8c 13 bc 58 38 d5 3c
       -0.08962097 0.09801132 -0.009005605 0.026027843
0000b0 e9 7a 78 3d aa 5f fd bd 6a 1c 50 3d 25 f5 98 3d
       0.06066409 -0.12371762 0.050808348 0.074686326
0000c0 ce 9a 12 3d 69 af d0 3d 0c 75 1d be 4a 70 1f 3d
       0.035792165 0.10189707 -0.15376681 0.038925447
0000d0 fa 6e 77 be 77 7b ab bd ea a2 61 bd 05 5a d5 bc
       -0.24163428 -0.083731584 -0.055087008 -0.026043901
0000e0 84 6f 2b bd 02 e8 1a bd 30 08 d6 bd 56 0f 42 3d
       -0.041854396 -0.037818916 -0.104507804 0.047377907
0000f0 6b 5b a6 bd a8 d5 28 bc 69 23 aa 3d 15 89 a6 bc
       -0.08122905 -0.010304846 0.08307535 -0.020329038
000100 82 64 b7 3d 40 ee 87 3d ed 8d d2 bd 08 47 c3 3c
       0.08954717 0.066372395 -0.102809764 0.023837581
000110 42 92 b0 bc fc de df 3c 69 e2 56 bd 88 3c a3 bd
       -0.021554116 0.027328007 -0.052462015 -0.0797053
000120 d5 87 45 3d 7f 84 7a 3d e8 b0 93 bd 5a 3d 88 bd
       0.048225243 0.061161514 -0.072114766 -0.06652327
000130 b5 58 32 3d 11 02 06 bd 35 c3 e3 3d 3f bf 7d 3d
       0.04354163 -0.032716814 0.11121217 0.061949965
000140 5d 1e b3 bb 95 bf 2e bd 62 4c c9 3a cb 91 76 3d
       -0.005466266 -0.042663176 0.0015357847 0.060197633
000150 28 6b 53 bd 42 50 4a 3d 40 ea db bb 52 6c cf bc
       -0.051615864 0.049392946 -0.0067112744 -0.025320206
000160 94 f8 7c bc 8c 5b 80 bc 8a 21 8d 3d b1 85 d0 bd
       -0.015440125 -0.015668653 0.06891163 -0.101817496
000170 be 29 f8 3c 20 cb 24 3c 69 5e 65 3b 01 56 6b 3c
       0.030293342 0.010058194 0.00349989 0.014363767
000180 83 68 ce 3d b2 09 b9 bd 79 f6 eb bd d6 77 d7 3b
       0.10078528 -0.09035052 -0.1152162 0.006575565
000190 92 54 9b b8 4a 66 f0 bc 7d 8f e0 3d 96 14 91 bb
       -7.4067284e-05 -0.02934565 0.10964868 -0.004427503
0001a0 b1 6b 06 be 63 2d e7 bc 06 34 02 3d 9b f3 ec bd
       -0.13127019 -0.028219884 0.031787895 -0.115699016
0001b0 7b 9f 8c bc 1e 4a 57 bb 45 df d9 ba b6 76 e6 bc
       -0.01716589 -0.0032850574 -0.0016622326 -0.028132778
0001c0 20 5e 50 bc 70 db 63 bc 71 21 ac 3d 4d db 32 3d
       -0.012717754 -0.013907298 0.08404816 0.043666173
0001d0 ec 68 78 3d de aa 9f 3d d7 fa b7 bd 12 b5 3c bc
       0.060646936 0.07796262 -0.08983391 -0.01151778
0001e0 77 5c e8 3d 7f f6 8b bc 23 f5 ab bd b4 85 85 3d
       0.11345761 -0.017085312 -0.083963655 0.065196425
0001f0 a5 dc 6b bd c7 7f 42 3e 60 1c 01 be d4 7e 28 3d
       -0.05758347 0.18994056 -0.1260848 0.041136578
000200 ce 1b 7f 3c 4e dd dc bc 5d ed 91 bd fe 2d b0 bb
       0.015570594 -0.026960995 -0.071253516 -0.0053765764
000210 50 c9 26 3c 1a 6b 86 3d 13 f9 b0 bd 0f f5 a5 bc
       0.010179833 0.06563397 -0.08641257 -0.020258455
000220 6b cc c0 bd 9e cd 39 3d 02 27 a8 3d 50 26 7a 3c
       -0.0941399 0.045362107 0.08210565 0.0152679235
000230 c7 de 81 3d 2c 57 af 3d 64 eb cc 3b cd 39 dc 3c
       0.063413195 0.085615486 0.0062536467 0.02688303
000240 c4 5d be 3c 7b e4 1c bd 23 73 d7 bb a5 18 6d be
       0.02323807 -0.038303833 -0.0065750047 -0.23153932
000250 34 eb 5d 3d 1e 44 cf 3d 47 47 7c 3d 2f 56 8f 3c
       0.054179385 0.10120414 0.061591413 0.01749715
000260 44 e9 a3 3d 58 43 6a 3c 7e c3 b3 bd 92 15 9b bc
       0.08003476 0.014298283 -0.087775216 -0.018931184
000270 9a 96 6c 3d 9b bf c5 bd 49 ee 91 bd d9 de 5e bd
       0.057760812 -0.096556865 -0.071255274 -0.054411743
000280 9d b8 8f 3c 4b de ed bc e1 f8 3e 3d 8f a0 cf bd
       0.017544085 -0.029036662 0.04662407 -0.10138046
000290 7d 57 e4 bd aa c6 b1 3d e0 fb 76 bd 30 ae 6e 3d
       -0.111494996 0.0868047 -0.0602988 0.058271587
0002a0 ac 44 c1 3b 38 27 cb bc 3a e3 26 be 8a c4 37 3d
       0.005898079 -0.024798974 -0.16297618 0.04486517
0002b0 88 17 d2 bc 3b 78 df 3d f6 28 10 be ae 2e fb bb
       -0.025645986 0.10911604 -0.14078125 -0.0076654768
0002c0 c5 8a 38 3d 3c f9 31 3d 34 95 5f bd 19 64 96 bd
       0.045054216 0.04345058 -0.05458565 -0.07343311
0002d0 69 17 3c be bd 09 3c 3c 93 cc ec 3d e7 b2 d2 bd
       -0.18368305 0.011476931 0.11562457 -0.10288029
0002e0 98 cd 27 3d 6a b3 84 3d a5 25 60 3e a4 93 50 3d
       0.040967554 0.06479533 0.2188936 0.05092205
0002f0 30 91 a5 3b e1 f1 42 3c 11 81 bf bd 14 9f 24 bd
       0.005052708 0.011898489 -0.09350789 -0.04019077
000300 19 ad a0 bd 19 ee 53 bd d1 b1 c9 3c 91 f9 88 b8
       -0.07845516 -0.05174074 0.024620922 -6.531471e-05
000310 ac 37 89 bd cc c4 a0 3d 3a 21 d7 3c 1c da 75 3c
       -0.06700072 0.07850036 0.02626096 0.015005615
000320 4b cd 55 bb 3f 02 be 3d b6 cd c9 bd 7f 91 77 3d
       -0.0032623585 0.09277772 -0.098536894 0.06044149
000330 14 96 6c bc 50 07 45 bb ea 9e 0e 3d 93 bd 5c be
       -0.014440078 -0.0030064173 0.03481952 -0.21556692
000340 0d 66 56 be e0 0d a9 bd e2 f3 b4 3d 5a 2e c9 3d
       -0.20937367 -0.082545996 0.088355795 0.09823294
000350 e7 d3 58 3d 38 3c 58 bc 55 a2 0d 3c 6b d3 88 bc
       0.05293646 -0.013197951 0.00864466 -0.016702374
000360 24 33 af bd 78 29 d0 bb 55 c0 b0 3a 1b 6d b2 bc
       -0.08554676 -0.0063525997 0.0013485054 -0.021780541
000370 0d 5d 44 3b a8 25 ed bd 05 42 0e bb 0c 39 9e 3d
       0.002996269 -0.11579448 -0.0021706831 0.077257246
000380 c0 75 0f 3d e3 01 1d 3e 59 cc c3 3c ae 93 74 bd
       0.035024405 0.15332751 0.023901151 -0.05971115
000390 2e 54 e2 bd b2 3e 05 3c 25 72 30 be ee 94 52 3d
       -0.11051212 0.0081326235 -0.17231043 0.05141156
0003a0 19 9f c4 3d 21 67 2f 3c 69 ea b7 bc ff 6c b9 3d
       0.09600658 0.01070574 -0.022450643 0.090539925
0003b0 2f be 1a bd 90 27 7e 3d fc 6d bd 3d a3 da c2 3d
       -0.03777903 0.06204945 0.092494935 0.09514358
0003c0 b2 58 27 3d 40 34 a3 bd dd 7b 3a bd 98 a3 d4 37
       0.04085607 -0.0796895 -0.04552828 2.5348549e-05
0003d0 45 dd ad 3d 01 65 43 bc e9 72 76 bc 5f 20 54 3d
       0.084894694 -0.011925937 -0.015042045 0.051788684
0003e0 a5 13 d1 3d 10 f1 5b bd 05 00 b4 3d d7 a8 99 3d
       0.10208825 -0.053696692 0.08789066 0.07502907
0003f0 11 e1 c0 bd 34 46 d6 bd a6 f9 14 3d c3 5c 31 bc
       -0.09417928 -0.10462609 0.036370896 -0.010825339

network_body._body_endoder.seq_layers.2.bias f4 [256]
000000 eb 73 bd 3b 60 a7 7a bc 61 88 f8 3c 15 50 2b 3c
       0.0057816408 -0.015298694 0.030338468 0.010456105
000010 0a 9c 83 3b aa 8d 01 3c a0 87 49 3c 5e f4 35 3b
       0.004016404 0.0079073105 0.012300402 0.0027764062
000020 0d bb 26 bc 41 14 29 3b 62 6a 21 3c 96 8a 0a bc
       -0.010176432 0.0025799426 0.009852024 -0.008455893
000030 59 7c ae 3b e7 f5 61 3c 42 34 14 bc 23 58 2c bc
       0.005324882 0.013791538 -0.009045662 -0.01051906
000040 5d 71 ce bb 36 a0 12 bc c4 47 28 3c 27 16 9e bb
       -0.006300135 -0.00894933 0.0102710165 -0.004824418
000050 c1 f2 0e bc c2 ba 15 bc de 00 6f 3b 31 97 45 3c
       -0.008724869 -0.009138765 0.0036469023 0.012059973
000060 de 84 ee bb 4e 34 c8 bb 29 1b 5b bc e7 72 94 bb
       -0.0072790226 -0.006109751 -0.013373175 -0.004530299
000070 21 46 f1 3b 24 1c 27 3b 33 09 92 3c 27 fb b3 b9
       0.0073630963 0.002549895 0.017826652 -0.00034328664
000080 91 59 02 3c c7 b9 c6 3b 34 25 d5 3b d4 4d 07 3c
       0.007955925 0.006064627 0.006504679 0.008258302
000090 0e 8e ad 39 97 e1 ae 3c 29 18 e4 3a 04 05 ca bb
       0.0003310297 0.021347804 0.001740222 -0.0061651487
0000a0 d3 47 f6 bb 22 7e 4c bc 70 2a 23 3c 01 fe 59 3c
       -0.0075158863 -0.012481244 0.009958848 0.013305188
0000b0 4d 0d 49 bc 5c df 84 3b 08 7f c7 3b aa 2e 02 3c
       -0.012271238 0.004054947 0.0060881414 0.007945696
0000c0 2e 43 6c 3c 12 76 8c 3b 67 44 61 3b 5b ae 81 b9
       0.014420314 0.004286536 0.0034373046 -0.00024734702
0000d0 62 e0 97 3b 8b 80 9c 3b 22 f6 1c bc 97 50 97 3b
       0.004634903 0.0047760657 -0.009580167 0.0046177614
0000e0 cb da ef bb 03 0a 9a 3c f1 f2 1d 3c a8 eb 64 3a
       -0.0073197833 0.018803602 0.009640441 0.0008732625
0000f0 1e b6 26 3c b4 01 c6 bb ab 39 23 3c e4 d4 ae bc
       0.010175256 -0.0060426835 0.00996248 -0.021341749
000100 87 ea de 3b ba 43 c8 bc 4f e4 27 3c 74 a8 7a 3c
       0.00680286 -0.024446357 0.010247304 0.015298951
000110 e3 56 4e 3b 0b 68 ef 3a 25 df 28 3b f0 c1 3f 3c
       0.0031484894 0.001826526 0.002576777 0.011703953
000120 f0 9e 2c bc ec 31 b3 3a dd 50 3b bc 35 4e ce 3b
       -0.0105359405 0.0013671494 -0.0114328535 0.006295944
000130 57 27 90 3b 4a cb 8c bc 01 98 ca ba 3a 6c 7d b9
       0.004399221 -0.01718678 -0.0015456678 -0.00024168278
000140 4a bc 33 3c 7e 78 36 3c 6d 26 e2 bb a6 f8 50 3c
       0.010970185 0.011137126 -0.0069015534 0.012754595
000150 03 56 5f bb dd 66 5e 3c 4d 12 1b 3a aa 2d de bb
       -0.0034078367 0.013574329 0.0005915508 -0.006780346
000160 76 2d 85 bc 7c 03 9c 3b 9e d3 14 bc ae 54 f9 bb
       -0.016257029 0.0047611576 -0.009083657 -0.0076089716
000170 75 5b 9e 3b 01 d5 75 3b c1 be 1f 3b 52 f3 b8 3b
       0.00483268 0.0037510993 0.0024375173 0.0056442404
000180 0f 12 32 3c d7 c3 a8 3b ad 9a 22 3c c2 f4 12 3b
       0.010868563 0.005150299 0.009924573 0.002242372
000190 34 0e 10 3c df e7 bf bb 62 82 55 3b 62 1f 1c 3c
       0.008792449 -0.0058564986 0.0032578935 0.009528967
0001a0 f0 c0 5a 3c f3 5b c1 3b 7d ec c8 bb 5f a2 48 3c
       0.013351664 0.005900854 -0.006131707 0.012245744
0001b0 e9 64 cb 3c 4d 72 22 3c 7e c5 73 bb 6a 9d 47 3a
       0.024828391 0.009914947 -0.0037196572 0.0007614704
0001c0 da 21 02 bc 91 3e 10 bb af e4 1d 3c d1 30 09 3c
       -0.007942641 -0.0022009949 0.009637042 0.008373455
0001d0 6a c1 38 3c fc 10 09 3c 70 b2 62 bb 7a 84 d0 bb
       0.011276582 0.008365866 -0.003459122 -0.0063634487
0001e0 ee 0c 66 bc bf 29 9d 3c 0b b9 15 3c 57 b0 89 3c
       -0.014041169 0.019184945 0.009138356 0.016807718
0001f0 85 60 93 bb c6 57 06 3d 9e c4 29 bc 4b 35 ca bb
       -0.00449759 0.03279855 -0.010361819 -0.006170904
000200 bd f5 ce 39 5e 42 ab bb 3f e2 aa 3c 84 eb 7a bb
       0.0003947447 -0.0052264174 0.020859836 -0.003828735
000210 7b 2d 41 3c 3a e5 5f 3b 2e 05 56 bc 9a 2c 44 3c
       0.011790629 0.003416373 -0.013062758 0.0119735245
000220 3e 41 9b ba ec c4 1b bc bc f4 12 3c 2c 71 00 bc
       -0.0011845005 -0.009507399 0.008969482 -0.007839482
000230 9b 1c 3c bc 50 5b b5 bb 26 a2 8f bb ae b6 8a bc
       -0.011481429 -0.005534567 -0.0043833433 -0.016932812
000240 37 94 6e 3b 7c 49 5d 3c 29 2e 3c 3c dd eb 05 bc
       0.003640426 0.01350629 0.011485615 -0.00817391
000250 09 a9 8a ba b8 1a d6 3a 43 55 9e bc 42 2d 93 3c
       -0.0010578941 0.0016334867 -0.019327765 0.017965917
000260 06 51 b2 3c 18 05 83 3b 37 9e 0e 3c a4 02 97 bc
       0.02176715 0.00399841 0.008704714 -0.018433876
000270 a2 8b f0 bb 59 28 5f bb 77 3b 00 3c 14 de 0f 3c
       -0.0073408643 -0.0034051149 0.0078266775 0.008780975
000280 48 e7 04 3b f3 cb 84 3c 81 d9 3a 3c ea 71 1e 3b
       0.0020279456 0.016210532 0.011404396 0.0024176785
000290 ce 2a 1a b9 a9 bd ee 39 73 d9 8f 3b 8c 96 55 3c
       -0.0001470253 0.00045536205 0.0043899356 0.013036381
0002a0 32 30 a6 3b a4 26 a4 ba d5 f8 02 bc 96 3d d4 3b
       0.0050716633 -0.0012523723 -0.0079938965 0.006477068
0002b0 79 9a ef 3b 5e d2 05 3c 3d 6f 02 3c 64 07 f6 3b
       0.0073121157 0.008167831 0.007961092 0.0075082052
0002c0 01 a6 1d 3c df 5f 1a 3c 7c fe e1 3a 19 0d 25 bc
       0.009622098 0.0094222715 0.001724198 -0.0100739235
0002d0 dc de ea 3b 69 98 2d 3c db c8 7f 3b 44 c3 d4 3b
       0.00716768 0.010595419 0.0039029631 0.006493004
0002e0 d7 f8 23 bc 92 97 e1 3b 20 48 8e 3b fb 9e 7e bc
       -0.0100080585 0.0068845237 0.004342094 -0.015540834
0002f0 78 12 7e bc e7 62 f7 bb 8a ff d1 3c 6b 7c c4 bb
       -0.015507333 -0.007549632 0.025634546 -0.005996277
000300 f0 31 01 3c 6c 5d 49 bb 5c ed a0 3c ed 57 c1 3c
       0.007885441 -0.003072585 0.019644432 0.023601497
000310 cc ac 52 bc af 30 81 bb 02 c5 64 3b 37 3b 81 3c
       -0.012858581 -0.003942571 0.0034907465 0.015775306
000320 ba 37 84 ba 09 46 c6 3b da a6 f7 3a 7b b8 c6 bb
       -0.0010087409 0.0060508293 0.001889433 -0.0060644723
000330 82 6c d3 3a 5b 8d cf 3c b8 df 95 bc a6 e6 b1 3b
       0.001613036 0.025335958 -0.018295154 0.0054291068
000340 e0 55 94 3b d3 69 7f 3c 8f 85 0c 3b f4 52 2b 3c
       0.0045268387 0.015589195 0.0021441912 0.010456789
000350 e5 75 07 3c b4 c6 fe 3b 33 81 a4 3b 00 51 37 3c
       0.008267854 0.007775152 0.0050202846 0.0111887455
000360 ab 5a c8 3c 2c 79 b3 bc 89 92 95 bb cf 01 8f b9
       0.024457296 -0.021908365 -0.0045645875 -0.00027276433
000370 ea 66 ef ba aa 78 da 3a 8f ca aa bb c4 2e 65 3c
       -0.0018264924 0.0016668041 -0.005212135 0.013988201
000380 ea 09 42 3c 5c 55 06 3b e3 c5 63 3c 83 e1 51 3c
       0.011843184 0.0020497655 0.01390216 0.012810114
000390 c0 b9 94 bc 40 52 bb 3b fe 80 8a 3c 50 67 cd bb
       -0.018154979 0.005716592 0.016907211 -0.0062684193
0003a0 cd 65 a2 bb 62 b0 f3 3b 15 2e 2b 3c 9f bc 91 bc
       -0.0049559833 0.007436798 0.0104479985 -0.017790137
0003b0 bd 39 90 bc 6b 2d bb 3b f7 9c 00 3c cb dd 51 bb
       -0.017605657 0.0057122014 0.007849923 -0.0032023068
0003c0 d4 1c 36 3b 78 be 55 bc f7 f8 4c 3b 34 b3 40 bc
       0.002778818 -0.0130459 0.0031276324 -0.011761475
0003d0 17 27 37 3c 15 52 5a 3c bf 82 e3 bb 0d 54 cf 3b
       0.011178753 0.013325234 -0.0069430764 0.0063271583
0003e0 f7 ae fe 3b 7d eb ed bb e7 83 aa 3a a2 7f 2b 3b
       0.0077723223 -0.0072607384 0.0013009281 0.0026168604
0003f0 ad 87 43 3c a0 dc 6f bb 85 1b 3d 3c 3e f3 93 bb
       0.011934203 -0.0036600009 0.011542206 -0.0045150807

network_body._body_endoder.seq_layers.4.weight f4 [256, 256]
000000 f2 f5 38 3d 9a ca 71 bc 0e c1 f5 bc d7 f9 bc bd
       0.045156427 -0.014757777 -0.029999282 -0.09227341
000010 34 e4 91 bc 38 4c c7 bd c9 b5 e3 bc 90 d8 52 bc
       -0.017809011 -0.097313344 -0.027796643 -0.012869015
000020 ff 57 96 3b 10 c9 08 bd 46 5a b3 3d 50 52 70 3d
       0.0045881267 -0.033394873 0.08757453 0.05867225
000030 70 b9 43 bc 7d ac 2e bd 36 05 5b bd cb 8f 9d b9
       -0.011946067 -0.042644966 -0.053471766 -0.00030052508
000040 94 6a 54 bd ff 32 7c bc 03 6a bc bd ff 6c d8 3d
       -0.051859453 -0.015393018 -0.09199908 0.10567664
000050 d1 1f 1a bc e8 fd 90 3d 68 50 9d bd be 4a c4 bb
       -0.009407 0.07079679 -0.07681352 -0.0059903553
000060 f7 a1 81 bd 1e 24 b1 bd 64 f5 3a 3d d6 58 a8 3d
       -0.063297205 -0.08649467 0.04564418 0.08220069
000070 56 d2 9b 3c a1 f5 bc 3d d8 bb 97 bd cc ad c9 3c
       0.019021194 0.092265375 -0.07408875 0.024619006
000080 fb 4b 37 bd d8 53 96 bd e6 99 27 3d 34 08 7d bd
       -0.044750195 -0.07340211 0.040918253 -0.0617754
000090 05 0a 30 bd be 6f ce bc 3d 3a c2 bd 6d 85 80 3d
       -0.042978305 -0.025199767 -0.09483764 0.06275449
0000a0 ce ac b8 3c 0d b8 72 bd b0 e6 ab bd 79 b8 be 3d
       0.022543337 -0.059257556 -0.083936095 0.09312529
0000b0 f1 78 4a 3c ed 2c 7f 3d cd 59 ec bd 9a 36 10 bd
       0.012357936 0.062298704 -0.11540566 -0.035208322
0000c0 8e 56 7a 3d b5 e6 b0 3d 94 a9 0e 3d 18 c0 c6 3b
       0.0611177 0.08637754 0.03482969 0.00606538
0000d0 bf 73 f7 bc 27 74 88 bc 2d cf 98 bd 28 bf 85 bc
       -0.03020656 -0.016656948 -0.07461391 -0.016326502
0000e0 ef c0 ea bd 0b 4a 42 bc b8 26 dc bd 6c 4f 1b be
       -0.114625804 -0.0118584735 -0.107495725 -0.15167016
0000f0 4e b2 33 bd 37 63 54 bc 8b 70 ad 3c 5b a8 3f bd
       -0.043871216 -0.012963108 0.021171829 -0.046791416
000100 64 c0 1e 3c bb 5d b5 3c cd 0d db ba c1 ae 37 bd
       0.009689424 0.02213942 -0.0016712487 -0.044844393
000110 73 26 0a 3d df ab 5d bb 03 2e 29 3d 26 ab 94 3c
       0.033728074 -0.0033824367 0.041303646 0.018148016
000120 1e cd 83 bd a1 ac a0 bc 43 ab e4 3b 13 c2 ea bc
       -0.064356074 -0.019613566 0.006978424 -0.028656995
000130 bb e6 d2 bc fa 92 c2 3d fe 0d 8c bd c3 e6 88 bd
       -0.025744786 0.0950069 -0.06838606 -0.06684639
000140 f2 f7 e5 bd 34 80 b5 3d d8 e3 9e 3d 5f 37 98 3d
       -0.112289324 0.088623434 0.077583015 0.07432436
000150 40 66 90 bb ba 30 80 3b d1 ff fb bc ee 55 27 bd
       -0.0044067204 0.0039120587 -0.030761631 -0.040853433
000160 a0 e5 ad 3d 3d 4c a9 bc 1c 2f 91 ba bc 50 3b bc
       0.08491063 -0.020666236 -0.0011076662 -0.011432823
000170 43 c1 0a bd db c8 a1 3d 1f 6c 26 3d 82 2a 4e 3d
       -0.033875715 0.07899638 0.040630456 0.050333507
000180 c7 00 ae bd be cf 72 3d 4a d7 b1 3d ac aa 9c 3c
       -0.08496242 0.05928015 0.08683641 0.019124351
000190 c0 00 98 bd c8 6e 43 bd ee 21 8d 3c 67 97 d1 bd
       -0.07422018 -0.04771307 0.017228093 -0.10233956
0001a0 22 57 b6 bc 01 dd 6a bd ed 50 1a 3c dc f9 ba 3c
       -0.022258345 -0.057339672 0.009418708 0.02282422
0001b0 dc e4 15 3e 20 42 20 bc f9 0f 44 3d 55 ec 1e 3d
       0.14638084 -0.00978139 0.047866795 0.038799603
0001c0 80 ac 8b 3c e6 32 8c 3c 5c 62 56 3d f0 4d e7 bc
       0.017050028 0.017114114 0.052339897 -0.028235406
0001d0 be f9 10 bd 84 38 97 bd 30 f9 b8 3d 47 14 de bb
       -0.035394423 -0.073838264 0.09031904 -0.0067773196
0001e0 70 2a 85 3d 40 4d e4 bb 3f 6a f7 bd b5 7f 2a 3c
       0.06502235 -0.0069672167 -0.12080812 0.010406424
0001f0 12 f2 10 3d e5 f9 d5 3c af 01 39 3d 79 dc b4 3c
       0.035387106 0.026120136 0.04516762 0.022077786
000200 33 63 93 bd e8 db 87 3c d5 96 d5 bd 81 dc 2c ba
       -0.07196655 0.016584352 -0.104291596 -0.0006594137
000210 f5 2e 0d bd 9c d4 d9 3b 3a e1 cf 3c 2c 59 d1 3d
       -0.03446861 0.0066476595 0.025375951 0.10222086
000220 31 f3 8d 3d 41 44 13 3d ea 00 36 3d 4d b8 a4 bc
       0.06931151 0.035953764 0.044434465 -0.020107413
000230 3f 20 19 be 2a 6a c2 bc 03 36 86 3b 56 48 3d bd
       -0.14953707 -0.023732264 0.004095794 -0.046211563
000240 84 97 3f bd c7 d2 a6 3d e4 61 47 bd c9 a1 0a 3d
       -0.046775356 0.08145671 -0.04867734 0.033845697
000250 ca a0 ff bb 6c 21 a9 3b 18 2b b3 bc a3 42 fe bd
       -0.00780115 0.005161455 -0.021871135 -0.12415054
000260 f7 37 dd 3d aa d5 23 be 4f ce 80 bd 12 e1 25 3e
       0.1080169 -0.15999475 -0.0628935 0.16199139
000270 9b 42 88 bd d3 bd d7 3c 1b fa ae bd b5 a3 19 bd
       -0.06653329 0.026335632 -0.085437976 -0.03750964
000280 b6 42 f8 bc 3e 05 43 3d 09 7d a2 3d 34 aa 90 3d
       -0.030305248 0.04761242 0.07934005 0.07063714
000290 e0 41 07 3d e0 6d fc bc 16 93 c6 3c 83 c9 98 3d
       0.033021808 -0.030814111 0.024240058 0.0746031
0002a0 c2 72 ee 3d f2 d3 98 3d 03 31 e1 3c d8 7a ba bd
       0.11642982 0.074623 0.02748919 -0.09105462
0002b0 ee 94 82 3d 15 5a a0 bd d1 51 05 3e 13 87 bc 3c
       0.06376062 -0.07829682 0.13019492 0.023013627
0002c0 8e df 08 bc 54 0b 72 bd f1 9c 68 3d f3 f3 2d 3c
       -0.008354081 -0.059092835 0.056790296 0.010617244
0002d0 ca 08 07 3d c2 40 a8 3c 34 d4 8b bd 42 e8 1c 3e
       0.032967366 0.020538691 -0.06827584 0.15322974
0002e0 ee 43 83 bd 0f a1 a2 3d b0 13 16 be 6c 85 c2 3c
       -0.06409441 0.07940876 -0.14655948 0.023745261
0002f0 0c a5 16 3d 72 9a f0 bb b3 ea 91 3b 73 c2 1d ba
       0.036778495 -0.00734263 0.004453027 -0.000601805
000300 d8 65 72 3b bc a2 13 3e e7 dc 87 bc 2d 0c d0 bd
       0.0036986973 0.14417547 -0.016584827 -0.10158572
000310 cb 3a ad 3c 4e 8c d9 3c e7 48 a5 3c c2 2b a2 3d
       0.021146199 0.02655616 0.020176364 0.079185024
000320 b3 c4 8c bc aa 47 78 bd ce 5e f9 bb ca f0 c3 bb
       -0.017183637 -0.06061522 -0.0076101786 -0.005979632
000330 a6 f8 1e bd 86 e3 81 3d b5 2f 7f 3d 67 44 21 bd
       -0.03881135 0.06342225 0.062301356 -0.039371874
000340 61 5f 7e 3b 5e 0a 61 bd 7a 9f 43 3d 29 14 fc b9
       0.0038814174 -0.054941528 0.04775951 -0.00048080206
000350 ae d2 be bd f5 fb 83 bc ea 9f 05 3d 6d ec ed bd
       -0.09317528 -0.016111353 0.03262321 -0.1161736
000360 1d 24 bb 3c 91 b5 00 bd 9f 6a 30 3d 70 2c 0f 3e
       0.022844369 -0.031423155 0.04307043 0.13981795
000370 70 f6 2f 3d b7 92 1e bc f5 37 a7 3c bc 42 00 bd
       0.04295963 -0.009678534 0.020412425 -0.031313643
000380 cc 06 d4 3a 12 15 75 bd 48 2f 20 3e 21 92 91 3d
       0.0016176342 -0.059834547 0.15643036 0.0710795
000390 7f 6a a5 3d 01 98 16 be e4 04 08 bc 67 08 ab bd
       0.08076953 -0.14706422 -0.008301947 -0.08351212
0003a0 4d 45 1b 3d b0 70 40 bd f9 0b ed 3c 10 88 ee 3c
       0.037907887 -0.046982467 0.028936373 0.029117614
0003b0 9c a4 c0 bd 1b 4e 3f bd 15 ac 10 bd 73 30 36 bd
       -0.09406397 -0.046705347 -0.03532036 -0.0444798
0003c0 63 24 60 3d 67 ed 93 3d fb f1 86 3d 57 57 c5 3c
       0.0547222 0.07223015 0.06589123 0.024089498
0003d0 ba 94 8c 3c e5 46 c6 bc e0 38 4f 3d ef 01 0c bd
       0.017160762 -0.024203727 0.05059135 -0.03418153
0003e0 b9 45 ae 3c 6e af 65 bd 34 76 b3 3d 6d d3 87 3d
       0.02127348 -0.056075506 0.0876278 0.06632123
0003f0 8b 02 2d 3d d2 90 99 3d cd 79 3f bd d3 39 da bc
       0.042238753 0.074983254 -0.046747018 -0.0266389

network_body._body_endoder.seq_layers.4.bias f4 [256]
000000 6f 83 1a bc 61 8b c7 bb e6 45 84 bc b9 50 4a bc
       -0.00943075 -0.0060896133 -0.016146611 -0.012348347
000010 91 2d 92 3c df c8 bb bc 7c f5 23 3c 06 0e 53 3c
       0.017843993 -0.022922931 0.0100072585 0.012881761
000020 34 b7 0c 3b fd c4 8c bc 54 85 14 b9 da dd c1 bc
       0.0021471502 -0.017183775 -0.00014164048 -0.023665357
000030 a4 23 9a 3b c3 62 2a 3c 43 8a be bc 3d 2b 95 bc
       0.0047039557 0.010399523 -0.023259288 -0.018209094
000040 3b 51 3e 3c b6 ea b3 3c 08 96 08 bc 31 69 d1 bc
       0.011616047 0.021962505 -0.0083365515 -0.025562854
000050 ac c4 c7 bc 7f 61 95 3c 9a 76 61 3c b9 01 f7 bb
       -0.024385773 0.018234966 0.013761187 -0.007538047
000060 39 f5 c2 bc f6 96 88 3c ea f3 1e bc ac 5b 9c 3c
       -0.023798572 0.016673546 -0.009701708 0.019086681
000070 15 9f 03 3c 11 c4 a4 bc 03 97 39 3c 62 24 e6 3b
       0.008033534 -0.020113023 0.011327508 0.00702338
000080 25 c5 db bb 24 ab af 3c ee 20 cf 3b 6e 89 31 bc
       -0.006706851 0.02144391 0.006321064 -0.010835988
000090 c7 6c 42 3c ba ae 48 3c 6c 55 14 bc 43 4d 30 3c
       0.011866755 0.012248689 -0.009053569 0.010760608
0000a0 b1 8e aa 3c 12 f6 ca bc 24 40 80 3b b6 48 86 3c
       0.020819994 -0.024775539 0.003913896 0.016392093
0000b0 6c ed 03 bb 26 68 9f 3b 3a e0 28 3c d7 d3 83 bc
       -0.0020130528 0.0048647104 0.010307366 -0.016092224
0000c0 d9 b5 56 bc f6 e5 d2 3c eb 41 91 3c 82 d0 ce bc
       -0.013104879 0.02574442 0.017731627 -0.025245909
0000d0 6d b7 96 bc 77 87 fb 3b 0a d5 39 3c 4b c4 f0 bc
       -0.018398011 0.007676061 0.011342296 -0.029390475
0000e0 34 84 bd bc 0f 61 90 bc 9c 95 a7 bb b7 71 7d 3c
       -0.023134328 -0.017624406 -0.0051142704 0.015469006
0000f0 d3 e4 e8 3b 37 5e f5 bc da 14 02 bc 8c 9b 12 3c
       0.007107356 -0.029952152 -0.007939542 0.008948218
000100 12 23 17 bc 8d 34 3d 3c 1e fa 70 3c 43 f6 e9 bb
       -0.00922467 0.011548174 0.01470807 -0.0071399524
000110 cb e1 7f 3c 9d ae 7b 3c 99 7b 41 3c 0b 8a ab bb
       0.015617798 0.015361455 0.011809253 -0.005234962
000120 ad b5 8a 3c 67 df 67 bc 58 89 71 bc 0d 17 40 bc
       0.016932333 -0.014152384 -0.014742218 -0.011724246
000130 50 8d bf 3b 7a 77 34 3c 5a d4 b4 bc 7b 0a 97 bb
       0.005845703 0.011014814 -0.022073913 -0.0046094037
000140 ac d6 14 3c 1e eb 06 3c 39 0a 63 3c de 31 c6 bc
       0.009084385 0.008234767 0.013857418 -0.0241937
000150 30 ae 39 3c 8f d2 3c 3c 3a 7c 14 3c e5 6b 59 3b
       0.011333033 0.01152481 0.009062821 0.0033175882
000160 dc 14 98 3c 7e 00 97 3c 47 95 a3 bc f9 c3 cb bb
       0.018564634 0.018432852 -0.019968642 -0.00621843
000170 4d ab 90 bc 81 19 93 3c 15 39 a4 3c ff 8e 1c 3c
       -0.017659808 0.017956497 0.02004675 0.009555577
000180 e6 a6 83 bc 0d 3b 95 3c 4c dc 84 bc 8f 8a 77 3c
       -0.016070794 0.018216634 -0.016218327 0.015108719
000190 d4 1f 18 bc 64 24 43 3c 38 3a f6 bc ce c2 a5 3c
       -0.009284932 0.011910532 -0.030057058 0.020234492
0001a0 3b 49 47 bc 16 5a 96 bc 4e 72 87 3c 12 47 07 bc
       -0.012163456 -0.018353503 0.016533997 -0.008256691
0001b0 8d b8 22 bb 57 a6 c2 bb c6 28 0f 3c c5 1e 88 bc
       -0.002482924 -0.0059402394 0.0087377485 -0.016616235
0001c0 9c f8 53 bc e4 e7 e0 bb 6f 29 ab bc 51 71 ac ba
       -0.012937691 -0.006863581 -0.02089378 -0.001315633
0001d0 cb e9 93 3c d0 b0 9b bc 18 7c e2 bc aa 75 02 3c
       0.018055817 -0.01900521 -0.027647063 0.007962624
0001e0 4d 15 b7 3a 32 0e e4 bc 59 d1 8a bc 47 0e 9c 3c
       0.001396814 -0.0278388 -0.016945528 0.019049777
0001f0 9f 97 7c 3c 9f 77 53 3c a1 6c 8a 3c f2 84 aa bc
       0.015417009 0.012906938 0.016897501 -0.020815346
000200 ed 08 87 3b 8d 65 2a bc a6 8c 8f bc fd d6 2a bc
       0.004120937 -0.010400188 -0.017523121 -0.010427234
000210 ff af 06 bc 34 b2 67 3c 19 d1 3d 3c 4f 64 29 3c
       -0.008220672 0.014141608 0.011585497 0.010338857
000220 f7 d9 6b bc 91 33 d6 3b de a9 9b bc 78 01 a1 3c
       -0.014395229 0.006536909 -0.019001897 0.01965402
000230 6b c2 33 3b d5 80 4d bc b4 67 56 3c 28 a8 39 3c
       0.0027429115 -0.012542923 0.013086248 0.0113315955
000240 19 11 de bc c6 f2 cb bc c4 44 9e 3b f9 33 a7 bc
       -0.027107762 -0.024896037 0.004829975 -0.020410525
000250 7a 0e 34 3c 00 c7 60 3b 60 23 93 bc 09 94 e7 bc
       0.01098978 0.00342983 -0.017961204 -0.02826883
000260 e2 dd 0b 3c e4 d4 c0 bc 06 ab 0b 3c 6a 96 44 3c
       0.008536788 -0.023539014 0.008524662 0.011998752
000270 ef 70 bc bc fd 6d cc 3c bf 7b c1 bc 58 6d ae bb
       -0.02300307 0.02495479 -0.023618577 -0.0053230934
000280 fd 65 3e bb 10 2b 04 bd 97 69 ba 3b c6 5d 2b bc
       -0.002905249 -0.03226763 0.005688857 -0.010459369
000290 ff 3d 22 3c 0f 5b 68 3c 3b a1 89 3c 95 37 4e 3b
       0.009902476 0.014181866 0.016800513 0.0031466235
0002a0 f4 0b 78 bc ef fc 9b 3c 6a 44 a1 3b 7b 07 22 bc
       -0.015139569 0.019041507 0.0049214857 -0.009889479
0002b0 ff 8f 9c 3b ec d1 4d 3c 02 69 3e 3c 02 5d 87 3c
       0.004777908 0.012562256 0.0116217155 0.016523842
0002c0 39 6e 1d bc 07 b1 d6 3b cf 1a a6 3c c7 f3 9f 3b
       -0.009608799 0.006551865 0.020276455 0.0048813554
0002d0 4e f8 1c 3c 43 79 88 bc a3 5c a5 bc b6 b0 e5 bc
       0.009580685 -0.016659385 -0.020185774 -0.028038364
0002e0 08 20 65 3c 6f 5f 92 3c 79 77 83 3c 8c e4 1a 3c
       0.013984688 0.017867772 0.01604818 0.009453904
0002f0 a7 9b b0 bc fa 21 b7 bc a2 89 b8 bc 2d 50 26 3c
       -0.021558596 -0.022355068 -0.022526566 0.010150951
000300 6e 72 73 3c ff 08 db bb ad 2f 01 3c 30 04 e5 3c
       0.014858825 -0.006684422 0.007884902 0.027956098
000310 a8 22 4b 3c a8 92 2d 3c d5 72 39 3c e6 42 4e 3c
       0.012398399 0.010594048 0.011318882 0.012589192
000320 35 fe 8a 3b 9c 3d 9e 3c 97 47 41 3b a7 4e 8e 3c
       0.0042417296 0.019316487 0.0029492134 0.017371489
000330 bd 98 2c 3c a3 11 33 3c ed 62 0b bc d9 32 c7 3a
       0.0105344625 0.010929498 -0.008507472 0.0015197649
000340 e7 69 33 bc d0 77 e9 bc e4 31 0f 3c b0 ba 84 3c
       -0.010950542 -0.028499514 0.008739922 0.0162023
000350 e6 b6 e2 3b fb 65 56 bc 74 aa 7a bc 39 25 33 bb
       0.006918776 -0.0130858375 -0.015299428 -0.002733542
000360 8e da 35 3b eb cb c1 bb f0 2c b0 bc b5 2a 57 3c
       0.0027748677 -0.0059142015 -0.021505803 0.013132741
000370 33 86 70 3c 56 c5 ab 3c c8 8e 72 bb 92 4a 51 3c
       0.014680433 0.02096812 -0.0037011374 0.012774127
000380 c7 18 c6 bc 69 2f a2 3c cc d0 18 b9 d4 1a 31 3c
       -0.024181737 0.019797998 -0.00014573633 0.010809619
000390 53 89 aa 3b b1 d7 6b bc 81 ae 13 3c b1 6c dc 3b
       0.0052043586 -0.014394687 0.009013773 0.006726824
0003a0 bd e3 8b 3c 23 38 c1 bc 4c 8f f4 3b df db d0 3b
       0.017076368 -0.023586338 0.0074633714 0.006373867
0003b0 d1 07 85 3c b0 6f 6e 3c 36 5b a2 bc f2 ae 2b 3c
       0.016239079 0.014552996 -0.019818883 0.010478722
0003c0 c3 6a d7 3b f1 39 58 3c 59 81 70 3c 38 e1 10 bc
       0.0065740063 0.013197408 0.014679276 -0.008842759
0003d0 20 76 e3 bc da ed 5d 3c bc 96 5b 3c 41 71 89 3b
       -0.027766287 0.013545478 0.013402637 0.004194409
0003e0 80 29 64 3c 71 4f be 39 48 37 d8 bb a3 1b 0a 3c
       0.01392591 0.00036298812 -0.006598387 0.008429441
0003f0 93 4c 55 3c 66 90 cf bc 5a d3 f7 3b e2 31 b1 3c
       0.013018745 -0.02533741 0.007563037 0.021630231

action_model._discrete_distribution.branches.0.weight f4 [3, 256]
000000 ed 1e 67 3b cd 6d f9 bb 67 0d 63 3b eb eb 08 3c
       0.0035266236 -0.007611966 0.003464544 0.0083570285
000010 f4 0b cf 3c 63 27 de bc 69 5c 4a 3b ff e4 cb 3a
       0.025274254 -0.02711839 0.0030877835 0.0015555917
000020 d8 d7 d4 39 d3 46 38 3b 06 00 92 3c bb f1 d8 bc
       0.00040596607 0.0028118386 0.017822277 -0.026482454
000030 8e 8c 3e 3c 7f bc 45 3b 51 b7 1d bc 8e 2f 6b 3c
       0.011630191 0.0030172167 -0.009626226 0.0143546
000040 18 77 c3 3b 80 61 31 bd 94 2a 3e bb ed b8 6b bc
       0.005965125 -0.043305874 -0.0029017078 -0.014387351
000050 a3 ec f5 bc ba cc cd 3c 49 17 57 3a 1c 08 0e bb
       -0.030020064 0.025122035 0.0008205069 -0.0021672314
000060 2b c1 a8 bc fe b0 c6 3c 33 11 2f 3b bf a8 76 3c
       -0.020599922 0.024254318 0.0026713132 0.015054881
000070 45 c5 1c 3c f4 e3 23 bc e0 de 4e 3c 26 a2 69 3b
       0.009568517 -0.010003079 0.01262638 0.0035649627
000080 48 fd ad b9 32 e6 89 3d c4 17 0c 3b 8a 99 bf 3a
       -0.0003318584 0.067333594 0.002137647 0.0014617902
000090 a1 5a fd 3b 69 da 11 3b e6 ce 09 3d 10 a5 48 ba
       0.007731751 0.0022255427 0.03364458 -0.0007653991
0000a0 9d e3 37 3d 6d b0 02 bd f3 9a 33 3d 0d e9 86 3c
       0.044894803 -0.031906534 0.043848943 0.01646855
0000b0 5a 68 56 3b 38 23 9f 3b f5 2d 54 3c 2f 60 b7 ba
       0.0032716007 0.0048564933 0.01295041 -0.0013990457
0000c0 20 83 9a 3b 58 9a 97 3d 93 2d 13 bb 12 69 93 bc
       0.0047153383 0.074024856 -0.0022457584 -0.017994437
0000d0 9d d0 c9 bc a7 00 a4 3a af 2a 04 bc dc 01 a8 bc
       -0.024635607 0.0012512401 -0.008066817 -0.0205087
0000e0 c2 8a eb bb 0e 00 53 bc 96 6c 52 3c 47 d6 87 3c
       -0.007188172 -0.012878431 0.012843272 0.016581668
0000f0 c0 72 a1 bc 21 9c be bb e6 18 96 3b 9f fa bf bb
       -0.019708037 -0.005816952 0.004580605 -0.005858734
000100 87 a8 10 3d 58 58 dd 3b 8b ef e4 3b 2b 61 78 bb
       0.03531697 0.006754916 0.0069865636 -0.0037899713
000110 33 c3 6a 3b b2 cd 12 3c 5c 73 2d 3c ff 25 5e bc
       0.0035821914 0.008960174 0.010586586 -0.013558864
000120 0b 27 5a bd 81 6a ed bb f0 01 88 3a cc 1f 07 bc
       -0.05325989 -0.0072453623 0.0010376554 -0.008247327
000130 4c 72 38 3c 7e e5 87 3c 10 1c f9 bc 82 fd 0d bb
       0.011257719 0.016588923 -0.030408889 -0.0021665995
000140 ee 39 3b 3c 42 ac df 3b ed 8f b4 3b 05 2a 99 bc
       0.011427386 0.0068259547 0.0055103214 -0.018696794
000150 13 4a 58 bb 0e ea 81 3c eb d7 d0 3a 8e c4 28 3b
       -0.0033003136 0.015858676 0.0015933489 0.0025751921
000160 8e 0f 9a 3c de 29 6a 3d 0e 40 9a bc 58 9f 85 b8
       0.018806245 0.057168834 -0.018829372 -6.371614e-05
000170 18 bd 01 bc cb b4 0c 3c 49 5b f9 bb fd ae 80 bc
       -0.007918619 0.008588026 -0.007609759 -0.01570844
000180 04 7e af bb 33 b7 c0 3b ac e3 43 bc 76 5f b4 3b
       -0.0053555984 0.005881214 -0.011956137 0.005504544
000190 5e 8b ec 3b 91 a2 45 3d e2 bf fb bc 69 b8 30 3d
       0.0072187623 0.04825074 -0.030731145 0.043144617
0001a0 2d cd 0b 3b 74 f2 d7 bc e6 c9 8f 3c 22 cf 8b 3c
       0.002133201 -0.026360728 0.017552327 0.017066542
0001b0 7b ba 1a 3c 06 dd 0c 3c d8 ef 9e 3b 55 2a e3 3b
       0.0094438745 0.008597618 0.004850369 0.0069325366
0001c0 f8 68 08 3c 3b 13 a7 3b 3f c2 1d bb 8e 31 77 3c
       0.008325808 0.005098728 -0.0024072079 0.015087498
0001d0 e9 2d b0 3b 92 21 40 bc cb fd 89 bc c8 15 97 3b
       0.0053765667 -0.011726754 -0.01684465 0.004610751
0001e0 60 4f f1 ba 97 09 9b bc a1 86 dd bb 68 81 80 3c
       -0.0018410496 -0.018925471 -0.006760434 0.015686706
0001f0 da bc 0f bc e6 cc 02 bb 27 76 4a bc 23 cb 0d bd
       -0.008773053 -0.0019958555 -0.012357271 -0.034617554
000200 8a a7 32 bb a0 c6 84 3a 99 7a cf 3b 3b 32 bb 3b
       -0.0027260506 0.0010129996 0.0063317535 0.005712775
000210 62 9f 91 3c 5e e3 2e 3b be a3 ee 3b bc 2e 04 3c
       0.017776195 0.0026685814 0.007282703 0.008067783
000220 fc 05 57 bb 1d 7e 92 3b 3a 2b 07 bd 0e 03 28 3d
       -0.0032809963 0.0044706003 -0.03300021 0.04101854
000230 8c a2 36 3c 51 17 b1 bc 4e 1f 29 3c 5d a0 5c 3b
       0.011147153 -0.021617563 0.010322405 0.003366492
000240 70 47 fb bc b7 b4 32 bb 5c 26 9b 3c dc 18 00 3b
       -0.030673712 -0.002726836 0.01893919 0.0019546067
000250 97 e3 19 bc df 5c 0a 3b d1 a3 08 bc f9 16 54 bc
       -0.009392641 0.0021112484 -0.008339838 -0.01294493
000260 c2 d2 1f 3a 60 5e d2 bc 95 3a d3 3c c3 1e 8b 3c
       0.0006096774 -0.025679767 0.02578477 0.016982442
000270 1a 76 38 bc 4c e8 f6 3b 3b 49 87 bc b4 25 f5 3b
       -0.011258626 0.007535016 -0.016514411 0.007481301
000280 89 fd d0 3a 88 71 4d bc 7a 02 8e 3b 03 92 55 3c
       0.00159447 -0.012539275 0.0043337913 0.0130353
000290 9f 14 f4 b6 e3 52 11 3c f1 52 12 3d 0b 46 2e ba
       -7.2741673e-06 0.008869859 0.03572363 -0.00066480105
0002a0 72 be f5 bb a9 3f d5 3c af 6b 98 3c 39 b3 38 3c
       -0.0074995095 0.026031332 0.018606035 0.011273199
0002b0 d0 72 93 3c a4 c7 f0 3b e9 9f 36 3c a7 07 a9 3b
       0.017999083 0.0073480178 0.011146524 0.005158383
0002c0 18 b2 bb 3b 29 20 12 3d fa e0 8b 3b e7 71 63 3d
       0.0057280175 0.0356752 0.0042687627 0.055528548
0002d0 47 0e ce 3c 9a 95 13 bb 48 1a 04 bd ad b5 6b bb
       0.025153292 -0.002251959 -0.032251626 -0.0035966442
0002e0 19 02 45 3c ec 21 bf 3c bf 3b 25 3c 1c 4d ab 3c
       0.012024426 0.023331605 0.010085045 0.020910792
0002f0 9b 21 a1 bc b2 d9 87 bc 5f 9a 02 bc aa 8f 15 3d
       -0.019669345 -0.016583297 -0.007971375 0.03651396
000300 78 bf a7 ba 42 77 80 3c 77 d9 c5 ba ae da 76 3d
       -0.0012798151 0.015681867 -0.0015094717 0.060267143
000310 25 75 e2 3b 01 ea d0 b8 84 2a 88 3c 7c 81 00 3c
       0.0069109374 -9.9617995e-05 0.016621836 0.0078433715
000320 52 d6 85 3c 4c 77 9e 3c e7 41 9b 3b 7b 09 7c 3d
       0.016337547 0.019343995 0.004738081 0.06153248
000330 6d 7d 3d 3c a8 66 6f bc 8d cc 95 3c 78 ed 50 3c
       0.011565548 -0.0146118775 0.018286014 0.012751929
000340 7a c5 59 ba c4 b9 e2 bc 59 dd 02 bc a4 62 96 3c
       -0.00083073194 -0.02767647 -0.007987344 0.018357582
000350 5c bd 0c 3c bd d2 05 bc ad 22 70 bb fc 11 de 3a
       0.008590069 -0.00816792 -0.0036641762 0.0016942616
000360 14 d6 5e 3c b0 05 de 3b 10 ab 19 bb c6 a1 32 bc
       0.013600845 0.0067755803 -0.0023447908 -0.010902828
000370 ba fa 0d 3c d7 56 f7 3c 7a 23 cf 3b 2c 61 3c 3c
       0.008665735 0.030192776 0.006321368 0.011497777
000380 25 fa 87 bc 73 be b7 3b 2e 29 58 3c 41 e1 23 3c
       -0.01659877 0.00560742 0.013193412 0.010002435
000390 39 64 e7 3b ad fb fe bc a2 15 9a bc 81 62 d4 3c
       0.007061508 -0.031125868 -0.018809143 0.025925877
0003a0 a6 c2 01 3c 32 ba cf bc 6f 44 aa 3b 9a c9 39 3c
       0.007919943 -0.02535734 0.005196146 0.011339569
0003b0 5e 24 57 3c a6 9a 77 3c a8 0b 7e bc fb de 11 3c
       0.013131229 0.015112555 -0.015505709 0.00890326
0003c0 b7 76 05 3c 42 6b 90 3a 70 8c 58 3c 3d d6 93 3b
       0.00814598 0.0011018293 0.013217077 0.004511623
0003d0 f2 b1 cf bc fc 60 04 3c 52 06 9f 3b fa 73 25 39
       -0.025353406 0.0080797635 0.0048530484 0.00015778831
0003e0 bb 95 cc bb cf df 15 bb a8 22 49 3d 46 6f 3a 3c
       -0.006243435 -0.0022868996 0.049105316 0.011379069
0003f0 00 6a 6b 3b 39 7d 08 bd 9d dd ec bc 84 78 94 3d
       0.0035921335 -0.033322547 -0.028914267 0.07249549

action_model._discrete_distribution.branches.0.bias f4 [3]
000000 4f 69 c9 3c 88 53 6e bc 48 dc 7a 3b
       0.024586348 -0.014546283 0.003827827
