results/phase1/PlayerAgent/PlayerAgent-29899.onnx (onnx, 80832 bytes, 11 tensors)

discrete_act_size_vector f4 [1, 2]
00000000: 0000 4040 0000 0040
3.0 2.0

network_body.observation_encoder.processors.0.normalizer.running_mean f4 [7]
00000000: 9303 983f f6a9 81bf 10a9 aebe 0000 0000
00000010: 043b 273e 2d4d 05bd 06f5 7f3f
1.1876091 -1.0129993 -0.3411336 0.0 0.16331106 -0.032544304 0.9998325

network_body._body_endoder.seq_layers.0.weight f4 [128, 7]
00000000: c610 003f 5c5e 673e b5d8 19bf 8d1b 543e
00000010: da9c d53e 49d8 143f b257 d23e b004 7ebe
00000020: c896 993e e1bf f2be a4ea 503d a263 f93e
00000030: edc8 e93e 639a d9be 69f8 e93d 8f81 ff3e
00000040: 5b1e a5be 2813 ff3d d46c 933d 49e9 3ebe
00000050: 3ee1 e63d c562 bd3e d584 dc3e 515c eebc
00000060: d831 423e ce17 c33e 47ed 6a3e 7a7a 493f
00000070: d53b bfbc 91ac 5a3d 0138 e13e c7c3 3a3f
00000080: 7e19 943e 2f33 ca3e ff40 303f 1ca7 94be
00000090: ff35 68be e730 d7bc 2f29 053e dccb b83e
000000a0: aced 5abe c4dc c53e eb9c 073f 50b4 cc3d
000000b0: b4cc 433e 6ea7 3fbe 0ced 4abf 8f81 b8be
000000c0: dafd 1b3f 8761 713f 12b2 143f e604 37bd
000000d0: db18 473d 14f4 c9be dd55 d3be ba25 95be
000000e0: 5ee6 a43e adb3 07bf 4e6d c7be deff 153f
000000f0: ff68 c4be f6b2 253e 8bd0 01bd 4714 0bbd
00000100: 85a9 8f3d 266b 4fbf 268b 793d 3bbc 2b3e
00000110: 226c 4dbe 2ca2 06be 169e 0fbf a8cc 173f
00000120: 326b 11bf d395 dabd e425 2dbe 0ee8 413f
00000130: 66fc a43e 69c3 7abe 96ce 31bf fa01 343f
00000140: 97da b8be 000a 9b3e 9f29 28bd fc54 40be
00000150: 5e2a 32bd e01e c83d afc9 9b3e 63a4 233f
00000160: 6c34 e73e 0eea d03e 73ec cfbe f38c 443e
00000170: 06dd ca3e 4e83 263f 8d9b 40be d1f9 f2be
00000180: 5485 433e bac1 933e 83ed ed3e a994 18bf
00000190: dac4 a5be 2968 6d3e 17ea 23be 1799 103d
000001a0: 68c4 cdbd 8652 c1bd 4af0 0e3f d308 2c3e
000001b0: 5d15 8dbe ac34 debd 26ab f2be 91ac 62be
000001c0: bd3c 3dbe 2853 8f3e 57ce e8be 2ad7 0b3f
000001d0: 09dd 6c3e b1a1 02bf f5a0 89bd e366 1c3e
000001e0: f081 993e 36b1 18bf d327 11be f327 103e
000001f0: 4c22 80be b02f 833e 8205 0a3e eac4 0ebd
00000200: 421d 28bf b8cf eebe 1ac5 84be d8e8 8ebc
00000210: b2f2 1d3f 9981 653e 3c8e c43d 709a 6a3f
00000220: d713 a73e 4488 133e 59fd a83e ff70 653e
00000230: 5be1 bcbe 559d 513d fb1e 163f d571 583e
00000240: 3366 d23e 4732 693f 4bdb 33bf 8881 af3e
00000250: bd51 2dbe e365 f13e 6cde f43e 4038 8dbc
00000260: 5716 303e cf34 14be 0b1e 56bf 99e7 3a3e
00000270: 5fc3 09bf 0a97 583d eba2 d63d a8e7 72be
00000280: 2183 af3d 2266 6ebc 6e78 583f 0bbd 87be
00000290: c06e 36bf 6139 79be cbd3 e63c 52e6 2bbe
000002a0: c9e8 08bf 801d 06bf e150 83be 433f 0fbf
000002b0: a6f0 7abb c1e9 85be dae5 05bf 4485 39be
000002c0: 8bf3 97be 3c16 353e edb2 f53e af01 1ebe
000002d0: 7cd9 103f 4fb2 26bf 4c22 093d 1fef a13e
000002e0: 572a c83d 67f3 0f3f b573 a7be 755d c8bd
000002f0: 595e 333d 0d8b 093e 17b7 823e 9a1c 1e3f
00000300: 57db 293e bb1f 343e 37c1 c63e f4d5 e13e
00000310: 2561 383f adde 25bf 988e 8d3e 232e c4be
00000320: 06db 9b3e df0f 89bd 64ba e6be e01c 6abe
00000330: 075e c0be c675 2b3f 7cb7 4d3e 163f 20bf
00000340: a465 c33d 2be1 94bb 3f03 de3e 5db1 2f3e
00000350: 56aa 5c3e 6789 f1be c6ce a23e 942a a13e
00000360: 1a53 9a3e babc 703d 8c43 9e3e 6d87 9ebe
00000370: 6492 92bd 384f 073f 73a4 093f 2482 033e
00000380: 43fa e6bd 10e1 a7be 782e 52bf 259d e73e
00000390: 6db0 41bf 2b40 443e a70b 093f 7205 993d
000003a0: 8a62 fc3d ca68 a0be 7211 af3d c2b1 56bf
000003b0: 47c4 99be 929d ebbd 514a 033c 1204 abbe
000003c0: 4acb 1b3f 787a dabe bc0f 3dbf c67d f03b
000003d0: f82b 15bf abc4 68be e452 54be 5c84 29be
000003e0: 5d11 d4bd 8d44 13bf 80f7 d2bd 3f82 223e
000003f0: 61fe 0fbe 26fd 23bf d880 cb3d f3a3 a9be
0.50025594 0.22594589 -0.60096294 0.20713635 0.4172123 0.58142525 0.4108253 -0.24806476
0.2999785 -0.47412017 0.05100502 0.48708826 0.45661107 -0.425006 0.114243336 0.49903533
-0.32249722 0.12454826 0.07198492 -0.18643679 0.1127343 0.36989418 0.43070093 -0.029096754
0.18964326 0.381041 0.22942077 0.7870251 -0.02334396 0.05338723 0.4398804 0.7295498
0.289257 0.39492175 0.68849176 -0.29033744 -0.22676848 -0.026268436 0.13003992 0.36093032
-0.21379727 0.38644993 0.5297381 0.099953294 0.19121057 -0.18716213 -0.79267955 -0.36036345
0.6093422 0.9428944 0.58084214 -0.044682406 0.04860769 -0.3944403 -0.41276446 -0.29130346
0.32207006 -0.5300854 -0.3895058 0.5859355 -0.38361356 0.1618155 -0.031693023 -0.033954885
0.07014755 -0.8102287 0.060923718 0.16771023 -0.2006078 -0.13147801 -0.56100595 0.59296656
-0.5680419 -0.10673108 -0.16908985 0.7574471 0.32223815 -0.24488606 -0.6945585 0.70315516
-0.3610427 0.30281067 -0.041055318 -0.18782419 -0.043497436 0.09771514 0.3042731 0.6392271
0.45157182 0.4080357 -0.40610084 0.19194393 0.39621753 0.65044105 -0.18809338 -0.4745622
0.1909383 0.2885874 0.4647027 -0.5960184 -0.32376748 0.23184265 -0.16007267 0.035302248
-0.10047227 -0.09439568 0.558354 0.16800241 -0.2755536 -0.1084989 -0.473962 -0.22136141
-0.18480201 0.2799313 -0.45469925 0.5462519 0.23131193 -0.5102797 -0.06720153 0.15273623
0.29981947 -0.596454 -0.14175348 0.1407774 -0.25026166 0.2562232 0.13478664 -0.03485576
-0.65669644 -0.46642852 -0.25931627 -0.017445013 0.6169845 0.22412719 0.095974416 0.916419
0.32632324 0.1440745 0.3300579 0.22406386 -0.36890683 0.051175434 0.5864102 0.21137173
0.41093597 0.9109234 -0.7025649 0.34278512 -0.16925712 0.47148046 0.47825944 -0.017238736
0.17196022 -0.1447327 -0.8363959 0.1825241 -0.5381374 0.052878417 0.10480293 -0.23721182
0.08569933 -0.014550718 0.8455876 -0.26511416 -0.7126274 -0.24338295 0.028177163 -0.16787079
-0.534802 -0.52388763 -0.25647643 -0.55955905 -0.003829041 -0.26154903 -0.5230385 -0.18117243
-0.29677996 0.17684263 0.47988072 -0.1543033 0.56581855 -0.6511583 0.033479974 0.31627747
0.09773701 0.5623078 -0.32705465 -0.097834505 0.04379115 0.1343195 0.2553031 0.6176239
0.16587578 0.17590229 0.38819286 0.44108546 0.7202323 -0.647929 0.27647853 -0.3831645
0.3044054 -0.0669248 -0.4506408 -0.22862577 -0.37571737 0.66976583 0.20089525 -0.6259626
0.09540871 -0.0045434437 0.43361852 0.17157502 0.21549353 -0.47175142 0.3179838 0.31477797
0.30141526 0.058773734 0.3091091 -0.30962697 -0.07156828 0.52855253 0.53766555 0.12842613
-0.112782024 -0.32788897 -0.82102156 0.4523708 -0.7565983 0.19165103 0.53533405 0.07471742
0.12323482 -0.31329948 0.08548249 -0.83864987 -0.3003256 -0.115046635 0.008013324 -0.33401543
0.6085707 -0.4267156 -0.73852134 0.007339212 -0.58270216 -0.22731273 -0.20734745 -0.16554397
-0.10354874 -0.57526475 -0.10301113 0.15869997 -0.14061882 -0.6405815 0.09936684 -0.33132896

network_body._body_endoder.seq_layers.0.bias f4 [128]
00000000: ca49 09ba 67f5 a33b 89bf 723c 924f 2a3c
00000010: e1ee 7e3c b99d 003c 5767 803c 21ae 4dbc
00000020: f4cf 8a3c dea0 303c e0ce 893c 42f8 8c3c
00000030: 2ae8 59bc 80ce 013c 4370 823c 9722 743c
00000040: 8453 bb3a 01f3 8dbc 52c0 5a3c fae3 503a
00000050: e4c3 94ba 8eed 28bc b135 7ebb f362 e73b
00000060: ee47 713c cfb9 6f3c e9b5 223c bb28 c73b
00000070: 8120 563c 81b0 4d3c c800 1d3c 0ca0 d9bb
00000080: 079a 8a3c f3da 8f3c 536d 8d3c fa68 943c
00000090: efa7 8a3c db22 92ba a552 6fbc cf23 8a3c
000000a0: ce1a 4ebc d0d6 3ebc da33 75bc 3d3d 13bc
000000b0: 95ea 84bc f8fc 853c 41e8 733c 5011 393c
000000c0: d08d 8b3c 64cc 023c 055c d5bb efea 7b3c
000000d0: 5dec 9e3b 8740 71bc 27a2 7d3c 8a7d a43a
000000e0: c33b 673c 6b37 523c 1d5b 4a3c 44d4 913c
000000f0: a0a7 893c 0559 81bc 8742 8b3c 57da 7d3c
00000100: d448 6b3c 00a2 373b ffc8 d43b 612f 843c
00000110: 2f62 8fbb cc29 b63b fd97 8b3c c0b1 803c
00000120: 84c7 873c d3c6 133c 704a 623c 22ee 473c
00000130: 26c6 663b 181f 62bc 37ee 093c e196 48bc
00000140: 67a8 433c 630d 8c3c b7b5 3c3c fced 8d3c
00000150: 46a9 7a3c 29eb 1ebc aa3e 033c fce8 813c
00000160: 9ccd 823c 0c48 7d3c e749 783c 1ded 863c
00000170: 5341 853c f769 713c 378c 223c afc0 123c
00000180: 9159 c6bb 6d5c 5bbc d12c 44bc 5f0a 713b
00000190: edb0 a1b9 6b9b 573c 5c19 3fbc 3565 c93b
000001a0: 331e 8b3c d374 8f3c cdd6 813c a7fd f93b
000001b0: 3710 373c a12a 573b 763b 9bba 4b04 8d3c
000001c0: 8b08 43bc a755 26bc 3f9a 76bc 6922 5dbc
000001d0: 7514 853c c49e 173c b3ee 833c bc0e 0fbc
000001e0: 85bf 4f39 f2f2 6c3c d01f b53a a21b 2dbc
000001f0: 249f 97bb 1708 873c 3202 483c 0983 893c
-0.00052371307 0.0050036195 0.014816173 0.010394948 0.015559883 0.007850104 0.015674276 -0.012553723
0.016944863 0.010780541 0.016822278 0.017208222 -0.013299981 0.007922769 0.015922671 0.014900825
0.0014291857 -0.017327787 0.013351517 0.00079685415 -0.0011349884 -0.010310544 -0.0038789327 0.007061356
0.014726622 0.014631703 0.009931066 0.0060778535 0.013069273 0.012554289 0.009582706 -0.0066413935
0.01691915 0.017560458 0.017264044 0.018116463 0.01692578 -0.0011149304 -0.014607106 0.016862778
-0.012579633 -0.011647895 -0.014965976 -0.008986768 -0.016225139 0.016355976 0.014886917 0.0112956315
0.017035395 0.007983301 -0.0065112137 0.015375837 0.004849954 -0.014724857 0.015480555 0.0012549621
0.014113369 0.0128305955 0.012350825 0.017801411 0.016803563 -0.015789518 0.016999496 0.015493951
0.014360625 0.0028020144 0.006493687 0.016135873 -0.004375718 0.005559182 0.017040247 0.015709758
0.016574629 0.009019571 0.013811693 0.012202771 0.003521332 -0.013801359 0.008418611 -0.012243004
0.011942006 0.017096227 0.011517934 0.017325394 0.015299147 -0.009699621 0.008010546 0.015858166
0.015967183 0.015459072 0.015154338 0.016470486 0.0162665 0.014734737 0.009921125 0.008957072
-0.0060531576 -0.013388735 -0.011973576 0.0036779863 -0.00030840133 0.013159613 -0.011663761 0.006146098
0.016982174 0.01751176 0.015849495 0.0076291147 0.0111732995 0.0032831805 -0.0011843282 0.017213961
-0.011903892 -0.010152257 -0.015051424 -0.013496974 0.016245106 0.009254161 0.016105032 -0.00873154
0.00019812405 0.01446222 0.0013818685 -0.01056567 -0.0046271253 0.01648335 0.012207555 0.016786115

network_body._body_endoder.seq_layers.2.weight f4 [128, 128]
00000000: c370 aabd 9881 433d a2ba 5fbe 522f e7bc
00000010: 703b debc 60c7 b3bd b6dd 933d 9e63 c7bd
00000020: b5ff 453e d327 babc 8138 e53d 0f0e 71bc
00000030: ca14 0bbe 4d44 e23d 67e2 4cbd 1d4c 0e3d
00000040: da76 943c 4139 e73c 4d2c 7dbb a669 023d
00000050: cbee a4bd e027 e2bb cd0c d8bd add7 f4bd
00000060: 4980 8a3d dd82 943d d1fa 803d 0187 323c
00000070: 2378 36be 7b30 a73b 8391 113d cdaf 30bd
00000080: 2cad 6a3e 6057 c9bd 9816 9d3a 5a9d 823d
00000090: 4616 df3d 8bc2 933d a059 f83b 0abb 043e
000000a0: d2fd 03bd b2f8 ec3d 356d c1bd b0fd e2bc
000000b0: 394b b6bd 84a6 6c3e 7a73 543d 4c95 403c
000000c0: c5a5 df3d 2193 db3c f4b5 1cbc 0311 c23d
000000d0: 807f 403c 39ea d83b 9a43 9a3d 9ae5 22bc
000000e0: 71b5 c53d ef75 c7bd 6a98 b3bd 3bb6 a73d
000000f0: f967 373c 0de5 89bd 68ab aa3d b615 d93d
00000100: 2995 b23d ba05 dabd 2fba 9ebd 3625 ccbc
00000110: 51fc cd3c 1354 bc3c 770c 1c3d 89ca eebd
00000120: c392 95bd eda6 ac3c 6fe7 bcbd c03a 9bbd
00000130: d906 3bbb 0f42 c7bb 0e95 6dbd 2dbb 69bb
00000140: 26ae d13d 8702 2abe 2159 39bc 183f 0e3e
00000150: 5c15 8abd a308 443c bfb2 143d fe7d 313e
00000160: a944 f33d 4277 da3d d828 8a3c 8f02 4a3d
00000170: daa6 4b3d 166e 58bb 0e72 803d 6d72 5abc
00000180: 7141 d03d a380 00bd e32e 86bd 5b23 af3c
00000190: d754 74bc e22e 3dbd d461 21bd d069 42be
000001a0: ec1e f23b 5084 18be 6a96 4c3e 8b94 41bd
000001b0: e55a 483d 112b b03d d3cd 5bbe ab32 39bd
000001c0: 9a70 48bd 27d1 f6bd e2f7 51be 2d9a acbd
000001d0: 120c ef3d 2e0a 013e eadf 15be d552 90bd
000001e0: 2e72 3b3e 07a8 b6bc 6299 25bd 24f5 133e
000001f0: f11a b7bb b57f 01be 8f48 563e 42c7 c93d
00000200: 265c cfbc f4b4 003e b068 a1bc ba38 283e
00000210: 7a8b 6f3d 7898 d43d 8945 e33d 7dec fe3c
00000220: afb0 5e3d 2200 263d 0fcf 42bd 7148 9bbd
00000230: 0fcf e7bb b3e0 033e 293b 0c3e faae 813d
00000240: 1e16 1dbd 141c aabb 3732 8fbc 9531 9fbc
00000250: 6a67 f43d caf6 d03b c84f dd3d dc5e 0cbd
00000260: 2fa8 92bd ba59 21bd c948 a8bd cc72 70bd
00000270: 46c1 2e3d fabb 5e3d b10c 8abd 8e1a 86bd
00000280: 0265 27be c53e 61bd 06b2 1b3e 5f12 09bd
00000290: a8e5 e43d f224 803d a7a6 a0bd 0526 253e
000002a0: fa4c 5fbb 80ea 153d 348c 21be 93d4 c03c
000002b0: b078 4b3c 123c 9b3d 6419 343d bfbf c83d
000002c0: 9f68 3fbd 9401 1bbd 1c1f 09be 38d3 273e
000002d0: 2d09 c33c a289 07be 3f0b 893d d5f2 ecbd
000002e0: c399 783c 4415 973d 7907 a93d 430f e7bd
000002f0: 162b 3ebd f6db d3bd b6a7 1a3c d158 55bc
00000300: 0e27 59bd b336 d2bc b4c3 fdbc 4e65 093c
00000310: 0e15 da3d c5b5 8a3d be1c 32bd d89d 0fbc
00000320: ed2c 833d 62d1 eebd 2fcb 6bbd 9d8a 633c
00000330: 56f8 6abd b5dd 693d 0705 1e3d 813d cc3d
00000340: 3bce a03d bfc3 ce3b cf1d 1a3c 5490 853d
00000350: 97d2 9dbc 428f 38bd b4b9 5b3d 517d d33d
00000360: f1f3 a43d c358 ea3d cd7d 0b3e f95a 953d
00000370: 0036 9bbd 240a 833d 2971 16bd 6887 633d
00000380: a3e7 a53d 0539 a8bd 0faf c93d 5354 4a3a
00000390: dbd7 963d 34cd 2a3e 04b4 21bc e0db 783b
000003a0: 2ec2 f63d ef76 273d 6978 e73c 1ff1 aa3d
000003b0: ebf0 0d3b 7ca7 6a3d 2d93 0dbd 23c1 93bc
000003c0: 6a2c e1b6 b636 6ebd 3440 463d acb0 21be
000003d0: 2253 bdbc dab7 7d3d f526 ed3c dc55 a43d
000003e0: 5b60 3abd e8e2 4d3d 5f5d e33d dfc1 a4bc
000003f0: 7899 6b3c 1bb4 413d 26ed 833d ab60 9f39
-0.08322289 0.047731012 -0.21848539 -0.028220806 -0.027127951 -0.08778262 0.072200224 -0.09735797
0.19335826 -0.022724068 0.11192418 -0.0147128245 -0.13582149 0.110481836 -0.0500206 0.034740556
0.01812308 0.028225543 -0.0038631142 0.031839035 -0.08053359 -0.006901726 -0.105493166 -0.119551994
0.0676275 0.07251523 0.062978394 0.010896445 -0.17819266 0.005102215 0.03553916 -0.043136407
0.22917622 -0.098311186 0.0011984883 0.06377669 0.1089292 0.072148405 0.0075790435 0.12961975
-0.032224484 0.11570872 -0.09444658 -0.027708858 -0.08901066 0.23110396 0.05186794 0.011754345
0.1092029 0.026803555 -0.009564865 0.09475901 0.011749148 0.0066197184 0.07532425 -0.009942437
0.09653748 -0.09739291 -0.08769305 0.081890546 0.011194223 -0.06733141 0.083334744 0.10599844
0.08719856 -0.106456235 -0.077503555 -0.024920087 0.025144728 0.022989308 0.038097825 -0.11659724
-0.07303383 0.02107569 -0.0922383 -0.07579565 -0.0028538017 -0.006080873 -0.058003478 -0.0035664544
0.10238294 -0.16602527 -0.011312754 0.13891256 -0.06742355 0.01196495 0.036303278 0.17333218
0.1187833 0.10667278 0.016865179 0.049318846 0.04971967 -0.00330246 0.06271754 -0.013332945
0.10168732 -0.031372678 -0.06551912 0.021379163 -0.0149128055 -0.04618729 -0.039399937 -0.18985677
0.00738894 -0.14894223 0.19979253 -0.047260802 0.04891481 0.08601964 -0.21465234 -0.045214336
-0.04893551 -0.120516114 -0.20504716 -0.08427844 0.11672224 0.1260154 -0.14636198 -0.07047049
0.18305275 -0.022296919 -0.04042948 0.14448982 -0.0055879285 -0.12646373 0.20926116 0.098524585
-0.025312494 0.12569028 -0.01970324 0.1642789 0.058482625 0.103806436 0.11097247 0.031118626
0.054367717 0.04052747 -0.047560748 -0.075821765 -0.007074244 0.12878685 0.13694443 0.06332202
-0.03835117 -0.0051913355 -0.017479999 -0.019432822 0.11933787 0.006377076 0.10806233 -0.034270152
-0.07160985 -0.03939221 -0.08217008 -0.05870323 0.04266479 0.054378487 -0.06740702 -0.06548034
-0.16347125 -0.054991502 0.1520463 -0.033464786 0.11176616 0.06257047 -0.078442864 0.16127785
-0.0034072981 0.03660059 -0.1577614 0.023538863 0.012418911 0.07579817 0.043969527 0.09802198
-0.046730634 -0.037843302 -0.13390774 0.16389167 0.023808086 -0.13236097 0.06691598 -0.11569754
0.015173378 0.07377103 0.082533784 -0.11282208 -0.04642781 -0.103446886 0.0094393995 -0.013021664
-0.05301576 -0.025660848 -0.030977108 0.008385969 0.10648547 0.06772951 -0.043484442 -0.00876566
0.06405053 -0.1166103 -0.057566818 0.013888028 -0.057365738 0.057096202 0.038579013 0.099726684
0.07851835 0.006309956 0.009406521 0.06521669 -0.019265456 -0.045058496 0.053643897 0.103266366
0.08054341 0.11442711 0.13622208 0.07292742 -0.07578659 0.063984185 -0.03672901 0.055549055
0.08100822 -0.082140006 0.09847843 0.0007718254 0.0736539 0.16679841 -0.009869579 0.0037972853
0.120487556 0.04088491 0.028255658 0.083467714 0.002165849 0.05728863 -0.034564186 -0.01803643
-6.710693e-06 -0.058157645 0.048401073 -0.15790051 -0.02311093 0.061942913 0.02894924 0.08024189
-0.045502048 0.050265223 0.111017935 -0.020111976 0.0143798515 0.047290903 0.06441717 0.00030398867

network_body._body_endoder.seq_layers.2.bias f4 [128]
00000000: c447 8a3c 6ba5 733c 3a74 843c b906 803c
00000010: 3e2b 81bc 0fc1 383c dddf 843c 7b80 85bc
00000020: 5874 653c 7fa6 b73a 1a17 743c f90d 37bb
00000030: 38cc 803c c0fe 4bbc ea5d 7c3c 722e a43b
00000040: 55c9 833c cd14 e2bb 9e87 50bc 6e88 8c3c
00000050: 4620 87bc 6824 3abc 0fb6 5fbc a1de 893c
00000060: 0fc4 8abc 9096 823c dc0a 8a3b 4c4a 86bc
00000070: 2205 893c ab57 8c3c 04e0 81bc 2df3 68bc
00000080: 2cc7 753c 60dc 81bc 13f4 68bc 4140 61bc
00000090: 9ea0 743c 458a 7a3c 2fab 853c 399d dfbb
000000a0: d80e 853c 60f5 86bc 306b 84bc bb02 aebb
000000b0: 2692 753c 6f97 32bc b689 823c a944 feb8
000000c0: 3fef 48bc edfc f0bb 6e89 173c e479 78bb
000000d0: 2867 83bc 5ced 553b 620f b13a 90d8 863c
000000e0: 4bae 193c 76aa 013c f8b5 603c 722e 03bc
000000f0: d9c9 78bc ba1d 1abc 0224 82bc 14ea d1bb
00000100: 5149 87bc d797 603c d194 26bc 9360 563c
00000110: 4958 7a3b d0ee 1eba f27f 453c 0330 7c3c
00000120: 3ee1 5e3a cf7c 593b dd51 89bc 031b 8c3c
00000130: db0b 82bc 6236 493c ef36 823c 0e76 213c
00000140: 612a 463c 7e00 433c 9337 683b f26c 673c
00000150: 5467 31bc 6502 bebb 59be 8b3c 1edd 1d3c
00000160: 5353 78bc edf1 8ebc 455f 6d3c 9d63 823c
00000170: 3b0b 983a c677 223b 1d84 673c 5f1e 87bc
00000180: 1aad 873c 63e2 833c aa2b c63a 630d 823c
00000190: 3441 823c 25b0 68bc 5e5e 2cbc b6a0 fb3b
000001a0: d853 8d3c dfa4 f3ba 6e17 8a3c 8889 81bc
000001b0: 9109 883c 6755 743c 08dc cb3b 4a3f 73bc
000001c0: c2c3 f93b fdb0 703c 906f 1f3a e5fc 39bc
000001d0: ed81 a23a 8441 74bc c4ba 893c b8b5 04bc
000001e0: 4b63 6ebc cf7e 3abc e2a5 a03b d054 87bc
000001f0: d3fe 8c3b 2b2f 413c 9cbe 83bc dc74 57bc
0.016879924 0.014870982 0.016168702 0.015628206 -0.01576769 0.0112764975 0.016220028 -0.016296616
0.014004789 0.0014011412 0.014898086 -0.0027931912 0.01572238 -0.012450874 0.01540325 0.0050104195
0.016087214 -0.0068994523 -0.012727646 0.017154898 -0.016494881 -0.011361219 -0.013654246 0.01682979
-0.016939191 0.015940934 0.0042127203 -0.01639285 0.01672608 0.017131647 -0.01585389 -0.014218134
0.0150011 -0.015852153 -0.014218348 -0.0137482295 0.014930872 0.015291755 0.016316978 -0.0068241623
0.01624243 -0.016474426 -0.016164392 -0.005310384 0.014988458 -0.010900362 0.015934806 -0.00012124453
-0.012264072 -0.00735437 0.009249074 -0.003791445 -0.0160404 0.0032642698 0.0013508613 0.016460687
0.009379934 0.007914176 0.01371526 -0.008006679 -0.015184843 -0.009406501 -0.01588631 -0.006406078
-0.016514452 0.013708076 -0.0101673165 0.0130845485 0.0038199595 -0.00060628075 0.01205443 0.015392306
0.00085021916 0.0033185964 -0.016762668 0.017102724 -0.015874794 0.012281032 0.015895335 0.009854807
0.012095065 0.011901973 0.0035433515 0.014125096 -0.010827858 -0.0057986253 0.017058538 0.009635238
-0.015156585 -0.017449344 0.014488046 0.01591664 0.0011600027 0.0024790629 0.014130619 -0.016493974
0.016562033 0.01609916 0.0015119214 0.015875524 0.015900232 -0.014202152 -0.010520546 0.0076790703
0.017251894 -0.0018588564 0.016856875 -0.01581265 0.016606124 0.01491294 0.006221298 -0.014846632
0.007622213 0.014690635 0.0006081993 -0.011351799 0.001239834 -0.014908198 0.01681269 -0.008099966
-0.0145500405 -0.011382773 0.0049025873 -0.016519934 0.0043028384 0.011791031 -0.0160821 -0.01315042

action_model._discrete_distribution.branches.0.weight f4 [3, 128]
00000000: 0fe9 0e3c dae0 d03a cdc6 2e3c bfcd e9bb
00000010: 9d9b 233b 6caa b83c a410 333c f44e 45bc
00000020: 029b 213c e829 4c3c 11b4 e83b a3d9 f2bb
00000030: 25ca 86bc faf0 c23b b361 46ba e9c2 ddbb
00000040: bf78 adba b820 393c c9a1 983b 19fc 493c
00000050: 1df6 84bb 796a 383c 52ff 8bbb 2ad9 3ebc
00000060: e994 3f3c 2eb3 823c 9b30 82bc b8ce 433c
00000070: d55e 193b c33e d6ba 5411 ad39 05bc ca3b
00000080: dabc 683b 2466 473b 958d 3e3c 7238 493c
00000090: 3170 33bb 0a04 973b 7692 113c d672 ddbb
000000a0: 9f07 e33b 1b1c b9bb 9ece aa3b d44c 2bbc
000000b0: 679f 05bc 20d9 ad3b 2845 b3bb 7860 903c
000000c0: 109f 73bc 82e7 e6bb 3f3b 663c 78b9 1d3b
000000d0: fa65 81bc 338c 0a3b cc7b 273c c468 78bc
000000e0: 3cb5 2b3b 2ecf da3b 1846 953c 3470 b63b
000000f0: 9cd1 cdbb 4fc7 b13a aa67 0abc 5c87 3a3c
00000100: 5636 9b3b 21ee 10bb 641b efbb b088 c13b
00000110: 054e 1a3c 8788 a73b 812c 6dba 1054 953c
00000120: f7bb fcbb 8d9f ae3b 2468 033c 56c3 e0b9
00000130: aeec 4c3c b91a aa3b 5276 763c fb2c 4a3b
00000140: 57a5 42bc 611f 92bc ea2c 4e3c 8930 4b3c
00000150: 8591 af3a d687 013c 4947 4b3a 699d 913b
00000160: e515 11bc e5b4 5bbb a132 cabb 2f67 943a
00000170: 1722 afbb 17da 39bc b9b7 fabb efc3 2dbc
00000180: d65e 783c 2b67 a73c 7839 87bc ecb1 cebb
00000190: 88db 773c 858f f2bb 8cf9 1abb e2fc cfb5
000001a0: f2e9 aaba e465 b4bc 20fb 153c f2d4 7bbb
000001b0: 7c52 3fba bca9 5dba a02e 3f3b b69b b13b
000001c0: a37a b5bc ddfb e53b 381f a7bb 3fec 7abc
000001d0: 21bb 873b fcca 993c 8fd3 09bb af7e 813b
000001e0: 96ed ae3b b1c6 5cbc 9637 d53c 1966 673c
000001f0: 18c5 303c 2c08 00bc 5e86 1d3c 00ee e23b
00000200: 6e57 a8bc 62a2 57bc 32c1 a2bc 42db 4abc
00000210: f5b6 c03c 0beb 32bc 968a 07bc 15ff 0b3c
00000220: 2550 a1bb a280 3dbb 139f 04bc cf0c 34bc
00000230: 5eca 1abc 145c b33b bd45 4d3a d4fe 82bb
00000240: 3484 6cbc 4007 643c ce3a 653c 64a4 71bc
00000250: f6cb 8b3c d34b 063c 8821 9b3c aa79 ecbc
00000260: 8482 113c 43a5 48bc e6ed 5cbc d157 833c
00000270: c2d7 68bc 2bee b8bb 00f1 af3b 948e b23a
00000280: 43e8 69bc f0f6 373c 77ac 51b9 4944 4f3a
00000290: 4165 92bb 23a1 a6bc b7db c9bb 696b f6bb
000002a0: 219f 08bc 957d 873b 86bc 2a3b 7a5d 863c
000002b0: 67cc 293c ea6b 0bbc a25c 44bc c5f7 b03c
000002c0: bc02 2439 b89c 15bb c8fe 143a 824e eebb
000002d0: 797c 01bb 7942 393b 7b29 583c e453 cabc
000002e0: 6c4e 51bc 3dd5 62bc c2fa c3bb 418f 89bb
000002f0: 38cf 9a3c 87cc 4d3c 81fb e93b 666f d0bb
00000300: 2d42 273c 9b49 67ba 398a 373c b1be 92bc
00000310: 79f3 873b 6e91 b1bc 8039 36bc 3d4d e53b
00000320: 9bab 723b fa1f 45bc bfaf 17bc 78cc bfbc
00000330: 5a00 163c eb74 2fbc 42ee bcbb 13dd ab3a
00000340: 6b92 5fbc 6207 67bb abfa 3cbc 94f8 3c3b
00000350: 9147 2bbc 3e8e 88bb 84ea e8bc a377 37bb
00000360: 889e 603c 1139 023c 4773 89bc 08c7 28bc
00000370: c4a7 ab3c a125 b239 a7f3 93bc 202c 6a3c
00000380: 3af3 3ebb 11aa a8bc ef28 9bbc 3c9e c5bc
00000390: 6c5a bfbb 1f1a 8b3c d4f6 9939 b6de 42bc
000003a0: 5981 14bc a123 07bc baac 72bc 40f5 b43c
000003b0: 334c 00bc 65ee d5bb fc63 59bc eba7 55b9
000003c0: 5f36 413b 631a 19bc 19b3 ca3b a477 84bc
000003d0: dabe 3dbc c48a 04bb 328f d3bb 3436 5c3c
000003e0: 0a47 00bb 63fb fe3a f74f 883c 396a 003c
000003f0: 4f5e 31bb b264 3a3b 5d87 143c 96b1 bb3c
0.008722558 0.0015936152 0.010667515 -0.0071351225 0.002496458 0.022542201 0.01092926 -0.01204275
0.009863617 0.012461163 0.0071015437 -0.007411198 -0.016453812 0.005949137 -0.0007567659 -0.00676762
-0.0013234838 0.011299305 0.004657958 0.012328171 -0.0040576593 0.011255854 -0.00427238 -0.011648456
0.011693218 0.01595458 -0.015892318 0.011951141 0.0023402472 -0.0016345609 0.00033010042 0.0061869645
0.0035512955 0.003042587 0.0116304355 0.012281524 -0.0027380104 0.004608636 0.008885017 -0.0067580743
0.0069283987 -0.0056491024 0.005212619 -0.010455329 -0.00815568 0.0053054243 -0.0054708906 0.017624125
-0.014869466 -0.007046641 0.014052211 0.0024066847 -0.015795697 0.0021140694 0.010222387 -0.015161697
0.0026200553 0.00667753 0.0182219 0.005567575 -0.006281091 0.0013563427 -0.008447567 0.011384811
0.004736702 -0.0022114592 -0.0072969664 0.005906187 0.009418015 0.005112711 -0.0009047464 0.01822856
-0.007712837 0.0053290785 0.0080204345 -0.00042870146 0.012507601 0.005191174 0.015042858 0.0030849564
-0.01188024 -0.017837228 0.012583951 0.012401708 0.0013394809 0.007905921 0.0007754458 0.0044438136
-0.008855318 -0.003352457 -0.006170586 0.0011322255 -0.00534464 -0.011343501 -0.007651296 -0.010605796
0.015159329 0.020434937 -0.016506895 -0.006307831 0.015128024 -0.007402363 -0.0023647277 -1.54963e-06
-0.0013039692 -0.022021241 0.009154111 -0.0038426486 -0.0007298363 -0.00084557733 0.0029172078 0.0054201735
-0.022153204 0.00701855 -0.005100157 -0.0153151145 0.0041421806 0.018773548 -0.002103064 0.0039518694
0.005338381 -0.013475106 0.026027482 0.014123463 0.010789178 -0.007814448 0.009614555 0.0069253445
-0.020549502 -0.013161274 -0.019867513 -0.012381377 0.02352474 -0.010920296 -0.008272788 0.008544703
-0.004922884 -0.0028915782 -0.008094567 -0.010989382 -0.009447662 0.005473623 0.0007830521 -0.003997663
-0.014435817 0.013917744 0.013991071 -0.014748666 0.01706503 0.008196789 0.018936887 -0.028866608
0.008881215 -0.012246433 -0.013484454 0.016033085 -0.014211597 -0.005643626 0.0053693056 0.0013622814
-0.014276567 0.011228308 -0.00019996041 0.00079065986 -0.004467637 -0.020340508 -0.0061602253 -0.0075201285
-0.008338721 0.0041348436 0.002605231 0.016401995 0.010363675 -0.008509615 -0.011984976 0.02160252
0.00015641277 -0.0022829007 0.00056837173 -0.0072725425 -0.001975803 0.002826838 0.013193483 -0.024698205
-0.012775045 -0.013844785 -0.0059808204 -0.0041979854 0.018897638 0.01256097 0.0071405773 -0.006360936
0.010208649 -0.0008822919 0.011202388 -0.017913194 0.0041488972 -0.021675792 -0.0111221075 0.006997733
0.0037028554 -0.01203155 -0.00925821 -0.023412928 0.009155357 -0.010709028 -0.005765707 0.001311215
-0.013645749 -0.0035252203 -0.011534373 0.0028834688 -0.0104540745 -0.004167347 -0.028432138 -0.0027994893
0.013709672 0.007948176 -0.016778601 -0.010301359 0.02095402 0.0003397884 -0.018060518 0.014292747
-0.0029136674 -0.020588906 -0.018940417 -0.024123304 -0.0058396365 0.016980229 0.00029366335 -0.011893919
-0.009064042 -0.008248241 -0.014811689 0.0220896 -0.007830667 -0.006528663 -0.013268467 -0.00020375817
0.002948187 -0.00934467 0.006185901 -0.01617033 -0.011581147 -0.0020224312 -0.006456279 0.013440657
-0.0019573593 0.0019453581 0.016639693 0.007837825 -0.002706427 0.0028441367 0.009065476 0.022911828

action_model._discrete_distribution.branches.0.bias f4 [3]
00000000: 3413 ad3b c80d 67bc 7b7e 693c
0.00528183 -0.014102407 0.014251347

action_model._discrete_distribution.branches.1.weight f4 [2, 128]
00000000: 7912 bf3c 06ab bd3c 68ea de3b e15d 803c
00000010: 9667 89bc 57b9 993c 8596 af3c 4a47 74bc
00000020: c83b 333c e4fd ae3a afad 803b 17c9 963a
00000030: ec0d 973b 1b00 89bc 298f 963b cc72 87ba
00000040: e3e3 8c3c 01ab 7c3b f784 883b 7162 773c
00000050: b026 b0bc 1c66 653c c406 0cbc f8c2 393c
00000060: d0c0 b4bc 79d3 833c 2262 863c f749 0fbc
00000070: 9ef3 9a3c 31a5 763c 6889 03bd 9e7b 8dbc
00000080: 971b bd3b f79c 5bbc 39e4 2abc 462b a738
00000090: 437b 6a3b 1b77 cc3b 7ba9 503c e3d9 5d3c
000000a0: 642e 553c 3586 a33b 6dbc b1bc bc3a 353c
000000b0: d602 4a3c 07f3 27bb 37e8 1f3c 8006 30bb
000000c0: 4196 0a3b faaf c2ba 8884 beb9 6c7d 513b
000000d0: 7567 a2bc 85f7 603b 1820 483c 1641 213d
000000e0: 3367 a43c 71f2 f03c 285c 3f3c 8641 093b
000000f0: b439 99bc c17c 93bb 0d7e 5cbc f5d1 423c
00000100: 436c 9cbc 812b 213c 23cf 10bc b63e ad3c
00000110: c6bd 573b 9a25 123b 5129 bf3b 0e43 943c
00000120: 7b58 8d3b e9fb 893c 0ba7 b1bc 1af0 4c3c
00000130: dd77 833a 815e 783c 4a88 173c 9a4e 373c
00000140: c0f9 1e3b 3b1f ed39 59f9 c23b 61ee 5d3c
00000150: 7ca7 643c ef84 423b f75a 0e3d d6ee 713b
00000160: 5a6f e9bc 9002 16bc d35f 883c 0642 a13b
00000170: d36c ac3a f5a3 213c 8a26 a13b 019a 8cbc
00000180: 136e 6e3c 04dd 463c 8ce4 d3bb 0324 4f3c
00000190: 23e8 a53c d636 a0bb df74 0fbc 5c51 fabb
000001a0: 2895 ee3c fad3 543c b1f5 913c 11b2 b7bc
000001b0: 458e 3b3c 4237 303c 3c84 893c 22c7 90bc
000001c0: 7a15 14bc 8768 82ba 53b4 2b3c e583 79bc
000001d0: 29a9 f13b 86d3 53bc 017e eb3c 5cc5 4fbc
000001e0: c560 afbc 1f95 b93b d6a3 053c f289 6cbc
000001f0: f9f7 b1bb 8943 8e3c 39b8 c3bc 8896 95bc
00000200: 41a8 5bbc cff7 72bc 1cf3 6abc 2e40 abbc
00000210: 934d 413c 21b4 e4b8 5782 3abc f721 b13c
00000220: 7067 97bc a751 6cbc 94ab 2abb 992c 28bc
00000230: 1a3a b6bc e549 2cbb 50e1 e7bc 8ddd 62bc
00000240: 316b dabc acdf 4639 b327 763c 0957 95bc
00000250: 7b38 0c3c f46f 973c d7da 813c bf2e ccbc
00000260: 90ae 173c 7f04 8bbc 7eb1 2ebb 71f7 c33c
00000270: 1b7b a4bc 5e99 4abc 2090 f939 2f24 dd3c
00000280: 69be 1fbc c129 a33c d39a 7c3c 1969 00bb
00000290: 2e9b 80bc fd9a 6dbc 055d acbc d22d e43b
000002a0: ed27 43bc 8f4b 503c be99 413c 4018 8cba
000002b0: 2397 3bbc fa13 883b 34b7 91bc d495 e83b
000002c0: 7e18 923c 7317 313c 35ad 8abc 287f 84bb
000002d0: 4f2e 3e3c 5f83 1dbc 383c ddbb bb05 37bc
000002e0: 1bc3 2abc 0c2e 893b 3516 ebbb 90af 753b
000002f0: 9e3e ca3c bd77 e8b9 2bd2 683c b1ed 423c
00000300: d300 b23c 9fe9 3ebb 5b4f 5a3c a4c1 4d3b
00000310: 2497 b3bb cd45 f3bb 3695 d63b 7df7 dfbc
00000320: 0388 c23b b801 e139 3cd4 183c cfea 92bc
00000330: b736 bf3c 4e71 5cbc af56 c6bb c844 5bbc
00000340: 17d9 5b3b 0d5d d93b d3dc 69bc b920 01bc
00000350: ab85 433b 38c5 a6bb 637b 18bc c742 b9bb
00000360: 9509 c93c 6170 763c 8af8 c4bb 3446 febc
00000370: 2834 d33b ca21 04bc 677d a7bc 5ca1 753c
00000380: 4d8b 7bbc 9fca 62bc 64d0 ddbb 0e6b 8dbc
00000390: 1690 82bc d6da 953c 7bcd c23b 04ef 03bc
000003a0: 52d3 33bc 86fd 8839 766f dcbc 7b2c c03c
000003b0: 313b b2bb 8cfb 4fbc 9876 83ba ecf9 f63b
000003c0: 0ecd 9fbb c6f7 91bb e8c2 8d3b dcbe b63c
000003d0: 4359 043a c6c0 073d 01a9 29bc dd38 dabb
000003e0: 548f 643c 174a e63b fe36 b2bb 86fc 783c
000003f0: 26c5 82ba 9508 c3bb 612c 4b3c e657 a23b
0.023324238 0.02315284 0.0068028457 0.015669765 -0.016773026 0.018765135 0.021434078 -0.014909575
0.010939546 0.0013350812 0.0039269547 0.0011504021 0.004609814 -0.016723683 0.0045947027 -0.0010333895
0.017198509 0.0038554075 0.0041662413 0.015099154 -0.021502823 0.014001396 -0.008546535 0.011337988
-0.022064596 0.016092049 0.016404215 -0.008745662 0.018914994 0.015054033 -0.032113463 -0.01727086
0.005771111 -0.013404123 -0.010430389 7.971241e-05 0.0035779036 0.0062397844 0.01273572 0.013540718
0.013011549 0.004990364 -0.021696294 0.011061367 0.012329778 -0.0025627033 0.009759954 -0.0026859343
0.0021146687 -0.001485347 -0.00036338367 0.0031965626 -0.019824723 0.003432722 0.012214683 0.03936871
0.02006874 0.02941248 0.011679687 0.0020943596 -0.018704273 -0.004500956 -0.013457787 0.011890878
-0.019094592 0.009837032 -0.008838448 0.021148067 0.003291951 0.0022300244 0.0058337827 0.01809838
0.004313526 0.016843753 -0.021686098 0.012508417 0.0010030229 0.01515925 0.009248802 0.011188174
0.002425775 0.0004522743 0.0059501347 0.0135456035 0.013955947 0.0029681285 0.03475472 0.003691604
-0.02849548 -0.009155884 0.016647255 0.0049212007 0.0013154991 0.009865751 0.0049179243 -0.017163279
0.014552611 0.012137655 -0.006466454 0.012642863 0.020252293 -0.0048893495 -0.008755892 -0.0076390933
0.029123858 0.012989992 0.01781735 -0.022423776 0.011447494 0.010755362 0.016786687 -0.017673079
-0.009038324 -0.0009949364 0.010480004 -0.0152292 0.007374902 -0.012928849 0.028746607 -0.0126813315
-0.021408448 0.0056635286 0.008156737 -0.014437186 -0.005431172 0.017366188 -0.023891555 -0.018260255
-0.013406814 -0.01482959 -0.014340188 -0.020904627 0.01179828 -0.00010905439 -0.0113836145 0.021622641
-0.01848194 -0.014423764 -0.002604221 -0.010264539 -0.022244502 -0.0026289162 -0.02830568 -0.013846767
-0.026662441 0.00018966076 0.0150241135 -0.018229978 0.008558388 0.018486 0.015851421 -0.024924634
0.009257928 -0.016969917 -0.0026656087 0.0239217 -0.020078233 -0.012365667 0.00047600362 0.026994793
-0.009749987 0.01991737 0.015417772 -0.0019593893 -0.015698995 -0.014502284 -0.021040449 0.00696347
-0.0119113745 0.012713327 0.01181644 -0.0010688379 -0.011449608 0.004152772 -0.017787553 0.007097939
0.017833944 0.010808813 -0.016928295 -0.0040434785 0.0116077205 -0.009613841 -0.0067515634 -0.0111708
-0.010422493 0.0041863974 -0.007174278 0.0037488677 0.024688061 -0.000443397 0.014210264 0.01189749
0.021728909 -0.0029130948 0.013324584 0.0031395936 -0.005480664 -0.0074240924 0.006548549 -0.027339691
0.005936624 0.00042916625 0.009327944 -0.017934231 0.02334152 -0.013454748 -0.006052814 -0.013383098
0.0033546144 0.006633407 -0.01427384 -0.007881337 0.002983431 -0.0050894283 -0.009306761 -0.0056537124
0.024540702 0.015041442 -0.0060110735 -0.031039335 0.0064454265 -0.008064697 -0.020445539 0.014992084
-0.015353036 -0.013842254 -0.006769227 -0.017262962 -0.015937846 0.018292826 0.0059449053 -0.008052591
-0.010975676 0.0002612883 -0.026908617 0.02345871 -0.005439185 -0.012694251 -0.001002985 0.007537117
-0.0048767393 -0.0044545857 0.004326213 0.022307806 0.00050487014 0.033142827 -0.010355235 -0.0066596107
0.013950188 0.007027875 -0.0054386845 0.015196925 -0.0009976968 -0.005951951 0.0124007175 0.004954326

action_model._discrete_distribution.branches.1.bias f4 [2]
00000000: cdd7 693c ccd7 69bc
0.014272642 -0.014272641

onnx::Div_68 f4 [7]
00000000: d7c9 4c3f f623 d33e d836 1d3e 9380 bd3b
00000010: 9648 bd3e 847e ab3f f2ce 953c
0.79995483 0.41238374 0.15352952 0.0057831495 0.3696944 1.3397985 0.018287156
