results/phase1/PlayerAgent/PlayerAgent-1000.pt (torch, 156188 bytes, 22 tensors)

discrete_act_size_vector f4 [1, 2]
0	0x40400000	3.0
1	0x40000000	2.0

network_body.observation_encoder.processors.0.normalizer.running_mean f4 [7]
0	0x3ff733ce	1.9312685
1	0xbf7527a1	-0.95763594
2	0xbeabd841	-0.33563426
3	0x00000000	0.0
4	0x3dd6d33f	0.10489511
5	0xbd0692af	-0.032854732
6	0x3f7fbe88	0.999001

network_body.observation_encoder.processors.0.normalizer.running_variance f4 [7]
0	0x4097794f	4.733558
1	0x4313ee78	147.93152
2	0x41b1bf5f	22.218443
3	0x3f800000	1.0
4	0x42bdf8d6	94.98601
5	0x44b4d881	1446.7657
6	0x3fffdf46	1.9990013

network_body.processors.0.normalizer.running_mean f4 [7]
0	0x3ff733ce	1.9312685
1	0xbf7527a1	-0.95763594
2	0xbeabd841	-0.33563426
3	0x00000000	0.0
4	0x3dd6d33f	0.10489511
5	0xbd0692af	-0.032854732
6	0x3f7fbe88	0.999001

network_body.processors.0.normalizer.running_variance f4 [7]
0	0x4097794f	4.733558
1	0x4313ee78	147.93152
2	0x41b1bf5f	22.218443
3	0x3f800000	1.0
4	0x42bdf8d6	94.98601
5	0x44b4d881	1446.7657
6	0x3fffdf46	1.9990013

network_body._body_endoder.seq_layers.0.weight f4 [128, 7]
0	0xbd5894fa	-0.05287645
1	0xbed6bd9d	-0.41941538
2	0x3eb32cbc	0.34995067
3	0x3ea1a9a5	0.3157474
4	0x3f590963	0.8477995
5	0xbeadc0be	-0.33936113
6	0x3e0da8d4	0.13833934
7	0x3ee532c9	0.44765308
8	0x3e950d01	0.29111484
9	0xbf30bbe8	-0.6903672
10	0xbe0124ea	-0.12611738
11	0x3f147f71	0.5800696
12	0xbf2b65ad	-0.6695202
13	0x3e9a8bcb	0.3018478
14	0xbf5bb0dc	-0.8581674
15	0x3ec2251e	0.37918943
16	0xbe985c86	-0.2975809
17	0xbeacae54	-0.33726752
18	0xbe8ee893	-0.27911815
19	0xbddc45dc	-0.10755512
20	0xbe80206d	-0.2502474
21	0xbe3329b8	-0.17496383
22	0xbe3281f5	-0.17432387
23	0xbe90a2c4	-0.2824918
24	0x3e30345c	0.17207474
25	0x3e5ceb40	0.21574116
26	0xbf696ee5	-0.91184837
27	0x3e9a883c	0.30182064
28	0xbef3728a	-0.47548324
29	0x3e25984c	0.16171378
30	0xbce72939	-0.028217899
31	0xbdac17a9	-0.0840295
32	0xbd8af542	-0.067850605
33	0xbe7aa137	-0.24475561
34	0x3e32888b	0.174349
35	0xbf351f0d	-0.70750505
36	0xbe9923e0	-0.29910183
37	0x3e69333d	0.22773452
38	0xbe29f30f	-0.16596626
39	0x3e7d971b	0.24764673
40	0x3cd4d9ed	0.025982821
41	0x3e797385	0.24360473
42	0xbec7a06b	-0.38989577
43	0xbe7489c1	-0.23880674
44	0xbeb87198	-0.36024165
45	0x3f3a2a11	0.7272044
46	0xbdf8980e	-0.12138377
47	0x3decf62b	0.1157039
48	0x3e23853b	0.15968792
49	0x3f7710b4	0.9650986
50	0xbe2aefec	-0.16693085
51	0xbdb2586a	-0.0870827
52	0xbc678545	-0.014130895
53	0x3f4e9f7f	0.8071212
54	0x3e5d5ef1	0.21618249
55	0x3d109312	0.035296507
56	0x3e091902	0.13388446
57	0xbe1a16e7	-0.15047799
58	0xbd801699	-0.0625431
59	0xbe91b6fe	-0.28459924
60	0x3f096de9	0.53683335
61	0xbe764bab	-0.24052303
62	0x3dd3b8e4	0.103379995
63	0x3f04ab8c	0.5182426
64	0x3f19b9a8	0.60048914
65	0xbbc477c6	-0.0059957234
66	0x3e98d6b1	0.29851297
67	0xbf305c67	-0.68890995
68	0x3ecf7932	0.40522152
69	0xba09f6e1	-0.0005262923
70	0x3d2c4b2a	0.04206387
71	0xbee979c4	-0.45600712
72	0x3f29642a	0.66168463
73	0x3e517ca5	0.20457704
74	0x3e3e0222	0.18555501
75	0x3e65c982	0.2244015
76	0xbecbe8cf	-0.39826056
77	0x3e8ab663	0.27092275
78	0xbe0af944	-0.1357165
79	0xbf10138a	-0.56279814
80	0xbe2c3408	-0.16816723
81	0x3e7bb8a3	0.24582152
82	0xbe623cbf	-0.22093485
83	0xbe32c7d3	-0.1745904
84	0x3eacb326	0.3373043
85	0xbee52606	-0.44755572
86	0x3e26b89c	0.1628136
87	0x3f308267	0.6894898
88	0x3f021cd4	0.5082524
89	0x3eee7377	0.46572468
90	0xbee78c0b	-0.45224032
91	0xbe90e830	-0.28302145
92	0xbe84d951	-0.2594705
93	0x3e1e4a5c	0.15458053
94	0xbe146115	-0.14490159
95	0xbdbcc8d7	-0.09217995
96	0x3e9ee71c	0.31035697
97	0xbefa1c44	-0.4884969
98	0x3e819df8	0.25315833
99	0x3f19091e	0.59779537
100	0xbdc3a522	-0.09552981
101	0xbe3ed4e2	-0.18635896
102	0x3e93ab56	0.28841656
103	0x3ee3db08	0.44503045
104	0xbeb49400	-0.35269165
105	0xbe4cf999	-0.20017089
106	0xbebcca14	-0.36872923
107	0xbf0d44a1	-0.55182844
108	0xbe9e922e	-0.309709
109	0x3e0bd58d	0.13655682
110	0xbed386e6	-0.41313857
111	0x3ed3efa0	0.41393757
112	0x3e9d9cd3	0.3078371
113	0x3df32dca	0.11873968
114	0x3f497e4a	0.78708327
115	0xbe87e53c	-0.2654208
116	0xbe2a6f41	-0.16644002
117	0xbf12c150	-0.5732622
118	0x3daee63b	0.08540007
119	0xbe8ff354	-0.28115332
120	0xbf18dbf7	-0.5971064
121	0x3c337158	0.010952316
122	0xbd5548e2	-0.05207146
123	0x3f10c895	0.56556064
124	0x3e28c1c2	0.16480163
125	0xbce7591a	-0.02824073
126	0xbe7cd133	-0.24689178
127	0x3ee08c1d	0.43856898
128	0xbdb7c2c9	-0.08972699
129	0x3dc2ba00	0.09508133
130	0xbde1ac8c	-0.11019239
131	0x3ebcbef3	0.36864433
132	0x3eaf2164	0.34205163
133	0x3e99a60e	0.30009502
134	0xbe3c99de	-0.1841807
135	0xbe9ee7b1	-0.31036142
136	0x3d797ae0	0.0609082
137	0x3f1fbcbb	0.62397355
138	0xbc6dfe47	-0.0145259565
139	0x3ebd774d	0.37005082
140	0x3e27c8b1	0.16385151
141	0x3e97fcc3	0.2968503
142	0xbca43133	-0.020042991
143	0x3fb3bf0c	1.4042678
144	0x3f5343a2	0.82525074
145	0x3eac2b1a	0.33626634
146	0xbd97dd26	-0.074152276
147	0x3e4630dc	0.19354576
148	0x3ea82cee	0.3284678
149	0xbec3ba50	-0.38228083
150	0xbdc2d1ee	-0.09512697
151	0x3d02fce1	0.031979445
152	0xbe0a2c3d	-0.13493438
153	0xbe474379	-0.19459333
154	0xbda28dc8	-0.07937199
155	0x3e320eab	0.17388408
156	0xbde482e7	-0.1115778
157	0x3d497546	0.049184106
158	0x3e77c6d9	0.24196948
159	0xbe97cc60	-0.29648113
160	0x3e0b72e4	0.13618046
161	0x3e85b039	0.2611101
162	0xbe0c9c5c	-0.13731521
163	0x3da8ff85	0.082518615
164	0xbe842d31	-0.25815728
165	0xbce2e64b	-0.027697703
166	0x3ea82480	0.32840347
167	0x3f1f49c3	0.62221926
168	0xbe153c91	-0.14573886
169	0xbb86d19f	-0.0041143443
170	0xbf427b77	-0.7596964
171	0x3d8817de	0.06645177
172	0xbe012d2b	-0.12614886
173	0x3f2922f6	0.6606897
174	0x3f137dec	0.57614017
175	0xbf6e87ae	-0.9317578
176	0x3eb789a0	0.35847187
177	0xbe0f6e02	-0.14006808
178	0x3f086be8	0.5328965
179	0x3f146d44	0.57979226
180	0xbf01403d	-0.50488645
181	0x3f151737	0.5823855
182	0xbdf2806a	-0.11840899
183	0x3e0ff01b	0.14056437
184	0x3e032bcf	0.1280968
185	0xbf11312a	-0.56715643
186	0x3ec15bd7	0.3776538
187	0x3d73e074	0.059540227
188	0x3c377634	0.011197615
189	0xbd3c94e5	-0.046040434
190	0x3eb8c287	0.36085913
191	0x3f2a9a64	0.6664183
192	0x3eda5802	0.4264527
193	0xbe973b47	-0.29537413
194	0xbf1f4e4f	-0.62228864
195	0xbe4195cb	-0.18904798
196	0x3da7a44e	0.081856355
197	0xbb97e65a	-0.0046356143
198	0x3e8bf2c0	0.2733364
199	0x3da31eb1	0.07964838
200	0x3f2c3c18	0.67279196
201	0x3f0a80fb	0.5410306
202	0xbe513476	-0.20430169
203	0x3ec1d7e8	0.37860036
204	0x3eb71c97	0.35764
205	0x3f1094a7	0.56476825
206	0x3d891025	0.066925324
207	0xbeb3e3d9	-0.3513477
208	0xbeb7c0fd	-0.35889426
209	0x3ec3fa39	0.38276842
210	0xbf1ffcfb	-0.6249539
211	0xbd4af1b1	-0.0495469
212	0xbddc0f37	-0.107450895
213	0x3e1d3897	0.15353619
214	0x3d5ed0ae	0.05439823
215	0xbe7a0f69	-0.24419941
216	0xbecb5c91	-0.3971906
217	0x3ec3fd74	0.38279307
218	0x3f243d81	0.6415635
219	0xbddf7036	-0.109100744
220	0x3e5db7a3	0.21652083
221	0x3d1ce2e9	0.038302336
222	0x3ed09bc2	0.40743834
223	0x3e53e1d1	0.20691611
224	0xbd989273	-0.07449808
225	0xbf6a70ce	-0.91578376
226	0x3dbec9b2	0.09315814
227	0x3da827c4	0.0821071
228	0xbd707861	-0.058708552
229	0xbd76fea6	-0.060301445
230	0x3ead85bd	0.33891097
231	0x3ed3a2f8	0.41335273
232	0x3dac848c	0.08423719
233	0xbeabcbb6	-0.33553857
234	0xbf20a006	-0.62744176
235	0x3eca76d6	0.3954379
236	0xbf288da8	-0.6584115
237	0x3effcee1	0.49962524
238	0xbcdda252	-0.02705494
239	0x3eac2ca6	0.33627814
240	0xbf0fdcaa	-0.5619608
241	0xbe60e3c7	-0.2196189
242	0x3ec2318f	0.37928435
243	0x3e7e4e8e	0.24834654
244	0x3ceec4ac	0.029146515
245	0xbca07af4	-0.019589879
246	0xbf14fe1a	-0.5820023
247	0x3ed74445	0.42044273
248	0xbc21facd	-0.009886456
249	0xbf041168	-0.5158906
250	0x3e2e12a1	0.16999294
251	0xbe03168c	-0.1280157
252	0x3e0b2217	0.13587223
253	0xbf50f2a4	-0.8162024
254	0xbed4fc45	-0.41598716
255	0xbece9c06	-0.4035341

network_body._body_endoder.seq_layers.0.bias f4 [128]
0	0x00000000	0.0
1	0x00000000	0.0
2	0x00000000	0.0
3	0x00000000	0.0
4	0x00000000	0.0
5	0x00000000	0.0
6	0x00000000	0.0
7	0x00000000	0.0
8	0x00000000	0.0
9	0x00000000	0.0
10	0x00000000	0.0
11	0x00000000	0.0
12	0x00000000	0.0
13	0x00000000	0.0
14	0x00000000	0.0
15	0x00000000	0.0
16	0x00000000	0.0
17	0x00000000	0.0
18	0x00000000	0.0
19	0x00000000	0.0
20	0x00000000	0.0
21	0x00000000	0.0
22	0x00000000	0.0
23	0x00000000	0.0
24	0x00000000	0.0
25	0x00000000	0.0
26	0x00000000	0.0
27	0x00000000	0.0
28	0x00000000	0.0
29	0x00000000	0.0
30	0x00000000	0.0
31	0x00000000	0.0
32	0x00000000	0.0
33	0x00000000	0.0
34	0x00000000	0.0
35	0x00000000	0.0
36	0x00000000	0.0
37	0x00000000	0.0
38	0x00000000	0.0
39	0x00000000	0.0
40	0x00000000	0.0
41	0x00000000	0.0
42	0x00000000	0.0
43	0x00000000	0.0
44	0x00000000	0.0
45	0x00000000	0.0
46	0x00000000	0.0
47	0x00000000	0.0
48	0x00000000	0.0
49	0x00000000	0.0
50	0x00000000	0.0
51	0x00000000	0.0
52	0x00000000	0.0
53	0x00000000	0.0
54	0x00000000	0.0
55	0x00000000	0.0
56	0x00000000	0.0
57	0x00000000	0.0
58	0x00000000	0.0
59	0x00000000	0.0
60	0x00000000	0.0
61	0x00000000	0.0
62	0x00000000	0.0
63	0x00000000	0.0
64	0x00000000	0.0
65	0x00000000	0.0
66	0x00000000	0.0
67	0x00000000	0.0
68	0x00000000	0.0
69	0x00000000	0.0
70	0x00000000	0.0
71	0x00000000	0.0
72	0x00000000	0.0
73	0x00000000	0.0
74	0x00000000	0.0
75	0x00000000	0.0
76	0x00000000	0.0
77	0x00000000	0.0
78	0x00000000	0.0
79	0x00000000	0.0
80	0x00000000	0.0
81	0x00000000	0.0
82	0x00000000	0.0
83	0x00000000	0.0
84	0x00000000	0.0
85	0x00000000	0.0
86	0x00000000	0.0
87	0x00000000	0.0
88	0x00000000	0.0
89	0x00000000	0.0
90	0x00000000	0.0
91	0x00000000	0.0
92	0x00000000	0.0
93	0x00000000	0.0
94	0x00000000	0.0
95	0x00000000	0.0
96	0x00000000	0.0
97	0x00000000	0.0
98	0x00000000	0.0
99	0x00000000	0.0
100	0x00000000	0.0
101	0x00000000	0.0
102	0x00000000	0.0
103	0x00000000	0.0
104	0x00000000	0.0
105	0x00000000	0.0
106	0x00000000	0.0
107	0x00000000	0.0
108	0x00000000	0.0
109	0x00000000	0.0
110	0x00000000	0.0
111	0x00000000	0.0
112	0x00000000	0.0
113	0x00000000	0.0
114	0x00000000	0.0
115	0x00000000	0.0
116	0x00000000	0.0
117	0x00000000	0.0
118	0x00000000	0.0
119	0x00000000	0.0
120	0x00000000	0.0
121	0x00000000	0.0
122	0x00000000	0.0
123	0x00000000	0.0
124	0x00000000	0.0
125	0x00000000	0.0
126	0x00000000	0.0
127	0x00000000	0.0

network_body._body_endoder.seq_layers.2.weight f4 [128, 128]
0	0x3db944fe	0.09046362
1	0xbd71f3f2	-0.059070535
2	0xbd37e55b	-0.044896465
3	0xbd3e6cc5	-0.04649045
4	0x3e3e575b	0.18588011
5	0x3da70a38	0.08156246
6	0x3d244665	0.040106196
7	0x3de8322e	0.11337696
8	0xbc0a7bf2	-0.008452402
9	0xbe03722e	-0.12836525
10	0x3d8cbc89	0.06871898
11	0x3d4785ab	0.04871146
12	0xbb42c778	-0.0029720943
13	0x3b9b3b06	0.0047372608
14	0x3d0cbecf	0.034361657
15	0x3d430dfb	0.047620755
16	0x3cdbe57a	0.026842821
17	0x3c6af53f	0.014340698
18	0xbd0b7a03	-0.034051906
19	0x3cd0033a	0.025392164
20	0x3dc9a924	0.09846714
21	0x3da7a51c	0.08185789
22	0xbda28527	-0.07935553
23	0xbe23fee9	-0.1601521
24	0xbd06c6c3	-0.032904398
25	0x3dc05d59	0.09392805
26	0x3e08ab63	0.13346629
27	0xbdd870bb	-0.10568377
28	0xbdd7b6f8	-0.105329454
29	0xbd1d83b1	-0.03845567
30	0xbe2122ae	-0.15735886
31	0xbdef33c4	-0.116797954
32	0x3ce16ed8	0.027518675
33	0xbc23ff54	-0.010009605
34	0xbca645d9	-0.020296978
35	0x3d52ed90	0.05149609
36	0xbc2be51e	-0.0104916375
37	0xbc88ab4b	-0.016683241
38	0x3ad03cb9	0.0015887237
39	0x3dfa249b	0.12214013
40	0xbc9b7f9b	-0.018981745
41	0x3d9a662b	0.07539018
42	0xbda8a841	-0.08235217
43	0x3d133fc5	0.035949487
44	0xbd7bc7fe	-0.061470024
45	0x3c819892	0.015819822
46	0x3dba81db	0.09106799
47	0x3cdef40d	0.027215982
48	0xbc2843e9	-0.010270097
49	0xbe29cce6	-0.16582069
50	0xbe06bc64	-0.13157803
51	0x3d687602	0.056753166
52	0xbd6b04c2	-0.057377584
53	0xbcfbe3d0	-0.030748278
54	0xbd8421e9	-0.0645178
55	0xbc2d4dd8	-0.010577641
56	0x3d9a0a85	0.07521538
57	0xbdc69a9f	-0.096974604
58	0xbc00d149	-0.0078623975
59	0xbda75d51	-0.081720956
60	0x3e264741	0.16238119
61	0x3d8aeb6a	0.06783183
62	0x3b6f563a	0.00365199
63	0xbd9e1a4f	-0.07719862
64	0xbe1f3f43	-0.15551476
65	0x3d958d3b	0.07302328
66	0xbd245531	-0.040120307
67	0x3d217176	0.039414845
68	0x3debe439	0.115181394
69	0x3cc68acf	0.024236111
70	0x3db5dff8	0.08880609
71	0xbcb94d24	-0.022619791
72	0xbd8b2cce	-0.06795655
73	0xbe022f1b	-0.12713282
74	0xbd04b7cd	-0.03240185
75	0x3d317d76	0.04333254
76	0x3dcfe7ef	0.1015166
77	0x3dabd04e	0.0838934
78	0x3c8645c7	0.016390694
79	0x3c94497c	0.018101446
80	0xbe5e6dd0	-0.21721578
81	0xbdaa68c5	-0.083207645
82	0x3d5c0589	0.053716216
83	0xbd832336	-0.064032
84	0xbd94796e	-0.072497234
85	0xbcc7451e	-0.02432495
86	0x3e95f14a	0.2928565
87	0xbcf2c85c	-0.029636554
88	0x3c80d3ba	0.01572596
89	0xbe60e9cb	-0.21964185
90	0xbb385e32	-0.0028132317
91	0x3e1f9796	0.15585169
92	0xbddb5014	-0.10708633
93	0xbda13570	-0.078715205
94	0xbd01fb00	-0.031733513
95	0xbd694f64	-0.05696048
96	0xbcd5811f	-0.026062546
97	0xbe670f0e	-0.22564337
98	0x3cc32419	0.023820924
99	0xbc4166c2	-0.0118042845
100	0x3c8dc55c	0.017306022
101	0xbc21e332	-0.009880828
102	0xbcb6d6f9	-0.022319304
103	0xbe18543f	-0.14875887
104	0x3c10280d	0.008798611
105	0x3dc7c164	0.09753683
106	0xbd0475c2	-0.032338865
107	0x3d516a65	0.051126856
108	0x3d5e190f	0.054223116
109	0xbd6f2d14	-0.0583926
110	0x3d4b086f	0.04956859
111	0xbde76d05	-0.11300091
112	0x3de29a2f	0.110645644
113	0xbc6be80d	-0.014398587
114	0x3cfd9d21	0.030958714
115	0x3acd3706	0.0015656657
116	0xbc9c10e6	-0.019051027
117	0xbe449678	-0.19198024
118	0xbd73251d	-0.059361566
119	0xbdc9012d	-0.098146774
120	0x3c64feb3	0.013976741
121	0x3de8b934	0.1136345
122	0xbcd94c6f	-0.026525704
123	0x3d17515c	0.036942825
124	0x3aca9b55	0.001545767
125	0x3d420ac8	0.047373563
126	0x3d214e83	0.039381515
127	0x3db5bad5	0.08873526
128	0xbe199df1	-0.15001656
129	0xbd4944c8	-0.04913786
130	0xbc44d86e	-0.0120144915
131	0xbd02f93c	-0.03197597
132	0xbb90aba4	-0.0044149924
133	0x3d27308f	0.040817793
134	0xbc5f5347	-0.013630695
135	0x3cd353c1	0.025796773
136	0x3c798894	0.015230317
137	0x3b8d42c1	0.004310936
138	0xbdd7670b	-0.10517701
139	0xbe16f080	-0.14740181
140	0x3dbda9d0	0.09260905
141	0xbe172be0	-0.1476283
142	0x3d19898d	0.037484694
143	0xbbca3381	-0.0061706905
144	0xbcc01d0d	-0.023451352
145	0x3d89e23a	0.067326024
146	0xbe412068	-0.18860018
147	0x3def4749	0.116835184
148	0xbc01093b	-0.007875736
149	0x3e39de7f	0.18151282
150	0xbe09274d	-0.13393898
151	0xbd4f30a4	-0.050583497
152	0xbd97707b	-0.07394501
153	0x3d21152d	0.039326835
154	0x3c9a2f2d	0.018821323
155	0x3d9ebf97	0.077513866
156	0xbd56d2e7	-0.052447226
157	0xbd4d26bb	-0.050085764
158	0x3dca9770	0.09892166
159	0x3d461a71	0.04836506
160	0xbd388eda	-0.04505811
161	0xbc248dc3	-0.010043564
162	0xbd812ffc	-0.063079804
163	0x3b37ea54	0.0028063254
164	0xbc83f95b	-0.016110113
165	0xbd5e1714	-0.054221228
166	0x3e158561	0.14601661
167	0xbd5e4f06	-0.05427458
168	0xbcf85d2a	-0.030317862
169	0xbc931990	-0.017956525
170	0xbd49ca4e	-0.0492652
171	0xbd7650d5	-0.06013568
172	0x3d5bebe5	0.053691763
173	0x3d0ec498	0.034855455
174	0x3dec91a7	0.115512185
175	0x3cab0ea4	0.020881005
176	0xbc522890	-0.012827054
177	0x3cad2b61	0.021138849
178	0xbd60403f	-0.05474877
179	0xbd91075c	-0.07081482
180	0x3bd98ffd	0.006639479
181	0xbde5d933	-0.11223068
182	0xbe11dcf6	-0.14244446
183	0x3dcbb90a	0.09947403
184	0xbd06ede9	-0.032941733
185	0xbda15506	-0.07877545
186	0x3e6260ad	0.22107191
187	0x3d424852	0.04743225
188	0xbbc3c345	-0.0059742057
189	0x3d8846ee	0.06654154
190	0xbc0b0d55	-0.008487065
191	0x3de073b5	0.10959569
192	0x3de47d4c	0.11156711
193	0xbdf2098e	-0.11818229
194	0xbd1580b5	-0.036499698
195	0x3cef8d51	0.02924219
196	0x3e18268a	0.14858451
197	0x3e293303	0.16523366
198	0x3d822fc7	0.06356769
199	0x3e052dfb	0.13005821
200	0xb9cb61fc	-0.0003879218
201	0x3c817be6	0.01580615
202	0x3d11263b	0.03543685
203	0x3da1a079	0.07891936
204	0xbc9154af	-0.017740576
205	0x3c393b0f	0.011305585
206	0x3ab08a34	0.0013468922
207	0xbd943a5e	-0.07237695
208	0x3d8fb0b9	0.07016129
209	0x3ce86717	0.02836947
210	0x3ce70c7b	0.028204193
211	0x3e1353d9	0.14387454
212	0x3e5e9c31	0.2173927
213	0x3c9ed02e	0.019386377
214	0x3ddf41a9	0.109011956
215	0xbceb4346	-0.028718602
216	0x3c9ee450	0.019395977
217	0x3afc1141	0.0019231216
218	0xb903465f	-0.00012519349
219	0xbd99d532	-0.07511367
220	0xbc0bcc82	-0.008532645
221	0xbd9de657	-0.077099495
222	0xbd085b5c	-0.033290252
223	0xbd0219fc	-0.031763062
224	0xbd03ea08	-0.03220561
225	0xbdd9e8e3	-0.10640123
226	0x3d294c1e	0.041332357
227	0x3d2732b3	0.040819835
228	0xbdc63987	-0.09678941
229	0xbe0bdb76	-0.13657936
230	0xbd28caef	-0.041209158
231	0x3db39bc3	0.087699436
232	0xbcbd62bf	-0.023118375
233	0x3dfc4785	0.12318329
234	0x3da3fc54	0.08007112
235	0x3c15784a	0.009122917
236	0x3dc2e066	0.09515457
237	0x3aeb7239	0.0017963118
238	0xbd062c93	-0.032757353
239	0xbd113480	-0.03545046
240	0x3d7d1a8b	0.06179289
241	0xbda18120	-0.07885957
242	0xbda88f0a	-0.082304075
243	0x3a9bcdeb	0.001188693
244	0x3d35a734	0.04434891
245	0x3dd9d49b	0.106362544
246	0xbcfc3ed6	-0.030791681
247	0x3d450d55	0.048108418
248	0xbce08fa9	-0.027412253
249	0xbdf3afad	-0.11898742
250	0x3d9a090e	0.07521258
251	0xbd24ffe2	-0.04028309
252	0xbd2bc38b	-0.04193453
253	0xbc965219	-0.018349694
254	0xbd65e3d4	-0.056125477
255	0xbd1f8184	-0.038941875

network_body._body_endoder.seq_layers.2.bias f4 [128]
0	0x00000000	0.0
1	0x00000000	0.0
2	0x00000000	0.0
3	0x00000000	0.0
4	0x00000000	0.0
5	0x00000000	0.0
6	0x00000000	0.0
7	0x00000000	0.0
8	0x00000000	0.0
9	0x00000000	0.0
10	0x00000000	0.0
11	0x00000000	0.0
12	0x00000000	0.0
13	0x00000000	0.0
14	0x00000000	0.0
15	0x00000000	0.0
16	0x00000000	0.0
17	0x00000000	0.0
18	0x00000000	0.0
19	0x00000000	0.0
20	0x00000000	0.0
21	0x00000000	0.0
22	0x00000000	0.0
23	0x00000000	0.0
24	0x00000000	0.0
25	0x00000000	0.0
26	0x00000000	0.0
27	0x00000000	0.0
28	0x00000000	0.0
29	0x00000000	0.0
30	0x00000000	0.0
31	0x00000000	0.0
32	0x00000000	0.0
33	0x00000000	0.0
34	0x00000000	0.0
35	0x00000000	0.0
36	0x00000000	0.0
37	0x00000000	0.0
38	0x00000000	0.0
39	0x00000000	0.0
40	0x00000000	0.0
41	0x00000000	0.0
42	0x00000000	0.0
43	0x00000000	0.0
44	0x00000000	0.0
45	0x00000000	0.0
46	0x00000000	0.0
47	0x00000000	0.0
48	0x00000000	0.0
49	0x00000000	0.0
50	0x00000000	0.0
51	0x00000000	0.0
52	0x00000000	0.0
53	0x00000000	0.0
54	0x00000000	0.0
55	0x00000000	0.0
56	0x00000000	0.0
57	0x00000000	0.0
58	0x00000000	0.0
59	0x00000000	0.0
60	0x00000000	0.0
61	0x00000000	0.0
62	0x00000000	0.0
63	0x00000000	0.0
64	0x00000000	0.0
65	0x00000000	0.0
66	0x00000000	0.0
67	0x00000000	0.0
68	0x00000000	0.0
69	0x00000000	0.0
70	0x00000000	0.0
71	0x00000000	0.0
72	0x00000000	0.0
73	0x00000000	0.0
74	0x00000000	0.0
75	0x00000000	0.0
76	0x00000000	0.0
77	0x00000000	0.0
78	0x00000000	0.0
79	0x00000000	0.0
80	0x00000000	0.0
81	0x00000000	0.0
82	0x00000000	0.0
83	0x00000000	0.0
84	0x00000000	0.0
85	0x00000000	0.0
86	0x00000000	0.0
87	0x00000000	0.0
88	0x00000000	0.0
89	0x00000000	0.0
90	0x00000000	0.0
91	0x00000000	0.0
92	0x00000000	0.0
93	0x00000000	0.0
94	0x00000000	0.0
95	0x00000000	0.0
96	0x00000000	0.0
97	0x00000000	0.0
98	0x00000000	0.0
99	0x00000000	0.0
100	0x00000000	0.0
101	0x00000000	0.0
102	0x00000000	0.0
103	0x00000000	0.0
104	0x00000000	0.0
105	0x00000000	0.0
106	0x00000000	0.0
107	0x00000000	0.0
108	0x00000000	0.0
109	0x00000000	0.0
110	0x00000000	0.0
111	0x00000000	0.0
112	0x00000000	0.0
113	0x00000000	0.0
114	0x00000000	0.0
115	0x00000000	0.0
116	0x00000000	0.0
117	0x00000000	0.0
118	0x00000000	0.0
119	0x00000000	0.0
120	0x00000000	0.0
121	0x00000000	0.0
122	0x00000000	0.0
123	0x00000000	0.0
124	0x00000000	0.0
125	0x00000000	0.0
126	0x00000000	0.0
127	0x00000000	0.0

action_model._discrete_distribution.branches.0.weight f4 [3, 128]
0	0x38a95693	8.074674e-05
1	0x3b161d0c	0.0022905497
2	0x3c308a7d	0.010775206
3	0xbba0e4e3	-0.004910098
4	0xbb7d14a5	-0.0038617041
5	0x3b92b176	0.0044767214
6	0x3b5d51ef	0.003377076
7	0x3ba779db	0.005110962
8	0xbc4a275b	-0.012338485
9	0x3aff49c0	0.0019476935
10	0x3befbdf2	0.0073163444
11	0xbc7c80b5	-0.0154115455
12	0x3c00abcb	0.007853459
13	0xbc4d17f5	-0.012517919
14	0xbbc14187	-0.005897704
15	0xb8a2c80f	-7.762026e-05
16	0xbcb60a50	-0.022221714
17	0xbc6c6abd	-0.014429745
18	0xbbadba38	-0.00530174
19	0xba918e07	-0.001110495
20	0x3c46f612	0.012143629
21	0xbc7dad85	-0.015483265
22	0xbb7e992d	-0.0038848624
23	0xbbe024ab	-0.0068403087
24	0xbb59b34f	-0.0033218449
25	0x3b877d27	0.0041347924
26	0x3c00d0a3	0.007862243
27	0xbb7c4057	-0.0038490498
28	0xbb1e95dc	-0.002419821
29	0xbb6a144b	-0.0035717662
30	0xb9bd1f67	-0.00036072286
31	0xbb8145db	-0.003945095
32	0x3ba0cdf4	0.004907364
33	0x3a954903	0.0011389557
34	0x3a3b8035	0.0007152588
35	0x3c1eb979	0.009687775
36	0x3c45277e	0.012033341
37	0xbb945b9f	-0.0045275236
38	0xbc42754e	-0.011868788
39	0x3a42e311	0.0007434348
40	0x3b9a34fa	0.0047060223
41	0x3c741b17	0.014899037
42	0xbb63e98d	-0.0034776658
43	0xba3b72e4	-0.0007150604
44	0xbb922006	-0.004459384
45	0xbbb72218	-0.005588781
46	0xbbce9f80	-0.006305635
47	0xbc5173f2	-0.012783991
48	0x3b814098	0.0039444678
49	0x3bf3e2f0	0.0074428245
50	0xbc07c347	-0.008286304
51	0x3c65609f	0.014000087
52	0x399f704f	0.0003041052
53	0xb9cd9ead	-0.0003921887
54	0x3ba3b4fe	0.004995941
55	0xbbdfd37f	-0.006830632
56	0x3c0b36d0	0.008496955
57	0xbb9e2bb0	-0.0048269853
58	0x3c2816cb	0.0102593405
59	0x3c0a37bf	0.0084361425
60	0x3b81ad8b	0.0039574555
61	0x3ac4492f	0.0014975424
62	0x3c1f028e	0.009705199
63	0xbc1e4614	-0.009660263
64	0x3b77d7d8	0.0037817862
65	0x3baadc28	0.005214233
66	0x3b8c97fd	0.0042905794
67	0xbb0ba2f7	-0.0021306851
68	0x3b6e986b	0.0036406766
69	0xbb46698b	-0.003027531
70	0xbb8b321e	-0.004247918
71	0x3b8ae8d2	0.00423918
72	0xbca97f6c	-0.020690642
73	0x3bca7bdf	0.0061793174
74	0xbc3d9739	-0.011571699
75	0xbc487751	-0.0122354785
76	0x3c49232e	0.012276454
77	0x3bec0ad7	0.0072034406
78	0x38c38690	9.323389e-05
79	0xba5cbbd3	-0.0008420322
80	0x3c84814b	0.016174933
81	0xbc0d37b5	-0.008619239
82	0x3cc0117d	0.023445839
83	0x3bafd153	0.0053655296
84	0x3cb46bf3	0.02202413
85	0x3babfd1e	0.00524868
86	0xbb3f32d7	-0.002917459
87	0xbc01e258	-0.0079275
88	0x3afb8bbd	0.0019191426
89	0xbb1b9139	-0.0023737682
90	0xbc1b44bb	-0.009476836
91	0xbb5820bd	-0.0032978498
92	0x3b16738f	0.0022957062
93	0x3c8e423b	0.017365566
94	0x3b13e35f	0.0022565944
95	0xba4eb31d	-0.00078849663
96	0x38d68ea0	0.00010230881
97	0xbc0834cb	-0.008313368
98	0x3b89f1f1	0.00420975
99	0x3b479858	0.0030455794
100	0xbc43be76	-0.011947265
101	0x3c81ace3	0.01582951
102	0x3c1e7c9b	0.009673263
103	0x3abb04d3	0.0014268406
104	0xbbc734c5	-0.0060792887
105	0x3a361476	0.0006945798
106	0xbc2066b7	-0.009790114
107	0x3b8b2c21	0.004247204
108	0x3ccbc8af	0.024875967
109	0x3b16c432	0.0023005125
110	0x3c5e5325	0.013569628
111	0x3c0b25c9	0.008492895
112	0x3bfedb25	0.007777589
113	0xbbc7f23c	-0.0061018746
114	0xbc0fdc34	-0.008780528
115	0x3ca2b656	0.019862335
116	0xbbd93e8f	-0.006629772
117	0xbc9398fd	-0.018017286
118	0xbb5c9835	-0.0033660058
119	0x3c4578e0	0.012052745
120	0x3c1310e3	0.008976194
121	0xbb89f44c	-0.0042100307
122	0xbb88fdbb	-0.0041806377
123	0xbb86105f	-0.004091307
124	0xba645947	-0.0008710813
125	0x3c532d23	0.012889179
126	0x3b233aae	0.0024906802
127	0x3c0fd60b	0.008779059
128	0x3aafd8f0	0.0013416093
129	0xbc4f5c95	-0.012656351
130	0xbbcd4ff7	-0.006265636
131	0x3bd245db	0.006417019
132	0xbb879948	-0.0041381456
133	0xbc930f67	-0.01795168
134	0x3bc3ba76	0.0059731556
135	0xbc3cd5e5	-0.011525606
136	0xbb9c02fc	-0.004761098
137	0x3acfe4d5	0.0015861044
138	0xbc5e9320	-0.013584882
139	0xbc19ab93	-0.009379285
140	0x3c3f4725	0.011674677
141	0xbc2e992b	-0.010656635
142	0xbbb8d1aa	-0.0056402283
143	0xbb531783	-0.003221006
144	0x3c7488c2	0.014925184
145	0x3b5344d5	0.0032237072
146	0xbc5e0c47	-0.013552732
147	0xbc0a4039	-0.008438163
148	0xbbd3535f	-0.0064491476
149	0xbb2eae62	-0.0026654233
150	0xbb83474a	-0.004006301
151	0x3bef2ea2	0.0072992602
152	0x3b8850e5	0.004160034
153	0x3a1946d9	0.0005847044
154	0x3b414013	0.0029487654
155	0x3bb807a6	0.005616146
156	0xbb87f1bd	-0.0041486905
157	0x3a19ed2c	0.0005871828
158	0x3b8cc6c6	0.0042961566
159	0x3b8621dc	0.004093392
160	0xbb60b08f	-0.0034284925
161	0x3b637caa	0.0034711757
162	0xbb0b4be1	-0.0021254944
163	0x3c3d9468	0.011571027
164	0x3b1b9e87	0.0023745613
165	0x3c6cf005	0.014461522
166	0xbae14c88	-0.0017188946
167	0xbc2959bb	-0.010336335
168	0xbb8b2e1d	-0.0042474405
169	0xbbca262b	-0.0061691008
170	0xbb80bc4a	-0.003928696
171	0xbc1ca7ab	-0.0095614595
172	0x3b5e54a0	0.0033924952
173	0xbc2f9b28	-0.0107181445
174	0xbc28e383	-0.010308149
175	0xbc30e960	-0.010797828
176	0x3baa67ef	0.005200378
177	0x3b4922bb	0.0030690867
178	0xbb9d017d	-0.004791437
179	0x3b230bc3	0.0024878837
180	0xbaf9ecca	-0.0019067761
181	0x3b5139bd	0.0031925284
182	0x3c214367	0.00984273
183	0xbab7aaa5	-0.0014012648
184	0xbbe0f80d	-0.0068655075
185	0x3b8f23f3	0.004368299
186	0x3bf1d60d	0.007380253
187	0x3b205bd5	0.0024468799
188	0x3c896b7d	0.016774887
189	0xbc4523ec	-0.01203249
190	0xbc0e82df	-0.008698194
191	0xbc9e4679	-0.019320713
192	0xbc142697	-0.009042404
193	0xbc2f26fc	-0.010690447
194	0x3b3fcf96	0.0029268018
195	0x39b107e4	0.0003376595
196	0x3baf5793	0.005351016
197	0x3b81dbae	0.0039629554
198	0xbc38d9b7	-0.011282376
199	0xba6c7922	-0.0009020736
200	0xbb921417	-0.0044579613
201	0x3c68aea5	0.014201795
202	0x3b9aa863	0.0047197803
203	0x3c068abb	0.008211787
204	0xbb8df1d1	-0.0043318053
205	0xbb7e8efa	-0.0038842545
206	0xbc4a9962	-0.012365671
207	0x3c5423c5	0.012947981
208	0xbc947f17	-0.018127007
209	0xbb8cb6cb	-0.0042942516
210	0xbb5f2dba	-0.0034054355
211	0xbc215d37	-0.009848884
212	0xbc33898b	-0.010958086
213	0x3a5ed228	0.00084999437
214	0xbaca5678	-0.0015437147
215	0x3beac372	0.007164412
216	0xbc3a2bf9	-0.011363023
217	0xbc536aeb	-0.012903909
218	0x3b302df7	0.0026882866
219	0xbb56465a	-0.0032695741
220	0xbc0767e9	-0.00826452
221	0x3b17c1a5	0.0023156193
222	0xbc93d87f	-0.01804757
223	0xbc980398	-0.018556401
224	0xbcac2192	-0.021012101
225	0x3bb00727	0.0053719464
226	0xbc8bcd5f	-0.017065702
227	0xbb8ee973	-0.0043613254
228	0xbba40b15	-0.005006204
229	0xbc2b5def	-0.010459407
230	0x3b783917	0.0037875825
231	0x3bf3b193	0.00743694
232	0xbb85978a	-0.0040769028
233	0xbb94dd33	-0.0045429706
234	0xbc8d2c08	-0.01723291
235	0xbb9aa357	-0.0047191787
236	0x3c037bd7	0.008025131
237	0x3ba1d512	0.00493873
238	0x3c9f101b	0.01941686
239	0x3c15fc11	0.009154336
240	0x3ad3ecf7	0.0016168643
241	0xbba60cb8	-0.005067434
242	0xbc1fc795	-0.009752174
243	0xbb8c77f3	-0.00428676
244	0xbadc9bdf	-0.0016831121
245	0xbc97b37f	-0.018518208
246	0xbc3ea5d7	-0.011636219
247	0xbb9981d1	-0.004684665
248	0xbc060b5f	-0.008181422
249	0xbbfd7dfb	-0.0077359653
250	0xbc1fb1a0	-0.009746939
251	0xba39afa9	-0.00070833653
252	0xbc8fd8cb	-0.01755943
253	0xbc475cee	-0.012168152
254	0xbc34e610	-0.011041179
255	0xbb9e838a	-0.004837458

action_model._discrete_distribution.branches.0.bias f4 [3]
0	0x00000000	0.0
1	0x00000000	0.0
2	0x00000000	0.0

action_model._discrete_distribution.branches.1.weight f4 [2, 128]
0	0x3a92c13d	0.0011196506
1	0x3b9a5731	0.004710101
2	0x3ad4cc73	0.0016235247
3	0x3b056087	0.0020351724
4	0x3b278368	0.0025560502
5	0xbbb9d0eb	-0.005670657
6	0x3bd4fdcf	0.006499983
7	0x3c4a347f	0.012341618
8	0xbc65f028	-0.0140343085
9	0x3c349a65	0.011023139
10	0xbcd41a6b	-0.025891503
11	0x3c883bb6	0.016630035
12	0x3c8119fb	0.015759459
13	0x3c593e10	0.013259426
14	0x399b2ed2	0.00029598788
15	0x3c0ea1da	0.008705581
16	0x3c80d8c1	0.015728356
17	0x3c8c8e81	0.017157795
18	0xbc2a128c	-0.0103803985
19	0x3c5a8ce3	0.013339254
20	0x3bc6c904	0.0060664434
21	0xbab76341	-0.0013991372
22	0xbc3e081b	-0.011598612
23	0x3bb07c35	0.0053859004
24	0xbb93c5c7	-0.004509661
25	0xba36410b	-0.0006952441
26	0x3a38f919	0.00070561614
27	0xbc80706d	-0.015678609
28	0xbb0ea484	-0.002176554
29	0x3b079737	0.0020689496
30	0xba9f00dd	-0.0012130995
31	0xbc272b1f	-0.010203152
32	0x3b1c8309	0.0023881814
33	0x3b0516a9	0.0020307696
34	0x3b0b7652	0.0021280241
35	0xbc59df1a	-0.01329782
36	0x3a4a076b	0.0007706794
37	0xbb9af71d	-0.004729165
38	0x3b913c29	0.0044322205
39	0xbb8a872c	-0.0042275395
40	0x39a0b8ff	0.0003065541
41	0x3c63cd25	0.013903891
42	0xbb40fb86	-0.0029446795
43	0xbb2fc317	-0.0026819163
44	0xba810787	-0.0009844162
45	0x3bd3f620	0.0064685494
46	0x3c7786c8	0.015107818
47	0x3baca033	0.0052681207
48	0xbab6289a	-0.0013897598
49	0x3c9e4038	0.019317731
50	0xbbccdc68	-0.0062518604
51	0xbc141541	-0.00903827
52	0xba743cb3	-0.0009316906
53	0xbba33847	-0.004981074
54	0x3cc091f9	0.023507105
55	0xbbe5f35a	-0.007017535
56	0xbb980615	-0.004639397
57	0xbb02ef75	-0.0019979153
58	0x3c1e83ed	0.009675008
59	0xbc7b6990	-0.015344992
60	0x3b975d64	0.0046192873
61	0x3a9143da	0.0011082843
62	0x3c4cb74b	0.012494872
63	0xbbd2c13a	-0.006431726
64	0xbc847acb	-0.016171834
65	0xbb96bf97	-0.004600476
66	0x3bffcec2	0.00780663
67	0x3c634607	0.013871676
68	0xbc314dcc	-0.010821771
69	0x3b90beff	0.0044172998
70	0xbbdf855d	-0.006821318
71	0x39d9cf35	0.00041543847
72	0xbc498886	-0.012300616
73	0x3aff437a	0.0019475066
74	0xbbe1589f	-0.0068770195
75	0x3bbbcdd1	0.0057313223
76	0x3bead39f	0.0071663405
77	0x3a459565	0.0007537215
78	0x3c986985	0.018605003
79	0xbbfd6e82	-0.007734121
80	0x390c3c0a	0.00013373807
81	0xbc380197	-0.011230848
82	0xbbdb4e63	-0.006692694
83	0x3b0ea3a1	0.002176501
84	0x3bfb4558	0.0076681785
85	0x3c10b6a8	0.008832611
86	0xbc873fff	-0.016510008
87	0xbc095d2d	-0.008384031
88	0x3beeb4c2	0.0072847316
89	0x3cac23a7	0.021013094
90	0x3c4affdb	0.012390102
91	0xba378212	-0.0007000278
92	0xbbe7a79f	-0.0070695425
93	0x3abc074b	0.0014345435
94	0xbb2cd210	-0.0026370324
95	0x398b3f84	0.0002655947
96	0x3bc1f169	0.005918671
97	0xbc87942f	-0.016550152
98	0x3b91c032	0.0044479603
99	0xbbb0de10	-0.0053975657
100	0xbbff9a37	-0.0078003663
101	0x3c30c8cf	0.010790064
102	0x3aa96f0c	0.0012926771
103	0xbb9a4082	-0.004707397
104	0x3a1d9f9f	0.000601286
105	0xbb8610bc	-0.0040913504
106	0x39b37627	0.0003422957
107	0xb966ee55	-0.00022023295
108	0x3b56c035	0.0032768373
109	0x3c2b9fbb	0.010475094
110	0xbb33877b	-0.0027393985
111	0xbc108e2e	-0.008822961
112	0xbb8356b5	-0.004008139
113	0x3c450473	0.012024987
114	0xbbd5bd15	-0.0065227845
115	0x3bf53a33	0.0074837445
116	0x3c3df9d3	0.011595207
117	0x3b142bc9	0.0022609106
118	0x3c121ff1	0.008918748
119	0x35e587cf	1.7101355e-06
120	0x3b8a6de6	0.0042245267
121	0x3c0cc1d8	0.008591138
122	0x3b8e5a9c	0.0043442976
123	0xbc929e32	-0.017897699
124	0xbb7d5ad2	-0.003865887
125	0x3b23a61c	0.0024970835
126	0xbb058583	-0.0020373769
127	0x3c96cf91	0.018409522
128	0x3c63ac00	0.013895988
129	0x3aad28a1	0.0013210961
130	0xbb2f4376	-0.002674309
131	0x3c0f52e1	0.008747787
132	0x3aa20ceb	0.0012363469
133	0x3c50818f	0.012726202
134	0x3c20445c	0.009781923
135	0xbb1f3c3d	-0.002429738
136	0x3bed812a	0.0072480636
137	0x3c023350	0.007946804
138	0x3c7cc510	0.015427843
139	0x3bae3b34	0.005317116
140	0x3a280ddb	0.0006410756
141	0xbb2e7e3b	-0.0026625532
142	0xbbdf5c87	-0.00681645
143	0xbbe3593f	-0.006938129
144	0xbc2fe1fe	-0.010735033
145	0x3c4d51b8	0.01253169
146	0x3bba0ee0	0.005678043
147	0x3b91a92f	0.004445217
148	0xbc4ca2e6	-0.01249001
149	0xba0dfbd2	-0.00054162473
150	0xbba40f3a	-0.005006698
151	0xba0ee887	-0.00054515194
152	0xbb9c3ae1	-0.004767761
153	0xba2da397	-0.0006623803
154	0x3a1bd00a	0.0005943781
155	0x3bac586b	0.0052595637
156	0xbbfcdf2b	-0.0077170334
157	0x3c0c7bb4	0.008574415
158	0xbb56f132	-0.0032797572
159	0xbaeb5f4f	-0.0017957481
160	0xbc4a7072	-0.012355911
161	0xbbf358a2	-0.0074263373
162	0x3ba14bd8	0.0049223714
163	0xbc0d1783	-0.008611563
164	0xbbec4bdd	-0.007211192
165	0xbc0746e9	-0.008256652
166	0x3c407473	0.011746514
167	0xbc130b0d	-0.008974803
168	0xbc2ce4af	-0.010552569
169	0xbc4660fe	-0.012108086
170	0x3bb44998	0.005501937
171	0x39cd977f	0.0003921352
172	0xbca22650	-0.01979366
173	0x3c2f8c66	0.010714626
174	0x3a34b9b3	0.00068941264
175	0xbadf8ad2	-0.0017054921
176	0x3c41e192	0.011833565
177	0x394d773a	0.00019594739
178	0xbb6390bf	-0.0034723727
179	0x3c586cc3	0.013209525
180	0xbb65b5b3	-0.0035050928
181	0xbab8114b	-0.001404324
182	0xbabd3da5	-0.0014437927
183	0xbbd52cdd	-0.0065055923
184	0x3b6bfaa8	0.0036007557
185	0x3b15e59b	0.0022872451
186	0xbb1a27a4	-0.0023522163
187	0x3bc94087	0.0061417255
188	0xbc86779f	-0.016414462
189	0xbb9e40b7	-0.004829492
190	0x3b213e23	0.0024603687
191	0x3b6b2298	0.0035878774
192	0x3c96648b	0.01835849
193	0xbb0c86ad	-0.0021442578
194	0xbb141b51	-0.002259929
195	0xbcbf0c81	-0.023321392
196	0x3c69789a	0.014249945
197	0xbbe1b998	-0.0068885796
198	0x3bb85ffa	0.0056266757
199	0x3c53dfea	0.012931803
200	0x3b11a977	0.0022226253
201	0xbc12e3ae	-0.008965416
202	0x392badc2	0.0001637256
203	0x3c110377	0.008850924
204	0x3bf9fbdd	0.0076289014
205	0xbc648395	-0.013947387
206	0xbb83f18b	-0.004026597
207	0x39b38e10	0.00034247385
208	0x3c851133	0.016243553
209	0xbc7d9fc8	-0.015479989
210	0xbc3e3dd9	-0.011611425
211	0x3b723652	0.0036958647
212	0x3c362d48	0.011119194
213	0xb9226268	-0.00015486183
214	0x3bc9dc9c	0.006160332
215	0x3b5f9a17	0.0034118944
216	0xbc5dc305	-0.013535266
217	0xbad4faf7	-0.001624911
218	0xbc544cb3	-0.01295774
219	0xb86df182	-5.6730125e-05
220	0xbbf720aa	-0.0075417357
221	0x3ca0e053	0.019638216
222	0xbc42e767	-0.011895991
223	0xbc41ce18	-0.011828922
224	0xbbae9286	-0.0053275255
225	0x3c5f8fe3	0.013645145
226	0xbc9cb77c	-0.01913046
227	0x3a725ed8	0.00092457
228	0xbb132d88	-0.0022457559
229	0x3c0f0a7c	0.008730527
230	0xbb1ec1f2	-0.0024224487
231	0x3b3ac54f	0.0028498953
232	0x3a5b2fca	0.0008361308
233	0x3bdd6a27	0.006757039
234	0x3c124573	0.008927691
235	0xba25b68e	-0.0006321453
236	0xbc5159c3	-0.0127777485
237	0xbc28af71	-0.010295735
238	0xba8e5163	-0.0010857995
239	0x3bbc59e6	0.0057480214
240	0xbbd04608	-0.0063560046
241	0x3817cbcb	3.6191002e-05
242	0xbc9b27de	-0.018939909
243	0x3baf2c86	0.005345884
244	0x3be83985	0.007086935
245	0xbadb0460	-0.0016709678
246	0xbc42a95f	-0.0118812015
247	0x3c0f9817	0.008764288
248	0xbc599a1b	-0.0132813705
249	0x3c759628	0.014989413
250	0xbba390d8	-0.004991632
251	0xbc3c9033	-0.011508989
252	0x3bab088c	0.0052195247
253	0xb9456697	-0.00018825602
254	0x3add0aba	0.0016864159
255	0x3bcdd6c3	0.006281705

action_model._discrete_distribution.branches.1.bias f4 [2]
0	0x00000000	0.0
1	0x00000000	0.0

network_body.observation_encoder.processors.0.normalizer.running_mean f4 [7]
0	0x3ff733ce	1.9312685
1	0xbf7527a1	-0.95763594
2	0xbeabd841	-0.33563426
3	0x00000000	0.0
4	0x3dd6d33f	0.10489511
5	0xbd0692af	-0.032854732
6	0x3f7fbe88	0.999001

network_body.observation_encoder.processors.0.normalizer.running_variance f4 [7]
0	0x4097794f	4.733558
1	0x4313ee78	147.93152
2	0x41b1bf5f	22.218443
3	0x3f800000	1.0
4	0x42bdf8d6	94.98601
5	0x44b4d881	1446.7657
6	0x3fffdf46	1.9990013

network_body.processors.0.normalizer.running_mean f4 [7]
0	0x3ff733ce	1.9312685
1	0xbf7527a1	-0.95763594
2	0xbeabd841	-0.33563426
3	0x00000000	0.0
4	0x3dd6d33f	0.10489511
5	0xbd0692af	-0.032854732
6	0x3f7fbe88	0.999001

network_body.processors.0.normalizer.running_variance f4 [7]
0	0x4097794f	4.733558
1	0x4313ee78	147.93152
2	0x41b1bf5f	22.218443
3	0x3f800000	1.0
4	0x42bdf8d6	94.98601
5	0x44b4d881	1446.7657
6	0x3fffdf46	1.9990013

network_body._body_endoder.seq_layers.0.weight f4 [128, 7]
0	0x3f2eb073	0.6823799
1	0xbf04cf8f	-0.5187921
2	0xbe379d2a	-0.17931047
3	0xbe5ca81a	-0.215485
4	0xbe066a61	-0.13126518
5	0xbe9579bc	-0.29194438
6	0x3e31f157	0.1737722
7	0xbe828f16	-0.2549979
8	0xbe748184	-0.23877531
9	0x3e5422c1	0.20716383
10	0xbe57b7c3	-0.21066193
11	0xbe907863	-0.28216848
12	0xbe8b7dc5	-0.27244392
13	0xbeae1e6c	-0.34007585
14	0xbe8cfb25	-0.27535358
15	0xbef60271	-0.48048738
16	0xbded8bf3	-0.11598959
17	0xbf70c917	-0.9405684
18	0xbe159f0d	-0.14611454
19	0x3eca8012	0.39550835
20	0xbd709d07	-0.058743503
21	0xbf337aa2	-0.70109
22	0x3f35d9b9	0.71035343
23	0xbe4e4fbc	-0.20147604
24	0xbf12b057	-0.57300323
25	0x3e81f7af	0.2538428
26	0xbd69fc83	-0.05712558
27	0xbf54ddf9	-0.83151203
28	0x3e8570ce	0.26062626
29	0xbf74efda	-0.95678484
30	0xbef7f4da	-0.48428994
31	0x3e81e551	0.25370267
32	0xbe3d0568	-0.18459094
33	0xbf32eb2e	-0.69890106
34	0x3e660d33	0.22465973
35	0xbdbfcff0	-0.09365833
36	0xbe227d16	-0.15868029
37	0xbe337bd1	-0.17527701
38	0xbda6a3d2	-0.08136715
39	0x3dc34724	0.09535053
40	0xbd678fb9	-0.05653355
41	0x3dab7265	0.083714284
42	0x3f0b7f32	0.5449096
43	0x3f18684e	0.59534156
44	0xbf038825	-0.51379615
45	0xbea4f964	-0.3222152
46	0x3f11d550	0.56966114
47	0x3ebf6a96	0.37386006
48	0x3e8ad2b5	0.27113882
49	0xbec9fbb8	-0.3944986
50	0x3e6cb622	0.23116353
51	0x3e673cbf	0.22581767
52	0xbf207a28	-0.62686396
53	0xbf218f02	-0.6310884
54	0x3e4d19e6	0.2002941
55	0x3e4a3dd5	0.1975015
56	0x3dcdd840	0.10051012
57	0xbe3cdf7f	-0.18444632
58	0x3f090250	0.53519154
59	0xbe048a52	-0.1294339
60	0xbe82bd74	-0.25535166
61	0xbe652336	-0.22376713
62	0xbf291edf	-0.6606273
63	0x3ea0bdc8	0.31394792
64	0x3d943ba0	0.07237935
65	0xbe9dbb0e	-0.30806774
66	0xbd89390d	-0.06700335
67	0xbe57e0df	-0.21081875
68	0xbe06bad2	-0.13157204
69	0x3f014fda	0.5051247
70	0xbeabbb76	-0.3354146
71	0xbe4a6793	-0.19766073
72	0xbf245122	-0.641863
73	0x3eeb9571	0.46012452
74	0xbea5e010	-0.3239751
75	0x3eb5bbb5	0.35494772
76	0x3efcc1a7	0.49366495
77	0xbea0b7c9	-0.31390217
78	0xbd84e236	-0.06488459
79	0x3daabe70	0.08337104
80	0xbe2af53b	-0.1669511
81	0xbe7555b0	-0.23958468
82	0xbe0dd623	-0.13851218
83	0x3f0d52e2	0.55204594
84	0xbe516b41	-0.2045107
85	0x3e0eb69f	0.13936852
86	0x3e503174	0.20331365
87	0xbe9eb493	-0.30997142
88	0xbe0d610d	-0.13806553
89	0xbca95abf	-0.020673154
90	0x3c59d151	0.013294534
91	0xbeca6c6b	-0.3953584
92	0x3f196d80	0.5993271
93	0x3f623226	0.8835777
94	0xbea9eb8d	-0.33187523
95	0x3e4389b4	0.19095498
96	0xbe8c84bf	-0.27445027
97	0x3e9ac145	0.30225578
98	0x3dcd8121	0.10034395
99	0x3cd5ae62	0.026084129
100	0x3d8b78a3	0.06810119
101	0xbe9dec5f	-0.308444
102	0xbf1767e2	-0.5914289
103	0x3e4c7026	0.19964656
104	0x3e240a54	0.16019565
105	0x3f03d479	0.5149608
106	0xbe049f74	-0.12951452
107	0xbdf1e73d	-0.11811683
108	0x3da67671	0.0812806
109	0xbce42b08	-0.02785255
110	0xbe58a637	-0.21157156
111	0xbce13134	-0.027489282
112	0x3eedd8d0	0.46454477
113	0xbf0052b7	-0.5012621
114	0x3e992a28	0.29914975
115	0xbf16b93a	-0.58876383
116	0x3e295e45	0.16539867
117	0xbf03ae03	-0.51437396
118	0x3f3b58a5	0.73182136
119	0x3f18911f	0.5959644
120	0x3f297257	0.66190094
121	0xbf0652be	-0.52470005
122	0xbe0d41aa	-0.1379458
123	0xbe9a4b37	-0.3013551
124	0x3dd69581	0.10477734
125	0x3dbd42c8	0.09241253
126	0xbe1098e8	-0.14120829
127	0x3edc4bfd	0.43026724
128	0xbecb3756	-0.39690655
129	0xbef205f9	-0.47270182
130	0xbe26a1a4	-0.16272599
131	0x3d261ef2	0.040556855
132	0xbe0a0549	-0.13478579
133	0x3f211b29	0.6293207
134	0xbdbce4f0	-0.09223354
135	0x3ec92d1a	0.39292222
136	0xbeaca786	-0.3372156
137	0xbf2d4312	-0.67680466
138	0xbebc302a	-0.36755496
139	0xbe03ea49	-0.12882341
140	0xbf38944b	-0.7210128
141	0xbbaf5583	-0.00535077
142	0xbdee6c4e	-0.11641751
143	0x3e1071db	0.14105932
144	0xbe9f5664	-0.31120598
145	0xbf14bc1c	-0.5809953
146	0xbea1826d	-0.3154482
147	0xbeb1e94b	-0.347483
148	0xbe8de894	-0.27716506
149	0xbcb9e095	-0.022690097
150	0x3f3a70bc	0.7282827
151	0x3ef0e6b5	0.47051015
152	0xbdd71679	-0.10502333
153	0x3cf2f429	0.02965744
154	0x3ef64c31	0.48105004
155	0xbe9b5762	-0.30340105
156	0x3f9ccac0	1.2249374
157	0x3ece407c	0.40283573
158	0x3e3ec578	0.18630016
159	0xbeee0bfc	-0.46493518
160	0x3f2d962f	0.67807287
161	0xbed5146c	-0.41617143
162	0xbe776ce3	-0.2416263
163	0x3eb4f42a	0.35342532
164	0x3e09f4f3	0.13472347
165	0x3f225462	0.6341001
166	0x3ea7f78f	0.3280606
167	0xbe9ad313	-0.30239162
168	0xbe19e018	-0.15026891
169	0x3ed37ae0	0.41304684
170	0x3e2ec27b	0.17066376
171	0xbecf0b9c	-0.40438545
172	0x3f18149c	0.5940645
173	0x3e2bfc60	0.16795492
174	0xbd71a8a4	-0.05899872
175	0xbed18f2b	-0.4092954
176	0x3df58fe5	0.11990336
177	0xbe6fc94b	-0.23416631
178	0xbe2f9f65	-0.17150648
179	0x3dbb306e	0.091400966
180	0xbee26c2d	-0.44223157
181	0xbdd92f28	-0.106046975
182	0xbe6364d1	-0.22206427
183	0x3dcac128	0.09900123
184	0xbef9f909	-0.4882281
185	0xbdca1a45	-0.09868292
186	0xbf111c3b	-0.566837
187	0xbcd367d9	-0.025806354
188	0xbe39f3c9	-0.18159403
189	0xbeff2aac	-0.49837244
190	0xbe3f142a	-0.18660036
191	0xbf0a07cc	-0.5391815
192	0xbeb22bc0	-0.34799004
193	0x3f28f8a5	0.660044
194	0x3d12beb0	0.035826385
195	0x3f2c5d2e	0.6732968
196	0xbe699c68	-0.2281357
197	0x3efa9b72	0.4894672
198	0xbe85ec92	-0.2615705
199	0xbc9bd888	-0.019024149
200	0xbde86d1e	-0.113489375
201	0xbe975420	-0.2955637
202	0xbdd1af62	-0.1023853
203	0xbd90dfa2	-0.070739046
204	0xbe01c2d6	-0.1267198
205	0x3eb063fe	0.34451288
206	0x3e512ab9	0.20426454
207	0xbe62d671	-0.22152115
208	0x3ce83896	0.028347295
209	0x3e6cff18	0.23144186
210	0x3d90317f	0.07040691
211	0xbd52854b	-0.05139665
212	0xbebb18e0	-0.36542416
213	0x3e46ac8d	0.1940176
214	0xbf03fd15	-0.5155805
215	0x3e1aeae8	0.15128672
216	0x3ec58053	0.38574466
217	0x3e0a11f4	0.13483411
218	0xbc9d68b4	-0.019214965
219	0x3e4f80fb	0.20264046
220	0x3de6bda7	0.11266642
221	0x3f39bb6f	0.72551626
222	0xbf080cb1	-0.53144366
223	0x3f5e1362	0.86748326
224	0x3eec3cc5	0.46140113
225	0x3e16f6fa	0.14742652
226	0xbd6a743d	-0.05723976
227	0x3e42b681	0.19014932
228	0xbda19190	-0.07889092
229	0xbe952b67	-0.29134676
230	0xbea73aef	-0.3266215
231	0x3edfc1ba	0.4370249
232	0x3a0c5f6f	0.0005354797
233	0x3e06cdaf	0.131644
234	0x3e004e49	0.12529863
235	0xbebe0793	-0.37115154
236	0x3f638cb3	0.88886565
237	0x3e815e21	0.25267127
238	0xbf54ab24	-0.8307364
239	0x3f1aca73	0.60465163
240	0x3f001033	0.5002472
241	0x3e71020c	0.23535937
242	0x3f2272a1	0.6345616
243	0x3db113c6	0.086463496
244	0x3e0e1d62	0.13878396
245	0xbca65c40	-0.02030766
246	0x3f0a65b1	0.5406142
247	0x3ec086d4	0.37602866
248	0x3eeeceb2	0.4664207
249	0x3dbb9de9	0.09160978
250	0x3efe0cf1	0.49619249
251	0xbedbcbe8	-0.42929006
252	0x3dc8456f	0.097788684
253	0x3ead9850	0.33905268
254	0x3e5638e7	0.20920144
255	0x3d999a2a	0.075001076

network_body._body_endoder.seq_layers.0.bias f4 [128]
0	0x00000000	0.0
1	0x00000000	0.0
2	0x00000000	0.0
3	0x00000000	0.0
4	0x00000000	0.0
5	0x00000000	0.0
6	0x00000000	0.0
7	0x00000000	0.0
8	0x00000000	0.0
9	0x00000000	0.0
10	0x00000000	0.0
11	0x00000000	0.0
12	0x00000000	0.0
13	0x00000000	0.0
14	0x00000000	0.0
15	0x00000000	0.0
16	0x00000000	0.0
17	0x00000000	0.0
18	0x00000000	0.0
19	0x00000000	0.0
20	0x00000000	0.0
21	0x00000000	0.0
22	0x00000000	0.0
23	0x00000000	0.0
24	0x00000000	0.0
25	0x00000000	0.0
26	0x00000000	0.0
27	0x00000000	0.0
28	0x00000000	0.0
29	0x00000000	0.0
30	0x00000000	0.0
31	0x00000000	0.0
32	0x00000000	0.0
33	0x00000000	0.0
34	0x00000000	0.0
35	0x00000000	0.0
36	0x00000000	0.0
37	0x00000000	0.0
38	0x00000000	0.0
39	0x00000000	0.0
40	0x00000000	0.0
41	0x00000000	0.0
42	0x00000000	0.0
43	0x00000000	0.0
44	0x00000000	0.0
45	0x00000000	0.0
46	0x00000000	0.0
47	0x00000000	0.0
48	0x00000000	0.0
49	0x00000000	0.0
50	0x00000000	0.0
51	0x00000000	0.0
52	0x00000000	0.0
53	0x00000000	0.0
54	0x00000000	0.0
55	0x00000000	0.0
56	0x00000000	0.0
57	0x00000000	0.0
58	0x00000000	0.0
59	0x00000000	0.0
60	0x00000000	0.0
61	0x00000000	0.0
62	0x00000000	0.0
63	0x00000000	0.0
64	0x00000000	0.0
65	0x00000000	0.0
66	0x00000000	0.0
67	0x00000000	0.0
68	0x00000000	0.0
69	0x00000000	0.0
70	0x00000000	0.0
71	0x00000000	0.0
72	0x00000000	0.0
73	0x00000000	0.0
74	0x00000000	0.0
75	0x00000000	0.0
76	0x00000000	0.0
77	0x00000000	0.0
78	0x00000000	0.0
79	0x00000000	0.0
80	0x00000000	0.0
81	0x00000000	0.0
82	0x00000000	0.0
83	0x00000000	0.0
84	0x00000000	0.0
85	0x00000000	0.0
86	0x00000000	0.0
87	0x00000000	0.0
88	0x00000000	0.0
89	0x00000000	0.0
90	0x00000000	0.0
91	0x00000000	0.0
92	0x00000000	0.0
93	0x00000000	0.0
94	0x00000000	0.0
95	0x00000000	0.0
96	0x00000000	0.0
97	0x00000000	0.0
98	0x00000000	0.0
99	0x00000000	0.0
100	0x00000000	0.0
101	0x00000000	0.0
102	0x00000000	0.0
103	0x00000000	0.0
104	0x00000000	0.0
105	0x00000000	0.0
106	0x00000000	0.0
107	0x00000000	0.0
108	0x00000000	0.0
109	0x00000000	0.0
110	0x00000000	0.0
111	0x00000000	0.0
112	0x00000000	0.0
113	0x00000000	0.0
114	0x00000000	0.0
115	0x00000000	0.0
116	0x00000000	0.0
117	0x00000000	0.0
118	0x00000000	0.0
119	0x00000000	0.0
120	0x00000000	0.0
121	0x00000000	0.0
122	0x00000000	0.0
123	0x00000000	0.0
124	0x00000000	0.0
125	0x00000000	0.0
126	0x00000000	0.0
127	0x00000000	0.0

network_body._body_endoder.seq_layers.2.weight f4 [128, 128]
0	0xbdbc350d	-0.09189806
1	0x3de62438	0.11237377
2	0xbe57ab52	-0.21061447
3	0x3dfeb80b	0.12437447
4	0x3d15b350	0.03654796
5	0x3e1b63e0	0.15174818
6	0x3dc27c81	0.094964035
7	0x3cceed53	0.02525965
8	0x3d41dad6	0.04732784
9	0x3ded42ba	0.11584993
10	0xbd52602d	-0.05136125
11	0x3a075830	0.0005162982
12	0x3cd7d8a3	0.026348418
13	0xbd73fa55	-0.059564907
14	0x3c6015a6	0.013677036
15	0xbd271f26	-0.04080119
16	0xbd82246a	-0.06354602
17	0xbdd6b128	-0.104830086
18	0x3dac048d	0.083993055
19	0x3cb1f936	0.021725278
20	0xbd73a6c1	-0.0594852
21	0x3db39f12	0.08770575
22	0x3b347626	0.0027536242
23	0xbd46bf47	-0.04852226
24	0xbc17db76	-0.009268632
25	0xbd3fa596	-0.046788774
26	0xbbc39954	-0.005969206
27	0x3d23a5ce	0.039953046
28	0xbbb4562d	-0.005503437
29	0x3c9bff59	0.019042658
30	0x3e0efadb	0.13962881
31	0x3df4c0a6	0.11950807
32	0x3e1b52ab	0.15168254
33	0xbe1d780f	-0.1537783
34	0x3dca8408	0.09888464
35	0x3e08c109	0.13354887
36	0x3c822f8a	0.015891809
37	0x3db8af71	0.09017838
38	0xbe0bebac	-0.1366412
39	0x3cb2c692	0.021823201
40	0x3d1a0fc5	0.037612695
41	0x3c05cc9a	0.008166457
42	0xbd988c71	-0.07448662
43	0x3cd9de3b	0.026595226
44	0x3cc3fb12	0.02392343
45	0xbd861011	-0.06546033
46	0xbe03f16b	-0.12885062
47	0x3de98cb6	0.114037916
48	0xba8413bb	-0.0010076681
49	0x3d32c2af	0.043642696
50	0x3b9719e4	0.0046112407
51	0xbd71a76e	-0.058997564
52	0x3b486053	0.0030574992
53	0x3db8cbf5	0.09023277
54	0x3c848624	0.016177244
55	0x3d9217ef	0.07133471
56	0x3d7bfc2e	0.061519794
57	0xbe041383	-0.12898068
58	0xbbdd4ccb	-0.006753539
59	0x3dcf497f	0.1012144
60	0x3dcc15ba	0.099650815
61	0xbbc36f4d	-0.005964196
62	0x3d33dc31	0.043911163
63	0xbd1d4280	-0.038393497
64	0x3d9ab082	0.075531974
65	0xbdce214d	-0.10064945
66	0xbd927a0c	-0.07152185
67	0x3d77b5ac	0.06047599
68	0x3e1eb77d	0.15499683
69	0xbd1c2138	-0.038117617
70	0x3ba092c3	0.004900308
71	0xbc8d8907	-0.017277254
72	0xbc8f8c8c	-0.017523073
73	0xba4a983a	-0.0007728372
74	0x3dea33c7	0.11435657
75	0x3e1a8c00	0.15092468
76	0xbd2a49d1	-0.041574303
77	0xbbd856d5	-0.006602148
78	0x3e39d2cf	0.18146823
79	0xbb4c7088	-0.0031195004
80	0xbd4746b1	-0.0486514
81	0xbe1af058	-0.15130746
82	0x3d3b99c1	0.045800928
83	0xbb68c2f8	-0.00355166
84	0xbd2974fa	-0.041371323
85	0x3cacf960	0.021115005
86	0xbc18b740	-0.009321034
87	0xbddeda59	-0.1088149
88	0xbe19a1a7	-0.15003072
89	0x3d1d048c	0.038334414
90	0x3c4597f3	0.012060153
91	0x3d527723	0.05138315
92	0x3d614722	0.05499948
93	0x3d5aac54	0.053387
94	0xbdff67c0	-0.124709606
95	0xbd63afe6	-0.05558767
96	0xbe3d1efb	-0.1846885
97	0x3daa4d18	0.08315486
98	0x3ddf3ad5	0.10899893
99	0x3c2af4fe	0.010434387
100	0x3d5d6908	0.054055244
101	0x3e08d471	0.1336229
102	0xbce0051e	-0.02734619
103	0xbdbca14a	-0.09210451
104	0x3e0143bb	0.12623493
105	0xbd90d99e	-0.07072757
106	0x3c995293	0.018716132
107	0xbe176c38	-0.14787376
108	0x3cab313d	0.020897502
109	0x3dd9dc8d	0.1063777
110	0xbca30351	-0.019899042
111	0xbd21bcae	-0.03948658
112	0x3d40cbcb	0.047069352
113	0x3d699252	0.057024308
114	0xbdf2892c	-0.1184257
115	0xbe382264	-0.17981869
116	0xbacdbf9b	-0.0015697362
117	0xbd0bd0b6	-0.03413459
118	0x3dd8f91c	0.10594389
119	0xbe1fd0a2	-0.15606931
120	0xbdb57c3b	-0.08861586
121	0x3cfb0b6e	0.030645099
122	0x3cc24b26	0.023717474
123	0xbd7e8c66	-0.062145613
124	0xbdb1912d	-0.08670268
125	0x3d6d6fa2	0.05796779
126	0x3cb3e849	0.021961348
127	0x3c94932e	0.018136587
128	0xbd9473ad	-0.07248626
129	0x3d431c04	0.04763414
130	0x3dd1bcad	0.10241065
131	0xbe05330e	-0.13007757
132	0xbdd5cf35	-0.10439912
133	0x3e0f04d8	0.13966691
134	0xbd24943d	-0.040180434
135	0x3dd64a93	0.10463443
136	0x3dab8bfa	0.08376308
137	0x3def4a81	0.11684132
138	0x3c9f0465	0.019411275
139	0xbd98ad49	-0.074549265
140	0x3c978803	0.018497473
141	0x3c926ed6	0.017875116
142	0x3d480fb7	0.04884311
143	0xbdb0722c	-0.086155266
144	0xbd6b8fba	-0.057510115
145	0x3c7acc58	0.015307508
146	0xbe05b4c4	-0.13057238
147	0xbcb7e2af	-0.022446958
148	0xbca8a001	-0.020584108
149	0x3dd0dc39	0.10198254
150	0xbd22132d	-0.03956907
151	0x3d9d5f08	0.076841414
152	0x3d88274d	0.06648121
153	0xbdd51b0f	-0.10405552
154	0x3d193e55	0.03741296
155	0xbba9c227	-0.0051806155
156	0xbcd89707	-0.026439203
157	0xbd7f63b3	-0.06235094
158	0x3d10f09f	0.035385724
159	0x3e6e6a6c	0.23282784
160	0xbd31fce8	-0.04345408
161	0x3d46833c	0.048465
162	0x3ce90616	0.028445285
163	0xbd0febf6	-0.03513714
164	0xbd4ac500	-0.04950428
165	0xbc9e480a	-0.01932146
166	0x3c6cb30c	0.014446985
167	0x3d302d91	0.043012206
168	0x3c57ec53	0.013178903
169	0x3cd00146	0.025391232
170	0xbe038278	-0.12842739
171	0x3d1471a5	0.036241192
172	0x3d903502	0.070413604
173	0x3df6eca9	0.12056858
174	0xbd886d81	-0.06661511
175	0xbc836713	-0.01604036
176	0x3cf60996	0.030033868
177	0x3e11f27f	0.14252661
178	0x3c9f93b6	0.019479614
179	0x3d8ed0a9	0.069733925
180	0xbe07e5c0	-0.13271236
181	0xbd4e26f4	-0.050330117
182	0x3df6b950	0.12047064
183	0xbce0d977	-0.027447445
184	0x3d82ab17	0.06380289
185	0x3c1fe123	0.009758267
186	0x3c42b087	0.011882908
187	0xbd0f42b2	-0.034975715
188	0x3d80a7a7	0.06281977
189	0x3d427832	0.04747791
190	0xbccab723	-0.02474553
191	0xbd4aab83	-0.049479973
192	0x3c4a882c	0.0123615675
193	0x3d404352	0.0469392
194	0xbd11c268	-0.03558579
195	0xbc4baf24	-0.0124318935
196	0xbdca64eb	-0.0988253
197	0x3e2bf5bf	0.16792963
198	0x3d6f957e	0.058492176
199	0xbd7de3bf	-0.061984774
200	0x3e058d25	0.13042124
201	0xbd2e6d98	-0.042584985
202	0x3e014045	0.12622173
203	0x3d10ce19	0.0353528
204	0xbe20e4f9	-0.15712346
205	0x3c01f2cc	0.007931422
206	0x3b4123b9	0.0029470755
207	0x3e33e16a	0.17566457
208	0xbdc6898f	-0.09694206
209	0xbe0f8df7	-0.14018999
210	0xbd762562	-0.060094245
211	0xbd362563	-0.04446925
212	0xbd358457	-0.044315662
213	0xbc570268	-0.013123132
214	0xbd205bbe	-0.039149992
215	0x3cf888d4	0.030338682
216	0xbbb3a9d8	-0.0054828934
217	0xbd482bec	-0.048870012
218	0xbd9cae81	-0.076504715
219	0x3de3461d	0.110973574
220	0x3d875770	0.06608474
221	0x3dedffb0	0.11621034
222	0x3cc32e91	0.023825916
223	0x3c1b1c00	0.009467125
224	0xbde1f473	-0.11032953
225	0xbcd4c18c	-0.025971197
226	0xbdd98852	-0.10621704
227	0xbc5359a6	-0.012899792
228	0xbcd0f586	-0.0255077
229	0x3dbf7b3d	0.09349678
230	0xbcc23012	-0.023704562
231	0x3b851d2d	0.004062316
232	0x3d7556e7	0.05989733
233	0x3bddc956	0.006768386
234	0xbdee39be	-0.11632107
235	0xbb9639e6	-0.0045845388
236	0xbd0854f3	-0.03328414
237	0x3e12199f	0.14267586
238	0xbd7e66be	-0.0621097
239	0x3abb2e5c	0.0014280784
240	0xbdf6683e	-0.12031601
241	0xbe58acef	-0.21159719
242	0x3e5a2bbb	0.21305744
243	0xbe1d854d	-0.15382881
244	0x3d282781	0.0410533
245	0xbd7fbfe3	-0.062438857
246	0x3cb83697	0.022486968
247	0x3e02cd66	0.12773666
248	0xbe15c589	-0.14626135
249	0xbe2a50eb	-0.1663243
250	0xbddc01ed	-0.10742555
251	0xbc4bd74c	-0.0124414675
252	0xbcae5994	-0.021282949
253	0xbda9f40e	-0.08298503
254	0xbc8d5872	-0.017254088
255	0x3dbc7248	0.09201485
