results/phase1/PlayerAgent/PlayerAgent-256.pt (torch, 156157 bytes, 22 tensors)

discrete_act_size_vector f4 [1, 2]
0	0x40400000	3.0
1	0x40000000	2.0

network_body.observation_encoder.processors.0.normalizer.running_mean f4 [7]
0	0x3ff67c9b	1.9256777
1	0xbe106eb3	-0.14104728
2	0xbe46b90c	-0.19406527
3	0x00000000	0.0
4	0x3dbf40be	0.093385205
5	0xbde106ee	-0.1098765
6	0x3f7f00ff	0.99610895

network_body.observation_encoder.processors.0.normalizer.running_variance f4 [7]
0	0x409720c4	4.7227497
1	0x42e261d8	113.1911
2	0x41104a69	9.018167
3	0x3f800000	1.0
4	0x41b611ee	22.758755
5	0x44a70cae	1336.3962
6	0x3fff8080	1.996109

network_body.processors.0.normalizer.running_mean f4 [7]
0	0x3ff67c9b	1.9256777
1	0xbe106eb3	-0.14104728
2	0xbe46b90c	-0.19406527
3	0x00000000	0.0
4	0x3dbf40be	0.093385205
5	0xbde106ee	-0.1098765
6	0x3f7f00ff	0.99610895

network_body.processors.0.normalizer.running_variance f4 [7]
0	0x409720c4	4.7227497
1	0x42e261d8	113.1911
2	0x41104a69	9.018167
3	0x3f800000	1.0
4	0x41b611ee	22.758755
5	0x44a70cae	1336.3962
6	0x3fff8080	1.996109

network_body._body_endoder.seq_layers.0.weight f4 [128, 7]
0	0x3f2c1d0d	0.6723183
1	0xbebf27a9	-0.37334946
2	0xbe30939f	-0.17243813
3	0x3eeb0d0b	0.45908388
4	0xbd9e1f1a	-0.07720776
5	0x3e3b16ad	0.18270369
6	0xbf0eab4b	-0.5573012
7	0x3e0a688d	0.13516445
8	0x3cda2688	0.026629701
9	0x3e894073	0.26806983
10	0x3f11d25a	0.56961596
11	0xbe79293f	-0.2433214
12	0x3f2d7adf	0.6776561
13	0xbf24c88a	-0.643685
14	0x3ea7165b	0.32634243
15	0x3e6d43b0	0.23170352
16	0x3ed0d4bb	0.407873
17	0xbf0faa81	-0.56119543
18	0xbbf35849	-0.007426296
19	0xbed8c272	-0.4233585
20	0xbdd7417a	-0.105105355
21	0x3eb54ddb	0.35410962
22	0x3db8991c	0.09013578
23	0x3ebfc0d5	0.37451807
24	0xbed02c34	-0.40658724
25	0xbee33484	-0.44376004
26	0xbf148599	-0.58016354
27	0xbeb1db3e	-0.3473758
28	0xbe8ce538	-0.2751863
29	0xbe826059	-0.25464132
30	0x3e8b329f	0.27187058
31	0x3dd85371	0.1056279
32	0x3d682eb3	0.05668516
33	0xbda752e9	-0.08170111
34	0xbef3735a	-0.47548944
35	0xbd920df7	-0.0713157
36	0xbee3769b	-0.44426426
37	0x3f0dddcb	0.55416554
38	0x3e0d027e	0.13770482
39	0xbed6a4cd	-0.41922608
40	0xbd030653	-0.031988453
41	0x3edb55d7	0.42838928
42	0x3e2f08e0	0.1709323
43	0x3ee6273d	0.4495181
44	0xbd1c838a	-0.038211383
45	0x3dee3108	0.11630446
46	0x3e932887	0.28741857
47	0xbe942c2d	-0.28939953
48	0x3c03a780	0.008035541
49	0x3f0c758e	0.54866874
50	0x3e2e0139	0.16992654
51	0x3d4e4b26	0.050364636
52	0xbd62d953	-0.055383038
53	0x3f091ade	0.5355662
54	0xbe810042	-0.2519551
55	0xbce5a218	-0.028031394
56	0x3ef126f9	0.47100046
57	0xbee617f1	-0.4494014
58	0x3e4dcf8a	0.20098701
59	0xbd28a45c	-0.04117237
60	0xbf0f9517	-0.5608687
61	0xbce106eb	-0.027469119
62	0xbeb8646d	-0.3601412
63	0xbd29166e	-0.041281156
64	0x3e9c0b55	0.30477396
65	0xbe3ca4bc	-0.18422216
66	0xbdea025f	-0.114262335
67	0xbf1371a5	-0.5759528
68	0x3ddd591e	0.108080134
69	0x3df75c2e	0.12078129
70	0xbe3ca9e6	-0.18424186
71	0xbe5ffcd4	-0.2187379
72	0xbe06a079	-0.13147153
73	0xbea4d7fc	-0.32196033
74	0x3d822d2a	0.063562706
75	0x3f6fb6b0	0.93638134
76	0x3f6156d1	0.88023096
77	0xbeadbcb1	-0.33933023
78	0x3f09d43a	0.5383946
79	0xbd27f261	-0.041002635
80	0x3e7957c7	0.2434989
81	0x3da6476a	0.0811909
82	0x3ebaafed	0.36462346
83	0xbf6bb804	-0.9207766
84	0x3eefa40a	0.4680484
85	0xbe68034f	-0.22657512
86	0xbeb822bc	-0.35964
87	0x3e612882	0.21988109
88	0xbeb37707	-0.35051748
89	0x3d5073b4	0.050891593
90	0xbef4ba6c	-0.4779848
91	0x3e855000	0.26037598
92	0x3f5cfd84	0.86324334
93	0x3ede1f06	0.43383044
94	0xbf48362f	-0.7820768
95	0xbd787082	-0.06065417
96	0x3d06abd9	0.03287873
97	0x3ef1a8d6	0.47199124
98	0x3f4a5007	0.7902836
99	0x3dfd6783	0.12373259
100	0x3e0fa9e2	0.14029649
101	0xbe55b02e	-0.20867988
102	0xbf09e701	-0.5386811
103	0x3ebcb3ff	0.36856076
104	0xbea24d6d	-0.31699696
105	0xba260c79	-0.0006334256
106	0xbec0ea53	-0.37678775
107	0x3e5d972e	0.21639702
108	0x3dabac41	0.08382464
109	0xbdb8dbae	-0.090262756
110	0x3de30597	0.110850506
111	0x3ec0b4b3	0.37637863
112	0xbecbaaad	-0.39778653
113	0x3f0f999b	0.5609376
114	0xbd0b72e7	-0.034045126
115	0x3d25e9df	0.04050624
116	0xbe8f9552	-0.2804361
117	0x3e97925d	0.29603854
118	0xbeb0254c	-0.34403455
119	0xbef9f916	-0.4882285
120	0xbe73fda2	-0.23827222
121	0xbe5a6582	-0.21327785
122	0xbed334bd	-0.41251174
123	0xbed6dfca	-0.41967613
124	0x3ed50154	0.41602576
125	0xbe43c15a	-0.19116727
126	0x3e63af4d	0.2223484
127	0x3dcc616f	0.099795215
128	0xbee1427b	-0.43996033
129	0xbd049cb9	-0.032376025
130	0xbe090a94	-0.13382941
131	0xbe90b288	-0.2826121
132	0x3efa3a90	0.48872805
133	0x3ddaa054	0.106751114
134	0xbeb33145	-0.34998527
135	0xbef72be8	-0.48275685
136	0x3de9b95d	0.11412308
137	0x3eef91e7	0.46791002
138	0x3e0aea01	0.13565828
139	0xbe82d098	-0.2554977
140	0x3e234c78	0.1594714
141	0x3c8be5da	0.017077375
142	0xbeee4cc5	-0.46542946
143	0xbde7ac0f	-0.113121144
144	0xbef7f7bb	-0.4843119
145	0x3ee13ac8	0.4399016
146	0x3eb3e3c9	0.35134724
147	0x3e606e5b	0.21917097
148	0xbf830fff	-1.0239257
149	0x3e4ced8a	0.20012489
150	0x3e35f0e7	0.17767678
151	0xbd361738	-0.044455737
152	0xbf061793	-0.5237972
153	0xbed59df9	-0.41722086
154	0xbd65d9cf	-0.05611592
155	0xbe654917	-0.22391163
156	0xbe58ef86	-0.21185121
157	0x3d2fb20b	0.042894404
158	0x3f36805d	0.71289617
159	0xbe48f289	-0.1962377
160	0xbf4eed79	-0.80831105
161	0x3f58ac28	0.8463769
162	0xbe56e6cd	-0.20986481
163	0xbea3fa1a	-0.3202675
164	0x3e52f47f	0.2060108
165	0xbedd867c	-0.43266666
166	0xbe7dddf6	-0.24791703
167	0x3edeaa2e	0.43489212
168	0xbee456bf	-0.44597432
169	0x3d6b191e	0.057397
170	0x3f30de2c	0.6908901
171	0xbf0b7811	-0.5448008
172	0x3d81eadc	0.06343624
173	0x3efb4503	0.4907609
174	0x3e2e0f84	0.16998106
175	0xbe43095f	-0.19046544
176	0x3d7da949	0.06192902
177	0xbe53791f	-0.20651673
178	0x3eae6327	0.34060022
179	0x3e9504f0	0.2910533
180	0x3f4277ed	0.7596424
181	0x3e8a76b6	0.27043694
182	0xbe62940a	-0.22126785
183	0xbeea7694	-0.45793593
184	0x3da56b89	0.08077151
185	0xbe1a5037	-0.15069662
186	0x3e563cd4	0.20921642
187	0x3e39655c	0.18105072
188	0x3d92d23b	0.071690045
189	0x3f0cf540	0.5506172
190	0x3d17ad7d	0.037030686
191	0xbec4a693	-0.38408336
192	0x3ec4e26b	0.38453993
193	0xbf513fd0	-0.81737995
194	0x3e4960b0	0.1966579
195	0xbedb4d79	-0.42832544
196	0x3d7ab5c6	0.06120851
197	0x3f0d2235	0.5513032
198	0xbe53f648	-0.20699418
199	0x3ea8b457	0.32950088
200	0x3f2a75f8	0.66586256
201	0x3f9ab035	1.2085024
202	0x3ed330dd	0.41248217
203	0x3e7143e8	0.2356106
204	0xbea53143	-0.32264146
205	0x3efefa13	0.49800166
206	0x3ed40884	0.41412747
207	0xbf2c1699	-0.6722198
208	0xbe855afe	-0.26045984
209	0xbe9dee44	-0.30845845
210	0x3eaf395d	0.34223452
211	0xbeda9145	-0.42688957
212	0x3d52d599	0.051473234
213	0xbec051e9	-0.37562492
214	0x3eb42131	0.35181573
215	0xbe6e6145	-0.23279293
216	0xbee328ae	-0.44366974
217	0xbee7dc85	-0.4528543
218	0x3e56de44	0.20983225
219	0x3e820227	0.25392267
220	0xbeb13daa	-0.34617358
221	0xbe496992	-0.19669178
222	0x3eff870f	0.4990773
223	0xbe01355b	-0.1261801
224	0xbf873157	-1.0561932
225	0xbf508a89	-0.8146139
226	0x3e206b5b	0.15665953
227	0xbea7b813	-0.32757625
228	0xbe947035	-0.28991857
229	0x3e949344	0.29018605
230	0x3e845734	0.2584778
231	0x3e665a4e	0.22495386
232	0x3cf43b67	0.029813481
233	0xbea3ccdb	-0.3199223
234	0xbe93f2db	-0.28896222
235	0xbf1eeae5	-0.6207717
236	0x3db51851	0.088425286
237	0xbde3cf5e	-0.111235365
238	0x3d937e54	0.072018296
239	0xbe065dd0	-0.13121724
240	0xbf1cafb0	-0.6120558
241	0xbd35fdde	-0.04443156
242	0xbeb729b1	-0.35773996
243	0xbe06057f	-0.13088034
244	0x3e9669d1	0.29377607
245	0xbd0c5154	-0.034257248
246	0x3e6dd32c	0.23225087
247	0xbea4cefb	-0.32189164
248	0xbe6c5baf	-0.2308185
249	0xbdb6109c	-0.08889887
250	0x3e23e0da	0.16003743
251	0xbdf066ac	-0.11738333
252	0xbf697166	-0.9118866
253	0xbdf9ea2b	-0.12202867
254	0xbf306a0b	-0.6891181
255	0x3eaaaeab	0.33336386

network_body._body_endoder.seq_layers.0.bias f4 [128]
0	0x00000000	0.0
1	0x00000000	0.0
2	0x00000000	0.0
3	0x00000000	0.0
4	0x00000000	0.0
5	0x00000000	0.0
6	0x00000000	0.0
7	0x00000000	0.0
8	0x00000000	0.0
9	0x00000000	0.0
10	0x00000000	0.0
11	0x00000000	0.0
12	0x00000000	0.0
13	0x00000000	0.0
14	0x00000000	0.0
15	0x00000000	0.0
16	0x00000000	0.0
17	0x00000000	0.0
18	0x00000000	0.0
19	0x00000000	0.0
20	0x00000000	0.0
21	0x00000000	0.0
22	0x00000000	0.0
23	0x00000000	0.0
24	0x00000000	0.0
25	0x00000000	0.0
26	0x00000000	0.0
27	0x00000000	0.0
28	0x00000000	0.0
29	0x00000000	0.0
30	0x00000000	0.0
31	0x00000000	0.0
32	0x00000000	0.0
33	0x00000000	0.0
34	0x00000000	0.0
35	0x00000000	0.0
36	0x00000000	0.0
37	0x00000000	0.0
38	0x00000000	0.0
39	0x00000000	0.0
40	0x00000000	0.0
41	0x00000000	0.0
42	0x00000000	0.0
43	0x00000000	0.0
44	0x00000000	0.0
45	0x00000000	0.0
46	0x00000000	0.0
47	0x00000000	0.0
48	0x00000000	0.0
49	0x00000000	0.0
50	0x00000000	0.0
51	0x00000000	0.0
52	0x00000000	0.0
53	0x00000000	0.0
54	0x00000000	0.0
55	0x00000000	0.0
56	0x00000000	0.0
57	0x00000000	0.0
58	0x00000000	0.0
59	0x00000000	0.0
60	0x00000000	0.0
61	0x00000000	0.0
62	0x00000000	0.0
63	0x00000000	0.0
64	0x00000000	0.0
65	0x00000000	0.0
66	0x00000000	0.0
67	0x00000000	0.0
68	0x00000000	0.0
69	0x00000000	0.0
70	0x00000000	0.0
71	0x00000000	0.0
72	0x00000000	0.0
73	0x00000000	0.0
74	0x00000000	0.0
75	0x00000000	0.0
76	0x00000000	0.0
77	0x00000000	0.0
78	0x00000000	0.0
79	0x00000000	0.0
80	0x00000000	0.0
81	0x00000000	0.0
82	0x00000000	0.0
83	0x00000000	0.0
84	0x00000000	0.0
85	0x00000000	0.0
86	0x00000000	0.0
87	0x00000000	0.0
88	0x00000000	0.0
89	0x00000000	0.0
90	0x00000000	0.0
91	0x00000000	0.0
92	0x00000000	0.0
93	0x00000000	0.0
94	0x00000000	0.0
95	0x00000000	0.0
96	0x00000000	0.0
97	0x00000000	0.0
98	0x00000000	0.0
99	0x00000000	0.0
100	0x00000000	0.0
101	0x00000000	0.0
102	0x00000000	0.0
103	0x00000000	0.0
104	0x00000000	0.0
105	0x00000000	0.0
106	0x00000000	0.0
107	0x00000000	0.0
108	0x00000000	0.0
109	0x00000000	0.0
110	0x00000000	0.0
111	0x00000000	0.0
112	0x00000000	0.0
113	0x00000000	0.0
114	0x00000000	0.0
115	0x00000000	0.0
116	0x00000000	0.0
117	0x00000000	0.0
118	0x00000000	0.0
119	0x00000000	0.0
120	0x00000000	0.0
121	0x00000000	0.0
122	0x00000000	0.0
123	0x00000000	0.0
124	0x00000000	0.0
125	0x00000000	0.0
126	0x00000000	0.0
127	0x00000000	0.0

network_body._body_endoder.seq_layers.2.weight f4 [128, 128]
0	0xbe27cfbc	-0.16387838
1	0x3e00ca45	0.1257716
2	0xbdcfe980	-0.101519585
3	0xbd72f73a	-0.059317805
4	0x3cc5d1c5	0.024147877
5	0x3de3b6bd	0.11118839
6	0x3da5226b	0.08063205
7	0xbdda74eb	-0.106668316
8	0xbe1ab3b2	-0.15107611
9	0x3da94e08	0.082668364
10	0x3d42d547	0.04756668
11	0xbddc3db9	-0.1075396
12	0xbd7397f3	-0.059471082
13	0xbe056edb	-0.1303057
14	0x3d3a4314	0.045474127
15	0x3d2ddce3	0.042446982
16	0xbdb1bb8f	-0.08678352
17	0x3d020565	0.031743426
18	0xbc0a8365	-0.008454178
19	0x3d52568a	0.05135206
20	0x3d6d0647	0.057867315
21	0xbc970ab1	-0.018437715
22	0xbe324b20	-0.1741147
23	0x3dd8f375	0.10593311
24	0xbd8563da	-0.06513186
25	0xbca2b6cc	-0.019862555
26	0xbb9da2d6	-0.0048106713
27	0x3d134cc9	0.0359619
28	0xbd8232d4	-0.06357351
29	0x3e0f109f	0.13971184
30	0x3dff320e	0.12460719
31	0x3de2eb09	0.11079986
32	0xbdc88449	-0.097908564
33	0x3c6f7094	0.014614243
34	0x3e05cc7f	0.1306629
35	0x3d9fb7d5	0.07798735
36	0x3da8b32d	0.082373
37	0x3d82b224	0.06381634
38	0x3d1bb730	0.038016498
39	0xbd8510e5	-0.06497363
40	0xbd9e4aa0	-0.07729077
41	0xbd908e2a	-0.07058366
42	0xbca22796	-0.019794267
43	0xbe0d4396	-0.13795313
44	0x3d9a933b	0.07547613
45	0x3bb6f1e7	0.005583036
46	0xbdd3f160	-0.10348773
47	0xbd50c2c5	-0.050966997
48	0xbdd55d4f	-0.10418188
49	0xbd018bef	-0.03162759
50	0xbe176ce8	-0.14787638
51	0xbd6218e7	-0.05519953
52	0x3d07ea15	0.033182222
53	0xbe1103ba	-0.14161578
54	0x3dc37b10	0.09544957
55	0x3df0cc01	0.11757661
56	0xbe763334	-0.2404297
57	0xbd8ff492	-0.0702907
58	0xbc9e324f	-0.019311098
59	0xbe04e287	-0.12977038
60	0xbd188858	-0.037239403
61	0x3c4847e2	0.012224169
62	0xbe2078ec	-0.15671128
63	0xbb5870ad	-0.0033026144
64	0xbd41cc3b	-0.04731391
65	0xbdbe54cd	-0.09293518
66	0x3c22574b	0.009908508
67	0x3da4078c	0.08009252
68	0xbcf72ebe	-0.030173656
69	0x3cc6df08	0.024276271
70	0x3d874b0f	0.06606113
71	0x3cef8a9c	0.029240899
72	0xbd22ff4c	-0.03979425
73	0xbc904fbb	-0.017616143
74	0xbd66e722	-0.05637277
75	0xbd9fb976	-0.07799046
76	0x3dd215eb	0.10258087
77	0x39116586	0.00013866098
78	0xbce8f8c3	-0.028438931
79	0x3c1aeea1	0.009456308
80	0xbd122a2a	-0.035684742
81	0xbdb433a5	-0.08798913
82	0x3d2da7df	0.042396422
83	0xbd22250a	-0.039586104
84	0x3e0f6e14	0.14006835
85	0x3d5bc445	0.053653974
86	0xbd00432a	-0.031314053
87	0x3c8ac2a6	0.016938519
88	0x3e35ee74	0.17766744
89	0x3af6abb5	0.0018819483
90	0x3c8cf6e2	0.017207567
91	0xbd2e94b8	-0.042622298
92	0x3dc0a8c6	0.09407191
93	0xbd280a7e	-0.04102563
94	0xbd8a924b	-0.067661844
95	0xbc1d7792	-0.009611027
96	0x3d04c16a	0.032411017
97	0xbde24163	-0.11047628
98	0x3de367da	0.111037925
99	0x3c4e2b39	0.012583547
100	0xbd08666d	-0.033300806
101	0xbcc5a2d4	-0.024125494
102	0x3cab1604	0.020884521
103	0xbcb0d08e	-0.021583822
104	0x3d880b08	0.06642729
105	0x3d7bae7e	0.061445706
106	0x3d91bd11	0.0711614
107	0x3d8cd161	0.06875873
108	0xbd64c899	-0.055855367
109	0xbd167c86	-0.03673985
110	0xbe40db2c	-0.18833607
111	0x3d76cc13	0.060253214
112	0xbe0bfbe8	-0.13670313
113	0x3df22e7a	0.11825271
114	0x3cf223d7	0.029558105
115	0xbcf38351	-0.029725702
116	0x3d99a2d8	0.07501763
117	0xbdb1ec8d	-0.086876966
118	0x3db8fb37	0.090322904
119	0x3d60c009	0.05487064
120	0x3d6c03d5	0.057620842
121	0x3d04ad72	0.032391973
122	0x3c628716	0.013826152
123	0xbd46036c	-0.048343107
124	0xbde13e4b	-0.109982096
125	0xbd45f423	-0.04832853
126	0x3d812f01	0.063077934
127	0xbbeb279b	-0.007176352
128	0x3d3ef338	0.04661867
129	0x3dda4028	0.10656768
130	0xbd9d3133	-0.076754
131	0xbc9b4800	-0.01895523
132	0x3dd7f394	0.10544506
133	0xbbfbbcfd	-0.0076824413
134	0xbdee8547	-0.116465144
135	0x3d876440	0.06610918
136	0x3dba6e0e	0.091030225
137	0xbe1aa0dd	-0.15100427
138	0xbd62eae0	-0.055399776
139	0xbd8d6634	-0.06904259
140	0xbda4710d	-0.08029375
141	0x3da85e72	0.08221139
142	0xbd867957	-0.065661125
143	0xbdfd7d26	-0.12377386
144	0x3c62e3d5	0.013848265
145	0xbd301589	-0.042989288
146	0xbe12ea6b	-0.14347236
147	0x3d51aa7e	0.051187985
148	0xbdb4f683	-0.08836081
149	0xbd4b6714	-0.04965885
150	0xbcff97cf	-0.031200318
151	0xbdb2ceef	-0.08730876
152	0x3cf71391	0.030160697
153	0xbe226fd7	-0.15862976
154	0x3c23b812	0.009992616
155	0x3e192767	0.14956437
156	0x3ca47da2	0.020079438
157	0x3d4e70ae	0.05040043
158	0xbc4687d3	-0.012117344
159	0xbdea508b	-0.114411436
160	0x3e287754	0.1645177
161	0xbd9ff307	-0.07810026
162	0xbdf41927	-0.1191886
163	0xbd836c9b	-0.06417199
164	0x3c7e1525	0.015507971
165	0x3d7efeb0	0.062254608
166	0x3d95570c	0.072919935
167	0x3dbe82bf	0.093022816
168	0xbc7cf853	-0.0154400645
169	0xbd81f9f3	-0.06346502
170	0xbda0f8ec	-0.07859978
171	0x3abd714f	0.0014453324
172	0x3e02eaeb	0.12784927
173	0xbd1428d9	-0.036171768
174	0xbdc91347	-0.0981813
175	0x3ab99611	0.0014159103
176	0xbd4291f0	-0.047502458
177	0xbd727c78	-0.059200734
178	0xbba7c1f1	-0.005119555
179	0x3e11f691	0.14254214
180	0xba8a3c78	-0.0010546586
181	0xbc345b93	-0.011008161
182	0x3d967ee0	0.07348418
183	0xbba704ab	-0.005096992
184	0xbdf980fb	-0.12182804
185	0xbc1fda73	-0.009756672
186	0xbd0757c7	-0.033042695
187	0xbddb9f9b	-0.10723802
188	0xbd9d50fa	-0.07681461
189	0xbcf05487	-0.02933718
190	0xbe026e47	-0.1273738
191	0xbe14a447	-0.14515792
192	0x3d6fbfd0	0.058532536
193	0xbcb32ef8	-0.021872982
194	0xbdbfb29a	-0.093602374
195	0x3d72ca7a	0.059275128
196	0x3d46819f	0.04846346
197	0xbdd65f26	-0.10467367
198	0x3e4ad816	0.19808993
199	0xbd59c1fa	-0.053163506
200	0xbdb19602	-0.0867119
201	0x3da0c153	0.07849374
202	0xbd5c5339	-0.053790305
203	0xbe1db729	-0.15401901
204	0x3dc1b2d3	0.09457936
205	0x3d0ba5e2	0.034093745
206	0x3dade81e	0.084915385
207	0x3c58d9c0	0.013235509
208	0xbd5e993a	-0.054345347
209	0xbc3d18d8	-0.011541568
210	0x3cedab0a	0.029012222
211	0xbd83aedd	-0.06429837
212	0x3c9e28c9	0.019306557
213	0xbe6c6e7a	-0.23089018
214	0x3c8859ef	0.016644446
215	0x3dcb19ad	0.09917007
216	0x3debeb8d	0.11519537
217	0xbdf56fd5	-0.11984221
218	0xbd23336e	-0.03984397
219	0x3cb21680	0.021739244
220	0x3d5da6a9	0.054114018
221	0xbbe22db1	-0.0069024195
222	0x3d28732b	0.041125458
223	0xbd3fe252	-0.046846695
224	0x3e325a1e	0.1741719
225	0xbdbb3754	-0.091414124
226	0x3a9ac985	0.0011809325
227	0x3dd7350f	0.10508167
228	0x3dee85d3	0.11646619
229	0xbd5ea27b	-0.054354172
230	0x3e458ffa	0.19293204
231	0x3e742368	0.23841631
232	0x3e1f4b83	0.15556149
233	0x3e15b3ea	0.14619413
234	0x3e12668b	0.1429693
235	0x3d94c7df	0.07264685
236	0x3c2e5872	0.010641204
237	0x3c9c3add	0.019071037
238	0xbda73b00	-0.0816555
239	0x3df72924	0.12068394
240	0x3ca51d3c	0.020155542
241	0xbca4d02f	-0.0201188
242	0x3d9cf993	0.0766479
243	0x39c040ad	0.0003666928
244	0xbdfc732d	-0.123266555
245	0x3d6a2be2	0.057170756
246	0x3dbbad97	0.09163969
247	0x3db41299	0.0879261
248	0x3d82814f	0.0637232
249	0xbe5e857c	-0.21730608
250	0x3cc4f7d7	0.02404396
251	0xbd564bad	-0.052318264
252	0xbe1f4716	-0.15554461
253	0x3db0fb21	0.08641649
254	0x3d896ca1	0.067101724
255	0x3d93e123	0.07220676

network_body._body_endoder.seq_layers.2.bias f4 [128]
0	0x00000000	0.0
1	0x00000000	0.0
2	0x00000000	0.0
3	0x00000000	0.0
4	0x00000000	0.0
5	0x00000000	0.0
6	0x00000000	0.0
7	0x00000000	0.0
8	0x00000000	0.0
9	0x00000000	0.0
10	0x00000000	0.0
11	0x00000000	0.0
12	0x00000000	0.0
13	0x00000000	0.0
14	0x00000000	0.0
15	0x00000000	0.0
16	0x00000000	0.0
17	0x00000000	0.0
18	0x00000000	0.0
19	0x00000000	0.0
20	0x00000000	0.0
21	0x00000000	0.0
22	0x00000000	0.0
23	0x00000000	0.0
24	0x00000000	0.0
25	0x00000000	0.0
26	0x00000000	0.0
27	0x00000000	0.0
28	0x00000000	0.0
29	0x00000000	0.0
30	0x00000000	0.0
31	0x00000000	0.0
32	0x00000000	0.0
33	0x00000000	0.0
34	0x00000000	0.0
35	0x00000000	0.0
36	0x00000000	0.0
37	0x00000000	0.0
38	0x00000000	0.0
39	0x00000000	0.0
40	0x00000000	0.0
41	0x00000000	0.0
42	0x00000000	0.0
43	0x00000000	0.0
44	0x00000000	0.0
45	0x00000000	0.0
46	0x00000000	0.0
47	0x00000000	0.0
48	0x00000000	0.0
49	0x00000000	0.0
50	0x00000000	0.0
51	0x00000000	0.0
52	0x00000000	0.0
53	0x00000000	0.0
54	0x00000000	0.0
55	0x00000000	0.0
56	0x00000000	0.0
57	0x00000000	0.0
58	0x00000000	0.0
59	0x00000000	0.0
60	0x00000000	0.0
61	0x00000000	0.0
62	0x00000000	0.0
63	0x00000000	0.0
64	0x00000000	0.0
65	0x00000000	0.0
66	0x00000000	0.0
67	0x00000000	0.0
68	0x00000000	0.0
69	0x00000000	0.0
70	0x00000000	0.0
71	0x00000000	0.0
72	0x00000000	0.0
73	0x00000000	0.0
74	0x00000000	0.0
75	0x00000000	0.0
76	0x00000000	0.0
77	0x00000000	0.0
78	0x00000000	0.0
79	0x00000000	0.0
80	0x00000000	0.0
81	0x00000000	0.0
82	0x00000000	0.0
83	0x00000000	0.0
84	0x00000000	0.0
85	0x00000000	0.0
86	0x00000000	0.0
87	0x00000000	0.0
88	0x00000000	0.0
89	0x00000000	0.0
90	0x00000000	0.0
91	0x00000000	0.0
92	0x00000000	0.0
93	0x00000000	0.0
94	0x00000000	0.0
95	0x00000000	0.0
96	0x00000000	0.0
97	0x00000000	0.0
98	0x00000000	0.0
99	0x00000000	0.0
100	0x00000000	0.0
101	0x00000000	0.0
102	0x00000000	0.0
103	0x00000000	0.0
104	0x00000000	0.0
105	0x00000000	0.0
106	0x00000000	0.0
107	0x00000000	0.0
108	0x00000000	0.0
109	0x00000000	0.0
110	0x00000000	0.0
111	0x00000000	0.0
112	0x00000000	0.0
113	0x00000000	0.0
114	0x00000000	0.0
115	0x00000000	0.0
116	0x00000000	0.0
117	0x00000000	0.0
118	0x00000000	0.0
119	0x00000000	0.0
120	0x00000000	0.0
121	0x00000000	0.0
122	0x00000000	0.0
123	0x00000000	0.0
124	0x00000000	0.0
125	0x00000000	0.0
126	0x00000000	0.0
127	0x00000000	0.0

action_model._discrete_distribution.branches.0.weight f4 [3, 128]
0	0xbc7016aa	-0.014653841
1	0x3bbef65f	0.0058277096
2	0x3b3557bb	0.00276707
3	0x3c5ce2c8	0.013481803
4	0xbb8b2b06	-0.004247072
5	0xba8460f0	-0.001009969
6	0xbb5049f3	-0.0031782358
7	0xba6f2867	-0.0009123147
8	0x3b5255dd	0.0032094636
9	0x3bd12eff	0.006383776
10	0xba7b40bb	-0.0009584536
11	0xbc46c22e	-0.012131257
12	0xbc36eae9	-0.011164405
13	0xba9d9975	-0.0012023883
14	0x3c254ca9	0.010089078
15	0xbbfe1b8b	-0.007754748
16	0xbc0727b2	-0.00824921
17	0xbc40cda5	-0.0117677795
18	0xbbc7d92f	-0.0060988883
19	0x3ab75576	0.0013987261
20	0x3c0e3237	0.008678964
21	0xbaf58890	-0.0018732715
22	0x3b627b6d	0.003455843
23	0x3c19c4da	0.009385312
24	0xbc3512d3	-0.011051851
25	0x3cb8404f	0.022491602
26	0x3a2884e5	0.0006428494
27	0xbc4b3759	-0.012403333
28	0xbc8a2c22	-0.016866747
29	0x3c3466f1	0.011010871
30	0xbc01ea84	-0.007929448
31	0x3ba0fa29	0.004912634
32	0x3bb1a9df	0.0054218615
33	0xbc3a605e	-0.011375515
34	0xbc156782	-0.0091189165
35	0xbc145bd0	-0.009055093
36	0x3bc20fb4	0.005922282
37	0x3c1a4f42	0.009418311
38	0xbb71a6a8	-0.0036873017
39	0xbbaac9f6	-0.005212064
40	0xbc194f62	-0.009357305
41	0x39d65348	0.0004087931
42	0xbb5277e7	-0.0032114924
43	0x3b016039	0.001974119
44	0xbb408182	-0.0029374068
45	0xbc65427a	-0.0139929
46	0x3c72d542	0.014821352
47	0x3c2e1c92	0.010626929
48	0xbc953598	-0.018214032
49	0x3c3da979	0.01157605
50	0xbbd81a82	-0.006594957
51	0xbc14275a	-0.009042585
52	0x3c1a09c3	0.009401741
53	0x3ca70216	0.020386737
54	0x3c068237	0.008209757
55	0x3c7d3c98	0.015456341
56	0x3c044013	0.008071917
57	0xbbbd08d7	-0.005768876
58	0xbc3c3984	-0.011488322
59	0xbc6e173a	-0.014531905
60	0xbc71390b	-0.014723073
61	0x3b875c93	0.0041309088
62	0xbc343dfb	-0.011001105
63	0xbb61ab0f	-0.0034434234
64	0x3c313e55	0.010818084
65	0xbb4c816e	-0.0031205076
66	0x3b5b9ad7	0.003350904
67	0x3be03f35	0.0068434724
68	0xb9ca6777	-0.0003860553
69	0xbb318467	-0.0027086975
70	0xbc7b6188	-0.0153430775
71	0xba46218c	-0.00075580995
72	0xbba440f7	-0.005012627
73	0xbad45485	-0.0016199505
74	0x3c0aaf4b	0.008464645
75	0xbc031fe9	-0.008003213
76	0xbc131a03	-0.00897837
77	0xbc259ca1	-0.010108144
78	0x3b95811a	0.0045625092
79	0xb9f88b48	-0.0004740602
80	0x3bdc021f	0.00671412
81	0x3b910562	0.0044256905
82	0xbb9bbb0d	-0.004752523
83	0xbbbb19a7	-0.005709845
84	0x3c2649dc	0.010149445
85	0xbc7153af	-0.014729424
86	0xbc635390	-0.013874903
87	0x3952dd77	0.00020109663
88	0xbb25edb1	-0.0025318677
89	0xbb9b8cc7	-0.0047470066
90	0x3c952055	0.018203894
91	0x3b920a89	0.0044568223
92	0xbb3c63e4	-0.0028746063
93	0xbc11b2d0	-0.00889273
94	0xbc63b133	-0.013897228
95	0x3c2ab02c	0.010417979
96	0x3ba7891a	0.0051127793
97	0xbb3e9672	-0.0029081372
98	0x3c546ff8	0.012966149
99	0xbaa65957	-0.001269142
100	0xbc6dcef3	-0.014514673
101	0xb9376330	-0.0001748919
102	0xbbefb193	-0.0073148697
103	0x3bbbc61c	0.0057304036
104	0x3c205907	0.009786851
105	0xbb62e523	-0.003462144
106	0x3ac0902b	0.0014691403
107	0x39f93f37	0.0004754008
108	0xbbf26680	-0.007397473
109	0xbd0b923b	-0.034075003
110	0xbb6b42f3	-0.003589806
111	0x3c451b4e	0.012030436
112	0xbb9cc802	-0.004784585
113	0xbc8d027c	-0.017213099
114	0x3c057dfc	0.008147713
115	0x3a913265	0.0011077641
116	0xbba6d494	-0.0050912593
117	0x3bf81e97	0.007572006
118	0xbc1b7612	-0.009488599
119	0xba04e101	-0.00050689286
120	0xbc42f8cc	-0.011900138
121	0x3c403dab	0.011733453
122	0x3c490553	0.012269336
123	0xbb97f4f3	-0.0046373545
124	0x3b248ec3	0.0025109507
125	0x3b53e99f	0.0032335294
126	0x3b9c2068	0.0047646053
127	0xbbfa197a	-0.0076324316
128	0x399ce2cc	0.00029923616
129	0x3c04ef96	0.008113762
130	0x3b68b5da	0.0035508783
131	0x3b227d72	0.002479401
132	0xbc30497b	-0.010759707
133	0x3c0e3388	0.008679278
134	0x3bc349c5	0.0059597217
135	0xbbb150be	-0.0054112365
136	0x3c482dcf	0.012217953
137	0x39528ae8	0.00020078907
138	0xbc9b4028	-0.01895149
139	0xbc88c8db	-0.016697338
140	0xbc125fdd	-0.008933988
141	0x3b97977d	0.004626213
142	0x3a9ad22b	0.0011811903
143	0x3c32edf0	0.0109209865
144	0x3bc6738d	0.006056255
145	0x3c12efaf	0.008968278
146	0x39b0b650	0.0003370517
147	0xbbcb1be2	-0.0061983922
148	0xbbd24913	-0.0064174025
149	0xb9bd2e3f	-0.00036083345
150	0xb90c5384	-0.00013382552
151	0xbc74aaed	-0.01493333
152	0x3ba08c3b	0.0048995293
153	0x3a454e17	0.000752659
154	0xbc28cf05	-0.010303264
155	0xbc4f523d	-0.0126538845
156	0x3b9c0a0f	0.0047619413
157	0xbb0b0fd1	-0.0021219144
158	0xbb5bcc32	-0.0033538458
159	0xbb1a26bb	-0.002352162
160	0xbbbd58f5	-0.005778427
161	0x3b221e9b	0.002473748
162	0xbb36b8e7	-0.0027881206
163	0x3b7fe512	0.0039046449
164	0xbc723d83	-0.014785173
165	0x3c1fbdaa	0.009749809
166	0xbc5971ab	-0.013271729
167	0x3b80afa6	0.003927189
168	0xbc3c348b	-0.011487137
169	0xbc1c4733	-0.00953846
170	0x3c9444ec	0.01809927
171	0x3a831853	0.0010001756
172	0x3c009745	0.0078485655
173	0xbbf92582	-0.007603348
174	0xbaba26bc	-0.0014202218
175	0x3bfacb43	0.007653625
176	0x3b2c56e7	0.0026296915
177	0x3b3ce354	0.0028822022
178	0x3ba9be44	0.005180152
179	0x3b97a417	0.0046277153
180	0x3c870a10	0.01648429
181	0xbaac3fd4	-0.0013141581
182	0x3ac56f57	0.0015063089
183	0x39b5480b	0.00034576686
184	0xbb28fc00	-0.002578497
185	0xbbc2d663	-0.005945967
186	0x3c82c779	0.015964257
187	0x3b14858a	0.0022662603
188	0x3c25594e	0.010092093
189	0xbad2af8f	-0.0016074049
190	0xbb72ac2b	-0.003702889
191	0xbc6a1a22	-0.014288457
192	0x3c226213	0.009911078
193	0x3c201149	0.009769746
194	0xbbffa30d	-0.0078014196
195	0xbc027ea1	-0.007964761
196	0xbb317a26	-0.0027080863
197	0x3c00d303	0.007862809
198	0xbc6958ed	-0.014242393
199	0x3b47e357	0.0030500495
200	0x3bec8635	0.007218147
201	0x3c4a4fee	0.012348158
202	0x3b1d5123	0.002400466
203	0xbcb2bde6	-0.021819066
204	0xbc2640ef	-0.010147317
205	0x3b0047b6	0.0019573993
206	0x3c4e530a	0.01259304
207	0xbb8b9d1a	-0.0042606713
208	0x3bd82a47	0.0065968367
209	0x3bf8c982	0.007592381
210	0xbb669cbf	-0.0035188643
211	0x3bd9c4e2	0.0066457847
212	0x3b30abd0	0.0026957877
213	0x3af4316b	0.001863045
214	0xbb197b84	-0.0023419568
215	0xbb461359	-0.0030223934
216	0x3ba8c90e	0.0051509207
217	0x3c1bfc1b	0.009520556
218	0x3c41e537	0.011834434
219	0x3c87cdd0	0.016577631
220	0xbc0e457d	-0.0086835595
221	0xba9a2ef4	-0.0011763261
222	0x3c1eb557	0.0096867895
223	0xbc057ece	-0.008147908
224	0xbc05e6e5	-0.008172725
225	0xbc31c6df	-0.010850637
226	0x3b58b96d	0.0033069507
227	0x3b9e455f	0.004830047
228	0x3bcd5cfa	0.006267187
229	0x3b9e71a3	0.004835324
230	0x3d189de7	0.037259962
231	0x39bc1632	0.0003587469
232	0x3c6368e5	0.013879989
233	0x3c56be13	0.013106841
234	0xbb6155d2	-0.0034383428
235	0xbb5febb2	-0.0034167585
236	0xbab6237d	-0.0013896074
237	0x38cde1f5	9.8172495e-05
238	0xbc5ff4f0	-0.0136692375
239	0xbbc5913f	-0.0060292776
240	0x397ec2d8	0.00024295913
241	0x3c9960c5	0.018722901
242	0xbbcb49c5	-0.0062038624
243	0x3c984ff2	0.018592808
244	0xbc0890f2	-0.008335339
245	0xbca3e5eb	-0.020007094
246	0x3b92968b	0.0044735125
247	0xbc78e5d0	-0.01519151
248	0x3b426daf	0.0029667427
249	0x3c8771c6	0.016533744
250	0x3ae07b6f	0.001712663
251	0xbb5f2322	-0.003404804
252	0x3c032810	0.008005157
253	0x3ca9a9e3	0.020710891
254	0x3c518e4a	0.012790272
255	0xba0c2303	-0.00053457933

action_model._discrete_distribution.branches.0.bias f4 [3]
0	0x00000000	0.0
1	0x00000000	0.0
2	0x00000000	0.0

action_model._discrete_distribution.branches.1.weight f4 [2, 128]
0	0x3b40a083	0.0029392547
1	0xbc32e9cb	-0.010919998
2	0xbc801203	-0.015633589
3	0x3b72a1cb	0.0037022706
4	0xba53e1ff	-0.0008082687
5	0xbaac9173	-0.0013165906
6	0xbc1d7e42	-0.009612622
7	0x3b9437ba	0.0045232447
8	0xbbad4abb	-0.0052884496
9	0x3a9fe7ef	0.0012199859
10	0x3b896d44	0.0041939337
11	0x3b8c5a61	0.004283235
12	0xbc6ce105	-0.014457946
13	0xbb8c0a70	-0.004273705
14	0x3bbbe279	0.0057337848
15	0x3aee69d3	0.0018189497
16	0x3cb3f4ef	0.02196738
17	0x3b353ebd	0.0027655803
18	0xbbbd37a4	-0.005774455
19	0x3b69dc8d	0.0035684437
20	0x3bbfacd5	0.0058494606
21	0xbc6aaa4f	-0.014322831
22	0x3c4aff49	0.012389966
23	0xbc3c1d0a	-0.011481533
24	0x3c1dc698	0.009629868
25	0xbb02a57b	-0.001993506
26	0xbca29867	-0.019848062
27	0x3c328431	0.010895775
28	0x3c0298a8	0.007970966
29	0xbb8821da	-0.004154426
30	0xbc3d1236	-0.011539986
31	0xbb424696	-0.0029644123
32	0xbba302f1	-0.004974716
33	0xbb5786a8	-0.0032886658
34	0xbb9c29a0	-0.0047657043
35	0x3bd32305	0.0064433836
36	0xbb5db07a	-0.0033827112
37	0x3b90a231	0.004413866
38	0x3bbb9088	0.0057240166
39	0xba9ac09f	-0.0011806673
40	0x3b5ba523	0.0033515177
41	0xbc087904	-0.008329634
42	0x3c0d91ac	0.008640688
43	0x3c63faba	0.013914758
44	0xbb304403	-0.0026896007
45	0x3c4b9919	0.012426638
46	0xbcb1b82f	-0.02169427
47	0xbc555fcb	-0.013023327
48	0xbc9e63bc	-0.019334666
49	0xbc3232a7	-0.010876334
50	0xbbded1ef	-0.0067999284
51	0xbb031d71	-0.0020006562
52	0xbbf9e448	-0.00762609
53	0x3bacd18a	0.0052740024
54	0xba02e289	-0.0004992863
55	0xbc1907c9	-0.009340235
56	0x3c65ad8f	0.01401843
57	0x3b2ddf8b	0.0026530947
58	0x3bc91437	0.006136443
59	0xba939686	-0.001126007
60	0xbc9a916e	-0.018868174
61	0x3b6ad547	0.003583269
62	0xbc3e54bc	-0.011616882
63	0xba8eb2d2	-0.0010887033
64	0xbc2ce003	-0.010551455
65	0x3c18fcfe	0.009337662
66	0xbb732e8b	-0.00371066
67	0x3bf3fcd8	0.007445913
68	0xbbcfc0ab	-0.0063401065
69	0xbc89f3ef	-0.01683995
70	0xbbdec26f	-0.0067980806
71	0xb829dc14	-4.0497704e-05
72	0xbacfc412	-0.001585128
73	0xb9e420ff	-0.00043512133
74	0x3c0f6a70	0.008753404
75	0x3bc0b338	0.0058807395
76	0xbb5328e3	-0.0032220415
77	0xba065ac4	-0.00051252195
78	0x3a894d2d	0.0010475271
79	0xbc015d51	-0.0078957835
80	0xbbf6efdf	-0.007535919
81	0x3941a16d	0.0001846605
82	0x3b92b7dd	0.0044774846
83	0x3a7b7728	0.0009592646
84	0xb8cf0753	-9.8718934e-05
85	0x3b5e0f8f	0.0033883785
86	0x3c5b5ddf	0.01338908
87	0xbb629eca	-0.003457951
88	0x3a1e22d3	0.0006032411
89	0xbbba6574	-0.0056883637
90	0xbc0216c6	-0.00794
91	0xbba0cfb2	-0.0049075717
92	0xbb1fd8d3	-0.0024390712
93	0x3bd0899f	0.006364062
94	0x3c81e0db	0.01585429
95	0x3b92cb53	0.0044798045
96	0x3aa36d47	0.001246848
97	0xbc9bf05f	-0.019035516
98	0xbbd5fd2b	-0.006530424
99	0xbb6ff0d8	-0.003661206
100	0xba71cb03	-0.00092236715
101	0xba71ae27	-0.0009219371
102	0xb9d48782	-0.00040536752
103	0xbb03a767	-0.0020088793
104	0xbb58c47b	-0.0033076096
105	0xbc1f07a6	-0.009706413
106	0xbb878783	-0.0041360273
107	0x3c555f6b	0.013023238
108	0x3aafafa7	0.0013403789
109	0x3c54ec55	0.012995799
110	0xbbc45c1f	-0.005992427
111	0x3ae64a07	0.0017569669
112	0xbb56f8af	-0.0032802036
113	0xbc09a518	-0.008401178
114	0xba1b7b0d	-0.0005931117
115	0x3bb7b0df	0.0056058015
116	0xbc1d89cd	-0.009615374
117	0x3a938fd2	0.0011258072
118	0x3ba7d4a8	0.005121786
119	0x3a979a5b	0.0011566387
120	0x3bdef5e7	0.006804216
121	0x3afd0cb8	0.0019306159
122	0x3c3fb2f1	0.011700378
123	0x3baa6791	0.0052003344
124	0x3be01a43	0.006839068
125	0xbc91c09f	-0.017792044
126	0x3c11f05b	0.008907403
127	0xbb92014d	-0.0044557215
128	0x3bc26026	0.005931872
129	0x3c968fb1	0.018379064
130	0xbbad16b7	-0.005282249
131	0xbb5ba617	-0.0033515745
132	0x39f149aa	0.00046021986
133	0xbba5549b	-0.005045486
134	0xbafb8480	-0.0019189268
135	0x3a4b3d37	0.0007752957
136	0x3b1be22a	0.0023785927
137	0x3bf7d1c5	0.0075628483
138	0xbbbaf697	-0.0057056653
139	0x3b9490b9	0.004533854
140	0x3b655e1b	0.0034998718
141	0xbc074b4a	-0.008257696
142	0xbb840e73	-0.004030043
143	0xbb1a046f	-0.0023501178
144	0x3b3939bb	0.002826317
145	0x3b551948	0.003251629
146	0x3c1131f5	0.008862008
147	0xbc0aa4b0	-0.008462116
148	0xbc9bc5ef	-0.01901528
149	0x3b205bc5	0.0024468761
150	0xbb23a85d	-0.0024972179
151	0xbb0dbeea	-0.0021628686
152	0x3b49613b	0.003072812
153	0x3bc923e3	0.0061383112
154	0xbc0e9203	-0.008701804
155	0xbbfe127a	-0.0077536674
156	0xbb7e9d8d	-0.0038851232
157	0xbb5c83d3	-0.003364791
158	0xbc4a0d6f	-0.012332304
159	0x3cadeadf	0.02123016
160	0xbbfd5348	-0.007730875
161	0xbbc52753	-0.0060166507
162	0xbbd3f7a0	-0.006468728
163	0x39128f6f	0.00013977078
164	0x3ba27abd	0.004958479
165	0xbbfe39c0	-0.007758349
166	0x3c8aefe7	0.016960097
167	0xbc905033	-0.017616367
168	0xbb40c747	-0.0029415654
169	0xbbd52bdf	-0.006505474
170	0xbbcba700	-0.0062149763
171	0x3b878169	0.0041353
172	0xbbe0f53d	-0.006865172
173	0xbc389faa	-0.011268536
174	0x3be26633	0.0069091558
175	0x3cb97929	0.022640781
176	0x3b126f0b	0.0022344019
177	0xbb93a59b	-0.0045058257
178	0x3c3aa456	0.01139172
179	0x3b2da98f	0.002649877
180	0x3c614d5a	0.013751352
181	0xbc0b5806	-0.008504873
182	0xbb8f9d5e	-0.0043827733
183	0x3c0c1025	0.008548771
184	0xbc865b58	-0.016400978
185	0xbb72c0cf	-0.0037041192
186	0xbb75096b	-0.0037389647
187	0xbc7e781a	-0.015531564
188	0xbbfb2eb3	-0.007665479
189	0xbbcbc271	-0.0062182476
190	0x3cb6b4d9	0.022303032
191	0xbb0dc40f	-0.0021631753
192	0x3c5afc20	0.013365775
193	0x3c60099f	0.013674169
194	0x3c39a25d	0.011330214
195	0x3c19be83	0.0093838
196	0xbc837330	-0.016046137
197	0xbc873a9c	-0.01650744
198	0xbc359200	-0.011082172
199	0xbbe192bd	-0.0068839476
200	0x3b706370	0.0036680363
201	0x3abb1485	0.0014273083
202	0x3bd1865f	0.006394192
203	0xbbe95c73	-0.0071216165
204	0xbc67030d	-0.014099848
205	0x3bd8b377	0.0066131908
206	0xbbd7367d	-0.006567775
207	0xbbeee655	-0.0072906413
208	0x3c1417cb	0.009038876
209	0x3c20bf8f	0.009811296
210	0x3bd03a90	0.0063546374
211	0xbb29e3f3	-0.0025923222
212	0xbb26b7a7	-0.0025439055
213	0x3b66c2cf	0.003521133
214	0xbc52d1cd	-0.012867403
215	0x3c22fe60	0.009948343
216	0x3b4f9523	0.0031674586
217	0xbca0e5e3	-0.019640869
218	0xbc0dbccb	-0.008650969
219	0x3b0e5779	0.0021719618
220	0x3adaddea	0.0016698216
221	0x3b078d10	0.0020683445
222	0xbb4ceba2	-0.0031268378
223	0x3c4a65b7	0.012353352
224	0x3ccd36e8	0.025050595
225	0xbba0426b	-0.00489073
226	0xbc1f5015	-0.009723683
227	0xbc204119	-0.0097811455
228	0xbb90f631	-0.0044238796
229	0x39f6db57	0.00047084197
230	0x3b07e9e1	0.0020738768
231	0xbcb6f2c7	-0.022332562
232	0xb96edefd	-0.00022780518
233	0x3c453813	0.012037295
234	0x3c1a8ab3	0.0094324825
235	0xbb28a16c	-0.002573098
236	0x3bc43010	0.005987175
237	0x3c18231a	0.009285713
238	0x3c32eae0	0.010920256
239	0xbbc7d7c9	-0.0060987216
240	0x3a12383e	0.0005577839
241	0x3a885a59	0.0010402902
242	0x3c4c62a3	0.012474689
243	0x3c0945cb	0.008378456
244	0x3ce9bf20	0.028533518
245	0x3bde12a2	0.0067771235
246	0x3c35c645	0.011094634
247	0x3c15b954	0.009138424
248	0xbba19f43	-0.0049323156
249	0x3b94776a	0.004530837
250	0xbc11207f	-0.008857845
251	0xbc266e09	-0.01015807
252	0x3c269553	0.010167438
253	0xbc625475	-0.013814081
254	0xbc133f2f	-0.008987232
255	0x3b50936d	0.0031826154

action_model._discrete_distribution.branches.1.bias f4 [2]
0	0x00000000	0.0
1	0x00000000	0.0

network_body.observation_encoder.processors.0.normalizer.running_mean f4 [7]
0	0x3ff67c9b	1.9256777
1	0xbe106eb3	-0.14104728
2	0xbe46b90c	-0.19406527
3	0x00000000	0.0
4	0x3dbf40be	0.093385205
5	0xbde106ee	-0.1098765
6	0x3f7f00ff	0.99610895

network_body.observation_encoder.processors.0.normalizer.running_variance f4 [7]
0	0x409720c4	4.7227497
1	0x42e261d8	113.1911
2	0x41104a69	9.018167
3	0x3f800000	1.0
4	0x41b611ee	22.758755
5	0x44a70cae	1336.3962
6	0x3fff8080	1.996109

network_body.processors.0.normalizer.running_mean f4 [7]
0	0x3ff67c9b	1.9256777
1	0xbe106eb3	-0.14104728
2	0xbe46b90c	-0.19406527
3	0x00000000	0.0
4	0x3dbf40be	0.093385205
5	0xbde106ee	-0.1098765
6	0x3f7f00ff	0.99610895

network_body.processors.0.normalizer.running_variance f4 [7]
0	0x409720c4	4.7227497
1	0x42e261d8	113.1911
2	0x41104a69	9.018167
3	0x3f800000	1.0
4	0x41b611ee	22.758755
5	0x44a70cae	1336.3962
6	0x3fff8080	1.996109

network_body._body_endoder.seq_layers.0.weight f4 [128, 7]
0	0x3eeeda89	0.46651104
1	0x3e2437e5	0.16036947
2	0xbe97f7b6	-0.29681176
3	0xbe8600b3	-0.26172408
4	0x3da7b902	0.08189584
5	0x3f097973	0.5370094
6	0xbead3b67	-0.33834383
7	0x3ea5959b	0.32340702
8	0xbc87b293	-0.016564643
9	0x3e409e18	0.18810308
10	0xbf1ec21b	-0.6201493
11	0x3e66a579	0.2252406
12	0x3e27d0cd	0.16388245
13	0xbe3b591b	-0.1829571
14	0x3f105a4d	0.5638779
15	0x3e3d7ccc	0.18504637
16	0x3e549967	0.20761643
17	0x3ce8fc5f	0.028440652
18	0xbe794f52	-0.24346665
19	0x3c760e50	0.015018061
20	0xbe3d81d7	-0.18506561
21	0xbf269517	-0.65071243
22	0x3e05996f	0.13046812
23	0xbe3e7bf6	-0.18601975
24	0xbdfa5f1c	-0.12225172
25	0x3eb025d3	0.34403858
26	0xbe042158	-0.12903345
27	0xbeb2697f	-0.34846112
28	0x3e970a2e	0.29499954
29	0x3ddce975	0.10786716
30	0xbec540e4	-0.3852607
31	0xbea7c65c	-0.32768524
32	0xbe7e8bbb	-0.2485799
33	0xbe8161c7	-0.2526991
34	0xbd2eebf8	-0.042705506
35	0x3d77c17f	0.060487267
36	0x3eec3c1b	0.46139607
37	0x3ea5a907	0.3235552
38	0xbd91e560	-0.07123828
39	0xbef20420	-0.47268772
40	0x3e1115e7	0.14168511
41	0x3f1ae182	0.6050035
42	0x3ec17d28	0.377908
43	0x3e2b44b2	0.16725424
44	0xbec5fdcf	-0.38670203
45	0x3dc3becb	0.09557875
46	0x3e462857	0.19351326
47	0x3ca42929	0.020039158
48	0x3a8b9dd6	0.0010651897
49	0x3e9ac6bf	0.30229756
50	0xbf033e4c	-0.5126693
51	0x3ddae019	0.106872745
52	0x3e66d603	0.22542576
53	0xbd9b8313	-0.0759336
54	0xbee22676	-0.44169968
55	0xbe2492a5	-0.16071565
56	0xbecd65bd	-0.40116683
57	0xbf15016f	-0.5820531
58	0xbf12eea3	-0.5739538
59	0x3bd5713b	0.0065137423
60	0x3cd9f329	0.026605206
61	0x3dffe421	0.12494684
62	0xbf397349	-0.72441536
63	0x3e7e3601	0.24825288
64	0x3ed495fb	0.41520676
65	0xbcc4f51f	-0.024042664
66	0xbf038937	-0.5138125
67	0x3eb53c3d	0.3539752
68	0xbecb4eca	-0.3970855
69	0xbeed017d	-0.46290198
70	0x3d3271f2	0.043565698
71	0xbee67251	-0.45009091
72	0xbe414b70	-0.18876433
73	0x3f033879	0.51258045
74	0xbe6fa578	-0.23402965
75	0xbef609d0	-0.4805436
76	0xbe72552a	-0.236653
77	0xbf2953f0	-0.66143703
78	0xbf1e3d37	-0.61812156
79	0x3dd55cef	0.10418116
80	0x3de7a332	0.11310424
81	0x3daa7527	0.08323126
82	0xbebbfcc9	-0.36716297
83	0x3f047d5d	0.5175379
84	0x3e52f0b1	0.20599629
85	0x3e2221df	0.15833233
86	0x3dabb9b5	0.0838503
87	0xbf24761b	-0.64242715
88	0x3ebc23b0	0.36745977
89	0xbeed2766	-0.4631912
90	0xbea3af26	-0.31969565
91	0x3d4dd644	0.050253168
92	0xbf0859e5	-0.5326217
93	0x3f08c035	0.53418285
94	0xbedbebaf	-0.4295325
95	0xbf06d368	-0.5266633
96	0x3dae8bd9	0.085227676
97	0x3f25ec6f	0.64813894
98	0x3e814f38	0.25255752
99	0x3d480119	0.04882917
100	0x3e13578a	0.14388862
101	0x3e0ecabf	0.13944529
102	0x3ed9c98b	0.42536578
103	0xbf291001	-0.66040045
104	0x3ecd3f34	0.40087283
105	0xbdbea524	-0.09308842
106	0x3eb5bddb	0.3549641
107	0xbe595a18	-0.21225774
108	0x3e63dc0b	0.22251908
109	0xbb37d2fd	-0.0028049343
110	0xbeacadc8	-0.33726335
111	0xbe99f038	-0.30066085
112	0xbc8e2f58	-0.01735656
113	0x3e3858d7	0.1800264
114	0x3ce69059	0.028145002
115	0x3f0f9907	0.56092876
116	0xbf3c61ff	-0.7358703
117	0xbf04d43f	-0.5188636
118	0x3eefe45a	0.46853906
119	0xbe16d22e	-0.14728615
120	0x3d64e8ad	0.05588596
121	0x3f2bb6ab	0.67075604
122	0xbd964f6b	-0.073393665
123	0x3cf51183	0.029915577
124	0x3eaa29dc	0.3323506
125	0xbdf3695b	-0.11885329
126	0xbe2b97b5	-0.1675709
127	0x3e368a6a	0.17826238
128	0x3f910b38	1.1331549
129	0xbed687d8	-0.41900516
130	0x3ed7553a	0.4205721
131	0x3d24837d	0.04016446
132	0x3e2ba931	0.1676376
133	0x3e487e15	0.19579346
134	0xbf8d85b9	-1.1056434
135	0x3f06e49a	0.5269257
136	0x3f2ef9b4	0.68349767
137	0x3dced499	0.100991435
138	0x3cabb036	0.020958047
139	0x3e76bf8b	0.24096505
140	0x3eaa64b4	0.33279955
141	0xbf72198a	-0.9457022
142	0xbe4446b5	-0.19167598
143	0x3f4ffc0a	0.81243956
144	0xbef6bd3c	-0.4819125
145	0x3ea059f1	0.3131862
146	0xbe5e23b6	-0.2169331
147	0x3e619792	0.22030476
148	0x3c809d55	0.015700022
149	0x3e651a6f	0.22373365
150	0xbe7b66cf	-0.24550937
151	0x3de5d428	0.11222106
152	0xbef62f3e	-0.48082918
153	0x3e5c740c	0.21528643
154	0x3ee0926f	0.4386172
155	0x3e53dcc7	0.20689689
156	0xbeb3fca4	-0.35153687
157	0x3dd49f80	0.10381985
158	0xbd3b2c4f	-0.045696553
159	0x3eb7397e	0.3578605
160	0x3f1f99cb	0.62344044
161	0xbe115f9c	-0.14196628
162	0x3e55f4e7	0.20894204
163	0xbe26f05c	-0.16302627
164	0x3ec582f1	0.38576463
165	0x3f1d7c5a	0.6151787
166	0xbe74ac4a	-0.23893848
167	0x3d182492	0.03714425
168	0xbabaa9be	-0.0014241261
169	0xbf50e00b	-0.8159186
170	0x3e2ae49b	0.16688769
171	0xbe90fa39	-0.28315905
172	0xbf1bf4d9	-0.6092048
173	0x3ec3f834	0.382753
174	0xbd6867f1	-0.05673975
175	0xbe231618	-0.15926397
176	0xbe852d1e	-0.26010984
177	0xbebbb2db	-0.36659893
178	0x3d15d3f3	0.036579084
179	0x3e5249cc	0.20535964
180	0x3e1602ba	0.14649478
181	0xbea7c8c6	-0.32770365
182	0xbeba12b8	-0.36342406
183	0x3eb984b5	0.3623406
184	0xbe782789	-0.24233831
185	0xbea9d9ac	-0.33173883
186	0xbe5b5e5e	-0.21422717
187	0xbed464c6	-0.41483134
188	0x3f86412c	1.0488639
189	0x3ea50779	0.32232264
190	0xbc9cb66c	-0.019129954
191	0x3e020720	0.1269803
192	0x3e7490ee	0.23883411
193	0xbf07569e	-0.5286654
194	0xbf459c47	-0.77191585
195	0xbf455bac	-0.77093005
196	0xbf456323	-0.77104396
197	0xbd04a2af	-0.03238171
198	0xbe6124f9	-0.2198676
199	0xbefe83b3	-0.49709854
200	0x3e994156	0.2993266
201	0xbd9cb897	-0.07652395
202	0xbdc134f9	-0.09433932
203	0x3e2d40df	0.16919278
204	0x3c94c92e	0.018162336
205	0x3e345094	0.17608863
206	0xbf9dde11	-1.2333394
207	0x3c366afb	0.011133905
208	0xbf5315ae	-0.82454956
209	0x3f165edb	0.5873849
210	0x3d8d1f73	0.06890764
211	0x3e999215	0.29994264
212	0x3e86ce5a	0.2632931
213	0xbed861b4	-0.42262042
214	0x3ee98f0d	0.45616952
215	0xbe68eb26	-0.22745952
216	0xbee91df6	-0.4553067
217	0x3f1a7d05	0.60347015
218	0x3ea3e11b	0.3200768
219	0xbef3ca81	-0.47615436
220	0x3d91d5fd	0.07120893
221	0xbd6aa552	-0.057286568
222	0x3cfbde43	0.030745631
223	0xbf46ab91	-0.7760554
224	0x3e53a356	0.20667776
225	0x3f58fc02	0.84759533
226	0x3f149b68	0.5804963
227	0xbf20dbc3	-0.6283533
228	0xbd1605b3	-0.03662653
229	0xbe6b1e52	-0.22960785
230	0x3ee275a8	0.4423039
231	0x3e17b26e	0.1481416
232	0xbb986d54	-0.004651705
233	0xbf0b5b18	-0.54435873
234	0x3f2970af	0.66187567
235	0x3f44a602	0.7681581
236	0xbd0a349e	-0.033741586
237	0xbeb96616	-0.36210698
238	0xbdd865fb	-0.10566326
239	0x3f0c6fa2	0.5485784
240	0xbbc3fe36	-0.005981232
241	0x3f1ffe5d	0.624975
242	0x3ddcca82	0.10780813
243	0x3f032085	0.51221496
244	0x3eef41e7	0.46729967
245	0xbf5a03d5	-0.851621
246	0xbdc8174c	-0.097700685
247	0xbe9a0409	-0.30081204
248	0x3e4a7302	0.19770434
249	0x3f003e7c	0.50095344
250	0x3d460584	0.048345104
251	0xbec3b171	-0.38221315
252	0xbec2d054	-0.38049567
253	0x3f45deae	0.7729291
254	0xbe88fd8f	-0.2675595
255	0xbf83f811	-1.0310079

network_body._body_endoder.seq_layers.0.bias f4 [128]
0	0x00000000	0.0
1	0x00000000	0.0
2	0x00000000	0.0
3	0x00000000	0.0
4	0x00000000	0.0
5	0x00000000	0.0
6	0x00000000	0.0
7	0x00000000	0.0
8	0x00000000	0.0
9	0x00000000	0.0
10	0x00000000	0.0
11	0x00000000	0.0
12	0x00000000	0.0
13	0x00000000	0.0
14	0x00000000	0.0
15	0x00000000	0.0
16	0x00000000	0.0
17	0x00000000	0.0
18	0x00000000	0.0
19	0x00000000	0.0
20	0x00000000	0.0
21	0x00000000	0.0
22	0x00000000	0.0
23	0x00000000	0.0
24	0x00000000	0.0
25	0x00000000	0.0
26	0x00000000	0.0
27	0x00000000	0.0
28	0x00000000	0.0
29	0x00000000	0.0
30	0x00000000	0.0
31	0x00000000	0.0
32	0x00000000	0.0
33	0x00000000	0.0
34	0x00000000	0.0
35	0x00000000	0.0
36	0x00000000	0.0
37	0x00000000	0.0
38	0x00000000	0.0
39	0x00000000	0.0
40	0x00000000	0.0
41	0x00000000	0.0
42	0x00000000	0.0
43	0x00000000	0.0
44	0x00000000	0.0
45	0x00000000	0.0
46	0x00000000	0.0
47	0x00000000	0.0
48	0x00000000	0.0
49	0x00000000	0.0
50	0x00000000	0.0
51	0x00000000	0.0
52	0x00000000	0.0
53	0x00000000	0.0
54	0x00000000	0.0
55	0x00000000	0.0
56	0x00000000	0.0
57	0x00000000	0.0
58	0x00000000	0.0
59	0x00000000	0.0
60	0x00000000	0.0
61	0x00000000	0.0
62	0x00000000	0.0
63	0x00000000	0.0
64	0x00000000	0.0
65	0x00000000	0.0
66	0x00000000	0.0
67	0x00000000	0.0
68	0x00000000	0.0
69	0x00000000	0.0
70	0x00000000	0.0
71	0x00000000	0.0
72	0x00000000	0.0
73	0x00000000	0.0
74	0x00000000	0.0
75	0x00000000	0.0
76	0x00000000	0.0
77	0x00000000	0.0
78	0x00000000	0.0
79	0x00000000	0.0
80	0x00000000	0.0
81	0x00000000	0.0
82	0x00000000	0.0
83	0x00000000	0.0
84	0x00000000	0.0
85	0x00000000	0.0
86	0x00000000	0.0
87	0x00000000	0.0
88	0x00000000	0.0
89	0x00000000	0.0
90	0x00000000	0.0
91	0x00000000	0.0
92	0x00000000	0.0
93	0x00000000	0.0
94	0x00000000	0.0
95	0x00000000	0.0
96	0x00000000	0.0
97	0x00000000	0.0
98	0x00000000	0.0
99	0x00000000	0.0
100	0x00000000	0.0
101	0x00000000	0.0
102	0x00000000	0.0
103	0x00000000	0.0
104	0x00000000	0.0
105	0x00000000	0.0
106	0x00000000	0.0
107	0x00000000	0.0
108	0x00000000	0.0
109	0x00000000	0.0
110	0x00000000	0.0
111	0x00000000	0.0
112	0x00000000	0.0
113	0x00000000	0.0
114	0x00000000	0.0
115	0x00000000	0.0
116	0x00000000	0.0
117	0x00000000	0.0
118	0x00000000	0.0
119	0x00000000	0.0
120	0x00000000	0.0
121	0x00000000	0.0
122	0x00000000	0.0
123	0x00000000	0.0
124	0x00000000	0.0
125	0x00000000	0.0
126	0x00000000	0.0
127	0x00000000	0.0

network_body._body_endoder.seq_layers.2.weight f4 [128, 128]
0	0xbdbbd4f1	-0.09171475
1	0x3dcf416b	0.10119899
2	0xbd6f8200	-0.058473587
3	0xbba90ba0	-0.0051588565
4	0xbd256c9c	-0.04038678
5	0x3d86b8f3	0.06578245
6	0xbe00da22	-0.12583211
7	0x3dc63d69	0.09679682
8	0x3d5c09d5	0.053720314
9	0xba49403c	-0.0007677113
10	0x3dbc2e9d	0.09188578
11	0xbdec9237	-0.11551326
12	0xbdab6cac	-0.08370337
13	0x3c799476	0.01523315
14	0x3e0c7d01	0.1371956
15	0x3d799ce3	0.060940634
16	0xbd1893b7	-0.037250247
17	0xbd08d062	-0.033401854
18	0xbd3248fc	-0.043526635
19	0x3e066429	0.13124146
20	0x3c5069c1	0.012720526
21	0xbe61ac22	-0.2203832
22	0x3ca8206c	0.020523272
23	0x3e0d3836	0.13790974
24	0xbe05080a	-0.12991348
25	0xbde2ba1e	-0.11070655
26	0xbdec63bd	-0.11542461
27	0x3d6ef375	0.058337647
28	0x3b82b6c2	0.0039890716
29	0x3d570791	0.05249745
30	0x3e0d4e6c	0.13799447
31	0xbd8f29dc	-0.06990406
32	0xbe6dcc59	-0.23222484
33	0xbd689866	-0.056785963
34	0x3d73d1f7	0.05952641
35	0xbdab7381	-0.0837164
36	0xbb0f39ce	-0.0021854523
37	0xbe1bf4ab	-0.15230052
38	0x3d5187ad	0.05115478
39	0x3c80b03c	0.015709035
40	0xbc7b818d	-0.0153507115
41	0x3e134176	0.1438044
42	0xbbc717e6	-0.006075847
43	0xbd203421	-0.039112214
44	0x3d1bd46c	0.03804438
45	0x3cc9d45a	0.02463739
46	0x3de8f820	0.11375451
47	0x3d2eb90a	0.042656936
48	0x3b716694	0.0036834823
49	0x3d1664a8	0.036717087
50	0x3d2a761f	0.041616555
51	0x3c6907be	0.014223037
52	0xbd66b55d	-0.056325305
53	0x3d960fc1	0.073272236
54	0xbd599a49	-0.053125653
55	0x3ccd482b	0.025058826
56	0x3c53d2dc	0.012928691
57	0x3db9a8d0	0.090654016
58	0xbc911212	-0.017708812
59	0xbd8db6c2	-0.06919624
60	0x3e12d492	0.14338902
61	0x3d3207ea	0.04346458
62	0xbd1a26c2	-0.03763462
63	0xbe01d918	-0.12680471
64	0x3e037e2e	0.12841102
65	0x3bcb2d26	0.0062004505
66	0x3bff3ec1	0.0077894633
67	0x3e4e2576	0.20131478
68	0x3d1c9a18	0.038232893
69	0x3d51fd75	0.051267106
70	0x3d8a768e	0.06760894
71	0x3c483882	0.012220504
72	0xbb5319b8	-0.0032211374
73	0xbcfceca8	-0.030874565
74	0x3c8b771c	0.01702457
75	0xbe54390f	-0.20724891
76	0xbe16d8b7	-0.14731108
77	0x3dc687f2	0.09693898
78	0xbcd27877	-0.025692208
79	0x3ca2e967	0.019886686
80	0xbdcb84a5	-0.09937409
81	0xbc79b878	-0.015241735
82	0xbdadf857	-0.08494633
83	0x3d1d46d0	0.03839761
84	0xbd6d72ba	-0.05797074
85	0x3d054961	0.032540683
86	0x3e5176c3	0.2045546
87	0x3ded64c3	0.115914844
88	0x3e1de049	0.15417589
89	0x3d22da6c	0.039759085
90	0xbe362d6a	-0.17790762
91	0xbc2b9669	-0.010472872
92	0xbde36f0d	-0.11105166
93	0xbd884bb7	-0.066550665
94	0xbda5db3b	-0.080984555
95	0xbd0b3e3c	-0.0339949
96	0x3e0b88e3	0.13626437
97	0xbd00337a	-0.031299092
98	0x3cd2bf32	0.025725935
99	0x3ccc374f	0.024928717
100	0xbdd3b160	-0.10336566
101	0xbd938278	-0.07202619
102	0x3c6793aa	0.014134327
103	0x3d6411e4	0.055681124
104	0xbe37b364	-0.17939526
105	0x3de63dd6	0.11242263
106	0x3de38abe	0.11110447
107	0xbd7c9881	-0.061668877
108	0xbd7c4196	-0.061585985
109	0xbdead6f2	-0.11466779
110	0x3cbff854	0.023433842
111	0xbdb65454	-0.08902803
112	0xbca39c4e	-0.019971993
113	0x3d7fe803	0.062477123
114	0xbd3e1071	-0.0464024
115	0xbbfbe931	-0.0076877107
116	0xbd606d08	-0.05479148
117	0xbd1bd0d0	-0.038040936
118	0xbd846199	-0.06463928
119	0x3c9d8aca	0.019231219
120	0x3e1e768b	0.15474908
121	0x3d6019f5	0.054712255
122	0xbba18777	-0.0049294787
123	0x3d874efb	0.06606861
124	0xbcd1704d	-0.025566244
125	0x3d1496ef	0.036276754
126	0xbe657563	-0.2240806
127	0x3db22321	0.086981066
128	0xbd6db144	-0.05803038
129	0xbc846332	-0.016160581
130	0xbd54ed57	-0.051984157
131	0xbd340ebc	-0.043959364
132	0x3d96c0f1	0.073610194
133	0x3dc51d29	0.096247025
134	0x3d58d4b2	0.052937217
135	0x3e14bc10	0.14524865
136	0xba8f3114	-0.0010924661
137	0x3d09cf6e	0.033645086
138	0x3cd79b68	0.02631922
139	0x3d4cb9e4	0.049981967
140	0xbd2a9d12	-0.0416537
141	0xbdd6f24c	-0.10495433
142	0xbc1ddd4f	-0.009635284
143	0x3e430abb	0.19047062
144	0x3d025b7b	0.031825524
145	0xbdda3d49	-0.106562205
146	0xbd8d2054	-0.06890932
147	0xbc6035b2	-0.013684677
148	0x3d65a885	0.056068916
149	0xbd63b9a8	-0.055596977
150	0xbdacd622	-0.0843928
151	0x3c54ed6b	0.012996058
152	0x3dfea466	0.124337
153	0xbdc0d72f	-0.09416043
154	0xbd08d99e	-0.03341066
155	0xbca61b55	-0.020276705
156	0xbd0b53b1	-0.03401536
157	0xbdb2461e	-0.0870478
158	0x3e0eac6c	0.13932961
159	0xbe12a61b	-0.14321177
160	0xbe29b2e1	-0.16572143
161	0xbdcf3c00	-0.10118866
162	0xbe01204e	-0.1260998
163	0x3daa7f82	0.083251014
164	0xbe2c4a67	-0.16825257
165	0x3d246003	0.040130626
166	0xbd4371f5	-0.0477161
167	0xbd49cf1b	-0.049269777
168	0xbdbbdd11	-0.091730244
169	0xbd0d6435	-0.034519393
170	0x3d95b767	0.07310372
171	0xbdbaeb05	-0.09126858
172	0x3db28e28	0.087185204
173	0x3da4f5f2	0.08054723
174	0x3cc09743	0.023509627
175	0xbe66ba7b	-0.22532074
176	0xbde8bc6d	-0.11364064
177	0x3e35e0a9	0.17761482
178	0xbdf8d8ec	-0.121507496
179	0x3bdeac6f	0.006795458
180	0xba69cab3	-0.0008918449
181	0xbd0dc9b7	-0.0346162
182	0xbe03e1c5	-0.12879093
183	0xbd9b3596	-0.0757858
184	0x3e0405f5	0.12892897
185	0xbdf89f33	-0.1213974
186	0xbcd9ff8c	-0.026611112
187	0x3dcaf16a	0.09909327
188	0x3bf4f782	0.0074757943
189	0x3d0188c7	0.03162458
190	0xbe009761	-0.12557746
191	0xbd54836b	-0.051883142
192	0x3d8c5bb9	0.06853432
193	0x3c2758e6	0.010214066
194	0x3d302625	0.043005127
195	0xbdec3409	-0.115333624
196	0x3d8b756c	0.06809506
197	0xbdae22b2	-0.08502711
198	0x3c15bd09	0.009139308
199	0x3dfa36dc	0.12217495
200	0xbd6f5aa4	-0.05843605
201	0x3d75a7c4	0.059974447
202	0xbdc3b72f	-0.09556424
203	0x3b4ccd78	0.0031250399
204	0x3d7db9e6	0.061944865
205	0x3c4aa334	0.012368012
206	0xbc869bfc	-0.016431801
207	0xbd497c87	-0.049191024
208	0xbda09126	-0.07840185
209	0x3cf0be03	0.02938748
210	0x3cac0ca4	0.021002121
211	0xbd871a62	-0.06596829
212	0x3d893958	0.067003906
213	0xbd9d00ee	-0.07666193
214	0xbcfb43be	-0.03067195
215	0xbd0445db	-0.032293182
216	0x3e42fafa	0.19041052
217	0x3bcca038	0.0062446855
218	0x3cba6061	0.022751035
219	0xbda1704f	-0.07882749
220	0xbe4e33c9	-0.20136942
221	0xbd90053e	-0.0703225
222	0xbd1cb987	-0.03826287
223	0xbc8da16a	-0.017288882
224	0xbd1a0d45	-0.03761031
225	0x3d5ab34b	0.053393643
226	0xbc9a22d9	-0.018815445
227	0x3de4536b	0.11148723
228	0xbbd6044c	-0.006531274
229	0x3e4160ad	0.18884535
230	0xbc94ce52	-0.018164787
231	0x3b8cf7a0	0.00430198
232	0x3d315747	0.043296125
233	0xbdac9f06	-0.08428769
234	0x3c05d338	0.008168034
235	0xbd8ac863	-0.06776502
236	0x3d4e2009	0.05032352
237	0x3bc10635	0.0058906325
238	0x3dc02f50	0.09384024
239	0x3daef8a9	0.08543522
240	0x3df2deb2	0.11858882
241	0xbd1680e4	-0.036744013
242	0xbd02b78a	-0.031913318
243	0x3d4bacf6	0.049725495
244	0xbbb251bb	-0.005441872
245	0x3d3276fa	0.043570496
246	0x3c302ce2	0.010752888
247	0x39b9627a	0.0003535932
248	0x3e5489b9	0.20755662
249	0x3c047177	0.008083693
250	0x3d9f203c	0.0776982
251	0xbcc3df02	-0.02391005
252	0xbc73e086	-0.0148850735
253	0xbd2e6f0b	-0.042586368
254	0x3d09f9eb	0.033685606
255	0x3d3d9266	0.046282195
