results/phase1/PlayerAgent/PlayerAgent-7448.pt (torch, 156188 bytes, 22 tensors)

discrete_act_size_vector f4 [1, 2]
000000 00 00 40 40 00 00 00 40
       3.0 2.0

network_body.observation_encoder.processors.0.normalizer.running_mean f4 [7]
000000 98 6a f7 3f 8d 62 62 bf 07 c4 9e be 00 00 00 00
       1.9329405 -0.88431627 -0.31008932 0.0
000010 b1 a4 08 3e e6 1b c0 bc 35 f7 7f 3f
       0.13344075 -0.023450803 0.99986583

network_body.observation_encoder.processors.0.normalizer.running_variance f4 [7]
000000 c9 93 97 40 64 ad 13 45 77 fa 4c 43 00 00 80 3f
       4.73679 2362.837 204.97838 1.0
000010 07 97 57 44 bb e8 16 46 9a fb ff 3f
       862.3598 9658.183 1.9998658

network_body.processors.0.normalizer.running_mean f4 [7]
000000 98 6a f7 3f 8d 62 62 bf 07 c4 9e be 00 00 00 00
       1.9329405 -0.88431627 -0.31008932 0.0
000010 b1 a4 08 3e e6 1b c0 bc 35 f7 7f 3f
       0.13344075 -0.023450803 0.99986583

network_body.processors.0.normalizer.running_variance f4 [7]
000000 c9 93 97 40 64 ad 13 45 77 fa 4c 43 00 00 80 3f
       4.73679 2362.837 204.97838 1.0
000010 07 97 57 44 bb e8 16 46 9a fb ff 3f
       862.3598 9658.183 1.9998658

network_body._body_endoder.seq_layers.0.weight f4 [128, 7]
000000 4f 6c 0d bf be e7 5c be 7b 6b 5f 3e b3 03 55 3e
       -0.5524339 -0.21572778 0.21818344 0.20802192
000010 8f e3 09 be 04 79 da be d8 31 15 3f 9d 75 90 3e
       -0.13465713 -0.42670453 0.5827918 0.28214732
000020 a2 58 29 bf fb e8 59 be 8a 36 55 be 73 d9 2d 3f
       -0.6615087 -0.21280281 -0.20821586 0.67909926
000030 c2 f1 88 3e 89 e7 5d 3a dd 89 0b be 64 c4 90 bd
       0.26746947 0.00084649824 -0.1362681 -0.070687085
000040 d9 84 9f 3e d6 1e 9a 3e c1 a1 9a 3e 3a d5 05 be
       0.31156042 0.3010165 0.30201533 -0.1306962
000050 f9 33 b2 3e 8f c0 13 3e 74 f7 c0 3e b1 6c 83 be
       0.34805277 0.14428924 0.37688792 -0.25668862
000060 58 5c 52 bf f3 27 87 be 60 50 cf 3d 20 3f a3 3c
       -0.82172155 -0.26397666 0.10122752 0.019927561
000070 60 44 21 3e 67 20 88 3d 20 7d 48 be 9e 48 2b bf
       0.15748739 0.06646805 -0.19578981 -0.6690768
000080 86 7a 1f 3f b6 3f 16 3e 27 04 da be 6b 91 93 3e
       0.6229633 0.14672741 -0.42581293 0.28821883
000090 33 6e 35 be 8e fd cf be be 43 10 bf 74 53 b3 bd
       -0.17717819 -0.40623134 -0.56353366 -0.08756152
0000a0 69 44 35 3f 95 00 bb 3e 71 0c 0b bf bf 4b 15 3d
       0.7080751 0.36523882 -0.5431586 0.03644919
0000b0 f7 af cb bd a0 b7 4c 3e 64 95 24 3f c8 0f 7b be
       -0.09945672 0.19991922 0.6429045 -0.24517739
0000c0 79 f5 2e 3f 40 0f be 3e fc 18 06 bf 17 38 20 bf
       0.6834331 0.3712101 -0.52381873 -0.62585586
0000d0 cb c7 22 3e 2b 8a 3b 3e 18 42 6a bc 37 e1 8d 3e
       0.15896527 0.18314426 -0.014297985 0.27710888
0000e0 6a 74 f9 3e 5a a5 0f 3e c2 23 d0 3d bf 65 1d be
       0.4872163 0.1402792 0.1016307 -0.15370844
0000f0 71 d8 13 3f 56 50 8a 3f b3 69 a0 3d fd 96 38 3d
       0.5775214 1.0805767 0.078326605 0.04506587
000100 1f 3e a6 3d 1b 1c 31 be 76 6e 43 3e 5e d6 89 3b
       0.081173174 -0.17295878 0.19085106 0.0042064628
000110 a2 92 58 bd 03 8b af be 65 57 29 3e c0 26 f2 3e
       -0.052874215 -0.34285745 0.16537245 0.4729519
000120 bb c1 ce 3e 80 d5 b0 be 8e f7 b5 3c 78 a3 46 be
       0.4038218 -0.34537888 0.02221277 -0.19398296
000130 3c 55 01 3e 5f 1d e9 3d 41 8d b3 be f0 14 a5 3d
       0.1263017 0.11382555 -0.35068706 0.08060634
000140 65 2a 42 3e 91 55 91 3e 83 0e 1a be 71 cf 12 be
       0.18961485 0.28385594 -0.15044598 -0.14336945
000150 15 3e a5 be 33 95 78 3b 62 97 dd 3d b3 da b1 bb
       -0.32273927 0.0037930727 0.108198896 -0.0054276823
000160 6f 62 9d be 26 ab 91 be 7a 4d 96 bf 01 db eb 3e
       -0.3073916 -0.28450888 -1.1742394 0.46065524
000170 71 a3 95 3e 44 86 c6 3d cc b4 9e 3e 52 13 1d bd
       0.29226258 0.09693578 0.30997312 -0.038348503
000180 a6 0f 1b bf 77 a0 fb 3d 7c 4c c6 3e 45 4a ad be
       -0.6057075 0.122864656 0.38730228 -0.33845726
000190 1e 3d 14 be 56 41 b1 be df 84 9b 3e 39 43 07 3f
       -0.1447644 -0.3462016 0.3037481 0.5283695
0001a0 89 1d cc bd c3 0d cd 3e 81 61 61 3f 6c 35 15 3e
       -0.09966571 0.40049562 0.88039404 0.1457116
0001b0 7d f8 12 bf c7 30 3c bd 6c 59 c8 3e b5 91 cc 3e
       -0.57410413 -0.045944955 0.39130723 0.39954916
0001c0 67 e7 0d 3f 0a 60 07 3f 0f 34 16 3f 02 55 41 be
       0.55431217 0.5288092 0.58673185 -0.18880084
0001d0 8f 32 c4 be 2a bb b9 be b6 86 63 be 25 a5 bb bd
       -0.38319823 -0.36275607 -0.22219357 -0.09162358
0001e0 5c 70 0b 3f 95 4d 2b bd 75 42 09 3e b9 6c c3 3e
       0.5446832 -0.041822035 0.13404258 0.38168886
0001f0 3d 40 66 3e 00 5d 07 bf 5d 8b 75 3e 9f d0 aa be
       0.22485442 -0.5287628 0.23978944 -0.3336229
000200 31 a6 13 be 01 56 e1 3d d9 2b 2e ba 23 fe f6 bc
       -0.14418866 0.11002732 -0.0006644107 -0.030150479
000210 71 45 d3 be 81 67 4b bf e7 de 96 3e c2 c8 3c bd
       -0.41263917 -0.7945481 0.29466936 -0.046089895
000220 73 2e eb bd 22 51 03 3f f0 45 19 3e 52 28 53 bf
       -0.11483469 0.51295674 0.14968085 -0.824834
000230 c4 db a0 be 4d 14 82 be 4b ea 80 3e af f9 87 3e
       -0.31417668 -0.25406113 0.2517875 0.2655768
000240 9f d9 f3 3e 41 97 24 be 0f 28 1e bc 40 f0 80 3c
       0.4762697 -0.16073324 -0.009653105 0.01573956
000250 aa d6 91 be a3 7d af be da 30 cc 3d f7 24 41 bf
       -0.28484088 -0.3427554 0.09970255 -0.7544703
000260 4a 35 a0 be a3 a6 8d bf 2e c3 8a bd 67 f1 62 be
       -0.31290656 -1.1066478 -0.06775509 -0.221624
000270 b0 7d e5 3d 29 92 13 3e 6f c9 19 bd 18 c9 c9 3e
       0.112056136 0.14411224 -0.037545618 0.39411235
000280 84 25 8e 3e 89 42 d8 3d 4f 1f 3c 3f b1 85 1f 3e
       0.27762997 0.105595656 0.73485273 0.15578343
000290 35 73 46 bf cc ca a2 be 44 c8 81 be 10 a0 bc bd
       -0.7751954 -0.31795347 -0.25348103 -0.09210217
0002a0 7b 3b 19 be e9 0f 16 bf 0e a4 51 3e 38 69 ae be
       -0.14964096 -0.58618027 0.20472738 -0.3406465
0002b0 cf 9a aa be 16 fc 5a be eb d4 94 be 89 3b 2e bd
       -0.33321235 -0.21385226 -0.29068694 -0.042537246
0002c0 21 62 a8 3e a5 b0 5d 3e 1c cb 36 bf 51 6c 15 be
       0.32887366 0.21649416 -0.7140367 -0.145921
0002d0 ec 63 ff bd b8 81 56 bf 4a dd dc 3e 31 2a 4e 3f
       -0.124702305 -0.83791685 0.4313758 0.8053313
0002e0 9e 36 9e 3e 61 15 5d 3f 17 aa 88 be 80 d4 60 be
       0.30901045 0.86360747 -0.26692268 -0.21956062
0002f0 38 66 a9 be 4b df 1a be e5 ef 3a bf f7 0e ac be
       -0.330858 -0.15124242 -0.730223 -0.33605167
000300 01 18 3c be 36 8e 24 ba 04 2c 37 be 8b da b2 3e
       -0.18368532 -0.00062772946 -0.17887884 0.3493236
000310 2f c8 cf be 8f 93 34 3f 71 e2 53 be d5 e5 8c bd
       -0.40582415 0.70537657 -0.2069185 -0.068797745
000320 55 86 e0 3e a9 d7 97 3e 4e 6f 63 3c 95 c8 f8 be
       0.43852487 0.29656723 0.013881518 -0.48590532
000330 e3 24 00 ba 79 a9 8f 3c 87 25 ee 3e 9c b6 a7 3d
       -0.0004888309 0.017536866 0.46513006 0.08189127
000340 e5 d8 89 3e 35 74 c1 be d5 8c 1d be 2a 42 77 3e
       0.2692329 -0.3778397 -0.15385754 0.24146333
000350 a2 8e 8b 3e d0 75 26 3e a3 ca ed bd e8 ab 76 3e
       0.27257258 0.1625588 -0.116109155 0.24089015
000360 55 68 ea 3d 29 a3 06 3e f0 65 d2 3e ab cd 32 3f
       0.11445681 0.13148178 0.41093397 0.69845074
000370 af c1 d1 bd c8 20 b3 3b 85 91 01 3e 3c 5d 93 be
       -0.1024202 0.0054665543 0.12653168 -0.2878207
000380 d7 83 5b be 30 d7 1e 3f 4e 69 83 be b2 3c 73 be
       -0.21437012 0.620471 -0.2566628 -0.23753622
000390 7b 08 5b 3e f0 8c ae bd 11 52 82 be 71 a3 6c 3d
       0.21389954 -0.085229754 -0.25453237 0.057773057
0003a0 e5 de 4e be 43 9f f6 3d b8 7b 3e 3f 5b 41 73 be
       -0.20202215 0.120420955 0.7440753 -0.237554
0003b0 fb d4 01 bd 54 f4 c5 be 4a de 7d 3e 49 1e fa 3d
       -0.031697255 -0.3866297 0.24791828 0.12212808
0003c0 73 f8 0b be 04 6c c3 3e cd 76 09 3e b1 70 20 bc
       -0.13668995 0.38168347 0.13424225 -0.009792493
0003d0 14 3e 02 bf ca 21 b8 be 6c 0b 6b 3e 57 a5 4b 3f
       -0.50875974 -0.3596328 0.22953576 0.79549164
0003e0 87 03 f5 3e cf 31 1d 3a 21 1f 0f be 0d c1 37 be
       0.47854254 0.0005996497 -0.13976718 -0.17944737
0003f0 a5 a8 df 3e 6d 99 6b bd 74 ac e1 bc 03 07 bb be
       0.43683353 -0.057519365 -0.027548052 -0.36528787

network_body._body_endoder.seq_layers.0.bias f4 [128]
000000 00 00 00 00 00 00 00 00 00 00 00 00 00 00 00 00
       0.0 0.0 0.0 0.0
000010 00 00 00 00 00 00 00 00 00 00 00 00 00 00 00 00
       0.0 0.0 0.0 0.0
000020 00 00 00 00 00 00 00 00 00 00 00 00 00 00 00 00
       0.0 0.0 0.0 0.0
000030 00 00 00 00 00 00 00 00 00 00 00 00 00 00 00 00
       0.0 0.0 0.0 0.0
000040 00 00 00 00 00 00 00 00 00 00 00 00 00 00 00 00
       0.0 0.0 0.0 0.0
000050 00 00 00 00 00 00 00 00 00 00 00 00 00 00 00 00
       0.0 0.0 0.0 0.0
000060 00 00 00 00 00 00 00 00 00 00 00 00 00 00 00 00
       0.0 0.0 0.0 0.0
000070 00 00 00 00 00 00 00 00 00 00 00 00 00 00 00 00
       0.0 0.0 0.0 0.0
000080 00 00 00 00 00 00 00 00 00 00 00 00 00 00 00 00
       0.0 0.0 0.0 0.0
000090 00 00 00 00 00 00 00 00 00 00 00 00 00 00 00 00
       0.0 0.0 0.0 0.0
0000a0 00 00 00 00 00 00 00 00 00 00 00 00 00 00 00 00
       0.0 0.0 0.0 0.0
0000b0 00 00 00 00 00 00 00 00 00 00 00 00 00 00 00 00
       0.0 0.0 0.0 0.0
0000c0 00 00 00 00 00 00 00 00 00 00 00 00 00 00 00 00
       0.0 0.0 0.0 0.0
0000d0 00 00 00 00 00 00 00 00 00 00 00 00 00 00 00 00
       0.0 0.0 0.0 0.0
0000e0 00 00 00 00 00 00 00 00 00 00 00 00 00 00 00 00
       0.0 0.0 0.0 0.0
0000f0 00 00 00 00 00 00 00 00 00 00 00 00 00 00 00 00
       0.0 0.0 0.0 0.0
000100 00 00 00 00 00 00 00 00 00 00 00 00 00 00 00 00
       0.0 0.0 0.0 0.0
000110 00 00 00 00 00 00 00 00 00 00 00 00 00 00 00 00
       0.0 0.0 0.0 0.0
000120 00 00 00 00 00 00 00 00 00 00 00 00 00 00 00 00
       0.0 0.0 0.0 0.0
000130 00 00 00 00 00 00 00 00 00 00 00 00 00 00 00 00
       0.0 0.0 0.0 0.0
000140 00 00 00 00 00 00 00 00 00 00 00 00 00 00 00 00
       0.0 0.0 0.0 0.0
000150 00 00 00 00 00 00 00 00 00 00 00 00 00 00 00 00
       0.0 0.0 0.0 0.0
000160 00 00 00 00 00 00 00 00 00 00 00 00 00 00 00 00
       0.0 0.0 0.0 0.0
000170 00 00 00 00 00 00 00 00 00 00 00 00 00 00 00 00
       0.0 0.0 0.0 0.0
000180 00 00 00 00 00 00 00 00 00 00 00 00 00 00 00 00
       0.0 0.0 0.0 0.0
000190 00 00 00 00 00 00 00 00 00 00 00 00 00 00 00 00
       0.0 0.0 0.0 0.0
0001a0 00 00 00 00 00 00 00 00 00 00 00 00 00 00 00 00
       0.0 0.0 0.0 0.0
0001b0 00 00 00 00 00 00 00 00 00 00 00 00 00 00 00 00
       0.0 0.0 0.0 0.0
0001c0 00 00 00 00 00 00 00 00 00 00 00 00 00 00 00 00
       0.0 0.0 0.0 0.0
0001d0 00 00 00 00 00 00 00 00 00 00 00 00 00 00 00 00
       0.0 0.0 0.0 0.0
0001e0 00 00 00 00 00 00 00 00 00 00 00 00 00 00 00 00
       0.0 0.0 0.0 0.0
0001f0 00 00 00 00 00 00 00 00 00 00 00 00 00 00 00 00
       0.0 0.0 0.0 0.0

network_body._body_endoder.seq_layers.2.weight f4 [128, 128]
000000 31 75 6b bd 50 50 86 3d 1b a1 d3 3d 91 58 18 3e
       -0.05748481 0.06558287 0.10333463 0.14877535
000010 c0 06 5c 3d 93 4d a6 bc e2 02 12 be 33 74 32 ba
       0.053717375 -0.020300662 -0.14258912 -0.0006807476
000020 43 21 1e 3e 38 23 2d 3e 75 cc d2 bd 75 dc 65 bd
       0.15442376 0.16907966 -0.10292903 -0.056118447
000030 61 de 43 be 26 48 21 bc 8f a2 28 3e ad 96 7f bd
       -0.191278 -0.009843862 0.16468261 -0.062399555
000040 6d f1 a4 bc 90 55 92 bd b1 03 d4 bd a0 ae d2 bc
       -0.020134652 -0.07145226 -0.103522666 -0.025718033
000050 37 2e 06 bc a6 e2 ae bd 67 1d e9 bc 85 3d 52 3d
       -0.008189729 -0.085393235 -0.028456403 0.0513282
000060 0c 88 5c bd 0e a7 79 be 42 49 22 be 0f 1c 4a b9
       -0.053840682 -0.24380133 -0.15848258 -0.00019274674
000070 d0 5f ab be 51 ad a1 bc f7 7d 93 3d f3 3f 10 3e
       -0.33471537 -0.019735964 0.0720176 0.14086895
000080 22 de 2d bd 9b 2e b2 3d 8c 93 32 3d a5 e2 b3 bd
       -0.04244817 0.087002955 0.043597743 -0.087834634
000090 f6 52 07 be 9c e5 6e bd e5 4d 3d bb 2a 1d e4 3b
       -0.13215241 -0.05832444 -0.002888554 0.0069614844
0000a0 89 c0 c3 bd c2 e1 d8 bd ef d1 db 3c 89 81 2e bd
       -0.095582075 -0.10589935 0.026833503 -0.042604003
0000b0 63 68 70 be b2 10 be 3d 7c 22 26 bc 9a ec d4 3d
       -0.2347732 0.09280528 -0.010140058 0.10396691
0000c0 2c 7e 25 3e 9e e3 09 be 61 3d 0e bc 4c 38 84 3d
       0.16161412 -0.13465735 -0.008681626 0.0645605
0000d0 35 20 8a bd 7e 45 1e 3e 6d 1c f3 3d ff cf 3b bc
       -0.06744424 0.15456197 0.11870656 -0.011463164
0000e0 a6 74 36 3a 5b 10 c9 bc 2c 96 94 bd 19 9d 8e bd
       0.0006960131 -0.024543932 -0.072552055 -0.06963558
0000f0 02 eb 1f bd 5d 4d 0e 3e 78 05 98 3d 5a 3a 04 3e
       -0.03904248 0.13896699 0.07422918 0.12912884
000100 e7 d1 a0 bd d0 98 72 3d ef 2e db bb d1 25 14 3e
       -0.07852536 0.059227765 -0.0066889445 0.14467551
000110 e4 22 1a 3e 27 2d 11 3b bf c1 ee bd a2 41 99 ba
       0.15052372 0.0022152157 -0.11658048 -0.0011692534
000120 bb 6d e5 bd fc d3 4f bd af e5 a7 3d 25 71 60 3d
       -0.1120257 -0.050739273 0.081981055 0.054795403
000130 ce db 2d 3d 23 4c 80 bd 89 9e ca 3c ec 42 d2 3c
       0.04244595 -0.06264522 0.024733799 0.025666676
000140 27 c3 23 3e 5d ba 24 3e f7 e7 7b bd 81 76 c4 bc
       0.15992413 0.16086717 -0.061500516 -0.023982288
000150 8e 82 f0 3d fe 78 2a 3e 00 03 13 3e 3e 46 f1 3c
       0.11743651 0.16647717 0.14356613 0.02945244
000160 5e e9 1d 3e 70 7e 36 3c 6c ca 97 bc 0f 8d 53 bd
       0.15421054 0.0111385435 -0.01852914 -0.051648196
000170 2d 1d 07 3e 33 79 57 3e 9d 8d a1 bc f5 27 f8 3c
       0.13194723 0.21042328 -0.019720847 0.03029249
000180 03 c5 f3 bd 9d 63 d7 bd 2b fe 07 be 85 07 02 bd
       -0.119028114 -0.105170466 -0.13280551 -0.031745452
000190 b7 ca 40 3c 1f 5c 2e be 8b de d4 bc 26 3b 29 be
       0.011767081 -0.17027329 -0.025985023 -0.1652647
0001a0 84 bf de bc c7 80 07 be 7d e7 a3 bd f5 e8 4a 3c
       -0.027190931 -0.13232718 -0.08003137 0.012384643
0001b0 0e 07 5f bc 7e af 9c bc bb a7 ec bd 12 2a 6f bc
       -0.013612522 -0.01912665 -0.115554295 -0.014597433
0001c0 fd b0 75 bd dc a3 fc 3b 07 06 04 be cc 9c 3e bd
       -0.059983242 0.0077099632 -0.12892924 -0.046536252
0001d0 72 17 0b be 38 e6 b5 3d 64 da 64 bc e2 9b cc 3d
       -0.13583162 0.08881801 -0.013968084 0.0999067
0001e0 2c 9a 26 3d 31 23 86 bc e2 6f 9a bd 41 6f 1b be
       0.040674374 -0.016374202 -0.07540871 -0.15179159
0001f0 98 60 0c bd 17 2f a2 3d 38 15 e0 bd fa ef be 3c
       -0.034271806 0.07919138 -0.10941547 0.02330779
000200 b8 8d a7 3c c9 dc 12 be 93 1e 2b bd 93 c4 2e 3b
       0.020453319 -0.14342035 -0.041777205 0.002666746
000210 ff 62 7e 3d 70 31 35 3c d5 a9 7f 3c 2c c3 94 3d
       0.06210613 0.01105915 0.015604456 0.072637886
000220 88 cf b7 3c 12 d3 c8 3c 68 5d 06 3e 14 38 4d bd
       0.022437826 0.024514709 0.13121569 -0.05010231
000230 0e c6 2b 3d 0a c8 e2 3c 8b f0 79 bd ad 85 ab bd
       0.041936927 0.027683277 -0.061020415 -0.08375106
000240 1b cf 5d bd ef 18 f0 bc a4 e8 a8 bd 0e 71 15 bd
       -0.05415259 -0.029308764 -0.08247498 -0.03648477
000250 f2 79 6e 3c 0c 58 0f be 8b 3f f9 bd b9 22 ff 3c
       0.014555441 -0.13998431 -0.12170323 0.031144487
000260 e7 5f e4 3d ad a8 eb bc 58 3b d4 3c a3 ec de 3d
       0.111511044 -0.028766954 0.025907204 0.108849786
000270 1a c3 dc bd 8a f1 d2 bd 8a 0f ac bd 60 61 af 3c
       -0.107794 -0.10299976 -0.08401401 0.021408737
000280 2d 44 0d be be a0 80 3d 35 9a f8 bc 39 4b a8 3d
       -0.13795538 0.06280659 -0.03034697 0.082174726
000290 b8 0e ae bc fe a7 d6 3d 30 47 33 3d 73 09 c1 bc
       -0.021247253 0.10481261 0.04376906 -0.023564076
0002a0 38 57 39 3c 69 fc a0 bd 26 3a a8 3b 8a 50 86 3d
       0.0113122985 -0.078606434 0.005133885 0.0655833
0002b0 bf 3a 34 3d e7 14 e0 3d fd 81 f7 3d 25 20 ac 3d
       0.044001337 0.10941487 0.1208534 0.084045686
0002c0 21 27 af 3d 02 94 43 bd dd db a8 bd f0 53 37 3e
       0.08552385 -0.047748573 -0.082450606 0.17903113
0002d0 76 27 d5 3b c0 54 a1 3d 18 21 fb bd e4 b4 d7 bc
       0.0065049483 0.07877493 -0.122621715 -0.026331373
0002e0 d7 1e 8d 3d e6 f5 43 3e db 2e 84 3d 67 5b c3 3d
       0.06890648 0.19136772 0.064542495 0.09538918
0002f0 79 5b 0f be 74 3c bf bd 02 a6 8b bd db a4 a0 bd
       -0.13999738 -0.093377024 -0.06818773 -0.07843944
000300 c4 47 46 3d 30 73 9f bd 83 80 ce bc b7 3d 13 be
       0.048408285 -0.07785642 -0.025207764 -0.14379011
000310 44 9a 04 3d c9 f7 0e 3c 5d b5 0e be 5d 4b 24 3d
       0.03237368 0.008726069 -0.13936372 0.040110935
000320 48 51 ba 3c 60 bb 29 be bd 51 82 3c b8 d7 2f 3e
       0.022743836 -0.16575384 0.015908116 0.17172134
000330 3c 97 a4 bc 03 ea 4a be 78 00 1a 3e e3 4c b5 3d
       -0.020091645 -0.19815831 0.15039241 0.088525556
000340 35 ec 14 3e 41 93 74 bd 56 c2 8a 3b fa d7 b2 3c
       0.14543231 -0.059710745 0.0042345924 0.021831501
000350 57 af 2e be 50 80 d2 bd e4 0b a1 3d 86 a9 3a 3e
       -0.17059074 -0.1027838 0.07863596 0.1822873
000360 24 88 5d bd 25 ec 69 3c d5 c5 a0 bd c3 bd aa 3d
       -0.054084912 0.014277493 -0.078502335 0.083369754
000370 94 94 c3 3c 87 38 8e 3c 26 49 e5 3b 22 ee 1e 3c
       0.023874559 0.017360939 0.0069972454 0.00970033
000380 68 03 9e 3d 94 d2 29 be a5 9c ac 3d 5b ce a5 bd
       0.077154934 -0.16584235 0.08428315 -0.08096
000390 0e d1 ad 3d d2 4d af 3d 70 a9 00 3d 3d 5d 90 bd
       0.0848714 0.08559765 0.03141159 -0.07049034
0003a0 e7 46 36 bd 89 9f 10 bb 82 c0 1d bd 33 19 f8 3d
       -0.04450121 -0.0022067747 -0.038513668 0.12114181
0003b0 e0 46 04 3e da 05 d4 3d 09 95 fb 3c 0f 7f 6f 3d
       0.12917662 0.103526786 0.030710714 0.058470782
0003c0 0a 72 ff 3c ce ce d3 3d ca 8c 20 3d b2 33 0f 3e
       0.031182308 0.10342179 0.039196767 0.13984564
0003d0 3e 56 06 bc e6 26 6d bd 0e 25 24 be 55 08 28 bb
       -0.008199273 -0.057898425 -0.1602976 -0.0025639732
0003e0 75 7b 3f 3d 9a f4 6f 3d b6 2c 42 3d 8c 25 25 3d
       0.046748597 0.05858288 0.04740592 0.04031901
0003f0 68 3b 5f be 77 ca 13 3e 31 4b 66 bd 05 67 12 bd
       -0.21800005 0.14432703 -0.056224052 -0.03574278

network_body._body_endoder.seq_layers.2.bias f4 [128]
000000 00 00 00 00 00 00 00 00 00 00 00 00 00 00 00 00
       0.0 0.0 0.0 0.0
000010 00 00 00 00 00 00 00 00 00 00 00 00 00 00 00 00
       0.0 0.0 0.0 0.0
000020 00 00 00 00 00 00 00 00 00 00 00 00 00 00 00 00
       0.0 0.0 0.0 0.0
000030 00 00 00 00 00 00 00 00 00 00 00 00 00 00 00 00
       0.0 0.0 0.0 0.0
000040 00 00 00 00 00 00 00 00 00 00 00 00 00 00 00 00
       0.0 0.0 0.0 0.0
000050 00 00 00 00 00 00 00 00 00 00 00 00 00 00 00 00
       0.0 0.0 0.0 0.0
000060 00 00 00 00 00 00 00 00 00 00 00 00 00 00 00 00
       0.0 0.0 0.0 0.0
000070 00 00 00 00 00 00 00 00 00 00 00 00 00 00 00 00
       0.0 0.0 0.0 0.0
000080 00 00 00 00 00 00 00 00 00 00 00 00 00 00 00 00
       0.0 0.0 0.0 0.0
000090 00 00 00 00 00 00 00 00 00 00 00 00 00 00 00 00
       0.0 0.0 0.0 0.0
0000a0 00 00 00 00 00 00 00 00 00 00 00 00 00 00 00 00
       0.0 0.0 0.0 0.0
0000b0 00 00 00 00 00 00 00 00 00 00 00 00 00 00 00 00
       0.0 0.0 0.0 0.0
0000c0 00 00 00 00 00 00 00 00 00 00 00 00 00 00 00 00
       0.0 0.0 0.0 0.0
0000d0 00 00 00 00 00 00 00 00 00 00 00 00 00 00 00 00
       0.0 0.0 0.0 0.0
0000e0 00 00 00 00 00 00 00 00 00 00 00 00 00 00 00 00
       0.0 0.0 0.0 0.0
0000f0 00 00 00 00 00 00 00 00 00 00 00 00 00 00 00 00
       0.0 0.0 0.0 0.0
000100 00 00 00 00 00 00 00 00 00 00 00 00 00 00 00 00
       0.0 0.0 0.0 0.0
000110 00 00 00 00 00 00 00 00 00 00 00 00 00 00 00 00
       0.0 0.0 0.0 0.0
000120 00 00 00 00 00 00 00 00 00 00 00 00 00 00 00 00
       0.0 0.0 0.0 0.0
000130 00 00 00 00 00 00 00 00 00 00 00 00 00 00 00 00
       0.0 0.0 0.0 0.0
000140 00 00 00 00 00 00 00 00 00 00 00 00 00 00 00 00
       0.0 0.0 0.0 0.0
000150 00 00 00 00 00 00 00 00 00 00 00 00 00 00 00 00
       0.0 0.0 0.0 0.0
000160 00 00 00 00 00 00 00 00 00 00 00 00 00 00 00 00
       0.0 0.0 0.0 0.0
000170 00 00 00 00 00 00 00 00 00 00 00 00 00 00 00 00
       0.0 0.0 0.0 0.0
000180 00 00 00 00 00 00 00 00 00 00 00 00 00 00 00 00
       0.0 0.0 0.0 0.0
000190 00 00 00 00 00 00 00 00 00 00 00 00 00 00 00 00
       0.0 0.0 0.0 0.0
0001a0 00 00 00 00 00 00 00 00 00 00 00 00 00 00 00 00
       0.0 0.0 0.0 0.0
0001b0 00 00 00 00 00 00 00 00 00 00 00 00 00 00 00 00
       0.0 0.0 0.0 0.0
0001c0 00 00 00 00 00 00 00 00 00 00 00 00 00 00 00 00
       0.0 0.0 0.0 0.0
0001d0 00 00 00 00 00 00 00 00 00 00 00 00 00 00 00 00
       0.0 0.0 0.0 0.0
0001e0 00 00 00 00 00 00 00 00 00 00 00 00 00 00 00 00
       0.0 0.0 0.0 0.0
0001f0 00 00 00 00 00 00 00 00 00 00 00 00 00 00 00 00
       0.0 0.0 0.0 0.0

action_model._discrete_distribution.branches.0.weight f4 [3, 128]
000000 d5 75 ae bc 7f 25 dd ba 27 6d 6d bb a0 0a 68 3b
       -0.021296421 -0.0016872137 -0.003622839 0.0035406724
000010 c3 e1 8e bc 37 d1 d5 b9 56 80 25 3b de f6 a1 3b
       -0.017441636 -0.00040782403 0.0025253496 0.004942759
000020 91 8b 88 bb 7f 7c 47 3a 85 22 87 3c 7e 5b c6 bb
       -0.0041670282 0.0007609799 0.016495952 -0.006053387
000030 80 71 e3 3b 8b 78 d1 ba 94 d1 a5 3b 65 7d f5 bb
       0.0069410205 -0.0015981359 0.005060384 -0.007491755
000040 ee 48 16 3c 9d 30 67 3a af 30 ba bb 3f 09 69 3b
       0.009172661 0.00088191946 -0.005682073 0.003555849
000050 05 33 03 3b 3c cd ad bb 6b ba ce bb ff cd 1b bc
       0.0020019424 -0.005304007 -0.006308844 -0.0095095625
000060 57 d7 6b bb 89 d3 2c bc aa 69 70 3c b3 4e 0d 3c
       -0.0035986507 -0.010548481 0.01467363 0.00862472
000070 ff 7e b9 bb 5f 31 91 bc 4a c2 73 3c 17 54 9e 3b
       -0.005660891 -0.017723737 0.014877865 0.0048318016
000080 5f 9b 31 3b 4d 38 60 3b 0b 3e 95 3b 74 7c 87 3a
       0.0027100665 0.0034213245 0.0045545152 0.0010336773
000090 00 b5 86 3b 03 8f 18 bc 96 16 48 3c 35 57 df bb
       0.0041109324 -0.00931144 0.012212416 -0.006815816
0000a0 d9 2e 43 bc c7 0a 95 bb 2d 13 75 39 c5 27 e3 3a
       -0.011913025 -0.004548404 0.00023372164 0.0017330578
0000b0 9f 72 00 3c 97 49 b7 bb b5 b5 03 3c aa d3 fe 3b
       0.007839828 -0.0055934894 0.008038928 0.007776697
0000c0 a3 69 ee 3b 43 02 b3 3b 5f 3e 7c bb 25 6c 25 3c
       0.0072757765 0.005462916 -0.0038489325 0.010096584
0000d0 b1 a4 93 bc 57 1b 2e 3b db 17 1f 3c 0c 4e af bb
       -0.018022867 0.0026566589 0.009710277 -0.00534988
0000e0 c7 22 90 3a 4d d4 86 ba eb 25 49 3c 63 b2 7a 3c
       0.0010996693 -0.0010286659 0.012277107 0.01530132
0000f0 b4 71 06 3c 97 07 0e bc 20 20 86 bb 02 8e ec 3b
       0.00820582 -0.008668802 -0.004093185 0.007219077
000100 b8 f6 03 bc 88 d2 59 3c 5d 29 a3 3a 21 83 bc bb
       -0.008054428 0.0132948235 0.001244824 -0.0057529365
000110 3c 5d 17 bc d8 db 4e bb 99 b6 2a 3a 15 d5 b7 3b
       -0.009238537 -0.0031564143 0.00065121945 0.005610118
000120 da 29 5d 39 4e 71 c3 bb dc 4e 1c 3c 03 9c 66 3c
       0.00021091793 -0.0059644347 0.009540286 0.014075282
000130 0b 0a f6 3b d2 7c 23 bb ac 2f 3a 3b b0 10 e8 39
       0.0075085214 -0.0024946225 0.0028409762 0.0004426292
000140 1a 24 69 bc 86 af 48 3c 53 f6 72 bb 03 f3 1b bc
       -0.014229799 0.012248879 -0.003707309 -0.009518388
000150 ed e9 7d 3a 1e ca a5 bc c5 19 6b bc c3 e3 63 bb
       0.0009686042 -0.020237979 -0.014349406 -0.0034773208
000160 df 2c a4 bb a8 ec 5b 3c 83 43 11 3c 0c 5f 28 3b
       -0.005010232 0.013423122 0.008866194 0.0025691418
000170 3e 3c 3c 3c a8 28 01 bb a7 d5 09 3b b9 0e 8f b9
       0.011488972 -0.001970807 0.0021031888 -0.00027286055
000180 9a c2 c4 3b d7 6d 3b 3c 9f 70 4f 3c db 88 26 ba
       0.0060046436 0.011439762 0.012661128 -0.00063527905
000190 b9 93 98 bb 68 3f e1 3a 28 74 67 3b 17 09 4f bc
       -0.004656282 0.0017185034 0.0035317037 -0.0126364445
0001a0 43 70 c6 3b 5d f1 a3 bc 30 f0 33 bb 0b 6d 6f ba
       0.006055863 -0.020012552 -0.0027456395 -0.0009133375
0001b0 13 a2 a8 bb 19 2b c2 bc 3f 1c 20 3b 1e e4 af 39
       -0.005146274 -0.023702191 0.0024430898 0.00033548562
0001c0 c4 11 14 3c 33 01 93 bb af c0 28 bb f2 f5 10 3b
       0.009037439 -0.004486227 -0.0025749614 0.002211925
0001d0 8b f0 8a bc 7c 5d 2a bc 49 0c a2 3b 20 9d eb 3a
       -0.016960403 -0.010398265 0.004945312 0.0017975904
0001e0 ec f4 16 bb 83 b2 82 3b 53 c8 67 bb 3c f0 a4 3b
       -0.0023034168 0.0039885654 -0.0035367205 0.005033521
0001f0 1f 1b c8 3b 37 83 95 bc 67 c8 eb 3a 60 b3 1b 3c
       0.0061067487 -0.018251045 0.0017988802 0.009503216
000200 83 ef 0c 3c c4 01 00 bc 97 a8 cc 3b 1e 46 ad bb
       0.008602026 -0.007812921 0.0062456834 -0.0052878996
000210 a2 58 95 ba 82 f6 5e 3c 58 eb d9 3b c6 15 18 bb
       -0.0011394212 0.013608577 0.0066503696 -0.0023206337
000220 7f 38 8e bc 2a da 6f bb 9d 77 a5 bc 1a 81 1a 3c
       -0.017360924 -0.0036598542 -0.020198638 0.009430194
000230 78 77 d2 3b f3 3b 94 bb 73 bd d3 ba f3 ca fb 3b
       0.006422933 -0.004523748 -0.0016154483 0.0076841055
000240 af 65 f6 bb bf 69 49 ba 7d b3 64 ba 42 e6 1b bc
       -0.007519446 -0.0007683299 -0.00087242556 -0.009515347
000250 f0 14 ec 3b a3 e5 23 bc 19 7d ad ba 2d 1a 81 3c
       0.0072046444 -0.01000348 -0.0013236135 0.015759552
000260 4b 80 75 3b a2 5d 99 3a 57 78 f0 bb a9 9f 27 3c
       0.0037460502 0.0011700878 -0.0073385644 0.010230937
000270 69 3a a2 3a 52 bb 18 bc fa d0 cf 3b 45 a8 4d 3b
       0.0012377027 -0.009322004 0.0063420506 0.0031380814
000280 a8 68 0e 3c cf 21 3d 3c e9 10 2a 3a b8 ae fa bb
       0.008691944 0.011543705 0.0006487505 -0.0076502226
000290 79 d5 b3 3a 4f 7f 9f 3c d5 13 c9 bb fe cc 1a 3c
       0.0013720236 0.019469885 -0.0061363974 0.009448288
0002a0 c8 12 c4 3b 00 ed a4 bb fa 9b 51 3c bb b5 13 bb
       0.005983684 -0.0050331354 0.012793535 -0.002253874
0002b0 8a 82 44 bc 80 6e 12 3b 2b cc 26 3b a5 52 5c bc
       -0.011994014 0.0022343695 0.0025451283 -0.013447438
0002c0 22 dc 6f 3a 49 79 8f bb f3 44 bc 3b 4f 36 68 3b
       0.0009149929 -0.004378472 0.005745524 0.003543276
0002d0 5b 50 82 bb 4a cd f0 3b e7 0d 06 bc 43 6a 90 bb
       -0.0039768643 0.007348691 -0.0081820255 -0.0044071986
0002e0 35 e9 72 3c f2 18 ba bb 63 04 c3 ba 8b 23 06 bc
       0.014826109 -0.0056792432 -0.0014878627 -0.008187185
0002f0 93 e2 cc b8 00 c9 05 3c 4b be 06 3a d3 13 63 3c
       -9.769681e-05 0.008165598 0.000514005 0.013859707
000300 e7 a4 58 3b 88 83 69 bc 9d 12 0a bc 2f 61 af bb
       0.0033057274 -0.014252551 -0.008427289 -0.0053521614
000310 7f 84 7d 3b 70 e6 3f bc 57 1b d2 3a fd 92 9b bc
       0.003868371 -0.011712655 0.0016029876 -0.018990988
000320 22 0c a3 3b 12 02 5a ba 28 77 fb 38 88 87 f3 bb
       0.0049758116 -0.00083163485 0.00011990807 -0.007431928
000330 f8 94 a4 3c 20 17 c1 37 97 53 58 3b 15 7c 6c 3b
       0.020090565 2.3018161e-05 0.0033008808 0.00360847
000340 4a 3c 48 bc 1b 41 b2 bc bf b3 0a bc e2 9b 36 3c
       -0.012221405 -0.02175956 -0.008465706 0.011145564
000350 a3 4f 8a bb 83 1b 56 bc 67 d4 11 3b fb 98 a5 3b
       -0.004220919 -0.013068083 0.0022251846 0.005053637
000360 1b 2b ba 3b 14 2d c3 bb 85 c3 16 bc ff 93 e9 3b
       0.005681408 -0.0059563015 -0.009201889 0.007128238
000370 12 6c af 3c 2a 9a b8 3b 01 e6 3f 3c 4a 54 b9 3b
       0.021413837 0.005633612 0.011712552 0.0056558
000380 a2 e5 5c 3b 61 36 39 bc 11 15 a5 ba 8b 07 44 3c
       0.0033706208 -0.011304469 -0.0012594779 0.011964689
000390 cd 11 bf 3b f6 5a a0 3b 17 04 38 3c 20 4a 95 3b
       0.0058309794 0.004893656 0.011231444 0.0045559555
0003a0 74 35 ad 3c 27 12 53 3a e6 9f 2e bc 07 e8 9e 3b
       0.021143652 0.0008051716 -0.01065824 0.004849437
0003b0 37 3b 37 bc 13 90 c1 bb da 03 0a 3c 2f 98 72 3c
       -0.0111835515 -0.0059070676 0.00842377 0.014806791
0003c0 32 48 50 3a 00 91 bf b9 85 04 5c bc d3 45 cc 3b
       0.0007945328 -0.00036538392 -0.013428812 0.0062339096
0003d0 af ff b2 b8 af 9c fb ba 87 50 2e 3a fe 65 c0 3a
       -8.535326e-05 -0.0019196476 0.0006649573 0.0014678834
0003e0 dd 21 da bb 8a c1 c1 bb 75 b5 6b bc 26 35 0b 3c
       -0.006656869 -0.005912964 -0.014386524 0.008496558
0003f0 b5 b8 64 3b 35 da b3 3c 80 37 d7 3b d2 0a c0 3b
       0.0034900133 0.021954635 0.0065678954 0.005860665

action_model._discrete_distribution.branches.0.bias f4 [3]
000000 00 00 00 00 00 00 00 00 00 00 00 00
       0.0 0.0 0.0

action_model._discrete_distribution.branches.1.weight f4 [2, 128]
000000 09 d3 85 bc d4 fd 46 bc 98 f8 bf bc 76 4c 25 3c
       -0.016335981 -0.012145478 -0.023433968 0.0100890305
000010 a2 f4 78 3c 9f 9e 15 ba c3 80 0c bc 8e 67 9c 3c
       0.015195044 -0.00057075353 -0.008575621 0.019092347
000020 7a ac 79 3a af 0a bb 3a e5 83 d4 ba fc 81 c3 39
       0.0009524297 0.0014270152 -0.0016213624 0.00037290144
000030 62 ef 59 ba 06 da 8e 3b 13 9b ab 3c ce 8a a1 b8
       -0.0008313564 0.0043594865 0.020947969 -7.7029326e-05
000040 66 7a c7 3b e8 cb e2 3b 4f 05 64 bb fb 8d 9a ba
       0.006087589 0.00692128 -0.0034793203 -0.0011791581
000050 62 1e 48 3b 20 13 e5 3b 78 55 a1 3b 7f 28 82 bc
       0.0030535688 0.0069908053 0.0049235187 -0.01588845
000060 41 50 89 bc c3 55 c4 3b 00 47 cf 3b 18 b5 09 3c
       -0.0167619 0.005991669 0.0063256025 0.0084049925
000070 ff 31 00 3c 8f b4 81 bc 53 7d ed 3b 06 d5 18 bc
       0.00782442 -0.015833167 0.007247606 -0.0093281325
000080 b1 be 1e 3a 64 b3 c7 bb 97 06 45 3c 6f 4b ad b9
       0.0006055637 -0.006094383 0.012025497 -0.00033053334
000090 5f c0 b5 3b b5 a1 41 bb 3d da 6b 3b 37 79 dd 3a
       0.005546614 -0.0029545848 0.0035988234 0.0016897087
0000a0 23 be 06 3c 1d 0c 51 bb 30 b3 53 bb cd 38 6b 3b
       0.008224043 -0.003189809 -0.003230285 0.003589201
0000b0 e2 21 70 3c 1a e2 78 3c fd 8a 6a bc 9b 0e 93 3b
       0.014656516 0.015190626 -0.014315364 0.004487825
0000c0 cb 8c 47 3a 82 fa 81 bb b3 4f 45 bb 28 80 2b 3c
       0.00076122273 -0.0039666304 -0.003010732 0.010467567
0000d0 5b 9a 44 3c b8 6a b6 ba d9 65 98 bb a3 1c 43 bb
       0.011999692 -0.0013917303 -0.004650813 -0.0029771707
0000e0 6f 96 44 3b 25 e1 ba 3b 7c f4 81 3b ab cd ac 3b
       0.0029996892 0.005703109 0.0039659124 0.005273541
0000f0 d4 9f b6 bb de 2e 83 bc 0d 9a 1c ba 4b 23 55 3b
       -0.005573252 -0.016013559 -0.0005973883 0.0032522257
000100 ab da 80 3c 9f c0 08 b8 14 89 99 3c 95 e1 38 bc
       0.015729269 -3.260432e-05 0.018742122 -0.011284252
000110 7e f7 04 3c a8 b9 1e 3c 13 a4 ad 3b cd 89 c2 bb
       0.008115647 0.009687819 0.0052991 -0.0059368373
000120 b2 d6 d2 bb 49 7d 95 3b 44 d6 26 bb 3f 9f 15 3c
       -0.006434285 0.0045620543 -0.0025457302 0.0091322055
000130 78 7e 15 bc 24 d6 ac 38 5f 8c 1c bb 37 a9 f9 bb
       -0.009124391 8.241486e-05 -0.0023887379 -0.007619049
000140 70 0e 81 bb b8 3f 2c 3c 73 74 a0 bb 30 51 d7 bb
       -0.0039384887 0.010513239 -0.0048966943 -0.0065709576
000150 4e e1 17 3c 4d ca 8c bb 34 af a0 3b db d0 53 3b
       0.009270025 -0.004296577 0.0049036983 0.0032320532
000160 82 2c 58 3c 4f 68 9d 3c 4b ec c8 3a f6 d9 a8 3c
       0.013194205 0.019214777 0.001532921 0.020611744
000170 e5 0e d8 3b 06 17 2e 3b 2f 3a 5e 3b 58 72 3e 3c
       0.0065935724 0.0026564016 0.0033909192 0.011623941
000180 10 8e 52 3a b5 b4 d7 bb a8 9c 1c bc 29 4e 85 3b
       0.0008032033 -0.0065828213 -0.009558834 0.0040681553
000190 ae 8f 17 bc 1f b8 a8 3b 8b 53 2e 3c 33 85 5c 3b
       -0.0092505645 0.005148902 0.010640035 0.003364873
0001a0 03 b7 f9 3b 20 19 77 3b 5c 9b 41 bb a0 94 f9 bb
       0.0076206937 0.0037704185 -0.0029542064 -0.0076165944
0001b0 f1 f4 4b bb 0f 0c 3f bc 4f fd a9 bc a7 39 a5 b9
       -0.0031121338 -0.01166059 -0.02075067 -0.00031514207
0001c0 a6 ef 44 3c 9a c3 e0 bb a8 b4 6d 3c ed 1f 17 3b
       0.012020027 -0.006859255 0.014508404 0.00230598
0001d0 45 b2 de b9 4b 22 20 bc 10 a1 5a bc 28 92 96 3c
       -0.0004247596 -0.009773801 -0.013344064 0.01838024
0001e0 32 e9 60 3c d4 a5 45 bc 70 7d 0e bb 85 65 ab 3a
       0.013727473 -0.012063462 -0.0021742247 0.001307652
0001f0 15 bb 40 3c df a3 7f 3c d3 ac 02 3c 3e 74 18 3b
       0.011763354 0.015603035 0.007975775 0.0023262645
000200 80 d2 68 3b da 10 6c 3b b3 df f1 bb 97 b1 7e 3b
       0.0035525858 0.0036020787 -0.0073814034 0.0038863176
000210 b9 a8 43 3b e3 e8 7d bc 8b 7b b5 bb 77 02 28 bc
       0.0029855205 -0.015497419 -0.005538409 -0.010254494
000220 2b 3c d9 3a bf 86 25 bc ac 7d 9c 3c c0 16 12 3c
       0.0016573718 -0.010102927 0.019102894 0.008916557
000230 77 1f 0f bc 03 5d d0 3b 54 76 a6 bb f3 8e 8e bb
       -0.008735529 0.006358744 -0.005080024 -0.004350537
000240 af fb ab bb 5f f2 91 bb b3 a0 93 bb 02 7b 88 bb
       -0.005248509 -0.0044539417 -0.004505241 -0.0041650543
000250 d8 6a 40 3c b5 00 04 bc 90 54 9c bc f3 14 c2 bb
       0.011744224 -0.008056809 -0.019083291 -0.0059229075
000260 6b ac 38 bb f5 af f9 3b 61 d3 bd 3b a0 9e 70 3c
       -0.002817894 0.0076198527 0.0057930206 0.014686257
000270 5f 6b 0c bc cb 1b 38 3c d3 19 54 bb 26 f4 42 bc
       -0.008570521 0.011237095 -0.0032364025 -0.01189903
000280 03 a0 86 3b 1f 02 24 bc f5 1d 99 bb e9 e4 2e ba
       0.0041084304 -0.010010271 -0.0046727606 -0.00066716835
000290 2a 23 e0 bb f1 41 8f bc 73 68 af 38 42 71 1a bb
       -0.0068401294 -0.017487498 8.3641055e-05 -0.0023566042
0002a0 6a ad 04 bb 4b 6c 85 3b c3 14 88 bb 43 21 cf bb
       -0.0020244964 0.0040717474 -0.0041528656 -0.006321104
0002b0 74 d1 47 bc c5 e9 16 ba 02 6d 51 bc ef 79 80 3b
       -0.012195934 -0.000575688 -0.012782337 0.0039207856
0002c0 36 6e 17 bb 73 23 ea 38 ca d1 cf ba 27 91 00 bc
       -0.0023106462 0.000111645924 -0.0015855369 -0.007847107
0002d0 ea 46 ac 39 1a 21 8a ba 57 61 3e ba 55 29 93 3b
       0.00032859232 -0.001053843 -0.00072624296 0.004491011
0002e0 5b b0 60 bc 10 71 6c bb 48 bb 1b bc e2 13 01 3a
       -0.013713921 -0.0036078133 -0.009505101 0.0004923922
0002f0 82 67 9b bb cb 6a 9c 3c c0 a8 8a 3a 59 08 0a bc
       -0.0047425637 0.019093892 0.0010578856 -0.008424842
000300 c4 d7 81 bb 80 2e 4b 3c 23 be 08 3c 24 74 0b bb
       -0.003962489 0.012401223 0.008346113 -0.0021278942
000310 de fd 1e bb 91 f0 c1 bb f1 09 81 bc 27 cb 47 bb
       -0.0024260203 -0.0059185703 -0.01575181 -0.0030486078
000320 6b 9c 11 bc 12 5a 0f bc 7c be 3b bc 98 97 e8 ba
       -0.008887391 -0.008749502 -0.011458989 -0.0017745374
000330 af 74 dd bb c8 40 83 bc 56 bd a3 3a c2 aa bb 3b
       -0.0067582945 -0.016022101 0.001249234 0.005727143
000340 b0 76 68 3c 06 44 48 3c ca dc ff bb b8 4b e8 bb
       0.014188454 0.012223249 -0.0078083025 -0.0070891045
000350 d1 93 2e 3c 9f cd bc bb 30 fc 00 bc 18 07 7a 3b
       0.010655359 -0.0057618166 -0.007872626 0.00381512
000360 4d b8 85 ba 1f be e3 b9 af 74 41 3c f5 ac 97 ba
       -0.0010202021 -0.00043438465 0.011807605 -0.0011571931
000370 2b 2d 14 bb 83 56 59 3b 50 74 a0 ba da 5c 5c 3c
       -0.002260993 0.0033163137 -0.0012241695 0.013449872
000380 6f 8a f9 3b d4 4d c8 ba 81 f8 cb bc 10 eb 3b bc
       0.0076153795 -0.0015281984 -0.02489877 -0.0114696175
000390 5b 77 da 3b 8d 91 95 bb ee 57 2b ba 55 3a fa 3b
       0.0066670603 -0.00456447 -0.0006536235 0.0076363483
0003a0 23 26 b7 bb 55 51 a3 bc cb 07 ea ba bf be 8d bc
       -0.005589263 -0.019936243 -0.0017855106 -0.017302869
0003b0 7d 31 26 bc 99 2e 03 bc a3 fd ff 3a 14 5e c8 bb
       -0.010143635 -0.008006715 0.0019530546 -0.0061147306
0003c0 47 f5 dc 3a a2 da 77 3c 42 6a 03 bc ff f0 8e 3b
       0.0016857766 0.01512781 -0.008020939 0.004362225
0003d0 c8 a6 ac b8 17 93 9d 3b 66 ea 20 3c a7 d4 57 3c
       -8.2326645e-05 0.0048087942 0.00982151 0.013173259
0003e0 e3 70 cf bb db f7 88 bb 09 02 80 3a 61 a4 07 bc
       -0.006330596 -0.0041799373 0.0009766232 -0.008278937
0003f0 e3 a3 ee bb 84 d0 0f bb d3 8f 86 bc ff d8 10 bc
       -0.0072827204 -0.0021944353 -0.016426003 -0.008840798

action_model._discrete_distribution.branches.1.bias f4 [2]
000000 00 00 00 00 00 00 00 00
       0.0 0.0

network_body.observation_encoder.processors.0.normalizer.running_mean f4 [7]
000000 98 6a f7 3f 8d 62 62 bf 07 c4 9e be 00 00 00 00
       1.9329405 -0.88431627 -0.31008932 0.0
000010 b1 a4 08 3e e6 1b c0 bc 35 f7 7f 3f
       0.13344075 -0.023450803 0.99986583

network_body.observation_encoder.processors.0.normalizer.running_variance f4 [7]
000000 c9 93 97 40 64 ad 13 45 77 fa 4c 43 00 00 80 3f
       4.73679 2362.837 204.97838 1.0
000010 07 97 57 44 bb e8 16 46 9a fb ff 3f
       862.3598 9658.183 1.9998658

network_body.processors.0.normalizer.running_mean f4 [7]
000000 98 6a f7 3f 8d 62 62 bf 07 c4 9e be 00 00 00 00
       1.9329405 -0.88431627 -0.31008932 0.0
000010 b1 a4 08 3e e6 1b c0 bc 35 f7 7f 3f
       0.13344075 -0.023450803 0.99986583

network_body.processors.0.normalizer.running_variance f4 [7]
000000 c9 93 97 40 64 ad 13 45 77 fa 4c 43 00 00 80 3f
       4.73679 2362.837 204.97838 1.0
000010 07 97 57 44 bb e8 16 46 9a fb ff 3f
       862.3598 9658.183 1.9998658

network_body._body_endoder.seq_layers.0.weight f4 [128, 7]
000000 13 25 83 3e 77 6b a0 be 1c 98 21 3f 42 e4 75 3b
       0.25614223 -0.3133199 0.63122725 0.0037520085
000010 b7 f7 bb be 1c 0b 70 be 4e c6 8b 3e 6b 88 66 be
       -0.3671243 -0.23441738 0.27299732 -0.22512977
000020 43 89 46 be ed fe 72 3e 85 1a fc bd bb 44 6c 3e
       -0.19388299 0.23730059 -0.12309746 0.23073094
000030 05 f7 2a bf 23 ab 0a 3d ee 59 2d be 5f 12 1b be
       -0.6678317 0.033854615 -0.16928837 -0.15143727
000040 5d 99 a6 be ad 28 0a be 2b a2 92 3d 04 99 8b be
       -0.32538882 -0.13492079 0.07159837 -0.2726518
000050 99 12 ad 3d d2 ca d5 3e 2f b4 cf 3d f6 7f b7 bc
       0.08450813 0.41756302 0.10141789 -0.022399884
000060 e8 18 fa 3e e7 6a 6e bd 02 9f a3 3e ba 7b b5 3e
       0.48847127 -0.05820742 0.3195725 0.35445958
000070 11 ba fd be 3a aa f1 be da f3 84 3e eb e8 64 3e
       -0.4955602 -0.47200185 0.25967294 0.22354476
000080 50 e5 1b bf b0 8f 90 3d 38 58 49 3f 54 37 02 bf
       -0.6089678 0.07058656 0.78650236 -0.50865674
000090 de 7c bf 3e c3 9d 1d bf ef e5 1c bf f1 96 97 be
       0.37399954 -0.6156885 -0.6128835 -0.29607347
0000a0 67 1c d6 bc ca 69 68 be 43 24 d1 3e 9c 55 48 be
       -0.02613659 -0.22696605 0.40847978 -0.19563907
0000b0 5c 3d 9a bd 6a 90 23 3f 97 ed 3e be ea bf 6b be
       -0.075312346 0.63892233 -0.18645321 -0.23022428
0000c0 1f 4c ae 3e 4b e0 6a 3f 0c 0b 0d be b8 38 d8 3e
       0.3404245 0.91748494 -0.13773745 0.42230773
0000d0 df 58 f0 3e 79 91 b7 3e dc 56 4d 3d 83 08 a4 be
       0.46942803 0.35853174 0.050131664 -0.32037744
0000e0 54 13 19 be 9e 7a 35 3e c2 8f f1 3e aa 87 91 be
       -0.1494878 0.17722556 0.4717999 -0.28423816
0000f0 28 1a 86 be 53 eb d0 be 9f cf 38 3d 7b 24 d4 3e
       -0.2619183 -0.40804538 0.045119878 0.41434082
000100 c1 e1 2a bf 86 63 82 3b 8d 08 a1 3e aa 1d bf 3d
       -0.66750723 0.0039791493 0.31451836 0.0933183
000110 53 00 a1 be 56 91 a7 be e4 5b a3 be ea 72 43 be
       -0.3144556 -0.3272807 -0.31906044 -0.19086805
000120 0b 66 79 3e af 8b 0e 3d 11 41 bd be 8d 07 82 bf
       0.24355333 0.03480118 -0.36963704 -1.0158554
000130 a0 c7 e1 be 79 6c 37 3f fb 04 01 3f 6b be 73 be
       -0.44097614 0.7164989 0.50398225 -0.23803107
000140 56 51 2b bd e9 e9 3e 3e 98 11 19 bf 85 45 2e 3d
       -0.041825615 0.18643917 -0.5979247 0.042546768
000150 25 c5 82 3c 62 bd 04 3f b2 14 e4 bf 66 04 ae be
       0.015963146 0.51851475 -1.7818816 -0.3398773
000160 5c 8b 6e 3d a3 d8 bc 3e 75 bf 06 bf eb db 99 3e
       0.058238372 0.3688403 -0.5263589 0.30050597
000170 b3 bf 36 3f 00 a6 60 be 38 a7 24 3c f6 59 14 bf
       0.7138626 -0.21938324 0.010049634 -0.5794977
000180 98 ed 6f be b8 92 38 3d 53 01 0d bf b8 a0 45 3c
       -0.23430479 0.045061797 -0.55080146 0.012062244
000190 d6 30 5a 3a d1 74 15 3c b9 a6 19 3e 9a 14 1d 3e
       0.0008323317 0.0091220895 0.15005006 0.1533989
0001a0 f8 9e 50 3e fd 68 a8 bc 74 e8 a2 3b 5f e2 21 3f
       0.20373142 -0.020557875 0.004971558 0.6323604
0001b0 53 03 4f bd 23 72 82 be 70 cf c4 be 20 ff 93 be
       -0.05054028 -0.25477704 -0.38439512 -0.28905582
0001c0 d2 34 64 be f8 97 c1 3e 52 b1 5a 3e d2 11 01 bf
       -0.22285774 0.37811255 0.21356705 -0.50417817
0001d0 ac a6 98 3e eb 05 8c bd a9 5e ed 3c 1e bf b5 3e
       0.2981466 -0.06837066 0.028975802 0.35497373
0001e0 9d 5d 89 be ce b7 38 be 49 2d 8c bd d7 b0 2b 3f
       -0.26829234 -0.18038866 -0.06844575 0.6706671
0001f0 2b c5 cd 3e a3 c0 c0 bd d0 ae 33 be c1 ba 94 3e
       0.4018949 -0.094117425 -0.17547154 0.29048732
000200 45 1c 0f bf 20 ab a1 3c b9 06 fe bd 0d 3d bf bd
       -0.5590251 0.01973492 -0.12403626 -0.093378164
000210 73 04 1b 3e 1e c6 cb 3d a8 dc 01 bc fe 35 28 be
       0.15138416 0.09949897 -0.007926144 -0.16426846
000220 52 49 d7 be 17 5e a5 3d 74 b7 8d 3e e6 fb e7 3e
       -0.42048126 0.08074587 0.27679026 0.4530937
000230 ca fe b0 3d 05 6d 4c bc 96 6a 80 3e ff ab 13 bd
       0.08642347 -0.012477164 0.2508132 -0.0360527
000240 00 ff 31 bf 17 52 ef 3e ad 1b d7 be 94 59 c1 3e
       -0.69529724 0.46742317 -0.42013302 0.37763655
000250 51 1d 56 3e a9 32 5c 3d 2e e0 4b 3e a5 40 21 bf
       0.20909621 0.05375925 0.19909737 -0.62989265
000260 fa 3d 0f 3f 92 b6 33 3e 13 8c 66 3e 42 c0 b4 be
       0.55953944 0.17550114 0.22514372 -0.3530293
000270 94 e7 cd 3e c0 95 a0 3d ae 4d b6 3e 32 20 00 3f
       0.40215743 0.078410625 0.3560614 0.50049126
000280 1f e1 9a 37 a4 2b ea bd 96 c9 2f 3e b3 b0 30 3f
       1.846306e-05 -0.11434105 0.17166743 0.6901962
000290 99 e4 88 bd 06 65 c5 be b1 e2 12 bf 88 0d db 3e
       -0.066842265 -0.38553637 -0.57377154 0.4278376
0002a0 4d a2 dd 3e 3a 15 10 3e 2a 44 aa 3e 33 a9 c8 3e
       0.43287888 0.14070597 0.3325513 0.3919159
0002b0 c6 87 cc be 07 4d db 3e cb 6b 9d 3e 9f fa 7a be
       -0.39947337 0.42832205 0.30746302 -0.24509667
0002c0 bf d4 50 bd 90 64 33 bf 1e 6d 87 3e f4 8a c5 3d
       -0.05098414 -0.7007532 0.26450437 0.09645644
0002d0 0e 77 a8 be 03 1c c6 be 3f 46 be 3e 15 2e 1b bf
       -0.32903332 -0.38693246 0.3716297 -0.6061719
0002e0 32 da b9 3d ce de 03 3f 42 60 c1 3d 94 eb 86 3e
       0.090748206 0.5151185 0.09442188 0.26351607
0002f0 69 c7 c7 3b 59 fe 1e 3e 92 45 44 be 32 51 11 3f
       0.0060967696 0.15526713 -0.19167164 0.5676452
000300 88 69 2c bf 59 71 e4 3d 14 a4 d7 bd df 30 2a be
       -0.6734853 0.11154432 -0.10529342 -0.16620205
000310 dc 30 a0 be 44 cb a9 3d f2 e2 5f 3e 2a 50 8a be
       -0.31287277 0.08290723 0.21863917 -0.27014285
000320 49 a3 a1 3e bf 38 7b be 25 4b cc 3e b8 19 5c 3d
       0.3156989 -0.24533366 0.3990108 0.053735465
000330 70 b4 48 be ad 42 08 3f 85 b6 0a 3f a6 69 91 3e
       -0.19600081 0.5322674 0.5418475 0.28400916
000340 aa d5 fc be e0 fe 0a 3f 8b f4 b7 be 6f 10 23 be
       -0.49381763 0.5429516 -0.3592876 -0.15924238
000350 82 90 a2 3e 62 99 33 3e 5f 8b 8e 3f e7 84 1e bc
       0.31750876 0.1753898 1.1136283 -0.009675241
000360 bf a4 89 be 55 63 17 bf 5f a0 9e 3e ca a3 d3 3d
       -0.26883504 -0.59135944 0.30981728 0.10333975
000370 7d a3 71 bc 8b 2f 5e be 27 56 26 3f 72 06 db be
       -0.014748451 -0.21697824 0.6497521 -0.42778355
000380 66 7d b4 3e 61 55 86 3e 9a 66 07 bf 57 a5 48 bf
       0.3525192 0.26237014 -0.5289093 -0.7837729
000390 ff 59 d0 3e 1c a6 b2 be de 5d 2b be 4e 59 fb be
       0.40693662 -0.34892356 -0.16735026 -0.49091572
0003a0 30 54 1c 3f fa 50 03 be 26 86 4b 3d cc 2f a7 be
       0.6106596 -0.12823859 0.04968848 -0.32653654
0003b0 4e 2e cb 3c b8 57 2f 3f 5f f3 0b be 95 3d 1c 3f
       0.024802353 0.68493223 -0.13667057 0.61031467
0003c0 2c f8 e6 be 7a d3 cf 3e 45 4f 68 bf df ed 12 3e
       -0.45111215 0.4059103 -0.90745956 0.14348553
0003d0 28 05 e5 be 9a 36 be 3d 5f bc 63 3d 0e 82 1b bc
       -0.44730496 0.09287758 0.055599567 -0.009491457
0003e0 43 cb 35 bf a9 25 12 be 07 b8 8f 3e 7d 17 44 3e
       -0.7101328 -0.14272179 0.2807009 0.19149585
0003f0 75 54 cb be 69 00 14 bf 92 85 f7 3e 49 e5 2a be
       -0.39712873 -0.57813126 0.48344094 -0.16689028

network_body._body_endoder.seq_layers.0.bias f4 [128]
000000 00 00 00 00 00 00 00 00 00 00 00 00 00 00 00 00
       0.0 0.0 0.0 0.0
000010 00 00 00 00 00 00 00 00 00 00 00 00 00 00 00 00
       0.0 0.0 0.0 0.0
000020 00 00 00 00 00 00 00 00 00 00 00 00 00 00 00 00
       0.0 0.0 0.0 0.0
000030 00 00 00 00 00 00 00 00 00 00 00 00 00 00 00 00
       0.0 0.0 0.0 0.0
000040 00 00 00 00 00 00 00 00 00 00 00 00 00 00 00 00
       0.0 0.0 0.0 0.0
000050 00 00 00 00 00 00 00 00 00 00 00 00 00 00 00 00
       0.0 0.0 0.0 0.0
000060 00 00 00 00 00 00 00 00 00 00 00 00 00 00 00 00
       0.0 0.0 0.0 0.0
000070 00 00 00 00 00 00 00 00 00 00 00 00 00 00 00 00
       0.0 0.0 0.0 0.0
000080 00 00 00 00 00 00 00 00 00 00 00 00 00 00 00 00
       0.0 0.0 0.0 0.0
000090 00 00 00 00 00 00 00 00 00 00 00 00 00 00 00 00
       0.0 0.0 0.0 0.0
0000a0 00 00 00 00 00 00 00 00 00 00 00 00 00 00 00 00
       0.0 0.0 0.0 0.0
0000b0 00 00 00 00 00 00 00 00 00 00 00 00 00 00 00 00
       0.0 0.0 0.0 0.0
0000c0 00 00 00 00 00 00 00 00 00 00 00 00 00 00 00 00
       0.0 0.0 0.0 0.0
0000d0 00 00 00 00 00 00 00 00 00 00 00 00 00 00 00 00
       0.0 0.0 0.0 0.0
0000e0 00 00 00 00 00 00 00 00 00 00 00 00 00 00 00 00
       0.0 0.0 0.0 0.0
0000f0 00 00 00 00 00 00 00 00 00 00 00 00 00 00 00 00
       0.0 0.0 0.0 0.0
000100 00 00 00 00 00 00 00 00 00 00 00 00 00 00 00 00
       0.0 0.0 0.0 0.0
000110 00 00 00 00 00 00 00 00 00 00 00 00 00 00 00 00
       0.0 0.0 0.0 0.0
000120 00 00 00 00 00 00 00 00 00 00 00 00 00 00 00 00
       0.0 0.0 0.0 0.0
000130 00 00 00 00 00 00 00 00 00 00 00 00 00 00 00 00
       0.0 0.0 0.0 0.0
000140 00 00 00 00 00 00 00 00 00 00 00 00 00 00 00 00
       0.0 0.0 0.0 0.0
000150 00 00 00 00 00 00 00 00 00 00 00 00 00 00 00 00
       0.0 0.0 0.0 0.0
000160 00 00 00 00 00 00 00 00 00 00 00 00 00 00 00 00
       0.0 0.0 0.0 0.0
000170 00 00 00 00 00 00 00 00 00 00 00 00 00 00 00 00
       0.0 0.0 0.0 0.0
000180 00 00 00 00 00 00 00 00 00 00 00 00 00 00 00 00
       0.0 0.0 0.0 0.0
000190 00 00 00 00 00 00 00 00 00 00 00 00 00 00 00 00
       0.0 0.0 0.0 0.0
0001a0 00 00 00 00 00 00 00 00 00 00 00 00 00 00 00 00
       0.0 0.0 0.0 0.0
0001b0 00 00 00 00 00 00 00 00 00 00 00 00 00 00 00 00
       0.0 0.0 0.0 0.0
0001c0 00 00 00 00 00 00 00 00 00 00 00 00 00 00 00 00
       0.0 0.0 0.0 0.0
0001d0 00 00 00 00 00 00 00 00 00 00 00 00 00 00 00 00
       0.0 0.0 0.0 0.0
0001e0 00 00 00 00 00 00 00 00 00 00 00 00 00 00 00 00
       0.0 0.0 0.0 0.0
0001f0 00 00 00 00 00 00 00 00 00 00 00 00 00 00 00 00
       0.0 0.0 0.0 0.0
