results/phase1/PlayerAgent/PlayerAgent-16000.pt (torch, 455009 bytes, 48 tensors)

discrete_act_size_vector f4 [1, 2]
00000000: 0000 4040 0000 0040
3.0 2.0

network_body.observation_encoder.processors.0.normalizer.running_mean f4 [7]
00000000: 276f f73f 453d 8fbf 6b4b b0be 0000 0000
00000010: edda 0c3e 5d08 69bd ebfb 7f3f
1.9330796 -1.1190573 -0.3443254 0.0 0.13755389 -0.05689274 0.9999377

network_body.observation_encoder.processors.0.normalizer.running_variance f4 [7]
00000000: f295 9740 7b32 1445 022b a843 0000 803f
00000010: cd67 ed44 2bca fd46 ecfd ff3f
4.737054 2371.155 336.336 1.0 1899.2438 32485.084 1.9999366

network_body.processors.0.normalizer.running_mean f4 [7]
00000000: 276f f73f 453d 8fbf 6b4b b0be 0000 0000
00000010: edda 0c3e 5d08 69bd ebfb 7f3f
1.9330796 -1.1190573 -0.3443254 0.0 0.13755389 -0.05689274 0.9999377

network_body.processors.0.normalizer.running_variance f4 [7]
00000000: f295 9740 7b32 1445 022b a843 0000 803f
00000010: cd67 ed44 2bca fd46 ecfd ff3f
4.737054 2371.155 336.336 1.0 1899.2438 32485.084 1.9999366

network_body._body_endoder.seq_layers.0.weight f4 [128, 7]
00000000: 02a3 013f fa7a 633e 7527 19bf 8d1b 543e
00000010: 43bc d33e 6851 143f 518f d03e 5c58 77be
00000020: ea6e 973e dc61 f0be a4ea 503d d0bd f73e
00000030: d148 e83e ed0d ddbe 78f0 f53d 3f00 fe3e
00000040: f904 a3be 2813 ff3d 1101 8c3d 3120 43be
00000050: ec79 dc3d 6777 c03e 7f78 da3e 5868 f3bc
00000060: d831 423e d461 c23e fe18 653e c211 483f
00000070: ccd3 8bbc 508c 533d 09f0 df3e c7c3 3a3f
00000080: 71a5 943e 1070 c73e 09bd 2e3f f95e 91be
00000090: bf6a 64be 298b abbc 2f29 053e 444a b73e
000000a0: c910 60be 6a86 c23e be43 093f e623 cb3d
000000b0: fabf 3f3e 6ea7 3fbe 633a 49bf bf5a bbbe
000000c0: 8895 1a3f ee21 703f d289 153f 4e01 32bd
000000d0: db18 473d 7663 ccbe 211d d0be 450a 93be
000000e0: 041b a93e b9fe 05bf e59c c4be deff 153f
000000f0: ff5c c0be de41 1f3e 3626 1cbd 6f38 dcbc
00000100: 36be 863d 4302 4ebf 268b 793d 0347 293e
00000110: b529 55be 3d4a 0ebe 97cf 0dbf 086f 163f
00000120: ada8 10bf d395 dabd 3657 29be cc19 403f
00000130: ad40 a13e 0184 73be 8b4e 30bf eff4 323f
00000140: 97da b8be 2584 9e3e f807 46bd e4d7 47be
00000150: fc56 4fbd 8e65 cc3d c630 9d3e 63a4 233f
00000160: 51cb e53e eb3f d43e bd27 ccbe d796 4b3e
00000170: 20f6 c83e 5c7c 253f 8d9b 40be 57ef efbe
00000180: 6a09 3d3e 8a24 913e 2d42 f23e 9abe 16bf
00000190: db35 a3be 2968 6d3e d9bb 23be f121 e93c
000001a0: 148b d9bd 5a28 b5bd c1c7 0d3f f10d 2c3e
000001b0: 5d15 8dbe b24c ddbd fd97 f5be 8093 68be
000001c0: 61b3 35be d3af 8f3e 57ca e8be 2ad7 0b3f
000001d0: a57f 6e3e e126 03bf 00ca 93bd 4225 143e
000001e0: 299e 9c3e d4f7 19bf d327 11be 97c8 0e3e
000001f0: 8ea2 7abe 2a0d 873e efcb 123e e156 fabc
00000200: 910f 27bf b8cf eebe 0c9e 84be 9f95 83bc
00000210: cda8 1c3f dac7 6b3e 284b c23d d2c0 693f
00000220: d713 a73e dfb4 183e 547f a63e ebb5 603e
00000230: 7d52 babe 2dcd 523d 6dc8 153f d571 583e
00000240: bd38 d43e 5ddb 673f dbab 34bf 002a ac3e
00000250: c1b5 2dbe 33de f23e 6cde f43e 4aa6 c6bc
00000260: 3204 373e c095 0dbe 4fc7 54bf 4d85 393e
00000270: 4df2 08bf 0a97 583d 8e14 d33d 3a44 77be
00000280: f232 ab3d 2534 0abc 5797 573f 293c 86be
00000290: c06e 36bf cb55 78be 899e cc3c fd99 32be
000002a0: 35fb 06bf ef69 04bf b1c8 80be 433f 0fbf
000002b0: b535 513a 0ddc 88be 21f9 07bf 920c 32be
000002c0: b0de 97be a687 313e edb2 f53e ea3b 15be
000002d0: 8775 0f3f 3eac 28bf bc3d 233d 7c50 a03e
000002e0: 0eca c13d 67f3 0f3f 4cc0 a3be bf62 d0bd
000002f0: eb92 173d 2cf1 0b3e 7e85 823e 216d 1d3f
00000300: 57db 293e c70e 3a3e b540 c43e 43db df3e
00000310: eb7f 3a3f a02f 24bf 4df0 8b3e 232e c4be
00000320: 9eda 9d3e 7514 8ebd a22e e9be 8e79 62be
00000330: 98dc c0be cc1e 2a3f 7cb7 4d3e e839 1ebf
00000340: 1c9c b13d 755e 49bc 2414 dd3e 8cc5 2e3e
00000350: 703a 583e 6789 f1be a224 a43e 9041 9e3e
00000360: 3e44 993e ffbf 7d3d 7b52 9d3e 54b0 9cbe
00000370: 6492 92bd f0c1 063f 5ef1 093f f3bf 033e
00000380: 82ff d6bd 49c8 a6be 59a6 50bf 259d e73e
00000390: 2e5c 3fbf eb41 3e3e 8012 073f 51ec a83d
000003a0: d7cf f53d 1f80 a1be 7211 af3d e09c 54bf
000003b0: 9f0b 9dbe 2f91 fabd b5f6 7a3c b04e aabe
000003c0: 8787 1a3f 787a dabe e818 3bbf 48f4 80b9
000003d0: ed06 17bf c8d6 60be 6d88 53be 1fea 2bbe
000003e0: 5d11 d4bd 45fd 10bf 4dbe e1bd 4739 1a3e
000003f0: e25f 08be b10e 23bf dc9b c93d f3a3 a9be
0.50639355 0.2221488 -0.5982583 0.20713635 0.4135457 0.57936716 0.40734342 -0.241548
0.29576808 -0.4694966 0.05100502 0.48387003 0.45368055 -0.43174687 0.120087564 0.49609563
-0.3183973 0.12454826 0.06836141 -0.19055249 0.10765442 0.37591097 0.42670056 -0.02971284
0.18964326 0.37965262 0.22372815 0.78152096 -0.017068766 0.051647484 0.4373782 0.7295498
0.29032472 0.38952684 0.68257195 -0.2839277 -0.22306345 -0.02094038 0.13003992 0.35798848
-0.21881403 0.37993175 0.5361899 0.099189565 0.18725577 -0.18716213 -0.78604716 -0.3659267
0.60384417 0.9380177 0.5841342 -0.043458275 0.04860769 -0.39919633 -0.40647224 -0.28718773
0.33028424 -0.523418 -0.3840095 0.5859355 -0.3757095 0.1555247 -0.03812238 -0.026882378
0.065792486 -0.804722 0.060923718 0.16530995 -0.20816691 -0.13895507 -0.5539488 0.5876317
-0.5650738 -0.10673108 -0.16537175 0.7503936 0.31494656 -0.23780824 -0.6886985 0.6990499
-0.3610427 0.30960193 -0.048347443 -0.1951595 -0.050620064 0.099803075 0.30701274 0.6392271
0.4488168 0.41455016 -0.39874068 0.1988176 0.39250278 0.6464288 -0.18809338 -0.4686229
0.18460622 0.2834819 0.47316113 -0.58884585 -0.31877026 0.23184265 -0.15989627 0.028458567
-0.1062223 -0.08845587 0.55382925 0.16802193 -0.2755536 -0.10805644 -0.4796752 -0.22712517
-0.17744209 0.2806383 -0.45466873 0.5462519 0.2329088 -0.512312 -0.07216263 0.14467338
0.30589417 -0.6014378 -0.14175348 0.13943706 -0.24476072 0.2637723 0.14335607 -0.030559005
-0.6525813 -0.46642852 -0.2590183 -0.016062556 0.6119507 0.23025456 0.09486991 0.91309845
0.32632324 0.14912747 0.3251902 0.21944396 -0.3639106 0.051465202 0.5850895 0.21137173
0.41449538 0.90569097 -0.7057473 0.33625793 -0.16963865 0.4743515 0.47825944 -0.024249215
0.17872694 -0.13826656 -0.8311662 0.18117256 -0.5349472 0.052878417 0.10306655 -0.2414712
0.083593264 -0.008435284 0.842153 -0.26217774 -0.7126274 -0.24251477 0.02497794 -0.17441554
-0.5272706 -0.5172414 -0.25153115 -0.55955905 0.000798072 -0.26730385 -0.53114516 -0.17387608
-0.29662085 0.17336902 0.47988072 -0.14573637 0.5603871 -0.6588782 0.039853796 0.31311405
0.09462367 0.5623078 -0.31982648 -0.10175084 0.037005346 0.13666219 0.2549247 0.6149464
0.16587578 0.181697 0.38330618 0.4372197 0.7285144 -0.6413517 0.27331772 -0.3831645
0.30830854 -0.069374956 -0.4554339 -0.22116682 -0.376683 0.6645324 0.20089525 -0.6180711
0.086723536 -0.012290587 0.4317943 0.17067546 0.21116042 -0.47175142 0.320592 0.30909395
0.29934877 0.06195068 0.3072699 -0.30603278 -0.07156828 0.52639675 0.5388392 0.12866192
-0.10497953 -0.3257468 -0.81503826 0.4523708 -0.7475003 0.18579833 0.52762604 0.08248199
0.12002533 -0.3154306 0.08548249 -0.8305187 -0.3067293 -0.12234723 0.015317609 -0.3326316
0.6036305 -0.4267156 -0.7308488 -0.00024596066 -0.5899494 -0.21956933 -0.20657511 -0.16788529
-0.10354874 -0.5663646 -0.11022625 0.15060912 -0.13317826 -0.6369429 0.09844181 -0.33132896

network_body._body_endoder.seq_layers.0.bias f4 [128]
00000000: 1fb2 a3bb 7a91 03bb 6bbd 123c 5b53 873b
00000010: 04c0 123c ad28 723a c0ec 183c ff9a 02bc
00000020: c465 193c a65b 3f3b ff27 153c db87 193c
00000030: 2d31 afbb 06f2 e53a 5d7b 133c a848 0c3c
00000040: ee69 94bb 1a75 11bc dbe3 e33b cad5 98bb
00000050: 2c83 a6bb 675a 4dbb 7341 e1bb 9c25 ae39
00000060: 665e cd3b 7b48 d33b cd1d 363b 3b27 143b
00000070: 477a f43b 2112 8c3b 227e ff3b adf3 dabb
00000080: 11fe 0a3c 1b39 1a3c 50e1 183c 344c 1c3c
00000090: d86c 143c 28fe 8dbb 8922 12bc 198e 153c
000000a0: ac0e 08bc 8477 a7bb d8f6 0bbc 7764 01bc
000000b0: 3f5c 04bc 2431 133c 396f 033c 18d9 b63b
000000c0: 04fe 163c 3913 313a a664 fdbb f5c2 133c
000000d0: bb4e 60ba 8bf5 febb c810 0f3c 6d73 bbbb
000000e0: c338 f43b 74d9 033c e972 0d3c ba02 1a3c
000000f0: 05b0 023c c723 0ebc 0b51 063c dc93 123c
00000100: 027b 023c 3d86 e43a 23d2 f2b8 c3ab 193c
00000110: 00c5 d4bb 2938 88ba de39 163c 4754 153c
00000120: 67fe 0f3c 5739 3c3b 5a89 043c 90e7 bb3b
00000130: 4b22 d63a c296 cdbb f865 ea3a 37ce 08bc
00000140: 5ecb 5a3b a0f8 183c aac7 493b 17ff 1a3c
00000150: 7a4f 0d3c bb7b 7fbb d26c 083a f4bd 143c
00000160: 5b16 013c b51b 073c 2ea7 063c 3408 123c
00000170: 82f8 0e3c 7698 133c c000 a03b 419f 323b
00000180: fb0b d3bb 4b5c 0abc a299 0abc e801 92bb
00000190: 2a08 d1bb c5f6 153c 2569 01bc cade f039
000001a0: 27ab 193c 3967 173c 6ac8 063c fc54 e23b
000001b0: fc76 943b 38a4 bd3b 1915 b6bb b5f2 103c
000001c0: 922b f4bb 0272 0bbc 3d9d 13bc de61 05bc
000001d0: 0b2d 143c 6ade 513a 340a 103c 62a1 01bc
000001e0: 6172 a7bb 0f02 eb3b 36b7 85bb 87ba 05bc
000001f0: e17a dbbb 312c 153c 7fe4 d53b bc86 153c
-0.004995599 -0.0020075724 0.008956294 0.00412981 0.008956913 0.00092376285 0.009333789 -0.007971524
0.009362642 0.0029198914 0.009103774 0.009370769 -0.0053464384 0.0017543442 0.00900158 0.0085622445
-0.0045292294 -0.008878017 0.0069546527 -0.0046641575 -0.005081555 -0.0031334402 -0.0068742572 0.00033215887
0.0062673567 0.0064478493 0.0027788759 0.002260639 0.0074608657 0.004274622 0.0077970186 -0.0066818804
0.008483426 0.009413029 0.009331062 0.009539653 0.0090591535 -0.0043332763 -0.008919367 0.009128117
-0.008304279 -0.005110683 -0.008542739 -0.007897488 -0.008078634 0.008983884 0.008022123 0.005580079
0.0092158355 0.00067548786 -0.0077329455 0.009018649 -0.00085566536 -0.007780736 0.008732028 -0.005720547
0.0074530556 0.00804745 0.008633354 0.009400064 0.007976537 -0.008675522 0.008198033 0.008946385
0.007963898 0.0017435026 -0.000115786 0.00937933 -0.006493211 -0.0010392714 0.00916907 0.009114332
0.008788682 0.00287207 0.008089388 0.0057343915 0.0016337124 -0.0062740752 0.0017883172 -0.008349947
0.0033385376 0.009336621 0.0030789175 0.009460232 0.008624906 -0.0038983661 0.0005204204 0.0090784915
0.007878865 0.008246352 0.00821857 0.008913089 0.008726241 0.0090085175 0.004882902 0.0027255567
-0.006440637 -0.008444856 -0.0084594805 -0.0044557936 -0.006379147 0.009153073 -0.007898604 0.00045942358
0.009379185 0.009240919 0.008226493 0.0069071036 0.0045307856 0.0057873987 -0.0055567143 0.008846928
-0.007451483 -0.008511068 -0.0090096565 -0.008141009 0.009043942 0.00080058596 0.008791495 -0.007912012
-0.0051100706 0.0071718763 -0.0040806783 -0.008162147 -0.006697998 0.009104774 0.006527483 0.009126361

network_body._body_endoder.seq_layers.2.weight f4 [128, 128]
00000000: 2b76 9ebd f2c8 2e3d f38c 62be fc8f a8bc
00000010: e5f9 f0bc af5d bcbd 394d 9b3d c13a bcbd
00000020: 531a 483e 83e7 dabc cc3c d63d 4896 b1bc
00000030: 8cad 0cbe 9c2f db3d 33b5 3bbd 9f32 fc3c
00000040: 6921 5c3c 65f3 ec3c 6b63 babb 3343 f93c
00000050: b287 afbd 1b9d 85ba 1640 e6bd 3803 00be
00000060: ffdd 763d 01e9 823d 6ce6 6f3d 7052 183c
00000070: f409 30be 012b 04bb e49c 323d fe7e 35bd
00000080: 0cbc 623e a66b d9bd 3b6c b1bb 1dc8 603d
00000090: bf6f cf3d 2044 a53d 0fd5 39ba 9ada f93d
000000a0: 67dd 13bd 4262 fd3d d688 cdbd 083b babc
000000b0: 3a64 adbd 5bac 653e 6d13 723d ee32 1c3c
000000c0: 959b d63d a67f d13c 1e54 80bc d7c6 bc3d
000000d0: 270e 9f3c d0f2 e83b abee 8e3d bcdd 8bbc
000000e0: 16e5 b83d 3291 b7bd 395d aabd e9a9 983d
000000f0: c64b 3f3b 4657 96bd c7bd 993d d642 d33d
00000100: 2d1f a93d b912 ccbd 690e 92bd 9159 b3bc
00000110: 35d2 bb3c 3d3d fe3c 7152 fb3c 4d35 e5bd
00000120: 4a51 a5bd 0084 b93c 3346 c6bd 69aa a3bd
00000130: ddf5 563b 12c0 8a3a 6b9e 5abd 99ca e4b9
00000140: a3dd c13d 3428 29be 974f 8fbc 9a5c 0a3e
00000150: 85ca 99bd eb3f 923c d84b 033d 804e 2a3e
00000160: 59f4 e53d 7ae6 cc3d 06fc 3e3c f9eb 2e3d
00000170: 5130 493d ad4a 3a3b b422 6a3d a8a4 2fbc
00000180: 4fae ca3d c682 19bd 2647 6dbd 7465 553c
00000190: ca8c b2bc 062b 25bd f043 03bd aab5 3bbe
000001a0: cb24 843b a70d 1fbe 10b0 453e d3b2 5cbd
000001b0: 4bf5 313d 7745 bb3d b49a 60be 2743 34bd
000001c0: 7763 49bd dae4 03be 3a68 49be 564b a7bd
000001d0: 3086 e33d 03dc 003e 9755 1abe 313d 86bd
000001e0: 9d18 393e f9f7 eabc b4cb 02bd 4b87 1b3e
000001f0: b101 dcba 8fd5 06be 4127 563e 05d3 bb3d
00000200: 5133 ddbc 41d2 f73d ef5e bbbc 0705 273e
00000210: 5053 653d 0170 ca3d 5d7f eb3d 7509 153d
00000220: ad08 613d 7432 173d 7901 5cbd cd5d a7bd
00000230: 6440 29bc bb88 013e aee1 0d3e 7e4f 793d
00000240: 169c 2dbd 988a 00bc 49d3 9bbc b6e3 9fbc
00000250: a26b eb3d 4939 4a3c 1f92 d03d 8f92 1dbd
00000260: 6369 a1bd 5cde 3dbd 35a1 abbd 4174 74bd
00000270: dd3d 3c3d cd2f 473d 7273 80bd b980 8dbd
00000280: 4da7 2dbe fbcf 6bbd 886d 173e 95e6 27bd
00000290: cd80 d93d ffc0 913d 6ae2 b0bd 2bd9 1e3e
000002a0: f057 f5bb 7758 143d 3848 26be 9ca7 ec3c
000002b0: 96ee 743c 4aa6 8e3d a466 353d 2bfa c23d
000002c0: 67fd 47bd 2934 15bd f33d 0fbe 38f8 253e
000002d0: cd0b b63c 5e6a 05be 9ce6 7e3d 6624 fbbd
000002e0: 0ce3 263c a1f4 9e3d 5dcc b33d e178 f5bd
000002f0: dc24 63bd be48 debd bc2d 3e3a e4f9 4bbc
00000300: 352b 6abd e9dc aebc 357b e6bc a94a 3b3c
00000310: 689c d23d 555e 893d 4ba3 50bd 0881 77bb
00000320: 00c2 653d dee3 e8bd df55 79bd 95b8 1d3c
00000330: b3a4 55bd 2892 803d 85f2 2e3d 4b6d c73d
00000340: 032d 933d 032a 133c 4e96 d13b 2456 823d
00000350: 2e13 cfbc 1801 26bd 39fc 473d fd38 ce3d
00000360: 0251 993d b137 dd3d 3276 073e d7f9 883d
00000370: 5a4d 9cbd b099 8e3d 62df 27bd 6e18 5b3d
00000380: cb2e a03d 82e1 b3bd b298 cd3d 5dac d2bb
00000390: 722f 8a3d dbcc 303e 70f0 a3bb 62ab e53b
000003a0: 2b3a f23d 39ba 183d ce2a b83c e2bd 9f3d
000003b0: 6290 44ba 0e1a 7e3d 5808 0fbd 6552 a1bc
000003c0: 26a5 98ba e257 89bd da08 473d c340 24be
000003d0: f932 e4bc 65b4 6f3d 870d ca3c 46f5 af3d
000003e0: bf19 47bd 2f54 373d c387 f33d 55e3 85bc
000003f0: 4d3e 6b3c e91c 313d 3680 7b3d ac3c b0bb
-0.077373825 0.042672105 -0.2212408 -0.02057647 -0.029416034 -0.09197556 0.075830884 -0.09190894
0.19541292 -0.026721722 0.10460815 -0.021678105 -0.13738078 0.1070244 -0.045827102 0.030785857
0.0134357 0.028924653 -0.005688121 0.03042755 -0.08570804 -0.0010193916 -0.11242692 -0.12501228
0.060270306 0.06392098 0.058569357 0.009296998 -0.17191297 -0.0020167234 0.043606654 -0.044310562
0.22142047 -0.106162354 -0.0054145134 0.054878343 0.10128736 0.080696344 -0.0007088938 0.12199898
-0.036099818 0.12372257 -0.10035865 -0.022733226 -0.08466382 0.2242903 0.059100557 0.009533627
0.10478894 0.025573563 -0.01566511 0.09217613 0.019415928 0.0071090236 0.06979116 -0.017073505
0.0902807 -0.08963241 -0.08318562 0.07454283 0.0029189452 -0.07340865 0.075069 0.10315482
0.082578994 -0.099645086 -0.07131655 -0.021893295 0.022927383 0.03103506 0.03067896 -0.11191807
-0.08072145 0.02264595 -0.09681358 -0.079914875 0.0032800355 0.0010585806 -0.053373735 -0.00043638496
0.09466102 -0.16519243 -0.017494006 0.13511887 -0.07509331 0.017852744 0.032054752 0.16631508
0.11228246 0.100048974 0.011656767 0.04270551 0.049118344 0.0028425858 0.057162 -0.010720409
0.09896528 -0.03747823 -0.05792918 0.013024677 -0.02179565 -0.040324233 -0.032047212 -0.18331018
0.0040327064 -0.15532552 0.19305444 -0.053881478 0.04344682 0.09144109 -0.21934015 -0.044009354
-0.049167123 -0.12880269 -0.19668666 -0.08168666 0.111095786 0.12583928 -0.15071712 -0.0655464
0.18075795 -0.028682696 -0.031932548 0.15188329 -0.0016785172 -0.13167404 0.20913412 0.09171108
-0.027002009 0.121006496 -0.022872416 0.16310512 0.055987656 0.09884644 0.11498902 0.036385972
0.054939914 0.03691335 -0.053712342 -0.08172188 -0.010330293 0.12649815 0.13855621 0.060866825
-0.042385183 -0.007845543 -0.019021647 -0.01951776 0.11495139 0.012342759 0.101841204 -0.038469847
-0.07881429 -0.046354637 -0.08380357 -0.05968118 0.045957435 0.04862957 -0.062720194 -0.069093175
-0.16958351 -0.057571393 0.14787877 -0.040991385 0.1062027 0.07116889 -0.08636935 0.1551253
-0.0074872896 0.03621718 -0.16238487 0.028888516 0.014949461 0.06965311 0.04428734 0.09520372
-0.048825648 -0.036426697 -0.13988476 0.16207969 0.022222424 -0.13028857 0.062231645 -0.12262802
0.010185968 0.07761503 0.087792136 -0.119859464 -0.055455074 -0.10853718 0.000725474 -0.012449715
-0.05717011 -0.021345573 -0.028134922 0.011431375 0.102837384 0.067074455 -0.05093698 -0.0037766118
0.056093216 -0.11371587 -0.06087291 0.009626527 -0.052159023 0.06277877 0.042711753 0.09737643
0.0718632 0.008982184 0.0063960915 0.06364086 -0.0252777 -0.040528387 0.048824523 0.100694634
0.07486154 0.10801638 0.13228682 0.06688278 -0.07631941 0.06962907 -0.04098452 0.053490095
0.07821425 -0.087832466 0.1003889 -0.0064292387 0.06747331 0.17265646 -0.0050030276 0.007008956
0.11827501 0.03728697 0.022481348 0.07799889 -0.00074983214 0.062036566 -0.034920067 -0.01969261
-0.0011645898 -0.067062154 0.048592426 -0.1604033 -0.027856337 0.058521647 0.024664653 0.08591704
-0.048608538 0.044758018 0.11891129 -0.016343752 0.014358115 0.04324046 0.06140157 -0.0053783264

network_body._body_endoder.seq_layers.2.bias f4 [128]
00000000: 9c41 173c e194 123c 1e3d 113c 901a 123c
00000010: 543b 12bc 78d8 b63b 99d7 143c 9421 19bc
00000020: e356 0a3c 4ec5 89bb 033d 133c f503 dcbb
00000030: a219 163c dcd1 01bc 2cb6 103c 91e3 04bb
00000040: 72c8 143c 7d77 c339 0d97 8abb 29cf 173c
00000050: 2896 0bbc dcd8 5cbb 8969 c8bb 77c5 183c
00000060: 4f08 16bc 5237 153c afb2 68bb e577 16bc
00000070: f740 183c b123 1b3c 35ab 09bc 060b 0ebc
00000080: d232 f73b 2017 12bc 3782 f5bb d7d4 ddbb
00000090: 9413 ff3b 119d f33b 63ae 173c 3f57 fdbb
000000a0: 7348 173c 193f 13bc 860a 12bc a777 973a
000000b0: 3b9c 0d3c 0174 fcbb e8ed 0b3c 8a5b a43b
000000c0: 3f0a 08bc e9bd e9bb 8f5c 113b d490 cbbb
000000d0: 2c30 14bc 3285 51bb 4597 42bb b578 143c
000000e0: 5c7e 1e3b 6f11 cf39 e4ee 0b3c a11f f7bb
000000f0: 7780 16bc b7f0 f0bb 3208 12bc 646f e2bb
00000100: d6b5 16bc aca9 0d3c bb6d 0fbb 39fd ac3b
00000110: 8d48 26bb 7ecd a3bb d764 073c 9453 0f3c
00000120: a79e 9abb 3a68 6abb 67dc 13bc ee2b 163c
00000130: 7aec 0ebc 8226 a13b 604f 173c fdd7 503b
00000140: eb68 f93b 535c f93b 1f02 8ab9 2c9c 0b3c
00000150: e3ae fdbb 9cbf e2bb c06e 173c 58ae 203b
00000160: 1c78 12bc 9ec9 19bc 3450 cd3b e7a5 0b3c
00000170: f432 c63b 1abd 7cbb 1544 0a3c 0b4f 17bc
00000180: c9d4 183c 3e5a 143c a7ac a1bb d625 163c
00000190: 170c 143c 11d7 babb 1529 f8bb 3468 ca3a
000001a0: 46e8 173c 91ad cebb f623 163c f267 14bc
000001b0: 6d00 193c 603b 093c de52 82ba f4ba 0bbc
000001c0: b594 483a 35bb 0c3c 8087 8cbb 248a 05bc
000001d0: 5e4b 94bb 717a 0ebc dc7e 163c 75cf e8b9
000001e0: 3246 0cbc 11e6 01bc 55b5 0bba f22a 12bc
000001f0: 018d d33b e2d5 873b d8ef 0abc deca 9fbb
0.009231951 0.008946628 0.008864669 0.008917466 -0.008925278 0.0055800043 0.009084606 -0.009346385
0.008443567 -0.0042044288 0.008986714 -0.006714339 0.009161385 -0.0079235695 0.008832496 -0.0020277242
0.009080993 0.00037282324 -0.0042294324 0.009265699 -0.008519687 -0.0033698594 -0.0061160964 0.009324423
-0.009157254 0.009107428 -0.0035506894 -0.0091838585 0.009292833 0.009468959 -0.008402635 -0.00866962
0.0075439 -0.008916646 -0.0074923295 -0.0067697573 0.0077843163 0.0074344953 0.009257886 -0.007731348
0.009233582 -0.008987212 -0.008913642 0.0011556045 0.008643205 -0.0077042584 0.008540608 0.005015795
-0.008303224 -0.0071332348 0.0022180413 -0.006212333 -0.009044688 -0.003197026 -0.0029692214 0.009061982
0.0024184203 0.00039495106 0.008540843 -0.0075416123 -0.009185902 -0.007352914 -0.008913087 -0.0069102515
-0.0091986265 0.00864641 -0.0021885473 0.00527921 -0.0025372833 -0.004998862 0.008263788 0.008747954
-0.00471862 -0.003576769 -0.009024716 0.009165747 -0.008723373 0.0049179206 0.009235233 0.003186702
0.007611384 0.007609883 -0.00026322991 0.008521121 -0.0077417954 -0.0069198143 0.009242713 0.002451798
-0.008939769 -0.009386448 0.0062656645 0.008523441 0.0060485546 -0.0038564862 0.008439084 -0.009235154
0.009328076 0.009054719 -0.004933912 0.009164294 0.009036086 -0.0057019074 -0.0075732567 0.0015442432
0.009271687 -0.006307312 0.009163847 -0.009057986 0.00933848 0.0083759725 -0.0009942909 -0.00852846
0.00076515536 0.0085895555 -0.004288614 -0.008150611 -0.004525586 -0.0086961845 0.009185519 -0.00044405056
-0.008561658 -0.007928387 -0.000532945 -0.008921372 0.006456018 0.00414537 -0.008480035 -0.0048764786

action_model._discrete_distribution.branches.0.weight f4 [3, 128]
00000000: e13d ce3b 764d 323b 9ba6 0c3c 6c16 7cbb
00000010: 77ad f03a d0f7 aa3c 4d61 0c3c 70fd 3dbc
00000020: 5d2d e63b 0887 193c 814e cf3b c994 96bb
00000030: 87bd 64bc b6c1 633b d3d7 d8ba b575 7fbb
00000040: f205 2bbb 635e 193c 2003 ea3b d16b 1d3c
00000050: 4abc 7ebb 0545 343c ec33 5fbb 9f1a 32bc
00000060: 44ee 673c 117e 623c 9665 62bc ca02 523c
00000070: 7d6b 613b a8fb 0b3a 55e0 6d3a d71b d33b
00000080: be50 a73b 0bb7 373b f5cf 1c3c 24b3 373c
00000090: 43e8 99bb b245 243b 441a f73b 7e0a 8cbb
000000a0: e3f2 973b 1794 ecbb ed02 9f3b ecfd 48bc
000000b0: d209 dbbb f28c db3b 9920 dabb 07cb 693c
000000c0: 3be3 36bc 1060 9bbb 80de 3e3c b6b5 933b
000000d0: 699d 5fbc 0dd5 e23a e396 413c a563 8abc
000000e0: 9df0 ca3a f32d ea3b faad 6b3c a121 083c
000000f0: 3638 bbbb 9662 3f3b b711 dfbb 8f31 053c
00000100: 3933 c43b 8d24 dfba ee9f dcbb 1e36 6f3b
00000110: b416 013c 98c1 923b a4fd 25ba 3635 853c
00000120: 30c4 babb fda7 033b a691 de3b c507 79bb
00000130: b16c 363c 3570 193b 26c1 473c c645 3f3b
00000140: 6abc 3ebc fd71 7fbc 6193 263c 7197 1d3c
00000150: 4a36 64ba 5a2e fc3b fed2 0dbb 6e1a a53b
00000160: 3fcf e2bb 3108 10bb ba9e c9bb ee35 f1ba
00000170: 276a 18bb cc70 16bc a9f7 4fbc 4df3 2ebc
00000180: ec3d 503c 0785 8d3c 7240 60bc 9c8b 28bc
00000190: f0f5 683c ca9e e1bb 8af4 09bb eb67 94ba
000001a0: b5bf c9ba ea55 a0bc dc22 ec3b 4b66 30bb
000001b0: 5211 2bb9 583f 09bb a0bd c13b 50d3 983b
000001c0: 96da a6bc 34ca c73b 1a40 82bb 09ef 51bc
000001d0: 6719 2f3b 8ddd 8e3c 1e25 c0bb e4f1 623b
000001e0: 68f8 943b 9652 41bc be68 c83c 7a56 703c
000001f0: 35d5 0d3c 468c 8cbb f3e4 253c 4dac 003c
00000200: 02d4 53bc 4bb6 5ebc 68d5 5bbc 7cff 3cbc
00000210: 2e71 7f3c da8d 9ebb 160b a2ba 2f96 a33a
00000220: c5db 76b9 31c3 0a3b cc82 24bc 2838 dabb
00000230: e12b 25bc e119 053b b4f7 a43b a297 29bb
00000240: 5c10 0dbc 9acc 783c 2862 383c 8117 f6bb
00000250: b353 1e3c a97a 083c f181 383c ce84 babc
00000260: 507d 853b fc4b 0bbc a461 d0bb 88d8 0a3c
00000270: 32c5 00bc 4cec ccb9 3780 08bb 2cb9 c6bb
00000280: 65e8 32bc 0ae4 613b 4978 d2bb d2b3 b53b
00000290: 73c9 54ba 2362 57bc 0475 16ba 192a 07bb
000002a0: 53bb dfbb d547 223c 6d8c 11bb 873f 963c
000002b0: 0cc2 4b3c 757c bebb fdce eebb 0ae6 803c
000002c0: 0809 50bb fc56 e8bb 3d88 7c3b ff0c e5bb
000002d0: 77d7 1cbc 8b92 c43b d017 843c 748d 86bc
000002e0: 4eb1 abbb 9519 f2bb b14b 80bb 08a8 f2ba
000002f0: 47fa 3b3c 7e29 0b3c 2f42 2b3a c505 a4bb
00000300: 4ae7 413b 9952 6abb b73f a03b de16 3bbc
00000310: 6267 e63b 23d5 97bc 67b4 67bc ac53 633c
00000320: daeb 68ba eae5 86bb e9e6 febb 125f 88bc
00000330: 4820 933b 9fa4 92bb 5421 ccbb b0eb b13b
00000340: 4b53 13bc 6ccd 45bb 6389 fdbb 0c47 8b3b
00000350: 1e99 07bb 8200 a739 1089 a2bc 8874 8bba
00000360: c9e7 d43b 2418 ef3b 21af 28bc fd3b 14bb
00000370: 7252 933c 3800 ef3b 3036 38bc bf2d e63b
00000380: 8c37 043b 6be8 81bc a8df 8fbc f8ce a1bc
00000390: 9914 bdba eb3b 253c 054b 92bb f594 31bc
000003a0: 2447 4cba 3785 1fbb a028 d1bb 32e3 6c3c
000003b0: 6024 8cbb f059 09bb fbe6 21bc af66 c43a
000003c0: a930 71bb da89 64bc 11ea ba3b 268c 99bc
000003d0: 8149 1bbc f7be f5bb 7c31 013b 2183 503c
000003e0: 048a 24bc fd14 5f3b 6505 a03c 2584 2f3b
000003f0: 3d2c 66bb 1dae a43b d36d 533b 1452 7c3c
0.0062939976 0.0027206815 0.008584644 -0.0038465513 0.0018362243 0.02087012 0.00856812 -0.011596069
0.0070244507 0.009370573 0.006326497 -0.0045953733 -0.013961202 0.0034752912 -0.0016543813 -0.003898007
-0.0026096073 0.009360882 0.007141486 0.009608225 -0.0038869553 0.011002784 -0.0034058047 -0.010870605
0.014155928 0.013824002 -0.013818165 0.012818048 0.0034396343 0.0005339929 0.00090742606 0.0064425278
0.0051060608 0.0028032686 0.009571065 0.011212144 -0.004696877 0.0025065956 0.007540973 -0.0042737117
0.0046371087 -0.007219802 0.0048526437 -0.012267571 -0.0066845203 0.0067001516 -0.006656718 0.014269597
-0.011162574 -0.004741676 0.011649728 0.0045077456 -0.013648369 0.0017305926 0.011815759 -0.016893217
0.0015483085 0.007146591 0.014384741 0.008308799 -0.005713488 0.002920305 -0.0068075317 0.0081294915
0.0059875515 -0.0017024443 -0.0067329323 0.0036500762 0.007878948 0.0044786446 -0.0006332046 0.016260725
-0.005699657 0.0020089142 0.006792265 -0.0037999016 0.0111343125 0.0023412828 0.012192046 0.0029185875
-0.011641601 -0.015591142 0.010166974 0.009618626 -0.00087055995 0.007695955 -0.0021640654 0.005038551
-0.0069216783 -0.0021977539 -0.006152955 -0.0018402913 -0.002325663 -0.009182166 -0.012693324 -0.010678125
0.012710076 0.017275346 -0.01368724 -0.010287192 0.014218792 -0.006885384 -0.0021050298 -0.0011322474
-0.0015392216 -0.019572217 0.007206304 -0.002691644 -0.00016314283 -0.0020942297 0.0059124976 0.0046638623
-0.020367902 0.0060971025 -0.0039749267 -0.012813338 0.0026718022 0.017439628 -0.0058637997 0.0034629041
0.004546214 -0.011799475 0.024464007 0.014669055 0.00865679 -0.004289183 0.0101253865 0.00785358
-0.012928965 -0.013593267 -0.013417579 -0.011535522 0.015590949 -0.0048386874 -0.0012362923 0.0012480671
-0.00023542259 0.0021173472 -0.01004095 -0.0066595264 -0.010081262 0.0020309614 0.0050344113 -0.0025877734
-0.008609857 0.0151855 0.011253871 -0.007510126 0.00966351 0.008330026 0.011261449 -0.022768404
0.0040737763 -0.008502003 -0.006359296 0.008474477 -0.007859515 -0.00039085967 -0.0020828375 -0.0060645547
-0.010919665 0.0034468197 -0.0064230305 0.005545118 -0.00081171765 -0.013145956 -0.00057394826 -0.0020624457
-0.0068277507 0.009904821 -0.0022208944 0.01834084 0.012436401 -0.0058131763 -0.0072878585 0.015734691
-0.0031743664 -0.0070904475 0.0038533353 -0.0069900746 -0.009572855 0.0059989146 0.016124636 -0.016424872
-0.005239642 -0.0073883035 -0.003915273 -0.0018513212 0.011473245 0.008493779 0.00065329944 -0.0050055706
0.0029587322 -0.0035754798 0.004890408 -0.011419026 0.007031367 -0.018534249 -0.014142132 0.013874929
-0.0008885242 -0.0041167634 -0.0077789915 -0.016646896 0.004489932 -0.004475191 -0.006229559 0.0054297075
-0.008992027 -0.0030182255 -0.007737325 0.004250413 -0.002069063 0.000318531 -0.019840747 -0.0010639587
0.0064973575 0.007296579 -0.01029566 -0.0022618764 0.017983649 0.0072937272 -0.011243388 0.0070244963
0.002017471 -0.015857896 -0.017562702 -0.01975201 -0.0014425694 0.010085086 -0.0044645094 -0.010838737
-0.0007792583 -0.0024340877 -0.0063830167 0.014458464 -0.004276797 -0.0020958148 -0.00988173 0.0014984215
-0.0036802685 -0.013948882 0.0057041724 -0.018743586 -0.009477974 -0.0074995714 0.0019713333 0.012726576
-0.010042671 0.003403961 0.019533822 0.0026781645 -0.0035121583 0.0050256387 0.0032261505 0.015400428

action_model._discrete_distribution.branches.0.bias f4 [3]
00000000: 1298 833b 7951 febb c2a2 fc3b
0.004015931 -0.007761177 0.007709832

action_model._discrete_distribution.branches.1.weight f4 [2, 128]
00000000: 3675 823c 472a b63c 2383 373b dfaa 3c3c
00000010: 5efc 23bc e25b 513c 719a 753c a38f 05bc
00000020: 7d28 bc3b 8c44 90bb 7d51 e13b f4a3 93bb
00000030: 3636 803b 2e36 5abc 90a9 8aba 6f45 96bb
00000040: fd5e 2e3c 44c8 9f3a fb09 563b 1e27 0a3c
00000050: 1963 75bc f46a 393c 31b8 f0ba 8036 9c3b
00000060: 5d6e 97bc db21 403c 3673 0f3c 02e8 fdba
00000070: 8eb2 573c 82c6 183c 7a4f cdbc 6477 2bbc
00000080: be8c d73a 4306 c1bb 2a61 82bb 0ec3 6abb
00000090: 73c1 7aba b763 c439 6dd3 043c 74c9 eb3b
000000a0: b068 293c 35b6 f7ba 97f5 81bc 2c21 c23b
000000b0: 1974 1b3c ea5f a3bb 154b 963b 156e 4c3b
000000c0: d647 dd3a 1188 653b b717 8abb 9d9f 0b3b
000000d0: 166f 4ebc d847 3339 34cf e23b 8b3f 043d
000000e0: ecda 5e3c 4ab4 ba3c 6b10 393c f962 4eb9
000000f0: ac10 41bc ee0d 97ba 5130 d7bb 85b2 453c
00000100: 399f 56bc 7037 453c 4881 23bb 5a43 793c
00000110: 963e cb3a b3f3 b2ba 112e 2d3c 21f0 353c
00000120: 8844 ff3b b21e 203c 3e0b a4bc 7045 c63b
00000130: 1021 cc3b 3f97 103c 95f4 313c dd7d f13b
00000140: 77f2 533b 9746 7e3b d956 5e3a be0b 303c
00000150: 4fbb e03b c680 eaba 9cf1 df3c 3c65 9d3a
00000160: 59b1 b2bc a98f b8bb 4f1f 343c 5205 d0ba
00000170: 9a17 863b 6c13 8e3b 7c4e 1b3a 5f37 2cbc
00000180: fe2a 273c 2e1b 243c 1301 09bc 64ac 3d3c
00000190: 0771 783c 7db5 8939 3fdc 34bb 0c86 f0bb
000001a0: e87f ac3c 4e6d ee3b bea0 323c 1acb 80bc
000001b0: ada6 f63b e0f7 ce3b edf4 463c 9898 73bc
000001c0: 5a07 38bb 1969 2d3b 9cc0 2b3c f5e1 46bc
000001d0: cc2c b63b 5442 cdbb 1a62 b13c bfa5 60bc
000001e0: 862c 60bc db36 3d3b e6d6 a23b 5d34 10bc
000001f0: d2eb 37bb c5bb 463c f91b 99bc 5db7 3ebc
00000200: 79db c4bb 53f6 63bc b15e 29bc bb37 89bc
00000210: 91f5 a43b c39a c03b 83df a1bb 4a8c 733c
00000220: 55a7 59bc a54f 0ebc 96f9 b5bb f702 97bb
00000230: 2b84 b0bc 0ab9 c5bb ed92 b9bc 2fa9 28bc
00000240: cdb6 a4bc d934 393b d473 823c be72 3dbc
00000250: c338 053b 896d ad3c f2c5 153c e25a 96bc
00000260: 5613 ba3b e783 4ebc 6549 a33b f230 8c3c
00000270: 89c1 6abc 6675 d9bb 4b74 d7bb 4264 a53c
00000280: 6a44 b8bb ad39 4b3c 2de7 123c a226 df3a
00000290: 72eb 36bc 8b82 0dbc fd71 86bc 110c 5a3c
000002a0: 3862 17bc ba82 a03c 2c18 c43b 3e4e 853b
000002b0: 6608 0dbc 607a d73b bdab 4ebc 1e6e a93a
000002c0: c896 953c dbbe be3b af42 56bc 7c20 43bb
000002d0: 049d 8f3b 3f25 d0bb 112d bfba 12ff 85bb
000002e0: 389f 81bb 5813 313c b67e debb a3eb c53b
000002f0: 408d 913c 8281 78bb 8cd8 ef3b 210d 403c
00000300: 2de4 803c a98c a7bb 13c1 e43b 7baa 143c
00000310: cd0f 75bb 28ec 7abb 9f89 ed3a 7fac a6bc
00000320: f037 213b 5fc2 f53b 4939 fb3b 3808 3cbc
00000330: f265 943c 1054 e9bb 402f fbbb 1eb5 1cbc
00000340: 5fe0 263b 6817 523b 9345 16bc 2a7c a6bb
00000350: 3e2b 253c dc28 aeb9 d195 f7ba 5449 4fbb
00000360: 944b 923c a6b5 3c3c bb7d bbb9 5df5 c8bc
00000370: 886f 703b 261e 26bb 390e 84bc b6a4 083c
00000380: 3848 34bc c908 40bc c8b2 9fbb 41af 84bc
00000390: ecc0 31bc 944c 573c ab11 57b8 aad4 08bc
000003a0: 42a3 3ebb 7dca c33b 23ca a3bc 8445 893c
000003b0: 7215 c7ba 3a40 07bc ed92 6e3b 8f0e 9b3b
000003c0: 2bfa 35bc 3aa3 04bc 58aa 8d3b e36d 9d3c
000003d0: 080f 183b 56e8 d83c b9c4 55bb 1678 b8bb
000003e0: a3f4 cb3b e4a1 203c 668c 13bb efa6 1c3c
000003f0: b266 6dbb 888f 3bba d7e7 eb3b 034e daba
0.015925031 0.022236956 0.0028001748 0.011515348 -0.0100088995 0.012778254 0.014990435 -0.008151921
0.0057421313 -0.0044027027 0.0068761692 -0.0045056287 0.0039127124 -0.0133185815 -0.0010579098 -0.004585914
0.010642764 0.0012190421 0.0032659757 0.008432178 -0.01497724 0.0113170035 -0.001836544 0.004767239
-0.018485243 0.011726822 0.008755496 -0.0019371512 0.013165129 0.009324672 -0.025062311 -0.010465477
0.0016445143 -0.005890639 -0.003978868 -0.0035821828 -0.00095655693 0.00037458327 0.008107048 0.007195646
0.010339901 -0.0018898906 -0.015864177 0.0059243646 0.009488129 -0.004985799 0.004586587 0.0031193544
0.0016882371 0.003502373 -0.004214253 0.0021304854 -0.012599727 0.00017097534 0.006921673 0.03228716
0.013602 0.022791047 0.011295418 -0.00019682561 -0.01178376 -0.0011524537 -0.006567039 0.012066488
-0.013099485 0.012037143 -0.0024948884 0.015213812 0.0015506323 -0.001365295 0.010570065 0.0111046145
0.007790152 0.009772943 -0.020024892 0.006050758 0.0062295273 0.008825122 0.010861536 0.0073697404
0.0032340565 0.00387994 0.0008481569 0.010744987 0.0068582664 -0.0017891161 0.027336888 0.001200832
-0.021813082 -0.00563236 0.010993793 -0.0015870726 0.004092169 0.0043358114 0.0005924476 -0.010511248
0.010203121 0.010016246 -0.0083620725 0.011576746 0.015163667 0.00026265896 -0.0027597097 -0.0073401984
0.021057084 0.0072762137 0.010902582 -0.015721846 0.0075271935 0.00631617 0.012143356 -0.014867924
-0.0028080554 0.0026460348 0.010482933 -0.012138833 0.0055595394 -0.0062640104 0.021653224 -0.013711392
-0.01368249 0.0028871808 0.0049694655 -0.008801547 -0.0028064144 0.012129729 -0.018690096 -0.011640397
-0.0060076085 -0.013913709 -0.010337518 -0.016750207 0.0050341566 0.005877824 -0.0049399748 0.0148649905
-0.013284524 -0.008685981 -0.0055534346 -0.0046085077 -0.021547398 -0.0060340213 -0.022653067 -0.010294243
-0.020106697 0.002826026 0.015924372 -0.011563001 0.0020328022 0.021170394 0.009141432 -0.018353883
0.0056785746 -0.01260469 0.0049831145 0.017113183 -0.014328369 -0.0066363094 -0.0065751425 0.020189408
-0.00562339 0.012403888 0.008966249 0.0017025063 -0.011164533 -0.008637081 -0.016411776 0.013308541
-0.009239726 0.019593585 0.005984327 0.004068165 -0.008607959 0.0065758675 -0.012614188 0.0012926494
0.018260375 0.0058210916 -0.013077422 -0.0029774 0.0043827314 -0.0063520963 -0.0014585574 -0.0040892446
-0.003955748 0.010807835 -0.0067900075 0.006040053 0.017767549 -0.003791899 0.0073195156 0.01172188
0.015733803 -0.0051132035 0.006981024 0.009073849 -0.0037393451 -0.0038287733 0.0018122679 -0.020345924
0.0024599992 0.0074999775 0.007666741 -0.011476569 0.018115018 -0.0071206167 -0.0076655447 -0.009564666
0.0025463325 0.0032057408 -0.009171861 -0.0050807195 0.0100811105 -0.0003321831 -0.0018889253 -0.00316294
0.017858304 0.011517918 -0.00035761096 -0.02453106 0.0036687572 -0.002534756 -0.016120063 0.008340051
-0.011003546 -0.011720845 -0.0048736073 -0.016196849 -0.010849219 0.013140816 -5.127645e-05 -0.008351484
-0.0029089008 0.005975066 -0.019993847 0.01675678 -0.0015188886 -0.008255059 0.0036403493 0.00473196
-0.011107008 -0.008095557 0.004323285 0.019217437 0.0023202319 0.026477974 -0.0032618477 -0.0056295497
0.0062242313 0.009804223 -0.0022514104 0.009561284 -0.0036224541 -0.0007154872 0.0071992683 -0.0016655329

action_model._discrete_distribution.branches.1.bias f4 [2]
00000000: 34b1 0d3c 34b1 0dbc
0.008648206 -0.008648206

exp_avg f4 [128, 7]
00000000: 5db3 dcb4 7728 c136 cd7f 2f38 0000 0000
00000010: 88be 84b8 613e ebb6 3cbe afb4 932a 80b5
00000020: 587b 3d37 2f3b b338 0000 0000 b86c 1bb8
00000030: 1c55 48b6 e01d 4cb5 c169 83b5 e08a 7b37
00000040: 9be0 b038 0000 0000 b1fc 14b8 4472 35b7
00000050: 9849 51b5 1a3c 9ab5 9ca6 6db7 6501 81b6
00000060: 0000 0000 1735 6d38 b1b4 f1b6 13a2 75b5
00000070: 3c5a 58b6 77cf e138 e419 0eb8 0000 0000
00000080: ee01 9f38 ec93 12b8 d847 2cb6 e597 48b4
00000090: 6532 8e37 8189 5a38 0000 0000 bf88 12b8
000000a0: 8473 1db7 4ebb 1fb4 1828 47b6 1660 f538
000000b0: 2ba0 5fb7 0000 0000 263b 0f39 36e8 62b8
000000c0: 6f96 1eb6 ff78 f935 caae 89b7 83f1 b837
000000d0: 0000 0000 4a49 9ab8 b723 bb37 73a7 c635
000000e0: 59d5 4cb6 2696 4339 4b55 a438 0000 0000
000000f0: 51b6 c538 d815 d0b7 a91b 23b6 b472 c6b5
00000100: 1d31 2438 f4a0 df38 0000 0000 dafb 64b4
00000110: d60c c5b7 0106 9eb5 7eb1 3db6 2f48 90b8
00000120: dc0a a838 0000 0000 e905 b538 8e1b 23b8
00000130: 530d 17b6 e4c0 25b6 ff0f 4239 521a 4cb8
00000140: 0000 0000 e52f 9538 d1f4 bbb7 27fd 03b6
00000150: f1cb 4835 f86e 4937 c99a 5f37 0000 0000
00000160: f8e5 1437 f76e aa36 c1e4 1f35 8e30 04b5
00000170: 20f4 f036 927f e7b7 0000 0000 fca5 b337
00000180: 4d2e 3db7 3586 d2b4 4727 14b6 2ed6 0839
00000190: 181c f738 0000 0000 e77b 20b7 7575 e3b7
000001a0: aff2 ebb5 bc51 9fb5 6e56 65b8 1065 0137
000001b0: 0000 0000 d498 4a38 ca9a 20b7 0ebb 7db5
000001c0: 7489 ddb3 982e 21b6 6bcf 1837 0000 0000
000001d0: 62b0 04b8 942f 36b7 b468 b0b3 a754 1c35
000001e0: 84c8 19b6 fce8 bfb7 0000 0000 f63d 5db7
000001f0: f3fe 2637 95f8 f834 e76d d4b4 fbc7 3538
00000200: 2c2b a937 0000 0000 5f5c ac36 f3d5 2137
00000210: 1b28 a9b4 fab2 f4b4 0766 6138 d3f4 bdb7
00000220: 0000 0000 8000 f537 c8ac fdb6 5eda c2b4
00000230: a818 90b3 2824 47b7 fffa 6db7 0000 0000
00000240: fd7e 4637 9f43 5fb6 907c 65b3 9d2f 2835
00000250: 8666 ecb6 e0d7 6637 0000 0000 0af4 dbb7
00000260: 2c48 fa36 05ed 0535 d101 8734 bd0a af37
00000270: 2c22 d737 0000 0000 5ce0 06b8 a325 e0b6
00000280: e302 5734 2a69 7ab5 6710 5c37 0dd9 cb38
00000290: 0000 0000 cff7 e5b7 aee0 70b7 b366 47b5
000002a0: c31f 05b6 0e71 0f39 aa3a b138 0000 0000
000002b0: 6ee2 4138 5174 0eb7 2c03 d4b5 9548 7cb5
000002c0: e1c4 0c38 215b d5b6 0000 0000 a6ad 4938
000002d0: 374b cdb6 73e4 48b5 4d02 8eb5 7714 2bb8
000002e0: c781 61b8 0000 0000 a09b 8d38 3b35 b6b6
000002f0: 9429 62b5 d04f 42b5 d129 4ab8 1f97 a2b8
00000300: 0000 0000 7c7f 5438 b263 a9b6 ceba 1ab5
00000310: f7e9 cfb5 5b37 f338 759f dbb7 0000 0000
00000320: edc5 8e38 55ed 09b7 a28f a5b5 e82a 13b6
00000330: e81a 8a38 9ec0 c3b8 0000 0000 3033 e138
00000340: 067f d1b7 c360 eab5 b243 f1b4 3d9f a3b7
00000350: 5752 37b8 0000 0000 a3b6 2338 848c a1b6
00000360: 331e c0b4 d316 a834 ea78 05b6 f717 3d37
00000370: 0000 0000 20d9 0238 6b99 8d35 49d9 8534
00000380: 7f11 80b6 ecdf 0339 e121 1e39 0000 0000
00000390: 234d 1639 63cb fcb7 edf5 4bb6 5704 56b6
000003a0: 0f1e 7638 2dda 9437 0000 0000 a3cf 1239
000003b0: 9bd0 49b8 be6b 2ab6 39cb b4b6 36d1 5539
000003c0: 09f5 34b9 0000 0000 0b54 8139 982b 72b8
000003d0: 27f7 8fb6 9e99 59b6 8eb7 0139 9261 e237
000003e0: 0000 0000 14d0 0a39 f8c7 29b8 2b46 2db6
000003f0: 5cdf a6b5 8eed 4238 437f 1bb7 0000 0000
-4.1108697e-07 5.756559e-06 4.1842275e-05 0.0 -6.32974e-05 -7.0108076e-06 -3.2734704e-07 -9.549134e-07
1.1293996e-05 8.546409e-05 0.0 -3.7056132e-05 -2.9851863e-06 -7.6039396e-07 -9.791039e-07 1.49931e-05
8.43417e-05 0.0 -3.5521287e-05 -1.0815045e-05 -7.796566e-07 -1.1491386e-06 -1.4165093e-05 -3.844662e-06
0.0 5.6554647e-05 -7.203395e-06 -9.150546e-07 -3.2239031e-06 0.000107674794 -3.387955e-05 0.0
7.58207e-05 -3.4946876e-05 -2.5671816e-06 -1.868171e-07 1.6951186e-05 5.210331e-05 0.0 -3.4936467e-05
-9.384825e-06 -1.487617e-07 -2.9676648e-06 0.00011700408 -1.3329128e-05 0.0 0.00013659577 -5.4098862e-05
-2.3631399e-06 1.858716e-06 -1.6413065e-05 2.2046972e-05 0.0 -7.3569434e-05 2.2308768e-05 1.4800884e-06
-3.0522554e-06 0.00018652584 7.8360164e-05 0.0 9.427651e-05 -2.4805704e-05 -2.4304993e-06 -1.4785533e-06
3.9146387e-05 0.000106634485 0.0 -2.1325778e-07 -2.3490207e-05 -1.1773665e-06 -2.8266509e-06 -6.8799e-05
8.012887e-05 0.0 8.6318534e-05 -3.888789e-05 -2.250851e-06 -2.4699193e-06 0.00018507241 -4.8661903e-05
0.0 7.113795e-05 -2.2406139e-05 -1.9667875e-06 7.480258e-07 1.20063705e-05 1.33278745e-05 0.0
8.875031e-06 5.079313e-06 5.9564996e-07 -4.924449e-07 7.1809773e-06 -2.759675e-05 0.0 2.1415755e-05
-1.1276058e-05 -3.9213197e-07 -2.207658e-06 0.00013049759 0.00011783111 0.0 -9.565591e-06 -2.7115204e-05
-1.7579495e-06 -1.1870211e-06 -5.467835e-05 7.71253e-06 0.0 4.8302885e-05 -9.572783e-06 -9.4522045e-07
-1.0316117e-07 -2.401799e-06 9.108199e-06 0.0 -3.163552e-05 -1.0859123e-05 -8.214684e-08 5.8237714e-07
-2.2915492e-06 -2.2877466e-05 0.0 -1.3187053e-05 9.953731e-06 4.6374467e-07 -3.9568042e-07 4.334001e-05
2.0166473e-05 0.0 5.136753e-06 9.646162e-06 -3.1507884e-07 -4.5578764e-07 5.37392e-05 -2.264456e-05
0.0 2.9206509e-05 -7.560102e-06 -3.62942e-07 -6.7100075e-08 -1.1869743e-05 -1.418474e-05 0.0
1.1831286e-05 -3.326895e-06 -5.3431506e-08 6.2654163e-07 -7.0452834e-06 1.3759331e-05 0.0 -2.6220474e-05
7.4589825e-06 4.989127e-07 2.514703e-07 2.0866626e-05 2.564591e-05 0.0 -3.215704e-05 -6.6801017e-06
2.0024486e-07 -9.328529e-07 1.3116841e-05 9.720223e-05 0.0 -2.7414322e-05 -1.4357427e-05 -7.4282724e-07
-1.9837032e-06 0.00013679659 8.450945e-05 0.0 4.6225665e-05 -8.490942e-06 -1.5796154e-06 -9.3982936e-07
3.356196e-05 -6.3585035e-06 0.0 4.8083857e-05 -6.1182322e-06 -7.4838243e-07 -1.0580494e-06 -4.0788636e-05
-5.3765045e-05 0.0 6.752391e-05 -5.4302195e-06 -8.4252065e-07 -7.2386774e-07 -4.8199498e-05 -7.7529105e-05
0.0 5.0663468e-05 -5.0481985e-06 -5.764131e-07 -1.5490795e-06 0.00011597454 -2.6181087e-05 0.0
6.807954e-05 -8.2210945e-06 -1.2335261e-06 -2.1929682e-06 6.5853645e-05 -9.334202e-05 0.0 0.000107383705
-2.4973891e-05 -1.746252e-06 -4.4939003e-07 -1.9505265e-05 -4.3707285e-05 0.0 3.9032322e-05 -4.814532e-06
-3.578476e-07 3.1309045e-07 -1.9888926e-06 1.1270858e-05 0.0 3.119663e-05 1.0549969e-06 2.4931276e-07
-3.816734e-06 0.00012576551 0.00015080675 0.0 0.0001433385 -3.013545e-05 -3.0392505e-06 -3.189101e-06
5.8678965e-05 1.774457e-05 0.0 0.00014000996 -4.8116413e-05 -2.5394688e-06 -5.3880763e-06 0.000203912
-0.0001725742 0.0 0.00024667414 -5.7737896e-05 -4.2905044e-06 -3.2424937e-06 0.00012370778 2.6986734e-05
0.0 0.0001323822 -4.0478975e-05 -2.5819852e-06 -1.243297e-06 4.6474444e-05 -9.26835e-06 0.0

exp_avg_sq f4 [128, 7]
00000000: 5193 a129 6812 6f2f 29ed 3b30 0000 0000
00000010: f583 8930 4a42 812d efe7 4c29 2dd2 3329
00000020: c4eb 3a2f e16c 0330 0000 0000 c75b 2e30
00000030: cd31 2d2d 650b e428 0f6e 0d29 39e0 1a2f
00000040: 5a0f c22f 0000 0000 7837 9d2f 9132 172d
00000050: 9d5b b328 a1c3 3b29 f688 2f30 1117 d12f
00000060: 0000 0000 b35d fc2f 2387 352d 2e1e ee28
00000070: 73db b02a de2b 5630 1daf f42f 0000 0000
00000080: b52a e72f b75c 562e 3449 602a 96f2 6027
00000090: 5d84 092e b1ac e52e 0000 0000 40e5 f12e
000000a0: 6f38 072d efa2 0e27 330a 662a 17b2 1330
000000b0: 75c6 002f 0000 0000 b095 f72f fba3 212f
000000c0: 8add 112a d476 ad29 94f3 b32e 1904 e42e
000000d0: 0000 0000 3290 242f 504e 232e a5fb 5b29
000000e0: 4f67 6e2a 6807 7330 7278 852f 0000 0000
000000f0: e039 692f dced ab2d 2f2b 172a 0a82 7629
00000100: ad72 bc2e d182 e22f 0000 0000 6ad3 852f
00000110: a8f2 972d c04e 1c29 b259 802a a627 4230
00000120: 84d0 c92f 0000 0000 d84b fd2f 4fef 692e
00000130: 52c5 222a d611 222a 7cb2 6b30 4a67 192f
00000140: 0000 0000 9b8c 3c2f ab2a d42d 6588 cd29
00000150: 71d9 6b28 c332 c02e 5423 832e 0000 0000
00000160: c416 8b2e 0edd 772c 948c 1528 28f1 fe27
00000170: 8318 ba2e e4ec 482e 0000 0000 c2a7 862d
00000180: ba4e b12c d4a7 a127 2741 0b2a 3747 fc2f
00000190: 3912 0c30 0000 0000 19a4 9e2f a793 e22d
000001a0: 5c99 b029 b44e 6629 eb6e 1e30 766d 002f
000001b0: 0000 0000 abb3 c02e e5eb f72c fa08 1229
000001c0: 7f4a 8128 3ff6 952f 3ed4 832f 0000 0000
000001d0: a79f 3930 888b 9d2d b2f6 2328 0a5b 2628
000001e0: 0d59 252e dc90 2a2e 0000 0000 2fcf 552e
000001f0: bdcf bc2c d2f7 d227 9ca8 3428 1644 d82e
00000200: 9271 912e 0000 0000 8dfb 922e 5c3d 882d
00000210: 591b e527 0631 2029 3adf 9b2f e041 a72f
00000220: 0000 0000 969c 962e 1a69 062d 9e26 cb28
00000230: 5c7e 8528 1a38 082f c82b 0c2f 0000 0000
00000240: 1f79 c52e 5301 032d 124b 2928 2d8b 2528
00000250: f246 032f 280f 4f2e 0000 0000 bc9f 8e2d
00000260: d6ea 102c 37f0 d127 7810 0529 d669 972e
00000270: abb6 5f2f 0000 0000 315c 672f 4e2b bb2d
00000280: b9bf a828 b977 1029 0b3e 0630 593d 1a30
00000290: 0000 0000 eb44 9c2f 5ed6 992d da35 b728
000002a0: fc32 ba29 2764 df2f 0c32 892f 0000 0000
000002b0: 577b 8c2f 4d59 112d 1322 6c29 a2d6 ad28
000002c0: ca79 332e 90d5 ca2d 0000 0000 7d81 802e
000002d0: f327 a42c 2275 5c28 9c2a 0f29 8fc5 fc2f
000002e0: 718f 982f 0000 0000 3d9e 082f 71eb 0c2d
000002f0: 658f b528 ed79 8d28 419b f62f 4720 bb2f
00000300: 0000 0000 4acf 282f e159 4b2d a96a 3328
00000310: 758e 5e29 64f2 9c2f 1f10 492e 0000 0000
00000320: e21f 152f e0e2 832c cb1e 0d29 8b11 e929
00000330: 3a1b 492f ee47 9b2f 0000 0000 602f 922f
00000340: 246a a52d 2ec9 9329 ecb7 5828 16d0 8e2e
00000350: bff0 bf2e 0000 0000 b6c4 fe2e c9ce 232c
00000360: 246b 0928 fc35 5829 64fc 832f 898b 9f2f
00000370: 0000 0000 5ff4 5730 afa2 512d bc18 0929
00000380: fde2 ae2a 4312 e82f cdaa 3930 0000 0000
00000390: bea8 0430 a6b1 1a2e 76c9 5d2a f0a4 862a
000003a0: 3f09 752f fd74 af2e 0000 0000 b03c 0130
000003b0: 8c25 f52e a6c0 2a2a 9cc7 322b 2e0c 9330
000003c0: d510 9330 0000 0000 7c24 c130 93c0 102f
000003d0: 57b9 e22a 7c8d 7e2a b9ae dc2f 9fb2 972e
000003e0: 0000 0000 24e1 d42f 510b 6c2e 9e68 212a
000003f0: 96de 1b29 ed63 7f2e 7ef1 332e 0000 0000
7.1753916e-14 2.1743463e-10 6.836723e-10 0.0 1.0005566e-09 1.469504e-11 4.549827e-14 3.9928283e-14
1.7000362e-10 4.781225e-10 0.0 6.3431255e-10 9.8449695e-12 2.5318027e-14 3.140375e-14 1.4085878e-10
3.5299302e-10 0.0 2.8597547e-10 8.594584e-12 1.9912723e-14 4.1692022e-14 6.385926e-10 3.8033268e-10
0.0 4.590511e-10 1.0318665e-11 2.6436396e-14 3.1416154e-13 7.7915085e-10 4.4507767e-10 0.0
4.2049e-10 4.8740314e-11 1.9920594e-13 3.121775e-15 3.1267756e-11 1.04443905e-10 0.0 1.1000134e-10
7.686392e-12 1.9794785e-15 2.0431642e-13 5.373137e-10 1.1712038e-10 0.0 4.5035398e-10 1.4701122e-10
1.2955449e-13 7.703357e-14 8.183246e-11 1.03689675e-10 0.0 1.4966942e-10 3.7131465e-11 4.8846035e-14
2.1174489e-13 8.841341e-10 2.427814e-10 0.0 2.1211788e-10 1.954608e-11 1.3426476e-13 5.4735764e-14
8.569621e-11 4.120211e-10 0.0 2.4342778e-10 1.7274474e-11 3.4707263e-14 2.2799606e-13 7.063313e-10
3.6709846e-10 0.0 4.6074322e-10 5.3190615e-11 1.445695e-13 1.4394678e-13 8.5746144e-10 1.3951965e-10
0.0 1.7148453e-10 2.4120558e-11 9.1274895e-14 1.3092271e-14 8.740166e-11 5.963466e-11 0.0
6.325032e-11 3.5223521e-12 8.3016446e-15 7.0760624e-15 8.462655e-11 4.5685136e-11 0.0 1.5308536e-11
5.039383e-12 4.4868436e-15 1.2368284e-13 4.5889134e-10 5.09576e-10 0.0 2.885663e-10 2.5758796e-11
7.842574e-14 5.1138523e-14 5.763769e-10 1.168042e-10 0.0 8.7630646e-11 7.046352e-12 3.2426298e-14
1.4354185e-14 2.727791e-10 2.3979568e-10 0.0 6.752949e-10 1.7910798e-11 9.101811e-15 9.234592e-15
3.759575e-11 3.8782186e-11 0.0 4.861461e-11 5.366345e-12 5.8555396e-15 1.00285686e-14 9.834637e-11
6.614011e-11 0.0 6.683996e-11 1.5488659e-11 6.358992e-15 3.5569658e-14 2.8352948e-10 3.042393e-10
0.0 6.8490255e-11 7.640355e-12 2.2554275e-14 1.4820766e-14 1.2389059e-10 1.274848e-10 0.0
8.980038e-11 7.446782e-12 9.397663e-15 9.189519e-15 1.1939585e-10 4.7079812e-11 0.0 1.6214467e-11
2.059399e-12 5.8269594e-15 2.9546217e-14 6.885485e-11 2.0346629e-10 0.0 2.104208e-10 2.127867e-11
1.8734893e-14 3.2078266e-14 4.8837084e-10 5.6112054e-10 0.0 2.8425204e-10 1.7489284e-11 2.0340436e-14
8.268904e-14 4.0634626e-10 2.4955715e-10 0.0 2.555349e-10 8.2621245e-12 5.243208e-14 1.929994e-14
4.080806e-11 2.3059582e-11 0.0 5.843768e-11 4.6655956e-12 1.2237852e-14 3.1789336e-14 4.5978907e-10
2.775056e-10 0.0 1.2425345e-10 8.010357e-12 2.0157224e-14 1.5707022e-14 4.4857454e-10 3.4038036e-10
0.0 1.5353155e-10 1.1559171e-11 9.959624e-15 4.9417464e-14 2.8548464e-10 4.5716427e-11 0.0
1.3562798e-10 3.748432e-12 3.1334998e-14 1.0350322e-13 1.8290516e-10 2.8245445e-10 0.0 2.6590907e-10
1.8805464e-11 6.5630105e-14 1.203029e-14 6.494376e-11 8.7284395e-11 0.0 1.15855256e-10 2.3278482e-12
7.62826e-15 4.800846e-14 2.4008096e-10 2.9021077e-10 0.0 7.8563817e-10 1.19163976e-11 3.0441565e-14
3.1066114e-13 4.221353e-10 6.754533e-10 0.0 4.826112e-10 3.517333e-11 1.9698639e-13 2.391763e-13
2.2285905e-10 7.97886e-11 0.0 4.701617e-10 1.114798e-10 1.5165871e-13 6.3515317e-13 1.0699119e-09
1.0700442e-09 0.0 1.4052968e-09 1.316514e-10 4.027427e-13 2.2608819e-13 4.0141915e-10 6.8984145e-11
0.0 3.8722547e-10 5.367024e-11 1.4335969e-13 3.4609976e-14 5.806904e-11 4.0914376e-11 0.0

exp_avg f4 [128]
00000000: 8da6 44b8 5566 e4b8 892f eab8 776d 09b9
00000010: bac6 c0b9 04bc b2b7 4c74 b1b9 8e49 5e39
00000020: 3083 b6b9 add2 30b9 ae05 a9b9 efb0 93b9
00000030: 64ea b238 d091 6bb8 4c02 84b9 42f5 0db9
00000040: 4d65 45b7 8e4b 8b38 d847 3db8 b408 5ab8
00000050: da64 00b7 cadb 9538 2497 f037 8c1f dfb8
00000060: 1a3c 6db9 b8ca e0b8 7411 fdb8 2b23 adb8
00000070: df41 39b9 6c21 83b9 3bf9 56b8 b4c5 1538
00000080: a439 e4b9 fcb1 beb9 af17 21ba 4fe3 c1b9
00000090: 2db0 14b9 6bc0 eb37 9179 dd38 5d27 c5b9
000000a0: ffd6 3939 aca9 8d38 f6a2 6e39 2402 8538
000000b0: baa7 0c39 5974 eeb8 2ddc 8fb8 c796 e4b8
000000c0: bd20 b7b9 148a acb8 5a5d 6738 7b4b 70b9
000000d0: 4458 cab8 386d c038 c7e3 32b9 1299 18b7
000000e0: 052d 0fb9 2564 3ab8 2bd6 33b9 01ff d9b9
000000f0: b0f0 c1b9 4fe5 f038 129a 32b9 80aa 54b9
00000100: c04e 7bb8 c3e3 21b8 a03d 93b8 1a00 b5b9
00000110: 381a de37 eb0a 7cb8 3ce4 d6b9 6de1 6cb9
00000120: 78d8 e5b8 a7ae 36b9 a20c 94b8 d7dc 46b9
00000130: f535 78b7 d37f 0239 e983 adb9 f006 3539
00000140: 0628 7bb9 c82a b9b9 7d2d 27b9 9e88 d7b9
00000150: 0343 04b9 71b1 c237 8355 34b8 8deb 60b9
00000160: 4a4b bbb9 428a 9bb8 5e33 12b9 eac6 2fb9
00000170: f120 03b9 8b28 20b9 205f bbb8 a795 21b9
00000180: 9472 b537 8422 3939 2e2b 4939 837a 92b8
00000190: a083 0037 6a58 86b9 0cdd 9a38 f564 44b9
000001a0: d63a 87b9 68d6 73b9 2bbd 68b9 d7a7 3ab8
000001b0: 2e93 b7b8 4768 9eb7 a7f0 b836 8d30 b1b9
000001c0: 4170 7138 77bf 9e38 6771 f738 10e6 0c39
000001d0: 7d4f b4b8 bf48 16b9 66d4 28b9 2148 6a38
000001e0: 8bcc e4b6 a32c 5eb9 5f3d 04b8 9934 4138
000001f0: 97fe 9b37 5a5f 8eb9 05b9 70b8 cff2 84b9
-4.6885154e-05 -0.00010890948 -0.000111668436 -0.00013106117 -0.00036769157 -2.1306805e-05 -0.0003384672 0.00021198971
-0.00034811487 -0.00016863151 -0.00032238424 -0.0002816985 8.53136e-05 -5.6164165e-05 -0.00025178713 -0.00013538174
-1.1765701e-05 6.64211e-05 -4.512802e-05 -5.1983356e-05 -7.652876e-06 7.1458126e-05 2.868061e-05 -0.00010639345
-0.00022624471 -0.00010718912 -0.00012067231 -8.2558334e-05 -0.00017667514 -0.00025011168 -5.125369e-05 3.5708494e-05
-0.00043530494 -0.00036372233 -0.0006145192 -0.00036981187 -0.0001418001 2.8103785e-05 0.00010560745 -0.00037604096
0.00017723067 6.755008e-05 0.00022758156 6.342333e-05 0.00013413923 -0.00011370396 -6.859782e-05 -0.00010899972
-0.00034928872 -8.227318e-05 5.5161632e-05 -0.00022916302 -9.648551e-05 9.175617e-05 -0.00017060257 -9.0955455e-06
-0.00013654314 -4.4439123e-05 -0.00017150554 -0.00041579458 -0.00036991155 0.00011486804 -0.00017032798 -0.00020281412
-5.9916405e-05 -3.859751e-05 -7.020985e-05 -0.00034523086 2.6476671e-05 -6.009165e-05 -0.0004098731 -0.00022590692
-0.000109598914 -0.00017421936 -7.059543e-05 -0.0001896502 -1.4794515e-05 0.00012445384 -0.00033095412 0.0001726409
-0.00023952135 -0.00035317824 -0.00015943307 -0.00041109783 -0.00012613465 2.320923e-05 -4.2994983e-05 -0.00021450054
-0.00035723514 -7.4167285e-05 -0.00013942781 -0.00016763402 -0.00012505405 -0.00015273892 -8.934573e-05 -0.00015409906
2.1630236e-05 0.00017655833 0.0001918494 -6.984642e-05 7.660041e-06 -0.00025624345 7.3844654e-05 -0.00018729626
-0.00025793043 -0.00023254158 -0.00022195715 -4.450217e-05 -8.753534e-05 -1.8883626e-05 5.511643e-06 -0.00033796244
5.7563422e-05 7.56969e-05 0.00011799001 0.00013437145 -8.597875e-05 -0.00014332215 -0.00016100853 5.5857123e-05
-6.8187414e-06 -0.00021188198 -3.152841e-05 4.606377e-05 1.8595993e-05 -0.00027155393 -5.7392772e-05 -0.00025357908
