results/phase1.2/PlayerAgent/PlayerAgent-17016.onnx (onnx, 80832 bytes, 11 tensors)

discrete_act_size_vector f4 [1, 2]
0	0x40400000	3.0
1	0x40000000	2.0

network_body.observation_encoder.processors.0.normalizer.running_mean f4 [7]
0	0x3ea8a493	0.3293806
1	0xbf911f67	-1.1337708
2	0xbeb2c849	-0.3491843
3	0x00000000	0.0
4	0x3e1cd0f8	0.1531409
5	0xbca4c1b7	-0.020111902
6	0x3f7faf24	0.9987662

network_body._body_endoder.seq_layers.0.weight f4 [128, 7]
0	0x3ec75e31	0.3893905
1	0xbf48e244	-0.78470254
2	0x3e1ddf42	0.15417197
3	0xbecc30fb	-0.3988112
4	0xbe488427	-0.19581662
5	0xbd8f335f	-0.0699222
6	0x3d1445b8	0.0361993
7	0xbe3e3299	-0.18573989
8	0x3ed8e72a	0.42363864
9	0x3e9a4603	0.3013154
10	0xbf01b579	-0.5066753
11	0xbf07cca1	-0.53046614
12	0xbd6de85e	-0.05808293
13	0xbe0f0aab	-0.13968913
14	0x3e905684	0.28191006
15	0x3dbfe6e3	0.0937021
16	0x3e809c01	0.25119022
17	0x3d70161d	0.05861484
18	0xbd69a9a4	-0.057046548
19	0x3eaf8fa8	0.3428929
20	0xbd3bd0e0	-0.045853496
21	0x3eb5be04	0.35496533
22	0x3eb8f563	0.36124715
23	0xbec26535	-0.3796784
24	0x3ded1926	0.11577062
25	0xbe1666c2	-0.14687636
26	0x3eaee41e	0.34158415
27	0x3e8cb5d3	0.2748247
28	0xbeefe43c	-0.46853817
29	0xbe2acd8e	-0.16679975
30	0xbf528772	-0.82237923
31	0x3e4176dc	0.18892998
32	0xbe7c9ebd	-0.24669929
33	0x3ca8400d	0.020538354
34	0xbe09edd0	-0.13469625
35	0xbea2ec71	-0.31821015
36	0x3e0ee2e1	0.13953735
37	0x3ca05e43	0.019576197
38	0xbe92fdde	-0.2870931
39	0x3df1c321	0.11804796
40	0x3e962e67	0.29332277
41	0xbeb688e0	-0.35651302
42	0xbe1bfdd6	-0.1523355
43	0xbe09b388	-0.13447392
44	0xbf180f58	-0.5939841
45	0xbd2763c5	-0.040866632
46	0x3ec683a3	0.38772306
47	0x3f6d20d2	0.92628205
48	0xbd1dc5f2	-0.038518853
49	0xbe275497	-0.16340862
50	0xbebcadc9	-0.36851338
51	0x3e65728a	0.22406974
52	0x3e70caa8	0.23514807
53	0xbef47022	-0.477418
54	0xbdb9b1db	-0.09067126
55	0xbf122f7b	-0.571037
56	0xbd92e911	-0.0717336
57	0x3e8691e1	0.26283172
58	0xbea174bc	-0.31534374
59	0xbe7453de	-0.23860118
60	0x3e18d74e	0.14925882
61	0xbe34924f	-0.17633937
62	0xbc7a51dc	-0.015278306
63	0x3c844dbd	0.01615035
64	0xbd9b535d	-0.0758426
65	0x3e324f80	0.1741314
66	0xbea5b6a2	-0.323659
67	0x3c2fa86a	0.010721305
68	0xbdbe21be	-0.092837796
69	0xbda539ea	-0.08067687
70	0xbd74ab93	-0.05973394
71	0xbe84c030	-0.25927877
72	0xbe80dfbb	-0.25170693
73	0xb9d7a60c	-0.0004113171
74	0xbdcbefde	-0.099578604
75	0x3e1472aa	0.14496866
76	0xbea43869	-0.32074288
77	0xbed31678	-0.4122808
78	0xbd5090bf	-0.05091929
79	0x3ef87f5a	0.48534662
80	0x3d9f8655	0.07789294
81	0xbe9ff6e0	-0.31243038
82	0xbf8f4faf	-1.1196193
83	0x3e87bb75	0.26510206
84	0x3f6e1893	0.9300625
85	0xbe9e7397	-0.30947563
86	0x3d098285	0.03357174
87	0xbe24b8f5	-0.1608618
88	0x3e2ef88e	0.17087004
89	0xbf2c130a	-0.6721655
90	0xbf089198	-0.5334716
91	0xbe865e9a	-0.2624405
92	0xbe244252	-0.16040924
93	0x3db84eaf	0.08999383
94	0xba1e8131	-0.00060464727
95	0x3e4a4ebb	0.19756596
96	0x3d9b26f1	0.07575787
97	0x3f80d042	1.0063555
98	0x3df67b6f	0.12035262
99	0xbe1971a4	-0.14984757
100	0x3ed3c6b9	0.4136255
101	0x3f161ada	0.5863472
102	0xbf1276a7	-0.572123
103	0x3f318875	0.6934884
104	0x3e96b98d	0.2943844
105	0x3d87406c	0.06604084
106	0xbcce9d21	-0.02522141
107	0xbe6e067d	-0.23244663
108	0xbdce726c	-0.10080418
109	0xbf53ec05	-0.8278201
110	0x3daa7900	0.0832386
111	0x3e16abfe	0.14714047
112	0x3e807ca9	0.25095108
113	0x3e97d86f	0.29657313
114	0x3c1fe1fd	0.00975847
115	0xbe8fcb4c	-0.2808479
116	0xbca8be53	-0.020598566
117	0xbeac38ab	-0.33636984
118	0x3d909163	0.0705898
119	0xbd668c23	-0.05628599
120	0xbd1ba57d	-0.03799962
121	0x3e905497	0.28189537
122	0xbc9b304e	-0.018943932
123	0x3da1e806	0.07905583
124	0xbf0b084e	-0.54309547
125	0x3dc08a3f	0.09401368
126	0x3c8ab346	0.016931187
127	0x3eb9c105	0.36280075
128	0xbe463472	-0.19355944
129	0x3e7a41e8	0.24439204
130	0xbed8989a	-0.42303926
131	0x3da180f6	0.078859255
132	0xbc183b67	-0.009291506
133	0xbebd3154	-0.36951697
134	0xbf087af1	-0.53312594
135	0x3f14e906	0.58168066
136	0x3f520d62	0.8205167
137	0x3f095a08	0.53653
138	0xbf60bb20	-0.8778553
139	0xbd3772ef	-0.044787344
140	0x3ebf5595	0.3736998
141	0x3dabab51	0.083822854
142	0x3d4ee46e	0.050510816
143	0xbe57e550	-0.2108357
144	0xbe2d5520	-0.16927004
145	0x3f50418b	0.8135001
146	0x3e173fe5	0.14770468
147	0x3eacfc41	0.33786204
148	0x3e5dad5f	0.21648167
149	0xbcbca5ba	-0.023028243
150	0x3e830919	0.25592878
151	0x3e8aae60	0.27086163
152	0x3de54630	0.11195028
153	0x3d059a46	0.03261783
154	0xbf2dabda	-0.6784035
155	0xbf1ffee2	-0.62498295
156	0xbf2d90b8	-0.6779895
157	0x3f086f8e	0.5329522
158	0xbdb3dd5c	-0.08782455
159	0x3d8693fe	0.06571196
160	0xbdf2d3e8	-0.11856824
161	0xbbb81e69	-0.0056188595
162	0x3f054661	0.52060515
163	0xbe1ce7d4	-0.1532281
164	0xbf37e5a4	-0.7183478
165	0x3eaf5b47	0.34249327
166	0xbebb049a	-0.36526948
167	0x3f148696	0.5801786
168	0x3e27c25f	0.1638274
169	0xbe8e3509	-0.27774838
170	0xbf3191d5	-0.6936315
171	0x3e8030f2	0.25037342
172	0xbf0234f0	-0.50862026
173	0xbebf1b1d	-0.37325373
174	0x3e47ed85	0.195242
175	0xbe93aeb4	-0.28844225
176	0xbe4392d0	-0.19098973
177	0x3ebc972b	0.36834082
178	0xbec8377d	-0.39104834
179	0x3ea9f182	0.33192068
180	0x3f2da063	0.67822856
181	0x3e94c247	0.29054472
182	0xbf222b74	-0.63347554
183	0x3f0f4b2e	0.5597409
184	0x3efcf68c	0.4940685
185	0xbeed636a	-0.4636491
186	0xbf1cb5de	-0.6121501
187	0xbddb46c8	-0.1070686
188	0xbebebcda	-0.37253457
189	0xbe9d66c4	-0.30742466
190	0xbed8d9f7	-0.42353794
191	0xbd749db6	-0.059720717
192	0x3de0f288	0.10983759
193	0x3ea8b2fd	0.32949057
194	0xbef16427	-0.47146723
195	0xbee5e232	-0.44899136
196	0x3ee0bcd0	0.43894053
197	0x3e1111ba	0.14166918
198	0xbee83145	-0.4535009
199	0xbee2acd2	-0.44272476
200	0xbe21cbdc	-0.15800422
201	0xbe91b61e	-0.28459257
202	0xbf4c1486	-0.79718816
203	0x3ebb170e	0.36541027
204	0x3e205bc3	0.15660004
205	0x3e728e71	0.2368715
206	0xbe8de66d	-0.27714863
207	0x3d48d1fd	0.049028385
208	0x3dffdcca	0.12493284
209	0xbece3e91	-0.4028211
210	0x3ed9c123	0.42530164
211	0x3e3bf718	0.18355978
212	0xbd702932	-0.058633037
213	0x3d94370d	0.072370626
214	0x3d261de0	0.040555835
215	0x3e1a1f9e	0.15051123
216	0x3eb05fc6	0.3444807
217	0xbec0eea8	-0.3768208
218	0x3f0bb26b	0.5456912
219	0x3d1c47c4	0.03815438
220	0x3f3b7824	0.73230195
221	0xbe74f92e	-0.2392318
222	0xbe4c85bf	-0.19972895
223	0x3f62bb41	0.88566977
224	0xbe41b068	-0.1891495
225	0x3d9b77d6	0.07591216
226	0x3f057c4a	0.52142775
227	0x3ec229fa	0.3792265
228	0xbeca0ae6	-0.3946144
229	0x3ec8ea8f	0.39241454
230	0x3efd2206	0.4944002
231	0x3e56e697	0.209864
232	0xbe8bf19e	-0.27332777
233	0x3e18ed89	0.14934362
234	0xbf340ea7	-0.7033486
235	0xbf234932	-0.6378356
236	0x3e87fb02	0.2655869
237	0xbe4a418e	-0.1975157
238	0xbe62fa11	-0.22165705
239	0x3e9cb67d	0.30607978
240	0x3e7f2577	0.24916635
241	0x3e49ec05	0.1971894
242	0xbe520ca5	-0.20512636
243	0x3f0d0c61	0.55097014
244	0xbf803963	-1.0017513
245	0x3ee974fc	0.45597064
246	0xbdb523ea	-0.08844741
247	0x3eee70b4	0.4657036
248	0xbecd24c0	-0.400671
249	0x3e90740f	0.28213546
250	0xbea94a53	-0.33064517
251	0xbec7122d	-0.38881055
252	0x3e937d78	0.28806663
253	0xbe947d00	-0.29001617
254	0x3bab593f	0.005229145
255	0xbe8b57b7	-0.2721536

network_body._body_endoder.seq_layers.0.bias f4 [128]
0	0xbb02618f	-0.0019894575
1	0x3be743d0	0.0070576444
2	0x3c007b9f	0.007841974
3	0x3c06fc10	0.008238807
4	0xbb86c01b	-0.004112256
5	0x3c0ea7c7	0.008706993
6	0x3c17b9fb	0.00926065
7	0x3c0457a9	0.00807754
8	0xbb9f9edf	-0.004871234
9	0xbc0c7d95	-0.008574863
10	0x3c15092f	0.009096428
11	0x3c1326a8	0.008981384
12	0xbc0c072b	-0.008546631
13	0x3c07530d	0.008259547
14	0xbb2c500c	-0.002629283
15	0xbbe3f94c	-0.0069572087
16	0xbb166d38	-0.0022953283
17	0x3bbb846c	0.005722573
18	0xbb6a58a2	-0.0035758396
19	0x3c0c5b97	0.008566759
20	0xbb99be16	-0.0046918495
21	0x3c0fc67f	0.0087753525
22	0x3c12ef47	0.008968181
23	0x3c0c8834	0.008577395
24	0xbaae7719	-0.001331064
25	0x3c0e8a5d	0.008699981
26	0x3c0f3493	0.008740562
27	0xbba24687	-0.004952255
28	0x3c04a48b	0.008095871
29	0xbc0b57e1	-0.008504839
30	0x3c07d67a	0.008290881
31	0x3b9dc422	0.0048146406
32	0x3c11c3ec	0.008896809
33	0xbbc2d8ae	-0.0059462404
34	0x3b0d71fa	0.0021582828
35	0xbc1177e1	-0.008878679
36	0x3ba6ce5e	0.005090519
37	0x3c0c7c76	0.008574596
38	0x39fa413a	0.00047732313
39	0xbb4d80e3	-0.003135734
40	0xbbf8dc50	-0.0075946227
41	0xbb0281bd	-0.0019913756
42	0x3bdbf59f	0.00671263
43	0xbc0ebfad	-0.008712691
44	0x3b87f5a8	0.0041491576
45	0x3c141115	0.009037276
46	0xbc0ac0ac	-0.008468788
47	0xbc030656	-0.007997116
48	0xbb217a8e	-0.0024639699
49	0x3b6dff49	0.0036315492
50	0xbbf932e1	-0.007604942
51	0x3c12df9e	0.008964447
52	0x3bd4a813	0.0064897626
53	0xbb9f9fac	-0.0048713293
54	0xbbd02ae7	-0.0063527706
55	0x3bcd6ccf	0.0062690745
56	0xbc0f00c0	-0.008728206
57	0x3c17dbbd	0.009268698
58	0x3bcdd6b4	0.006281698
59	0x3aa6d761	0.0012728983
60	0x3b89f2dd	0.0042098598
61	0xbc0a4243	-0.00843865
62	0xbc0ec795	-0.008714576
63	0xbc085495	-0.008320947
64	0x3c0d2182	0.008613946
65	0x3c11238d	0.008858574
66	0x3c13c7b7	0.009019784
67	0x3c0b9fbc	0.00852197
68	0x3c10a6ab	0.008828799
69	0x3c04244e	0.008065296
70	0xbb7a41d9	-0.003818622
71	0x3c161cc0	0.009162128
72	0xbc09e5ee	-0.008416636
73	0x3bb5f0f7	0.005552407
74	0x3c0076d2	0.007840829
75	0x3c142401	0.009041787
76	0xbbfacbcc	-0.007653689
77	0x3c1027c1	0.008798541
78	0xbc015ef6	-0.007896176
79	0x3af49934	0.0018661381
80	0xbbfe1afc	-0.0077546816
81	0x3ac20ea3	0.0014805387
82	0x3c0f070f	0.00872971
83	0x3c0b01f4	0.008484352
84	0xbba30868	-0.0049753673
85	0xbb6dd6b5	-0.0036291305
86	0x3bfcd7b3	0.007716143
87	0xba1f00f4	-0.00060655107
88	0x3af81e15	0.0018929864
89	0xbc0b017a	-0.008484239
90	0xbbd3515c	-0.006448908
91	0xbbe1b3b5	-0.006887878
92	0x3c02fe70	0.007995233
93	0xbbdaf7e1	-0.0066823815
94	0x3a79de17	0.000953169
95	0xba93981b	-0.0011260541
96	0x3c1416f3	0.009038675
97	0x3c142a9e	0.009043364
98	0x3c0b9003	0.008518222
99	0xbb8b93b2	-0.00425955
100	0xbc015cbf	-0.007895648
101	0x3c1130fa	0.008861775
102	0x3beb0ed1	0.007173397
103	0x3bface01	0.007653952
104	0xbc0c6925	-0.00856999
105	0x3c0b051e	0.008485107
106	0x39bf2f49	0.0003646559
107	0x3c0cc007	0.008590705
108	0x3c1713cc	0.009221029
109	0xbbff27c8	-0.0077867247
110	0x3c11ac94	0.0088912435
111	0x3b9573f8	0.0045609437
112	0x3bc8ad19	0.0061241505
113	0x3b3b7662	0.0028604497
114	0xbb9dc4bb	-0.004814712
115	0x3c1678d7	0.009184084
116	0x3c09613f	0.008385002
117	0x3be6ea9b	0.00704701
118	0xbb922d08	-0.0044609345
119	0x3c124dd9	0.008929693
120	0x3bf75eda	0.007549149
121	0x3b924c7f	0.0044646855
122	0x3c044ec9	0.0080754245
123	0x3bf37af9	0.007430431
124	0xbc0ea05c	-0.008705225
125	0x3bf3fd53	0.00744597
126	0x3c0149c2	0.00789112
127	0xbbda45a3	-0.0066611334

network_body._body_endoder.seq_layers.2.weight f4 [128, 128]
0	0xbe18d706	-0.14925775
1	0x3d1854f6	0.0371904
2	0x3dd660c5	0.10467676
3	0x3d52bf3e	0.051451914
4	0xbb9734a5	-0.00461443
5	0xbd8d4496	-0.06897847
6	0x3d802c8e	0.06258498
7	0x3d516a7d	0.051126946
8	0x3d90d999	0.070727535
9	0x3cd789d8	0.026310846
10	0x3ce02ab8	0.02736412
11	0x3e07891f	0.13235901
12	0x3d26b2cc	0.040697858
13	0x3d106f70	0.035262525
14	0xbe18c7ce	-0.1491997
15	0xbdaa6d67	-0.08321648
16	0xbd837920	-0.06419587
17	0xbd967f54	-0.07348505
18	0x3d8c06ba	0.068372205
19	0xbd023e64	-0.03179778
20	0xbd43a853	-0.04776795
21	0x3dd04b47	0.10170608
22	0x3da18773	0.07887163
23	0xbc935c5d	-0.017988378
24	0xbc0d091b	-0.008608128
25	0x3d220ba3	0.03956188
26	0xbd4c302c	-0.049850628
27	0xbc48b9ad	-0.0122513
28	0x3e0c9e8c	0.13732356
29	0xbb250e56	-0.0025185547
30	0x3db39287	0.08768182
31	0x3cc6623e	0.024216767
32	0x3dae9a1f	0.0852549
33	0xbd576499	-0.05258617
34	0xbde9da40	-0.11418581
35	0x3cffe08f	0.031235008
36	0xbd927f9c	-0.07153246
37	0xbd0b7318	-0.03404531
38	0x3c4aeaef	0.012385114
39	0xbcd8d259	-0.02646749
40	0xbe08702a	-0.13324037
41	0x3e8a6bba	0.27035314
42	0xbdd0618a	-0.10174854
43	0xbde9ce6d	-0.11416326
44	0x3d9ec085	0.07751564
45	0x3dd030d0	0.1016556
46	0x3d5b91bb	0.053605776
47	0xbd5b7c22	-0.05358518
48	0xbe168ecf	-0.14702915
49	0xbda27e81	-0.07934285
50	0x3c9b7cbf	0.018980382
51	0xbdf73392	-0.12070383
52	0x3d90c3b6	0.07068579
53	0xbd1999a4	-0.03750004
54	0xbdf9436a	-0.12171061
55	0x3d9d8905	0.0769215
56	0x3db82c17	0.089927845
57	0xbdc33407	-0.09531408
58	0x3e627576	0.2211512
59	0x3b4237c2	0.0029635285
60	0xbbca744a	-0.0061784135
61	0xbd94557a	-0.07242866
62	0xbb94bf1a	-0.0045393826
63	0xb9ec8dbd	-0.0004511903
64	0x3e006fd4	0.12542659
65	0xbdc76d03	-0.09737589
66	0x3e66bf8e	0.2253401
67	0x3d1e9d69	0.038724337
68	0x3db2ce85	0.08730797
69	0xbd8d0b7f	-0.06886958
70	0xbdeabf68	-0.11462289
71	0xbcd49dbb	-0.025954118
72	0x3d88ed39	0.06685872
73	0xbd0cab82	-0.03434325
74	0xbd862064	-0.06549147
75	0xbe04b83f	-0.1296091
76	0x3c96705e	0.018364128
77	0xbc4f8a5f	-0.012667268
78	0xbcd30cf3	-0.02576301
79	0x3d15c449	0.036564145
80	0x3df67a1b	0.120350085
81	0xbd5a756a	-0.05333463
82	0xbcc977cf	-0.024593262
83	0x3c5c574a	0.013448546
84	0xbe9d66ea	-0.3074258
85	0xbe38ad24	-0.18034798
86	0x3e30cae0	0.1726489
87	0x3d901cc5	0.07036737
88	0xbe10383d	-0.14083953
89	0xbd43c7bb	-0.0477979
90	0x3d71f061	0.059067134
91	0xbd34171b	-0.043967348
92	0x3e31e7e1	0.17373611
93	0xbe31aec2	-0.17351821
94	0xbdbddec4	-0.09271005
95	0x3d9c51d5	0.07632796
96	0x3dc2f532	0.095194235
97	0xbd39f57f	-0.04540014
98	0xbc18b838	-0.009321265
99	0x3cef101a	0.029182483
100	0xbbc9678e	-0.006146378
101	0x3e4e2eeb	0.20135085
102	0x3dfcef6a	0.12350352
103	0xbc5778b8	-0.01315134
104	0xbc376d77	-0.011195532
105	0x3c23f92d	0.010008139
106	0x3e7287d5	0.23684628
107	0x3d994720	0.07484269
108	0x3d9592cb	0.07303389
109	0xbe21f475	-0.15815909
110	0x3dab9d65	0.0837963
111	0xbd4f1cd7	-0.050564613
112	0xbd12c138	-0.0358288
113	0x3c0bd89a	0.008535529
114	0x3bedffdb	0.0072631664
115	0x3dbb2e34	0.09139672
116	0xbdebe91a	-0.1151907
117	0xbe3667f9	-0.178131
118	0x3e19adb7	0.15007673
119	0xbd0620e0	-0.032746196
120	0xbd8c1a13	-0.06840911
121	0xbe1d9d86	-0.15392122
122	0x3d82d91b	0.06389066
123	0x3d917e55	0.07104174
124	0xbc049281	-0.00809157
125	0x3c95b68c	0.018275522
126	0x3c7d19d5	0.015448053
127	0xbce6c6ea	-0.028171021
128	0xbd809e28	-0.06280166
129	0xbcb767d4	-0.022388376
130	0xbddd5143	-0.10806515
131	0xbd8c41b2	-0.06848468
132	0xbd2c09b9	-0.04200146
133	0xbc94d132	-0.018166158
134	0xbde7f951	-0.1132685
135	0xbcefb051	-0.029258879
136	0x3dd3601d	0.103210665
137	0x3e3be17e	0.18347737
138	0x3cb740de	0.022369798
139	0xbe114fd5	-0.1419061
140	0x3d96f08f	0.07370102
141	0xbdae6b80	-0.08516598
142	0xbe0f0a6c	-0.1396882
143	0xbc2d4dfd	-0.010577676
144	0x3dedb4cd	0.11606751
145	0xbb6fcdd4	-0.003659119
146	0xbc2f27f7	-0.010690681
147	0xbd565dc9	-0.052335534
148	0x3d441593	0.047872137
149	0xbd8f194e	-0.06987248
150	0x3d58de92	0.052946635
151	0x3db437fc	0.08799741
152	0x3cf527b6	0.029926162
153	0x3d603a05	0.05474283
154	0x3d16770d	0.03673463
155	0xbda74ab2	-0.08168544
156	0xbd2d98e7	-0.042382147
157	0x3d278f86	0.04090836
158	0x3e37e7ef	0.1795957
159	0x3d90b3b7	0.07065528
160	0xbe2aff6f	-0.16699003
161	0x3dc99f1a	0.09844799
162	0x3c88ad62	0.016684238
163	0x3d69faea	0.057124056
164	0x3d019361	0.031634692
165	0x3c10a7ea	0.008829096
166	0x3dfb6bb4	0.12276402
167	0x3b84eca5	0.0040565305
168	0x3e02520e	0.12726614
169	0xbd9a7e19	-0.075435825
170	0xbe04c0d6	-0.12964186
171	0xbd1722e9	-0.036898527
172	0xbceb2d96	-0.02870826
173	0x3cb927bc	0.022601955
174	0xbd94af3f	-0.07259988
175	0xbd2babd0	-0.0419119
176	0x3dd16ad6	0.102254555
177	0x3c243c8b	0.0100242
178	0x3c358d5a	0.011081064
179	0xbca0cde0	-0.019629419
180	0xbc31d309	-0.010853537
181	0x3d910180	0.07080364
182	0xbd8f85f5	-0.07007972
183	0x3d25b820	0.0404588
184	0x3cf32ae7	0.029683543
185	0x3bd58560	0.0065161437
186	0xbdd6899d	-0.104754664
187	0xbd539d9d	-0.051663984
188	0xbdb96fae	-0.09054504
189	0x3e0fff86	0.14062318
190	0x3dfb3ee1	0.122678526
191	0x3df208bf	0.118180744
192	0x3d990f18	0.07473582
193	0x3d01f513	0.03172786
194	0x3e006011	0.12536646
195	0xbb24fe49	-0.002517598
196	0xbde17c7c	-0.11010072
197	0x3cc20b5c	0.023687057
198	0x3acc17b2	0.0015571027
199	0x3dea019b	0.114260875
200	0xbda121ea	-0.07867797
201	0xbdc0252d	-0.09382091
202	0xbcf84a34	-0.03030882
203	0x3d964e82	0.07339193
204	0xbd96fbf3	-0.07372274
205	0xbc07cda1	-0.008288772
206	0x3dc3eaab	0.09566244
207	0xbd90cab0	-0.070699096
208	0x3e1c81a7	0.15283833
209	0x3d3bf3a2	0.045886643
210	0xbd37f926	-0.04491534
211	0x3d24d552	0.0402425
212	0x3d754b40	0.059886217
213	0x3c93860e	0.018008258
214	0x3d83b7d4	0.06431547
215	0x3e250b63	0.16117625
216	0x3de658d6	0.11247413
217	0x3d8d04ae	0.06885658
218	0x3d1f88b6	0.038948737
219	0x3d65e9b0	0.056131065
220	0x3d80bd68	0.062861264
221	0x3d2cbb67	0.04217091
222	0x3d76dbbb	0.060268145
223	0xbca682ed	-0.020326102
224	0x3c44a392	0.012001889
225	0x3e077ce2	0.13231233
226	0x3afe29c5	0.001939111
227	0x3d9ba2a7	0.07599383
228	0x3d7c4b39	0.061595175
229	0xbda5042b	-0.080574356
230	0xbd2cc7aa	-0.042182602
231	0x3d54592d	0.051842857
232	0xbe218512	-0.15773419
233	0x3e0724dd	0.13197656
234	0xbb5723a0	-0.003282763
235	0xbdbaa569	-0.09113581
236	0x3d5213e4	0.0512885
237	0x3d8109d3	0.06300702
238	0xbd9422b1	-0.07233179
239	0x3c83fca6	0.016111683
240	0x3c1d1809	0.00958825
241	0x3d8a1e0b	0.067440115
242	0x3d20ee1a	0.03928957
243	0xbd3547b1	-0.044257823
244	0xbd6bc63c	-0.057562098
245	0x3c8dd8bb	0.01731526
246	0x3c519575	0.012791981
247	0x3d51488a	0.05109457
248	0x3cf9eea4	0.0305093
249	0xbd92142c	-0.07132754
250	0xbdabb1f6	-0.08383553
251	0xbd0ab561	-0.033864383
252	0x3c44aa84	0.012003545
253	0xbd1e1d1c	-0.03860198
254	0xbc91b0ee	-0.017784562
255	0xbc47b6a9	-0.012189546

network_body._body_endoder.seq_layers.2.bias f4 [128]
0	0x3c1147cf	0.008867218
1	0xbbf85aae	-0.0075791692
2	0x3c18e1a5	0.009331142
3	0xbc048d7a	-0.008090371
4	0x3c03f835	0.008054783
5	0xbc0681f3	-0.008209693
6	0x3c106ed0	0.008815482
7	0x3bba95a0	0.005694106
8	0x3beff215	0.0073225596
9	0xbc0715e7	-0.008244968
10	0x3c09eaeb	0.008417825
11	0x3bf67ed9	0.0075224456
12	0xbc112137	-0.008858017
13	0xbaecac94	-0.0018056803
14	0xbbd3f1e6	-0.0064680455
15	0x3c0d0e00	0.008609295
16	0xbbfa2069	-0.007633258
17	0x3c05f12b	0.008175175
18	0xbc054d6d	-0.0081361355
19	0x3bbdcb8d	0.0057920874
20	0xbc11698e	-0.008875264
21	0x3c13a917	0.009012482
22	0x3b34f4c0	0.0027611703
23	0x3c0da384	0.008644942
24	0x3c155bc0	0.009116113
25	0xbc12596f	-0.008932455
26	0xbbc4a6b6	-0.006001319
27	0xbbe99a79	-0.0071290103
28	0x3bf8cae1	0.0075925444
29	0xbbe6c936	-0.007043029
30	0x3c118813	0.00888254
31	0xbbcbfdfd	-0.006225346
32	0x39d2b2c4	0.00040187512
33	0x3bfefd9a	0.0077816965
34	0xbbddcfbf	-0.00676915
35	0x3c11e3af	0.008904382
36	0xbc184f75	-0.009296288
37	0x3c134c46	0.008990353
38	0xbb348de5	-0.0027550396
39	0x3c05a332	0.008156585
40	0xbbea5119	-0.007150781
41	0xbbaef350	-0.0053390637
42	0x3c0a7590	0.008450881
43	0x3bfc1b7d	0.0076937065
44	0xbc10421b	-0.008804823
45	0x3c090658	0.008363329
46	0x3c18a5b8	0.009316854
47	0xbc0ee681	-0.008721949
48	0x3c0241d6	0.007950267
49	0xbc08fe6d	-0.008361441
50	0x3c13b655	0.009015639
51	0x3c11eda0	0.008906752
52	0x3b66d6fe	0.003522336
53	0x3c0ca19b	0.008583452
54	0x3c132a6b	0.008982281
55	0xbc0c6777	-0.00856959
56	0x3c087332	0.008328246
57	0xbc0c5751	-0.00856574
58	0x3c0d4045	0.00862128
59	0xbb43e06f	-0.0029888412
60	0xbc17bb54	-0.009260971
61	0xbc038188	-0.008026488
62	0xbc0de711	-0.008661048
63	0x3b3d4594	0.0028880583
64	0xbbe30bd9	-0.0069289026
65	0xbbbc206c	-0.0057411697
66	0xbbb50188	-0.005523864
67	0x3c039af8	0.008032553
68	0x3c1215d1	0.008916334
69	0x3b82aae9	0.0039876592
70	0x3a0d4aca	0.00053898676
71	0xbc0c11de	-0.008549182
72	0x3bc837ba	0.0061101587
73	0x3bfc98c2	0.00770864
74	0x3c112703	0.008859399
75	0xbc0bd7e0	-0.008535355
76	0x3c107e26	0.008819139
77	0x3ac4dcd4	0.0015019425
78	0x3c18f471	0.009335623
79	0xbc03f6c0	-0.008054435
80	0xbc047607	-0.008084781
81	0xbb701ce9	-0.0036638326
82	0x3b351135	0.0027628664
83	0x3b62dd39	0.0034616722
84	0xbc10a946	-0.00882942
85	0xbbc372ff	-0.0059646363
86	0xbc01c27f	-0.007919907
87	0xbbfd0150	-0.0077211037
88	0xbb6e63fc	-0.0036375513
89	0xbb428b7f	-0.0029685197
90	0xbc0b4cb1	-0.008502171
91	0x3bfcd685	0.0077160024
92	0x3b29f97e	0.0025936062
93	0x3bda8c98	0.006669592
94	0xbc1610e9	-0.009159305
95	0xbc14c30d	-0.009079707
96	0xbc13b1f1	-0.0090145925
97	0xbc0eda56	-0.0087190475
98	0x3c149d4b	0.009070705
99	0x3a9fee87	0.0012201824
100	0xbbf9394f	-0.0076057087
101	0xbbb954b0	-0.0056558475
102	0xbb0a9b52	-0.0021149707
103	0x3c091130	0.008365914
104	0x3b9c756e	0.004774741
105	0xbc10da01	-0.008841039
106	0xbc0feb25	-0.00878409
107	0x3c0f5d4f	0.008750274
108	0xbc00befc	-0.007858034
109	0x3c0a7c76	0.008452525
110	0x3c07c6f7	0.008287183
111	0xbc10668e	-0.008813513
112	0xbc180b22	-0.009279998
113	0xbc196867	-0.00936327
114	0xbc0a0d50	-0.0084260255
115	0xbaa9e7cc	-0.0012962758
116	0xbbf04be9	-0.007333268
117	0x3c13dd93	0.009024995
118	0x3c155f91	0.009117023
119	0xbc03ebe1	-0.008051843
120	0xbc1155e8	-0.008870579
121	0x3bdc3603	0.006720306
122	0xba42a2a6	-0.0007424749
123	0x3c09ac1c	0.0084028505
124	0xb9e30b03	-0.00043305018
125	0x3c0dce8d	0.008655203
126	0x37766f4b	1.4688655e-05
127	0x3b9ac9ce	0.004723764

action_model._discrete_distribution.branches.0.weight f4 [3, 128]
0	0x3bd6f289	0.006559674
1	0xbbe290a2	-0.006914214
2	0xba04a795	-0.0005060372
3	0x3c361632	0.01111369
4	0xbc5aff02	-0.013366463
5	0xbaeea93f	-0.0018208398
6	0xbc877484	-0.016535051
7	0x3affef80	0.0019526333
8	0xbc09e130	-0.008415505
9	0x3bd8746b	0.006605675
10	0x3c180fa1	0.00928107
11	0xbad7ed2c	-0.0016473881
12	0x3b1a169a	0.0023512007
13	0x3baa89f8	0.0052044354
14	0x3b30663b	0.0026916403
15	0x3c4cbf9e	0.012496857
16	0xbc4a5f26	-0.012351787
17	0x3be1396c	0.0068733003
18	0xbb9b753e	-0.004744201
19	0xba1217db	-0.0005573013
20	0xbc136fcd	-0.008998823
21	0x3c83ea0c	0.016102813
22	0x3bb5c56b	0.0055472157
23	0xb9826a02	-0.00024874514
24	0x3c007ef7	0.007842771
25	0x3bc0646c	0.005871346
26	0xbc73b8dd	-0.014875618
27	0xbc5e39cc	-0.013563585
28	0x3c6c4bd9	0.01442238
29	0x3bc387c2	0.0059671113
30	0x3c415d19	0.011801981
31	0xbbd670f0	-0.006544225
32	0xbc8fc460	-0.017549694
33	0x3c7b0271	0.015320406
34	0x3c7416da	0.014898026
35	0xbb9f912d	-0.004869601
36	0x3c09d3ad	0.008412284
37	0x3bb59c69	0.005542327
38	0x3b47078d	0.003036949
39	0x3afd0c54	0.0019306042
40	0xbb72e544	-0.0037062922
41	0x3ba40fe0	0.0050067753
42	0x3b34549b	0.002751625
43	0xbc606e1b	-0.013698126
44	0xbbba8083	-0.0056915893
45	0x39b16b79	0.00033840144
46	0xbb9074cc	-0.0044084545
47	0x3bbb1254	0.005708972
48	0x3bec0231	0.0072024097
49	0xbb56fb62	-0.0032803644
50	0x3bf534a6	0.007483083
51	0x3a89389c	0.0010469141
52	0x3caa32d0	0.020776182
53	0xbc3c72cd	-0.01150198
54	0x3b67b5cb	0.003535616
55	0xbb9cc7ba	-0.0047845514
56	0x3b807670	0.003920369
57	0x3bc983dc	0.006149752
58	0x39b2b231	0.0003408357
59	0xbbb0a1ec	-0.0053903963
60	0x3b8da5ac	0.004322728
61	0xbaf19c96	-0.0018433507
62	0x3bbfd7c6	0.0058545796
63	0xba340b1b	-0.000686811
64	0xbb3d7797	-0.0028910392
65	0xbb93db5a	-0.0045122327
66	0xbc822b67	-0.015889836
67	0x3bbe3c5c	0.0058055352
68	0x3bc7e689	0.00610048
69	0x3c974455	0.0184652
70	0xbb575420	-0.003285654
71	0xbbb4ddb9	-0.0055195955
72	0x3a95a01d	0.0011415515
73	0xbbbede36	-0.0058248295
74	0x3b2ebf67	0.0026664378
75	0xbb3b14d8	-0.002854636
76	0x3c4393fe	0.01193714
77	0x3b25bb65	0.0025288698
78	0x3beb3e92	0.00717909
79	0xbb19f06a	-0.0023489245
80	0xbc1b604c	-0.009483408
81	0x3a8a84f0	0.0010568183
82	0x3b1082c2	0.0022050594
83	0xbaa638b8	-0.0012681698
84	0xbc36d28e	-0.011158599
85	0x3933d1af	0.00017148883
86	0x3a97fc48	0.0011595571
87	0xbc9dfce0	-0.01928562
88	0x3b94c92b	0.0045405827
89	0x3ae3cf82	0.0017380568
90	0xbc894cfe	-0.016760346
91	0xbb5d1ac3	-0.0033737875
92	0xbc594661	-0.013261409
93	0xbccd8657	-0.025088472
94	0x37bae654	2.2280183e-05
95	0x3c1ae220	0.009453326
96	0x3b95efba	0.004575697
97	0xbb85bdb1	-0.004081451
98	0xbc5852d4	-0.0132033415
99	0x3abfe252	0.0014639592
100	0x3b963348	0.00458375
101	0x3c1a5350	0.009419277
102	0x3bd445b7	0.006478037
103	0x3b80c650	0.0039298907
104	0x38a9c441	8.095103e-05
105	0x3be9e415	0.007137785
106	0xbb3fd301	-0.0029270055
107	0x3a38c548	0.000704844
108	0xbb6521c2	-0.0034962748
109	0xbc48dc1b	-0.0122595085
110	0xbc508bad	-0.012728614
111	0xbb9ca5c3	-0.0047805025
112	0x3c272872	0.010202514
113	0x3bc31db1	0.005954467
114	0xbba00ae1	-0.0048841094
115	0x3ad70080	0.0016403347
116	0x3c5e22ef	0.0135581335
117	0xbb12b2af	-0.0022384336
118	0x3b371d16	0.002794092
119	0x3af89586	0.001896546
120	0xbb67e0ea	-0.0035381862
121	0x3bcf7d19	0.0063320515
122	0xbb9fbfa9	-0.0048751426
123	0xbc9425a5	-0.018084357
124	0xbc85a5df	-0.016314445
125	0x3b513611	0.0031923095
126	0xbc31ad6b	-0.010844569
127	0xbc418d11	-0.011813418
128	0xba5e3071	-0.0008475846
129	0x3a852d11	0.0010160526
130	0x3bcf7e2f	0.006332181
131	0xbbb48289	-0.005508725
132	0x3c1c99eb	0.009558181
133	0xbbd36f8d	-0.006452507
134	0x3ac1f635	0.0014798107
135	0xbb88b0fb	-0.0041714883
136	0x3b98f848	0.0046682693
137	0xbcb15d43	-0.021650916
138	0x3c167103	0.0091822175
139	0x3cca5f97	0.024703784
140	0xbc5898d2	-0.013220029
141	0xbc01bb0a	-0.007918129
142	0x3c2864b9	0.01027792
143	0xbca40fcd	-0.020027066
144	0x3bbe6963	0.005810903
145	0x3ced8841	0.028995635
146	0x3c6dffe8	0.014526345
147	0xbb1bfcd2	-0.0023801816
148	0xbbd89cbf	-0.0066104825
149	0x3c17cf4c	0.009265732
150	0xbadcdfd5	-0.0016851375
151	0x3c163855	0.009168704
152	0xbb853b42	-0.004065902
153	0x3b37c4a5	0.0028040793
154	0x3bd5461d	0.0065086023
155	0x3c53cad8	0.01292678
156	0xbb74eae2	-0.0037371446
157	0x3b511996	0.003190612
158	0xbbd43871	-0.006476455
159	0xbc849fd5	-0.016189495
160	0x395100ce	0.00019932093
161	0x3c33d31d	0.010975626
162	0x3bf746f6	0.007546301
163	0x3c3c3b6c	0.011488777
164	0x3c07e9a3	0.008295449
165	0x3c1ce3f5	0.009575834
166	0x3b68ea9b	0.0035540226
167	0x3b3c0478	0.0028689187
168	0xbabd94a3	-0.0014463853
169	0xbaaf280f	-0.0013363379
170	0xbadcdb80	-0.0016850084
171	0xbb822db7	-0.003972735
172	0xbc24fe68	-0.010070421
173	0x3bbf6ef7	0.0058420855
174	0x3b83478e	0.0040063327
175	0xbb3c0c17	-0.002869373
176	0xbc23c005	-0.0099945115
177	0x3c6f08af	0.014589473
178	0x3b8326f2	0.0040024454
179	0xbc112cc8	-0.008860774
180	0xbc87bf6b	-0.016570767
181	0xbb56f962	-0.0032802452
182	0x3a30c4e6	0.00067432073
183	0xbba4df9e	-0.00503154
184	0x3c3a0cdc	0.011355605
185	0x3c685609	0.014180669
186	0xbc6b7884	-0.014371995
187	0xbbcade66	-0.0061910627
188	0xbc0c2896	-0.008554598
189	0xbcacd5a1	-0.02109796
190	0xbc2174c8	-0.009854503
191	0xbb212a05	-0.0024591696
192	0xbba5250f	-0.005039818
193	0x3bf3d88a	0.007441585
194	0x3c4009a4	0.0117210485
195	0xbc3551b3	-0.011066842
196	0xbae560aa	-0.0017500122
197	0xbc66eaa3	-0.014094028
198	0x3c7b662c	0.015344184
199	0xbc83a63c	-0.016070478
200	0xbc194091	-0.009353773
201	0x3c025d75	0.007956852
202	0x3c71564d	0.014730048
203	0xbb7b8669	-0.0038379675
204	0xbba20a2f	-0.0049450616
205	0xbb5d6b23	-0.0033785782
206	0x3c29e5f4	0.0103697665
207	0x3ba27084	0.0049572606
208	0xbc3cdd0f	-0.011527314
209	0xbc0377dd	-0.008024183
210	0xbc26064d	-0.010133338
211	0x3c0e471f	0.008683949
212	0xbcb311a9	-0.021859007
213	0x3bd3a047	0.0064583155
214	0x3baf17bc	0.0053434055
215	0x3c0a60bd	0.008445916
216	0x3beb4b02	0.0071805725
217	0x3c35f8ff	0.011106729
218	0x3943afa3	0.00018662079
219	0x3c046d73	0.008082735
220	0xbad145cd	-0.0015966237
221	0xbbe25066	-0.006906557
222	0xbc5bcfd4	-0.013416249
223	0x3bb1d52a	0.0054270225
224	0x3b1f81a7	0.0024338753
225	0x3c5ef2bf	0.01360768
226	0xbab6d8ca	-0.0013950106
227	0x3b9da16a	0.004810502
228	0xbb944492	-0.004524776
229	0x3c54fbe2	0.012999507
230	0xba107c81	-0.00055117166
231	0xbb2ad9c6	-0.0026069744
232	0xbcaadea1	-0.02085811
233	0xbc49d604	-0.012319092
234	0xbc774700	-0.015092611
235	0x3c8cc465	0.017183492
236	0xba949e38	-0.0011338657
237	0xbbf2ee74	-0.0074136797
238	0xbc26b0d4	-0.010173995
239	0xbbe861c6	-0.0070917336
240	0x3b8fac31	0.0043845405
241	0x3a7184a6	0.00092131866
242	0x3c3d7ce1	0.011565418
243	0xbb174712	-0.0023083133
244	0x3b332555	0.0027335484
245	0x3addbb72	0.0016916825
246	0xbb27f1cb	-0.0025626298
247	0x3c19ff8a	0.009399304
248	0xbbae1750	-0.0053128377
249	0xbb0b0de0	-0.0021217987
250	0x3b11380b	0.0022158648
251	0xb984bab5	-0.0002531611
252	0xb9471ad8	-0.00018988119
253	0x3c280b52	0.010256605
254	0x3ccb67da	0.024829794
255	0x3c235339	0.009968572

action_model._discrete_distribution.branches.0.bias f4 [3]
0	0xb99252d4	-0.00027909002
1	0x3bd18fac	0.006395301
2	0xbbc70f25	-0.0060748034

action_model._discrete_distribution.branches.1.weight f4 [2, 128]
0	0x3c8c90cb	0.017158886
1	0xbb65cc7b	-0.0035064507
2	0x3c6dc244	0.014511649
3	0x3b3cbad7	0.0028797889
4	0x3c6fee64	0.014644239
5	0x3b646fe2	0.0034856726
6	0x3cdfdd38	0.027327165
7	0xbb0e4428	-0.0021708105
8	0xba6ceec7	-0.0009038266
9	0xbb66f920	-0.0035243705
10	0x3b78c54b	0.0037959393
11	0xbb19bb6c	-0.002345766
12	0xbc1daaec	-0.0096232705
13	0xbc0faa71	-0.008768664
14	0xbc545703	-0.012960198
15	0x3bb51a62	0.0055268267
16	0xbc286f48	-0.010280438
17	0x3a94f0b4	0.0011363239
18	0xbc882ec7	-0.016623868
19	0xbb493614	-0.00307024
20	0xbc39889d	-0.011324075
21	0x3c863cdf	0.016386447
22	0x39c4aa5a	0.00037510955
23	0x3c3a9576	0.011388173
24	0xbaed7cc9	-0.0018118854
25	0xbc97e7b1	-0.018543096
26	0xbc96f601	-0.01842785
27	0x3bd36258	0.0064509325
28	0x3c184cea	0.0092956815
29	0xbb681407	-0.0035412328
30	0x3c152905	0.009104018
31	0xbaa938b9	-0.0012910581
32	0xb9ab6565	-0.00032691206
33	0x3c0549d2	0.008135276
34	0xb9b7f16a	-0.00035084347
35	0x3cc2568b	0.023722908
36	0xbc3236dc	-0.010877337
37	0x3c650e70	0.013980493
38	0x3c3bd261	0.011463732
39	0x3b32c700	0.0027279258
40	0xb798bcb8	-1.8207691e-05
41	0xbbdcbfa2	-0.0067367116
42	0x3c2b57a5	0.010457908
43	0x3c3a68e8	0.011377551
44	0xbbc4ac0e	-0.006001956
45	0x3c051fc8	0.008125253
46	0x3c498d4a	0.012301752
47	0xbc53f794	-0.012937445
48	0xbbcdbdce	-0.00627873
49	0xbc33158f	-0.010930433
50	0xba59fbf6	-0.0008315438
51	0x3c9aea50	0.018910557
52	0x3c554b44	0.013018433
53	0x3c82219a	0.015885163
54	0x3be04473	0.0068440973
55	0xbc72a539	-0.0148099
56	0x3bbc8b5a	0.0057539167
57	0xbc804cc7	-0.01566161
58	0x3c9da59a	0.019244004
59	0xbc21cc25	-0.009875332
60	0x3b3ab1b3	0.0028487265
61	0xbc044167	-0.008072234
62	0xba42787a	-0.0007418465
63	0x39d7ba2a	0.000411467
64	0x3bb0e7d7	0.005398731
65	0x3a283921	0.0006417204
66	0xbc24c00a	-0.010055551
67	0xbb351700	-0.0027632117
68	0x3c7cfcd1	0.0154411355
69	0x3ca696ba	0.020335544
70	0xbab8a7d0	-0.0014088098
71	0x3b61c585	0.0034450006
72	0x3c3f8229	0.011688747
73	0x3b71befe	0.0036887522
74	0x3cb4d3df	0.022073684
75	0xbaa26e88	-0.001239256
76	0x3bd83a94	0.00659878
77	0xbbf36f6c	-0.007429054
78	0x3b8fb49d	0.0043855445
79	0xbc06841d	-0.008210209
80	0x3b6dcea6	0.0036286502
81	0xbaccd709	-0.001562805
82	0x3ba06ba6	0.004895645
83	0x3bb2da99	0.005458188
84	0xbcf621a0	-0.03004533
85	0xbc612e35	-0.013743927
86	0xbc1c1e8b	-0.009528766
87	0x39e694c4	0.00043979858
88	0xbab61914	-0.0013892972
89	0x3b008960	0.0019613132
90	0x3ac28f9e	0.0014843827
91	0x3c440056	0.011962971
92	0x37e45720	2.7220289e-05
93	0x3c70913f	0.014683067
94	0xbc5fd363	-0.013661238
95	0xbc4eb231	-0.012615726
96	0xbb86bd3e	-0.004111915
97	0xbb5959f3	-0.0033165186
98	0x3bb1e465	0.005428838
99	0x3b523ff7	0.0032081583
100	0x3c0ff160	0.008785576
101	0x3b7def23	0.0038747273
102	0xbb5a2cdf	-0.0033290905
103	0x3c26b058	0.01017388
104	0x3c8c7858	0.017147228
105	0xbc9ae422	-0.01890761
106	0xbc97401d	-0.018463189
107	0x3c0384d5	0.008027275
108	0xbb96b3c7	-0.004599068
109	0x3c808d92	0.015692506
110	0x3c0d07fa	0.008607859
111	0x3ac6950b	0.001515062
112	0xbbbc3fac	-0.005744895
113	0xbb7cf0b5	-0.003859562
114	0xbc73d589	-0.014882454
115	0x3b9aabd8	0.0047201924
116	0xbb9a0941	-0.00470081
117	0x3b97fc34	0.0046382193
118	0x3b2c05f9	0.0026248677
119	0x3b386e0c	0.0028141765
120	0xbc767c32	-0.015044259
121	0x3a2fa90f	0.0006700912
122	0x3b8ecf00	0.0043581724
123	0x3cb9001c	0.02258306
124	0x3c6b86d8	0.014375411
125	0x3c819151	0.015816363
126	0xbab989db	-0.0014155464
127	0xbba17e85	-0.0049284124
128	0xbbf5d6f9	-0.0075024334
129	0xbafa40d9	-0.0019092812
130	0xbb2a59f7	-0.0025993565
131	0x3c981f3b	0.01856958
132	0x3c05672b	0.008142273
133	0x3c3b66e9	0.01143811
134	0xbc8af013	-0.01696018
135	0xbc88a3d9	-0.016679691
136	0xbadf17ce	-0.0017020644
137	0x3c1fd45e	0.009755222
138	0xbb69bddd	-0.0035666146
139	0xbb2693af	-0.0025417616
140	0x3c211c9f	0.009833484
141	0xb9eccd53	-0.00045166406
142	0xba48078d	-0.00076305197
143	0xbcc937c5	-0.024562726
144	0x3afce95f	0.0019295624
145	0xbbe23fb3	-0.006904566
146	0x3bdb5fba	0.006694761
147	0xbc3bde05	-0.011466508
148	0x3c0c1e53	0.008552152
149	0xbc8ed430	-0.017435163
150	0xbc52e2f4	-0.012871493
151	0x3b779f53	0.0037784174
152	0xbcb68841	-0.022281768
153	0x3b545569	0.0032399541
154	0xbc00033e	-0.007813273
155	0x3c8fcd68	0.017554
156	0x3b47414a	0.0030403906
157	0x3bbf870e	0.005844957
158	0xbba623f4	-0.005070204
159	0xbba257d0	-0.0049543157
160	0xbb5e2ec9	-0.0033902398
161	0x3ba51b21	0.0050386344
162	0x3b11a3ed	0.0022222952
163	0xbbb7dce9	-0.0056110513
164	0x3b795572	0.0038045314
165	0xbc140a9c	-0.009035733
166	0x3aadb7bb	0.0013253608
167	0xbbbd1da1	-0.0057713543
168	0x3b269ab2	0.0025421795
169	0xbb4f2abf	-0.0031611172
170	0x3ba8d978	0.0051528774
171	0xbbf04dba	-0.0073334845
172	0x3bc64125	0.0060502463
173	0xbc8f1bdf	-0.017469345
174	0xbb2d5417	-0.0026447827
175	0x3c4fbee7	0.012679792
176	0xbc5c92c2	-0.013462724
177	0x3c331ba2	0.010931881
178	0xbc5d0621	-0.013490231
179	0xbbaf181d	-0.0053434507
180	0xbb20e6dc	-0.0024551665
181	0xbc02b0a3	-0.007976684
182	0xbc55792a	-0.013029376
183	0x3ca81a77	0.020520432
184	0xb9f1e352	-0.0004613647
185	0x3b029dde	0.0019930522
186	0xbb9dad31	-0.004811906
187	0xbc62df92	-0.013847249
188	0x3c9f3cc5	0.019438157
189	0x3829831f	4.0414856e-05
190	0x3ccc0c45	0.024908194
191	0xbc3b8c1e	-0.011446981
192	0x3bbab06a	0.0056972997
193	0x3ae3ef57	0.0017390054
194	0xbbde8da6	-0.006791788
195	0xbca8ecd1	-0.020620735
196	0xbc5e8a87	-0.013582832
197	0x3b0e4368	0.0021707658
198	0x3c476082	0.012169005
199	0x3c410905	0.011781936
200	0xb9c40b05	-0.00037392243
201	0xbafded2a	-0.0019373049
202	0xbc78daf3	-0.01518892
203	0x3d137681	0.036001686
204	0xbcc32d7f	-0.023825405
205	0xbc4f3413	-0.012646693
206	0xbc6d3446	-0.014477795
207	0x3c18c49c	0.009324219
208	0x3c01ef81	0.007930637
209	0xbab64789	-0.0013906817
210	0xbba0b3a2	-0.0049042264
211	0xb9a5c5e8	-0.00031618704
212	0x3c96fe20	0.018431723
213	0x3abe103a	0.0014500686
214	0x3b569dd9	0.0032747893
215	0x3c135c06	0.008994108
216	0xbadfa4fc	-0.0017062719
217	0x3bee05ea	0.0072638886
218	0x3c8b043e	0.016969796
219	0x3c350c21	0.011050255
220	0xbc11e602	-0.008904936
221	0xb67ee19f	-3.7980278e-06
222	0x3ba619e3	0.005069004
223	0x3c07661a	0.008264089
224	0x3cc9b86f	0.024624078
225	0x3c6c1a0a	0.014410505
226	0xbc912a46	-0.017720353
227	0xbb4e86e4	-0.0031513507
228	0x3c168076	0.009185901
229	0x3a126115	0.00055839244
230	0x3be171a7	0.0068800035
231	0x3a2a3d2e	0.0006494102
232	0x3b37ce1d	0.0028046437
233	0x3c834968	0.016026214
234	0x3cc78948	0.024357453
235	0xbb8fc2b1	-0.0043872227
236	0xb961e79c	-0.00021543953
237	0xbc2af41a	-0.010434175
238	0xbc189505	-0.009312873
239	0x3c67bcc6	0.014144128
240	0x3c81d7cc	0.01584997
241	0x3c3621dc	0.011116471
242	0x3b53b876	0.0032305992
243	0xbb49afda	-0.0030774982
244	0x3c1e70f4	0.009670485
245	0xbc65b2d2	-0.014019685
246	0xbc2cbe2f	-0.01054339
247	0x3ba67710	0.0050801113
248	0x3c9ad75c	0.01890152
249	0xbba935ec	-0.0051638987
250	0xbb9c72f6	-0.0047744466
251	0xbadc17dd	-0.001679178
252	0x3c02f9ca	0.007994125
253	0xbc787f1a	-0.015167022
254	0xbbf5a619	-0.007496607
255	0xbc355ac9	-0.011069008

action_model._discrete_distribution.branches.1.bias f4 [2]
0	0x3c0c7e60	0.008575052
1	0xbc0c7e5f	-0.008575051

onnx::Div_68 f4 [7]
0	0x3c043c16	0.008070966
1	0x3ebd788a	0.37006027
2	0x3e16e201	0.14734651
3	0x3bfb318b	0.007665818
4	0x3eb86cc8	0.36020494
5	0x3f8d033b	1.1016611
6	0x3d4b6d5e	0.049664848
