results/playeragent1/PlayerAgent.onnx (onnx, 74583 bytes, 6 tensors)

network_body._body_endoder.seq_layers.0.weight f4 [128, 2]
0.30288386 -0.33260232 1.4966006 -1.4966328 0.42280117 -0.54102594 -0.15727492 0.6643319
0.28267595 0.9562509 0.06830361 -0.52209055 1.4933859 0.65092224 0.7245582 0.5441225
-0.3768039 -0.072697215 -1.3442798 -0.86633545 0.04125178 -0.027593894 0.5232206 0.4643572
-0.637009 0.92565197 0.013205911 0.6667937 -0.24465483 0.5971147 1.2892942 -0.101159245
-0.31029838 -1.4873313 -0.47992656 0.4914735 -0.34993175 1.3149765 0.28879446 0.8840084
-0.39010382 0.48654774 0.70453554 1.0375367 -0.345085 -0.52378994 -0.7939585 -0.9692807
-0.6629 -1.5018197 -0.008119404 0.29022026 -0.75066006 -0.72128093 0.9145873 0.20225173
0.021808544 0.19573447 -0.2941224 0.2224414 -0.085534014 -1.2891124 0.27036908 0.5016883
-0.3305737 0.4101314 -0.06647484 -1.3131683 -0.05405444 -0.7404193 -0.18720046 0.4068748
-0.9757586 -0.24091125 0.11917607 -0.9707458 -0.588698 -1.9342961 -0.44460168 0.79894465
1.2440063 -1.2081615 1.4284459 -0.6990984 0.09212142 -0.50386935 1.2233429 0.02428157
0.025142903 0.41767037 0.6235515 0.0613152 -0.27294022 0.52084947 0.27835396 0.17521584
-0.9560994 0.7852485 1.2658031 0.57744634 -0.9436703 -0.580252 0.3744351 0.24449375
-0.86389256 -1.4856557 0.34540495 -0.3735813 -0.22448337 0.28591487 -1.540235 -1.2716701
0.027496178 -0.40319878 1.3410234 -0.08147839 -0.39423442 -0.92724514 -0.68872285 -0.7724954
-0.19924104 -0.14295727 -0.9910328 0.652362 0.5662479 0.45071715 -0.057185072 0.3151038
-0.21281487 0.4948628 -1.6550671 1.0350132 0.43107116 0.34623417 0.54065186 -0.096245065
-0.61748713 0.43343058 -1.4132313 1.0881201 0.48604137 0.15710337 1.1404527 0.26296422
0.40832457 0.5009298 0.950912 1.8517438 -0.22962141 -0.17950918 -0.7042483 -0.2195837
0.9760247 -0.2384079 0.031604677 0.2565927 0.7988269 1.3264767 -0.15980582 0.056992188
0.09339148 -0.96298003 0.6150646 0.59694415 0.4482359 -0.20189512 0.33852348 0.57454824
-0.5802426 0.14780025 -0.022183178 0.21138397 -0.40043303 -0.06726147 0.4657003 -0.15531006
-0.061007727 -1.5599495 0.37649655 1.1795316 0.5663688 -0.4359071 -0.7405175 -1.2781831
0.25817838 -0.29184988 -0.914005 -0.24032137 -1.1196716 0.03313551 0.07178502 -1.1260332
-0.054677457 -0.5745304 0.48823687 -0.4194206 0.5537907 -0.2778013 0.5497232 -0.09516701
0.04169804 -1.5316749 0.41907418 0.3319026 1.2549448 0.023919512 -1.3252081 1.2527357
-0.28309104 -0.48120505 -0.6951488 -0.672258 -0.9277374 0.18836349 1.6451577 0.15090093
-0.008356882 0.8721463 -0.5604067 -0.36573407 0.36397648 0.9453594 0.30609006 -0.5986724
0.06926603 0.7039255 0.8943328 0.16888693 -1.4361533 0.035721548 -0.6637333 -0.7496858
-0.5999637 1.4704306 -0.21179868 -0.42971754 -0.42245007 -0.3682717 -1.0723917 0.26063353
-0.53906536 -0.76349074 0.5649611 0.28558606 0.43719903 -0.2413098 0.4190389 -0.4916748
-0.23367447 -1.0411842 -0.086325675 -0.32636303 -0.21234372 -0.12500273 -0.0659282 -0.47134483
00000000: 9813 9b3e da4a aabe 9c90 bf3f aa91 bfbf
00000010: 6579 d83e ad80 0abf ad0c 21be a811 2a3f
00000020: e7ba 903e dccc 743f c3e2 8b3d baa7 05bf
00000030: 4527 bf3f d7a2 263f a57c 393f 9d4b 0b3f
00000040: 71ec c0be 47e2 94bd 5c11 acbf 29c8 5dbf
00000050: a0f7 283d 970c e2bc c9f1 053f 3ac0 ed3e
00000060: 0613 23bf 87f7 6c3f 9b5d 583c feb2 2a3f
00000070: cc86 7abe 82dc 183f 9807 a53f 942c cfbd
00000080: 6edf 9ebe df60 bebf efb8 f5be 6aa2 fb3e
00000090: 412a b3be 2651 a83f dedc 933e 604e 623f
000000a0: b0bb c7be c91c f93e 715c 343f 01ce 843f
000000b0: fbae b0be 1917 06bf dd40 4bbf c822 78bf
000000c0: d0b3 29bf a13b c0bf 4007 05bc c097 943e
000000d0: 422b 40bf dea5 38bf 6522 6a3f 141b 4f3e
000000e0: d5a7 b23c 9e6e 483e 3697 96be aec7 633e
000000f0: 752c afbd a301 a5bf d16d 8a3e a56e 003f
00000100: f540 a9be befc d13e f623 88bd e615 a8bf
00000110: 3068 5dbd 1f8c 3dbf 7ab1 3fbe e551 d03e
00000120: 51cb 79bf 70b1 76be 9512 f43d cc82 78bf
00000130: eab4 16bf 0497 f7bf d5a2 e3be a387 4c3f
00000140: 993b 9f3f 09a5 9abf 51d7 b63f 1df8 32bf
00000150: 28aa bc3d 95fd 00bf 8096 9c3f 25ea c63c
00000160: 7df8 cd3c e4d8 d53e 12a1 1f3f a625 7b3d
00000170: d2be 8bbe 6456 053f 6984 8e3e c86b 333e
00000180: eec2 74bf 0c06 493f d605 a23f 86d3 133f
00000190: 6094 71bf 658b 14bf f5b5 bf3e 925c 7a3e
000001a0: 1028 5dbf f729 bebf ebd8 b03e 0c46 bfbe
000001b0: f8de 65be 6f63 923e 6c26 c5bf 16c6 a2bf
000001c0: aa3f e13c 1270 cebe a8a6 ab3f 24de a6bd
000001d0: 18d9 c9be f05f 6dbf 2450 30bf 42c2 45bf
000001e0: d805 4cbe 6463 12be 53b4 7dbf 3201 273f
000001f0: 9ff5 103f 66c4 e63e e53a 6abd 4955 a13e
00000200: 24ec 59be a85e fd3e 3dd9 d3bf 507b 843f
00000210: 5cb5 dc3e 9b45 b13e 2968 0a3f 221c c5bd
00000220: a313 1ebf 9dea dd3e c3e4 b4bf 8547 8b3f
00000230: 6ada f83e b5df 203e 5bfa 913f 3fa3 863e
00000240: eb0f d13e ef3c 003f f86e 733f f105 ed3f
00000250: e021 6bbe 41d1 37be 9e49 34bf 8dda 60be
00000260: c1dc 793f 3321 74be e873 013d 1e60 833e
00000270: eb7f 4c3f fdc9 a93f 23a4 23be a470 693d
00000280: 0844 bf3d dc85 76bf e074 1d3f 55d1 183f
00000290: 2d7f e53e 98bd 4ebe f352 ad3e 9815 133f
000002a0: c78a 14bf f358 173e 7fb9 b5bc 0a75 583e
000002b0: 8f05 cdbe 62c0 89bd 4570 ee3e 9a09 1fbe
000002c0: 3de3 79bd 6dac c7bf 28c4 c03e e4fa 963f
000002d0: 8cfd 103f 372f dfbe 8e92 3dbf 819b a3bf
000002e0: f52f 843e 596d 95be 3bfc 69bf ce16 76be
000002f0: 6651 8fbf 1ab9 073d 0604 933d db21 90bf
00000300: 78f5 5fbd 6d14 13bf 2ffa f93e 4cbe d6be
00000310: 3ac5 0d3f f93b 8ebe a9ba 0c3f ece6 c2bd
00000320: 90cb 2a3d ec0d c4bf e490 d63e 23ef a93e
00000330: 08a2 a03f daf2 c33c 6ba0 a9bf a559 a03f
00000340: 4ff1 90be 8260 f6be 46f5 31bf 1a19 2cbf
00000350: 3380 6dbf 5ce2 403e 8794 d23f c685 1a3e
00000360: 4eeb 08bc fb44 5f3f d076 0fbf 7f41 bbbe
00000370: 205b ba3e 1303 723f d6b7 9c3e 9842 19bf
00000380: 59db 8d3d 7634 343f fff2 643f b2f0 2c3e
00000390: dfd3 b7bf c250 123d 6dea 29bf 69eb 3fbf
000003a0: 3997 19bf 1237 bc3f c1e1 58be f003 dcbe
000003b0: 604b d8be 1c8e bcbe 2244 89bf c271 853e
000003c0: 3000 0abf 2174 43bf 4aa1 103f 5638 923e
000003d0: 8dd8 df3e eb19 77be 448c d63e cdbc fbbe
000003e0: 5c48 6fbe 8645 85bf 84cb b0bd 0e19 a7be
000003f0: a270 59be b700 00be 5d05 87bd 1c54 f1be

network_body._body_endoder.seq_layers.0.bias f4 [128]
0.023285631 0.009398842 0.014458264 -0.021952176 -0.011298509 0.022138515 -0.0108147515 -0.016807124
0.0026942624 0.02494586 0.020253519 0.006783229 -0.009816139 -0.015110635 -0.020426475 -0.014159647
0.035057604 0.003969484 -0.012760818 -0.015494559 -0.021216718 -0.007466981 0.017138708 0.029977048
-0.0012441389 -0.010550087 0.025086012 -0.01973983 0.01597497 0.025819441 0.024091944 -0.025534026
-0.019776803 0.025397455 0.024280712 -0.016834663 0.02975453 0.028857196 0.023595467 -0.017759314
0.00718483 0.019059453 -0.02140611 0.00035745758 0.0025362012 0.0007223209 -0.028860856 -0.009314596
-0.014977484 -0.0063241725 -0.003828068 -0.0073737055 0.028037865 0.014211075 0.008800252 0.03139629
0.010995078 0.018386785 0.028270837 0.02147915 0.0058083003 0.015162969 -0.010668436 0.016438285
-0.030841194 0.019711133 -0.023997791 -0.023020264 0.021240165 -0.01856396 -0.018892473 0.005973899
-0.020403583 0.011947166 0.026193297 0.02107154 -0.019987147 -0.0241411 -0.003416123 -0.015464564
0.024556627 -0.015605422 0.021967812 -0.018662602 0.019329185 -0.018917723 -0.012046789 0.022407958
0.029247861 0.0013596725 0.021332286 0.02221862 0.00943453 0.016911605 0.023152733 0.009347097
0.02544086 0.014297246 0.010211338 0.016576106 0.014276277 0.005518071 0.015548108 0.019658588
0.026968736 0.029463004 0.023615072 -0.010008285 -0.009139005 0.024918998 -0.015532194 0.023705972
-0.011453236 -0.0026101496 0.0006257615 -0.002033631 -0.01875681 -0.0019374026 0.008332476 0.029934984
-0.0016310613 -0.032891832 -0.0005878458 0.026517384 0.000780614 0.016184896 0.008486487 0.02961568
00000000: 82c1 be3c 9afd 193c 5be2 6c3c 0dd5 b3bc
00000010: 621d 39bc d55b b53c 5b30 31bc 18af 89bc
00000020: 3992 303b 435b cc3c b5ea a53c d945 de3b
00000030: dfd3 20bc 9992 77bc 6c55 a7bc ddfd 67bc
00000040: 9098 0f3d 7212 823b c012 51bc e4dc 7dbc
00000050: afce adbc 94ad f4bb 7a66 8c3c 6d92 f53c
00000060: 6012 a3ba 46da 2cbc 2e81 cd3c 6db5 a1bc
00000070: f1dd 823c 4b83 d33c 785c c53c bc2c d1bc
00000080: f602 a2bc 530e d03c 58e8 c63c d9e8 89bc
00000090: c6bf f33c ed65 ec3c 484b c13c fb7b 91bc
000000a0: b96e eb3b 9222 9c3c de5b afbc 2569 bb39
000000b0: 6536 263b 235a 3d3a 9a6d ecbc 3f9c 18bc
000000c0: 1f64 75bc 013b cfbb 53e0 7abb 209f f1bb
000000d0: aaaf e53c 92d5 683c ef2e 103c 6599 003d
000000e0: b324 343c e29f 963c 3e98 e73c 0bf5 af3c
000000f0: 8e53 be3b 1a6e 783c aaca 2ebc 95a9 863c
00000100: aca6 fcbc 3e79 a13c 0497 c4bc fe94 bcbc
00000110: dbff ad3c 7213 98bc 63c4 9abc b2c0 c33b
00000120: 6a25 a7bc 0cbe 433c 5393 d63c 399e ac3c
00000130: 16bc a3bc 8ec3 c5bc 09e1 5fbb 155f 7dbc
00000140: fb2a c93c e2ad 7fbc d7f5 b33c 50e2 98bc
00000150: 3d58 9e3c 57f9 9abc e55f 45bc e590 b73c
00000160: 3699 ef3c 0a37 b23a 0cc1 ae3c d303 b63c
00000170: 4993 1a3c 358a 8a3c cdaa bd3c 9124 193c
00000180: 5a69 d03c ff3e 6a3c 754d 273c 9dca 873c
00000190: 0ce7 693c efd0 b43b 7ebd 7e3c 0c0b a13c
000001a0: 8aed dc3c 665c f13c 6574 c13c caf9 23bc
000001b0: c4bb 15bc ed22 cc3c be7a 7ebc 0733 c23c
000001c0: 5ba6 3bbc 0b0f 2bbb 250a 243a ab46 05bb
000001d0: e2a7 99bc 72f0 fdba f084 083c 363a f53c
000001e0: 56c9 d5ba 96b9 06bd aa19 1aba fc3a d93c
000001f0: 1ea2 4c3a 3096 843c e80a 0b3c 959c f23c

network_body._body_endoder.seq_layers.2.weight f4 [128, 128]
-0.093144424 0.08906348 0.021287596 -0.08083639 0.043818176 0.15868714 -0.062170725 0.007347254
0.03167664 0.1820145 0.06732999 -0.09415926 0.10213662 0.1139128 0.012887183 0.000600017
-0.04873957 0.023303032 -0.034172185 -0.0509141 0.004095572 0.015552517 0.04627217 -0.050660957
-0.059157535 -0.13906732 3.0436071e-05 0.013986903 0.019625261 -0.20298642 0.091515854 -0.0155812055
0.15874964 -0.09901299 -0.12782648 0.04902922 0.009374009 0.098803274 -0.07338555 -0.14023015
-0.00473762 0.007398648 0.14162314 0.025254944 0.13702807 0.028133197 0.09249162 0.09601442
0.038448688 0.047634628 -0.14742804 0.034111563 0.12448681 -0.08135838 -0.0027056627 -0.0021326586
-0.037126537 0.03494327 0.070665404 0.099235795 0.014355944 -9.485059e-05 -0.010182524 -0.05823974
0.0705437 0.024187753 -0.12775326 0.0029885226 0.0054713907 -0.062100075 0.013937433 0.08953977
-0.14438748 0.044061814 0.08337088 0.039073806 -0.038859125 -0.06810458 -0.05383578 0.0117476
0.026567535 -0.118019626 0.045483526 -0.09334347 -0.0989807 0.062452026 0.069931224 0.018610502
-0.09129045 0.040904727 -0.077215105 0.07974584 0.054579288 -0.033526037 0.037408944 -0.011650136
-0.060046744 0.09358454 0.0068288026 -0.06594059 0.13346647 0.04628152 0.05338421 -0.05365796
0.0479584 0.020243444 -0.012953083 0.07736623 -0.13194624 0.124977194 0.0025534998 0.002057914
-0.030347606 0.11316351 -0.049405184 -0.062499996 0.013151058 0.037290897 0.015728995 -0.030704072
-0.16547507 -0.106792524 0.056893323 -0.2407329 0.07226432 0.09769339 0.12138106 -0.018867748
-0.085859135 0.061045825 -0.021664506 -0.0683128 -0.0032001662 -0.16753381 -0.116615385 -0.12759148
0.1150929 0.030359684 -0.15792458 -0.023231348 -0.047425207 -0.19405994 0.09521395 -0.0090509625
0.06385297 -0.045640387 -0.03389268 -0.035461262 0.073835425 -0.10887977 -0.08656239 0.0155162485
-0.0058632535 -0.0073254635 0.033423882 -0.02091639 -0.003950325 8.238748e-05 0.048832618 -0.022937566
0.004002474 0.09479784 0.05021146 0.1399627 0.09489504 0.107415006 -0.024748754 0.09058956
0.047593996 0.1135845 -0.15274327 0.11323222 -0.062087756 -0.10675323 -0.10914699 0.101619065
-0.12429063 -0.0810495 -0.12238012 -0.032707352 0.009860044 0.004609811 -0.11220429 0.054850597
0.03797331 0.07135884 -0.13178346 0.0006237538 0.04894383 -0.026028793 0.16544941 0.03516852
-0.084159374 -0.0020280113 -0.24493319 -0.067079425 0.17122906 0.05928372 -0.08501396 0.09699048
0.18489738 -0.137293 -0.07451431 0.060388766 -0.1541176 -0.005628807 -0.019862965 -0.009373972
-0.15578696 -0.09307145 0.17813861 -0.054068457 -0.040034898 -0.06543796 0.054191235 -0.018268963
0.13587467 -0.074143305 -0.12034405 0.042383976 -0.03164874 0.088643655 -0.015539101 -0.06034508
-0.019841496 0.088626236 -0.04038539 -0.116113834 0.05309948 0.10251035 0.034375563 0.08041844
0.048200008 -0.1196497 0.10312472 0.040369246 -0.028670354 0.082847185 0.118356764 0.06274839
-0.10795975 -0.0073879748 0.03237224 0.08870643 -0.0151701365 -0.062663935 0.011168739 -0.039841585
-0.09266038 -0.16222133 -0.06121064 0.018174294 0.030266989 0.012824515 -0.09501873 0.044467874
00000000: 81c2 bebd ea66 b63d 5363 ae3c 8d8d a5bd
00000010: b07a 333d e27e 223e bba6 7ebd 3cc1 f03b
00000020: 5dbf 013d 0262 3a3e 4ee4 893d 92d6 c0bd
00000030: 012d d13d 1d4b e93d c324 533c 764a 1d3a
00000040: 25a3 47bd 00e6 be3c 22f8 0bbd 4e8b 50bd
00000050: 2634 863b fccf 7e3c e387 3d3d dd81 4fbd
00000060: 2c4f 72bd aa67 0ebe f750 ff37 5329 653c
00000070: 28c5 a03c acdb 4fbe aa6c bb3d 5048 7fbc
00000080: 448f 223e 53c7 cabd f2e4 02be ddd2 483d
00000090: 7295 193c 5f59 ca3d 2a4b 96bd 7e98 0fbe
000000a0: 093e 9bbb 5c70 f23b a805 113e 75e3 ce3c
000000b0: 1651 0c3e 9777 e63c 3f6c bd3d 35a3 c43d
000000c0: 5f7c 1d3d 871c 433d 60f7 16be 91b8 0b3d
000000d0: f1f2 fe3d 399f a6bd 7d51 31bb 13c4 0bbb
000000e0: ff11 18bd ad20 0f3d 06b9 903d 233c cb3d
000000f0: 3135 6b3c 86ea c6b8 9ad4 26bc cb8c 6ebd
00000100: 3779 903d 6525 c63c c0d1 02be 17db 433b
00000110: 5a49 b33b a65c 7ebd d559 643c a060 b73d
00000120: 50da 13be 297a 343d 5abe aa3d db0b 203d
00000130: bf2a 1fbd 6a7a 8bbd e882 5cbd 0179 403c
00000140: 29a4 d93c 46b4 f1bd ef4c 3a3d dc2a bfbd
00000150: 65b6 cabd b2cd 7f3d 1a38 8f3d 0d75 983c
00000160: 7df6 babd b78b 273d f422 9ebd c951 a33d
00000170: 888e 5f3d 9952 09bd 1f3a 193d 36e0 3ebc
00000180: 93f3 75bd 40a9 bf3d 26c4 df3b dc0b 87bd
00000190: 6fab 083e b191 3d3d 67a9 5a3d 73c8 5bbd
000001a0: 0770 443d 94d5 a53c 2b39 54bc 3072 9e3d
000001b0: ea1c 07be 0bf4 ff3d 9e58 273b 11de 063b
000001c0: 8b9b f8bc 45c2 e73d 175d 4abd ffff 7fbd
000001d0: 8977 573c 57be 183d 18da 803c 1b87 fbbc
000001e0: 4c72 29be 0ab6 dabd f908 693d af82 76be
000001f0: 51ff 933d 7913 c83d a296 f83d 8990 9abc
00000200: ead6 afbd 300b 7a3d c379 b1bc 95e7 8bbd
00000210: e1b9 51bb fc8d 2bbe 0cd4 eebd 57a7 02be
00000220: d4b5 eb3d dfb4 f83c fbb6 21be ab4f bebc
00000230: ef40 42bd a6b7 46be 88ff c23d 7d4a 14bc
00000240: 59c5 823d 6af1 3abd 0dd3 0abd d43f 11bd
00000250: 0737 973d 5bfc debd 9f47 b1bd dd37 7e3c
00000260: 8920 c0bb 710a f0bb 7be7 083d d958 abbc
00000270: ba71 81bb 71c7 ac38 b604 483d 90e7 bbbc
00000280: 2f27 833b 5f25 c23d 88aa 4d3d 6252 0f3e
00000290: 5558 c23d 66fc db3d e6bd cabc 0587 b93d
000002a0: ecf1 423d fe9e e83d bb68 1cbe 4be6 e73d
000002b0: bb4f 7ebd 70a1 dabd 7588 dfbd a81d d03d
000002c0: 168c febd 48fd a5bd 6ea2 fabd 25f8 05bd
000002d0: 068c 213c e60d 973b 5dcb e5bd 05ab 603d
000002e0: e789 1b3d 9524 923d 3ef2 06be 6983 233a
000002f0: 5379 483d 563a d5bc 926b 293e de0c 103d
00000300: c05b acbd 62e8 04bb c4cf 7abe f060 89bd
00000310: ac56 2f3e 7cd3 723d cd1b aebd f2a2 c63d
00000320: bd55 3d3e 8996 0cbe f59a 98bd 365a 773d
00000330: 01d1 1dbe db71 b8bb a8b7 a2bc 4a95 19bc
00000340: 9e86 1fbe 3f9c bebd f869 363e e376 5dbd
00000350: a2fb 23bd 5604 86bd a1f7 5d3d cba8 95bc
00000360: bb22 0b3e 72d8 97bd f176 f6bd d29a 2d3d
00000370: 1ca2 01bd ce8a b53d b797 7ebc 672c 77bd
00000380: a28a a2bc ac81 b53d 276b 25bd 17cd edbd
00000390: d77e 593d f2f0 d13d 64cd 0c3d 6cb2 a43d
000003a0: 5f6d 453d e70a f5bd 0e33 d33d 395a 253d
000003b0: 17de eabc c9ab a93d 0865 f23d 3a82 803d
000003c0: 001a ddbd d316 f2bb c198 043d b7ab b53d
000003d0: 2a8c 78bc f355 80bd 16fd 363c ee30 23bd
000003e0: bac4 bdbd 591d 26be 02b8 7abd 42e2 943c
000003f0: 7af2 f73c ea1d 523c 2e99 c2bd f223 363d

network_body._body_endoder.seq_layers.2.bias f4 [128]
0.021877866 0.027471486 -0.022552216 -0.011582391 -0.012639095 0.02304527 -0.010609655 -0.007297644
0.021047143 0.013563348 0.017989352 0.017926844 -0.016021835 -0.011637053 0.0076938556 -0.028493168
-0.001750668 -0.021223865 0.014915466 0.026917364 -0.020016024 -0.021689866 0.022400085 0.029007325
-0.026548283 0.010125841 0.016436046 -0.011504509 -0.005941409 -0.015461121 -0.023753604 0.026975408
0.02153734 0.013548876 -0.01694695 -0.026109718 0.007428272 -0.006025866 -0.00072552287 -0.014863804
0.027647402 -0.0058442294 0.0143217165 0.016316764 -0.020510009 -0.017895656 0.01204498 -0.023313047
-0.0063569983 0.009810925 0.022111073 -0.0077215973 0.02237708 0.025961716 0.027650638 -0.0025607473
-0.023677334 -0.004493131 0.020589903 -0.019962877 0.02034015 0.026198914 -0.020056097 0.011309181
0.02585648 -0.012902266 -0.026231378 -0.024610955 0.0042127683 0.022171982 -0.018156936 -0.010319755
-0.021405967 0.026325496 -0.009227882 -0.020325504 -0.005282079 0.005106973 -0.016261453 -0.019297045
-0.011902489 0.022610376 -0.019610781 -0.003469347 -0.016381292 0.021428317 -0.010799097 0.0056202128
0.0047867424 -0.018181225 -0.02392791 -0.017989397 -0.011585968 -0.014504264 0.002144942 0.02473224
0.008591945 -0.02378305 -0.01354067 0.026628101 -0.0054657646 -0.014324341 -0.022943623 0.004881567
0.0049813366 -0.0009814774 -0.008996553 -0.023689117 0.01923646 -0.0057606697 0.0043316954 0.021243487
0.005798191 -0.02799398 0.016543657 -0.0044239783 0.0039366474 0.01096615 -0.018211354 0.028630164
0.028951714 -0.019265063 0.025875565 -0.025258303 -0.021141931 0.018859025 -0.02363898 0.01537825
00000000: 3639 b33c e20b e13c 6dbf b8bc 12c4 3dbc
00000010: 3514 4fbc 6fc9 bc3c 1ed4 2dbc 1321 efbb
00000020: 0f6b ac3c ce38 5e3c 685e 933c 51db 923c
00000030: 3940 83bc 57a9 3ebc bd1c fc3b 816a e9bc
00000040: ac76 e5ba acdd adbc 0060 743c ce81 dc3c
00000050: a5f8 a3bc f2ae b1bc 6280 b73c c5a0 ed3c
00000060: c97b d9bc dbe6 253c e3a4 863c 687d 3cbc
00000070: 27b0 c2bb a450 7dbc eb96 c2bc 88fb dc3c
00000080: 136f b03c 1bfc 5d3c 55d4 8abc 0ce4 d5bc
00000090: dd68 f33b a174 c5bb 0431 3eba 5087 73bc
000000a0: ce7c e23c f380 bfbb a2a5 6a3c bcaa 853c
000000b0: 9b04 a8bc e999 92bc 4f58 453c 01fb bebc
000000c0: 5e4e d0bb 01be 203c 4822 b53c 7405 fdbb
000000d0: 2350 b73c aaad d43c 9783 e23c 36d2 27bb
000000e0: f8f6 c1bc 1d3b 93bb 28ac a83c 3089 a3bc
000000f0: 63a0 a63c 1b9f d63c af4c a4bc 254a 393c
00000100: f8d0 d33c 0764 53bc 30e3 d6bc ea9c c9bc
00000110: 430b 8a3b 04a2 b53c dbbd 94bc 3114 29bc
00000120: 915b afbc 91a8 d73c 8b30 17bc ac81 a6bc
00000130: 4a15 adbb 6558 a73b bd36 85bc d614 9ebc
00000140: a802 43bc 6539 b93c caa6 a0bc fc5d 63bb
00000150: 0f32 86bc 708a af3c b2ee 30bc c329 b83b
00000160: 1bda 9c3b cbf0 94bc 7704 c4bc 805e 93bc
00000170: 12d3 3dbc 4ba3 6dbc 2892 0c3b 449b ca3c
00000180: 3bc5 0c3c acd4 c2bc b0d9 5dbc 2d23 da3c
00000190: 281a b3bb a4b0 6abc 44f4 bbbc 8df5 9f3b
000001a0: 7b3a a33b eba4 80ba 4766 13bc ae0f c2bc
000001b0: c895 9d3c 00c4 bcbb e5f0 8d3b d206 ae3c
000001c0: c0fe bd3b a253 e5bc 9086 873c 05f7 90bb
000001d0: fefe 803b 5eab 333c fa2f 95bc ce89 ea3c
000001e0: 252c ed3c c4d1 9dbc fef8 d33c 80ea cebc
000001f0: d831 adbc 3e7e 9a3c 89a6 c1bc 0ef5 7b3c

action_model._discrete_distribution.branches.0.weight f4 [4, 128]
-0.00455995 -0.0058366186 -0.0027493238 -0.008479292 0.006800665 -0.019657433 0.012621118 -0.016112199
-0.0094030425 0.007482881 0.001957827 -0.0085359765 -0.012047448 0.005057165 0.002196501 0.0037154146
0.0052924603 -0.01122678 -0.0045023817 0.005561484 -0.011703862 -0.0032317885 -0.015203208 -0.0007419666
-0.0031360276 0.0036598968 -0.0070544356 0.009281286 -0.009451347 -0.009073824 -0.0060110562 -0.015853994
0.0029806562 -0.0033355672 -0.005312392 0.013718334 -0.00019994176 -0.0021870402 -0.018767957 -0.005473032
0.0020811465 0.0077392356 0.0009551748 -0.0048521766 -0.0007076801 -0.009074907 -0.011945649 0.007319385
0.023492547 -0.0035210112 0.031406213 -0.008274067 0.01080129 0.0006009568 -0.0036040496 0.0046151024
0.0026152257 -0.018385164 0.0029892821 -0.008561793 -0.009026394 0.00152297 0.006307476 -0.009581092
-0.0012828714 0.01779598 0.0045755445 -0.0096005285 0.0056792 -0.00190756 0.016421266 0.012017551
0.010865724 -0.009166061 -0.0068640728 0.026284855 -0.002792584 0.005153956 0.005565108 0.008565131
-0.016692122 0.0042995065 0.0035556718 -0.0009979182 -0.008556415 -0.0017672027 -0.008237193 -0.009453947
0.0050790687 0.0048859054 0.008545576 -0.0074660555 -0.002004988 0.011580228 0.0025607052 -0.00851256
-0.007942563 0.005772847 -0.005314927 0.0132783735 0.014698687 0.0017082157 0.0059297327 -0.0017513718
-0.009570382 -5.005012e-05 -0.012018646 -0.0014284264 0.023740826 0.008284305 -0.007934767 -0.011016145
-0.01811626 0.005087414 0.0045053596 0.0048691416 -0.013854327 0.0062045814 -0.00826186 0.0027484193
0.007870419 0.014608355 -0.008329935 0.016228441 -0.009604391 0.00030436632 -0.010064211 9.446352e-05
-0.0090905 -0.01283664 0.026253292 0.018817388 0.032948714 -0.002083399 0.0056487788 0.015337131
-0.0074130264 -0.005081261 -0.0037027001 0.0032029033 0.0075040674 0.02550488 0.01570877 0.024430534
-0.0036523805 0.012804423 0.0106313 -0.0007084982 0.02068584 0.0068202876 -0.016001157 -0.012253445
0.023280708 -0.016751843 -0.006151348 0.010001268 0.01687567 0.02030437 0.026478976 -0.02135495
-0.0047108084 -0.021714903 0.036741454 0.016340656 -0.008592081 0.0048353584 -0.010474432 -0.00068075274
-0.0080040535 0.00756965 -0.004854739 -0.0014917854 0.018195108 0.011423671 -0.016445931 0.019858489
-0.013703011 -0.014735941 -0.005322078 0.02544735 -0.00059539883 -0.016109219 -0.015895708 0.0014082849
0.019989628 0.014285297 0.003739056 0.028583886 -3.672936e-05 -0.008344092 0.016014967 0.009436934
-0.03226251 0.006630857 0.03219338 0.017031467 -0.013473393 -0.013198441 0.029912954 -0.009280409
0.020100053 -0.013043878 0.036876433 0.033987742 0.0055808215 -0.035266887 0.0078266645 0.002270545
0.02459525 -0.01281782 0.006259909 -0.0018951442 0.028880233 -0.031983852 0.025326077 0.0006352988
-0.0003555341 0.01213265 0.027784549 0.0041348385 -0.002370672 0.014085134 -0.0257684 -0.0155778555
-0.0040250616 0.027641265 0.02368119 -0.021251546 -0.0074285627 0.028448138 0.01619559 -0.0071979756
-0.0156114595 -0.0063904254 0.022222018 0.026570199 -0.028648436 0.03151498 0.011485289 -0.010385795
0.016844254 0.016369333 -0.009298295 -0.0019315558 0.0032510625 -0.0043431316 0.0334148 -0.015094903
-0.016439635 0.024206543 -0.007040756 0.026817922 0.02141668 0.0007673608 0.025376111 -0.01563898
00000000: a26b 95bb 1b41 bfbb 002e 34bb baec 0abc
00000010: 1dd8 de3b a008 a1bc cec8 4e3c bbfd 83bc
00000020: 380f 1abc f532 f53b e34e 003b 7bda 0bbc
00000030: a962 45bc 93b6 a53b 2cf3 0f3b 507e 733b
00000040: 606c ad3b 87f0 37bc b788 93bb 1c3d b63b
00000050: 8ec1 3fbc 6acc 53bb e016 79bc 8980 42ba
00000060: d085 4dbb e1da 6f3b e528 e7bb 8910 183c
00000070: d3d9 1abc 60aa 14bc 65f8 c4bb 3ce0 81bc
00000080: 1d57 433b 8899 5abb 9313 aebb ddc2 603c
00000090: 75a7 51b9 7254 0fbb 42bf 99bc 1f57 b3bb
000000a0: d863 083b 6a99 fd3b b264 7a3a 02ff 9ebb
000000b0: 9c83 39ba ebae 14bc afb7 43bc 74d7 ef3b
000000c0: 7173 c03c c4c0 66bb cda3 003d f48f 07bc
000000d0: e5f7 303c 8789 1d3a eb31 6cbb 493a 973b
000000e0: 3564 2b3b 7c9c 96bc d5e7 433b c346 0cbc
000000f0: 71e3 13bc 659e c73a f2ae ce3b 03fa 1cbc
00000100: 0526 a8ba e0c8 913c 73ee 953b 894b 1dbc
00000110: 9518 ba3b 1807 faba e485 863c 43e5 443c
00000120: 2606 323c 3f2d 16bc 04ec e0bb 5653 d73c
00000130: c903 37bb 84e2 a83b 825b b63b c354 0c3c
00000140: ebbd 88bc e0e2 8c3b 4606 693b 94cc 82ba
00000150: 3530 0cbc 7ca1 e7ba 4bf5 06bc bae4 1abc
00000160: 516e a63b f219 a03b be02 0c3c d0a5 f4bb
00000170: 1e66 03bb ffba 3d3c 81d1 273b 4478 0bbc
00000180: 8621 02bc 272a bd3b d728 aebb 898d 593c
00000190: c3d2 703c 35e6 df3a 344e c23b 498e e5ba
000001a0: 17cd 1cbc e8ec 51b8 dbe9 44bc 093a bbba
000001b0: 1f7c c23c e5ba 073c d300 02bc 107d 34bc
000001c0: 8d68 94bc 52b4 a63b b2a1 933b 528d 9f3b
000001d0: 42fd 62bc cd4f cb3b c15c 07bc d31e 343b
000001e0: eef2 003c e257 6f3c 487a 08bc 82f1 843c
000001f0: bc5b 1dbc 5b93 9f39 5ce4 24bc b71a c638
00000200: 52f0 14bc c550 52bc 2511 d73c ec26 9a3c
00000210: 3bf5 063d a389 08bb 6419 b93b 9748 7b3c
00000220: f9e8 f2bb b580 a6bb 00a9 72bb cde7 513b
00000230: aee4 f53b 9cef d03c aeaf 803c 8b22 c83c
00000240: c75c 6fbb a5c9 513c e72e 2e3c 82ba 39ba
00000250: 5a75 a93c b87c df3b dc14 83bc acc2 48bc
00000260: 2fb7 be3c 293b 89bc 3f91 c9bb 5cdc 233c
00000270: d83e 8a3c 5a55 a63c 70ea d83c 93f0 aebc
00000280: 205d 9abb 74e3 b1bc 357e 163d d7dc 853c
00000290: cdc5 0cbc ed71 9e3b f49c 2bbc 8b74 32ba
000002a0: 6f23 03bc d40a f83b 8114 9fbb 0388 c3ba
000002b0: e80d 953c 592a 3b3c 9eb9 86bc 45ae a23c
000002c0: 9882 60bc 046f 71bc d364 aebb f676 d03c
000002d0: 8a14 1cba 7bf7 83bc b737 82bc 3396 b83a
000002e0: 4ac1 a33c e10c 6a3c f30a 753b c128 ea3c
000002f0: da0d 1ab8 a9b5 08bc d231 833c 5f9d 1a3c
00000300: b225 04bd a947 d93b 35dd 033d 9385 8b3c
00000310: 82bf 5cbc 463e 58bc 030c f53c db0c 18bc
00000320: dea8 a43c fdb5 55bc be0b 173d bb36 0b3d
00000330: 53df b63b 0374 10bd 693b 003c 6dcd 143b
00000340: fa7b c93c d501 52bc ec1f cd3b 7d66 f8ba
00000350: 3d96 ec3c 8001 03bd a278 cf3c 2e8a 263a
00000360: fb66 bab9 06c8 463c 6c9c e33c 8a7d 873b
00000370: 475d 1bbb 55c5 663c 4018 d3bc 433a 7fbc
00000380: aae4 83bb ef6f e23c 0eff c13c b917 aebc
00000390: 4d6b f3bb 120c e93c 9dac 843c ffdc ebbb
000003a0: 35c7 7fbc c666 d1bb f30a b63c bfa9 d93c
000003b0: 20b0 eabc da15 013d cb2c 3c3c 2e29 2abc
000003c0: f6fc 893c fb18 863c e057 18bc 422c fdba
000003d0: c70f 553b d450 8ebb f5dd 083d 9d50 77bc
000003e0: 6aac 86bc cd4c c63c 24b6 e6bb 42b1 db3c
000003f0: 0972 af3c b628 493a 90e1 cf3c 511d 80bc

action_model._discrete_distribution.branches.0.bias f4 [4]
-0.005177754 -0.017725741 0.023943048 -0.0072999913
00000000: 26aa a9bb 9335 91bc 3624 c43c c434 efbb
